scripts/cache/param2img0.pt (torch, 356448 bytes, 19 tensors)

main.0.weight f4 [12]
0	0x3f512279	0.81693226
1	0x3f52918b	0.8225333
2	0x3f53a65e	0.8267573
3	0x3f3356f7	0.7005457
4	0x3f8e5f4b	1.1122831
5	0x3f7e49bd	0.99331266
6	0x3f70631c	0.9390123
7	0x3f87a9f5	1.0598742
8	0x3f8b2d34	1.087317
9	0x3f980e4e	1.1879365
10	0x3f51168d	0.81675035
11	0x3f4a7a70	0.79093075

main.0.bias f4 [12]
0	0x3dc2a4ed	0.09504113
1	0xbe06e673	-0.13173847
2	0xbcf2c24f	-0.02963367
3	0xbe32f5c5	-0.17476566
4	0x3d39bb75	0.04534479
5	0xbd38db40	-0.045130968
6	0xbe227786	-0.15865907
7	0x3d051848	0.03249386
8	0x3e01abb5	0.12663157
9	0xbe2d8d2f	-0.16948389
10	0xbd019662	-0.031637557
11	0xbe5f2617	-0.21791874

main.0.running_mean f4 [12]
0	0xb7e124ce	-2.6839229e-05
1	0x37feabec	3.0359217e-05
2	0x3e4ccb67	0.19999467
3	0x3c268a78	0.010164849
4	0x3996c722	0.00028758595
5	0x3efcf075	0.49402204
6	0x3ca67458	0.020319149
7	0x399f7e08	0.00030420744
8	0x3efcee18	0.494004
9	0x3cf9beb6	0.030486446
10	0xb792b049	-1.7486645e-05
11	0x3e4cd0ca	0.20001522

main.0.running_var f4 [12]
0	0x35816511	9.640663e-07
1	0x3586ea4b	1.0051966e-06
2	0x3588c95e	1.0191395e-06
3	0x378db800	1.6894192e-05
4	0x3901fa50	0.00012395647
5	0x3db7dded	0.08977876
6	0x38869138	6.416667e-05
7	0x3901d499	0.00012381597
8	0x3db7d469	0.08976061
9	0x3915df6b	0.00014292977
10	0x3589592b	1.0233247e-06
11	0x35814d66	9.633775e-07

main.1.weight f4 [20, 12]
0	0x3b01ce5a	0.0019806833
1	0xbae494a5	-0.0017439319
2	0xbb90bc69	-0.0044169915
3	0x3c2f436e	0.010697229
4	0xbd8854b2	-0.06656779
5	0x3d692414	0.056919172
6	0x3d31f480	0.043446064
7	0xbe808f57	-0.2510936
8	0xbcbcc234	-0.023041822
9	0x3e1086a3	0.1411386
10	0xba68cf62	-0.0008881
11	0xbbbf4cc5	-0.005838009
12	0x3bd9694c	0.006634867
13	0xbc26ce55	-0.010181029
14	0x3c0a406b	0.00843821
15	0x3d6c604c	0.057709023
16	0xbebc099a	-0.36726075
17	0xbd30f8ed	-0.043206144
18	0xbd736609	-0.05942348
19	0x3d50c1b0	0.050965965
20	0xbe8828b7	-0.26593563
21	0x3e9e88e2	0.30963808
22	0x39a59321	0.00031580872
23	0xbb93e67f	-0.0045135613
24	0x3c18e1a3	0.00933114
25	0xbaa2364f	-0.0012375804
26	0x3b8ceedc	0.004300935
27	0x3df32b24	0.11873463
28	0x3e4036cd	0.18770905
29	0x3e69a68c	0.22817439
30	0x3e3dda36	0.18540272
31	0x3ce8879e	0.02838498
32	0x3d66a85c	0.056312904
33	0x3ec03240	0.37538338
34	0xbbd38a8a	-0.006455724
35	0xbaed88d9	-0.0018122449
36	0xbb842f64	-0.0040339697
37	0xbad3c15e	-0.001615565
38	0xbc247e47	-0.0100398725
39	0xbdaa7115	-0.0832235
40	0x3da2ec13	0.07955184
41	0x3e2bd8b2	0.16781881
42	0xbe2d1417	-0.16902195
43	0xbe34d88c	-0.17660731
44	0xbd6a6299	-0.057222936
45	0xbf1965cb	-0.5992095
46	0x3c1d4230	0.0095983
47	0xb96926b0	-0.00022235024
48	0x3b98f3c4	0.004667731
49	0x3ba72182	0.00510043
50	0x3a3b0f03	0.0007135721
51	0x3dc1fd53	0.09472146
52	0x3e9cfd17	0.30661842
53	0xbe1dac02	-0.15397647
54	0x3e4693c6	0.19392309
55	0x3e5ecf1e	0.21758696
56	0xbd8f04e6	-0.06983356
57	0x3d7911e1	0.060808066
58	0xbbc348cf	-0.005959607
59	0x3bd9e878	0.006650027
60	0xb9ed2714	-0.00045233278
61	0x3ac4fe3b	0.001502938
62	0xbc1a5096	-0.009418627
63	0xbce10719	-0.027469205
64	0xbe95c567	-0.2925217
65	0xbe8783dd	-0.2646779
66	0x3de1af6e	0.11019789
67	0xbeb8b143	-0.3607274
68	0x3dd2eadc	0.10298702
69	0xbd7572b1	-0.05992383
70	0x3b64b1a3	0.0034895919
71	0x3a45e8c2	0.0007549637
72	0x3c21b90b	0.009870778
73	0xbba93e8c	-0.005164927
74	0x3b0a0e20	0.0021065548
75	0x3e0c400c	0.13696307
76	0xbe8f0e48	-0.27940583
77	0xbd414f33	-0.04719467
78	0xbe230b28	-0.15922225
79	0xbe019634	-0.12654954
80	0xbe957e9f	-0.29198167
81	0x3dd0c573	0.101939104
82	0xbc324c4e	-0.01088245
83	0x3b63cae9	0.0034758395
84	0x3b68c87d	0.003551989
85	0x3b846f17	0.0040415633
86	0xbb4c119b	-0.0031138423
87	0xbcf272fd	-0.029595846
88	0xbe0ff193	-0.14056997
89	0x3dae948b	0.08524426
90	0xbdc1f24b	-0.09470042
91	0xbe83b182	-0.25721365
92	0xbc976c3d	-0.01848423
93	0x3ca8ab00	0.020589352
94	0xbb74ed04	-0.0037372718
95	0x3ac7eec3	0.0015253652
96	0x3b7ff0a0	0.0039053336
97	0xbb0aa89d	-0.002115763
98	0xbc31d6e2	-0.010854455
99	0xbcf37800	-0.029720306
100	0xbd6dd5d8	-0.058065265
101	0x3d45efeb	0.048324507
102	0x3d27fe38	0.041013926
103	0xbe6836d0	-0.2267716
104	0xbe2ebd10	-0.17064309
105	0xbe54f075	-0.20794852
106	0xbb5e9759	-0.0033964722
107	0x3b6b0e80	0.0035866797
108	0xb99c4246	-0.00029804016
109	0x3ba17822	0.004927651
110	0xbab690e0	-0.0013928674
111	0x3d34b41b	0.044117074
112	0x3ac283fa	0.0014840357
113	0x3dc04039	0.093872495
114	0x3e7042dc	0.23463005
115	0xbe2c084a	-0.16800037
116	0xbe87081a	-0.26373369
117	0x3e9aee51	0.30259946
118	0xb9eb992c	-0.00044936815
119	0x3bbb5475	0.005716855
120	0xbbdef2d5	-0.00680385
121	0xbc183eb5	-0.009292294
122	0xbadb5e99	-0.0016736566
123	0xbcc91a36	-0.024548631
124	0xbe5b82b7	-0.21436583
125	0xbe0a4a91	-0.13505007
126	0x3e2276f1	0.15865685
127	0xbdcac218	-0.09900302
128	0xbd9ac38f	-0.07556831
129	0x3d2691e4	0.040666476
130	0xb7143408	-8.833602e-06
131	0xbabb148f	-0.0014273095
132	0x399978ca	0.0002927243
133	0x3a2913ea	0.0006449806
134	0x3b4fa4b4	0.0031683864
135	0x3e049b39	0.12949838
136	0xbe8a5bb0	-0.27023077
137	0x3d40c56e	0.047063284
138	0x3c887c5d	0.016660864
139	0xbe01182a	-0.12606874
140	0x3e76f7d1	0.24117972
141	0x3e8b1333	0.27163085
142	0xbbfdb5c7	-0.007742617
143	0xbb804542	-0.003914506
144	0xbaa36d09	-0.0012468408
145	0x3b9abb9b	0.0047220713
146	0xbb00c28e	-0.0019647214
147	0x3cfa37d1	0.030544193
148	0xbe85f0c4	-0.26160252
149	0x3e02bcc5	0.12767322
150	0x3dcd3ac9	0.10020978
151	0xbe744199	-0.23853149
152	0xbe882484	-0.2659036
153	0xbdc1ca33	-0.094623946
154	0xb902c4f5	-0.00012471138
155	0xbbe69625	-0.0070369416
156	0x3b88ee36	0.0041787876
157	0xb9a2dc57	-0.00031063214
158	0x3b921019	0.0044574854
159	0xbd515564	-0.051106825
160	0x3db186dc	0.086683005
161	0x3e486562	0.19569924
162	0xbe7b8907	-0.2456399
163	0xbdfc34d4	-0.12314764
164	0xbdfdfdfc	-0.12401959
165	0xbe986fd1	-0.2977281
166	0x3c0989c7	0.008394665
167	0x3b7e3a21	0.0038791972
168	0x3b640334	0.0034791948
169	0xbba4c5a8	-0.0050284453
170	0xba19ddb4	-0.0005869523
171	0x3d3063e0	0.043064
172	0xbd7268b1	-0.059181873
173	0x3e001d20	0.1251111
174	0x3dc126dd	0.09431241
175	0xbe33716f	-0.1752374
176	0xbd73f7dc	-0.05956255
177	0x3e1b656c	0.15175408
178	0xb99ee316	-0.000303053
179	0xba0c230c	-0.00053457986
180	0xbb8e46ce	-0.0043419367
181	0x3bc9b0e8	0.006155122
182	0x3c235a4f	0.009970262
183	0xbe6142dd	-0.21998163
184	0xbe586f9a	-0.21136323
185	0x3e76defc	0.241085
186	0xbecdeaba	-0.40218145
187	0x3e27ae69	0.16375126
188	0xbd6fa129	-0.058503304
189	0xbe82d9b6	-0.25556725
190	0x3aedbf81	0.0018138738
191	0xba9798d9	-0.0011565938
192	0x39f8b8b1	0.00047439852
193	0xbab90de5	-0.0014118521
194	0x3994c78c	0.00028377434
195	0x3db67cb7	0.08910506
196	0xbe3f3562	-0.18672708
197	0xbe4901f2	-0.19629648
198	0x3d8625b7	0.06550162
199	0xbe0f91cc	-0.14020461
200	0x3dda0218	0.106449306
201	0x3e3db822	0.18527272
202	0xba78eeee	-0.00094960525
203	0xb9f3f36c	-0.00046529935
204	0xbabc719f	-0.0014377123
205	0x3bbf84db	0.005844695
206	0xbb947333	-0.0045303344
207	0x3e3703b3	0.17872505
208	0xbe96223e	-0.29323
209	0xbe54dd6a	-0.20787588
210	0x3e874cb3	0.26425704
211	0xbe74445a	-0.23854199
212	0x3e1424ef	0.14467214
213	0x3d986c8b	0.07442578
214	0xbb1d6ae1	-0.0024020004
215	0x3c11d9ed	0.008902055
216	0xbaa3d1cb	-0.0012498436
217	0x3a443ad3	0.0007485572
218	0x3831e88a	4.2416657e-05
219	0xbdcec5f6	-0.10096352
220	0x3ead2e3d	0.3382434
221	0x3d76d5c4	0.060262457
222	0x3db4db73	0.08830919
223	0x3eed7798	0.46380305
224	0x3bbec50a	0.0058218287
225	0xbb944c2d	-0.0045256824
226	0x3b0652ba	0.0020496086
227	0x3a85c68e	0.0010206269
228	0x3c3bf13c	0.011471089
229	0x3a0e6efb	0.00054334075
230	0xbabd39ff	-0.001443684
231	0xbdc695da	-0.09696551
232	0x3bbb094a	0.0057078945
233	0xbe8602ee	-0.2617411
234	0xbe7bcd15	-0.24589951
235	0xbe565ae5	-0.20933111
236	0xbe6f858c	-0.23390788
237	0xbe88c52c	-0.2671293
238	0x3b6cb553	0.003611882
239	0xbb1e0d58	-0.002411684

main.1.bias f4 [20]
0	0xbebf6726	-0.37383384
1	0xbdb7e7c4	-0.08979753
2	0x3e2f0955	0.17093404
3	0x3d588b32	0.052867122
4	0xbe115561	-0.14192726
5	0x3eba6e05	0.36412063
6	0xbe970e1f	-0.2950296
7	0x3dac062e	0.08399616
8	0x3f013e4e	0.50485694
9	0xbd485a46	-0.048914216
10	0xbecb2841	-0.3967915
11	0x3c889feb	0.016677817
12	0xbe53c55c	-0.20680755
13	0x3e8b6b9c	0.27230537
14	0xbeb74c66	-0.35800475
15	0xbe8265a4	-0.2546817
16	0xbf02457a	-0.5088726
17	0xbe001739	-0.12508859
18	0xbd92778f	-0.0715171
19	0xbe1444b1	-0.14479329

main.3.weight f4 [20]
0	0x3f627cc3	0.8847162
1	0x3f56e13a	0.8393742
2	0x3f81a9cc	1.0129943
3	0x3f89644b	1.0733732
4	0x3f8205f6	1.0158069
5	0x3f8369fd	1.026672
6	0x3f4cb942	0.7997018
7	0x3f6d833e	0.92778385
8	0x3f57bf0b	0.84275883
9	0x3f70aead	0.94016534
10	0x3f5af360	0.8552761
11	0x3f608546	0.8770336
12	0x3f656816	0.8961195
13	0x3f80a54b	1.0050443
14	0x3f54ee7a	0.83176386
15	0x3f6900e9	0.91017014
16	0x3f59f02a	0.85132086
17	0x3f5dec40	0.86688614
18	0x3f769a1a	0.9632889
19	0x3f6c8e27	0.9240441

main.3.bias f4 [20]
0	0xbd333bd7	-0.04375824
1	0xbe8413e5	-0.25796428
2	0xbe724166	-0.2365776
3	0xbd88fbec	-0.06688675
4	0xbe5c4e7d	-0.21514316
5	0x3dcdd2b3	0.10049953
6	0xbe68d639	-0.2273797
7	0x3e0c6a41	0.13712408
8	0x3e54d450	0.20784116
9	0xbddab5f9	-0.1067924
10	0xbbbaaf7f	-0.0056971903
11	0xbc2ed9f5	-0.010672082
12	0xbd3e3dc2	-0.046445616
13	0xbdc1c806	-0.094619796
14	0xbcfa4819	-0.030551957
15	0xbe08f4c9	-0.13374628
16	0xbe643e4b	-0.22289388
17	0x3ce60e7e	0.028083082
18	0xbe46a3e8	-0.19398463
19	0xbdf0dcd3	-0.11760869

main.3.running_mean f4 [20]
0	0xbd6edadb	-0.058314186
1	0x3daedc39	0.08538098
2	0x3e92a33c	0.28640163
3	0x3ed7bebf	0.42137715
4	0x3df765b2	0.12079944
5	0x3ef37f4c	0.47558057
6	0x3ae8d425	0.0017763419
7	0x3e4935de	0.19649455
8	0x3f03e89b	0.515268
9	0x3de9c118	0.11413783
10	0xbd6cc2d7	-0.057803
11	0x3e4725c8	0.19448006
12	0x3d30a1c9	0.04312304
13	0x3edf57e1	0.43621734
14	0xbd83a6bc	-0.064282864
15	0x3e481b68	0.19541705
16	0xbdafd261	-0.085850485
17	0x3df5d7d4	0.120040566
18	0x3e8970bc	0.26843822
19	0x3e60ee62	0.21965936

main.3.running_var f4 [20]
0	0x3c9ae790	0.018909246
1	0x3dd8b1d3	0.10580792
2	0x3e76331d	0.24042936
3	0x3ebe6be7	0.37191698
4	0x3e0a6c7d	0.13517947
5	0x3ea2862f	0.31743
6	0x3d84ab32	0.064779654
7	0x3dafbbef	0.08580767
8	0x3e095014	0.13409454
9	0x3dfc49a6	0.12318735
10	0x3ccc72a1	0.024957003
11	0x3e333e52	0.17504242
12	0x3d8ee5a6	0.06977396
13	0x3e64fc9d	0.2236199
14	0x3c85bef1	0.0163264
15	0x3e4716b2	0.19442251
16	0x3ccce716	0.025012534
17	0x3e27cfc2	0.16387847
18	0x3e8297fa	0.25506574
19	0x3e7c98b9	0.24667634

main.4.weight f4 [4096, 20]
0	0xbe0b5a03	-0.13608555
1	0xbb19e94d	-0.0023485005
2	0x3da7e9c5	0.08198885
3	0xbd4ea17a	-0.050446965
4	0xbcaa72d4	-0.020806707
5	0xbdaa2d07	-0.083093695
6	0x3d956ab3	0.07295742
7	0x3dacec81	0.08443547
8	0x3dc07851	0.093979485
9	0x3c150815	0.009096165
10	0xbd3bf72b	-0.045890015
11	0x3e2035af	0.15645479
12	0xbd13aaa1	-0.036051396
13	0xbde103e8	-0.10987073
14	0x3d648514	0.055790976
15	0x3e256782	0.16152766
16	0x3dd0791f	0.10179352
17	0x3db56829	0.088577576
18	0x3e1257ce	0.14291307
19	0x3e460aab	0.19340007
20	0x3e838359	0.25686148
21	0x3e1fbb98	0.15598905
22	0x3dbc4498	0.09192771
23	0x3de1ae27	0.11019545
24	0x3dd5dc11	0.10442365
25	0xbe211414	-0.15730315
26	0xbcf06f01	-0.029349806
27	0xbe4fd795	-0.20297082
28	0xbda30ae5	-0.07961062
29	0x3c852331	0.016252132
30	0xbe046b04	-0.12931448
31	0xbe4376a4	-0.19088227
32	0x3cc4b542	0.024012212
33	0x3db06aec	0.08614144
34	0x3afe200e	0.0019388215
35	0xbe2418a3	-0.16025023
36	0xbcdfea3a	-0.027333368
37	0x3db1ceac	0.08681998
38	0xbdcc9dbb	-0.09991022
39	0x39ca8800	0.0003862977
40	0x3dc23576	0.09482853
41	0xbdc2909d	-0.09500239
42	0x3dbff9e9	0.093738385
43	0x3d8ca83d	0.068680264
44	0x3e104f57	0.14092766
45	0x3d8d26ad	0.068921424
46	0x3d8ba862	0.06819226
47	0xbe965d7c	-0.29368198
48	0xbdbf1643	-0.09330418
49	0xbe31946c	-0.17341775
50	0x3e0744c0	0.1320982
51	0xbd85d61d	-0.065349795
52	0x3e0efbd3	0.13963251
53	0x3b53672a	0.0032257535
54	0xbdf97cff	-0.12182044
55	0xbe047cf7	-0.12938295
56	0x3e3a102a	0.18170229
57	0xbe1f1f8f	-0.15539382
58	0x3d8a32cf	0.06747972
59	0x3b0d421d	0.00215543
60	0xbd38738d	-0.045032073
61	0x3cdb3437	0.026758296
62	0xbdc8980f	-0.09794628
63	0x3d0d8d48	0.034558564
64	0x3e03bd73	0.12865238
65	0xbd995e64	-0.07488707
66	0x3c65c297	0.014023445
67	0xbc8d857c	-0.017275564
68	0x3dbf7d56	0.09350078
69	0x3d2eeea9	0.042708073
70	0xbdd24abe	-0.10268162
71	0xbe001fc7	-0.12512122
72	0xbe1590d7	-0.14606033
73	0xbdf60f5e	-0.1201465
74	0x3d6ba287	0.057528045
75	0x3cae9b7e	0.021314379
76	0x3de0d4d4	0.10978094
77	0xbd89e61f	-0.06733345
78	0x3e197f3a	0.1498994
79	0x3e009773	0.12557773
80	0x3d9a0d80	0.07522106
81	0x3e0d0a52	0.13773468
82	0xbe1e00e7	-0.15430032
83	0xbdce370c	-0.10069093
84	0xbd8d31ca	-0.06894262
85	0xbd830177	-0.06396764
86	0xbdb17ef4	-0.086667925
87	0x3d81d2bf	0.06339025
88	0x3dec1ccf	0.11528932
89	0xbc79a824	-0.015237842
90	0xbdbe2c8f	-0.092858426
91	0x3df8ce7e	0.1214876
92	0x3d66c982	0.056344517
93	0xbcd28e1c	-0.025702529
94	0xbcd1091d	-0.02551704
95	0x3bc2fc3b	0.0059504784
96	0x3e2e0547	0.169942
97	0x3c9aea7d	0.01891064
98	0x3de3c825	0.11122159
99	0xbdd2f252	-0.10300125
100	0xbc28eb69	-0.010310032
101	0xbd29a1c3	-0.041414034
102	0x3cea4193	0.028595721
103	0xbd0c4627	-0.03424659
104	0xbde2abdc	-0.11067936
105	0x3e3a2b86	0.18180665
106	0x3d37be1e	0.044859044
107	0x3decd6f2	0.11564435
108	0xbd61c9b2	-0.055123992
109	0x3ddde505	0.10834698
110	0x3d970234	0.07373467
111	0xbd90e2bd	-0.07074497
112	0xbd9b42fd	-0.075811364
113	0xbdc4fefd	-0.09618948
114	0x3e04b67f	0.12960242
115	0x3e4582e1	0.19288208
116	0xbe212f47	-0.15740691
117	0xbe855758	-0.260432
118	0xbd7f4c70	-0.062328756
119	0xbdba2c1d	-0.09090445
120	0xbde42c7b	-0.111412965
121	0x3e676993	0.22598867
122	0x3e174b72	0.14774874
123	0x3cbad2fb	0.022805681
124	0x3d3b4dc2	0.045728453
125	0x3d061807	0.032737758
126	0xbe04d00e	-0.12969992
127	0xbe2a2f59	-0.16619624
128	0x3e0e3e0b	0.13890855
129	0x3b0f0750	0.0021824427
130	0x3da2bf0d	0.07946596
131	0x3e1cb243	0.15302376
132	0x3dcb9e1b	0.099422656
133	0x3d8b5237	0.068027906
134	0xbae7ae38	-0.0017675823
135	0xbcf6daeb	-0.030133685
136	0xbe0b9eb9	-0.13634767
137	0x3cc0e11f	0.023544846
138	0x3e1ebffc	0.15502924
139	0x3e44c1f1	0.19214608
140	0xbe47d017	-0.19512974
141	0x3e1801ff	0.14844511
142	0x3e219ec9	0.15783228
143	0x3e0cbaca	0.1374313
144	0xbd8b80bf	-0.06811666
145	0x3cbc41ae	0.022980537
146	0x3d9266a3	0.07148483
147	0xbe80792c	-0.25092447
148	0x3da1cad6	0.07900016
149	0x3db007d1	0.08595241
150	0xbd6ffe27	-0.058591988
151	0x3d46830b	0.048464816
152	0x3e09ce7e	0.13457677
153	0x3e29f3ec	0.16596955
154	0x3d526322	0.05136407
155	0xbd62b984	-0.055352703
156	0xbd20bce3	-0.039242636
157	0xbc8294f7	-0.015940173
158	0x3dd1803b	0.10229536
159	0xbdf51a42	-0.11967899
160	0xbe4d3c5b	-0.20042555
161	0xbd4b1437	-0.049579825
162	0x3ca2b452	0.019861374
163	0xbdc834c3	-0.097756885
164	0xbe0329f1	-0.12808968
165	0xbe59cca8	-0.21269476
166	0x3e0c8157	0.13721214
167	0x3bab698c	0.005231088
168	0x3caa24b0	0.020769447
169	0xbcd520c6	-0.026016604
170	0x3e16c1eb	0.14722411
171	0xbd872e36	-0.06600611
172	0x3df223ca	0.118232325
173	0x3dd0c9e7	0.1019476
174	0xbd838b73	-0.06423082
175	0xbe0bbf0d	-0.13647099
176	0x3df81743	0.12113812
177	0xbe5ad583	-0.21370511
178	0x3d3fa450	0.04678756
179	0xbd83fffe	-0.06445311
180	0x3e17f09a	0.14837876
181	0x3d8cb225	0.06869916
182	0x3d1f4914	0.038888052
183	0xbc83784e	-0.016048577
184	0xbe4e0b62	-0.2012153
185	0xbe477bdf	-0.19480847
186	0xbd6025c0	-0.0547235
187	0x3d8d9cb5	0.06914655
188	0x3e0bd6bb	0.13656132
189	0x3db4ee66	0.088345334
190	0xbe4cf129	-0.2001387
191	0xbe357a94	-0.17722541
192	0x3dbaf68b	0.091290556
193	0xbdc40a56	-0.09572284
194	0xbe781c01	-0.24229433
195	0xbc90bf48	-0.017669335
196	0x3d5a253b	0.053258162
197	0x3e265174	0.1624201
198	0xbe42d701	-0.1902733
199	0xb9f30479	-0.00046351904
200	0x3dedefde	0.11618017
201	0xbe3fbdf7	-0.1872481
202	0xbe1e7d10	-0.15477395
203	0xbb1e56db	-0.0024160657
204	0xbd26d52b	-0.040730637
205	0x3c445b3f	0.011984645
206	0x3d46d725	0.04854502
207	0x3c6cf444	0.014462534
208	0xbe245b32	-0.16050413
209	0x3aa39eb2	0.0012483208
210	0xbe1fb18f	-0.15595077
211	0x3d963b30	0.07335508
212	0xbd29773e	-0.041373484
213	0xbc2e2e45	-0.010631149
214	0xbe4c2332	-0.19935301
215	0x3e000b39	0.12504281
216	0x3e28ee13	0.16497068
217	0xbe22f083	-0.1591206
218	0x3d1d9edb	0.038481575
219	0x3daa9f71	0.08331192
220	0x3db6e226	0.08929853
221	0xbe02d25d	-0.1277556
222	0xbd22fc4b	-0.039791387
223	0x3daedc59	0.08538122
224	0x3c59e8a5	0.013300096
225	0x3af9252d	0.0019008272
226	0x3c8bad3d	0.01705038
227	0xbdb38389	-0.08765323
228	0x3e0cb9c6	0.13742742
229	0xbe104933	-0.14090423
230	0x3c3acd11	0.011401431
231	0xbe105370	-0.14094329
232	0x3d6db5f6	0.05803486
233	0xbe35e181	-0.17761804
234	0x3e44ddb2	0.19225195
235	0xbcfba23b	-0.030717006
236	0x3e29ed1c	0.16594356
237	0xbd3a36eb	-0.04546253
238	0x3a87d6e9	0.0010363731
239	0xbdc27fa6	-0.09497003
240	0x3dacffa3	0.08447196
241	0x3deb4de3	0.11489465
242	0x3e75f713	0.24020033
243	0x3e11690e	0.14200231
244	0x3bac331e	0.005255117
245	0xbe92f93b	-0.28705773
246	0x3e1f4229	0.15552582
247	0x3df0abe7	0.11751538
248	0x3dd27926	0.102770135
249	0x3e25c2e2	0.16187623
250	0x3d9b5a6f	0.07585608
251	0xbdf70c08	-0.12062842
252	0xbe690020	-0.22753954
253	0x3d094c51	0.033520047
254	0xbda39707	-0.079877906
255	0x3c21e9ab	0.009882371

main.4.bias f4 [4096]
0	0x3d22e243	0.03976656
1	0x3e028a98	0.12748182
2	0xbc39becb	-0.0113369925
3	0x3e01c9ff	0.12674712
4	0xbe8ed074	-0.27893412
5	0x3d97b291	0.07407106
6	0xbddc558b	-0.107585035
7	0xbe79eece	-0.24407503
8	0xbca6d554	-0.020365395
9	0x3dcb3501	0.09922219
10	0xbc871127	-0.016487671
11	0xbd7d3d1a	-0.06182585
12	0xbe1f3d57	-0.15550743
13	0x3d3e3905	0.046441097
14	0xbe16dd6c	-0.14732903
15	0xbd100093	-0.035156798
16	0xbd92e962	-0.071734205
17	0x3d8d5a6a	0.06902011
18	0xbe4f5ca9	-0.20250191
19	0xbe323504	-0.17403036
20	0xbde481f5	-0.111576
21	0x3e0c3675	0.13692649
22	0xbc14d11a	-0.009083057
23	0xbe19279f	-0.1495652
24	0xbd210522	-0.039311536
25	0xbe4f6401	-0.20252992
26	0xbe21a124	-0.15784127
27	0x3d984a23	0.074360155
28	0xbe3746d7	-0.17898117
29	0x3d80ca4b	0.06288584
30	0xbe4f556c	-0.2024743
31	0x3d28bc6c	0.041195318
32	0xbc7790ee	-0.0151102375
33	0x3da72922	0.08162142
34	0xbe0c1320	-0.1367917
35	0xbe55fb3b	-0.20896618
36	0x3aa646df	0.0012685916
37	0x3e3c6ae6	0.18400154
38	0xbdd01896	-0.101609394
39	0x3ce60186	0.028076898
40	0xbc09f219	-0.008419537
41	0xbe122a0a	-0.14273849
42	0x3dc6d692	0.09708895
43	0xbb3e020a	-0.0028992915
44	0xbe06bdee	-0.1315839
45	0xbe284ac9	-0.16434778
46	0xbe6e29f5	-0.23258193
47	0xbe2c68c0	-0.16836834
48	0x3da469ac	0.08027968
49	0xbde7c96b	-0.11317714
50	0xbe5a421d	-0.21314283
51	0xbe721893	-0.23642187
52	0x3c8a7c1b	0.016904881
53	0xbd9d2ad0	-0.076741815
54	0x3daf30ec	0.08554253
55	0xbe643612	-0.22286251
56	0x3dbc13e2	0.0918348
57	0xbe019600	-0.12654877
58	0x3e21da58	0.15805948
59	0xbe7d2cf7	-0.24724184
60	0xbe8cc46f	-0.27493617
61	0x3cd7ebc2	0.026357535
62	0x3e6a739a	0.22895661
63	0x3d1f7371	0.038928453
64	0x3d9f3e3d	0.07775543
65	0x3e5a4cc7	0.2131835
66	0x3e3c06d0	0.18361974
67	0x3e62d048	0.22149765
68	0xbe75af84	-0.23992735
69	0xbe2589f0	-0.161659
70	0xbd9b6dbe	-0.07589291
71	0xbcf9a2c3	-0.030473119
72	0x3e66436f	0.22486661
73	0x3e207efb	0.15673439
74	0x3cc97d5c	0.024595909
75	0x3af7142d	0.0018850617
76	0xbd944ddc	-0.07241413
77	0xbdf1afb5	-0.118010916
78	0xbdc308c5	-0.09523157
79	0x3d8702c2	0.06592323
80	0xbe3349ed	-0.17508669
81	0x3e426372	0.18983248
82	0x3e159ae0	0.14609861
83	0x3cd012b4	0.025399543
84	0x3d5dcf95	0.054153044
85	0x3e26df96	0.16296229
86	0xbe24ea8c	-0.16105098
87	0xbe1fed43	-0.15617852
88	0xbd344140	-0.04400754
89	0x3cdda279	0.027055012
90	0xbc8fc075	-0.017547825
91	0xbdaf9338	-0.085730016
92	0xbe53a22c	-0.20667332
93	0x3dc382ed	0.095464565
94	0x3d868997	0.06569212
95	0xbe11f2ce	-0.14252779
96	0xbdfc3eb5	-0.12316648
97	0x3e2931c5	0.16522892
98	0xbe2b3f5e	-0.16723391
99	0x3e24aca1	0.16081478
100	0x3e46b366	0.19404373
101	0xbd1b31ec	-0.037889406
102	0x3ced808c	0.02899196
103	0xbe37d193	-0.1795104
104	0xbd968748	-0.073500216
105	0x3e2d7747	0.16940032
106	0xbe20ba06	-0.15695962
107	0x3e731866	0.23739776
108	0xbe311dfe	-0.17296597
109	0x3e036903	0.12833028
110	0x3d235ef6	0.039885484
111	0xbb32a9c1	-0.0027261826
112	0x3df5a22d	0.11993823
113	0x3e0c31c5	0.1369086
114	0xbdcd8cb5	-0.10036603
115	0x3dce55c1	0.1007495
116	0xbd49236d	-0.04910605
117	0x3e1c57e9	0.1526791
118	0x3df03b57	0.11730068
119	0xbe2e09b7	-0.16995893
120	0x3d032468	0.03201714
121	0x3e399967	0.18124925
122	0xbd9aa33b	-0.07550665
123	0x3dfa8a60	0.12233424
124	0x3df30e5c	0.11867973
125	0x3e3e4f0e	0.18584844
126	0x3d39b5ff	0.04533958
127	0x3e3834cc	0.1798889
128	0xbe12517a	-0.14288893
129	0xbe9406a2	-0.2891131
130	0x3d8cc502	0.06873514
131	0xbdcc0392	-0.099616185
132	0x3dbafa36	0.09129755
133	0x3da470a8	0.080293
134	0xbe133500	-0.14375687
135	0x3cdf1098	0.027229592
136	0xbe4feddc	-0.2030558
137	0x3d1d4ddc	0.03840433
138	0xbc479f33	-0.012183952
139	0xbdda9054	-0.1067206
140	0xbdf335af	-0.11875474
141	0xbd96c351	-0.073614724
142	0xbbe6099f	-0.00702019
143	0xbe379999	-0.17929687
144	0x3d95a072	0.07305993
145	0xbe86b2d6	-0.26308316
146	0xbe315b70	-0.17320037
147	0x3defc16e	0.11706816
148	0x3d0f748e	0.035023265
149	0xbe1f1206	-0.15534219
150	0x3cb5eca0	0.022207558
151	0xbc20a043	-0.009803834
152	0xbe1a28c3	-0.15054612
153	0x3db5010f	0.088380925
154	0xbe11c268	-0.14234316
155	0x3deba5e2	0.11506249
156	0xbda83510	-0.08213246
157	0xbe86bebf	-0.26317403
158	0xbe1e53c9	-0.15461649
159	0x3e14dea8	0.14538062
160	0x3de6cdff	0.112697594
161	0xbdc16287	-0.09442621
162	0xbd57cbbc	-0.05268453
163	0xbe074be7	-0.13212548
164	0xbe5f0375	-0.21778663
165	0x3e0d393c	0.13791364
166	0x3e14d7c6	0.14535436
167	0xbdb8bbfc	-0.0902023
168	0xbe286ebd	-0.16448493
169	0xbe7ed973	-0.24887638
170	0xbdd2fc92	-0.1030208
171	0xbdd580cd	-0.104249574
172	0xbdd78391	-0.10523141
173	0x3ddf53f7	0.10904687
174	0x3c9abcc8	0.018888846
175	0x3dd1d942	0.10246517
176	0xbe7c2a90	-0.24625611
177	0x3d2012e0	0.0390805
178	0x3e09ebae	0.13468811
179	0xbe10bd27	-0.14134656
180	0x3de80fd8	0.11331147
181	0x3da457df	0.080245726
182	0xbe4cce7b	-0.20000641
183	0x3bec4f59	0.0072116074
184	0x3dfff69a	0.124982074
185	0x3de6fa72	0.112782374
186	0xbe3e31fc	-0.18573755
187	0xbc063238	-0.008190684
188	0xbe728175	-0.23682196
189	0x3cc6bdf5	0.0242605
190	0x3e0869a9	0.13321556
191	0xbdaacf0a	-0.08340271
192	0xbeca7269	-0.39540413
193	0xbe07d832	-0.13266066
194	0xbc6faa8f	-0.014628067
195	0x3e155b83	0.1458569
196	0x3db073b1	0.086158164
197	0xbe493667	-0.19649659
198	0x3de7451e	0.1129248
199	0xbdd599fb	-0.1042976
200	0xbe34a3a3	-0.17640547
201	0xbe48f228	-0.19623625
202	0x3d8a4afa	0.06752582
203	0xbe2c9f00	-0.16857529
204	0x3e3e4dde	0.18584391
205	0x3d875858	0.06608647
206	0x3e4888a6	0.19583377
207	0xbd8d58c0	-0.06901693
208	0x3e05a1ce	0.13050005
209	0x3da43b86	0.08019166
210	0xbe6b8bda	-0.23002568
211	0x3d41874f	0.04724818
212	0xbe81fee6	-0.25389785
213	0x3c295111	0.010334269
214	0x3e0647f2	0.13113382
215	0xbd90f78c	-0.07078466
216	0x3d8c46b4	0.06849423
217	0xbddeaab4	-0.10872403
218	0xbe5155ad	-0.20442839
219	0xbdb35f65	-0.087584294
220	0xbe434c05	-0.19071968
221	0xbda0fac1	-0.078603275
222	0x3c1acdf9	0.009448522
223	0x3e266027	0.16247617
224	0x3d88a102	0.06671335
225	0x3d38ba39	0.04509947
226	0x3dbb3829	0.09141571
227	0xbdad0103	-0.084474586
228	0xbdf09617	-0.11747377
229	0xbe7fd1fe	-0.2498245
230	0x3e2ea79a	0.17056122
231	0x3d1a82a9	0.037722263
232	0xbd185099	-0.03718624
233	0x3da0e63b	0.07856413
234	0x3df5e376	0.12006275
235	0x3e400b40	0.18754292
236	0xbdacc7a7	-0.08436518
237	0xbdcb16f0	-0.09916484
238	0x3d0b22c1	0.03396869
239	0x3d9c7a6d	0.07640538
240	0xbe54037d	-0.20704456
241	0xbe0cd485	-0.13752945
242	0xbe678aae	-0.22611496
243	0xbe1ceb49	-0.15324129
244	0x3dcfc007	0.10144048
245	0x3d6992eb	0.057024878
246	0xbe67e8fa	-0.22647467
247	0xbd768b4a	-0.06019143
248	0xbe2de9fb	-0.16983788
249	0xbe04cf82	-0.12969783
250	0xbe53db09	-0.20689024
251	0xbdb1d337	-0.08682864
252	0xbe65ffc8	-0.22460854
253	0xbe4c010c	-0.19922274
254	0xbe388694	-0.18020087
255	0x3d52617c	0.0513625

conv.0.weight f4 [20, 1, 5, 5]
0	0xbd642f54	-0.055709198
1	0xbd8ccae5	-0.068746366
2	0xbd81f644	-0.063457996
3	0xbe89cb06	-0.26912707
4	0xbda262b8	-0.07928985
5	0xbe533a8d	-0.20627804
6	0xbcf74425	-0.030183861
7	0xbe048bc4	-0.12943941
8	0xbdab742f	-0.0837177
9	0xbd92860c	-0.07154474
10	0x3cca7a14	0.024716415
11	0x3d821d6f	0.0635327
12	0x3c0807c8	0.008302636
13	0x3dce068b	0.10059842
14	0x3d831e34	0.06402245
15	0x3df1c333	0.118048094
16	0x3dc4d089	0.096100874
17	0x3dc125ca	0.09431036
18	0x3dff4eed	0.12466226
19	0x3c8b6dc5	0.017020116
20	0xbb3ca389	-0.0028783998
21	0x3d619e19	0.055082414
22	0xbd9d3abd	-0.07677219
23	0xbdc91cbf	-0.09819936
24	0xbc6fbc05	-0.01463223
25	0xbe27ca43	-0.1638575
26	0xbd4b31f2	-0.04960818
27	0x3cda75af	0.026667444
28	0xbdf7f897	-0.121079616
29	0x3c798fcb	0.015232037
30	0x3da90aca	0.08254011
31	0xbeb795cf	-0.35856482
32	0xbd9f3433	-0.07773628
33	0xbd928d90	-0.07155907
34	0xbd8acb13	-0.067770146
35	0xbea14710	-0.3149953
36	0xbe0d094e	-0.1377308
37	0xbdd37bb5	-0.103263296
38	0xbe1fd18c	-0.1560728
39	0x3deffb9e	0.11717914
40	0xbd686953	-0.05674107
41	0x3caac9ad	0.02084812
42	0xbdc847c1	-0.09779311
43	0xbca3ed6a	-0.020010669
44	0xbd00b7ed	-0.031425405
45	0xbc4d41a6	-0.012527859
46	0xbd656976	-0.05600878
47	0x3d6200a1	0.05517638
48	0x3bde2437	0.0067792195
49	0xbe193e8d	-0.14965267
50	0x3d3f55d4	0.04671271
51	0x3d52372c	0.051322147
52	0x3b9d6a60	0.0048039407
53	0x3d2240a8	0.039612442
54	0x3d8c7d25	0.06859807
55	0x3bf1c15f	0.007377788
56	0x3ce06839	0.027393447
57	0xbd826cfc	-0.06368443
58	0x3c5b8101	0.013397456
59	0xbcf251d7	-0.02958004
60	0xbdd7c2fe	-0.10535239
61	0x3c141acc	0.009039592
62	0xbcdf2712	-0.02724031
63	0x3cfea491	0.03108433
64	0xbd9b8111	-0.07592977
65	0x3d14713a	0.036240794
66	0x3d341a21	0.04397023
67	0xbd2f7d94	-0.04284437
68	0x3c0a38ab	0.008436362
69	0x3c54a51f	0.012978821
70	0xbd85b474	-0.06528559
71	0x3c099970	0.008398399
72	0xbd2430fa	-0.04008577
73	0x3c1c694f	0.009546592
74	0xbd54e267	-0.051973727
75	0xbdd46969	-0.10371668
76	0x3dfc1d4b	0.12310275
77	0xbd887065	-0.066620626
78	0xbdb29f2f	-0.08721768
79	0x3dd930f1	0.10605038
80	0x3e8825c5	0.26591316
81	0xbd80b350	-0.06284201
82	0x3e1d04e8	0.15333903
83	0x3e7663ef	0.24061559
84	0x3dbf31de	0.09335683
85	0xbd8dffa7	-0.069335274
86	0x3df66330	0.12030637
87	0xbe43bf8d	-0.1911604
88	0x3dcc6a56	0.099812195
89	0xbd5d77f7	-0.054069486
90	0xbd132be3	-0.035930526
91	0x3c955856	0.018230598
92	0x3df14ee1	0.11782623
93	0x3e194f0c	0.1497156
94	0xbd9bf10e	-0.07614337
95	0x3ce2da7b	0.02769207
96	0x3e4e8d4a	0.20171085
97	0xbd866944	-0.065630466
98	0xbd9524b9	-0.07282395
99	0x3ca1af35	0.019736866
100	0xbea895dc	-0.32926834
101	0x3de52b02	0.11189844
102	0xbe6520e7	-0.22375832
103	0xbdee539d	-0.11637042
104	0x3cb4e1ec	0.022080384
105	0xbe24144b	-0.16023366
106	0xbcebf1ca	-0.028801817
107	0xbdbd440a	-0.09241493
108	0xbd8a260a	-0.067455366
109	0x3d4cf4b8	0.05003807
110	0x3c6682db	0.014069284
111	0xbc556491	-0.013024465
112	0xbd50e524	-0.050999776
113	0x3c43dfd3	0.011955219
114	0xbcacecce	-0.021109011
115	0x3d07dc83	0.03316928
116	0xbe1c2fdd	-0.15252633
117	0xbda8af6f	-0.08236586
118	0x3d5e5f63	0.054290187
119	0x3d11df73	0.03561349
120	0xbe22f400	-0.15913391
121	0xbd6fcc7c	-0.05854462
122	0x3da23079	0.07919402
123	0x3d99e73a	0.07514806
124	0xbde6f22b	-0.112766586
125	0x3d81a260	0.06329799
126	0x3e220884	0.15823561
127	0x3e4880b3	0.19580345
128	0x3e442fbd	0.19158836
129	0x3d7ebe3f	0.06219315
130	0x3e046018	0.12927282
131	0x3d43a54f	0.047765072
132	0x3cf221d7	0.029557152
133	0x3cc96dbd	0.02458846
134	0x3dd27bb9	0.102775045
135	0xbe307c5d	-0.17234941
136	0xbdb674f6	-0.08909027
137	0xbe194fc0	-0.14971828
138	0xbde1c517	-0.1102392
139	0xbe2fe862	-0.17178491
140	0xbd8b77e4	-0.06809977
141	0xbd9e0a4b	-0.07716807
142	0x3c5c98cf	0.013464167
143	0xbd965c81	-0.073418625
144	0xbd49f20f	-0.04930311
145	0x3d8a9a8e	0.0676776
146	0xbd032459	-0.032017086
147	0x3d45d756	0.048301063
148	0x3d6deb42	0.058085687
149	0x3db526f3	0.088453196
150	0x3c793f11	0.01521279
151	0xbc478960	-0.012178749
152	0xbd2d5358	-0.04231581
153	0xbe0e9d32	-0.13927153
154	0x3d249853	0.04018433
155	0xbe715c8c	-0.2357046
156	0xbdd728a3	-0.10505798
157	0xbe77692b	-0.24161212
158	0xbe3a2167	-0.18176804
159	0xbd81a292	-0.06329836
160	0x3d59ec43	0.053203832
161	0xbe120dec	-0.14263123
162	0xbd583506	-0.052784942
163	0x3dc43b6c	0.09581646
164	0xbcf5f847	-0.030025614
165	0xbe8475ed	-0.2587122
166	0xbe3be024	-0.18347222
167	0xbe4140ca	-0.18872371
168	0xbdc73262	-0.09726407
169	0xbdee0c28	-0.11623412
170	0xbde0504a	-0.10952814
171	0x3da65979	0.08122534
172	0xbca77d99	-0.020445632
173	0x3da1645e	0.07880472
174	0x3e358406	0.17726144
175	0x3e137ca3	0.14403014
176	0x3db690f3	0.089143656
177	0x3d9e51f1	0.07730473
178	0x3ce71ee4	0.028212972
179	0x3e17cd1a	0.14824334
180	0x3d42e367	0.04758015
181	0x3d4f994a	0.050683297
182	0x3d6cdd74	0.05782838
183	0x3dee5ec4	0.11639169
184	0x3db58f87	0.08865266
185	0x3d98c29f	0.07458996
186	0x3daa4955	0.08314768
187	0xbd832182	-0.064028755
188	0xbd0b9c31	-0.034084503
189	0x3d6ad31d	0.05733024
190	0x3d0437f5	0.032279927
191	0xbd0442ee	-0.03229039
192	0xbd3cbd25	-0.04607882
193	0xbb000a9b	-0.0019537571
194	0xbc451416	-0.012028715
195	0xbca5eead	-0.020255411
196	0xbdc7c168	-0.09753686
197	0xbbed1dce	-0.007236219
198	0xbd8ab59c	-0.067729205
199	0xbdf12ed2	-0.117765084
200	0x3cff50c9	0.031166451
201	0x3dd4c73f	0.10389566
202	0xbde7bc44	-0.11315206
203	0x3d62e263	0.05539168
204	0x3dbdb994	0.09263912
205	0x3d727dc8	0.059201986
206	0x3d1936bb	0.03740571
207	0xbe173bed	-0.14768954
208	0x3ddda773	0.10822954
209	0xbd8c7d15	-0.06859795
210	0xb9905e06	-0.00027535873
211	0xbc88f2bf	-0.016717313
212	0x3ddc3f7a	0.10754295
213	0xbdc10e9a	-0.09426613
214	0xbc9e470c	-0.019320987
215	0xbdbf13ef	-0.09329974
216	0xbd382a7c	-0.04496239
217	0xbcf7fb39	-0.03027116
218	0xbc2bf3f0	-0.010495171
219	0x3b346d8b	0.0027531113
220	0x3d2bc19f	0.0419327
221	0x3cb6eb34	0.02232895
222	0xbd0a9afb	-0.033839207
223	0x3c11cfab	0.00889961
224	0x3c3797b0	0.011205599
225	0xbdb92573	-0.09040346
226	0xbdab7a53	-0.08372941
227	0x3e6ec548	0.23317444
228	0xbda0808f	-0.078370206
229	0x3dfa8c87	0.12233835
230	0x3dfc96f1	0.12333477
231	0xbdca90c4	-0.09890893
232	0x3de44983	0.11146834
233	0x3c995654	0.018717922
234	0x3d459eaf	0.048247036
235	0xbd867e73	-0.06567087
236	0x3da1087b	0.07862946
237	0x3df97f58	0.12182492
238	0xbe24b182	-0.16083339
239	0x3e56b5e0	0.20967817
240	0x3dac5deb	0.08416351
241	0x3d0d0a54	0.034433678
242	0x3e47d806	0.19516
243	0xbdb0c316	-0.0863096
244	0xbd84c62c	-0.06483111
245	0xbdbd8974	-0.09254733
246	0xbdb32074	-0.08746424
247	0x3cb7fc2c	0.022459112
248	0x3d8af6fa	0.06785388
249	0x3de466cf	0.11152422
250	0x3e9e571e	0.3092584
251	0x3e29a3c4	0.16566378
252	0x3b80b121	0.0039273654
253	0x3e1d0ccf	0.15336917
254	0x3e17f45e	0.14839312
255	0xbd81f17f	-0.0634489

conv.0.bias f4 [20]
0	0x3e1bc901	0.15213396
1	0xbe2b3f54	-0.16723377
2	0xbe9e7dd1	-0.30955365
3	0xbe3f4f3d	-0.18682571
4	0xbe3da3bc	-0.18519491
5	0xbe86a6e0	-0.2629919
6	0x3e01a88a	0.12661949
7	0xbe8c42e9	-0.27394798
8	0xbe8ed469	-0.2789643
9	0xbe7bf3f3	-0.24604778
10	0xbd896ed9	-0.06710596
11	0xbb9976b3	-0.0046833395
12	0xbe8babd2	-0.27279526
13	0xbd05e218	-0.032686323
14	0x3e5baf18	0.21453512
15	0x3df00b4f	0.11720907
16	0xbe9f0828	-0.3106091
17	0x3de93a8b	0.11388119
18	0xbde08037	-0.10961955
19	0xbdcbc13d	-0.09948967

conv.2.weight f4 [20]
0	0x3f9abdad	1.2089134
1	0x3f86308a	1.0483563
2	0x3f8af8f8	1.0857229
3	0x3f86b399	1.0523559
4	0x3f85d5a6	1.0455825
5	0x3fbb0641	1.4611284
6	0x3f92a407	1.1456307
7	0x3f893303	1.0718693
8	0x3f8cbbc5	1.0994803
9	0x3f89bf81	1.0761567
10	0x3f8af0b6	1.0854709
11	0x3f858514	1.0431237
12	0x3f8cbaf5	1.0994555
13	0x3f8e7324	1.1128888
14	0x3f88fd46	1.0702293
15	0x3f93020f	1.1485003
16	0x3f8e715d	1.1128346
17	0x3f83d7d2	1.0300238
18	0x3f9aaa30	1.2083187
19	0x3f86c4d7	1.0528821

conv.2.bias f4 [20]
0	0x3e348f5f	0.17632817
1	0x3e195cfa	0.14976874
2	0xbe001700	-0.12508774
3	0xbe0a64cc	-0.13515013
4	0x3e3c7861	0.18405296
5	0x3e175a09	0.1478044
6	0xbe207a9c	-0.15671772
7	0x3ddb0c3e	0.106956944
8	0xbe0c8fe9	-0.13726772
9	0xbe15a6b2	-0.1461437
10	0xbe17ff53	-0.14843492
11	0x3e80d581	0.2516289
12	0x3e20e5f5	0.15712722
13	0xbe1bb9dc	-0.15207618
14	0x3e05639c	0.13026279
15	0xbe09a55b	-0.13441984
16	0x3e1f637d	0.15565296
17	0x3e1c7e67	0.15282594
18	0x3e0bb7dc	0.13644356
19	0xbe02b875	-0.12765677

conv.2.running_mean f4 [20]
0	0x3deeccd4	0.116601616
1	0xbd9f4bfe	-0.07778166
2	0xbd843f92	-0.064574376
3	0x3cda8abb	0.02667748
4	0xbd87f14a	-0.06637819
5	0xbd22b603	-0.03972436
6	0x3c6abab0	0.014326736
7	0xbcf80bbd	-0.030279035
8	0xbd61587a	-0.05501602
9	0xbbd1b838	-0.0064001344
10	0x3df74f82	0.12075712
11	0x3e0561e4	0.13025624
12	0xbcf53473	-0.029932236
13	0x3dcbf08d	0.09957991
14	0x3e48d56c	0.19612664
15	0x3a81508e	0.0009865926
16	0xbd10d89f	-0.035362836
17	0x3e248575	0.16066535
18	0xbc96753b	-0.018366447
19	0x3ddbac06	0.1072617

conv.2.running_var f4 [20]
0	0x3c49e7ad	0.012323302
1	0x3b944524	0.004524844
2	0x3983dcb6	0.0002515071
3	0x3cf45c13	0.02982906
4	0x3b32c542	0.002727822
5	0x3b95df8b	0.0045737675
6	0x3c49c88f	0.012315883
7	0x3bf8fa63	0.007598208
8	0x3a6ef2bf	0.00091151515
9	0x3c9d656c	0.0192134
10	0x3d672e1a	0.05644045
11	0x3d387907	0.045037296
12	0x3bf2c57c	0.007408796
13	0x3d18492e	0.037179165
14	0x3cf47d5f	0.029844938
15	0x3c383adc	0.011244502
16	0x3c15ae75	0.009135832
17	0x3d0d9980	0.034570217
18	0x3bd807fa	0.0065927478
19	0x3d6766c1	0.056494478

conv.3.weight f4 [1, 20, 5, 5]
0	0xbe270c0d	-0.16313191
1	0xbe2f3be5	-0.17112692
2	0xbe2e9bd5	-0.17051633
3	0xbe21d421	-0.15803577
4	0xbe132795	-0.14370568
5	0xbe50da66	-0.20395812
6	0xbe569e62	-0.20958856
7	0xbe445a08	-0.19174969
8	0xbe8edf13	-0.27904567
9	0xbe4b21d4	-0.19837123
10	0xbe0fe609	-0.14052595
11	0xbe4fd4dd	-0.20296045
12	0xbe715b64	-0.23570019
13	0xbe3cb9b8	-0.18430221
14	0xbe83c278	-0.25734305
15	0xbdf27216	-0.118381664
16	0xbe0bd6a0	-0.13656092
17	0xbe4022e2	-0.18763307
18	0xbe56525e	-0.20929858
19	0xbe2f24cc	-0.1710388
20	0xbe22491f	-0.15848206
21	0xbddfff6e	-0.10937391
22	0xbe1c0da5	-0.1523958
23	0xbe2da2bb	-0.16956608
24	0xbdc6fae5	-0.09715823
25	0xbde10fb8	-0.10989326
26	0xbe0afe31	-0.13573529
27	0xbdff2b09	-0.1245938
28	0xbdd0c26d	-0.10193334
29	0xbe1057bc	-0.14095968
30	0xbde2cbe5	-0.11074046
31	0xbdce8c40	-0.10085344
32	0xbdd4800c	-0.103759855
33	0xbdb628a6	-0.08894472
34	0xbe21fd22	-0.15819219
35	0xbdd3f4eb	-0.10349449
36	0xbdc6f471	-0.09714592
37	0xbe0ce52b	-0.13759296
38	0xbdb97c0b	-0.090568624
39	0xbdf4a718	-0.11945933
40	0xbd86579f	-0.06559681
41	0xbdf68f1c	-0.12039015
42	0xbe3a5e88	-0.18200123
43	0xbdefc2b8	-0.117070615
44	0xbdef2a1e	-0.11677955
45	0xbe1da3b4	-0.15394479
46	0xbdff0121	-0.12451387
47	0xbe00d393	-0.12580709
48	0xbe39e415	-0.18153413
49	0xbe090271	-0.13379838
50	0x3dcd2b75	0.100180544
51	0x3d8a86fd	0.06764028
52	0x3df0f52f	0.11765515
53	0x3d9111db	0.07083484
54	0x3d9db765	0.07700995
55	0x3e020b19	0.12699546
56	0x3d933038	0.07186931
57	0x3dcc0162	0.09961201
58	0x3e06dd76	0.13170418
59	0x3dda6ca9	0.106652565
60	0x3e065dc8	0.13121712
61	0x3e090a44	0.13382822
62	0x3df0cf5a	0.11758299
63	0x3deab00e	0.11459361
64	0x3e151a6b	0.14560859
65	0x3e0a55e9	0.13509335
66	0x3e0e5ac0	0.13901806
67	0x3e0a6330	0.135144
68	0x3e02c313	0.12769727
69	0x3de274fc	0.11057469
70	0x3e002d88	0.12517369
71	0x3d99bcb8	0.07506698
72	0x3dfaeb9e	0.12251972
73	0x3e0b488d	0.13601895
74	0x3d8e6d37	0.06954425
75	0x3db01d01	0.08599282
76	0x3ddeac89	0.10872752
77	0x3e260182	0.16211513
78	0x3dea0dc6	0.11428408
79	0x3df78cbc	0.1208739
80	0x3dc6f636	0.0971493
81	0x3e0253a7	0.12727223
82	0x3e0c2476	0.13685784
83	0x3e0444fe	0.12916943
84	0x3db36072	0.0875863
85	0x3df1a23d	0.117985226
86	0x3dd67237	0.104710035
87	0x3d973475	0.07383052
88	0x3dfe7974	0.12425509
89	0x3dc9f88d	0.098618604
90	0x3e1b20f9	0.15149297
91	0x3dfb9437	0.12284129
92	0x3e093d4f	0.13402294
93	0x3e239ff5	0.15978988
94	0x3e0d3420	0.13789415
95	0x3de4f2ae	0.111791
96	0x3e00fc65	0.12596281
97	0x3dd1630e	0.10223971
98	0x3dfeeb5a	0.124472335
99	0x3e0f2824	0.13980156
100	0xbe0c252f	-0.1368606
101	0xbdced46c	-0.1009911
102	0xbe141b4e	-0.14463541
103	0xbdf52abf	-0.11971044
104	0xbdfbd2d4	-0.12296072
105	0xbde81b52	-0.11333336
106	0xbe10ecef	-0.14152883
107	0xbde3700b	-0.11105355
108	0xbe276bf2	-0.16349772
109	0xbde0d2a7	-0.10977679
110	0xbdcfdd40	-0.10149622
111	0xbdfdb10f	-0.12387287
112	0xbe2db813	-0.1696475
113	0xbe0854bf	-0.13313578
114	0xbe1c7191	-0.15277697
115	0xbe1426cb	-0.14467923
116	0xbe0bf70e	-0.13668463
117	0xbe3e4c47	-0.18583785
118	0xbe0fda07	-0.14048015
119	0xbdc474c0	-0.09592581
120	0xbda26924	-0.0793021
121	0xbe0c4f18	-0.13702047
122	0xbe2d5e2b	-0.16930453
123	0xbddd4ce3	-0.108056806
124	0xbe040fff	-0.12896727
125	0xbe5804d8	-0.21095598
126	0xbe145453	-0.14485292
127	0xbe51555b	-0.20442717
128	0xbe2aff21	-0.16698886
129	0xbe0ae169	-0.1356255
130	0xbe554188	-0.2082578
131	0xbe5b76f6	-0.21432099
132	0xbe433510	-0.1906321
133	0xbe140b11	-0.14457346
134	0xbe3382a9	-0.17530312
135	0xbe323878	-0.17404354
136	0xbe5f4097	-0.21801983
137	0xbe491770	-0.19637847
138	0xbe4c5aa3	-0.1995645
139	0xbe202c68	-0.1564194
140	0xbe0d09b8	-0.13773239
141	0xbe193599	-0.14961852
142	0xbe203479	-0.15645017
143	0xbe1870e0	-0.14886808
144	0xbe1951d7	-0.14972626
145	0xbdb0ef2b	-0.08639368
146	0xbe0030a5	-0.12518556
147	0xbde9dd7c	-0.11419198
148	0xbde47340	-0.11154795
149	0xbdd2c97a	-0.10292335
150	0x3d92d0b0	0.0716871
151	0x3e046528	0.12929213
152	0x3da71f12	0.08160223
153	0x3de85e8b	0.11346158
154	0x3e056a54	0.13028842
155	0x3e08011d	0.13281675
156	0x3e26bdb1	0.16283299
157	0x3e30882c	0.17239445
158	0x3e28a3bd	0.16468711
159	0x3e08edd8	0.1337198
160	0x3dfee5da	0.124461845
161	0x3e3bd6a9	0.18343605
162	0x3e16a171	0.14710023
163	0x3e0eea06	0.1395646
164	0x3e1094ba	0.14119235
165	0x3e058cfd	0.13042064
166	0x3e0e757b	0.13912003
167	0x3e1cbe04	0.1530686
168	0x3e171d99	0.14757384
169	0x3de276a8	0.11057788
170	0x3dd5ed02	0.10445596
171	0x3e417e63	0.18895869
172	0x3e36b6b7	0.17843138
173	0x3dfbf42a	0.1230243
174	0x3e180a44	0.14847666
175	0x3d6eefe6	0.058334254
176	0xbb429eed	-0.0029696778
177	0x3c865810	0.016399413
178	0x3bf3695b	0.007428331
179	0x3c48b5b4	0.012250353
180	0xbc78b2df	-0.015179365
181	0xbcb55dc8	-0.022139445
182	0xbcb686c0	-0.02228105
183	0xbd952032	-0.072815314
184	0xbe25c8f2	-0.16189936
185	0xbd78b19c	-0.060716256
186	0xbd9fa688	-0.07795435
187	0xbe0e9542	-0.13924125
188	0xbdf5c9ed	-0.12001405
189	0xbe0d0f87	-0.13775454
190	0xbdf2724b	-0.11838206
191	0xbe2966b3	-0.16543083
192	0xbe1b08dd	-0.151401
193	0xbe241501	-0.16023637
194	0xbe187610	-0.14888787
195	0xbdf295fb	-0.11845013
196	0xbe231d5f	-0.15929173
197	0xbe312bf3	-0.17301922
198	0xbe08b286	-0.13349351
199	0xbd98658a	-0.07441242
200	0x3da804fa	0.08204074
201	0x3d986221	0.074405916
202	0x3dc7e011	0.09759534
203	0x3df0ae8c	0.11752042
204	0x3d9b09cb	0.07570227
205	0x3dc2b970	0.09508026
206	0x3dec16cd	0.115277864
207	0x3e05aeab	0.13054912
208	0x3e0433bb	0.12910359
209	0x3df2376b	0.118269764
210	0x3e074410	0.13209558
211	0x3e1714ba	0.14754
212	0x3e01f99f	0.12692879
213	0x3e19c2ff	0.15015791
214	0x3dfc9d17	0.1233465
215	0x3da1d087	0.079011016
216	0x3db06e62	0.08614804
217	0x3e061aff	0.13096236
218	0x3e0e2210	0.13880181
219	0x3e33c76f	0.17556547
220	0x3dfcb920	0.12339997
221	0x3dec95d7	0.11552017
222	0x3e0e13a2	0.13874677
223	0x3e0ef65e	0.13961169
224	0x3dd95a16	0.10612886
225	0x3db24721	0.08704973
226	0x3e0b0766	0.13577041
227	0x3e13d6a2	0.14437345
228	0x3e10aa0f	0.14127372
229	0x3dcfff73	0.10156145
230	0x3e030972	0.12796572
231	0x3dbd370c	0.09239015
232	0x3e093b3d	0.13401504
233	0x3e185957	0.1487783
234	0x3e373f7a	0.17895308
235	0x3e02a8b7	0.12759672
236	0x3dd928fa	0.10603519
237	0x3e0b5740	0.13607502
238	0x3dbbee15	0.0917627
239	0x3e3090a4	0.17242676
240	0x3df59241	0.11990786
241	0x3dfbaa35	0.12288324
242	0x3dc56794	0.096388966
243	0x3e180cc6	0.14848623
244	0x3e04614b	0.1292774
245	0x3dc86c0f	0.097862355
246	0x3db7aefb	0.08968922
247	0x3e1d3e9f	0.1535592
248	0x3e156068	0.14587557
249	0x3dc7f25f	0.097630255
250	0x3deffdd2	0.11718334
251	0x3dfd1384	0.12357238
252	0x3db9e036	0.09075968
253	0x3e08fe14	0.13378173
254	0x3d9b5575	0.07584659
255	0x3e12592c	0.14291829
