src/caches/cache_11_14_big/param2img5.pt (torch, 184864 bytes, 19 tensors)

main.0.weight f4 [16]
0.7936907 0.7228906 0.7514283 0.95418245 0.9921112 0.9559224 0.9282384 0.99736714
0.92307043 1.0496533 1.0728155 1.0074563 0.99741644 0.8095049 0.7710062 0.86474276
00000000: 502f 4b3f 5c0f 393f 9b5d 403f 4d45 743f
00000010: 00fb 7d3f 55b7 743f 08a1 6d3f 7453 7f3f
00000020: 584e 6c3f 0a5b 863f 0552 893f 54f4 803f
00000030: af56 7f3f b73b 4f3f aa60 453f c85f 5d3f

main.0.bias f4 [16]
0.24965832 0.21194622 0.25374398 -0.19549197 -0.28500897 0.26357704 -0.22971298 -0.21353625
0.1880528 0.20216237 -0.2326184 -0.18683222 -0.23313741 -0.17268424 -0.25939566 -0.13943093
00000000: 6ea6 7f3e 6e08 593e bbea 813e 0c2f 48be
00000010: b2ec 91be 92f3 863e e139 6bbe 3fa9 5abe
00000020: ea90 403e a703 4f3e 8533 6ebe f250 3fbe
00000030: 93bb 6ebe 23d4 30be 82cf 84be fbc6 0ebe

main.0.running_mean f4 [16]
2.0468113e-05 1.3686385e-05 0.19999465 0.003222604 0.010129368 0.0014588473 0.5489866 0.003229975
0.020286988 0.0014685915 0.5489988 0.0031976863 0.030392192 -9.14373e-06 0.19998975 0.0032339103
00000000: f0b2 ab37 939e 6537 66cb 4c3e 5332 533b
00000010: a6f5 253c cb36 bf3a 638a 0c3f fdad 533b
00000020: e630 a63c c17d c03a 2f8b 0c3f 4690 513b
00000030: 0cf9 f83c 0568 19b7 1dca 4c3e 03f0 533b

main.0.running_var f4 [16]
1.0472622e-06 1.0468322e-06 9.922154e-07 0.0021856376 1.7657285e-05 0.00014991812 0.07980815 0.002184442
6.785332e-05 0.00014895735 0.07979353 0.0021855652 0.0001508426 1.0428023e-06 1.0724266e-06 0.0021829603
00000000: a88f 8c35 e180 8c35 432c 8535 ea3c 0f3b
00000010: bb1e 9437 5733 1d39 7572 a33d db28 0f3b
00000020: 794c 8e38 6f31 1c39 ca6a a33d b33b 0f3b
00000030: 812b 1e39 6af6 8b35 4cf0 8f35 ff0f 0f3b

main.1.weight f4 [20, 16]
-0.025987064 -0.046415158 -0.019123048 0.009695863 -0.02116985 -0.18318328 -0.16176644 0.10863686
0.1104433 -0.13384123 -0.15493214 -0.001984081 -0.0045149103 0.021116989 0.0023975803 0.02254662
0.009368125 -0.06775545 0.046725217 0.048065744 0.2831393 0.11898803 0.036609728 0.14022657
-0.031159075 -0.30032495 0.027889922 0.19982487 -0.010027084 0.04019739 0.05269241 -0.16297391
-0.07869673 -0.12246786 0.05332595 0.19506335 0.052951954 0.22096744 -0.14097792 0.23642202
0.29605052 0.14107364 0.057577424 0.22710335 0.17699097 0.040229935 0.02505404 0.11770888
0.014604716 0.018707765 -0.040684935 -0.045214653 -0.1789698 0.012084497 -0.014320908 0.005226491
-0.3328397 0.113265395 -0.17343439 -0.14430386 -0.05737389 -0.038426362 -0.0068799625 -0.21985723
-0.018079473 -0.079945095 -0.003947302 -0.061628927 0.08484033 -0.1251686 -0.06219506 0.21453108
0.20645468 -0.11920107 0.35828778 0.2436982 0.17901285 0.041985735 -0.054613765 -0.18502426
0.017020332 0.04200837 -0.0051356005 0.060986556 0.10864121 0.11508818 -0.13964443 0.26497313
0.11429196 0.102858886 -0.15382929 -0.037342474 0.10080746 0.003250181 3.8562805e-05 -0.07327839
0.0013918547 -0.02822959 -0.01871482 -0.0036704512 -0.031870645 -0.022864291 0.17765066 0.02769521
-0.06458135 -0.06931557 0.019523995 0.038492676 0.36759746 0.082051106 0.07967906 0.060294643
0.011287813 0.039996203 0.010549673 -0.110490575 0.01915368 -0.28859097 -0.14751063 0.081262246
0.1548621 -0.13129345 -0.11826014 0.022462834 0.14640208 -0.02044302 0.03424616 0.16482657
-0.01363392 -0.080345705 -0.047940265 0.061823897 0.08259815 0.056033466 0.1933621 0.13141394
0.061716776 0.008717753 0.23715916 -0.0430751 -0.00400648 0.022524122 0.010169873 0.13995284
0.07294622 -0.13513856 -0.06618872 -0.2671108 0.13976833 -0.17822345 -0.08768217 -0.30741945
0.14436255 -0.17459162 0.14022018 -0.23714875 -0.18003383 0.08027161 -0.062373083 -0.29989585
-0.012282821 0.03882789 -0.0039234054 0.14757608 0.0050570276 -0.20912339 0.075173035 0.11040928
-0.04124604 0.088029884 -0.018488528 -0.18992426 0.25038233 -0.04210684 -0.056982562 0.13273457
-0.0030056392 0.0033964692 0.03444217 0.26579797 -0.0313692 0.021842122 -0.037995126 0.12451806
-0.178124 -0.050095495 -0.18923485 0.0013134388 -0.36040404 -0.0038335249 -0.044137243 -0.11769776
0.0010123459 -0.011713506 -0.010423637 0.16669631 0.060484692 -0.061130866 0.057347097 -0.024034217
0.13891959 -0.19809653 -0.24330859 -0.23814367 0.09990288 -0.0074816705 0.00043870014 -0.19625415
0.007873545 0.038322803 0.015208204 -0.17900383 -0.09118647 -0.0033475808 0.18607707 -0.14851779
0.06745814 0.30728036 -0.05779632 -0.106062084 0.12813823 -0.016197193 0.005518658 -0.16807403
-0.03393833 -0.018295983 -0.018205082 0.0030932669 -0.16079237 -0.047699217 0.13434003 -0.2563112
-0.28586018 0.14915785 0.17195334 0.0077559715 -0.046537727 0.025897708 0.019511348 0.032306477
0.05680011 0.08371052 0.060106628 -0.21289316 -0.012503535 -0.3598545 0.11830107 0.103426754
0.123005904 -0.2047816 0.015100813 -0.19304219 0.048681583 -0.029119939 0.030018719 0.20200115
00000000: d3e2 d4bc d21d 3ebd f0a7 9cbc 66db 1e3c
00000010: 656c adbc 6694 3bbe 1aa6 25be 017d de3d
00000020: 1930 e23d ad0d 09be 88a6 1ebe 5b07 02bb
00000030: d0f1 93bb 89fd ac3c b920 1d3b b0b3 b83c
00000040: c47c 193c 5fc3 8abd f162 3f3d 96e0 443d
00000050: a2f7 903e ffaf f33d 15f4 153d 8e97 0f3e
00000060: 5141 ffbc 31c4 99be 6879 e43c e49e 4c3e
00000070: a348 24bc 05a6 243d ffd3 573d a2e2 26be
00000080: c02b a1bd 6ed0 fabd 506c 5a3d b0be 473e
00000090: 26e4 583d 4a45 623e 845c 10be 9d18 723e
000000a0: ef93 973e 9c75 103e 4ed6 6b3d c88d 683e
000000b0: 1f3d 353e 25c8 243d 213e cd3c 5a11 f13d
000000c0: 9e48 6f3c 0741 993c 3fa5 26bd 0033 39bd
000000d0: dc43 37be 0efe 453c 3ea2 6abc fc42 ab3b
000000e0: f769 aabe b0f7 e73d c998 31be 64c4 13be
000000f0: e200 6bbd f664 1dbd 4f71 e1bb 4122 61be
00000100: 671b 94bc 41ba a3bd 5e58 81bb 9d6e 7cbd
00000110: c4c0 ad3d 332c 00be 3fc0 7ebd 09ae 5b3e
00000120: db68 533e b11f f4bd 7f71 b73e 058c 793e
00000130: 254f 373e 3cf9 2b3d afb2 5fbd 0077 3dbe
00000140: 396e 8b3c f810 2c3d 8a48 a8bb 0acd 793d
00000150: 487f de3d 5ab3 eb3d f3fe 0ebe 8faa 873e
00000160: e711 ea3d aea7 d23d 6d85 1dbe 6cf4 18bd
00000170: 2474 ce3d fd00 553b 7fbe 2138 fb12 96bd
00000180: e56e b63a be41 e7bc d24f 99bc f48b 70bb
00000190: cb8a 02bd e54d bbbc 0eea 353e 11e1 e23c
000001a0: 3a43 84bd 52f5 8dbd c9f0 9f3c 7faa 1d3d
000001b0: bc35 bc3e 690a a83d c62e a33d 84f7 763d
000001c0: 85f0 383c 0fd3 233d 89d8 2c3c e248 e2bd
000001d0: 2ee8 9c3c 32c2 93be 070d 17be d26c a63d
000001e0: 2c94 1e3e ca71 06be 5f32 f2bd fa03 b83c
000001f0: 6dea 153e 1f78 a7bc b445 0c3d 4cc8 283e
00000200: ce60 5fbc 4a8c a4bd 035d 44bd 0e3b 7d3d
00000210: 3829 a93d 5983 653d b700 463e 6091 063e
00000220: bbca 7c3d e8d4 0e3c dad9 723e 846f 30bd
00000230: ca48 83bb 8284 b83c 8a9f 263c cc4f 0f3e
00000240: d464 953d c361 0abe f48d 87bd bfc2 88be
00000250: 6e1f 0f3e 3580 36be b692 b3bd 1566 9dbe
00000260: c7d3 133e 25c8 32be e195 0f3e 1fd7 72be
00000270: ca5a 38be 7165 a43d eb7a 7fbd f38b 99be
00000280: e33d 49bc fe09 1f3d e98f 80bb 2f1e 173e
00000290: 6cb5 a53b 7124 56be 52f4 993d 431e e23d
000002a0: 9cf1 28bd 0349 b43d 4175 97bc 817b 42be
000002b0: 1d32 803e 3978 2cbd 8c66 69bd 92eb 073e
000002c0: 42fa 44bb 4c97 5e3b 3c13 0d3d ac16 883e
000002d0: fe7c 00bd 40ee b23c c7a0 1bbd 5303 ff3d
000002e0: 2366 36be ef30 4dbd c8c6 41be b127 ac3a
000002f0: e186 b8be e03b 7bbb 41c9 34bd 860b f1bd
00000300: b1b0 843a 01ea 3fbc e7c7 2abc 70b2 2a3e
00000310: ccbe 773d 5c64 7abd cae4 6a3d 68e3 c4bc
00000320: f040 0e3e d1d9 4abe e325 79be efdb 73be
00000330: e299 cc3d cd28 f5bb 5601 e639 d9f6 48be
00000340: 0b00 013c 5ff8 1c3d d52b 793c c84c 37be
00000350: f9bf babd 1663 5bbb fd8a 3e3e 0c15 18be
00000360: 7e27 8a3d da53 9d3e d6bb 6cbd 1437 d9bd
00000370: ab36 033e faaf 84bc dcd5 b43b 991b 2cbe
00000380: eb02 0bbd 75e1 95bc d322 95bc 68b8 4a3b
00000390: c1a6 24be 4160 43bd 6f90 093e 393b 83be
000003a0: 445c 92be d6bc 183e 8914 303e ce25 fe3b
000003b0: 589e 3ebd 6e27 d43c 43d6 9f3c cc53 043d
000003c0: 3ba7 683d 6c70 ab3d 5e32 763d aa00 5abe
000003d0: a0db 4cbc d93e b8be d547 f23d 68d1 d33d
000003e0: 85ea fb3d 45b2 51be 6669 773c daac 45be
000003f0: 5766 473d f08c eebc d1e9 f53c 64d9 4e3e

main.1.bias f4 [20]
-0.018602395 -0.26283255 0.144591 0.033115853 0.038458243 0.32630393 -0.24552284 0.33698842
-0.27285948 -0.2572546 -0.28710514 0.10769332 0.3921106 -0.08588177 0.11668709 0.05110927
-0.019714896 -0.35031113 -0.4221157 -0.051626865
00000000: 0d64 98bc fd91 86be aa0f 143e 7da4 073d
00000010: 6486 1d3d 4f11 a73e 576a 7bbe bf89 ac3e
00000020: 3db4 8bbe e0b6 83be 72ff 92be 518e dc3d
00000030: b8c2 c83e c8e2 afbd a4f9 ee3d f457 513d
00000040: 2281 a1bc fb5b b3be 8d1f d8be b176 53bd

main.3.weight f4 [20]
0.92864144 0.7138769 0.89409107 0.9307486 0.90080076 0.9504509 0.91984975 0.95621634
0.9633641 0.90489984 0.9652081 0.98859376 0.9284759 0.99351513 0.9331055 0.897907
0.8647917 0.9003467 0.8255588 0.8585226
00000000: 72bb 6d3f a3c0 363f 27e3 643f 8a45 6e3f
00000010: e19a 663f c050 733f 467b 6b3f 98ca 743f
00000020: 089f 763f 84a7 673f e117 773f 7b14 7d3f
00000030: 99b0 6d3f 0257 7e3f 01e0 6e3f 3cdd 653f
00000040: fd62 5d3f 1f7d 663f d257 533f 23c8 5b3f

main.3.bias f4 [20]
-0.19025682 -0.24813429 -0.19323972 -0.18404877 -0.11254673 -0.23641817 -0.20962472 0.15918438
-0.21480747 -0.20193492 -0.24691805 -0.083546765 -0.11187567 -0.20454827 -0.19747923 -0.14116997
-0.12566428 -0.18391357 -0.28072426 -0.16059913
00000000: afd2 42be ea16 7ebe a2e0 45be 4877 3cbe
00000010: e67e e6bd 9b17 72be dda7 56be 3b01 233e
00000020: 7df6 5bbe 07c8 4ebe 16d8 7cbe 911a abbd
00000030: 121f e5bd 1a75 51be ff37 4abe dc8e 10be
00000040: 23ae 00be d753 3cbe 17bb 8fbe 1974 24be

main.3.running_mean f4 [20]
0.11237117 -0.07296908 0.36937 0.32174456 0.10052484 0.43778747 -0.077284604 0.35694444
-0.043496713 0.29894924 -0.0720149 0.31519738 0.4578886 0.266477 0.23687461 0.18547621
0.06468915 -0.09924999 -0.121930994 -0.0534796
00000000: db22 e63d d070 95bd 111e bd3e b4bb a43e
00000010: f8df cd3d ae25 e03e 6447 9ebd 6cc1 b63e
00000020: 9c29 32bd e00f 993e 8c7c 93bd 8d61 a13e
00000030: 6070 ea3e ac6f 883e 428f 723e 7aed 3d3e
00000040: bf7b 843d 9443 cbbd f5b6 f9bd 6d0d 5bbd

main.3.running_var f4 [20]
0.06991862 0.017966148 0.36982548 0.22110663 0.14534445 0.1980132 0.0148922065 0.17438366
0.041298985 0.49025795 0.008609182 0.22430721 0.16465715 0.1802504 0.15117706 0.14229849
0.09731007 0.014606566 0.011572089 0.06308909
00000000: 7e31 8f3d be2d 933c c459 bd3e c769 623e
00000010: 2dd5 143e f9c3 4a3e 71fe 733c a191 323e
00000020: 2029 293d 1703 fb3e 870d 0d3c cab0 653e
00000030: e29b 283e 9093 383e 29ce 1a3e b2b6 113e
00000040: 814a c73d 6150 6f3c dc98 3d3c da34 813d

main.4.weight f4 [2048, 20]
-0.13619976 -0.016265742 -0.19078116 -0.0568074 0.063182764 -0.16764802 -0.18245244 -0.021926114
-0.05990116 0.10912146 -0.033932257 0.050877504 -0.11490371 0.063233495 -0.09551552 -0.10392691
0.056170262 0.2021514 0.19893539 -0.16460675 0.17507537 -0.2409139 -0.0911196 -0.20565137
0.005577294 -0.078988925 -0.024749886 -0.067338586 0.03164878 0.00288853 -0.1406817 0.06378631
0.065577246 0.036488596 -0.11242095 -0.16391285 -0.19020602 0.083912626 -0.005991505 0.20249
-0.061365966 0.009860214 -0.017076517 0.12971905 -0.11744636 0.16145907 0.011954213 -0.08879239
0.11726951 -0.13358943 -0.12835698 0.10159427 0.16343068 0.010516899 -0.07549007 0.18431818
-0.10074404 0.10750082 0.12482855 0.13217615 0.13093753 -0.07380693 0.21005997 0.13728946
-0.014498776 0.09016925 -0.08149169 -0.086977795 -0.12806393 0.12306977 0.023566855 0.07914916
0.11720281 0.1199951 0.15342623 -0.05224947 0.15044352 0.096770234 -0.14735417 0.25230283
0.12101052 -0.1053312 0.17544532 -0.24619177 -0.055255134 -0.085694045 0.012899725 -0.13411324
-0.18377493 0.059640843 -0.051845036 -0.048858605 0.0720114 -0.10456866 0.1269511 0.03468097
-0.019812504 -0.05870519 0.17900471 0.28245735 -0.12982973 0.039049968 0.121606246 0.011100163
0.12718481 -0.08388489 -0.16439414 0.13430515 0.025872516 0.074139215 0.034641806 -0.1072922
0.15071315 -0.029750628 0.075300425 -0.27718514 -0.015173854 0.15496883 -0.15440057 -0.15700085
0.039664946 -0.18696022 -0.04712155 0.1072614 -0.036970317 -0.050168745 0.071913004 0.11145823
0.20882735 0.17842762 -0.029939393 -0.030749781 0.023123194 -0.22811276 0.09386561 -0.057407774
0.19568036 0.09335815 -0.19168538 -0.17293657 -0.015802164 0.12165359 -0.07683927 -0.1570896
-0.028780779 0.1141927 0.07635558 0.0414455 0.22275364 -0.21264146 -0.13391313 0.046196207
-0.09460898 0.049104806 -0.031250257 0.21806067 0.024021622 -0.16775078 0.024954995 -0.08894697
0.18320407 -0.112851046 0.01589323 -0.006835384 0.17976713 -0.09111731 -0.14594267 0.021363659
0.16531582 0.0088645 0.017609155 -0.0045328434 -0.08202302 0.15116301 -0.070816144 -0.13285023
-0.036846895 -0.14141859 -0.04498559 0.056023847 0.20276274 -0.15788105 0.14201137 -0.060198884
0.02948625 0.06811702 -0.086374484 -0.04338458 0.20633967 0.14886647 -0.06901679 -0.19939725
0.08851648 -0.16707483 0.06978763 -0.017447632 0.03429253 0.16697945 0.0718788 -0.11949371
0.013875226 -0.10971681 -0.06683061 -0.02260002 0.06859905 -0.009422075 0.12333043 -0.14544007
0.1568747 0.12051698 0.054590207 0.017818855 0.042078532 0.065834306 0.15497458 0.03207719
-0.09664668 -0.017368237 -0.07658733 -0.07252841 -0.12646599 0.057709865 -0.073736794 0.05483599
-0.027689792 0.1500236 -0.09197954 0.11119764 0.08009877 -0.05423981 0.09328043 0.049411107
-0.077366784 -0.23122267 0.14985472 -0.029859941 0.1989817 -0.020860633 -0.02160411 0.09843093
-0.15400374 0.097683206 -0.11472103 -0.065426506 0.119078666 0.042066325 0.0948898 -0.18708465
-0.20514922 -0.043041397 -0.23037212 -0.061564382 0.09127224 -0.19273274 -0.005557629 0.16862346
00000000: f377 0bbe bc3f 85bc 235c 43be e0ae 68bd
00000010: f765 813d ecab 2bbe d0d4 3abe 659e b3bc
00000020: eb5a 75bd 127b df3d 8dfc 0abd ee64 503d
00000030: a352 ebbd 9080 813d a49d c3bd a2d7 d4bd
00000040: ca12 663d c700 4f3e b8b5 4b3e ac8e 28be
00000050: f546 333e 22b2 76be ea9c babd 4696 52be
00000060: bcc1 b63b f2c4 a1bd 46c0 cabc d0e8 89bd
00000070: 27a2 013d 7e4d 3d3b dd0e 10be 66a2 823d
00000080: 5d4d 863d 1175 153d f43c e6bd c5d8 27be
00000090: 5ec5 42be 62da ab3d 6354 c4bb 8a59 4f3e
000000a0: e15a 7bbd bc8c 213c 0de4 8bbc 12d5 043e
000000b0: b887 f0bd 8755 253e 9adb 433c c9d8 b5bd
000000c0: ff2a f03d abcb 08be 0370 03be a810 d03d
000000d0: 5f5a 273e 124f 2c3c 8a9a 9abd e8bd 3c3e
000000e0: e452 cebd 6429 dc3d 1ca6 ff3d 2f59 073e
000000f0: 7d14 063e 1628 97bd f619 573e 9c95 0c3e
00000100: 468c 6dbc a8aa b83d 1de5 a6bd 6a21 b2bd
00000110: 3123 03be 010c fc3d 470f c13c f418 a23d
00000120: 0708 f03d febf f53d c41b 1d3e 8a03 56bd
00000130: de0d 1a3e 792f c63d 03e4 16be d62d 813e
00000140: 5dd4 f73d e2b7 d7bd f0a7 333e b219 7cbe
00000150: 3553 62bd 5c80 afbd 5e59 533c fb54 09be
00000160: 7f2f 3cbe f549 743d 765b 54bd f61f 48bd
00000170: b67a 933d 1828 d6bd 78ff 013e a20d 0e3d
00000180: d54d a2bc da74 70bd 034d 373e 409e 903e
00000190: 16f2 04be dcf2 1f3d b20c f93d 75dd 353c
000001a0: bc3c 023e d7cb abbd f056 28be 4a87 093e
000001b0: 99f2 d33c 4dd6 973d 91e4 0d3d 03bc dbbd
000001c0: 8c54 1a3e 97b7 f3bc 1c37 9a3d 36eb 8dbe
000001d0: c29b 78bc 26b0 1e3e 2f1b 1ebe d5c4 20be
000001e0: b677 223d 8072 3fbe 8702 41bd ddab db3d
000001f0: 306e 17bd be7d 4dbd 2047 933d 3644 e43d
00000200: d6d6 553e bbb5 363e 7543 f5bc f7e6 fbbc
00000210: da6c bd3c 6496 69be 9d3c c03d 6a24 6bbd
00000220: 6f60 483e 8f32 bf3d 2c49 44be 4916 31be
00000230: 8a73 81bc 8425 f93d e85d 9dbd 19dc 20be
00000240: abc5 ebbc dddd e93d 5060 9c3d c2c2 293d
00000250: 8819 643e afbe 59be 8620 09be 3c38 3d3d
00000260: 5ac2 c1bd 1f22 493d 4500 00bd 4c4b 5f3e
00000270: fec8 c43c dcc6 2bbe 6b6e cc3c d429 b6bd
00000280: d999 3b3e 731e e7bd 8532 823c 5bfb dfbb
00000290: e014 383e b69b babd ff71 15be d702 af3c
000002a0: 8d48 293e 683c 113c 1341 903c 3f88 94bb
000002b0: affb a7bd 7aca 1a3e 0e08 91bd e409 08be
000002c0: c5ec 16bd 09d0 10be cf42 38bd 4379 653d
000002d0: 09a1 4f3e 92ab 21be 6e6b 113e 1b93 76bd
000002e0: 268d f13c f080 8b3d 1be5 b0bd 08b4 31bd
000002f0: b54a 533e 7470 183e ad58 8dbd cb2e 4cbe
00000300: 2148 b53d aa15 2bbe d1ec 8e3d 56ee 8ebc
00000310: 5376 0c3d a9fc 2a3e 3135 933d 1eb9 f4bd
00000320: ea54 633c 35b3 e0bd 7dde 88bd ad23 b9bc
00000330: a97d 8c3d 0c5f 1abc aa94 fc3d 3eee 14be
00000340: c3a3 203e 9bd1 f63d fb99 5f3d d9f8 913c
00000350: 8a5a 2c3d 23d4 863d a8b1 1e3e 5f63 033d
00000360: b2ee c5bd d547 8ebc d1d9 9cbd c689 94bd
00000370: 4d80 01be 2e61 6c3d 5103 97bd b49b 603d
00000380: b4d5 e2bc c99f 193e c55f bcbd 97bb e33d
00000390: d30a a43d 902a 5ebd cf09 bf3d 4d63 4a3d
000003a0: 7a72 9ebd a3c5 6cbe 8473 193e d69c f4bc
000003b0: dcc1 4b3e ebe3 aabc 1afb b0bc 2896 c93d
000003c0: 28b3 1dbe 220e c83d dcf2 eabd 55fe 85bd
000003d0: 84df f33d bd4d 2c3d 9555 c23d 1e93 3fbe
000003e0: a312 52be 2d4c 30bd abe6 6bbe ef2a 7cbd
000003f0: f1ec ba3d bb5b 45be c51c b6bb a1ab 2c3e

main.4.bias f4 [2048]
-0.07504315 0.030726274 -0.025930367 -0.23378192 0.13391666 0.023137474 -0.18541886 -0.1341331
0.013943647 0.0029481994 -0.2912903 -0.28446573 0.12875265 0.029097999 -0.003312361 -0.09084298
0.004097538 0.15203679 0.15057948 -0.067650855 -0.060004544 -0.13352759 0.048935447 -0.0408676
0.23173451 0.050179858 0.18627648 -0.27828175 -0.25046366 0.04078251 -0.1853637 -0.11257812
0.043411773 -0.08766554 -0.0175385 -0.027890872 0.10105437 -0.099151134 -0.07454925 -0.19366325
-0.15034029 -0.17000958 0.18019758 -0.18655297 0.04166877 0.113317296 0.00036562065 0.10685169
0.004751978 -0.09295932 0.040461093 0.09599508 -0.21024795 0.027888104 -0.045408532 0.13326947
0.14949061 0.1207222 0.028539374 -0.020707455 -0.22400616 0.009263997 0.18913321 -0.17638634
-0.0030359246 -0.17453574 0.19039325 -0.16807872 0.13916975 0.013227862 0.15522216 0.10622233
-0.050332792 0.03887101 0.11887063 0.1366333 0.07690089 -0.20841308 -0.22991015 -0.031291485
-0.08349721 -0.21513945 -0.028011138 0.17676881 0.054283183 -0.05547948 -0.010796057 0.093769245
-0.16433842 0.16956726 -0.045901164 -0.17792019 0.003347754 0.15897147 -0.19099438 -0.10907289
0.054582726 -0.02656179 -0.014099055 -0.057885278 0.11688348 0.002665702 0.19297096 -0.07632892
0.2459214 0.023469722 -0.12582693 -0.03443962 -0.09712004 0.106876604 0.102974884 0.19978131
-0.019236686 0.17759033 -0.0019045741 -0.06155234 -0.024479914 0.15288772 -0.119546615 0.15560636
0.1433276 -0.15270448 -0.14059615 -0.24209724 0.16842741 0.16644776 -0.12062337 -0.10490179
0.1940435 -0.1449279 0.08251129 -0.14974509 -0.10567892 0.065758824 -0.09098334 0.1460689
-0.27906108 0.04889238 -0.07092957 -0.19411997 -0.06967168 0.108820714 -0.18568392 -0.15418701
0.17638163 0.06479158 -0.21735713 -0.13485624 -0.15902318 0.081956506 0.123645015 -0.150011
0.021465076 0.10528638 -0.026438348 -0.09875264 0.044544574 0.0018870136 -0.2342553 -0.16194753
0.1056607 -0.14776461 -0.083266705 -0.25022644 -0.10975278 -0.11382832 0.07625117 0.0031434956
0.17919211 -0.033933535 0.12426678 -0.009860525 -0.17642042 -0.040688943 0.026101887 0.14988872
-0.13691883 -0.20428574 0.119184755 0.09595286 0.07039471 0.079701394 -0.16607597 0.13940792
0.10428251 -0.21209525 0.18876792 -0.2412374 0.1657859 0.02620145 -0.027365752 -0.04109043
-0.2042105 0.18693915 -0.20345585 -0.16660526 0.02330793 0.11029279 0.07884278 0.0820618
-0.23732677 -0.18405525 0.10425342 -0.2830457 -0.04320709 -0.3327584 -0.07404531 -0.30535725
-0.103744745 -0.1984773 -0.22613662 -0.32429135 0.052403353 -0.27915156 0.0424525 -0.101401925
-0.28663376 -0.1515603 0.037209623 -0.3309477 -0.08580025 0.087301075 -0.2459205 -0.10677342
0.07199214 -0.05598836 0.10148067 -0.2068668 0.095862396 -0.101652555 0.017969223 -0.031591956
-0.06104673 -0.24667472 0.17343335 -0.2335069 -0.05368885 0.021548789 0.07639505 -0.15918826
-0.21349916 0.15795763 -0.007174813 -0.16241662 -0.10820789 -0.2109947 0.026858583 0.07357396
-0.0010339657 -0.13229577 -0.21690269 0.040576596 -0.0082597025 0.17889562 -0.20154686 0.053198475
00000000: 39b0 99bd abb5 fb3c ec6b d4bc 8764 6fbe
00000010: 7321 093e cd8a bd3c 71de 3dbe 305a 09be
00000020: e573 643c 9436 413b 0124 95be 7ea5 91be
00000030: bcd7 033e ed5e ee3c 3214 59bb e20b babd
00000040: a444 863b 88af 1b3e 8231 1a3e 888c 8abd
00000050: 53c7 75bd 75bb 08be 8970 483d c964 27bd
00000060: d04b 6d3e 6589 4d3d 43bf 3e3e f27a 8ebe
00000070: c63c 80be 900b 273d fbcf 3dbe 5b8f e6bd
00000080: 8bd0 313d fe89 b3bd e6ac 8fbc 667b e4bc
00000090: 98f5 ce3d c00f cbbd 47ad 98bd a94f 46be
000000a0: cef2 19be fe16 2ebe b785 383e be07 3fbe
000000b0: dfac 2a3d e612 e83d c6b0 bf39 0fd5 da3d
000000c0: 7bb6 9b3b 7561 bebd 88ba 253d 1299 c43d
000000d0: 3d4b 57be 9875 e43c 4cfe 39bd cb77 083e
000000e0: 1114 193e 333d f73d 68cb e93c aea2 a9bc
000000f0: df61 65be 05c8 173c 23ac 413e 9f9e 34be
00000100: 5df6 46bb 7fb9 32be 73f6 423e d41c 2cbe
00000110: 8482 0e3e adb9 583c 8ff2 1e3e 188b d93d
00000120: c229 4ebd 3537 1f3d 7272 f33d 9ae9 0b3e
00000130: 377e 9d3d 3d6a 55be 916d 6bbe 802b 00bd
00000140: 9600 abbd 844d 5cbe 9d77 e5bc e202 353e
00000150: 0b58 5e3d 743e 63bd f2e1 30bc 170a c03d
00000160: 5548 28be 0aa3 2d3e dc02 3cbd b630 36be
00000170: fe65 5b3b 6bc9 223e 0894 43be 9b61 dfbd
00000180: 2392 5f3d 1c98 d9bc b9ff 66bc 1d19 6dbd
00000190: 9b60 ef3d 0fb3 2e3b 2e9a 453e 5652 9cbd
000001a0: d2d2 7b3e 9343 c03c c6d8 00be 8f10 0dbd
000001b0: dfe6 c6bd 1fe2 da3d 7fe4 d23d 7993 4c3e
000001c0: 4196 9dbc 3dda 353e e7a2 f9ba 4e1e 7cbd
000001d0: 1a8a c8bc 998e 1c3e dbd4 f4bd 4657 1f3e
000001e0: 78c4 123e 905e 1cbe 70f8 0fbe 57e8 77be
000001f0: 3c78 2c3e 4871 2a3e 6309 f7bd c0d6 d6bd
00000200: 57b3 463e fb67 14be aefb a83d c756 19be
00000210: 316e d8bd 90ac 863d 7955 babd 1693 153e
00000220: 18e1 8ebe 6043 483d 8643 91bd 63c7 46be
00000230: 07b0 8ebd 65dd de3d ed23 3ebe 33e3 1dbe
00000240: 639d 343e 73b1 843d de92 5ebe c117 0abe
00000250: f9d6 22be d0d8 a73d 9939 fd3d 7c9c 19be
00000260: 87d7 af3c 63a0 d73d 3c95 d8bc d33e cabd
00000270: 5f74 363d ab55 f73a 9fe0 6fbe 93d5 25be
00000280: a364 d83d 9b4f 17be bc87 aabd ae1d 80be
00000290: 11c6 e0bd d21e e9bd 9329 9c3d 1b03 4e3b
000002a0: 237e 373e e4fd 0abd 957f fe3d 0a8e 21bc
000002b0: 8ea7 34be 73a9 26bd a0d3 d53c 6e7c 193e
000002c0: 7334 0cbe 4830 51be 2317 f43d ef82 c43d
000002d0: 1a2b 903d 7c3a a33d d20f 2abe f3c0 0e3e
000002e0: 1292 d53d 7f2f 59be 614c 413e f006 77be
000002f0: c7c3 293e 6ca4 d63c 242e e0bc 704e 28bd
00000300: 8f1c 51be fa6c 3f3e bb56 50be 929a 2abe
00000310: 46f0 be3c 30e1 e13d 5378 a13d 0410 a83d
00000320: ca05 73be fb78 3cbe d182 d53d 5eeb 90be
00000330: ebf9 30bd 4f5f aabe 11a5 97bd c957 9cbe
00000340: 2078 d4bd a23d 4bbe 5c90 67be 8409 a6be
00000350: e6a4 563d f4ec 8ebe ace2 2d3d d0ab cfbd
00000360: a9c1 92be a032 1bbe 1e69 183d fa71 a9be
00000370: 0bb8 afbd e8ca b23d 95d2 7bbe 06ac dabd
00000380: 9d70 933d 0d54 65bd 19d5 cf3d e4d4 53be
00000390: 8153 c43d 372f d0bd 3134 933c 9166 01bd
000003a0: 230c 7abd 4c98 7cbe 8398 313e 6f1c 6fbe
000003b0: d7e8 5bbd 1687 b03c 0275 9c3d 3f02 23be
000003c0: 869f 5abe a5bf 213e b21a ebbb 8b50 26be
000003d0: 199c ddbd ff0e 58be 8806 dc3c f2ad 963d
000003e0: 2286 87ba 8b78 07be bd1b 5ebe a533 263d
000003f0: b453 07bc 6a30 373e 4d62 4ebe a5e6 593d

conv.0.weight f4 [20, 1, 5, 5]
0.107855245 0.09349896 0.10408812 -0.10980566 -0.17559315 0.03167498 -0.015758432 -0.12991013
0.15351565 0.15906696 0.18142003 0.13723662 -0.016807904 -0.121424034 -0.14315248 0.019303301
-0.20053959 -0.19393569 0.119059876 -0.0023955193 -0.051828876 0.14772141 -0.14884692 0.10129259
0.044999618 0.03593506 0.059480026 0.08203355 0.045116257 0.10234057 0.0010208288 -0.10402667
0.04692786 -0.10141402 -0.055681974 -0.03695215 0.035973366 0.06617862 0.083637156 0.09403361
0.04385557 0.009018915 0.068636335 -0.018982945 -0.00069706293 0.038207382 -0.039206903 -0.0486389
0.011938957 0.021956101 0.11100604 -0.013015792 0.16040257 0.066732496 0.083187565 -0.095773146
-0.0164147 -0.1293572 0.20911446 0.13533476 -0.03910891 0.1567322 0.15704338 -0.13412903
0.019985719 0.039722838 0.22311115 0.22390871 0.2672848 -0.11748015 0.10083043 -0.06902242
-0.051576447 -0.0028378528 0.10452944 0.036963094 -0.09673697 0.0478482 0.10038038 -0.079866126
0.15998633 0.14275323 0.11761483 0.2513109 0.22169374 -0.039033573 -0.0005771903 0.05388638
0.18723452 -0.0044898177 0.003467513 -0.045834802 -0.03603226 0.030944096 0.050120343 0.06677861
0.18370908 -0.025672978 0.013366213 0.03627045 -0.06940107 0.13882191 -0.014398471 0.16983062
0.016789248 0.11419814 -0.11155558 -0.010299329 0.02439011 0.0022338012 0.057752732 0.15130003
0.029760195 0.15752687 -0.015555281 -0.025677228 0.020481383 -0.04973076 0.10711646 0.06303265
0.091804236 0.08558814 -0.14577793 0.03986251 -0.018886056 -0.1727431 -0.08266524 0.052874714
0.12757604 0.17081195 -0.28827572 0.020087507 0.07169673 0.019695276 0.1430938 -0.29829285
-0.09811333 0.0779846 0.06678559 0.14213388 -0.1990128 -0.059926078 -0.0010435481 0.11114196
0.08097761 -0.13189842 -0.01080331 -0.069922365 0.13917308 0.058328137 -0.10003303 0.01708124
-0.10847338 0.028461806 -0.023108762 0.068044305 0.13045171 0.14898382 0.060116015 0.07301416
0.036883205 -0.114945754 -0.0064109406 0.006239226 -0.0105472 0.013119062 -0.05482776 0.017613595
-0.0044075237 0.08481705 -0.07999327 -0.011121118 -0.02373613 0.039169114 0.020377593 -0.060859688
0.12720492 0.07957152 0.13005309 0.14463939 -0.085023634 0.10401759 0.068590954 -0.0772179
0.19614345 0.019619199 -0.031867705 -3.6672998e-06 -0.04705651 0.022887118 -0.00347003 0.082452066
-0.049397226 0.04121745 0.029550862 0.0587829 0.0775814 0.13804664 0.0021969504 -0.0016168252
0.17164959 -0.06376035 0.011457312 -0.024409635 0.11822442 -0.12803067 0.1335438 0.13007857
0.09345093 -0.104065776 -0.1480317 -0.1085739 -0.156031 -0.13277163 -0.12084917 -0.24210851
-0.28473666 -0.2373622 -0.23935482 -0.22868574 -0.18633766 -0.16135046 0.0635899 -0.21273503
0.010888349 0.011656333 0.19895263 0.09741286 -0.04533305 -0.1551727 -0.016238097 0.08474394
0.15533417 0.047349818 -0.22099446 0.12098413 -0.025521547 -0.14520472 0.107021384 -0.07152223
0.11517749 0.15000083 0.060480643 0.07195348 -0.13345516 0.16117945 0.06379871 -0.013377866
0.10953889 -0.24831024 0.13098016 0.17306218 -0.048807334 0.018046068 0.10803462 0.013109732
00000000: 36e3 dc3d 627c bf3d 272c d53d cae1 e0bd
00000010: b1ce 33be a0bd 013d d417 81bc 2907 05be
00000020: 3533 1d3e 73e2 223e 2cc6 393e c287 0c3e
00000030: bbb0 89bc 2aad f8bd 9096 12be f521 9e3c
00000040: 405a 4dbe 1497 46be aad5 f33d 25fe 1cbb
00000050: 844a 54bd 4844 173e 546b 18be 7d72 cf3d
00000060: 8551 383d a430 133d 54a1 733d 3501 a83d
00000070: d3cb 383d ef97 d13d 55cd 853a ef0b d5bd
00000080: 6d37 403d 27b2 cfbd c812 64bd 235b 17bd
00000090: cf58 133d a888 873d f549 ab3d b194 c03d
000000a0: e6a1 333d 12c4 133c 3591 8c3d 1f82 9bbc
000000b0: 1abb 36ba 587f 1c3d 6b97 20bd 9539 47bd
000000c0: 9d9b 433c 48dd b33c 2257 e33d 3040 55bc
000000d0: 9240 243e 0cab 883d 3e5e aa3d b624 c4bd
000000e0: 1f78 86bc 3776 04be 1a22 563e 3295 0a3e
000000f0: aa30 20bd 687e 203e fbcf 203e 1f59 09be
00000100: 17b9 a33c 6ab4 223d 4077 643e 5348 653e
00000110: 8ed9 883e 6f99 f0bd 2f80 ce3d a05b 8dbd
00000120: d341 53bd 45fb 39bb 8813 d63d 9d66 173d
00000130: 081e c6bd 79fc 433d 3b94 cd3d da90 a3bd
00000140: 75d3 233e e72d 123e 0be0 f03d d3ab 803e
00000150: af03 633e abe1 1fbd 964e 17ba f7b7 5c3d
00000160: 68ba 3f3e 521f 93bb 373f 633b 46bd 3bbd
00000170: 9096 13bd 797e fd3c fd4a 4d3d 39c3 883d
00000180: 3c1e 3c3e 2350 d2bc f6fd 5a3c 5390 143d
00000190: 2622 8ebd 5527 0e3e 91e7 6bbc 14e8 2d3e
000001a0: 9b89 893c b7e0 e93d 4077 e4bd 84be 28bc
000001b0: c5cd c73c f764 123b 218e 6c3d 65ee 1a3e
000001c0: a7cb f33c b94e 213e 94db 7ebc 0d59 d2bc
000001d0: 93c8 a73c 7bb2 4bbd e05f db3d 4317 813d
000001e0: dc03 bc3d d648 af3d cf46 15be df46 233d
000001f0: eeb6 9abc 91e3 30be 654c a9bd 2893 583d
00000200: 4ba3 023e 54e9 2e3e e098 93be 8e8e a43c
00000210: bcd5 923d fd57 a13c 2e87 123e d7b9 98be
00000220: a4ef c8bd 64b6 9f3d e2c6 883d 8b8b 113e
00000230: 03ca 4bbe 0c75 75bd aac7 88ba 659e e33d
00000240: 97d7 a53d 6110 07be 5e00 31bc 7533 8fbd
00000250: 6383 0e3e 7ce9 6e3d 1ede ccbd f5ed 8b3c
00000260: 4b27 debd bc28 e93c 964e bdbc d05a 8b3d
00000270: 2295 053e 378f 183e 363c 763d 7388 953d
00000280: d812 173d ae68 ebbd de12 d2bb 6c72 cc3b
00000290: 2ace 2cbc 56f1 563c 1393 60bd 634a 903c
000002a0: fd6c 90bb 90b4 ad3d 83d3 a3bd 5a35 36bc
000002b0: 4672 c2bc cb6f 203d e9ee a63c 0248 79bd
000002c0: 0242 023e 65f6 a23d a32c 053e 591c 143e
000002d0: df20 aebd 2d07 d53d 6a79 8c3d 6b24 9ebd
000002e0: d4d9 483e 71b8 a03c b687 02bd bb1b 76b6
000002f0: 54be 40bd c47d bb3c 7169 63bb a1dc a83d
00000300: bf54 4abd a1d3 283d a614 f23c 57c6 703d
00000310: ffe2 9e3d 195c 0d3e b6fa 0f3b a7eb d3ba
00000320: e9c4 2f3e c994 82bd 73b7 3b3c b7f6 c7bc
00000330: a51f f23d 791a 03be b5bf 083e 5133 053e
00000340: 3463 bf3d 7020 d5bd 9f95 17be fe5b debd
00000350: 97c6 1fbe 49f5 07be c57f f7bd 4beb 77be
00000360: 01c9 91be 140f 73be 6e19 75be 982c 6abe
00000370: 4dcf 3ebe 0e39 25be 6c3b 823d 36d7 59be
00000380: 0c65 323c 34fa 3e3c 3dba 4b3e 6580 c73d
00000390: 26af 39bd 98e5 1ebe c205 85bc 3b8e ad3d
000003a0: ec0f 1f3e e2f1 413d 5f4c 62be 87c6 f73d
000003b0: 9012 d1bc 8cb0 14be 072e db3d 3f7a 92bd
000003c0: 2de2 eb3d d199 193e 8dba 773d 595c 933d
000003d0: 78a8 08be 3a0c 253e e6a8 823d d62e 5bbc
000003e0: ed55 e03d 0a45 7ebe aa1f 063e 3637 313e
000003f0: 33ea 47bd 59d5 933c 4141 dd3d 34ca 563c

conv.0.bias f4 [20]
-0.15074573 -0.2438405 -0.11783039 -0.17681834 -0.19690987 -0.072505325 -0.22286205 -0.27171606
0.09562048 0.014976248 -0.15352446 -0.2496704 -0.3231905 -0.08245654 0.096333005 0.15851015
0.14570563 -0.18532369 -0.22734943 -0.31840757
00000000: 175d 1abe 53b1 79be 0f51 f1bd de0f 35be
00000010: bea2 49be ac7d 94bd f335 64be 5e1e 8bbe
00000020: acd4 c33d f05e 753c 8435 1dbe 99a9 7fbe
00000030: 3a79 a5be f9de a8bd 3d4a c53d 7c50 223e
00000040: db33 153e 7ec5 3dbe 4ace 68be 5106 a3be

conv.2.weight f4 [20]
1.1505957 1.0912275 1.0336471 1.0123594 1.0484384 1.4897555 1.0805784 1.094491
1.118456 1.1676883 1.0619377 1.077868 1.4174501 1.02383 0.9617997 1.069349
1.0002471 1.0324831 1.0998378 1.1050028
00000000: b846 933f 58ad 8b3f 8c4e 843f fe94 813f
00000010: 3b33 863f 4fb0 be3f 6550 8a3f 4818 8c3f
00000020: 9129 8f3f cf76 953f 93ed 873f 94f7 893f
00000030: 016f b53f dd0c 833f 8138 763f 6ee0 883f
00000040: 1908 803f 6828 843f 7cc7 8c3f bb70 8d3f

conv.2.bias f4 [20]
0.14670503 -0.10977149 -0.13209526 -0.18665372 -0.13646936 0.3758729 -0.12866738 -0.14468412
-0.013883888 0.15220566 -0.117495775 -0.15464243 0.37186977 -0.12668152 0.09821697 -0.0040937504
-0.13794562 -0.15286054 -0.1254315 -0.13434665
00000000: d839 163e e0cf e0bd fb43 07be 2722 3fbe
00000010: a0be 0bbe 6a72 c03e 62c1 03be 1328 14be
00000020: 3f79 63bc cddb 1b3e a0a1 f0bd 965a 1ebe
00000030: b765 be3e cdb8 01be fb25 c93d de24 86bb
00000040: 9e41 0dbe 7987 1cbe 1d71 00be 2b92 09be

conv.2.running_mean f4 [20]
-0.010223263 -0.03365762 0.098746255 0.05333788 0.00054386235 0.006434652 -0.036226008 -0.01655812
-0.0035922376 0.10509915 0.048309237 0.0056623397 -0.054891545 0.1321354 0.040157236 0.27389985
0.25945836 0.07098003 -0.05731748 -0.0633907
00000000: 797f 27bc 93dc 09bd 7a3b ca3d d278 5a3d
00000010: fc91 0e3a c6d9 d23b b961 14bd e5a4 87bc
00000020: bf6b 6bbb 393e d73d e8df 453d 268b b93b
00000030: f5d5 60bd 814e 073e ea7b 243d 9a3c 8c3e
00000040: bad7 843e fa5d 913d bcc5 6abd fcd2 81bd

conv.2.running_var f4 [20]
0.008229189 0.0029077078 0.050909955 0.03686566 0.013673682 0.009170782 0.0022963446 0.012518039
0.014406186 0.023972392 0.03005486 0.023474578 0.0043607554 0.053291623 0.01671602 0.04365742
0.03892589 0.050147 0.00032843128 0.0005897566
00000000: b8d3 063c 3e8f 3e3b f586 503d 7200 173d
00000010: 9407 603c 0c41 163c 457e 163b 7618 4d3c
00000020: ec07 6c3c c061 c43c 9c35 f63c c24d c03c
00000030: abe4 8e3b 5148 5a3d 09f0 883c 1fd2 323d
00000040: c170 1f3d f166 4d3d 4d31 ac39 e599 1a3a

conv.3.weight f4 [1, 20, 5, 5]
-0.085557 -0.137346 -0.14904839 -0.10740508 -0.14289653 -0.10912574 -0.113710314 -0.112907834
-0.13545386 -0.052004315 -0.108967036 -0.102437645 -0.1439552 -0.09958673 -0.13793392 -0.12598324
-0.13208142 -0.17476209 -0.09221718 -0.14291346 -0.112270914 -0.11915359 -0.121509686 -0.12516393
-0.12373846 0.11059988 0.05942728 0.09253338 0.10998412 0.10888915 0.090583675 0.0665852
0.09134035 0.12667847 0.1181949 0.11486379 0.08891168 0.1349398 0.13382483 0.12660123
0.11659441 0.0544493 0.13978107 0.06110747 0.12395146 0.048214532 0.051717397 0.09282216
0.0495757 0.09379682 0.026965704 0.0694541 0.07004768 0.10743555 0.058017667 0.04735176
0.0675017 0.06397557 0.12290163 0.09224568 0.11456412 0.081608914 0.06745659 0.08926885
0.12581006 0.085672006 0.06399563 0.11825265 0.10915642 0.03964298 0.083568566 0.10814551
0.097809784 0.043588575 0.09765117 0.09379822 0.10943119 0.1004108 0.078127466 0.05226455
0.13426203 0.10233471 0.111403614 0.1275651 0.12275828 0.23140027 0.17946883 0.19102539
0.20896138 0.16679002 0.030786762 0.038385775 0.11113692 0.045537427 0.06292991 -0.010931331
0.09415376 0.19227494 0.12242194 0.06873258 0.05078891 0.07663235 0.07677128 0.08062698
0.12211269 0.092724994 0.10384278 0.09984766 0.14516924 0.13670497 0.076303415 0.104706734
0.09149487 0.089965604 0.119271465 0.10501098 0.06335567 0.09266132 0.11368684 0.08624428
0.091128275 0.14145648 0.12800021 0.09321703 0.06703636 -0.18548512 -0.27597874 -0.22491823
-0.23790334 -0.16652754 -0.2045401 -0.30252585 -0.25206882 -0.3040182 -0.15298727 -0.27195475
-0.28183848 -0.28626904 -0.37630686 -0.20199011 -0.28848827 -0.3390012 -0.21027073 -0.22804616
-0.17895836 -0.2708462 -0.38389638 -0.28608885 -0.3274623 -0.13806973 0.0658528 0.08372119
0.10044714 0.08631665 0.08323767 0.10882105 0.096802905 0.14180195 0.11618717 0.040497784
0.07391715 0.119800426 0.07733671 0.08761491 0.08247786 0.13484398 0.11620875 0.07549289
0.06460238 0.07973365 0.08737731 0.117391914 0.082195245 0.03630044 0.10940636 0.047972903
0.10674358 0.042396598 0.0450365 0.08434386 0.07732778 0.14758633 0.10299346 0.09150177
0.103668824 0.098536275 0.20029451 0.13921681 0.14615159 0.067832224 -0.008645815 0.15783025
0.23005767 0.1571767 0.061971728 -0.04022217 -0.032072704 0.07130949 0.010672224 -0.059972074
0.0984677 0.09337284 0.06802924 0.13061222 0.10581951 0.063943915 0.065036185 0.02850346
0.0575124 0.07254647 -0.11054515 -0.16654904 -0.2435044 -0.09541571 -0.08411403 -0.0348664
-0.029356366 -0.043101102 -0.06637574 -0.0682644 0.030463463 -0.010706298 -0.008217535 -0.06319265
-0.0737913 -0.11207546 -0.13694812 -0.091302976 -0.14861946 -0.1008217 -0.12994882 -0.09207044
-0.11068417 -0.06274733 -0.10338749 -0.11800956 -0.1537004 -0.08632844 -0.068650916 -0.05645129
-0.1395499 -0.15033849 -0.12289223 -0.121397875 -0.07055599 -0.15351182 -0.18223506 -0.14671342
-0.15015416 -0.08637604 0.00930304 0.09506985 0.104789816 0.097855285 0.084611826 0.11911864
00000000: 8238 afbd 6ea4 0cbe 24a0 18be 32f7 dbbd
00000010: 7853 12be 517d dfbd f4e0 e8bd 393c e7bd
00000020: 6bb4 0abe 7a02 55bd 1c2a dfbd d4ca d1bd
00000030: fe68 13be 21f4 cbbd 8d3e 0dbe c001 01be
00000040: 5a40 07be d5f4 32be 5cdc bcbd e857 12be
00000050: 4bee e5bd cc06 f4bd 12da f8bd f92a 00be
00000060: 976a fdbd 3182 e23d 056a 733d 2482 bd3d
00000070: 5b3f e13d 4601 df3d ef83 b93d d25d 883d
00000080: a610 bb3d 00b8 013e 2b10 f23d b53d eb3d
00000090: 5417 b63d a92d 0a3e 6009 093e c1a3 013e
000000a0: 0dc9 ee3d 3b06 5f3d c522 0f3e d44b 7a3d
000000b0: 43da fd3d 9a7c 453d 9fd5 533d 8b19 be3d
000000c0: e40f 4b3d 8c18 c03d 2ee7 dc3c f43d 8e3d
000000d0: 2875 8f3d 2b07 dc3d efa3 6d3d ebf3 413d
000000e0: 553e 8a3d a005 833d dab3 fb3d 4eeb bc3d
000000f0: 98a0 ea3d 9322 a73d ae26 8a3d 96d2 b63d
00000100: 5ad4 003e ce74 af3d 2410 833d 722e f23d
00000110: 678d df3d ad60 223d ff25 ab3d 657b dd3d
00000120: 7f50 c83d ef89 323d 56fd c73d 4819 c03d
00000130: 761d e03d 2da4 cd3d 4b01 a03d 5a13 563d
00000140: fc7b 093e dc94 d13d 9427 e43d 6da0 023e
00000150: b168 fb3d 31f4 6c3e adc6 373e 299c 433e
00000160: f9f9 553e 01cb 2a3e 8534 fc3c 673a 1d3d
00000170: c19b e33d 7485 3a3d 66e1 803d 5319 33bc
00000180: b0d3 c03d b9e3 443e 5bb8 fa3d abc3 8c3d
00000190: 0808 503d 6cf1 9c3d 433a 9d3d c21f a53d
000001a0: 3816 fa3d 9ae6 bd3d 86ab d43d ee7c cc3d
000001b0: 3fa7 143e 63fc 0b3e f744 9c3d 7c70 d63d
000001c0: aa61 bb3d e33f b83d 9944 f43d ff0f d73d
000001d0: 9ec0 813d 38c5 bd3d a5d4 e83d d7a0 b03d
000001e0: 76a1 ba3d f8d9 103e 7d12 033e 92e8 be3d
000001f0: 5c4a 893d d0ef 3dbe 164d 8dbe f750 66be
00000200: ef9c 73be 3286 2abe f672 51be abe4 9abe
00000210: 2a0f 81be 46a8 9bbe b2a8 1cbe a73d 8bbe
00000220: 224d 90be db91 92be 4bab c0be 7fd6 4ebe
00000230: bcb4 93be 9191 adbe 3651 57be ef84 69be
00000240: dc40 37be 5aac 8abe 118e c4be 3d7a 92be
00000250: 23a9 a7be 2762 0dbe d5dd 863d 0476 ab3d
00000260: 3bb7 cd3d c9c6 b03d 8378 aa3d 92dd de3d
00000270: 9a40 c63d 8834 113e 8af3 ed3d 01e1 253d
00000280: e061 973d ed59 f53d b662 9e3d 726f b33d
00000290: 27ea a83d 8a14 0a3e dafe ed3d 049c 9a3d
000002a0: 414e 843d 654b a33d e0f2 b23d 2c6b f03d
000002b0: fb55 a83d c5af 143d 7110 e03d 3c7f 443d
000002c0: 619c da3d 0ea8 2d3d 3178 383d 79bc ac3d
000002d0: 075e 9e3d df20 173e 3cee d23d 4865 bb3d
000002e0: 5250 d43d 63cd c93d 011a 4d3e da8e 0e3e
000002f0: c3a8 153e 9feb 8a3d 2da7 0dbc 419e 213e
00000300: 3d94 6b3e eef2 203e 11d6 7d3d 01c0 24bd
00000310: ab5e 03bd b60a 923d 8dda 2e3c 47a5 75bd
00000320: 6fa9 c93d 423a bf3d ea52 8b3d 36bf 053e
00000330: e6b7 d83d 07f5 823d b131 853d 1780 e93c
00000340: 1f92 6b3d 3e93 943d 7f65 e2bd d58b 2abe
00000350: 3859 79be 5069 c3bd fa43 acbd 12d0 0ebd
00000360: c37c f0bc c88a 30bd 01f0 87bd 35ce 8bbd
00000370: 838e f93c 7869 2fbc d7a2 06bc 266b 81bd
00000380: e51f 97bd d287 e5bd 213c 0cbe 0efd babd
00000390: b32f 18be 9c7b cebd 4e11 05be 6d8f bcbd
000003a0: 62ae e2bd ac81 80bd d2bc d3bd ffae f1bd
000003b0: a363 1dbe f7cc b0bd da98 8cbd 7839 67bd
000003c0: 2be6 0ebe 55f2 19be ecae fbbd 739f f8bd
000003d0: a97f 90bd 3432 1dbe d49b 3abe 0b3c 16be
000003e0: 03c2 19be ece5 b0bd c76b 183c fbb3 c23d
000003f0: 0b9c d63d 5a68 c83d f748 ad3d 79f4 f33d
