src/caches/cache_11_14_big/param2img9.pt (torch, 184864 bytes, 19 tensors)

main.0.weight f4 [16]
0.86343676 0.843232 0.86004615 0.952024 0.91323787 1.074308 1.0891161 0.9787885
1.0640807 1.1276525 1.0547895 0.931452 1.1429307 0.85019606 0.85265636 0.97638357
00000000: 310a 5d3f 0dde 573f fc2b 5c3f d8b7 733f
00000010: f5c9 693f ed82 893f 2868 8b3f e291 7a3f
00000020: cc33 883f eb56 903f 5803 873f a373 6e3f
00000030: 8e4b 923f 73a6 593f b047 5a3f 46f4 793f

main.0.bias f4 [16]
0.06601089 0.05776152 0.04396122 0.041087974 -0.07013818 0.0064659202 -0.03696913 0.10051712
-0.07087176 -0.15285075 0.098433726 -0.031761367 -0.053127594 -0.09256768 -0.068881616 -0.11827233
00000000: b830 873d 5897 6c3d ae10 343d dd4b 283d
00000010: 9ba4 8fbd 12e0 d33b f16c 17bd ebdb cd3d
00000020: 3725 91bd e884 1cbe 9f97 c93d 3518 02bd
00000030: 529c 59bd 2094 bdbd ce11 8dbd c338 f2bd

main.0.running_mean f4 [16]
3.8423976e-05 3.2565946e-05 0.20000488 0.0032807598 0.010121466 0.0014762322 0.5489499 0.003240782
0.020246122 0.0014361724 0.54899377 0.0032151209 0.030373462 2.8132006e-06 0.19999515 0.003223976
00000000: 6e29 2138 6b97 0838 14ce 4c3e 0402 573b
00000010: 81d4 253c 227e c13a fb87 0c3f 4d63 543b
00000020: 32db a53c f33d bc3a db8a 0c3f c7b4 523b
00000030: c4d1 f83c 6bca 3c36 87cb 4c3e 5749 533b

main.0.running_var f4 [16]
1.0276968e-06 9.335185e-07 9.960769e-07 0.0021837791 1.7824843e-05 0.00014942903 0.07981698 0.002184669
6.767053e-05 0.00015043867 0.079810515 0.00218063 0.00014994325 9.704914e-07 1.0384767e-06 0.0021795614
00000000: 65ef 8935 e796 7a35 f1b0 8535 bc1d 0f3b
00000010: 8f86 9537 0db0 1c39 1677 a33d aa2c 0f3b
00000020: 57ea 8d38 13bf 1d39 b273 a33d e7e8 0e3b
00000030: 163a 1d39 d541 8235 ca61 8b35 f9d6 0e3b

main.1.weight f4 [20, 16]
-0.017027419 0.013165876 -0.02973886 -0.12836824 -0.05910016 -0.17255369 -0.11909539 0.10053836
0.16353343 -0.16665949 0.03166839 0.030369809 0.14724925 0.063941635 -0.055314112 -0.09885777
0.05357479 0.08292767 0.014649899 0.023223536 0.2339193 0.16284138 0.23382491 -0.08445614
0.16723181 0.020466559 -0.03255946 -0.08466826 0.20492819 -0.08355317 0.03432899 0.10735035
0.023074355 -0.077065475 0.11720865 -0.1098525 -0.24742962 -0.23896717 0.024210097 -0.09540891
0.08555914 -0.14003144 0.2532412 -0.109879464 -0.24224596 -0.009242765 0.038310923 -0.04569648
0.061958596 -0.091503516 -0.03608822 -0.21346763 -0.11422486 0.023064958 0.069695055 0.026835645
-0.15459244 0.06838913 0.13824496 0.1154408 -0.2971517 0.014810567 0.019186098 0.02472637
-0.04320586 -0.064100966 0.09005261 0.039690044 0.16619182 -0.15665665 0.22114886 -0.2895333
0.00418273 -0.013821195 -0.18334997 -0.100426614 0.14311422 0.035661 -0.09391779 -0.22786042
0.047882304 0.12773879 0.049612075 0.05998336 -0.060510796 0.04925532 -0.21677448 0.14279933
0.09766599 0.345078 -0.11638309 -0.032950908 0.24943435 0.11844532 -0.11249839 -0.02964671
-0.03826713 0.019667938 -0.033385776 -0.03454974 0.024569852 0.16604273 0.1709106 0.19833355
0.12559432 0.0071376814 0.3101487 0.027868314 -0.26531625 -0.0543129 0.019212887 0.023709975
0.10513921 0.08942517 0.08261688 0.08622523 0.02698694 0.21531272 -0.06564143 -0.16042495
0.15785395 -0.13288607 -0.06490626 -0.095236376 0.34793937 -0.01240779 0.14532515 0.22112226
0.008099577 0.060493577 0.020776557 0.101131886 -0.1116383 -0.043895107 -0.024710987 0.21236831
-0.1763841 -0.16882516 0.25295717 -0.22863369 -0.06725694 -0.05062379 -0.11278997 -0.05795043
0.104567155 0.020697119 -0.046720866 -0.14733349 0.109956756 0.023477755 0.27299932 -0.069135055
0.01270767 0.06951728 -0.01940633 -0.008291987 0.3137666 -0.053510856 -0.037046444 -0.024039287
0.055307027 -0.012606707 -0.08348218 0.03243624 0.010769165 -0.13357201 -0.039045606 0.14621733
-0.27206206 -0.044444542 -0.12041513 -0.08970944 -0.06675441 -0.024308015 0.12144668 0.2033877
-0.09542404 -0.03864459 -0.08819271 0.25777903 -0.06431117 -0.019993065 0.23922054 -0.02669605
0.28501087 0.07052512 -0.20921728 -0.18875107 0.32266328 0.12575391 -0.0049119163 0.0011855336
0.11957834 0.042268403 -0.01750651 0.10271208 0.22425267 -0.087761 -0.2942136 -0.1273498
0.073468626 -0.08418066 -0.20634745 -0.17444496 0.12685107 -0.075410664 0.06945409 0.085263245
-0.028098319 -0.07947996 -0.029103415 -0.1053587 -0.22971542 0.24671756 -0.19701843 0.15423878
-0.09696124 0.107473195 0.16437446 -0.05975012 -0.25838295 0.1300226 0.06308939 -0.11584118
0.030671403 -0.06862829 -0.138277 0.1466158 0.1436985 0.099307284 -0.16266437 -0.08124832
0.31624314 -0.2656615 0.25742552 0.020375455 -0.030860707 -0.016889706 0.09584116 0.05791051
0.0048409663 -0.06932633 -0.0049247458 -0.1301008 -0.11142996 0.23375659 0.009459253 -0.09796553
-0.10266716 0.28763455 -0.06694548 -0.12653606 0.27656946 -0.022108493 0.04577548 0.22256507
00000000: 167d 8bbc b0b5 573c e99e f3bc f772 03be
00000010: 0213 72bd eab1 30be 49e8 f3bd 0ee7 cd3d
00000020: 4f75 273e c9a8 2abe b7b6 013d 1bca f83c
00000030: 82c8 163e d5f3 823d 0d91 62bd f175 cabd
00000040: 3d71 5b3d fbd5 a93d 2106 703c 493f be3c
00000050: 8a88 6f3e e4bf 263e cc6f 6f3e 57f7 acbd
00000060: d13e 2b3e 7ca9 a73c 115d 05bd 8d66 adbd
00000070: b2d8 513e ed1d abbd 8e9c 0c3d 80da db3d
00000080: 6e06 bd3c 81d4 9dbd 170b f03d 59fa e0bd
00000090: 315e 7dbe cfb3 74be 4154 c63c bf65 c3bd
000000a0: a139 af3d 6764 0fbe d5a8 813e 7c08 e1bd
000000b0: 530f 78be f76e 17bc eaeb 1c3d 3b2c 3bbd
000000c0: 4cc8 7d3d 3266 bbbd 3ed1 13bd 4297 5abe
000000d0: b9ee e9bd b9f2 bc3c 48bc 8e3d 6dd6 db3c
000000e0: 7b4d 1ebe 9a0f 8c3d 1690 0d3e 3a6c ec3d
000000f0: 4524 98be 05a8 723c 2a2c 9d3c f58e ca3c
00000100: a1f8 30bd 5e47 83bd 816d b83d 0792 223d
00000110: 302e 2a3e 9a6a 20be d974 623e b53d 94be
00000120: 480f 893b 4b72 62bc 18c0 3bbe 78ac cdbd
00000130: 898c 123e 4511 123d f857 c0bd 3e54 69be
00000140: 3c20 443d f5cd 023e 0836 4b3d 1db1 753d
00000150: 2bda 77bd f2bf 493d 21fa 5dbe fd39 123e
00000160: 1b05 c83d 10ae b03e 425a eebd 88f7 06bd
00000170: b86b 7f3e 7693 f23d 8e65 e6bd a8dd f2bc
00000180: febd 1cbd a81e a13c 86bf 08bd 0784 0dbd
00000190: b746 c93c 1b07 2a3e 3003 2f3e f317 4b3e
000001a0: cc9b 003e 36e3 e93b cfcb 9e3e 174c e43c
000001b0: 88d7 87be 3477 5ebd 5864 9d3c 6c3b c23c
000001c0: 3a53 d73d 8b24 b73d 0a33 a93d da96 b03d
000001d0: b713 dd3c f07a 5c3e 046f 86bd 7046 24be
000001e0: 77a4 213e 4913 08be 93ed 84bd 4a0b c3bd
000001f0: 1c25 b23e 0b4a 4bbc 1ed0 143e e06d 623e
00000200: 17b4 043c 1dc8 773d 9933 aa3c 3c1e cf3d
00000210: 9fa2 e4bd 5bcb 33bd b26e cabc 1477 593e
00000220: 099e 34be 81e0 2cbe 9a83 813e f31e 6abe
00000230: 02be 89bd e45a 4fbd 6efe e6bd 6e5d 6dbd
00000240: 4e27 d63d 018d a93c 615e 3fbd 97de 16be
00000250: 0231 e13d 6c54 c03c 91c6 8b3e ae96 8dbd
00000260: d533 503c 135f 8e3d 06fa 9ebc 1ddb 07bc
00000270: 04a6 a03e 332e 5bbd 03be 17bd 0aee c4bc
00000280: 9f89 623d 5d8c 4ebc b5f8 aabd dddb 043d
00000290: 2771 303c 1ac7 08be 49ee 1fbd ffb9 153e
000002a0: b84b 8bbe 7b0b 36bd 359c f6bd 95b9 b7bd
000002b0: 89b6 88bd 9a21 c7bc 09b9 f83d dd44 503e
000002c0: ae6d c3bd ca49 1ebd 619e b4bd 9dfb 833e
000002d0: 93b5 83bd 7fc8 a3bc 3bf6 743e adb1 dabc
000002e0: f2ec 913e 796f 903d 0e3d 56be f647 41be
000002f0: 1f34 a53e a2c5 003e 24f4 a0bb e863 9b3a
00000300: 7de5 f43d a221 2d3d d069 8fbc b65a d23d
00000310: 7ea2 653e 0abc b3bd 2aa3 96be fc67 02be
00000320: b876 963d e966 acbd bf4c 53be b3a1 32be
00000330: 3fe5 013e e870 9abd f23d 8e3d 7f9e ae3d
00000340: 722e e6bc 64c6 a2bd 496a eebc 4dc6 d7bd
00000350: 853a 6bbe 87a3 7c3e 33bf 49be c5f0 1d3e
00000360: 9d93 c6bd e81a dc3d c751 283e 8bbc 74bd
00000370: c54a 84be a524 053e 0335 813d 243e edbd
00000380: 9842 fb3c fd8c 8cbd 7c98 0dbe 7422 163e
00000390: b325 133e 9e61 cb3d 7d91 26be 8565 a6bd
000003a0: 9fea a13e c904 88be 47cd 833e 6dea a63c
000003b0: 98cf fcbc 485c 8abc 5f48 c43d 9233 6d3d
000003c0: f8a0 9e3b f7fa 8dbd c35f a1bb 2539 05be
000003d0: 6435 e4bd e35d 6f3e fcfa 1a3c 27a2 c8bd
000003e0: 2943 d2bd d644 933e b61a 89bd ab92 01be
000003f0: 839a 8d3e df1c b5bc 127f 3b3d 19e8 633e

main.1.bias f4 [20]
-0.0276475 -0.18055527 0.23592092 -0.0035402556 -0.04618322 -0.17465904 0.16365294 0.13347307
0.080380246 0.25686955 0.20110878 -0.03882843 0.068928525 -0.03764626 0.1862851 -0.18894932
-0.062255017 0.11842157 0.006397627 -0.020151129
00000000: 037d e2bc 7be3 38be 4195 713e a203 68bb
00000010: 9e2a 3dbd d2d9 32be a394 273e 2aad 083e
00000020: 669e a43d 6884 833e 76ef 4d3e 8f0a 1fbd
00000030: 662a 8d3d f732 1abd 85c1 3e3e ee7b 41be
00000040: 1eff 7ebd 0287 f23d 2fa3 d13b fb13 a5bc

main.3.weight f4 [20]
0.95109236 0.944385 0.9278032 0.98485357 0.90163237 0.9382204 0.96092075 0.84988505
1.0018928 0.9163889 0.9668623 0.8821075 0.9349129 0.9919925 0.8332947 0.9484519
0.92965144 0.90214556 0.9388018 0.87692493
00000000: ca7a 733f 37c3 713f 8384 6d3f 5d1f 7c3f
00000010: 61d1 663f 362f 703f e7fe 753f 1192 593f
00000020: 063e 803f 7798 6a3f 4a84 773f ccd1 613f
00000030: 7456 6f3f 38f3 7d3f cd52 553f becd 723f
00000040: a3fd 6d3f 03f3 663f 5155 703f 277e 603f

main.3.bias f4 [20]
-0.11454354 -0.14908284 -0.09746863 -0.077324465 0.010362602 -0.10346147 0.09289437 0.09994124
-0.110799946 0.13809359 -0.13059984 0.045793697 -0.09025938 -0.105418526 0.06728665 -0.16975817
-0.035819225 -0.12530135 -0.1307901 -0.20194443
00000000: ce95 eabd 2ca9 18be a29d c7bd 4a5c 9ebd
00000010: e7c7 293c 9be3 d3bd 673f be3d fead cc3d
00000020: 15eb e2bd 6868 0d3e f7bb 05be 2c92 3b3d
00000030: e9d9 b8bd abe5 d7bd 95cd 893d 16d5 2dbe
00000040: 2eb7 12bd ff4e 00be d7ed 05be 85ca 4ebe

main.3.running_mean f4 [20]
0.15480469 0.07480968 0.44266024 0.21882619 0.16364795 0.12375966 0.32875988 0.2661255
0.31044063 0.33106172 0.29297748 0.13673414 0.24822195 0.21660368 0.27872005 0.054591473
0.1600935 0.27087143 0.17087947 0.2769278
00000000: 1f85 1e3e d135 993d 5da4 e23e f913 603e
00000010: 5493 273e b475 fd3d 3753 a83e 9a41 883e
00000020: 13f2 9e3e ec80 a93e 2501 963e 0904 0c3e
00000030: e52d 7e3e 5bcd 5d3e 65b4 8e3e 4f9b 5f3d
00000040: 8def 233e a9af 8a3e 07fb 2e3e 7bc9 8d3e

main.3.running_var f4 [20]
0.080470264 0.09123656 0.34085852 0.1618631 0.1483066 0.15844297 0.18756217 0.15612842
0.14392158 0.16535163 0.1551213 0.10270534 0.19663571 0.16321236 0.12699296 0.085268736
0.08500469 0.2514508 0.12520485 0.28634986
00000000: 98cd a43d 3cda ba3d 0285 ae3e 71bf 253e
00000010: afdd 173e e03e 223e 4c10 403e 21e0 1f3e
00000020: 2e60 133e f051 293e 1ed8 1e3e 2d57 d23d
00000030: df5a 493e 2421 273e 710a 023e 60a1 ae3d
00000040: f016 ae3d 29be 803e b335 003e 739c 923e

main.4.weight f4 [2048, 20]
-0.27231947 -0.21784483 -0.14012696 -0.08654971 0.13541068 0.15714373 0.007677116 0.107813425
0.129689 -0.088885814 -0.08311204 0.111192785 0.092397764 0.059720736 0.013317059 0.22127402
-0.3120031 0.07337098 -0.06173364 -0.24542053 -0.065437 0.17532186 -0.22794367 -0.19021231
0.12109602 0.0010361298 0.1665312 0.07912725 -0.20277353 -0.110266164 0.0071705324 -0.034685813
0.05619037 0.079801686 -0.13731171 0.08076595 0.081289835 -0.039147153 0.19855468 0.12114579
0.035995413 0.122580566 0.059566274 0.08753062 -0.109133005 -0.07621698 -0.059215818 0.032418452
0.1480422 0.10173111 -0.17977247 -0.20566203 -0.13107197 0.05137256 0.10983726 -0.20287685
-0.058904793 0.03172078 -0.16130248 -0.11739392 0.0037301863 0.048095 -0.10630744 -0.027951688
-0.011763013 -0.12801243 0.009374021 -0.17125559 -0.0439914 -0.07563303 -0.17118466 -0.07641579
0.12323105 0.045978967 0.18605426 -0.16846047 -0.07423738 0.0050212243 -0.05769434 -0.020284666
0.042786155 0.03376317 0.23453693 0.0015620893 -0.17843719 -0.11813989 0.10732495 0.104197726
-0.17700313 0.1909718 0.05901059 0.031029383 0.1850031 0.011986733 -0.22290583 -0.12662363
0.015150357 0.07136233 0.009861211 -0.07222574 0.24465297 -0.043010008 -0.07432198 0.04821641
0.12282884 -0.22600758 0.19352575 0.09118479 -0.20310754 -0.060746472 0.20418014 -0.21554272
0.11675887 0.0049745985 -0.0658821 0.14376292 0.20900531 -0.00972474 0.15200111 -0.15422979
-0.06333252 0.12476736 0.030169308 -0.059771366 -0.14926003 -0.102355495 -0.09917096 -0.07544695
-0.1109042 0.060664143 -0.0386107 0.06625157 -0.0054999343 0.14126582 -0.08844821 -0.18728471
-0.03586593 -0.153904 -0.11526794 -0.043554932 0.006342793 -0.20654058 0.11887734 -0.09592087
-0.07379156 -0.19370209 -0.029061938 -0.100953795 -0.14017917 0.17512938 -0.12392763 -0.048871204
-0.24141186 -0.100492485 -0.16433029 -0.10685026 0.0050353575 0.035519104 0.110123694 0.15345323
-0.06192152 0.051611587 -0.0813682 0.057707027 -0.053818163 -0.13305306 -0.057409644 -0.070087366
-0.21448864 0.04844285 -0.048635192 -0.10419904 0.0065629613 -0.008645815 0.0969411 -0.22961755
0.13330391 -0.25895253 0.031628992 -0.10556972 -0.20113687 -0.16261426 0.10771628 0.046652358
-0.010716272 -0.046128247 -0.20183562 0.15607592 -0.1587534 0.16393772 0.13545528 -0.09548441
-0.092745334 0.14734912 -0.10859233 -0.10604684 0.15539654 -0.11667593 0.135737 -0.02196216
0.06910438 0.011529015 0.009742308 -0.0250198 -0.015958821 0.18076988 0.08115509 -0.06147713
-0.22166279 -0.037603904 0.007400936 -0.06414982 -0.21401602 -0.05660578 0.2225562 0.14756095
-0.19429493 0.20196714 -0.121524766 -0.103700265 0.08143556 0.14270954 -0.049614806 0.16202809
0.015759792 0.13060164 -0.06908704 -0.079005204 -0.107740335 -0.18036206 -0.032047797 -0.055122703
0.0038452384 -0.12864402 -0.11619781 -0.16320068 0.06137892 0.1830409 -0.24285358 0.0911357
0.074716985 0.13039155 0.10559735 -0.280417 -0.031262342 -0.268626 -0.051005512 -0.023458404
-0.08701116 -0.021642132 0.07045527 -0.048870724 -0.07513186 0.037133824 -0.03332971 -0.050660763
00000000: 756d 8bbe b712 5fbe 717d 0fbe f940 b1bd
00000010: 19a9 0a3e 49ea 203e 5190 fb3b 49cd dc3d
00000020: 31cd 043e c409 b6bd a536 aabd 0bb9 e33d
00000030: 0a3b bd3d bb9d 743d cb2f 5a3c a895 623e
00000040: dfbe 9fbe 8643 963d 6adc 7cbd 854f 7bbe
00000050: d503 86bd 9387 333e 116a 69be 04c7 42be
00000060: 3101 f83d bfce 873a 2887 2a3e 780d a23d
00000070: dda3 4fbe 3ad3 e1bd c9f6 ea3b b612 0ebd
00000080: e027 663d 116f a33d 719b 0cbe 9e68 a53d
00000090: 497b a63d c458 20bd eb51 4b3e 491b f83d
000000a0: ed6f 133d 850b fb3d c4fb 733d 4143 b33d
000000b0: 2081 dfbd a617 9cbd 498c 72bd 36c9 043d
000000c0: 6098 173e 6658 d03d 4616 38be 1199 52be
000000d0: bb37 06be 096c 523d 5bf2 e03d f3be 4fbe
000000e0: 2746 71bd a6ed 013d 7a2c 25be 396c f0bd
000000f0: 2476 743b 43ff 443d b7b7 d9bd f0fa e4bc
00000100: a7b9 40bc b115 03be 7e95 193c a05d 2fbe
00000110: 5430 34bd 7de5 9abd 084b 2fbe e27f 9cbd
00000120: 9060 fc3d 7154 3c3d 0285 3e3e e780 2cbe
00000130: c409 98bd 1589 a43b e650 6cbd 072c a6bc
00000140: 8940 2f3d 404b 0a3d 732a 703e 05bf cc3a
00000150: 3db8 36be 54f3 f1bd 2fcd db3d 9e65 d53d
00000160: 4f40 35be 1d8e 433e 17b5 713d 5531 fe3c
00000170: 7471 3d3e 0164 443c 6d41 64be a0a9 01be
00000180: 3439 783c 6a26 923d eb90 213c 17eb 93bd
00000190: 4f86 7a3e 432b 30bd 1f36 98bd 927e 453d
000001a0: b08d fb3d 886e 67be 9d2b 463e 17bf ba3d
000001b0: 6cfb 4fbe 4bd1 78bd 9914 513e 3bb7 5cbe
000001c0: 461f ef3d f501 a33b 32ed 86bd 9636 133e
000001d0: 7d05 563e 8454 1fbc 2ea6 1b3e 6aee 1dbe
000001e0: 7bb4 81bd 0886 ff3d a025 f73c d2d2 74bd
000001f0: 9fd7 18be c29f d1bd 251a cbbd ee83 9abd
00000200: be21 e3bd f77a 783d 4126 1ebd e7ae 873d
00000210: cb38 b4bb fda7 103e 5624 b5bd 90c7 3fbe
00000220: 27e8 12bd 0399 1dbe 9911 ecbd a866 32bd
00000230: 34d7 cf3b 607f 53be f675 f33d 2972 c4bd
00000240: 0820 97bd d759 46be 4d13 eebc ddc0 cebd
00000250: 218b 0fbe 1e55 333e c5cd fdbd 2c2d 48bd
00000260: ac34 77be 01cf cdbd 3346 28be 4fd4 dabd
00000270: a4ff a43b 7b7c 113d 8888 e13d d822 1d3e
00000280: 6ba1 7dbd ac66 533d 5fa4 a6bd 345e 6c3d
00000290: 6f70 5cbd 103f 08be 6026 6bbd f789 8fbd
000002a0: e9a2 5bbe 036c 463d b235 47bd 4e66 d5bd
000002b0: 1c0e d73b 2da7 0dbc 0e89 c63d dd20 6bbe
000002c0: d280 083e 6d95 84be 678d 013d f034 d8bd
000002d0: d3f6 4dbe 5a84 26be 5a9a dc3d 8b16 3f3d
000002e0: 4d93 2fbc f9f0 3cbd ffad 4ebe 5ed2 1f3e
000002f0: 4090 22be 4adf 273e cab4 0a3e 558d c3bd
00000300: 44f1 bdbd b0e2 163e a865 debd 162f d9bd
00000310: 4520 1f3e caf3 eebd a4fe 0a3e fde9 b3bc
00000320: 9986 8d3d 32e4 3c3c 349e 1f3c 53f6 ccbc
00000330: 13bc 82bc bd1b 393e a434 a63d 71cf 7bbd
00000340: 92fb 62be 8d06 1abd 8d83 f23b fb60 83bd
00000350: 0427 5bbe 76db 67bd c6e5 633e 381a 173e
00000360: 40f5 46be 79d0 4e3e fae1 f8bd ce60 d4bd
00000370: b0c7 a63d 7322 123e e538 4bbd b1ea 253e
00000380: ae1a 813c 70bc 053e 827d 8dbd 7bcd a1bd
00000390: f7a6 dcbd d5b0 38be 8d44 03bd 58c8 61bd
000003a0: 6500 7c3b 42bb 03be 1ef9 edbd 141e 27be
000003b0: 7668 7b3d 136f 3b3e 9cae 78be 5ba5 ba3d
000003c0: 3805 993d 5d85 053e 6c43 d83d d192 8fbe
000003d0: f10c 00bd 5989 89be 28eb 50bd d72b c0bc
000003e0: e832 b2bd d74a b1bc da4a 903d ab2c 48bd
000003f0: bcde 99bd a319 183d bc84 08bd a981 4fbd

main.4.bias f4 [2048]
-0.14604838 0.006955719 0.13376398 -0.18536429 -0.061626326 -0.15005173 0.17696686 0.06473197
0.037973616 -0.16211885 -0.07458014 -0.06936651 0.10397461 -0.029965244 0.14868884 0.0754683
0.12712169 -0.18593898 0.13100043 0.10919952 -0.17962486 -0.06912084 0.18362959 -0.13299765
0.15015616 0.10165093 -0.10314523 -0.09532197 0.10772707 0.16816078 -0.14321211 -0.055935137
-0.15459256 -0.046966035 0.045661904 0.10714075 -0.023707831 0.16164431 0.16370437 0.20856784
0.15660104 -0.100748755 -0.07587542 -0.013729706 -0.047338948 -0.01801183 0.09746849 -0.1502378
-0.1352739 0.13907962 -0.06089756 -0.075801656 0.18286662 0.23166734 0.034258615 0.084770866
-0.036558837 0.2166388 -0.111044094 0.16449757 -0.0023600508 0.019817613 0.08480538 -0.22223416
0.07713627 0.13353968 0.25128046 -0.110536225 0.18341699 0.023384625 -0.11600681 0.26875558
0.02665188 0.068877526 0.21765314 0.023908399 -0.02457125 -0.12677795 0.036109414 -0.09309692
-0.097706854 -0.09927617 -0.12129933 -0.09792664 0.02549935 0.060514376 0.053347334 0.03757927
-0.11850501 -0.074031875 -0.14210416 -0.09283431 0.08665084 0.074864745 0.036940306 0.21125855
-0.055313595 0.05003598 -0.097893596 0.0716096 0.29936862 0.06004093 0.11407266 -0.0893231
0.12705716 0.08819584 0.24026431 0.091957495 0.21242368 -0.14872727 0.16454391 -0.054909114
0.12210754 0.22606145 0.17414327 -0.08189467 0.2650211 0.15840231 -0.14515166 -0.081876874
0.2934984 0.059825256 0.14307123 0.13242783 0.2823932 0.17647393 0.19891745 0.05741653
0.16108465 0.28824782 0.2785216 0.09938646 0.21182944 0.07477648 0.26678345 -0.019373676
-0.13877806 0.12673722 -0.109905094 0.031592567 0.18657161 -0.13501778 0.096082084 0.13581239
0.08380545 -0.09185776 0.26816785 -0.08144284 -0.090382755 -0.05440771 0.150963 0.03162841
0.12987012 0.172443 0.14311385 -0.13086393 0.18155263 -0.0039525004 0.08915758 0.20237337
-0.12345819 0.17043842 0.2511996 -0.019931925 0.21649592 -0.13010454 0.16632487 0.2021965
0.011446329 0.06578606 0.24044009 -0.066027656 0.040104825 0.16833366 0.26316792 0.1413602
0.023558393 -0.12549564 0.0084860725 0.26136327 -0.1500173 0.22968619 0.1662922 -0.09149107
0.01826102 0.06177255 0.031482425 0.020954372 0.20968051 0.049262315 0.112358086 0.024708886
-0.10050039 0.2498469 0.07760237 -0.11033652 -0.019127648 0.12633282 0.27055883 0.1810696
0.017440045 -0.13380834 0.15821317 0.071378455 0.071646616 0.2589206 0.059972357 -0.08070166
0.05204564 0.20369852 -0.13130912 0.22637393 0.17445108 -0.04504013 -0.13073336 0.27832383
0.058062598 0.075045444 -0.11925583 -0.040555917 0.12833558 -0.13255306 0.01026042 0.05942844
0.028583476 0.19723052 0.1819079 -0.09130864 0.2699207 -0.11811313 -0.0314016 0.26416302
0.14845943 0.2464068 0.11936621 0.2350233 0.0017715102 0.18989368 0.1278591 0.008932148
-0.0033629222 0.15810096 0.1302187 -0.09259399 0.23826113 -0.04367421 0.03427221 -0.11539572
-0.09632349 0.07036215 -0.04402173 0.24506104 0.0051551256 0.18537435 0.075819075 0.05528193
00000000: b58d 15be cdec e33b 6df9 083e 23d0 3dbe
00000010: e36b 7cbd 29a7 19be cd36 353e 3292 843d
00000020: 398a 1b3d 7c02 26be 79bd 98bd 0710 8ebd
00000030: a4f0 d43d ac79 f5bc e341 183e 208f 9a3d
00000040: 302c 023e ca66 3ebe fa24 063e ffa3 df3d
00000050: 94ef 37be 3a8f 8dbd 6509 3c3e 8930 08be
00000060: 89c2 193e 5d2e d03d ce3d d3bd 2a38 c3bd
00000070: 03a0 dc3d 5732 2c3e 32a6 12be 3e1c 65bd
00000080: 834d 1ebe 755f 40bd fa07 3b3d 9c6c db3d
00000090: ed36 c2bc 1686 253e 1ea2 273e cf92 553e
000000a0: 065c 203e 5d55 cebd 9264 9bbd 90f2 60bc
000000b0: 7ce6 41bd 8c8d 93bc 8f9d c73d f0d7 19be
000000c0: 3e85 0abe e36a 0e3e b86f 79bd e63d 9bbd
000000d0: 6341 3b3e 343a 6d3e c352 0c3d 599c ad3d
000000e0: b8be 15bd 90d6 5d3e 166b e3bd 0d72 283e
000000f0: 15ab 1abb 8c58 a23c 71ae ad3d 5a91 63be
00000100: 9ff9 9d3d a0be 083e d5a7 803e d160 e2bd
00000110: aad1 3b3e 1d91 bf3c fa94 edbd 559a 893e
00000120: 0b55 da3c a90f 8d3d 77e0 5e3e 8cdb c33c
00000130: a549 c9bc 14d2 01be 77e7 133d 99a9 bebd
00000140: 881a c8bd 4e51 cbbd c86b f8bd c38d c8bd
00000150: 03e4 d03c ecdd 773d bc82 5a3d b8ec 193d
00000160: c1b2 f2bd 069e 97bd c183 11be ea1f bebd
00000170: ff75 b13d b052 993d b84e 173d 2954 583e
00000180: 8290 62bd 87f2 4c3d 707c c8bd 0ea8 923d
00000190: d846 993e 7aed 753d ed9e e93d 08ef b6bd
000001a0: 461b 023e 05a0 b43d d907 763e 3654 bc3d
000001b0: 9885 593e f64b 18be 337e 283e 61e8 60bd
000001c0: 8513 fa3d a77c 673e 9d52 323e 65b8 a7bd
000001d0: d8b0 873e 3734 223e a3a2 14be 10af a7bd
000001e0: 6c45 963e 540b 753d 4481 123e 299b 073e
000001f0: d795 903e 95b5 343e 04b1 4b3e 982d 6b3d
00000200: 60f3 243e 3895 933e 629a 8e3e 218b cb3d
00000210: d1e9 583e 6924 993d d797 883e 8bb5 9ebc
00000220: d61b 0ebe 67c7 013e ec15 e1bd 3567 013d
00000230: a10c 3f3e 1a42 0abe afc6 c43d 6712 0b3e
00000240: 31a2 ab3d ec1f bcbd 4c4d 893e 81cb a6bd
00000250: 981a b9bd 9eda 5ebd 0b96 1a3e cb8c 013d
00000260: acfc 043e e694 303e 708c 123e 3201 06be
00000270: efe8 393e fa83 81bb 4098 b63d f73a 4f3e
00000280: a6d7 fcbd 6987 2e3e 3c9d 803e 4748 a3bc
00000290: 1bb1 5d3e 203a 05be 1151 2a3e 990c 4f3e
000002a0: 6289 3b3c d8ba 863d ed35 763e 8239 87bd
000002b0: f544 243d a95f 2c3e f2bd 863e bac0 103e
000002c0: 88fd c03c ee81 00be 2b09 0b3c 68d1 853e
000002d0: 239e 19be db32 6b3e 8148 2a3e ac5f bbbd
000002e0: 2298 953c 3705 7d3d b7f3 003d 81a8 ab3c
000002f0: 7db6 563e 48c7 493d ff1b e63d 4a6a ca3c
00000300: 26d3 cdbd ded7 7f3e feed 9e3d 1df8 e1bd
00000310: 96b1 9cbc 645d 013e b086 8a3e 4f6a 393e
00000320: 6dde 8e3c 0e05 09be a202 223e de2e 923d
00000330: 76bb 923d 3e91 843e 93a5 753d e946 a5bd
00000340: cf2d 553d 5896 503e e675 06be 91ce 673e
00000350: 4ea3 323e 007c 38bd f7de 05be 7680 8e3e
00000360: 0cd3 6d3d 6db1 993d 673c f4bd f61d 26bd
00000370: 676a 033e fdbb 07be 521b 283c 3c6b 733d
00000380: e527 ea3c ccf6 493e 1146 3a3e 0600 bbbd
00000390: 0c33 8a3e 4ce5 f1bd f79e 00bd 6040 873e
000003a0: c005 183e 1052 7c3e 4676 f43d f3a9 703e
000003b0: 0532 e83a 7d73 423e 7fed 023e 2558 123c
000003c0: 7964 5cbb 38e5 213e 0d58 053e eba1 bdbd
000003d0: bafa 733e bae3 32bd 0461 0c3d 9754 ecbd
000003e0: 4045 c5bd 081a 903d 2150 34bd 48f1 7a3e
000003f0: 54ec a83b c6d2 3d3e 0847 9b3d 4e6f 623d

conv.0.weight f4 [20, 1, 5, 5]
-0.0062181028 0.013616002 -0.23709492 0.10473824 -0.24582238 -0.0032951955 -0.094402 0.06590641
0.068856224 -0.05693014 0.0021196324 -0.024572037 -0.0049233334 0.06449371 -0.1281279 -0.09463563
-0.15250377 -0.098273315 -0.109179676 -0.040087588 -0.2419893 -0.1529797 0.031486608 -0.22045743
-0.13494726 -0.1521088 -0.057729956 -0.097788125 -0.0012067474 -0.18154073 0.07625635 -0.07520685
0.016583461 -0.14679082 -0.055412263 -0.18997665 -0.0023479029 -0.08360006 -0.024156947 -0.05810912
0.0041143387 -0.15317386 0.034407508 -0.1257048 -0.092855304 -0.14196593 -0.1014127 -0.20513229
0.031163517 -0.07652204 -0.13912252 -0.055020384 -0.019132033 -0.019275203 -0.15314041 0.06447534
0.015320546 -0.052177023 -0.1653254 -0.043785203 -0.10959244 0.12994559 0.15050274 0.0778487
-0.16226253 0.15152274 0.16240954 0.0094309775 0.009513705 -0.041004427 -0.0061802915 -0.039210152
0.07069025 0.12007417 0.07779856 0.1970395 0.18300909 0.11873327 -0.086925745 0.09752174
0.08589158 0.07573769 -0.08711276 -0.10340607 -0.11821601 0.022045603 0.0008227788 -0.09779102
-0.14423233 -0.0023346893 -0.08569614 -0.20198908 -0.19027407 -0.18670334 -0.13830483 -0.22019883
-0.08063489 -0.058510806 -0.04285454 -0.24185544 -0.09764673 0.07167017 0.0892291 0.098055586
0.063663766 -0.23607726 -0.036716044 0.046465103 0.056989092 0.06867844 -0.2956251 -0.27109393
0.07405569 -0.04547335 -0.021697396 -0.24954769 -0.15505937 0.08956439 -0.2377803 -0.012540979
-0.09396558 -0.027288374 -0.12721838 0.035335515 0.029531075 -0.12793727 0.06295032 -0.17176498
-0.23463006 -0.09384709 0.0045231306 -0.09379019 -0.15993552 -0.10193828 0.106696606 -0.13124752
-0.19340949 -0.14510094 -0.16031253 0.03631858 -0.12040377 -0.01835647 -0.02659387 0.012349554
-0.14322996 -0.22276005 -0.16018675 -0.15256687 0.011914447 -0.055519544 -0.04204732 0.0720585
0.061824936 0.06476015 -0.15159792 0.086211264 -0.03162994 -0.122072056 -0.18363743 -0.021048376
-0.15242529 -0.052440647 -0.24821725 0.066301726 0.16069315 -0.19847839 -0.16177715 0.25847086
-0.13318112 0.14011246 0.0062780012 0.010136106 -0.16935235 -0.09679606 0.092591435 -0.035934333
-0.06870438 0.012042307 0.137626 0.15125798 0.13185912 0.02110863 -0.07703491 0.04046833
0.07459037 -0.101279475 -0.090568945 -0.10081307 -0.15145154 -0.11384557 0.058786184 -0.08742839
-0.07071717 -0.0031240045 -0.08257354 -0.07616342 -0.2283356 -0.11919998 -0.19059873 -0.28205734
0.01694036 -0.24898073 -0.2601218 -0.27806327 -0.282562 -0.088624805 -0.097138114 -0.0043403404
-0.07990408 -0.18732859 -0.10006111 -0.112359606 0.021990983 -0.04604441 -0.08371586 0.07441658
0.11707214 0.07399546 -0.037442394 0.043366343 0.12763971 0.06821604 -0.0044736476 0.15597723
0.12511635 -0.067861184 0.0033359793 0.029743366 -0.07549477 0.09313282 0.01889569 0.029830623
0.08684838 0.16741188 -0.021131154 0.20756014 0.20982641 0.25924233 0.030808454 0.1572046
0.029110422 0.018330485 0.0840061 0.092308596 0.06686614 -0.07933634 -0.03875998 1.398385e-05
-0.08183827 -0.17893144 0.05956919 -0.0109828925 0.023027927 0.05148088 0.03039955 0.05739559
00000000: 3ac1 cbbb a715 5f3c 03c9 72be 0181 d63d
00000010: ddb8 7bbe 35f4 57bb d655 c1bd f1f9 863d
00000020: 7e04 8d3d 942f 69bd 88e9 0a3b 4c4b c9bc
00000030: ea53 a1bb 4715 843d f633 03be 53d0 c1bd
00000040: f329 1cbe 8543 c9bd 9899 dfbd e232 24bd
00000050: 0bcc 77be b6a6 1cbe 1af8 003d 98bf 61be
00000060: 9d2f 0abe 69c2 1bbe 3f76 6cbd 2445 c8bd
00000070: b92b 9eba d0e5 39be 4a2c 9c3d 0d06 9abd
00000080: 0ada 873c 5550 16be f8f7 62bd 3d89 42be
00000090: 46df 19bb 8236 abbd cae4 c5bc d403 6ebd
000000a0: 93d1 863b 9cd9 1cbe e3ee 0c3d c2b8 00be
000000b0: ec2a bebd 845f 11be 76b1 cfbd 330e 52be
000000c0: a24a ff3c 96b7 9cbd 2276 0ebe 0e5d 61bd
000000d0: c8ba 9cbc 08e7 9dbc d7d0 1cbe a60b 843d
000000e0: 0703 7b3c 93b7 55bd 104b 29be 1d58 33bd
000000f0: 0072 e0bd 7510 053e 641d 1a3e 246f 9f3d
00000100: 2628 26be c728 1b3e b04e 263e 6384 1a3c
00000110: 5fdf 1b3c 42f4 27bd 0b84 cabb d39a 20bd
00000120: 0dc6 903d 72e9 f53d da54 9f3d b9c4 493e
00000130: bc66 3b3e 6e2a f33d 2006 b2bd 7ab9 c73d
00000140: ede7 af3d 5d1c 9b3d 2d68 b2bd 90c6 d3bd
00000150: 3c1b f2bd fb98 b43c c0af 573a a946 c8bd
00000160: a4b1 13be 9601 19bb 7581 afbd 3ad6 4ebe
00000170: 35d7 42be 292f 3fbe c89f 0dbe cd7b 61be
00000180: e823 a5bd 07a9 6fbd 3e88 2fbd f4a8 77be
00000190: 02fb c7bd cfc7 923d bfbd b63d 5ed1 c83d
000001a0: 2662 823d 3dbe 71be 9063 16bd 3152 3e3d
000001b0: 656d 693d 48a7 8c3d 2c5c 97be d3cc 8abe
000001c0: 82aa 973d 4342 3abd bdbe b1bc 6e89 7fbe
000001d0: e2c7 1ebe 896d b73d ae7c 73be ae78 4dbc
000001e0: 0771 c0bd de8b dfbc 8945 02be f9bb 103d
000001f0: 27eb f13c fd01 03be 19ec 803d 29e3 2fbe
00000200: dd42 70be e732 c0bd c536 943b 1215 c0bd
00000210: 23c6 23be 04c5 d0bd c083 da3d c065 06be
00000220: 230d 46be 5795 14be f828 24be cbc2 143d
00000230: 4096 f6bd 4f60 96bc 63db d9bc c955 4a3c
00000240: e0aa 12be 361b 64be ff07 24be 7d3a 1cbe
00000250: d034 433c 7668 63bd d039 2cbd 6893 933d
00000260: 253c 7d3d f8a0 843d 7c3c 1bbe 888f b03d
00000270: 658e 01bd ea00 fabd 730b 3cbe a56d acbc
00000280: 6015 1cbe 01cc 56bd aa2c 7ebe 33c9 873d
00000290: bf8c 243e eb3d 4bbe e9a8 25be 4b56 843e
000002a0: a260 08be a479 0f3e b1b7 cd3b e911 263c
000002b0: b46a 2dbe 033d c6bd 94a0 bd3d e12f 13bd
000002c0: e2b4 8cbd 194d 453c d5ed 0c3e 5fe3 1a3e
000002d0: 1406 073e 01ec ac3c 7bc4 9dbd 1fc2 253d
000002e0: d6c2 983d 9d6b cfbd 367c b9bd 1577 cebd
000002f0: 1d16 1bbe de27 e9bd c8c9 703d a80d b3bd
00000300: 2ad4 90bd 19bc 4cbb 511c a9bd 91fb 9bbd
00000310: cfd0 69be 1e1f f4bd 502c 43be d269 90be
00000320: 83c6 8a3c cef4 7ebe af2e 85be 4f5e 8ebe
00000330: f7ab 90be ec80 b5bd 59f0 c6bd 6a39 8ebb
00000340: c0a4 a3bd 11d3 3fbe d7ec ccbd cb1c e6bd
00000350: 6f26 b43c 1099 3cbd 3973 abbd b867 983d
00000360: 85c3 ef3d ef8a 973d 325d 19bd e8a0 313d
00000370: fcb3 023e dab4 8b3d ad97 92bb 7fb8 1f3e
00000380: 801e 003e cefa 8abd 72a0 5a3b 5ca8 f33c
00000390: 019d 9abd 6cbc be3d 22cb 9a3c 5a5f f43c
000003a0: 90dd b13d 056e 2b3e 3e1b adbc a58a 543e
000003b0: bcdc 563e 69bb 843e 0362 fc3c 3efa 203e
000003c0: fb78 ee3c d029 963c 640b ac3d 4a0c bd3d
000003d0: 1df1 883d 177b a2bd c9c2 1ebd 2e9c 6a37
000003e0: d39a a7bd ce39 37be d3fe 733d 97f1 33bc
000003f0: 10a5 bc3c 9ddd 523d 7a08 f93c a317 6b3d

conv.0.bias f4 [20]
-0.21119569 0.09447651 0.26503024 -0.07850192 -0.041518625 0.21007384 -0.04726549 -0.04389537
0.12964112 0.24686803 0.25778443 -0.029668003 -0.2534127 0.017939778 -0.15138821 0.23850854
0.04635202 0.2274036 -0.051883705 0.13557221
00000000: af43 58be e77c c13d 0bb2 873e 9dc5 a0bd
00000010: 6f0f 2abd 991d 573e 7599 41bd a2cb 33bd
00000020: a4c0 043e f9ca 7c3e 52fc 833e 500a f3bc
00000030: 4fbf 81be 71f6 923c 8305 1bbe 953b 743e
00000040: 9edb 3d3d 7ddc 683e 0284 54bd 71d3 0a3e

conv.2.weight f4 [20]
1.007524 1.1199399 0.9961199 1.1242421 0.941719 1.1180251 0.87215763 0.9848803
1.0210729 1.0812612 0.9674311 0.87421167 1.1131961 1.150795 1.0632697 1.1039312
1.1212345 1.1203933 1.1632285 1.1076572
00000000: 8cf6 803f 315a 8f3f b701 7f3f 2ae7 8f3f
00000010: 7f14 713f 721b 8f3f b945 5f3f 1e21 7c3f
00000020: 84b2 823f c466 8a3f 91a9 773f 56cc 5f3f
00000030: 367d 8e3f 404d 933f 3919 883f 9e4d 8d3f
00000040: 9d84 8f3f 0c69 8f3f ace4 943f b6c7 8d3f

conv.2.bias f4 [20]
0.13100299 -0.115004905 0.11228052 0.16299725 0.13735642 -0.112952776 0.12455011 0.14807121
0.12746885 0.13830584 0.13584404 0.13033564 -0.14733073 -0.15089832 -0.11626798 -0.12461838
-0.12620293 -0.12014355 -0.15045033 -0.1301197
00000000: a625 063e b187 ebbd 54f3 e53d c0e8 263e
00000010: 29a7 0c3e c953 e7bd 2114 ff3d fb9f 173e
00000020: 3287 023e 0ca0 0d3e b31a 0b3e b576 053e
00000030: dedd 16be 1785 1abe e81d eebd ec37 ffbd
00000040: 573b 01be d20d f6bd a70f 1abe 193e 05be

conv.2.running_mean f4 [20]
-0.115439475 -0.05711447 0.2826238 -0.06717628 -0.050767254 -0.044188034 -0.02232241 -0.057747502
0.028030848 0.48841465 0.11095087 -0.014837129 0.2134613 -0.08064525 0.08213974 -0.040359866
-0.064342424 -0.036384273 0.5042879 -0.06725032
00000000: 886b ecbd ddf0 69bd 11b4 903e b893 89bd
00000010: 53f1 4fbd 83fe 34bd 7ddd b6bc a588 6cbd
00000020: f3a0 e53c 7c11 fa3e 363a e33d 6e17 73bc
00000030: 9995 5a3e 5629 a5bd e138 a83d 6350 25bd
00000040: f6c5 83bd ad07 15bd 0319 013f 89ba 89bd

conv.2.running_var f4 [20]
0.0026445673 0.0037115514 0.030619448 0.0054718805 0.0061272313 0.008407778 0.009924272 0.0042728903
0.019152341 0.04330044 0.01673841 0.010673455 0.052970164 0.004502942 0.018558955 0.010241337
0.0049915127 0.010837715 0.08144141 0.006258485
00000000: 7a50 2d3b 803d 733b a3d5 fa3c 764d b33b
00000010: f1c6 c83b c7c0 093c 6a99 223c 9a03 8c3b
00000020: 5fe5 9c3c cd5b 313d fd1e 893c b7df 2e3c
00000030: 3ef7 583d 6a8d 933b f308 983c 48cb 273c
00000040: d88f a33b ac90 313c c1ca a63d fa13 cd3b

conv.3.weight f4 [1, 20, 5, 5]
-0.081371106 -0.070165165 -0.12489482 -0.09580185 -0.06611268 -0.10657862 -0.15562066 -0.16690396
-0.118150115 -0.10634717 -0.2010605 -0.20109615 -0.102167614 -0.18147461 -0.105991326 -0.14755017
-0.1291232 -0.083757386 -0.12745287 -0.097709715 -0.09228103 -0.066356435 -0.15467748 -0.10708666
-0.0796614 0.07234264 0.114393584 0.0684505 0.13102128 0.088834345 0.09577383 0.1523614
0.15072739 0.15214047 0.118609406 0.08796839 0.14328745 0.13236131 0.08401121 0.12832817
0.113652006 0.082785785 0.10671027 0.10485616 0.12552373 0.11740513 0.12710889 0.054507084
0.13104756 0.08721374 -0.082750686 -0.08231298 -0.047495097 -0.10145681 -0.09831519 -0.11237628
-0.0951574 -0.053952284 -0.084189706 -0.06309948 -0.11871461 -0.15007633 -0.028685544 -0.071914025
-0.09478307 -0.12542722 -0.15879624 -0.15991332 -0.16253875 -0.14457287 -0.054531645 -0.10975368
-0.07172294 -0.12100238 -0.066843756 0.05430039 0.025695793 -0.015646698 -0.0807174 -0.11661911
-0.09290489 -0.10035015 -0.16230163 -0.12623556 -0.15939769 -0.159346 -0.12693223 -0.14734161
-0.1648221 -0.1265319 -0.14054023 -0.12660955 -0.13098805 -0.115628354 -0.10492118 -0.12332668
-0.06723079 -0.11399947 -0.05551751 -0.09253094 -0.088454545 -0.06325001 -0.14994349 -0.08375535
-0.098011404 -0.14182319 -0.08562697 -0.102783464 -0.08534967 -0.10828505 -0.149529 -0.16275883
-0.15389894 -0.16586061 -0.1319618 -0.036017057 -0.11818518 -0.1619425 -0.10582384 -0.103423126
-0.09796401 -0.07835505 -0.11523001 -0.114967555 -0.09062236 0.13119414 0.12529911 0.12834783
0.094997376 0.08668011 0.13518623 0.12622908 0.12137817 0.16324474 0.10822388 0.13756491
0.0941696 0.14892481 0.1668109 0.14428085 0.10806819 0.07760187 0.12653612 0.13023329
0.094826244 0.093406506 0.09575949 0.10562 0.09515205 0.13696475 -0.17666447 -0.108634315
-0.15723605 -0.14230761 -0.09579806 -0.15347056 -0.12630628 -0.14300212 -0.13304587 -0.114919215
-0.12218974 -0.14655335 -0.13229929 -0.10067629 -0.13778216 -0.060976565 -0.05501407 -0.10572312
-0.09085397 -0.08338705 -0.0654698 -0.1346504 -0.13086015 -0.20347351 -0.14774124 -0.098377794
-0.071129814 -0.11076868 -0.11846812 -0.043476406 -0.12585023 -0.12297697 -0.12755053 -0.08689613
-0.089436896 -0.10055699 -0.17605937 -0.12822986 -0.10183046 -0.16147836 -0.14481694 -0.116206
-0.11081165 -0.10434448 -0.16358612 -0.124264374 -0.08580224 -0.122456245 -0.11442689 -0.14070073
-0.09429349 -0.03956033 -0.077470295 -0.10429191 -0.02663985 -0.15086667 -0.12607324 -0.18215697
-0.13395192 -0.063038245 -0.14790483 -0.19436772 -0.16269517 -0.16042759 -0.12933826 -0.12916087
-0.08834881 -0.12610291 -0.12802896 -0.12661828 -0.04888354 -0.022955947 -0.01685246 -0.08357216
-0.054074325 -0.09717813 -0.05947535 -0.11360796 -0.12066691 -0.08483456 -0.1453955 -0.09214626
-0.13679792 -0.08324204 -0.11601406 -0.096853085 0.022484254 0.06588603 0.01469344 -0.09434122
-0.09926191 -0.081807345 -0.1357895 -0.14069559 -0.10886564 -0.087279044 -0.13504599 -0.11260599
-0.13919975 -0.0675276 -0.059648618 -0.090305656 -0.09262544 -0.02528105 -0.101338565 -0.068592645
00000000: e5a5 a6bd c1b2 8fbd dbc8 ffbd c333 c4bd
00000010: 1666 87bd e445 dabd 065b 1fbe dfe8 2abe
00000020: b0f8 f1bd 8ccc d9bd cee2 4dbe 26ec 4dbe
00000030: 413d d1bd 7bd4 39be fb11 d9bd 6417 17be
00000040: df38 04be fe88 abbd 0183 02be 081c c8bd
00000050: d6fd bcbd e2e5 87bd c663 1ebe 4050 dbbd
00000060: 8425 a3bd 6128 943d 2f47 ea3d c72f 8c3d
00000070: 712a 063e c8ee b53d 1225 c43d a004 1c3e
00000080: 4858 1a3e b6ca 1b3e 7de9 f23d c528 b43d
00000090: f2b9 123e b989 073e 120e ac3d 7668 033e
000000a0: 62c2 e83d 988b a93d ea8a da3d d4be d63d
000000b0: 4b89 003e 1a72 f03d d528 023e d242 5f3d
000000c0: 5531 063e 1e9d b23d 3179 a9bd b593 a8bd
000000d0: 388a 42bd 97c8 cfbd 7959 c9bd 8925 e6bd
000000e0: e2e1 c2bd 12fd 5cbd a76b acbd 4d3a 81bd
000000f0: a520 f3bd 9cad 19be f2fd eabc a947 93bd
00000100: a01d c2bd fe6f 00be 7b9b 22be 51c0 23be
00000110: 8f70 26be e90a 14be 935c 5fbd 8ac6 e0bd
00000120: 7ae3 92bd 19d0 f7bd 61e5 88bd 166a 5e3d
00000130: fc7f d23c 812d 80bc 2a4f a5bd 00d6 eebd
00000140: eb44 bebd 6184 cdbd 6632 26be e543 01be
00000150: 2639 23be 992b 23be 86fa 01be b8e0 16be
00000160: 20c7 28be 9491 01be c7e9 0fbe efa5 01be
00000170: bb21 06be 8fce ecbd eae0 d6bd b392 fcbd
00000180: 4cb0 89bd 8e78 e9bd 5466 63bd dd80 bdbd
00000190: a827 b5bd 3989 81bd c98a 19be ed87 abbd
000001a0: 34ba c8bd 193a 11be 315d afbd 2380 d2bd
000001b0: cfcb aebd 8dc4 ddbd 211e 19be 40aa 26be
000001c0: af97 1dbe 5dd7 29be fe20 07be 9f86 13bd
000001d0: 120b f2bd 41d4 25be 2bba d8bd 81cf d3bd
000001e0: 5ba1 c8bd 9d78 a0bd b6fd ebbd 1c74 ebbd
000001f0: 3798 b9bd c257 063e 694e 003e 9d6d 033e
00000200: fc8d c23d 5785 b13d 426e 0a3e 3242 013e
00000210: 1e95 f83d a129 273e 7ba4 dd3d d1dd 0c3e
00000220: fedb c03d bf7f 183e 7ad0 2a3e 5cbe 133e
00000230: db52 dd3d bbed 9e3d af92 013e e05b 053e
00000240: 4334 c23d e94b bf3d 8d1d c43d 4c4f d83d
00000250: 14df c23d 7d40 0c3e 88e7 34be ab7b debd
00000260: 7d02 21be 16b9 11be c631 c4bd 6327 1dbe
00000270: 6f56 01be 266f 12be 2d3d 08be c45a ebbd
00000280: 9d3e fabd 1512 16be 7779 07be 5f2f cebd
00000290: c416 0dbe 90c2 79bd 6f56 61bd 5d85 d8bd
000002a0: a511 babd d4c6 aabd 0815 86bd cbe1 09be
000002b0: 3400 06be 5c5b 50be 7b49 17be 4c7a c9bd
000002c0: 82ac 91bd b1da e2bd 6a9f f2bd 5114 32bd
000002d0: e2de 00be 5adb fbbd 9b9c 02be 99f6 b1bd
000002e0: b12a b7bd d3f0 cdbd e848 34be b04e 03be
000002f0: 7d8c d0bd 955a 25be e44a 14be 69fd edbd
00000300: 38f1 e2bd 8fb2 d5bd 1f83 27be 527e febd
00000310: 16b9 afbd 57ca fabd a558 eabd da13 10be
00000320: f21c c1bd 030a 22bd bfa8 9ebd ff96 d5bd
00000330: d13b dabc cb7c 1abe 5819 01be 5b87 3abe
00000340: b12a 09be 321a 81bd 5d74 17be 5508 47be
00000350: 9099 26be 2147 24be 4071 04be bf42 04be
00000360: 39f0 b4bd 1f21 01be 061a 03be 39a8 01be
00000370: 1b3a 48bd 1c0e bcbc 2c0e 8abc e127 abbd
00000380: 0a7d 5dbd 5405 c7bd 6d9c 73bd 4aab e8bd
00000390: 3720 f7bd bebd adbd 8fe2 14be 2eb7 bcbd
000003a0: c114 0cbe cd7a aabd c898 edbd e95a c6bd
000003b0: e630 b83c 41ef 863d c1bc 703c f835 c1bd
000003c0: d449 cbbd 9c8a a7bd 670c 0bbe 8112 10be
000003d0: f3f4 debd 5bbf b2bd 7f49 0abe f89d e6bd
000003e0: 618a 0ebe e94b 8abd 1c52 74bd 2cf2 b8bd
000003f0: 68b2 bdbd 341a cfbc 988a cfbd 4d7a 8cbd
