src/caches/cache_11_14_big/param2img6.pt (torch, 184864 bytes, 19 tensors)

main.0.weight f4 [16]
0	0x3f4eda60	0.80801964
1	0x3f57dccf	0.843213
2	0x3f5af2aa	0.85526526
3	0x3f838ac4	1.0276723
4	0x3f6894c8	0.9085202
5	0x3f81ef40	1.0151138
6	0x3f712371	0.94194704
7	0x3f83aa45	1.0286337
8	0x3f7eff44	0.99608254
9	0x3f78b391	0.97148997
10	0x3f80ecb5	1.0072237
11	0x3f7342a6	0.9502357
12	0x3f839a77	1.0281514
13	0x3f507689	0.8143087
14	0x3f5be8a1	0.8590184
15	0x3f73a57e	0.95174396

main.0.bias f4 [16]
0	0x3e5c8e61	0.21538688
1	0xbdf07c28	-0.11742431
2	0x3e324b01	0.17411424
3	0xbe2a8847	-0.16653548
4	0xbe06287a	-0.13101378
5	0x3e1bc59f	0.15212105
6	0xbe2f21e9	-0.1710278
7	0xbde4493e	-0.11146782
8	0x3de8f953	0.1137568
9	0x3e2cb0ae	0.16864273
10	0xbe20c431	-0.15699841
11	0xbc9f35e8	-0.019434884
12	0xbe6843ce	-0.22682115
13	0xbe67024e	-0.22559473
14	0xbd3dc4df	-0.04633033
15	0x3d9741e5	0.07385615

main.0.running_mean f4 [16]
0	0x36157753	2.2272186e-06
1	0x36207d74	2.3914881e-06
2	0x3e4ccd16	0.20000109
3	0x3b558d12	0.0032585305
4	0x3c25a00e	0.010108961
5	0x3ac400e4	0.0014953879
6	0x3f0c8c3f	0.549015
7	0x3b53b4d1	0.003230382
8	0x3ca5f833	0.020259952
9	0x3abf5789	0.0014598231
10	0x3f0c8b75	0.54900295
11	0x3b51015e	0.0031891684
12	0x3cf925db	0.030413559
13	0xb820497e	-3.8215418e-05
14	0x3e4ccb88	0.19999516
15	0x3b51ecfd	0.0032032125

main.0.running_var f4 [16]
0	0x35878a29	1.0098494e-06
1	0x35888632	1.0171846e-06
2	0x35892ddf	1.0220646e-06
3	0x3b0f0fc2	0.002182946
4	0x3794b4fe	1.7727256e-05
5	0x391cd2ba	0.00014955821
6	0x3da37b90	0.07982552
7	0x3b0f2c14	0.002184634
8	0x388d570e	6.739619e-05
9	0x391c6cee	0.00014917899
10	0x3da3735a	0.07980986
11	0x3b0eee3b	0.0021809477
12	0x391d7533	0.00015016347
13	0x3582d425	9.747497e-07
14	0x35829354	9.728633e-07
15	0x3b0f20e9	0.0021839684

main.1.weight f4 [20, 16]
0	0x3d541a3b	0.051782828
1	0xbd01c7d9	-0.03168473
2	0x3d2fe8f4	0.04294677
3	0xbd593ebc	-0.053038344
4	0x3e777ad9	0.24167956
5	0xbdde6da7	-0.10860758
6	0xbe2f53e5	-0.17121847
7	0x3d405bd3	0.04696257
8	0x3ea33f75	0.3188435
9	0xbe2b44db	-0.16725485
10	0xbd1276e9	-0.035757933
11	0x3b8f0b4c	0.0043653604
12	0xbda1ba22	-0.0789683
13	0x3c75268c	0.014962804
14	0xbda563b0	-0.080756545
15	0x3e065d0b	0.1312143
16	0xbcb15fa2	-0.021652047
17	0xbc78c3ef	-0.015183433
18	0x3cdef8bd	0.027218217
19	0x3e6237fc	0.22091669
20	0xbd93f99d	-0.07225344
21	0xbcf5e24a	-0.03001513
22	0xbdb16e8e	-0.08663665
23	0x3e39e332	0.18153074
24	0x3df39e7b	0.11895462
25	0xbd6a32d4	-0.05717738
26	0x3e201caf	0.15635942
27	0xbe1e2e51	-0.15447356
28	0x3d6a4646	0.057195924
29	0xba79f4ba	-0.0009535063
30	0xbd50637f	-0.050876137
31	0xbe1ff94c	-0.15622443
32	0xbc0691bc	-0.008213457
33	0x3d1f34e8	0.038868815
34	0x3d128795	0.035773832
35	0x3e451b28	0.1924864
36	0x3dc065f2	0.093944445
37	0xbe34b689	-0.17647757
38	0xbdf60b2a	-0.12013848
39	0xbddcd0d6	-0.1078202
40	0xbd9f3705	-0.07774166
41	0x3db9a3c2	0.090644374
42	0x3e65f997	0.22458492
43	0x3da4fc7d	0.08055971
44	0x3de150b0	0.11001718
45	0xbc6652b9	-0.014057809
46	0xbbe81df1	-0.0070836474
47	0xbdfeb1d9	-0.124362655
48	0xbd369c08	-0.044582397
49	0x3bf75cbd	0.007548897
50	0x3d57b0bb	0.052658778
51	0x3e082a27	0.1329733
52	0xbe39d8b2	-0.18149069
53	0x3e39d6db	0.18148367
54	0xbe374911	-0.17898966
55	0xbe9bf5d2	-0.30460984
56	0x3de2693a	0.110552266
57	0x3dd1bb73	0.10240831
58	0x3dc3c697	0.095593624
59	0xbe6a83a9	-0.22901787
60	0xbe0063e3	-0.12538104
61	0xbd6fcb20	-0.058543324
62	0x3d861931	0.06547774
63	0xbe82f3fc	-0.2557677
64	0x3e10de42	0.14147285
65	0x3c1fa699	0.00974431
66	0x3d6255c8	0.05525759
67	0xbdc881d1	-0.097903855
68	0xbe6785b5	-0.22609599
69	0xbdeea3f9	-0.11652369
70	0xbe00d9cd	-0.12583084
71	0x3e4a6a2a	0.19767061
72	0xbce6be57	-0.028166933
73	0xbdbe0b44	-0.092794925
74	0xbe0ac78b	-0.13552682
75	0x3e38feb5	0.18065913
76	0xbdeed1af	-0.11661088
77	0xbd447d3f	-0.047971006
78	0xbd59f426	-0.053211354
79	0x3d496f81	0.049178604
80	0xbd92186e	-0.07133566
81	0xbdaf53bd	-0.08560894
82	0x3dbb2ba2	0.09139182
83	0x3e5e5f70	0.21716094
84	0x3c7c3aa4	0.01539484
85	0xbe5332fc	-0.20624918
86	0x3c1dce88	0.00963176
87	0x3d840861	0.06446911
88	0xbd07ed49	-0.033185277
89	0xbe9ad0a0	-0.30237293
90	0x3e82ad88	0.2552302
91	0xbe0f8517	-0.14015613
92	0xbd52e589	-0.051488433
93	0xbda63c26	-0.08116941
94	0x3d8b2333	0.06793823
95	0xbd299725	-0.04140391
96	0xbded5dd2	-0.115901604
97	0x3e2ed5e6	0.17073783
98	0xbda1e8d5	-0.07905737
99	0x3e24e1f0	0.16101813
100	0xbd5d17d1	-0.05397779
101	0xbd99a8e6	-0.07502918
102	0xbde2b4c1	-0.11069632
103	0x3c90a1d0	0.017655283
104	0xb9fed954	-0.00048608577
105	0xbe421bf7	-0.1895598
106	0x3e391f53	0.18078355
107	0x3d7d2054	0.06179841
108	0x3e985abf	0.29756734
109	0x3b580308	0.003296079
110	0xbdf1288d	-0.117753126
111	0x3d522952	0.051308937
112	0xbdba7d28	-0.09105903
113	0xbd0a254b	-0.03372697
114	0xbc9bdef2	-0.019027207
115	0x3e143ce7	0.14476357
116	0xbe7a3a57	-0.24436317
117	0xbc82b132	-0.015953634
118	0xbcbf75b8	-0.023371562
119	0x3cd9de3c	0.026595227
120	0xbeb18dc5	-0.34678474
121	0x3d1a7a60	0.037714362
122	0xbc3cdddd	-0.011527506
123	0xbd0f0944	-0.034920946
124	0xbd89c9b0	-0.06727922
125	0xbd2a1e5e	-0.041532867
126	0xbcccc826	-0.024997782
127	0xbe00ebe6	-0.12589988
128	0x3dc5f3c5	0.09665636
129	0xbc14aca1	-0.009074361
130	0x3dac1306	0.08402066
131	0xba9a8e57	-0.0011791688
132	0xbe758e8e	-0.23980162
133	0x3da54bac	0.08071074
134	0xbe264c22	-0.1623998
135	0x3dc0eef7	0.09420579
136	0xbd8b4a81	-0.0680132
137	0x3e02c07d	0.12768741
138	0xbe7bf7c8	-0.2460624
139	0x3e3b5b47	0.18296538
140	0xbdca6f98	-0.09884566
141	0xbda91407	-0.08255773
142	0xbc697553	-0.014249164
143	0x3d6767d4	0.056495503
144	0xbbea23a4	-0.007145362
145	0x3d796dcf	0.060895737
146	0xbd44a50c	-0.048008963
147	0x3e84cf96	0.25939626
148	0x3e2e9a3b	0.17051022
149	0x3dd9f2c2	0.106420055
150	0x3d7872ae	0.060656242
151	0xbe5076b7	-0.20357786
152	0xbe3d4467	-0.18483125
153	0x3d2cb4dd	0.042164672
154	0xbe1463eb	-0.1449124
155	0x3d05ff8b	0.032714408
156	0x3ba0132d	0.0048850984
157	0x3d07bcf8	0.0331392
158	0x3d5ace55	0.05341943
159	0xbe1d6539	-0.15370645
160	0x3d4e3197	0.05034026
161	0xbdd708b3	-0.10499706
162	0xbcff474a	-0.031161923
163	0x3e8c4de5	0.2740318
164	0xbda3ca2a	-0.07997544
165	0xbd38ec85	-0.045147438
166	0x3d38674c	0.045020387
167	0xbe38927a	-0.18024626
168	0x3e712d4b	0.23552434
169	0x3e5b3168	0.21405566
170	0x3e946d1f	0.28989503
171	0x3d2dbc1a	0.042415716
172	0x3e853594	0.2601744
173	0xbdb1926f	-0.08670508
174	0x3d15b713	0.036551546
175	0xbe0e8905	-0.13919456
176	0xbdd866b8	-0.10566467
177	0x3c3c757c	0.01150262
178	0x3c8b7010	0.017021209
179	0x3d5bb94a	0.053643502
180	0xbdee5f24	-0.116392404
181	0xbe19db87	-0.1502515
182	0x3e1819fc	0.14853662
183	0x3d91c9f3	0.07118597
184	0xbe096973	-0.13419132
185	0xbd82b27b	-0.06381699
186	0x3e03b4fd	0.1286201
187	0xbd91760f	-0.07102596
188	0x3e9ccd3f	0.3062534
189	0x3d8c4c84	0.06850532
190	0x3bca60e4	0.006176101
191	0x3d1e8655	0.038702328
192	0x3dc281f4	0.09497443
193	0xbe02bd09	-0.12767424
194	0x3d4c3f47	0.049865033
195	0xbd8f2f87	-0.06991487
196	0xbd43aa20	-0.047769666
197	0xbe7c46cd	-0.24636383
198	0x3dd6e78e	0.10493384
199	0x3df48ad7	0.11940544
200	0x3e87a098	0.2648971
201	0xbe6ffdb9	-0.23436631
202	0xbdfd9ae7	-0.12383061
203	0x3e390be4	0.18070942
204	0x3ec51110	0.3848958
205	0x3c7b6ea9	0.015346208
206	0x3cd2c2d0	0.02572766
207	0x3dc2cdff	0.09511947
208	0xbdcb66e1	-0.09931732
209	0x3d2974bc	0.041371092
210	0xbd73c4d1	-0.05951387
211	0x3e2690f1	0.16266228
212	0xb98fba2c	-0.00027413794
213	0x3e81f01e	0.25378507
214	0x3d6e93c9	0.058246408
215	0xbd816a61	-0.06319118
216	0xbe19500e	-0.14971945
217	0xbe40dd35	-0.18834384
218	0xbe1eaa00	-0.15494537
219	0xbe3d7ba9	-0.18504204
220	0x3d74bacc	0.059748456
221	0x3c58bd79	0.013228768
222	0x3cb59307	0.022164835
223	0xbcb4a668	-0.022052005
224	0x3df98ddf	0.12185263
225	0xbd915af9	-0.0709743
226	0x3cd36bc7	0.025808228
227	0x3d592282	0.053011425
228	0xbd942545	-0.07233671
229	0x3dd47b49	0.10375077
230	0x3d066ee7	0.03282061
231	0xbdeb43e4	-0.114875585
232	0x3e55b3ce	0.20869371
233	0x3daa4926	0.08314733
234	0xbe0647cb	-0.13113324
235	0xbe0320b3	-0.12805443
236	0xbe2b8807	-0.16751109
237	0xbd7243ad	-0.059146572
238	0xbd4c9e1d	-0.049955476
239	0x3d63e9f6	0.055643044
240	0xbd9ab9c7	-0.075549655
241	0xbc4bca7f	-0.012438416
242	0xbc1ef6b9	-0.009702378
243	0x3d7ca7d6	0.0616835
244	0x3da972d9	0.082738586
245	0x3e48f69f	0.19625328
246	0x3bf733d5	0.0075440207
247	0x3c556584	0.0130246915
248	0x3df236bc	0.11826846
249	0x3e7e4650	0.2483151
250	0x3cddbee6	0.027068567
251	0x3ddfd794	0.1092979
252	0x3e56a0de	0.20959803
253	0x3d80b095	0.0628368
254	0xbc59be41	-0.013289989
255	0xbd272f9e	-0.040816896

main.1.bias f4 [20]
0	0x3e3989ea	0.18119016
1	0xbebfc36b	-0.3745378
2	0xbe7c65bf	-0.24648188
3	0xbd585ad2	-0.052820988
4	0xbd18cfbe	-0.037307493
5	0x3e8a0b25	0.26961628
6	0xbe7be9c6	-0.24600896
7	0xbb81179a	-0.003939581
8	0x3d995d99	0.074885555
9	0xbeaece1e	-0.3414163
10	0x3e82ee21	0.25572303
11	0xbe687bfb	-0.22703545
12	0x3c63febf	0.013915717
13	0xbea87850	-0.3290429
14	0x3ebac80e	0.36480755
15	0xbe56e790	-0.20986772
16	0xbe8fac94	-0.28061354
17	0xbebdab40	-0.37044716
18	0xbd2b8d4b	-0.041882794
19	0xbe639694	-0.2222541

main.3.weight f4 [20]
0	0x3f66bd08	0.9013219
1	0x3f70fdd4	0.9413731
2	0x3f7dfe3b	0.9921605
3	0x3f7795b6	0.96712816
4	0x3f698a51	0.9122668
5	0x3f767c4e	0.96283424
6	0x3f5ec0c2	0.87012875
7	0x3f6da3d4	0.92828107
8	0x3f6c08e0	0.9220104
9	0x3f68e23b	0.909702
10	0x3f66013c	0.89845634
11	0x3f6337a4	0.88756776
12	0x3f66bbbf	0.9013023
13	0x3f65c60a	0.8975531
14	0x3f662b14	0.8990948
15	0x3f75991a	0.9593674
16	0x3f752832	0.9576446
17	0x3f7bca9b	0.98356026
18	0x3f73cb4f	0.952321
19	0x3f745e3e	0.954563

main.3.bias f4 [20]
0	0xbe0fe206	-0.14051065
1	0xbe257609	-0.16158308
2	0xbe1a4694	-0.15065986
3	0xbe6edb68	-0.23325884
4	0xbdf97c8a	-0.12181957
5	0x3cc86f86	0.024467241
6	0xbe182ec9	-0.14861597
7	0xbdaea1c9	-0.08526952
8	0xbe566047	-0.20935164
9	0xbe384e4e	-0.17998621
10	0xbd51567c	-0.05110787
11	0xbe44ef17	-0.1923183
12	0xbdd889fe	-0.10573195
13	0x3c25d61d	0.010121849
14	0xbe15c0b3	-0.1462429
15	0xbe30c0bf	-0.17261027
16	0xbe1e4eac	-0.15459698
17	0xbe206a92	-0.15665653
18	0xbe057baa	-0.13035455
19	0xbe06abf3	-0.13151531

main.3.running_mean f4 [20]
0	0x3ea157e3	0.31512365
1	0xbdb3e6db	-0.087842666
2	0xbd84f882	-0.064927116
3	0x3e8eb156	0.27869672
4	0x3e589aff	0.21152876
5	0x3e902344	0.28151906
6	0xbd477e03	-0.04870416
7	0x3e3954b6	0.18098721
8	0x3ec56af8	0.38558173
9	0xbda7851a	-0.08179684
10	0x3ea55a86	0.32295626
11	0xbd6b3635	-0.057424743
12	0x3e5814db	0.21101706
13	0xbda21ca5	-0.0791562
14	0x3f0c2ffd	0.54760724
15	0x3d9b3163	0.07577779
16	0xbd655fe6	-0.05599966
17	0xbd9ba85a	-0.0760047
18	0x3dbc9015	0.09207169
19	0xbbd0e558	-0.006374996

main.3.running_var f4 [20]
0	0x3e127922	0.14304021
1	0x3b10e44d	0.0022108734
2	0x3b2eb281	0.002665669
3	0x3e5d43a4	0.21607834
4	0x3e11659d	0.14198919
5	0x3e492cc1	0.19645979
6	0x3d215546	0.039387964
7	0x3e04ae05	0.12957008
8	0x3e71ea24	0.23624474
9	0x3ac93270	0.0015350115
10	0x3e224851	0.15847899
11	0x3cb96d31	0.022635074
12	0x3e7eacde	0.24870631
13	0x3ab4573c	0.0013758908
14	0x3d81fb2f	0.063467376
15	0x3dcebb0b	0.10094269
16	0x3ce897d5	0.028392712
17	0x3b5eef39	0.00340171
18	0x3dcff151	0.10153449
19	0x3d04f643	0.032461416

main.4.weight f4 [2048, 20]
0	0xbdcd6b72	-0.10030259
1	0x3b8bdb1d	0.0042680637
2	0x3cb96f9a	0.022636224
3	0x3bef0c1d	0.007295145
4	0x3e28fec1	0.16503431
5	0x3de7abf6	0.11312096
6	0xbdccbc14	-0.099968106
7	0xbe761cd3	-0.24034433
8	0x3e0fde20	0.14049578
9	0x3df26a3f	0.11836671
10	0xbdde9700	-0.10868645
11	0xbe6650f9	-0.22491826
12	0xbdabe42a	-0.08393128
13	0xbd759527	-0.059956696
14	0xbe2ef937	-0.17087255
15	0x3dce602a	0.100769356
16	0xbdfedd1d	-0.12444518
17	0x3e4af98c	0.19821757
18	0x3d932843	0.07185414
19	0xbc446552	-0.011987047
20	0xbe3033c3	-0.17207246
21	0x3e3c3b5d	0.1838202
22	0x3e26fb6b	0.16306846
23	0x3e68cf5d	0.22735353
24	0x3e2c4ab0	0.16825366
25	0xbdff4519	-0.12464351
26	0xbd677a9f	-0.056513425
27	0x3e16fad4	0.14744121
28	0x3dfe490c	0.12416276
29	0x3e6a9887	0.22909747
30	0xbda83a19	-0.08214206
31	0xbe73233f	-0.23743914
32	0x3d94d6db	0.07267543
33	0xbd463de3	-0.048398864
34	0xbdbc6180	-0.09198284
35	0x3d5f6d53	0.05454762
36	0x3d647811	0.055778567
37	0x3e437ef0	0.19091392
38	0x3d93cea7	0.0721715
39	0xbe222e9c	-0.15838093
40	0xbe5a385c	-0.21310562
41	0xbdbb28e7	-0.09138661
42	0x3dead89f	0.114670984
43	0xbb88eb3b	-0.0041784323
44	0x3e139047	0.14410506
45	0xbe212540	-0.15736866
46	0x3e1581bc	0.14600271
47	0x3c84b117	0.016197724
48	0xbce105ac	-0.027468525
49	0x3e848e6d	0.25889912
50	0x3cbcc39d	0.023042494
51	0xbc91998c	-0.017773412
52	0x3da971a8	0.08273631
53	0xbdaa7ef7	-0.08324998
54	0x3e79e58c	0.24403971
55	0xba0d283d	-0.0005384719
56	0x3ddb51c8	0.10708958
57	0x3e4663ee	0.19374058
58	0xbe1faf31	-0.15594174
59	0x3da5c50c	0.08094224
60	0xbd3a26f6	-0.045447312
61	0x3c39fea9	0.01135222
62	0xbd537a8c	-0.05163054
63	0xbe89ccda	-0.26914102
64	0x3bb5cb53	0.00554792
65	0x3b8a83fd	0.00422716
66	0xbd0bab5a	-0.03409896
67	0xbd6b9532	-0.05751533
68	0xbe1312a8	-0.14362586
69	0x3de2d454	0.110756546
70	0xbde8a559	-0.113596626
71	0xbd5471b6	-0.051866256
72	0x3c0d8754	0.008638222
73	0xbe01e5d9	-0.12685336
74	0xb8b7d8bd	-8.766491e-05
75	0xbd7d7525	-0.061879296
76	0xbe41ac80	-0.1891346
77	0x3e0e04c9	0.13869013
78	0xbcb09650	-0.02155605
79	0x3d421f2f	0.04739302
80	0x3cd5f701	0.026118757
81	0x3e57e8bd	0.21084876
82	0xbe0771b1	-0.13226964
83	0x3e47d3c3	0.19514374
84	0xbdf6adc9	-0.12044866
85	0x3cf9ec25	0.03050811
86	0xbd6e33a0	-0.058154702
87	0x3e415f8d	0.18884106
88	0x3e17d539	0.14827432
89	0x3e2bfc89	0.16795553
90	0xbe2c06ff	-0.16799544
91	0xbe870dfa	-0.2637785
92	0x3dcdc9f6	0.100482866
93	0x3d0c5b26	0.034266613
94	0xbe0b2836	-0.13589558
95	0x3e162adc	0.14664787
96	0x3e173d27	0.14769422
97	0x3e544177	0.20728098
98	0x3da01c81	0.07817937
99	0x3d788628	0.060674816
100	0x3d026068	0.03183022
101	0xbe0728a2	-0.13199094
102	0xbe0b8052	-0.13623169
103	0xbe65795f	-0.2240958
104	0x3c52f2c4	0.012875263
105	0x3dac2cef	0.08407008
106	0xbe1229bc	-0.14273733
107	0x3d4bad78	0.04972598
108	0x3d9a0aae	0.07521568
109	0x3e06a302	0.1314812
110	0xbd70da93	-0.0588022
111	0x3cb59526	0.022165846
112	0x3db6bec3	0.08923104
113	0xbe85dd00	-0.26145172
114	0xbcdb0b37	-0.026738746
115	0xbe8619b0	-0.26191473
116	0xbb13bb19	-0.0022541939
117	0xbcac9982	-0.021069292
118	0xbc114c1e	-0.008868245
119	0xbe0f0900	-0.13968277
120	0x3c08f4ed	0.008359176
121	0xbbf51858	-0.0074797086
122	0xbe191db3	-0.14952736
123	0x3dd67e47	0.10473304
124	0x3d615d05	0.05502035
125	0xbe3607b1	-0.17776372
126	0xbd2b0f4b	-0.04176263
127	0xbe5f29ae	-0.21793243
128	0x3d1c05d5	0.0380915
129	0xbd9a3962	-0.07530476
130	0xbd7e8cc9	-0.062145982
131	0x3e00ae24	0.1256643
132	0x3d767a28	0.06017509
133	0xbdf6a271	-0.12042702
134	0xbe43428d	-0.19068356
135	0x3e0d2ec6	0.13787374
136	0xbd493b02	-0.04912854
137	0xbdd830e2	-0.10556199
138	0x3e1656ea	0.14681593
139	0x3d2d3290	0.04228455
140	0xbe3e13c6	-0.1856223
141	0xbd3349f3	-0.043771695
142	0xbe0f1a39	-0.13974847
143	0x3d30af9d	0.043136228
144	0xbe13ddde	-0.14440104
145	0x3de4ffb3	0.11181583
146	0x3d6e317d	0.058152664
147	0xbe05c621	-0.13063861
148	0xbce6e272	-0.02818415
149	0xbe50082b	-0.20315616
150	0xbdef825c	-0.11694786
151	0xbd44be9e	-0.04803335
152	0x3e1abb03	0.15110402
153	0x3cc46983	0.023976093
154	0x3dd4f358	0.10397977
155	0x3dab58a9	0.0836652
156	0x3dae270f	0.085035436
157	0x3de2f248	0.11081368
158	0xbe0d40fe	-0.13794324
159	0xbbbd630e	-0.0057796305
160	0x3dec301f	0.11532616
161	0xbd59f877	-0.05321547
162	0x3e31cbdf	0.17362927
163	0x3db4115c	0.087923735
164	0x3d27cf29	0.040969048
165	0xbd250ba8	-0.04029432
166	0xbdda8e18	-0.106716335
167	0xbda42824	-0.08015469
168	0x3e007c95	0.12547524
169	0xbd096385	-0.033542175
170	0xbde4945b	-0.11161109
171	0xbe452bdb	-0.19255011
172	0xbe14c9de	-0.14530131
173	0x3d991da6	0.07476358
174	0xbcb3f10d	-0.021965528
175	0x3d6ccdc5	0.057813425
176	0xbda5dcee	-0.080987796
177	0x3dca37b4	0.09873906
178	0x3e3fd10b	0.18732087
179	0x3e4631a7	0.19354878
180	0xbdfa8ef8	-0.122343004
181	0xbd3c469a	-0.04596577
182	0xbe0caece	-0.13738558
183	0xbd325a75	-0.043543298
184	0xbe7dd690	-0.2478888
185	0x3d80f068	0.06295854
186	0x3d11945a	0.03554187
187	0xbdb606f4	-0.08888045
188	0x3e49d3c6	0.19709691
189	0xbde07979	-0.10960669
190	0x3e0914ad	0.13386793
191	0xbdc7a1ca	-0.09747656
192	0xbe00b98e	-0.12570783
193	0x3d9f5656	0.07780139
194	0xbe46cd3a	-0.19414225
195	0xbe485af4	-0.19565946
196	0x3de3cb91	0.111228116
197	0xbc4275b8	-0.011868887
198	0xbd7a9919	-0.06118116
199	0x3e189d28	0.149037
200	0x3d8eaacb	0.0696617
201	0x3e18961b	0.1490101
202	0x3d710f4b	0.058852475
203	0x3de6c638	0.11268276
204	0x3dbe95fa	0.093059495
205	0xbe6a321a	-0.22870675
206	0xbe28b912	-0.16476849
207	0x3e2472e4	0.16059452
208	0x3db3d617	0.08781069
209	0xbd87d299	-0.06631965
210	0xbda13101	-0.07870675
211	0x3df38916	0.118913814
212	0xbe13b1f2	-0.1442335
213	0x3d1fb3cd	0.03898983
214	0x3dbd2fe2	0.092376485
215	0xbd01528d	-0.031572867
216	0x3e083320	0.13300753
217	0x3d1e2c29	0.038616333
218	0xbd974b59	-0.07387418
219	0x3d636be1	0.055522803
220	0xbdd2e7a5	-0.10298089
221	0x3ddcd52d	0.107828476
222	0x3dab385f	0.08360361
223	0xbe10379a	-0.1408371
224	0x3e34cab4	0.1765545
225	0xbc9526d1	-0.018206986
226	0xbe219efb	-0.15783302
227	0x3e53a514	0.20668441
228	0xbc9fa61b	-0.019488385
229	0x3d9873d5	0.07443968
230	0x3d0fec72	0.0351376
231	0x3d1c61a4	0.038179055
232	0x3e69ad94	0.22820121
233	0xbd9745b1	-0.073863395
234	0x3d6662b8	0.05624649
235	0x3e1908cb	0.1494476
236	0xbe58988b	-0.2115194
237	0x3e451c1c	0.19249004
238	0x3c93849f	0.018007575
239	0xbe27059a	-0.1631073
240	0xbb094f0e	-0.0020951661
241	0xbe0a03c1	-0.13477995
242	0x3d8b3d6a	0.06798823
243	0x3d581762	0.052756675
244	0x3df253da	0.118324
245	0x3d43d0af	0.047806438
246	0x3d3fde52	0.04684288
247	0x3db7a96e	0.08967863
248	0xbe153871	-0.14572312
249	0x3e0489c1	0.12943174
250	0x3d99c0dc	0.07507488
251	0xbe336e61	-0.17522575
252	0x3c984c45	0.018591056
253	0xbe138c57	-0.14409004
254	0x3e69f23a	0.22846308
255	0x3d73dc21	0.059536103

main.4.bias f4 [2048]
0	0xbe0f0e28	-0.13970244
1	0xbe3a620f	-0.18201469
2	0xbe0ad2a5	-0.13556917
3	0xbdd21727	-0.10258322
4	0xbe3d794c	-0.18503302
5	0xbe4f3396	-0.20234522
6	0xbc3cf161	-0.011532159
7	0xbd77528c	-0.060381457
8	0xbe367166	-0.17816696
9	0xbe64a4df	-0.22328518
10	0x3bf00d3d	0.007325797
11	0xbdafe2bd	-0.08588169
12	0xbeaededb	-0.341544
13	0x3e160f66	0.14654312
14	0xbeb9c820	-0.36285496
15	0xbc4d7aad	-0.012541455
16	0xbe1f5c26	-0.15562496
17	0xbe3a48ff	-0.18191908
18	0xbdc505b1	-0.09620226
19	0x3dd4ca2e	0.10390125
20	0xbe88d531	-0.26725152
21	0x3d0e9ced	0.034817625
22	0x3d2f23d2	0.04275877
23	0xbe6ce687	-0.23134814
24	0xbe316b12	-0.17326
25	0xbe04b0e2	-0.129581
26	0xbe771831	-0.24130322
27	0xbc43fe58	-0.011962496
28	0xbc1d6a0a	-0.009607801
29	0x3ddc4209	0.10754783
30	0x3c7b7f0c	0.015350115
31	0xbe5713a6	-0.21003589
32	0xbe3ea694	-0.18618232
33	0x3d643fc4	0.055724874
34	0xbdce8d3f	-0.10085534
35	0xbe50c78b	-0.2038862
36	0xbdcbaa32	-0.099445716
37	0x3dd880f3	0.1057147
38	0xbe6ac66a	-0.22927251
39	0xbe37c2b9	-0.17945375
40	0xbe40d2a4	-0.18830353
41	0xbdcd317b	-0.10019203
42	0xbe6f0f8b	-0.23345773
43	0xbdd50d48	-0.10402924
44	0xbd63c78e	-0.055610232
45	0xbe849eb3	-0.25902328
46	0xbe921d88	-0.28538156
47	0x3dc1c079	0.09460539
48	0xbd97105a	-0.07376166
49	0xbe6e1f1b	-0.23254053
50	0x3d27483b	0.04084037
51	0xbcba8786	-0.0227697
52	0xbe32f16b	-0.17474906
53	0xbe6d48e4	-0.23172337
54	0xbbf6f8cd	-0.0075369836
55	0x3dafe71a	0.08589001
56	0xbe43a3d5	-0.19105466
57	0xbe338b15	-0.17533524
58	0xbd4d3cca	-0.0501068
59	0xbd154599	-0.036443327
60	0x3e0329d6	0.12808928
61	0x3db53572	0.088480845
62	0xbdca6b80	-0.09883785
63	0xbd27ea82	-0.04099513
64	0xbd650b13	-0.055918764
65	0xbe94c3ab	-0.29055533
66	0x3e1c2da1	0.15251781
67	0x3cadc7bc	0.021213405
68	0xbea83cad	-0.32858792
69	0xbe79b35a	-0.24384823
70	0x3c82e144	0.015976556
71	0x3c7d2d07	0.01545263
72	0xbe00af6f	-0.12566923
73	0xbe2c6fc5	-0.16839512
74	0xbc1eb020	-0.009685546
75	0xbe655ed0	-0.2239945
76	0xbe0e0ed3	-0.13872842
77	0x3d1de10f	0.03854471
78	0xbe5c15b7	-0.21492659
79	0xbe6ae12c	-0.22937459
80	0xbe1f3129	-0.15546097
81	0xbe9e3149	-0.30896977
82	0x3e010196	0.12598261
83	0xbc9c58b7	-0.019085271
84	0x3cea0287	0.028565658
85	0x3c09bf48	0.008407421
86	0xbd98a286	-0.07452874
87	0xbe25f763	-0.16207652
88	0xbe2aaff6	-0.16668686
89	0xbdb608a5	-0.088883676
90	0x3e7af818	0.24508703
91	0xbd82b7d5	-0.063827194
92	0xbe75e139	-0.24011697
93	0x3e1665cb	0.14687268
94	0xbe0977a1	-0.13424541
95	0x3ddf4881	0.10902501
96	0xbc908377	-0.017640812
97	0x3e06c6ad	0.13161726
98	0x3d6b0bcb	0.057384294
99	0xbe481dad	-0.1954257
100	0xbe72f2ff	-0.23725508
101	0x3e3b51e8	0.18292964
102	0xbd66ebd4	-0.056377247
103	0xbd98f247	-0.07468086
104	0x3c759b6b	0.014990668
105	0xbe53450d	-0.2063181
106	0x3a3e022d	0.0007248249
107	0x3d63dab1	0.055628482
108	0x3ddcb3ad	0.10776458
109	0xbe1a44c1	-0.1506529
110	0xbe5470b8	-0.20746124
111	0x3df05efd	0.117368676
112	0x3e20add6	0.15691313
113	0xbdd74e3e	-0.105129704
114	0x398f950c	0.00027386134
115	0x3e5fa563	0.21840434
116	0x3e1e36ba	0.15450564
117	0x3dcf204a	0.101135805
118	0x3b0eb818	0.002177721
119	0xbc55da95	-0.013052602
120	0xbd31442c	-0.043277904
121	0xbdf2ede0	-0.11861777
122	0xbe5eec43	-0.21769814
123	0xbda528df	-0.08064436
124	0x3dfa0c78	0.122094095
125	0x3da502c9	0.08057172
126	0xbdc9b069	-0.09848101
127	0xbe6f84be	-0.23390481
128	0xbd209d9b	-0.039212804
129	0xbe2b2847	-0.16714583
130	0xbe026699	-0.1273445
131	0xbea2b284	-0.31776822
132	0x3c91b465	0.017786214
133	0xbe47d2ce	-0.1951401
134	0x3d8f7ced	0.070062496
135	0xbe4e952b	-0.2017409
136	0xbe7cbfe8	-0.24682581
137	0x3cf73db9	0.030180799
138	0x3d77507d	0.060379494
139	0xbdd820be	-0.1055312
140	0x3daf7bec	0.08568558
141	0xbd7b1095	-0.06129511
142	0x3d74181e	0.059593312
143	0xbdc78439	-0.09742016
144	0x3e147eee	0.14501545
145	0x3d751467	0.05983391
146	0xbe017b61	-0.12644722
147	0x3daed343	0.08536389
148	0xbe5e27aa	-0.21694818
149	0xbe8a929b	-0.27064976
150	0xbe3402a8	-0.17579138
151	0x3e00ac7d	0.12565799
152	0x3c6d6fe7	0.014492012
153	0x3db1b913	0.08677878
154	0x3db054ea	0.08609946
155	0xbce2f8d0	-0.027706534
156	0xbcd99584	-0.026560552
157	0x3cea3ac0	0.028592467
158	0xbe91fa8c	-0.28511465
159	0x3d8486ad	0.06471
160	0x3e119551	0.14217116
161	0x3d382883	0.04496051
162	0x3ce5db06	0.02805854
163	0x3dc1b3f1	0.09458149
164	0xbe6d86b0	-0.2319591
165	0xbe1b69ce	-0.1517708
166	0xbe732237	-0.2374352
167	0xbdcbbc29	-0.09947998
168	0xbda3d6c6	-0.07999949
169	0x3df65ec6	0.12029795
170	0xbd64701c	-0.05577098
171	0x3d78af45	0.060714025
172	0xbe8654c2	-0.2623654
173	0xbd171a77	-0.036890473
174	0x3e1618be	0.14657876
175	0x3d36034a	0.04443673
176	0x3db172b4	0.08664456
177	0x3e3d86e7	0.18508492
178	0xbe2b4670	-0.16726089
179	0xbe73c8f7	-0.23807131
180	0xbcfa03df	-0.030519424
181	0xbe424835	-0.18972857
182	0x3d8d82f8	0.06909746
183	0xbd6aeeb0	-0.057356536
184	0x3d1ff6d1	0.03905374
185	0xbd31cc56	-0.04340776
186	0xbe1c80ce	-0.1528351
187	0xbde065b8	-0.10956901
188	0x3c09dd6f	0.00841461
189	0x3d3a6563	0.045506846
190	0xbe78a4d4	-0.24281627
191	0xbd806e3f	-0.06271028
192	0x3d80f921	0.062975176
193	0x3e01f35f	0.12690495
194	0xbe7d005f	-0.24707173
195	0xbe8b58a7	-0.27216074
196	0xbe407c5f	-0.18797444
197	0xbdbd11b0	-0.09231889
198	0xbe6eaa3e	-0.2330713
199	0xbd3cdc14	-0.04610832
200	0x3d963d97	0.07335966
201	0xbd82f398	-0.06394118
202	0x3d3815ba	0.044942595
203	0xbddeb329	-0.10874016
204	0x3d845561	0.06461597
205	0xbd711b0b	-0.05886368
206	0xbcd328be	-0.025776263
207	0xbe494023	-0.19653372
208	0xbe635017	-0.2219852
209	0xbea2ade9	-0.31773308
210	0xbe94223f	-0.28932378
211	0xbe838c99	-0.25693205
212	0xbea88a4e	-0.32918018
213	0xbd14e316	-0.03634938
214	0xbb8fa3d3	-0.004383543
215	0x3dae21b2	0.085025206
216	0xbe1f4420	-0.15553331
217	0xbe825249	-0.25453404
218	0x3d03481e	0.0320512
219	0xbe10ebcf	-0.14152454
220	0xbd69c20d	-0.057069827
221	0x3daf6973	0.08565035
222	0x3dca2e28	0.09872085
223	0xbe8d5e70	-0.27611113
224	0xbe3611b0	-0.17780185
225	0xbe293f6b	-0.16528098
226	0x3e0eb5c1	0.13936521
227	0xbddd5722	-0.10807635
228	0x3cb1d6b3	0.021708822
229	0x3d83555f	0.064127676
230	0xbe006755	-0.12539418
231	0x3d1d45fe	0.038396828
232	0x3d248b65	0.040172
233	0xbe15cc4d	-0.14628716
234	0x3e230ff0	0.15924048
235	0xbe8c74bd	-0.27432814
236	0xbdb4d623	-0.08829906
237	0xbc96688a	-0.018360395
238	0xbe12db9b	-0.14341585
239	0xbe2f8925	-0.1714216
240	0xbe99aae0	-0.3001318
241	0xbe8937d5	-0.2680041
242	0x3e21c106	0.15796289
243	0xbdad0851	-0.08448852
244	0x3c9667a3	0.018359965
245	0xbe6b4375	-0.22974952
246	0x3dbe256e	0.09284483
247	0x3d963b04	0.07335475
248	0xbdea7a17	-0.11449068
249	0x3dc97ed8	0.09838647
250	0x3e150e3c	0.14556211
251	0x3dd10856	0.10206668
252	0x3e2e3818	0.17013586
253	0xbe36148d	-0.17781277
254	0xbd8b3a18	-0.0679819
255	0xbced754c	-0.028986596

conv.0.weight f4 [20, 1, 5, 5]
0	0x3d2d33e7	0.042285826
1	0xbda18c24	-0.07888058
2	0x3bd2a7b7	0.0064286846
3	0x3ccdabc8	0.025106326
4	0x39acb241	0.00032939206
5	0xbbbf53c9	-0.0058388454
6	0x3daf604b	0.08563288
7	0x3d0a0762	0.033698447
8	0x3d4ef403	0.050525676
9	0x3d027199	0.031846616
10	0x3cc7a75d	0.024371797
11	0x3d16fc67	0.036861803
12	0x3dc3c837	0.09559672
13	0x3d15eff4	0.03660579
14	0x3d87147a	0.065957025
15	0xbb504c06	-0.0031783595
16	0x3c8af05e	0.01696032
17	0x3d1d12bb	0.03834794
18	0x3debfe3b	0.115231
19	0x3d60551f	0.054768678
20	0xbb6e003c	-0.0036316058
21	0x3c487e2c	0.012237113
22	0x3d34d115	0.04414471
23	0xbdc8f3be	-0.09812115
24	0xbd30219c	-0.043000802
25	0xbc2e9a77	-0.0106569445
26	0x3d31fa3b	0.04345153
27	0xbd8c823a	-0.06860776
28	0xbcaa060b	-0.020754835
29	0xbc872031	-0.016494842
30	0x3dee3e01	0.1163292
31	0xbda71426	-0.0815814
32	0x3deecdcd	0.11660347
33	0x3d02203f	0.031769034
34	0x3e4dc3e5	0.20094259
35	0xbd975536	-0.073892996
36	0x3baa7561	0.005201981
37	0x3e71e813	0.23623686
38	0x3d570402	0.052494057
39	0xbd256e22	-0.040388234
40	0xbdbb56de	-0.09147428
41	0x3e37274b	0.17886083
42	0x3dffe349	0.12494523
43	0xbdd7dbe9	-0.105399914
44	0xbda7c7ad	-0.08192382
45	0xbda5b684	-0.08091453
46	0x3dfcaf44	0.12338117
47	0xbd9e34cc	-0.07724914
48	0x3e39afa2	0.18133405
49	0x3daa8f1c	0.08328077
50	0x3e3dfa6b	0.18552558
51	0xbdf29779	-0.11845297
52	0xbdd0a58d	-0.10187826
53	0x3df28e22	0.11843516
54	0xbd58eb8e	-0.052959017
55	0x3c3ffd52	0.011718111
56	0x3d5c619d	0.05380403
57	0x3bcbb4b1	0.0062166085
58	0x3e48516d	0.19562311
59	0xbc1b1cfd	-0.009467361
60	0x3e41a499	0.18910445
61	0xbb37d2a9	-0.0028049147
62	0x3dad23ec	0.08454117
63	0x3e4ace7e	0.19805333
64	0x3e8162bf	0.2527065
65	0x3d9fb75a	0.077986434
66	0xbd26b0aa	-0.040695824
67	0xbd16fe76	-0.036863767
68	0xbdebbabb	-0.115102254
69	0xbd19b919	-0.03753004
70	0x3dce3f8b	0.100707136
71	0x3d80c053	0.06286683
72	0xbd33c96e	-0.04389327
73	0x3cc3fc15	0.023923913
74	0x3d28c24f	0.041200932
75	0x3d94b2f4	0.07260695
76	0xbcde0ba6	-0.027105164
77	0xbd34fae1	-0.04418457
78	0xbd50ee56	-0.051008545
79	0xbddb311e	-0.10702728
80	0x3c96df82	0.018417124
81	0xbd59a000	-0.053131104
82	0x3e1d8a71	0.15384842
83	0x3e22c654	0.15895969
84	0x3e434922	0.19070867
85	0x3dd414ea	0.103555515
86	0xbd94600b	-0.07244881
87	0x3d93fb50	0.072256684
88	0x3e25fe4f	0.16210292
89	0xbb474464	-0.0030405754
90	0x3d7077c9	0.058707986
91	0xbdfdde85	-0.12395958
92	0x3e276d13	0.16350202
93	0x3cbbeca8	0.022939995
94	0x3e369201	0.17829134
95	0x3c69e377	0.014275423
96	0x3ddc402c	0.10754427
97	0xbc94fbc7	-0.018186463
98	0x3e1aa56c	0.15102166
99	0xbd8c3ee4	-0.06847933
100	0x3e13cca8	0.14433539
101	0x3dd20848	0.10255486
102	0xbdf71e7e	-0.12066363
103	0x3e3d11cd	0.18463822
104	0x3d67937f	0.056537148
105	0xbc703f08	-0.014663465
106	0x3e6cf588	0.23140538
107	0x3c856b34	0.01628647
108	0x3de43bf4	0.11144248
109	0x3e30799e	0.17233893
110	0xbd49c679	-0.049261544
111	0xbd719210	-0.058977187
112	0x3e1ad5cb	0.15120618
113	0x3dd9989f	0.10624813
114	0xbd4acd4d	-0.049512196
115	0x3e4039d2	0.18772057
116	0xbd78d6e2	-0.060751803
117	0x3e01447d	0.12623782
118	0x3da5ec3c	0.08101699
119	0xbdc9afd4	-0.0984799
120	0xbd5e37b8	-0.054252356
121	0xbdb5fbb0	-0.08885896
122	0x3e376eb8	0.1791333
123	0x3d0c55bc	0.03426145
124	0xbcc6433b	-0.02420198
125	0x3ac0aa71	0.0014699233
126	0x3ce479d6	0.027890127
127	0x3cb2a6bc	0.02180802
128	0x3cc42f2c	0.023948275
129	0x3c88d767	0.016704274
130	0x3d0c645e	0.034275405
131	0xbd82121b	-0.063511096
132	0x3d91f9dc	0.07127735
133	0x3d906f94	0.07052532
134	0xbd53baee	-0.051691942
135	0xbb0f5b44	-0.0021874467
136	0x3d938068	0.07202226
137	0x3d671167	0.05641308
138	0x3d9e7b18	0.07738322
139	0x3cef37f8	0.029201493
140	0xbd892a63	-0.06697538
141	0x3cbba41a	0.022905398
142	0xbc762e0f	-0.01502563
143	0x3da4f149	0.08053834
144	0x3d834fb8	0.064116895
145	0xb9b5c398	-0.0003466874
146	0xbc8308c5	-0.015995393
147	0x3c0798f4	0.008276213
148	0x3d30ccee	0.043164186
149	0xbb3ee0fd	-0.0029125803
150	0xbdbc006c	-0.09179768
151	0x3d33e954	0.04392369
152	0xbd750e71	-0.059828226
153	0x3cb58b38	0.022161111
154	0x3df545ac	0.119761795
155	0xbbcdb096	-0.006277154
156	0x3dc60b59	0.09670133
157	0x3e2c75aa	0.1684176
158	0xbdb199cd	-0.08671913
159	0xbc80f52c	-0.015741907
160	0x3d867c45	0.06566671
161	0x3ccf8ca1	0.025335612
162	0xbca1fe8a	-0.019774694
163	0x3dc85fe4	0.09783915
164	0x3de6073e	0.1123185
165	0xbcf5060a	-0.029910106
166	0xbc16e008	-0.009208687
167	0xbd3e5f64	-0.04647769
168	0x3dbd3134	0.092379004
169	0x3d3aff95	0.0456539
170	0xbc722ba1	-0.01478091
171	0x3dbc075f	0.091810934
172	0x3d1cbc66	0.03826561
173	0x3d161a6f	0.036646303
174	0x3db4a289	0.088200636
175	0x3ca7fab3	0.020505285
176	0x3dd81283	0.10550406
177	0xbd9a5f9b	-0.075377665
178	0x3d0a92e2	0.033831485
179	0x3c86072d	0.016360844
180	0xbcaa237b	-0.020768872
181	0xbd9ed727	-0.07755881
182	0x3dd35419	0.10318775
183	0xbb1bff22	-0.0023803194
184	0xbd6aa60f	-0.057287272
185	0x3bfaf272	0.0076582963
186	0x3d21952a	0.039448895
187	0xbd05c43c	-0.032657847
188	0x3dc45039	0.09585614
189	0x3dda1e51	0.10650314
190	0xbde1a2b9	-0.11017365
191	0x3d4c2449	0.04983929
192	0xbb18df52	-0.0023326469
193	0x3db57d98	0.08861846
194	0xbdb61a59	-0.08891744
195	0x3d918540	0.071054935
196	0x3d18d094	0.03730829
197	0xbdcb09c0	-0.09913969
198	0x3c81c347	0.015840186
199	0x3da272ca	0.079320505
200	0xbcb7577e	-0.022380587
201	0xbc9a7b1c	-0.018857531
202	0x3d1b691c	0.037942037
203	0x3d2b2693	0.041784834
204	0x3d46b929	0.048516426
205	0x3d55cdaa	0.05219809
206	0x3d6366b1	0.055517856
207	0xba7e613f	-0.0009703822
208	0xbc928cab	-0.017889341
209	0xbc85c9a3	-0.0163315
210	0xbc91c3c6	-0.017793547
211	0x3da52b6e	0.08064924
212	0x3dafe217	0.08588045
213	0x3c562b78	0.013071887
214	0xbd51ff78	-0.051269025
215	0xbd23b160	-0.03996408
216	0xbbceed5e	-0.0063149175
217	0x3d7dca54	0.061960533
218	0x3d9aa2c6	0.07550578
219	0x3da3734d	0.07980976
220	0xbcade481	-0.021227123
221	0xbcdafe0f	-0.026732473
222	0x3d637805	0.05553438
223	0xbd3c4cff	-0.045971867
224	0xbbe707c7	-0.0070504877
225	0x3ccae72e	0.024768438
226	0x3d891192	0.066928044
227	0x3d132ff1	0.035934392
228	0x3cd0bcef	0.025480716
229	0xbd79f419	-0.061023805
230	0x3d90b2bc	0.07065341
231	0x3cd4a5e6	0.025958013
232	0x3d600add	0.05469786
233	0x3d96d1e5	0.07364253
234	0xbd9e479e	-0.07728504
235	0x3e0c13df	0.13679455
236	0x3e001bcf	0.12510608
237	0x3d41e65c	0.04733883
238	0xbd27c0ed	-0.040955473
239	0x3e6f57fd	0.23373409
240	0xbdd7e6f5	-0.105420984
241	0x3d7c02ba	0.061526038
242	0x3dc9c6a9	0.098523445
243	0x3d61168c	0.054953143
244	0x3d5c3170	0.053758085
245	0xbd09ba60	-0.033625007
246	0x3dce765c	0.10081169
247	0xbc9c15e8	-0.019053414
248	0xbd2c5e4a	-0.04208211
249	0xbcab04be	-0.020876285
250	0x3d34c8f7	0.044136968
251	0x3d95be0d	0.0731164
252	0xbd412b5e	-0.0471605
253	0xbdaa6de4	-0.08321741
254	0x3c8eb54e	0.017420437
255	0x3d289d17	0.041165438

conv.0.bias f4 [20]
0	0xbe8e1a92	-0.27754647
1	0xbe2bdba2	-0.16783002
2	0xbc279f68	-0.0102308765
3	0xbe3a0179	-0.18164624
4	0xbde7d672	-0.11320199
5	0xbe845d84	-0.25852597
6	0xbe889d33	-0.26682433
7	0xbe6cb906	-0.23117456
8	0xbe639967	-0.22226487
9	0xbe996a63	-0.2996398
10	0xbe8f5219	-0.27992323
11	0xbe2a58d3	-0.16635446
12	0xbe029d0d	-0.12755223
13	0xbe470ed3	-0.19439249
14	0xbc46e652	-0.012139874
15	0x3e84f5e3	0.25968847
16	0xbe6894ad	-0.22712965
17	0xbe57f84e	-0.21090814
18	0xbe3c7689	-0.18404593
19	0xbe801e24	-0.25022995

conv.2.weight f4 [20]
0	0x3f8da7b8	1.1066809
1	0x3f81ffe6	1.0156219
2	0x3f725fdd	0.94677526
3	0x3f7f5d93	0.9975216
4	0x3f80360d	1.0016495
5	0x3f8c3f55	1.0956827
6	0x3f8d9129	1.1059924
7	0x3f89a78f	1.075426
8	0x3f8b2ccb	1.0873045
9	0x3f87d03d	1.0610424
10	0x3f8dc263	1.1074947
11	0x3f8522f5	1.0401293
12	0x3fb9e34e	1.4522493
13	0x3f862cea	1.0482457
14	0x3f961759	1.1725875
15	0x3f9de711	1.2336141
16	0x3f899f2d	1.0751702
17	0x3f802d51	1.001383
18	0x3f84c08b	1.037126
19	0x3f8b58dd	1.0886494

conv.2.bias f4 [20]
0	0xbde99c75	-0.11406795
1	0xbdf23965	-0.118273534
2	0xbe30a025	-0.1724859
3	0xbde8ca8d	-0.113667585
4	0xbde53426	-0.11191587
5	0xbdeea75d	-0.11653016
6	0xbe027540	-0.1274004
7	0xbdd63960	-0.10460162
8	0xbde655e6	-0.112468526
9	0xbe273521	-0.16328861
10	0xbdf7a8d3	-0.120927475
11	0xbdcffa36	-0.10155146
12	0x3e8b9694	0.2726332
13	0xbde8fc38	-0.11376232
14	0x3e282310	0.16419625
15	0xbe747ef2	-0.23876551
16	0xbde537cb	-0.11192282
17	0xbe11c40b	-0.1423494
18	0xbde83a30	-0.113392234
19	0xbdecca85	-0.11562065

conv.2.running_mean f4 [20]
0	0xbd23c37a	-0.039981343
1	0x3a1a78e1	0.0005892646
2	0x3dd5ac38	0.10433239
3	0x3c1f612c	0.009727757
4	0x3d622cc6	0.05521848
5	0xbd204705	-0.03913023
6	0xbd00bd81	-0.031430725
7	0xbd1c0407	-0.03808978
8	0xbd0c50f0	-0.034256876
9	0xbd0b7d2b	-0.034054916
10	0xbd226af2	-0.039652772
11	0xbbe6336b	-0.0070251725
12	0xbc85e23d	-0.01634323
13	0xbc8995f0	-0.016795129
14	0x3bd5c8f2	0.0065241987
15	0x3e067740	0.13131428
16	0xbcd55e20	-0.026045859
17	0xbc38bff5	-0.011276235
18	0x3bf2cb7f	0.0074095125
19	0xbd092f29	-0.03349224

conv.2.running_var f4 [20]
0	0x3b7afc88	0.0038297493
1	0x3c6f73e1	0.01461503
2	0x3cfd75b5	0.030939916
3	0x3cb58f51	0.022163065
4	0x3d0bb8df	0.034111854
5	0x3b1ea20a	0.002420547
6	0x3bf86038	0.0075798295
7	0x3b02a0fa	0.0019932375
8	0x3ae8ee8a	0.0017771285
9	0x3c29632d	0.010338587
10	0x3b864417	0.0040974724
11	0x3c27cce4	0.010241721
12	0x3bface5f	0.007653996
13	0x3bee3cd8	0.0072704367
14	0x3bc13076	0.0058956696
15	0x3c6c5d3d	0.014426527
16	0x3bd0b388	0.006369058
17	0x3c5363ba	0.012902195
18	0x3ca19ed5	0.019729057
19	0x3ba9eb5d	0.005185528

conv.3.weight f4 [1, 20, 5, 5]
0	0x3d66e030	0.056366146
1	0x3d5041b9	0.050843928
2	0x3dcb4d3a	0.09926839
3	0x3d80c14e	0.0628687
4	0x3d771bdd	0.060329307
5	0x3dc98678	0.09840101
6	0x3dc4ec45	0.09615377
7	0x3dd8b546	0.1058145
8	0x3dfbc762	0.12293889
9	0x3df8815a	0.12134047
10	0x3e0642af	0.13111375
11	0x3d71e792	0.059058733
12	0x3e0d4f8c	0.13799876
13	0x3d64e711	0.055884425
14	0x3df756bd	0.12077091
15	0x3d54a9a9	0.051919613
16	0x3d84edd0	0.06490672
17	0x3df1c0fa	0.118043855
18	0x3e0361a3	0.12830214
19	0x3de64b55	0.11244837
20	0x3d43ca5a	0.0478004
21	0x3dc58746	0.09644942
22	0x3db25deb	0.0870932
23	0x3cfed455	0.031107107
24	0x3dc2d556	0.09513347
25	0x3de16cf3	0.110071085
26	0x3da2107e	0.07913302
27	0x3d2e4647	0.04254749
28	0x3d998238	0.074955404
29	0x3d6dbb35	0.058039863
30	0x3d95eca0	0.07320523
31	0x3da04aa5	0.07826737
32	0x3d664bf5	0.056224782
33	0x3dda71c2	0.10666229
34	0x3dd7b3cb	0.1053234
35	0x3e03fed6	0.12890181
36	0x3e18c0fe	0.1491737
37	0x3de24b97	0.11049574
38	0x3df3fae4	0.11913088
39	0x3de1d70d	0.11027346
40	0x3d99b411	0.07505048
41	0x3d576dcc	0.052594945
42	0x3ddf85ce	0.10914193
43	0x3d952650	0.07282698
44	0x3d2479fb	0.040155392
45	0x3d8a2525	0.06745366
46	0x3da00e4b	0.07815226
47	0x3d79ef3f	0.06101918
48	0x3d52e21e	0.051485173
49	0x3d953319	0.07285137
50	0x3d84f1b6	0.06491415
51	0x3d956965	0.07295493
52	0x3dbb83b4	0.0915598
53	0x3d21208e	0.039337687
54	0x3c9e66fc	0.019336216
55	0x3dbb8e1d	0.09157965
56	0x3d47a484	0.04874088
57	0x3df7d66c	0.121014446
58	0x3e03c69b	0.1286873
59	0x3df661ee	0.12030397
60	0x3e08a93d	0.1334581
61	0x3e2a8000	0.1665039
62	0x3e5f141a	0.21785012
63	0x3e07c728	0.13259566
64	0x3dda66e8	0.10664159
65	0x3cfe8992	0.031071458
66	0x3dacee4c	0.08443889
67	0x3df00842	0.11720325
68	0x3da5b72b	0.08091577
69	0x3d6ec919	0.05829725
70	0x3ce23f1f	0.02761799
71	0x3d1973e5	0.03746404
72	0x3e3d0603	0.18459325
73	0x3d8159ba	0.06315942
74	0x3dae17aa	0.08500607
75	0x3dbaabbf	0.09114789
76	0x3d212a31	0.039346877
77	0x3df26e69	0.11837465
78	0x3d894ce7	0.06704121
79	0x3d7d7953	0.061883282
80	0x3d99ba35	0.07506219
81	0x3d73353f	0.05937695
82	0x3e10db3e	0.14146134
83	0x3d9dd0f5	0.07705871
84	0x3dc505af	0.09620225
85	0x3d963f6a	0.07336314
86	0x3daa2a89	0.08308894
87	0x3e06b0d6	0.13153395
88	0x3d868c4b	0.065697275
89	0x3db9b969	0.09068567
90	0x3db06e4b	0.08614787
91	0x3de6d0b4	0.11270276
92	0x3d1b6e6e	0.03794711
93	0x3dac6f87	0.0841971
94	0x3d519ab6	0.051172934
95	0x3c22dcac	0.009940308
96	0x3c9ae944	0.018910058
97	0x3dbf4e5b	0.09341117
98	0x3c8f9bc4	0.01753033
99	0x3d9844ca	0.074349955
100	0x3cb0d5b0	0.02158627
101	0x3d3a38d1	0.04546434
102	0x3d6a14b5	0.057148654
103	0x3d573b6f	0.052546915
104	0x3d836bdd	0.06417058
105	0x3d255bc3	0.040370714
106	0x3d4c9ef4	0.049956277
107	0x3dbc3de4	0.09191492
108	0x3db853ae	0.09000336
109	0x3c94c415	0.018159905
110	0x3dc54bf9	0.09633631
111	0x3dcd2576	0.10016911
112	0x3d9b4bdd	0.07582829
113	0x3daa22f4	0.08307448
114	0x3dc1149d	0.0942776
115	0x3db76a3b	0.08955809
116	0x3db9540d	0.090492345
117	0x3daf2537	0.0855202
118	0x3d54cb45	0.051951665
119	0x3de823ef	0.11334979
120	0x3b1a738f	0.0023567413
121	0x3d5a3876	0.0532765
122	0x3d5a4a85	0.053293724
123	0x3d98bced	0.0745791
124	0x3d941a59	0.07231588
125	0x3d0749f0	0.033029497
126	0x3d317acc	0.04333
127	0x3dbaccec	0.09121117
128	0x3da6b6bb	0.08140322
129	0x3d808e9a	0.06277199
130	0x3db9bb21	0.09068895
131	0x3e02c01f	0.12768601
132	0x3da7b2bd	0.081883885
133	0x3d62dc6c	0.055385992
134	0x3d90a684	0.0706301
135	0x3dc697f9	0.09696955
136	0x3da74ec0	0.08169317
137	0x3da8249c	0.08210108
138	0x3dc9b838	0.0984959
139	0x3db71119	0.08938808
140	0x3ddbe59f	0.10737156
141	0x3dfae94e	0.122515306
142	0x3db80abc	0.089864224
143	0x3d65e968	0.056130797
144	0x3d94419e	0.07239078
145	0x3d5c454f	0.053777035
146	0x3de41535	0.111368574
147	0x3dc994fb	0.09842869
148	0x3d98b3a4	0.07456139
149	0x3d8561e8	0.06512815
150	0x3d91354e	0.07090245
151	0x3d888cc5	0.06667475
152	0x3de74c79	0.11293883
153	0x3e018286	0.12647447
154	0x3d90f848	0.07078606
155	0x3da6ba9c	0.08141062
156	0x3e09095d	0.13382478
157	0x3e0cba29	0.1374289
158	0x3dd51d04	0.10405925
159	0x3deec5da	0.11658831
160	0x3dd09297	0.1018421
161	0x3e036e80	0.12835121
162	0x3dd0de35	0.10198633
163	0x3e1ccd37	0.15312658
164	0x3e06b427	0.1315466
165	0x3dca4aae	0.09877525
166	0x3deee3ee	0.11664568
167	0x3dcd9933	0.10038986
168	0x3dd02aac	0.10164389
169	0x3db2d8dd	0.0873277
170	0x3d96a5e0	0.07355857
171	0x3df76468	0.12079698
172	0x3ddc570c	0.107587904
173	0x3dcb21e7	0.09918576
174	0x3df6d251	0.120518334
175	0x3d2f3475	0.042774636
176	0x3d9bf905	0.07615856
177	0x3d6a50bf	0.05720591
178	0x3dd1ff74	0.10253802
179	0x3cd49d5d	0.025953943
180	0x3e00f0ae	0.12591812
181	0x3da9ff50	0.0830065
182	0x3dfcb7ce	0.123397455
183	0x3da06652	0.07832016
184	0x3dc0c38d	0.09412298
185	0x3de70061	0.11279369
186	0x3dc0ea8a	0.09419735
187	0x3da8342a	0.082130745
188	0x3da05c8f	0.07830154
189	0x3d8f08ab	0.06984075
190	0x3d9a1c15	0.075248875
191	0x3dd946bb	0.10609194
192	0x3d9f9fac	0.07794127
193	0x3d3bd995	0.0458618
194	0x3dc00415	0.093757786
195	0x3d98a81c	0.07453939
196	0x3d8a2b09	0.067464896
197	0x3db7582e	0.08952366
198	0x3d84a4b7	0.06476729
199	0x3dbe2fba	0.09286447
200	0x3dabbf59	0.08386106
201	0x3dcfbada	0.10143061
202	0x3d3d57b7	0.04622623
203	0x3d19155b	0.03737388
204	0x3de4e082	0.11175634
205	0x3da64f15	0.081205525
206	0x3d57491d	0.05255996
207	0x3dc01b21	0.093801744
208	0x3de550df	0.111970656
209	0x3d9e24ef	0.07721888
210	0x3db8fb23	0.090322755
211	0x3df29a13	0.118457936
212	0x3de7f9a3	0.11326911
213	0x3da4a85e	0.08039926
214	0x3df6f732	0.120588675
215	0x3de482be	0.111577496
216	0x3d730189	0.059327636
217	0x3d8037fb	0.062606774
218	0x3dbfbbf0	0.09362018
219	0x3d9a166b	0.07523807
220	0x3dcb4c3c	0.0992665
221	0x3d4a42e7	0.04938021
222	0x3d2d47ad	0.042304683
223	0x3decbcd2	0.11559452
224	0x3d03d08b	0.032181304
225	0x3d7a9b9a	0.06118355
226	0x3d9b8699	0.07594032
227	0x3d98913f	0.074495785
228	0x3d811ff7	0.06304925
229	0x3da0bf3b	0.07848974
230	0x3d83e463	0.06440046
231	0x3dda18e9	0.106492825
232	0x3dfb2ff6	0.12265007
233	0x3defd87d	0.11711214
234	0x3d52a59f	0.05142748
235	0x3dfe1227	0.12405806
236	0x3e2d55c9	0.16927256
237	0x3e2d54b4	0.16926843
238	0x3e470d87	0.19438754
239	0x3e3c2c51	0.1837628
240	0x3e087860	0.1332717
241	0x3e37d8d9	0.17953815
242	0x3e459d7f	0.19298361
243	0x3d872145	0.065981425
244	0x3de9804c	0.11401424
245	0x3daa01ca	0.083011225
246	0x3d8ffd90	0.07030785
247	0x3d161d92	0.036649294
248	0x3d70e1ad	0.05880897
249	0x3d5da9bc	0.05411695
250	0x3de0e8e4	0.1098192
251	0x3dd4a318	0.1038267
252	0x3d9ebb50	0.07750571
253	0x3da3f773	0.080061816
254	0x3d1dc7ff	0.03852081
255	0x3d4bbefc	0.049742684
