src/caches/cache_11_14_big/param2img8.pt (torch, 184864 bytes, 19 tensors)

main.0.weight f4 [16]
00000000: 04bd 4f3f 060a 523f 4360 503f a696 853f
00000010: 5a1e 6b3f 4563 873f 4262 8c3f 3bde 773f
00000020: 0909 863f 5b7e 743f 6d35 743f 9f1f 7e3f
00000030: 4222 7e3f e9c3 543f f4d6 583f ebd3 713f
0.8114779 0.82046545 0.81396884 1.0436599 0.9184319 1.057717 1.0967486 0.9682347
1.0471507 0.95505303 0.9539402 0.99267 0.99271023 0.83111435 0.8470299 0.94463986

main.0.bias f4 [16]
00000000: 186a 543e 8b58 27be 7ac8 2abe d802 43be
00000010: 2edb 5abe 3166 0f3e 417e 00be 6be5 fcbd
00000020: b355 0abe 90d0 0d3e 4df4 28be 4c81 24be
00000030: fcc8 c73d f19b 513e 2792 e33d 6664 6fbd
0.20743597 -0.1634237 -0.16678038 -0.19044054 -0.21372673 0.14003827 -0.12548162 -0.123484455
-0.13509254 0.13849092 -0.16499443 -0.16064948 0.097551316 0.20469643 0.11111861 -0.058445357

main.0.running_mean f4 [16]
00000000: 976b e937 282d 3a36 a1cf 4c3e fe66 523b
00000010: 8c9d 253c b452 c43a 618a 0c3f a660 543b
00000020: 8707 a63c a2c9 c03a be8a 0c3f 58a2 543b
00000030: e1d9 f83c 18fc 7db7 19cc 4c3e 6b21 543b
2.7825865e-05 2.7742444e-06 0.20001079 0.0032104845 0.010108363 0.0014978261 0.5489865 0.003240624
0.020267261 0.0014708529 0.54899204 0.0032445397 0.03037733 -1.513867e-05 0.19999732 0.0032368551

main.0.running_var f4 [16]
00000000: 46e4 8835 1276 8435 bb7c 8135 bd22 0f3b
00000010: fec3 9537 811f 1d39 a96b a33d 5730 0f3b
00000020: 755a 8e38 467a 1c39 9274 a33d 45fe 0e3b
00000030: e9d9 1d39 f2ad 8535 4514 8b35 0d01 0f3b
1.0199226e-06 9.869129e-07 9.64755e-07 0.0021840774 1.785345e-05 0.00014984423 0.07979519 0.002184888
6.7879366e-05 0.0001492287 0.079812184 0.0021819037 0.00015053865 9.959897e-07 1.0362206e-06 0.0021820695

main.1.weight f4 [20, 16]
00000000: f499 01bd 905c 8fbc cfca 0d3d 8d76 05bd
00000010: dbc5 1cbe 7ce7 343e fe81 7e3d 8060 febd
00000020: 063e a3be 7205 6cbe 162a 743d 93f5 c5bd
00000030: 5cda 61be 7899 28bc 84d3 d5bc 28da 383e
00000040: 2290 babc fca4 e93c 913f 873d f847 3bbc
00000050: 4b7c 773d b94e 5abe 938f 01bc 9b55 203e
00000060: 5655 933e cd2b c63d bf08 0b3e 96b0 7fbd
00000070: 05a1 fbbd 7dff 64bd 6129 d53c f1f0 233e
00000080: c569 90bc f36b 8b3d 120e 833c ef79 023e
00000090: a687 543e b534 71be 5f41 cbbd 0df5 28bc
000000a0: a05b 183e 89f9 d33d e0d0 263e 0747 e63c
000000b0: 7b2b 09be 54fa 93bc 9f0b 9b3b eb6a 733d
000000c0: 0085 28bc 6f21 34bd 078a 0e3e c474 903e
000000d0: 466c 8d3e c82a 13be 2c94 473e 2509 863d
000000e0: a98d b7bc 87d9 d7bd e68f 343e b84f 953e
000000f0: 800c 1dbe f038 043e 42a7 cbbb 9fd3 99bd
00000100: 961b 06bc 3f8b 333d 7340 523d dd10 1f3e
00000110: ceea e33c 3f0e 3c3e 360c 9c3e 8ee1 45be
00000120: 1187 7f3e 87c9 90be a453 c43d 6423 5c3d
00000130: 0998 003d 049d b63c e53e 59bd 0960 3d3e
00000140: 412a 1f3c ccf4 e4bc 4390 18bd b318 89be
00000150: 8a35 ee3d 3a3b 86be 98f3 abbd 000c 21bd
00000160: 7a74 92ba eb06 0e3d b462 f4bd 5058 d7bc
00000170: 92de c53d 9e6a cf3c f826 953c cf8a cdbd
00000180: e1fe 3cbc 11c1 56bd a358 c7bd ed79 8c3d
00000190: fce8 2abe 625b 213e 33de 053e c9cd 3cbd
000001a0: 7dd1 76be 22aa 0ebe 77e8 8a3e 2046 53be
000001b0: 84de 4bbe 9d3c a23c 4fa4 e23c 87cf 0d3e
000001c0: 7a34 b53c 3c4e 1dbc 906f 313d 1aea 90be
000001d0: 3787 38be bdca 67be 3f9d ec3d 7786 1fbe
000001e0: 68da f4bd 558f 24be 4fbc 6ebe 27d7 193e
000001f0: 42d6 6ebe f8d9 2fbd 2062 05bc e5ea 43bd
00000200: 3381 ed3b 0b6c 00bb 94b1 9c3c 6b53 743e
00000210: 2977 213d 79ed 63bc 09cc 37be 4105 293d
00000220: a6d3 9a3e 8efd 863e 5fd3 19be 393d 34be
00000230: 02bb 433e 4bf1 7e3c 68ce 4a3c 6977 26be
00000240: 489c 15bd cbf7 103c 9a84 a2bc 7ad1 10be
00000250: b8a4 293e 7add 833e 3e89 683d e801 0e3e
00000260: 0b2c 153d 943a 4a3e 8cdb c03b 2b9b 2c3e
00000270: a2de ae3d c910 dfbc 8716 c1bc 5a81 523c
00000280: 9585 e6bc 45f5 e3bc ef30 343b ffd0 08be
00000290: b8d6 933c c071 ab3d d816 963e 8e82 96be
000002a0: ee36 313e 3c1a 123d 5b55 813e 79bb 5fbe
000002b0: ea66 14be c290 223d c294 0b3d 9e6a 843d
000002c0: 4ed6 37bd 07a1 013e e2ce 083d aa4d 373e
000002d0: 7f30 87bd 901a 5bbe 395d 843e d459 803e
000002e0: d9bf 67bd 0943 003e e9cd 6c3e 8069 803e
000002f0: 8ebe 57bd a9f8 eabc f97e 28bd e1ea 00be
00000300: aa70 f53c 836a bfbc a31c b9bd 2c1c 79be
00000310: a186 97bc e4ad f2bd 9088 5abd 05c1 883d
00000320: 9101 f3bd f904 26be 64ea 32be be52 99bd
00000330: 47d4 dbbd 2fa8 143d d52b d73c a25f 43be
00000340: 3114 783d 4bc1 a8bb 1a56 b73c a626 1a3e
00000350: 1f87 cabd 4ce8 3b3e 7811 9a3e 5185 4bbe
00000360: ce3f 02be 5c6c 913e 49af 25be fbc8 0dbe
00000370: 676d 833e f5fe 163d 1c4c 923c 3171 b23d
00000380: 9aa7 9cbd 8abf e13c 9ae6 8a3d 0270 673e
00000390: b903 64bd 9085 1dbc de70 323e b2f5 633d
000003a0: c827 5dbc cf3e 7f3c ee4c 093e 6476 053e
000003b0: 29c9 bd3c 63ac 33bd 656c 1abb 79ee c2bd
000003c0: 783e 9e3c 27a7 88bc 7037 82bd 7f37 503d
000003d0: e4a0 2abe 55c0 87bd adb0 5abe dd09 fb3c
000003e0: 9081 72bd 7929 2ebe 34ee 87be 6fc1 8d3e
000003f0: 22f4 323e 76bc 5c3d ab8a 6bbd 0e3b b1bd
-0.03164096 -0.017500192 0.03461724 -0.032583762 -0.15309851 0.1766643 0.06213569 -0.1242075
-0.31883258 -0.23048952 0.05961045 -0.0966598 -0.22055954 -0.010290496 -0.026101835 0.1805197
-0.022773806 0.028521053 0.06603921 -0.011430733 0.06042127 -0.21319093 -0.007907766 0.15657656
0.28776044 0.09676323 0.13577555 -0.062424265 -0.122865714 -0.055907715 0.026020708 0.1600988
-0.01762856 0.06807699 0.01599792 0.12741826 0.20754871 -0.23555262 -0.09924578 -0.010312331
0.14878702 0.103503294 0.16290617 0.02811004 -0.13395493 -0.018063702 0.00473161 0.059428137
-0.010285616 -0.043977197 0.13919841 0.28214085 0.2762167 -0.14371789 0.19490117 0.06544713
-0.022406416 -0.10539537 0.17633018 0.29162383 -0.153368 0.12912345 -0.006215007 -0.07511067
-0.008185288 0.043833967 0.051330995 0.15533777 0.027821925 0.1836481 0.30478066 -0.19324324
0.24953867 -0.28278753 0.09586266 0.05374469 0.031394992 0.022291668 -0.053038497 0.18493666
0.009714664 -0.02794876 -0.037246954 -0.26776657 0.116313055 -0.2621706 -0.08396071 -0.039318085
-0.0011173629 0.034674566 -0.119328886 -0.026287228 0.096615925 0.025319394 0.018207058 -0.10036241
-0.011535377 -0.052430216 -0.09733703 0.06859193 -0.16690439 0.15757516 0.13073044 -0.04609469
-0.24103351 -0.13932088 0.27130482 -0.2063222 -0.19909102 0.019804293 0.027666239 0.13848697
0.02211975 -0.009601172 0.043319285 -0.28303605 -0.1802033 -0.22635932 0.1155343 -0.15578638
-0.1195572 -0.16070302 -0.23314022 0.1502348 -0.2332392 -0.04293248 -0.008141071 -0.047831435
0.0072480678 -0.0019595649 0.019127645 0.23859946 0.03942028 -0.013911598 -0.17948927 0.041264776
0.302396 0.26365322 -0.15022038 -0.1760148 0.19114307 0.015560458 0.012378313 -0.16256489
-0.036525995 0.008848141 -0.01983862 -0.14142409 0.16566741 0.2575491 0.05677151 0.13867915
0.036418956 0.19748908 0.005885547 0.16856067 0.085385576 -0.027229683 -0.023570312 0.012848223
-0.028139869 -0.027826915 0.0027494987 -0.13360976 0.018046722 0.083713055 0.29314303 -0.2939648
0.1730611 0.03566955 0.25260434 -0.21848859 -0.14492384 0.039688833 0.034077413 0.06465648
-0.04488211 0.12659083 0.033400424 0.1790072 -0.06601047 -0.21396852 0.25852373 0.25068533
-0.056579445 0.12525572 0.23125423 0.2508049 -0.05267196 -0.028683024 -0.041136716 -0.12589599
0.029960949 -0.023366218 -0.09038665 -0.24327153 -0.018496813 -0.11849573 -0.053352892 0.066774406
-0.11865533 -0.16212834 -0.17472225 -0.07486485 -0.10733848 0.036293205 0.026266018 -0.1907945
0.06056613 -0.0051499954 0.022379924 0.15053806 -0.098890536 0.18350333 0.30091453 -0.19875075
-0.12719652 0.28402984 -0.16180147 -0.13846199 0.25669405 0.03686424 0.017858557 0.08712996
-0.07649155 0.027557153 0.06782265 0.22601321 -0.055667613 -0.009614363 0.17425868 0.055654235
-0.013498254 0.01557894 0.13408253 0.13033444 0.02316721 -0.043865573 -0.0023563143 -0.09518141
0.019316897 -0.016681267 -0.0635823 0.050834175 -0.16662937 -0.06628481 -0.21356459 0.030644352
-0.05920559 -0.17008008 -0.26548922 0.2768664 0.17475942 0.053890668 -0.05750529 -0.08653842

main.1.bias f4 [20]
00000000: d9b6 3e3d f950 9abe 249f 63be 250f adbd
00000010: 177e e73d e9e8 453e ca44 143e 5c47 6cbd
00000020: c153 dabd f2f8 99be a85c 21be d8bc 453d
00000030: a2ad 9b3e 0eee ef3c d7bf 253e da17 cabd
00000040: abfd 163e 3308 4abe a03e 1e3e 1d1e 84be
0.046561096 -0.30139902 -0.22228676 -0.08450154 0.113033466 0.1932713 0.14479366 -0.05768524
-0.10660506 -0.30072743 -0.15758002 0.0482758 0.3040591 0.029288318 0.16186462 -0.098678306
0.14745204 -0.1972969 0.15453577 -0.25804225

main.3.weight f4 [20]
00000000: 956e 823f 2db6 753f bad5 713f 3d54 5d3f
00000010: 1294 673f 8b46 6d3f c956 6f3f 8b5c 783f
00000020: 3b8a 753f 6596 803f ca2d 743f 58d9 7d3f
00000030: b9df 603f 8c32 793f 9262 783f 1dbf 723f
00000040: 356d 7c3f 88cd 753f c70d 733f 825c 4d3f
1.0189997 0.95981103 0.94466746 0.8645666 0.9046031 0.92685765 0.934918 0.9701621
0.9591405 1.0045897 0.9538237 0.99159765 0.87841374 0.97342753 0.97025406 0.94822866
0.98604137 0.9601674 0.949429 0.8021928

main.3.bias f4 [20]
00000000: c180 f0bd 241a 67be 08e1 63be b786 95bd
00000010: 21b9 883c 10bc 03be 714d 3bbe 9982 17be
00000020: c937 40be df72 efbd 0c57 823d 3d38 2cbd
00000030: e2a0 2f3d f435 08be 0e2b 543e 98b5 f7bd
00000040: 56bf bf3d 911a da3b d056 003e 5a34 7bbe
-0.11743308 -0.22568566 -0.22253811 -0.073010854 0.016689839 -0.12864709 -0.1829126 -0.14795913
-0.1877128 -0.11691832 0.06364259 -0.04204582 0.04287804 -0.13301831 0.20719549 -0.12095183
0.09362666 0.006655999 0.12533116 -0.2453169

main.3.running_mean f4 [20]
00000000: 26c4 913e 007f 92bd 8ae5 79bd 1174 943d
00000010: 037f 283e 4487 b93e c11b af3e 0db4 6d3e
00000020: 19af 473e 914a e63c eba1 2b3e df91 2d3e
00000030: 8767 f73e 8d53 8c3e 4884 2a3e c1d3 2a3e
00000040: 5aee 933e f09a 20bd 92aa d13e 42b2 65bd
0.28469962 -0.071531296 -0.06100992 0.072487004 0.16454701 0.36236012 0.34200862 0.23213215
0.19500388 0.028111728 0.16760986 0.16950177 0.48321173 0.27407494 0.16652024 0.1668234
0.28892785 -0.03921026 0.40950447 -0.056078203

main.3.running_var f4 [20]
00000000: 2749 5a3e 7aa3 873c 3336 403c e42c 3a3e
00000010: 958a 053e b963 3b3e ad76 813e 2c83 6e3e
00000020: ce56 3a3e f657 883d 2e2a 573e 76a8 7f3e
00000030: f49e 923e 5c86 003e 8447 d83d 70db 063e
00000040: 9073 513e 0cf5 bb3b e183 aa3e 603d e73c
0.21316968 0.016557444 0.011731672 0.18181187 0.13041146 0.1829976 0.25285855 0.23292226
0.18197176 0.06657402 0.21012184 0.24966606 0.28636897 0.12551254 0.105605155 0.13169646
0.2045424 0.005735999 0.3330374 0.028227508

main.4.weight f4 [2048, 20]
00000000: 48ad 95be fca5 90bd edc9 c63d 4e6a 0dbe
00000010: 4a8a 0d3e dfdd adbd faf2 82be cf4f 4abe
00000020: fec2 143e b20f 223e f183 a6bc 4508 71be
00000030: 0331 e93d e865 293e abc7 ef3c 9b4d 373e
00000040: 45f5 313e 9dc9 0c3e 9196 d3bd a67c 2cbe
00000050: d56a 823e 8255 cebd f242 a33d 5af6 113d
00000060: 388b a4bd f38d 90bd eaa4 3e3e 57b1 97bd
00000070: 32ae 24be d3ef 993e febe c03d c15e 403d
00000080: 4870 743e 6d11 95bd 14d4 7a3e 27c7 51be
00000090: 6169 43be 4ce1 353e f5b9 7a3d c958 7dbe
000000a0: 30ec 9a3d 2d76 5cbd ffcc c8bd 3653 023e
000000b0: aa0f 153e e267 e93d 919c 65be 7e92 66be
000000c0: f9c6 5f3e 2bcc 9f3d e496 a63d b5c3 e1bd
000000d0: 96fd 3e3e 86f5 69bd 195e 4ebe 3799 20bc
000000e0: 3596 1d3e de8f 7dbe e251 833d f617 073e
000000f0: 67b2 0e3d aa3d 68bd 6bb3 56be 8615 df3d
00000100: 5736 113e cace d8bc 6668 263e 9897 15bd
00000110: e58a ba3d efb2 61bc 3c0b 743d 95da 85be
00000120: a32c 053d cd42 36be 4612 44be 4bf6 2e3e
00000130: 1bdf ab3d c61d c23d 4402 33bc fab1 5c3e
00000140: 9f6a 833d 74c5 ee3d 5e39 bebc 2859 943d
00000150: 14f5 203e dfae a93d c214 5a3d d70b 8dbc
00000160: cd60 a8bd dc43 f1bd d657 94be 9cf7 323e
00000170: cc39 a6bc fd96 81bc 589a 7abb 03fd 82bd
00000180: 0fe6 e8bd c620 f33d aa7d 61be a847 2fbd
00000190: ce2c c23d 8e98 813d 0fdd 3dbd b080 aebc
000001a0: 26d4 a3ba f5c8 073e 85be 843d 928e 7cbe
000001b0: 285d f5bd 1179 423e 4579 663d 7f2e 82be
000001c0: da06 2bbe 4462 9abd ec57 23bd e877 02be
000001d0: cd0a dcbc c8eb 44bd 9d89 263d 571e 27be
000001e0: c78a b4bc 7f5c 853d 9ce1 13be eab0 27bd
000001f0: 7a07 413e d44f 44bd 4cd5 0d3e 8d67 26be
00000200: 8e87 77be 3f34 80bd abf1 0cbe c468 1d3e
00000210: ea89 74bd 2655 93bd 8b9c 6fbe ed16 87bd
00000220: 54c8 383d c547 a3bd 4d78 c93d f3d0 813e
00000230: d924 b93d ac44 04be 9904 11bd 37e1 7dbe
00000240: fe7f cdbd d6ec 49bc 9d60 dd3d c950 13be
00000250: 3378 e1bd 5c15 b5bd 736a 4a3e 9e13 80be
00000260: 3359 0c3c a0cf 3d3e 353a 4f3e c1ca 5fbd
00000270: 82c2 ec3d 3f52 57bd 0ea5 013e 4d99 1dbe
00000280: d6b4 4ebe 10fe a33d b408 703e b341 f6bd
00000290: 2170 02be c581 973c 24a0 96bd 2c4f 9f3d
000002a0: b977 88bb ebd8 58bd 6960 98bd ba57 363e
000002b0: dfbe 953d 97ff d43d 4a65 7abe bfc0 53bd
000002c0: 3097 323b ee01 efbd 5451 c0bd 9fd0 523e
000002d0: 58c9 80be 721d 88bc 9069 043e 8a6c e9bc
000002e0: 47a3 703d 9809 53bd 3682 973d d722 14be
000002f0: 7e7f c3bd 31ec 373e 86f4 d23d f590 3bbe
00000300: 3492 853d b184 43be 667f 5e3e 680f d83d
00000310: 345f 633e 295d 6fbd 4184 53be 6197 06be
00000320: e04a 613e 9cdd 4abd 9b33 ce3d 4fbe d33d
00000330: c6d9 423d dfe9 98bd 7a52 ce3d be2c d13c
00000340: 1290 e2bc 780f ab3d 04be b33d 27fb 48be
00000350: b4db fdbc 62cb f0bd 3ebd f1bd bac2 b4bd
00000360: 7c99 73be 5e57 fa3d c3d6 f93d 59e1 91bd
00000370: e28e ebbd 58db 92bb 446a 9b3d 005c 2e3c
00000380: 8c8c 2d3d 4213 8cbd a108 d33c 3f45 a33d
00000390: 321d 563e 075d 513e 56bb 92bc 167c 8bbe
000003a0: 0444 243e 6950 293e 7f21 85be f848 dcbd
000003b0: 6d35 43be 5375 b03c 6263 f6bd 6772 223e
000003c0: 37f0 1c3e 98e0 a83d 7f31 403e 5a7a 583d
000003d0: 0820 71bd 4103 e8bb e349 12be 8910 143e
000003e0: 8c80 e1bc ffe1 643e 6071 20be 0077 1f3b
000003f0: ec30 3f3e 9cbc 26be bc7d 93be 7345 193e
-0.29233766 -0.07062909 0.09706483 -0.13810083 0.13822284 -0.08489584 -0.25576 -0.19757007
0.14527509 0.158263 -0.020326586 -0.23538311 0.11386301 0.1654278 0.029270014 0.17900698
0.17378719 0.13748784 -0.10331453 -0.16844425 0.2547213 -0.10074903 0.07971753 0.03563533
-0.08034366 -0.07058325 0.18617597 -0.07406872 -0.16082075 0.30065784 0.09411429 0.046965364
0.23870957 -0.07278714 0.24494964 -0.20486127 -0.19083168 0.17761725 0.0612125 -0.247409
0.075645804 -0.05382364 -0.09804725 0.12727055 0.14556757 0.11396767 -0.22423007 -0.2251682
0.21853246 0.07802614 0.08134249 -0.11023656 0.18651423 -0.057118915 -0.20153083 -0.009802154
0.1538933 -0.24761912 0.06412102 0.13192734 0.034838106 -0.056699432 -0.2096688 0.10892777
0.14180885 -0.026465792 0.16250762 -0.036521524 0.09108523 -0.013775571 0.059581026 -0.26143327
0.032513272 -0.1779892 -0.19147596 0.17086141 0.08392163 0.09478335 -0.010925833 0.21552268
0.06416821 0.11658755 -0.023220714 0.07243568 0.1571849 0.08285307 0.053242452 -0.01721756
-0.08221588 -0.11780521 -0.28973264 0.17477268 -0.020291232 -0.015819067 -0.0038238969 -0.063959144
-0.11372005 0.118714854 -0.22020593 -0.042792946 0.09481202 0.063279256 -0.046353396 -0.021301597
-0.0012499138 0.13260253 0.06481651 -0.24663761 -0.11980659 0.18991496 0.056267995 -0.254261
-0.16701832 -0.07538274 -0.03987877 -0.12741053 -0.026860619 -0.04807642 0.040658582 -0.16320167
-0.02203883 0.06511783 -0.14441532 -0.040940203 0.18850508 -0.047927693 0.13850898 -0.16250439
-0.24172804 -0.06259965 -0.13764064 0.15371996 -0.059701838 -0.07193975 -0.2339956 -0.065961696
0.045112923 -0.07972673 0.09837399 0.25354728 0.09040231 -0.12916821 -0.035404775 -0.24792944
-0.10034178 -0.0123245325 0.10809443 -0.14386286 -0.11009254 -0.088419646 0.1976717 -0.25014967
0.008566189 0.18536234 0.20237048 -0.05463672 0.11560537 -0.05256867 0.1266062 -0.15390511
-0.20186171 0.08007443 0.2344082 -0.1202425 -0.12738086 0.018494496 -0.07354763 0.07778773
-0.0041646627 -0.052941244 -0.07440264 0.17806903 0.073117964 0.104003124 -0.24452701 -0.05169749
0.002725076 -0.1167029 -0.09390512 0.20587395 -0.25153613 -0.016615603 0.12930894 -0.028494138
0.058749463 -0.05152282 0.07397883 -0.14466415 -0.095458016 0.17961194 0.103005454 -0.18317015
0.06522027 -0.19093587 0.21728286 0.105498135 0.22204286 -0.058438454 -0.2065592 -0.13143684
0.22001219 -0.04952775 0.10068437 0.10339033 0.047570966 -0.07466482 0.10074325 0.02553403
-0.027656589 0.0835256 0.08776477 -0.19627057 -0.030988552 -0.11757542 -0.11803673 -0.08826204
-0.23789018 0.12223695 0.12199166 -0.0712306 -0.11501862 -0.004481714 0.07588628 0.010642052
0.042370364 -0.06839611 0.02576095 0.07972192 0.20909575 0.20445643 -0.017911594 -0.27243108
0.16041571 0.1653458 -0.26002118 -0.10756105 -0.19063349 0.02154032 -0.120306745 0.15863954
0.1532601 0.08245963 0.18768881 0.05285106 -0.058868438 -0.007080466 -0.14285998 0.14459433
-0.027527116 0.22351836 -0.15668249 0.0024332404 0.18671006 -0.16282886 -0.28806865 0.14967899

main.4.bias f4 [2048]
00000000: d5c5 b53d c33e fd3d fa7f 52be 5275 84be
00000010: 3ec9 8abe 6367 53bc b0e6 203c 4f44 0abe
00000020: a375 e43d 62d8 d6bd 3603 1bbc 39af 16be
00000030: 754e dbbd a4ce 0cbe 02e7 c33d 5849 213e
00000040: 3191 01be 09eb 91be 75c1 1e3e 4e3b 68be
00000050: cddd 3ebe d6f9 1a3d e0b9 fdbd 0460 55bd
00000060: a0fc 363e 225d 9d3d 19e5 5dbc d96e 803c
00000070: 967c 1cbe 084f 21be 483c 90bd 412d c2bd
00000080: 2224 1d3e 5ad1 563b 7d05 97bd 03b2 5cbe
00000090: 43dc 62bd 5ec0 573c f068 433e 66d7 16be
000000a0: 112c d43d 4aed 343e d000 1f3e 9565 033c
000000b0: bdcb 1fbe 8498 a03d d3b0 cd3d de60 763d
000000c0: 6e44 963d 6a47 c9bd af6c 7fbe bc09 a03d
000000d0: 0ec8 aebd f7b9 8a3d da17 173e 70c0 1a3e
000000e0: c065 243e 6c93 80be 328b 22be 29ff 813c
000000f0: cf79 1bbe 1783 493e e86d d3bd c812 3a3e
00000100: 2ac9 8d3e 3c87 63bb 82ba 26bb 2a7b 24bb
00000110: 12ee e93d fcfd 3dbe 7705 e33c dfd2 31be
00000120: 2241 023d 5611 31be a30e f3bd 6920 ac3d
00000130: 8802 39bd 493e 54be e0a8 1cbe 471d 8fbd
00000140: 9c41 bebd a2cd 16bd de9f bfbd c18e 4b3c
00000150: 7352 1c3d 2906 0f3e 41f1 c93d 7e2f 6ebe
00000160: 9359 5cbe da7e fb3b 3fe4 df3d d902 ec3d
00000170: f9d5 19be d180 22bd ae81 163e 723d 38be
00000180: d73b 38bd 864c ea3c ba98 dd3d 3e74 13be
00000190: 96eb 60be 4f34 f8bd 50b9 d13d 24d7 b8bd
000001a0: c0c9 9bbd 2d74 fabb 3e3c debd f1a0 c6bd
000001b0: 14ff fc3c 9f74 533e 6eb5 25bd 373c 923c
000001c0: 47ae d4bc c5d4 f0bd bf80 3b3d ebe2 cfbd
000001d0: 0346 44be 8b93 69be e9d5 2dbe a01a fa3d
000001e0: 3def 863d 9184 66be 0a13 5bbe 5257 47bc
000001f0: 07ac 1f3e 311b 4f3c c63a d63d a60d b5bd
00000200: 22ec 073e e9d2 30be 3434 4d3d bdc1 2fbe
00000210: 2fa2 17be 37f0 70be 253d 1abe 9074 2b3b
00000220: 7f20 35be 83e9 f53b a249 10be 8a7b 82bd
00000230: 5d29 ebbd 6810 00bd 970a f03d c559 6cbe
00000240: 678e e23b 2254 a5be 1420 98be 01d0 1abd
00000250: 4d83 bd3b d273 73be c750 653d 6d18 95be
00000260: eb90 fe3d 1b87 3cbe 8561 05bd adea 45be
00000270: e722 0abc 66c7 c3bd 92fa e8bd 9ee2 69be
00000280: 5c76 60be 059a 5bbe b5b8 3d3d 047f aebd
00000290: c084 5dbe 5f7e c23c 9282 3ebe 2b04 5dbe
000002a0: 01e4 033e 351b 873d a0ac 453d 5c47 3abe
000002b0: e338 89be 9625 efbd 02ca 0cbd 6710 52bd
000002c0: 93f8 84bd 214b b5bd 936a 80be 722e 04be
000002d0: 4076 82be e628 33be 996e 043e a57d c6bd
000002e0: 1212 d5bc 2749 cabd a197 8ebe 798c 88bd
000002f0: 7cc1 18be be14 6abe 8f2d f83d 38c8 53be
00000300: 5f4a 86be 52cd d63d 69d0 403c c81f 2dbd
00000310: e2b5 92be 6604 5ebe 7ff5 3abe 2e79 8abe
00000320: 11f4 803b 0c8e 29be 0937 e6bd e7cd 47bd
00000330: 0c0d 703d 1a26 78bd 154f 353c 01bd 1fbe
00000340: 9548 68be 731a f53c c15a 15be 98cb 14be
00000350: 9ffc 37be 9f2c 33be f745 93be da58 09be
00000360: b2e3 a83b be5e 0dbd 1cbf 96bd 5576 6fbb
00000370: 68d3 84be bf1c 6fbe 9424 c7bc 5bc7 7b3d
00000380: d914 e33d 8e00 71bd ccfe 6fbe d6ca cabd
00000390: b2b4 3fbe ae2c 0cbe 9ca7 8dbc 1a1f 84be
000003a0: f79f c8bb c02d e9bd a865 c3bd 6f1c f5bd
000003b0: 34ce 8abe 667a 983d c3a6 80be 953c 86be
000003c0: 8b30 043e 361c 94be 4e45 323c 6280 fc3d
000003d0: 750e df3c 40b4 a73d 4571 8e3c b05c e33d
000003e0: 7431 1d3b 41be 62be 5c78 eabd db33 1bbc
000003f0: 174f 8ebe 5b16 4abe 87c6 80bb 6992 53be
0.08875624 0.123654865 -0.20556632 -0.25870758 -0.2710666 -0.012903067 0.009820625 -0.1350262
0.1115525 -0.104904905 -0.009461215 -0.1471528 -0.10708324 -0.13750702 0.095655456 0.15750635
-0.12653042 -0.2849963 0.15503486 -0.22678873 -0.18639298 0.03783592 -0.123889685 -0.05209352
0.17869806 0.07683779 -0.013543391 0.015677856 -0.15281901 -0.15752804 -0.07042748 -0.09481288
0.15345815 0.0032778592 -0.07374094 -0.21552281 -0.05538584 0.0131684225 0.19082999 -0.14730605
0.103599675 0.17668644 0.15527654 0.0080198245 -0.15605064 0.0784159 0.10043492 0.060150973
0.07337271 -0.09828074 -0.24943803 0.07814357 -0.08534251 0.06773751 0.14755192 0.15112472
0.1605444 -0.25112474 -0.15873411 0.01586874 -0.15183185 0.19678913 -0.10323697 0.18171227
0.27692538 -0.0034718057 -0.0025440757 -0.0025097826 0.114223614 -0.18553919 0.027712567 -0.17365597
0.031800397 -0.1729177 -0.11868026 0.08404619 -0.04516843 -0.20726885 -0.15298796 -0.06988006
-0.09289858 -0.0368172 -0.09356664 0.012424172 0.038164567 0.13967194 0.09860469 -0.23260304
-0.21518545 0.007675034 0.10932206 0.11523981 -0.1502303 -0.03967363 0.14697906 -0.1799219
-0.044978943 0.028600942 0.10820146 -0.14399812 -0.21964869 -0.12119352 0.10240424 -0.0902541
-0.0760684 -0.0076432438 -0.10851334 -0.09698666 0.03088335 0.20649956 -0.040456228 0.017850978
-0.025962008 -0.117593326 0.04577708 -0.10150703 -0.19167332 -0.2281019 -0.16976131 0.122121096
0.065886 -0.22511508 -0.21393982 -0.012166815 0.15592967 0.01264076 0.10460429 -0.08840494
0.13273671 -0.17267956 0.050098613 -0.17163749 -0.14807962 -0.23529135 -0.15062387 0.0026162006
-0.17688178 0.0075046434 -0.14090589 -0.063712195 -0.11482499 -0.031265646 0.1172077 -0.2308112
0.0069139483 -0.3229075 -0.29711974 -0.037796024 0.0057834745 -0.2377465 0.05598524 -0.29120198
0.12429985 -0.18410914 -0.032563705 -0.19327803 -0.008431173 -0.095595166 -0.113759175 -0.22840354
-0.2192015 -0.21445473 0.04631873 -0.0852032 -0.21632671 0.023741899 -0.18604496 -0.21583621
0.12879945 0.06596986 0.04826033 -0.18191284 -0.26801214 -0.11677091 -0.034372337 -0.051285174
-0.06492724 -0.0885222 -0.2508131 -0.12908342 -0.25480843 -0.1749607 0.12932815 -0.096919335
-0.026009593 -0.09877234 -0.2785006 -0.06667418 -0.14917558 -0.22859475 0.121180646 -0.20681846
-0.26228616 0.104883805 0.011768439 -0.042266637 -0.2865439 -0.21681365 -0.18257712 -0.27045578
0.003935345 -0.16558093 -0.11240966 -0.04878035 0.058606192 -0.06058321 0.011066218 -0.15599443
-0.22683938 0.029919839 -0.14585401 -0.1453079 -0.17967461 -0.1749749 -0.28764316 -0.134128
0.0051540965 -0.03451418 -0.0736067 -0.0036539037 -0.2594254 -0.2335081 -0.024309434 0.061469417
0.11087961 -0.05883842 -0.23437041 -0.09901969 -0.18721274 -0.13688919 -0.017291836 -0.2580498
-0.006122585 -0.11385679 -0.09540874 -0.11968314 -0.27110445 0.07445221 -0.2512723 -0.26218095
0.12909143 -0.28927773 0.010880781 0.123291746 0.027228573 0.08188677 0.017387995 0.11101663
0.0023985775 -0.22142889 -0.11448738 -0.0094728125 -0.27794716 -0.1973509 -0.0039299163 -0.2066132

conv.0.weight f4 [20, 1, 5, 5]
00000000: 2ec1 28be 5afa 19bd b03e 6ebe f703 c4bd
00000010: dfcc 9a3d 38b1 24be 8f00 1f3e a375 12be
00000020: a71d abbd 30a1 f2bd f0f4 fe3c 24a2 af3d
00000030: e993 cf39 b742 81bd 46ee 4b3e dee7 23bd
00000040: 8f70 053e d7e0 803e d1b8 cc3c 5ae8 683e
00000050: eb21 61be 0859 91bd 59b6 98bd 5a28 f23d
00000060: 0742 65bd e54e 70be 334c 2bbd 96bb 643d
00000070: ebf9 d73d 2c41 90bd ec60 24be e6f4 83be
00000080: 45ff 16be 7a18 20bd 84b3 2a3e 38b7 6dbe
00000090: 9ac6 4bbe 3558 2c3e 09e4 c43d c17c 133e
000000a0: 06df d4ba 16bd 2abb 27d1 97bd fe90 463e
000000b0: 1aa6 343e 634a 0dbe 1573 bbbb fe43 263d
000000c0: e4d6 dd3d b688 903d 600c 51be c44c 353e
000000d0: 31ca bc3d afad 3b3e df6f 1bbe 9012 a8bd
000000e0: c1b0 1c3e 880d 61bc 2bbf 113d 8099 30be
000000f0: d55b efbd 4682 0dbe f0b8 093e 385b 06be
00000100: 0abd bebd 16f0 613d 781e cabd 755d 7e3c
00000110: baa1 b9bd abd1 aebd e7e4 0abe e472 a13d
00000120: ed40 393d b02f 213e 64ed 163e d2c3 913d
00000130: bcec 9b3c beb7 b53d ce3b 7ebe 37fc 7bbd
00000140: c589 84bd d22a 0fbe b53b 89bd 0834 f43d
00000150: 1c4b 00be c7cc 2f3d a85e 1cbe 070e 3dbe
00000160: d9cc 713c bc7b 903d 63e2 943d 550e e23d
00000170: 5a8f cc3d 66d2 e9bd 4847 4bbe f7cf 183e
00000180: 2384 a9bd 0f94 083e 9c5d 703d c33c 1a3d
00000190: 8bb7 58be e2bf 59bd ff13 cf3b bda2 14be
000001a0: 91bb 2dbe 986b 5bbe a32d 0bbe f382 8c3c
000001b0: 32fc 8cbe 524b ebbc 6f2e 87bd 4a79 2abe
000001c0: 6d2a 983d 2c01 3fbe 332d 8dbc cb07 163d
000001d0: 39fc 383d dd4c 273e b356 ea3c 562d d73d
000001e0: e335 653c 5a9c cdbc e1a8 013e 313f f3bd
000001f0: 5b7c 0a3d 67ba 823d 01dc dbbc 494e 343e
00000200: dfc1 223d 8107 3f3c 468e 0a3e 4815 67bb
00000210: fe72 8ebc 555e 043c 9128 c13c 7043 54bc
00000220: c205 ddbc 3ce1 a03d 1d87 be3d 4dc9 06bd
00000230: 2f51 90bb 8d1b 3c3e 352a c23d 493f fcbd
00000240: 5fca 423e 63e4 283e 4b63 2c3e 86c6 183e
00000250: 0f53 263e 94b1 0f3e 0efc 913d c823 823e
00000260: 3075 d8bd e9c3 053c ebfe c7bd 0cd5 833e
00000270: 35c5 f53d 726a 263e 0e11 8b3d 4913 9c3c
00000280: 6d6c 073c bbb8 923d 586a 8c3c f088 543e
00000290: 4b5c e83d a6c5 153d 501e d53d e1f9 143e
000002a0: a02b b33d ec57 8abc 0918 05bd 8f0f c63c
000002b0: 7bcc 1cbe f157 1d3e bb6c 403e bf75 ffbd
000002c0: 55ca ff3d 8fdc 52be 5617 8f3d ff12 743d
000002d0: 70af 1d3e 7331 343d b60a 5abc ef3d 1dbd
000002e0: 53e3 df3c 4eb6 ac3d b200 6fbd d2d1 97bd
000002f0: 6cc9 d6bd 9d07 84bd 08bb 01be 5f80 283e
00000300: eae1 153d 3b44 6a3d 067d 1d3d 7df0 0f3e
00000310: b0a7 b33d 8178 cfbd 840e 6dbe 49c3 0ebe
00000320: 6383 b9bd fc62 273e 288c 5b3d 6c84 f7bd
00000330: 423a fabd bd9d 54bd d83e 1c3e 2098 dcbd
00000340: 4f9a debd fddf 48be 6eb5 b5bc b2fd 6a3e
00000350: e1ff 14bd 592a 42bd aded 15be f22b 853d
00000360: df55 bcbd 6757 2c3e cf78 2bbd 5ec8 8e3d
00000370: 89c3 cd3d 40a0 463c 935b 373e 5ed9 d7ba
00000380: 6ff8 99bc 6949 003d 39f7 373d 7f8a ecbc
00000390: 49fd 013e 0208 113d 2a4c fc3c 16e2 d23c
000003a0: b5f1 943d 7a53 65bd ea60 273c 9923 f3bc
000003b0: 612b 883d 895d 7ebd aeef 20bd 314e 9fbc
000003c0: c8a8 20bb f71d d1bd d4fc 043d a72d 413d
000003d0: 7c4e b23d 19af 71bd 962e 2dbd a7c1 a13d
000003e0: 4131 c93d e084 b5ba e8ee 253e 194d 31bd
000003f0: e811 58bd d4ca 29be ed42 a2bc 3267 f33c
-0.16479942 -0.03759227 -0.23266101 -0.09571069 0.07558607 -0.16083229 0.15527557 -0.14302687
-0.08355265 -0.1184715 0.031122655 0.08575848 0.00039592318 -0.06311553 0.19915113 -0.040016048
0.13031219 0.2517154 0.024990471 0.22744885 -0.21985595 -0.070970595 -0.07456655 0.11824103
-0.05597117 -0.23467596 -0.041820716 0.05584296 0.10545715 -0.070436805 -0.16052598 -0.2577278
-0.14745815 -0.039085843 0.16670042 -0.23214424 -0.19899979 0.16830523 0.09613807 0.14403059
-0.0016240783 -0.0026052645 -0.074129395 0.19391248 0.17641488 -0.13797908 -0.005720506 0.040592186
0.10832003 0.070573255 -0.20414877 0.17705065 0.092182525 0.18327974 -0.15179394 -0.082066655
0.15301801 -0.013736136 0.035582703 -0.17246056 -0.116874374 -0.13819227 0.13449454 -0.13120735
-0.093134 0.055160604 -0.09869093 0.015525212 -0.0906405 -0.08536085 -0.13563882 0.07883242
0.045227934 0.15740848 0.14738995 0.07117428 0.019033782 0.08872937 -0.24827501 -0.061519828
-0.0647159 -0.13981178 -0.06700841 0.11923987 -0.12528652 0.0429199 -0.15270483 -0.18462382
0.014758312 0.070548505 0.07269742 0.1103789 0.0998828 -0.114170834 -0.1985141 0.14923082
-0.08277156 0.1333773 0.058683023 0.037655603 -0.21163766 -0.05316151 0.0063195224 -0.14515205
-0.16966082 -0.21427763 -0.13591628 0.017152285 -0.2753616 -0.028722439 -0.066006534 -0.1664783
0.07429967 -0.18652791 -0.017233467 0.036628526 0.045162413 0.16337915 0.028605795 0.10506694
0.013989898 -0.025098968 0.12662078 -0.11877287 0.03381 0.0638321 -0.026838304 0.17607988
0.03973567 0.011659504 0.13530836 -0.0035260487 -0.017388817 0.008079131 0.023578914 -0.0129555315
-0.026980285 0.0785546 0.093031146 -0.03290682 -0.004404209 0.18369885 0.094807066 -0.12316758
0.19022511 0.16493373 0.16834752 0.1491948 0.16242622 0.14032584 0.07128154 0.25417924
-0.10569227 0.008164384 -0.097654186 0.2574848 0.12000505 0.16251543 0.06790362 0.019052165
0.008265597 0.07164141 0.017140552 0.20755363 0.113457285 0.036565445 0.10406172 0.14548446
0.08748555 -0.016887628 -0.032493625 0.02417734 -0.15312378 0.15365578 0.18791477 -0.1247363
0.12489764 -0.20591949 0.06986873 0.05958843 0.15398955 0.04399247 -0.013308218 -0.038389143
0.027330076 0.08433209 -0.058350272 -0.07413067 -0.10487637 -0.064467646 -0.12669003 0.1645522
0.0365924 0.057193976 0.03844931 0.14056583 0.08772218 -0.10130406 -0.23150069 -0.13941683
-0.09058263 0.16346353 0.05360046 -0.12085804 -0.12218143 -0.051908243 0.15258348 -0.10771203
-0.10869276 -0.19616695 -0.022181239 0.2294834 -0.036376838 -0.047403667 -0.14641447 0.065025225
-0.09196066 0.16830216 -0.04186326 0.06971811 0.10047061 0.0121231675 0.17906027 -0.0016467979
-0.01879522 0.03132001 0.044913504 -0.028874634 0.12694277 0.035408027 0.030798037 0.025742572
0.072726645 -0.055987813 0.010215977 -0.02968006 0.06648899 -0.06210092 -0.039291076 -0.019446464
-0.0024514664 -0.102107935 0.03246768 0.047162678 0.08706376 -0.059004877 -0.042280756 0.078982644
0.098238476 -0.0013848804 0.16204417 -0.043286417 -0.05275145 -0.16581279 -0.019807303 0.029712293

conv.0.bias f4 [20]
00000000: db49 2c3d fff5 3abb 66cf da3d be7f 71be
00000010: 377c b9bc 920e dfbd bce9 a6bb aa52 f13d
00000020: 35a3 1bbe a180 8abe 83d0 f13d 0ca1 1e3e
00000030: c4dc 24bc 0e7f f03c 8697 8abd 2ef8 41be
00000040: 9424 8b3d 5faa 70be 2ee8 3ebe efa9 65bd
0.04206262 -0.0028527973 0.10684089 -0.23583886 -0.022642238 -0.10891451 -0.0050937813 0.11783345
-0.15198977 -0.2705126 0.118073486 0.15491122 -0.0100624 0.02935746 -0.06767182 -0.1894233
0.06794086 -0.23502491 -0.18643257 -0.056070264

conv.2.weight f4 [20]
00000000: 5f97 923f 4249 9b3f b36c 8a3f bec9 873f
00000010: b412 8c3f 9dc6 8d3f eec0 8c3f 8173 813f
00000020: 84d8 903f eaa2 8c3f c130 823f 8336 893f
00000030: c1ac 8f3f 0566 8f3f 0301 8f3f 84bf 933f
00000040: 9e22 803f e7ac 963f c56f 8c3f 656e 963f
1.1452445 1.2131732 1.0814422 1.0608442 1.0943208 1.1076237 1.0996377 1.0113374
1.1316075 1.0987217 1.0171129 1.0719761 1.1224595 1.1203009 1.1172184 1.1542821
1.0010564 1.1771516 1.0971609 1.175244

conv.2.bias f4 [20]
00000000: 204f 0f3e e22c 313e dc71 e93d b3e3 1b3e
00000010: 0d7b 58be cf77 00be a342 08be 4356 ec3d
00000020: 8255 083e cd28 02be 4ec1 e93d 6daa 55be
00000030: b5f4 18be 0e2d f83d c271 0ebe 082f 2c3e
00000040: 8b9d 053e d779 0f3e 06cb 06be 78ab f83d
0.13995028 0.17302278 0.1139867 0.15223579 -0.2114069 -0.12545703 -0.1330667 0.115398906
0.13313869 -0.12710877 0.11413823 -0.20865794 -0.14937098 0.121179685 -0.13910583 0.16814816
0.13048379 0.14011322 -0.13163385 0.1214208

conv.2.running_mean f4 [20]
00000000: 7259 943d 78f1 243d a766 da3d 14e4 56bd
00000010: 89c1 94bc 0a7e f93d e876 603e b254 f13d
00000020: 67ee 77bc db37 30bd fb57 ed3d 6fc4 fe3c
00000030: b62c 293e a408 963d 0601 1f3e 4ca6 10bc
00000040: 98fb 8c3d 1523 35bd 647f a3bc 13f1 fbbb
0.07243623 0.040269345 0.10664111 -0.052463606 -0.018158691 0.12182243 0.21920359 0.117837325
-0.015132523 -0.043022018 0.115890466 0.031099526 0.16520962 0.07325867 0.15527734 -0.008828711
0.06883925 -0.04422291 -0.019958206 -0.0076886504

conv.2.running_var f4 [20]
00000000: 4232 a13c 53e4 733c f2a5 973c 2732 3c3b
00000010: 65c2 b93b b591 633d 7230 993d 2e45 8a3c
00000020: 2871 c53b fd8e e43a ac12 993c 8c8b 353c
00000030: 9b3e 473d 8d78 9b3c 72e8 8b3d 42fc 2e3c
00000040: 05d3 313c 53dd 213b 7c9d 9a3b f869 d83b
0.019677285 0.01488598 0.018511746 0.0028716417 0.0056689256 0.05555888 0.07479943 0.01687869
0.006025452 0.0017437633 0.018685661 0.011080634 0.04864369 0.018978382 0.06831445 0.01068026
0.010853534 0.002469857 0.0047184806 0.0066044293

conv.3.weight f4 [1, 20, 5, 5]
00000000: 87ce 02be 1319 d4bd 1de8 8ebd 056f cabd
00000010: d736 b3bd 6bc2 1dbe 8c7c 02be 2bc2 28be
00000020: b423 05be d46e 01be 0b66 04be d3ba e2bd
00000030: f819 0fbe bd44 ddbd d1d7 22be d406 ffbd
00000040: 32c1 03be fb00 c5bd 967a 28be d831 07be
00000050: bc10 aebd bf0f dcbd 14dd adbd 8083 babd
00000060: 4dfc aebd 130a 0fbe 4aa5 dcbd cd32 28be
00000070: de6f e0bd 251e 06be 52eb c6bd e1dc 2abe
00000080: 7cac 06be a39d 65be 3c10 54be c556 00be
00000090: c3d0 2ebe 3322 2fbe 8bbd 03be fec2 2abe
000000a0: f2d3 0abe dad0 d9bd d728 32be 9295 20be
000000b0: e069 99bd 3cca ecbd bab5 1fbe 4596 fbbd
000000c0: e919 09be ee2a abbd f711 fdbd ff19 bbbd
000000d0: 10dc 13be f902 16be c8f9 0fbe f6ae f9bd
000000e0: b911 02be 0495 12be eed7 b3bd 9719 a1bd
000000f0: a1f2 90bd 04c9 e5bd f225 f9bd 9fd4 d8bd
00000100: 002b a6bd 521f ffbd 2be3 cfbd ad9d ffbd
00000110: 6c91 a5bd 60d5 05be a3d8 dbbd 6d52 06be
00000120: 6cac 15be e661 9cbd af9d d7bd 0ff3 04be
00000130: 2614 1fbe ca5b 22be cb48 09be e524 d8bd
00000140: f7bd e0bd 723e 1abe 31d2 07be 91a9 08be
00000150: ccb8 0dbe 4863 f5bd a883 0fbe 5a57 d0bd
00000160: b6d9 58bd 5ef6 36be 2132 d4bd ea92 1fbe
00000170: b8bc e8bd f329 07be 2802 2fbe 9ef3 34be
00000180: 3d0e 13be 2981 a3bd 1cf4 30be 2935 20be
00000190: 55b5 e33c 9388 2a3d 81f9 6abd 2255 353d
000001a0: 6196 1b3e 1c6c d13d 04e8 723d ae5d 873d
000001b0: 8e56 663e ecdc 7c3e cbe7 d53d 4271 b43d
000001c0: f47c 053e 5bba 2b3e 2ae9 0d3e e6ab f93d
000001d0: 866c ff3d 3f8e 153e e5c2 1f3e 8ff8 be3d
000001e0: f83d 273e 5f07 273e 9de3 e53d e440 073e
000001f0: 879a 173e dc59 433d 62fc a23d 98b2 513d
00000200: 10fa bf3d c0fc 8a3d 042d 0a3e 729d d33d
00000210: 70ac b73d 21c9 c43d a3de e03d dda8 f03d
00000220: 350a e23d 2eea 123e fb93 e13d 224f 043e
00000230: ead1 093e 8d91 933d 68b1 9f3d ade7 e63d
00000240: 3b00 593d ce7c 0e3e 9273 863d 8403 073e
00000250: e09b 853d e7ae d33d 52c5 053e 2d72 033e
00000260: daee a63d 2f53 fa3d 7ae6 e33d 26dc 283e
00000270: 3791 923d 2d1d ea3d bcfe fa3d 0153 a93d
00000280: dc71 9f3d 33df 0d3e 0afe bf3d 9249 1c3e
00000290: 1339 c33d c99c c03d ae42 b63d 6574 fc3d
000002a0: ac23 da3d ef57 e13d c76a 9e3d 702c 203e
000002b0: 35c0 0d3e 7633 a13d 1766 073e 51df f1bd
000002c0: 8c00 f5bd 3a6c 93bd 2786 76bd 9939 c6bd
000002d0: dd3f c2bd e353 d0bd 79ef ddbd 54ba c8bd
000002e0: 98dd 15be f187 e5bd 16af cabd 7724 a6bd
000002f0: 7322 70bd 277d e4bd b8ef 90bd c739 e0bd
00000300: 2163 eabd 25e7 adbd 19ce 1cbe dfaa e1bd
00000310: 0fa5 e2bd 759f 8cbd c3a1 ecbd cf44 9bbd
00000320: 70bb d9bd 26b3 10be 9354 a8bd 0d3b d6bd
00000330: 2471 f0bd 1a7d debd e7a7 98bd 2c95 21be
00000340: f384 11be 83f7 d7bd d4a0 7dbd 41f9 9bbd
00000350: 7036 99bd ec60 05be 12fa febd 9dfe edbd
00000360: f85f e2bd 81be fabd daf2 02be 2ba1 a0bd
00000370: 2c0e d9bd a309 86bd 34a1 e7bd e169 d3bd
00000380: bffb c8bd 72d7 053e 5cef 963d 9144 033e
00000390: 8a9c dd3d a93a ad3d db56 e43d 6d69 e93d
000003a0: 0a58 0b3e c29c cd3d c452 743d 226a 923d
000003b0: 417e 123e e797 a43d 7443 163e f3a2 ed3d
000003c0: 5fe5 dd3d 5562 b53d 489b 1c3e 9af7 063e
000003d0: 476b c23d c9ed d73d cad5 983d 61b3 f63d
000003e0: 38d5 fa3d 69bd 1b3d 5399 0dbe e8db d0bd
000003f0: ccff dcbd f776 14be 2d2b 9bbd 2f81 e4bd
-0.12774096 -0.10356345 -0.06977866 -0.098844565 -0.08750694 -0.15406196 -0.12742823 -0.16480319
-0.13001901 -0.12639934 -0.12929551 -0.1107079 -0.1397475 -0.108041264 -0.1590264 -0.12452474
-0.12866667 -0.09619328 -0.16453013 -0.13202608 -0.084992856 -0.10745191 -0.08489433 -0.09107113
-0.08544216 -0.13968687 -0.10773714 -0.16425629 -0.10958837 -0.13097437 -0.097128525 -0.16685821
-0.13151735 -0.22423415 -0.20709318 -0.125331 -0.17071824 -0.1710289 -0.12865274 -0.16675946
-0.13557413 -0.106355384 -0.17398392 -0.15682057 -0.07490897 -0.11562011 -0.15596667 -0.12284521
-0.1338879 -0.083577976 -0.12356942 -0.09135818 -0.14439416 -0.14649571 -0.14060128 -0.12191574
-0.12702073 -0.14314657 -0.0878142 -0.07866209 -0.07077528 -0.11219981 -0.121654406 -0.10587429
-0.0811367 -0.12457146 -0.10150751 -0.12481246 -0.08084378 -0.13069677 -0.107346795 -0.1311738
-0.14616555 -0.0763586 -0.10528123 -0.12983344 -0.1553503 -0.15855327 -0.13406675 -0.10553912
-0.10973733 -0.15062883 -0.13263775 -0.13345934 -0.13840026 -0.11981827 -0.14015067 -0.10172911
-0.052942 -0.17867419 -0.10361124 -0.15583387 -0.1136412 -0.13199596 -0.17090666 -0.17671058
-0.143609 -0.0798362 -0.1728062 -0.15645279 0.027796427 0.041634154 -0.05736685 0.044270642
0.15194084 0.10225698 0.0593033 0.06609665 0.22493955 0.2469365 0.104446016 0.08810665
0.13035947 0.16770308 0.13858476 0.1219099 0.12471871 0.14605044 0.1560169 0.093247525
0.16332233 0.16311406 0.112250544 0.13208348 0.14805041 0.04769312 0.079582945 0.05119571
0.093738675 0.067864895 0.13493735 0.10332765 0.08968437 0.09608675 0.109799646 0.11750958
0.11037103 0.14347145 0.11014553 0.12920812 0.13458982 0.07205496 0.077975094 0.112746574
0.052978735 0.13914797 0.06565012 0.13184935 0.065238714 0.10336094 0.13063553 0.12836523
0.08151026 0.12222897 0.11127944 0.1649023 0.07156604 0.11431346 0.12255618 0.08267785
0.07785389 0.13854675 0.09374626 0.1526244 0.095323704 0.094049044 0.08899437 0.12326888
0.10651335 0.110031 0.0773521 0.15641952 0.13842852 0.078711435 0.13222538 -0.11810172
-0.11962995 -0.07198377 -0.06018653 -0.09678955 -0.09484837 -0.1017225 -0.108366914 -0.09801164
-0.14635313 -0.112075694 -0.09896676 -0.08112424 -0.058626603 -0.111566834 -0.07076973 -0.1094852
-0.114446886 -0.08491353 -0.15312995 -0.11018919 -0.11066639 -0.068663515 -0.11554291 -0.075814836
-0.10631454 -0.1413084 -0.08219256 -0.10460482 -0.1174033 -0.10863705 -0.074539 -0.15779561
-0.14210872 -0.10545256 -0.061920956 -0.07615901 -0.07481086 -0.13025254 -0.12450041 -0.11620829
-0.11053461 -0.12243367 -0.12787953 -0.0784324 -0.10598406 -0.06544807 -0.11310044 -0.10322929
-0.09813642 0.13070467 0.07369873 0.12819125 0.10820873 0.08458454 0.11149379 0.113970615
0.13607803 0.10039665 0.059649244 0.071491495 0.14305975 0.080367856 0.14674169 0.11603346
0.10834765 0.08856646 0.1529361 0.1318039 0.09493118 0.10543401 0.07462652 0.120459326
0.122476995 0.038022432 -0.1382802 -0.10198194 -0.10790977 -0.14498506 -0.075765945 -0.11157452
