src/caches/cache_16_20_small2/param2img9.pt (torch, 184864 bytes, 19 tensors)

main.0.weight f4 [16]
0	0x3f4e4c48	0.80585146
1	0x3f4b9166	0.79518735
2	0x3f4a3a86	0.7899555
3	0x3f7c5393	0.98565024
4	0x3f58d1c1	0.8469506
5	0x3f7a5147	0.9778027
6	0x3f804523	1.0021099
7	0x3f7f7725	0.99791175
8	0x3f82d0d6	1.0219982
9	0x3f787afa	0.9706265
10	0x3f732b6d	0.9498814
11	0x3f7950ff	0.97389215
12	0x3f821999	1.0164062
13	0x3f5ecd35	0.8703187
14	0x3f4fef89	0.81224877
15	0x3f77305a	0.96558154

main.0.bias f4 [16]
0	0xbe36a6e5	-0.17837103
1	0x3e243ae9	0.16038097
2	0xbe43a413	-0.19105558
3	0xbe1c1f9c	-0.15246433
4	0xbe430387	-0.19044314
5	0x3e16c12b	0.14722125
6	0xbd877550	-0.066141725
7	0xbe258c80	-0.16166878
8	0xbe4d7267	-0.20063172
9	0xbe8190fc	-0.25305927
10	0xbe5d2598	-0.21596372
11	0xbdf4ecc0	-0.11959219
12	0x3de19029	0.110138245
13	0x3e3578a0	0.17721796
14	0x3e2ff4cb	0.17183225
15	0xbe05e368	-0.1307503

main.0.running_mean f4 [16]
0	0xb67ce58f	-3.7684547e-06
1	0x33fcee74	1.1778039e-07
2	0x3e4cc569	0.19997181
3	0x3b8a1ba5	0.0042147213
4	0x3c1d75d0	0.009610608
5	0x3b2c4fa8	0.0026292596
6	0x3ef8b9de	0.48579305
7	0x3b87c582	0.004143418
8	0x3c9dafc9	0.01924886
9	0x3b2d9800	0.0026488304
10	0x3ef8bbd3	0.48580799
11	0x3b89e4a4	0.0042081643
12	0x3cec9075	0.028877476
13	0xb630e7d6	-2.636099e-06
14	0x3e4ccbda	0.19999638
15	0x3b89c7b5	0.004204715

main.0.running_var f4 [16]
0	0x3580c6fa	9.594653e-07
1	0x358a793f	1.0317088e-06
2	0x358b9b85	1.0401569e-06
3	0x3afcd8f1	0.0019290728
4	0x3819f480	3.670575e-05
5	0x3901c39c	0.00012375269
6	0x3d900154	0.07031503
7	0x3afd3322	0.0019317607
8	0x39163df0	0.00014328188
9	0x3901a964	0.00012365502
10	0x3d8ffc64	0.070305616
11	0x3afcc421	0.0019284525
12	0x39a6ed44	0.00031838764
13	0x35841e99	9.843671e-07
14	0x358a82db	1.0319885e-06
15	0x3afcba2a	0.0019281555

main.1.weight f4 [20, 16]
0	0xbd2c284b	-0.042030614
1	0x3d387a69	0.045038614
2	0xbdd0efb6	-0.10201971
3	0x3e389f70	0.1802957
4	0xbc348db1	-0.01102011
5	0x3d8e0b9e	0.069358096
6	0xbe286b87	-0.16447268
7	0x3d167180	0.036729336
8	0x3d174934	0.036935046
9	0xbdc2ce69	-0.09512026
10	0x3e7b3907	0.24533473
11	0x3dcced09	0.10006148
12	0x3d055a15	0.032556612
13	0xbd5917de	-0.053001277
14	0xbd89a3b7	-0.06720679
15	0xbdb2d2ae	-0.0873159
16	0xbd2dd8b5	-0.042442996
17	0x3d0e5f58	0.034758896
18	0xbd427f6c	-0.0474848
19	0x3c8aa3b1	0.016923757
20	0xbea8424c	-0.3286308
21	0x39f46d86	0.00046620908
22	0xbce07811	-0.027401002
23	0x3e26c33c	0.16285414
24	0xbe976d54	-0.29575598
25	0x3e6b8c5d	0.23002763
26	0x3e14f5ab	0.1454684
27	0xbca61a2e	-0.020276155
28	0xbed5a7a0	-0.4172945
29	0xbb1f9b36	-0.0024353988
30	0xbb863656	-0.004095833
31	0xbd562ea7	-0.052290585
32	0x3b89d742	0.004206569
33	0xbda23d79	-0.07921881
34	0x3d144a85	0.03620388
35	0x3eabce6e	0.3355593
36	0xbbc1e011	-0.0059166034
37	0x3d96cf60	0.073637724
38	0x3db9bf50	0.09069693
39	0xbb7684bd	-0.003761574
40	0xbe56609d	-0.20935293
41	0xbd1fce1e	-0.039014928
42	0xbc58fffa	-0.013244623
43	0x3ea45e0b	0.32103
44	0x3e5dfb27	0.21677838
45	0xbdf18118	-0.11792201
46	0x3d706e21	0.058698777
47	0x3e959641	0.29216197
48	0x3ca472bd	0.020074243
49	0x38ac39d4	8.2123704e-05
50	0x3dc68a73	0.09694376
51	0x3e520f6d	0.20513697
52	0x3de98299	0.11401863
53	0xbd84ce77	-0.064846925
54	0xbdafe590	-0.085887074
55	0x3e06ffb0	0.13183475
56	0x3c28a93b	0.010294254
57	0xbc94d4c5	-0.018167863
58	0x3e3fac1f	0.18718003
59	0xbe072e1f	-0.13201188
60	0x3bbaf4ee	0.0057054674
61	0xbdb1d369	-0.086829014
62	0xbdd6a649	-0.10480935
63	0x3d8f5392	0.06998362
64	0x3d5e23f2	0.0542335
65	0xbd14ff16	-0.03637608
66	0x3c411643	0.011785093
67	0x3e2d2805	0.16909797
68	0xbe0d35c5	-0.13790043
69	0xbe5d135a	-0.21589413
70	0xbd0be440	-0.034153223
71	0xbc0cea89	-0.008600839
72	0xbd87d4fb	-0.0663242
73	0xbdebcd5b	-0.11513778
74	0x3d9db07d	0.07699678
75	0x3e23c6ed	0.15993853
76	0xbdb6a1e0	-0.08917594
77	0x3cf59e2e	0.029982653
78	0x3d5f4b63	0.054515254
79	0x3d776272	0.06039662
80	0xbd1be502	-0.038060196
81	0x3db5d10d	0.08877764
82	0xbdff589d	-0.124680735
83	0xbe1de8df	-0.15420865
84	0x3e8b3825	0.27191272
85	0xbdc99c09	-0.098442145
86	0x3cce2aab	0.02516683
87	0x3e61f398	0.2206558
88	0x3e6bb6ba	0.23018923
89	0x3df44af3	0.11928358
90	0x3de54cc6	0.11196284
91	0xbd626588	-0.05527261
92	0x3e8735df	0.26408288
93	0xbd44b37d	-0.048022736
94	0xbdb8e1b5	-0.09027425
95	0x3ddcc31c	0.10779402
96	0xbd2445af	-0.040105518
97	0x3d310547	0.043217923
98	0x3dcffa40	0.10155153
99	0xbddc3601	-0.10752488
100	0xbe204b7e	-0.15653798
101	0xbda4dda1	-0.08050085
102	0x3e357c45	0.17723186
103	0x3e538002	0.206543
104	0x3e23ff11	0.16015269
105	0x3d8042fa	0.06262775
106	0xbd2d430f	-0.04230028
107	0xbd94cb68	-0.07265359
108	0x3d421677	0.047384705
109	0xbd26b92a	-0.04070393
110	0xbd688d5b	-0.056775432
111	0x3e58da52	0.21177033
112	0x3e3aaeda	0.18230763
113	0xbddc6216	-0.10760896
114	0x3e078736	0.13235173
115	0x3e851a65	0.259967
116	0xbe21aa07	-0.15787517
117	0x3cb8dc78	0.022566065
118	0x3da3a26d	0.07989965
119	0x3eaada04	0.33369458
120	0xbdf3ccb8	-0.119042814
121	0x3d2f9e7e	0.04287576
122	0xbdd49a65	-0.10381011
123	0x3e1017e9	0.14071621
124	0x3e433dbd	0.1906652
125	0x3c7b1a0b	0.015326033
126	0x3d9dfd0f	0.07714283
127	0x3e2cd904	0.1687966
128	0xbb0f13fe	-0.0021831985
129	0xbd576c78	-0.05259368
130	0x3cc6d220	0.024270117
131	0x3e090f0a	0.13384643
132	0x3e3b830b	0.18311708
133	0xbd9bb91a	-0.07603665
134	0x3d8f070d	0.06983767
135	0x3d020a5e	0.03174817
136	0x3d8d3b18	0.06896037
137	0x3d2800d7	0.041016426
138	0xbcbbed2c	-0.02294024
139	0x3e6a1686	0.22860155
140	0xbe4c1014	-0.19928008
141	0xbd34351d	-0.043995965
142	0x3d265be9	0.040614996
143	0xbe41c69f	-0.18923424
144	0xbbca53bc	-0.0061745327
145	0x3c6e88b6	0.014558962
146	0x3d0c7322	0.034289487
147	0xbe337e03	-0.17528538
148	0x3cb91c8b	0.022596618
149	0xbe40d9c9	-0.18833078
150	0xbe1b7ee8	-0.1518513
151	0x3e677d6e	0.22606441
152	0xbd704eb0	-0.058668792
153	0x3e751e48	0.23937333
154	0x3e3eded1	0.18639685
155	0xbdd99a6f	-0.10625159
156	0x3d47c132	0.04876823
157	0xbc3907ff	-0.01129341
158	0xbd1170d5	-0.035507996
159	0x3e6697c6	0.22518834
160	0x3cf6c0bc	0.0301212
161	0xbd15d6bb	-0.036581736
162	0xbc12dd27	-0.00896386
163	0x3d1f0eed	0.038832594
164	0x3d5eb52d	0.054372
165	0x3e90613a	0.28199178
166	0xbdc21187	-0.09475999
167	0xbe4b4421	-0.19850208
168	0x3dc1e876	0.094681665
169	0x3e3278c0	0.17428875
170	0x3e072419	0.13197364
171	0x3e0c38b2	0.13693503
172	0x3dfed235	0.124424376
173	0x3c82f467	0.01598568
174	0x3cb01d3f	0.02149832
175	0xba39dd50	-0.0007090168
176	0x3b58e4ba	0.0033095316
177	0xbcf3610e	-0.029709365
178	0x381100c8	3.457142e-05
179	0x3cef77df	0.029231964
180	0x3d9c8f57	0.076445274
181	0xbd938eb1	-0.072049506
182	0x3c42d7d3	0.011892277
183	0x3d9637e2	0.073348776
184	0x3dad5c26	0.084648415
185	0xbe550481	-0.208025
186	0x3d498b82	0.04920531
187	0xbe237753	-0.15963487
188	0x3e334e88	0.17510426
189	0x3d0e9fd3	0.03482039
190	0x3d2f5fc5	0.042815942
191	0x3e2205b5	0.1582249
192	0x3cdf5be7	0.027265502
193	0xbbd87dde	-0.0066068014
194	0x3c40e267	0.0117727285
195	0xbbbc2b6a	-0.00574248
196	0x3dc271e7	0.094943814
197	0xbc769f7d	-0.015052673
198	0x3dab1e44	0.08355382
199	0x3df6f321	0.12058092
200	0x3df82e6d	0.1211823
201	0x3aba5ae5	0.0014217763
202	0xbd79a565	-0.06094875
203	0x3dfbbe9e	0.12292217
204	0xbe531ed1	-0.20617224
205	0xbb7df660	-0.0038751587
206	0xbbaa2c90	-0.0051933005
207	0xbdc56ab2	-0.09639491
208	0x3d1c76f3	0.038199376
209	0xbd23e501	-0.040013317
210	0xbd1e55f2	-0.038656183
211	0xbe14b902	-0.145237
212	0xbe21dcdf	-0.15806912
213	0xbe9519c1	-0.2912121
214	0x3e30cd88	0.17265904
215	0xbde9bce3	-0.114129804
216	0x3d8fd91a	0.07023831
217	0xbe6c7498	-0.23091352
218	0xbdb7c17d	-0.08972452
219	0x3e6924fb	0.22768013
220	0x3d7b3881	0.061333183
221	0xbc497ec1	-0.012298287
222	0xbd28b92c	-0.04119222
223	0x3dbf1edb	0.09332057
224	0xbd7192b7	-0.05897781
225	0x3d8c2111	0.068422444
226	0xbd74eb55	-0.059794743
227	0x3e3d9840	0.1851511
228	0xbd887631	-0.06663168
229	0xbea9e88f	-0.3318524
230	0xbd8b5bc7	-0.068046145
231	0xbd4b33b9	-0.049609873
232	0x3d678c88	0.056530505
233	0xbed51432	-0.4161697
234	0xbc476b26	-0.012171542
235	0xbe4eb187	-0.20184909
236	0x3da7df08	0.08196837
237	0xbd518cbc	-0.051159605
238	0x3d510559	0.05103049
239	0x3e0d9acf	0.13828586
240	0x3d0d7cce	0.03454285
241	0xbd1eef6a	-0.03880254
242	0x3c926125	0.017868588
243	0x3d651408	0.055927306
244	0xbd720bde	-0.05909335
245	0xbd1ab3a4	-0.037768975
246	0x3e87a912	0.26496178
247	0xbda8a839	-0.08235211
248	0x3e3a8ae9	0.18217053
249	0xbd3566f8	-0.04428765
250	0xbe2b66af	-0.1673839
251	0x3d2e1e43	0.04250933
252	0xbd9ddcab	-0.07708105
253	0x3ccad514	0.024759807
254	0x3d63582b	0.055504005
255	0x3dbe2509	0.09284408

main.1.bias f4 [20]
0	0xbec1f955	-0.37885538
1	0x3e6a32db	0.22870962
2	0xbd65a38a	-0.056064166
3	0xbe8ee14b	-0.2790626
4	0x3e2ae733	0.16689758
5	0x3df42ae7	0.119222455
6	0xbeaaa845	-0.33331504
7	0xbe88acdc	-0.2669438
8	0xbe7e996b	-0.24863212
9	0xbe373095	-0.17889626
10	0xbd4922b1	-0.04910535
11	0x3d2d163e	0.04225754
12	0xbe44d755	-0.19222768
13	0x3e9b8a87	0.30379125
14	0xbc156fc5	-0.009120886
15	0xbeca849d	-0.395543
16	0xbe89b940	-0.26899147
17	0x3e0d7849	0.13815416
18	0xbe21101e	-0.15728804
19	0xbe494dfa	-0.19658652

main.3.weight f4 [20]
0	0x3f674ad1	0.90348536
1	0x3f73fbe8	0.95306253
2	0x3f6ab3e2	0.9168073
3	0x3f5877a5	0.84557563
4	0x3f6a927e	0.9162978
5	0x3f678200	0.9043274
6	0x3f5d1793	0.86364096
7	0x3f6bc4d6	0.9209722
8	0x3f6d9310	0.92802525
9	0x3f641ec5	0.8910945
10	0x3f839b1d	1.0281712
11	0x3f694fa6	0.9113716
12	0x3f73c857	0.9522757
13	0x3f7d653c	0.98982596
14	0x3f7610c9	0.9611936
15	0x3f7bd95f	0.98378557
16	0x3f64c718	0.8936629
17	0x3f5e218e	0.8676995
18	0x3f7669f2	0.9625541
19	0x3f657498	0.8963103

main.3.bias f4 [20]
0	0xbdd16f23	-0.10226276
1	0xbe4ad718	-0.19808614
2	0xbd70b6b2	-0.05876798
3	0xbd2aae41	-0.041670088
4	0xbd27e59f	-0.040990468
5	0xbc69eee4	-0.014278147
6	0xbda8f456	-0.082497284
7	0xbdb5352c	-0.08848032
8	0xbdb59cdf	-0.088678114
9	0xbdab5476	-0.08365719
10	0xbe14ccec	-0.14531296
11	0xbc5f6456	-0.013634762
12	0xbd740d38	-0.05958292
13	0x3e10343c	0.14082426
14	0x3d8b1f30	0.06793058
15	0xbd981cf6	-0.07427399
16	0xbd8ebf0f	-0.06970035
17	0xbd14f4bc	-0.03636621
18	0xbe04582b	-0.12924258
19	0xbd5986cc	-0.053107068

main.3.running_mean f4 [20]
0	0xbda54399	-0.08069534
1	0x3ef2098b	0.47272906
2	0x3e5c1494	0.21492225
3	0xbdabf64f	-0.08396589
4	0x3e8ac97f	0.27106854
5	0x3e6d4c1c	0.23173565
6	0xbda29e14	-0.07940307
7	0x3da7132a	0.08157952
8	0xbd9be744	-0.0761247
9	0xbd837489	-0.06418712
10	0x3e091888	0.13388264
11	0x3e24ec97	0.16105877
12	0xbd66b154	-0.056321457
13	0x3ecd3129	0.4007657
14	0x3e9016ab	0.28142294
15	0xbdab8a89	-0.08376033
16	0xbda632a7	-0.0811513
17	0x3e3f322f	0.18671487
18	0x3dc5bdf7	0.096553735
19	0xbc95e30e	-0.018296745

main.3.running_var f4 [20]
0	0x3b2fc225	0.00268186
1	0x3ee68572	0.45023686
2	0x3e859b45	0.26095024
3	0x3bb2619b	0.0054437644
4	0x3e281df2	0.16417673
5	0x3e55b3b6	0.20869336
6	0x3b9ba462	0.0047498206
7	0x3e3d7652	0.18502167
8	0x3aefee97	0.0018305358
9	0x3aa2db62	0.0012425
10	0x3dd46ca8	0.10372287
11	0x3db428d7	0.08796852
12	0x3a6834b1	0.0008857949
13	0x3e31bbb2	0.17356756
14	0x3e7ecfe3	0.2488399
15	0x3a9c3453	0.0011917449
16	0x3c3d8810	0.011568084
17	0x3dd8ffe6	0.10595684
18	0x3dab1e3d	0.08355377
19	0x3d85f266	0.065403745

main.4.weight f4 [2048, 20]
0	0xbd8c3c85	-0.06847481
1	0x3d2d2d39	0.042279456
2	0xbe30d502	-0.17268756
3	0x3d516140	0.051118135
4	0x3d31880b	0.04334263
5	0xbde27bac	-0.11058745
6	0xbdac27c5	-0.08406023
7	0x3d7d4618	0.061834425
8	0xbe5685a4	-0.20949417
9	0xbddb1245	-0.10696844
10	0x3cab6ed0	0.020926863
11	0x3db8f0e7	0.090303235
12	0x3da86fce	0.0822445
13	0x3df17c14	0.11791244
14	0xbe55228e	-0.20813963
15	0x3de2bbe1	0.11070991
16	0xbd00046e	-0.031254224
17	0x3bb8caae	0.0056393957
18	0xbe1e1d40	-0.15440845
19	0x3e19d2c7	0.15021811
20	0x3b39089c	0.0028233891
21	0x3d710605	0.05884363
22	0xbe3c3293	-0.18378668
23	0x3e35f831	0.17770459
24	0xbd6291d5	-0.055314858
25	0xbe23bbfb	-0.15989678
26	0x3e171f84	0.14758116
27	0x3dd39ebd	0.10333011
28	0xbddb3d03	-0.107049964
29	0x3e3def72	0.18548372
30	0xbdb30718	-0.087415874
31	0x3e3772e6	0.17914924
32	0xbdec3cae	-0.11535011
33	0xbdee64fa	-0.116403535
34	0x3d616a41	0.055032972
35	0xbdec1a14	-0.115284115
36	0xbe2fcf68	-0.17168963
37	0x3e12c55e	0.14333102
38	0x3dee40a9	0.11633427
39	0xbcb7738d	-0.022393966
40	0x3e5f7f84	0.21825987
41	0xbe159696	-0.14608225
42	0xbe20dc04	-0.1570893
43	0xbe1f936f	-0.15583585
44	0xbd7be2df	-0.061495658
45	0xbd05adee	-0.032636575
46	0xbe2d4a70	-0.16922927
47	0xbd0f3358	-0.034961075
48	0x3e3c7718	0.18404806
49	0xbd9dc7bf	-0.07704114
50	0x3df80e3e	0.121120915
51	0xbe79fb99	-0.24412383
52	0x3dab2a40	0.08357668
53	0x3cecc5ea	0.028902967
54	0xbc954496	-0.01822118
55	0x3dba487b	0.09095856
56	0x3e11fcdf	0.14256619
57	0x3e09433f	0.13404559
58	0x3deda4d6	0.116037056
59	0xbb3b303a	-0.002856268
60	0xbd4605ea	-0.048345484
61	0xbd12894a	-0.03577546
62	0xbdfe41d8	-0.124149024
63	0x3dfcab28	0.12337333
64	0x3d29e33e	0.04147648
65	0xbc608415	-0.013703366
66	0x3d86e101	0.06585885
67	0x3df57b18	0.11986369
68	0x3db4fe2b	0.08837541
69	0xbe14648d	-0.14491482
70	0x3d034fb8	0.032058448
71	0x3cd36fee	0.025810208
72	0x3de4ab99	0.11165542
73	0x3d4b69bf	0.049661394
74	0xbd85d9ac	-0.06535658
75	0xbe1091d1	-0.14118125
76	0xbd35da41	-0.044397596
77	0xbe1c1ebd	-0.152461
78	0xbdb3995e	-0.08769487
79	0xbd571ebe	-0.052519552
80	0x3cc080a3	0.023498839
81	0xbe2f2d37	-0.17107092
82	0x3db34d20	0.08754945
83	0x3dc9f7b3	0.09861698
84	0x3cdb9f5f	0.026809392
85	0xbe1c07c0	-0.15237331
86	0x3dbd1bab	0.09233793
87	0x3df72efe	0.1206951
88	0xbd83b7f3	-0.0643157
89	0xbe1ffa0f	-0.15622734
90	0xbd8c5a24	-0.068531305
91	0xbdc8e53d	-0.09809349
92	0x3df0377d	0.117293335
93	0xbe32f607	-0.17476664
94	0xbcf577de	-0.029964384
95	0x3e0b3078	0.13592708
96	0xbe4eefda	-0.20208684
97	0x3e1a799b	0.15085451
98	0x3e2693da	0.16267338
99	0xbaec57aa	-0.0018031497
100	0x3e2e4aec	0.17020768
101	0xbb2b9ec3	-0.0026187159
102	0xbd0a440b	-0.033756297
103	0x3b0362eb	0.0020047973
104	0xbe1d4ed8	-0.15362108
105	0x3dfedc3a	0.12444349
106	0x3d98d158	0.07461804
107	0x3e3b54ae	0.18294021
108	0xbd9a262f	-0.07526814
109	0xbe33786f	-0.1752641
110	0xbe08010a	-0.13281646
111	0xbdcc595b	-0.09977981
112	0xbd6fb758	-0.05852446
113	0x3da420ea	0.0801409
114	0x3dbb4d2b	0.09145578
115	0xbe2f5cf1	-0.17125298
116	0xbda4daf0	-0.080495715
117	0x3e24a149	0.1607715
118	0xbdeb1b7d	-0.11479852
119	0x3d290806	0.041267417
120	0x3d7f7027	0.062362816
121	0xbe4e4c2e	-0.20146248
122	0x3df73fb9	0.12072701
123	0x3e078b33	0.13236694
124	0x3e12a157	0.14319359
125	0xbe4e89ba	-0.20169726
126	0xbda40e9f	-0.08010601
127	0xbda6f08c	-0.081513494
128	0xbe52db95	-0.20591576
129	0xbd61c9d6	-0.055124126
130	0x3d2f4786	0.04279282
131	0xbe546f07	-0.20745479
132	0x3e47cbab	0.19511287
133	0xbd3737d7	-0.044730987
134	0xbe529f48	-0.20568573
135	0x3db5f3c9	0.08884389
136	0xbe4c44cb	-0.19948117
137	0x3dc0ef04	0.094205886
138	0x3da1dd10	0.079034925
139	0xbca220ab	-0.019790968
140	0xbdd99bce	-0.106254205
141	0x3db5a006	0.08868413
142	0xbe6a366f	-0.22872327
143	0x3df3bc0b	0.11901101
144	0x3da91b28	0.08257133
145	0x3e163a1a	0.14670601
146	0xbb79d19c	-0.0038119322
147	0x3de2baa1	0.11070753
148	0x3c03e55e	0.008050291
149	0x3e0dc87e	0.13846013
150	0x3cdde104	0.027084835
151	0xbdda4788	-0.10658175
152	0x3cd1f8a4	0.025631256
153	0x3e25ca53	0.16190462
154	0x3da974da	0.08274241
155	0xbe1cf9fd	-0.15329738
156	0xbe3892c4	-0.18024737
157	0x3da233ba	0.07920022
158	0xbcc99d5b	-0.024611166
159	0x3e11f88b	0.14254968
160	0x3c08ee0e	0.008357538
161	0x3e373e60	0.17894888
162	0xbe7783fb	-0.2417144
163	0x3dcb6cf6	0.09932892
164	0xbaa2310e	-0.0012374239
165	0xbe5d4c9c	-0.21611255
166	0xbe3c32e9	-0.18378796
167	0xbc8646fd	-0.016391272
168	0x3d54dcc4	0.05196835
169	0x3e0ab46a	0.13545385
170	0x3e597136	0.21234593
171	0xbd059507	-0.032612827
172	0xbe88bed6	-0.26708096
173	0x3c917d17	0.017759843
174	0x3d604ae5	0.054758925
175	0x3d8f6588	0.070017874
176	0x3e20e1a0	0.15711069
177	0xbd8ed198	-0.069735706
178	0xbd522c16	-0.051311575
179	0x3cd5b9c3	0.026089555
180	0xbcdb36da	-0.026759554
181	0x3cfbbc8c	0.030729555
182	0x3cf9ea58	0.030507252
183	0xbdc5fc45	-0.09667257
184	0x3cd2b320	0.02572018
185	0x3e1f78b5	0.1557339
186	0x3d5eb37f	0.0543704
187	0x3d045e10	0.032316267
188	0xbd82b2dd	-0.06381772
189	0xbe01e7d3	-0.1268609
190	0xbd12e272	-0.035860486
191	0x3d33dd31	0.043912116
192	0xbd5ddee9	-0.05416766
193	0x3d723a98	0.05913791
194	0xbcf2351d	-0.029566342
195	0x3e590290	0.21192384
196	0xbd158212	-0.036500998
197	0xbe6443ee	-0.22291538
198	0x3d29ab54	0.041423157
199	0x3dfd16c0	0.12357855
200	0xbd721ebe	-0.05911135
201	0x3c1baf83	0.0095022945
202	0x3d80c28a	0.062871054
203	0xbe258001	-0.16162111
204	0x3e203280	0.15644264
205	0xbe4e6c5f	-0.20158528
206	0xbda70ada	-0.08156367
207	0x3d0a28cf	0.033730324
208	0xbcc60f2a	-0.024177153
209	0x3de181aa	0.110110596
210	0x3e128db1	0.14311863
211	0x3de83433	0.11338081
212	0xbe0eb970	-0.13937926
213	0xbca6fc0e	-0.02038386
214	0xbe2658fb	-0.16244881
215	0xbc29df8d	-0.01036824
216	0xbd260ff9	-0.040542576
217	0x3cd4a60d	0.025958085
218	0x3e29be10	0.1657641
219	0x3ced19e4	0.02894301
220	0x3d832c55	0.0640494
221	0x3d54b4bb	0.05193017
222	0xbe2ff491	-0.17183138
223	0x3ced6bac	0.028982006
224	0xbd46ac8c	-0.048504397
225	0xbe44d6ff	-0.1922264
226	0xbb925171	-0.004465275
227	0x3e19f608	0.1503526
228	0xbcdf3994	-0.027249135
229	0x3ccd3c92	0.025053296
230	0x3e59212b	0.21204059
231	0xbd6f7d99	-0.05846939
232	0xbd10ff54	-0.03539975
233	0xbc887701	-0.016658308
234	0x3e195fcd	0.14977951
235	0x3e06a07b	0.13147156
236	0xbe6a7210	-0.22895074
237	0xbe1a3966	-0.15060958
238	0xbdf188d9	-0.1179368
239	0x3d88c0d2	0.066774026
240	0xbc2be0d9	-0.01049062
241	0x3d5cd280	0.053911686
242	0x3e25337d	0.16132922
243	0x3def2578	0.116770685
244	0x3e3e15fd	0.18563075
245	0x3baabaf2	0.005210274
246	0x3df9acc8	0.121911585
247	0xbde030a6	-0.10946779
248	0xbe1f873a	-0.15578929
249	0xbcf333c3	-0.029687768
250	0xbe1131c9	-0.14179148
251	0x3cf6b612	0.030116115
252	0x3ccbcd99	0.02487831
253	0x3c210ed6	0.009830197
254	0xbd8d70c9	-0.06906278
255	0xbe015b55	-0.12632497

main.4.bias f4 [2048]
0	0x3dcf2c12	0.101158276
1	0xbdba181d	-0.090866305
2	0xbd89b4f0	-0.06723964
3	0x3da3163b	0.079632245
4	0xbe87c0e5	-0.26514354
5	0x3bfb9698	0.0076778643
6	0xbe131d15	-0.14366563
7	0x3ce467df	0.02788156
8	0xbe41c687	-0.18923388
9	0xbd2ff5a5	-0.042958874
10	0xbd5cdbf1	-0.05392069
11	0xbe845175	-0.25843397
12	0x3e30036b	0.17188804
13	0x3e07a12c	0.13245076
14	0xbe503d8a	-0.20335975
15	0x3dc2735d	0.0949466
16	0xbe8cfd4f	-0.2753701
17	0xbdd41986	-0.10356431
18	0x3d9e482c	0.077286094
19	0x3de8a458	0.11359471
20	0xbd31bba2	-0.04339183
21	0xbe090fff	-0.13385008
22	0xbe7b1d62	-0.24522927
23	0x3e206dab	0.15666835
24	0x3e003406	0.12519845
25	0xbde2c890	-0.110734105
26	0x3dcee4ed	0.10102258
27	0xbe80ba9d	-0.25142375
28	0x3c229946	0.009924239
29	0xbda4dc45	-0.080498256
30	0xbab97f8b	-0.0014152391
31	0xbe25cf54	-0.1619237
32	0xbe836b6e	-0.256679
33	0x3d2d1e6d	0.042265344
34	0xbe29f718	-0.16598165
35	0xbe9acc94	-0.30234206
36	0xbdfae241	-0.12250186
37	0xbdcf5d15	-0.10125176
38	0xbe411c60	-0.1885848
39	0xbe0bf9dc	-0.13669533
40	0x3d3c97fb	0.046043377
41	0xbd6d74fc	-0.057972893
42	0x3baff5ab	0.005369862
43	0x3d8143b9	0.06311745
44	0xbe0286aa	-0.12746683
45	0xbc810833	-0.01575098
46	0xbdf86877	-0.121293
47	0xbe3750ad	-0.17901869
48	0xbd664759	-0.056220386
49	0x3e15f8a4	0.1464563
50	0xbd45d133	-0.04829521
51	0xbe1d2817	-0.15347324
52	0x3dd576e0	0.10423064
53	0xbdb0eb15	-0.08638588
54	0xbe90498c	-0.28181112
55	0xbe06d435	-0.13166888
56	0x3e08f4ff	0.13374709
57	0xbe6f887c	-0.23391908
58	0xbdbda1a3	-0.092593454
59	0x3d83eaf1	0.06441296
60	0xbd82e3dd	-0.06391118
61	0xbe59723e	-0.21234986
62	0xbdbc2c3b	-0.09188124
63	0xbe58e6a7	-0.21181737
64	0xbe10ad80	-0.14128685
65	0xbe0352c5	-0.12824543
66	0xbe16cf36	-0.14727482
67	0xbeae0564	-0.33988488
68	0xbe82266c	-0.2541994
69	0xbd6d7bc3	-0.057979356
70	0x3d488919	0.04895887
71	0xbe608214	-0.21924621
72	0xbe8aa7bc	-0.27081096
73	0xbe0a7bc9	-0.13523783
74	0x3c47d3eb	0.012196521
75	0xbe782810	-0.24234033
76	0xbdb4acbc	-0.08822009
77	0x3d606726	0.05478587
78	0xbe7817ee	-0.24227878
79	0xbdd93cfe	-0.106073365
80	0x3d930ec8	0.07180554
81	0xbe2847a3	-0.16433577
82	0xbe2df523	-0.16988043
83	0xbe414b07	-0.18876277
84	0xbe98594e	-0.29755634
85	0xbd64e456	-0.05588182
86	0xbdce4404	-0.10071567
87	0xbdce5652	-0.10075058
88	0xbe1a8647	-0.15090285
89	0xbd0fe04b	-0.03512601
90	0xbd492887	-0.049110916
91	0x3d00a984	0.031411663
92	0xbdf94286	-0.121708915
93	0xbea679f6	-0.32514924
94	0xbea9fc86	-0.33200473
95	0xbd886013	-0.0665895
96	0x3dda9179	0.10672278
97	0xbe823cad	-0.25436917
98	0x3db3172a	0.087446526
99	0xbe61cac2	-0.22050002
100	0x3c674a36	0.014116814
101	0xbe730266	-0.23731384
102	0xbe8f13a7	-0.2794468
103	0xbe1eed42	-0.15520194
104	0x3d8917f3	0.06694021
105	0xbeaf3cd4	-0.34226096
106	0xbe9d9cdf	-0.30783746
107	0xbcd7cb1b	-0.026341965
108	0xbd824010	-0.06359875
109	0xbe611eaa	-0.21984354
110	0x3d0e3b08	0.034724265
111	0xbe963718	-0.29338908
112	0xbe6a5c2f	-0.22886728
113	0xbd014f16	-0.031569563
114	0x3d1f63ad	0.038913418
115	0xbe9a2f0a	-0.30114013
116	0xbe882a64	-0.2659484
117	0xbe641944	-0.22275263
118	0xbe4bfa14	-0.19919616
119	0x3c3d3aa6	0.011549627
120	0xbd44542a	-0.047931828
121	0xbe8bf36f	-0.27334163
122	0xbe807752	-0.25091034
123	0x3dbbaa02	0.09163286
124	0xbe7413c5	-0.23835666
125	0xbd55f7b3	-0.052238178
126	0xbe8b74b6	-0.2723748
127	0x3c85894f	0.016300825
128	0x3de33d13	0.11095633
129	0xbbd9a17e	-0.006641566
130	0xbe87cb06	-0.26522082
131	0xbddb77e9	-0.107162304
132	0xbc9aec4a	-0.0189115
133	0xbe098716	-0.13430437
134	0xbe781cf7	-0.24229799
135	0x3d0cd2df	0.03438079
136	0xbdc427d7	-0.09577911
137	0xbcc59a60	-0.024121463
138	0x3d9afe61	0.0756805
139	0xbe845253	-0.25844058
140	0xbe16a450	-0.14711118
141	0x3cffc185	0.031220207
142	0x3c05f9ce	0.008177234
143	0xbcbb3071	-0.022850247
144	0x3c859df6	0.016310673
145	0xbda2bdcb	-0.079463564
146	0x3da89db5	0.08233205
147	0xbcd030bc	-0.025413863
148	0xbe08ad0f	-0.13347267
149	0xbcfd8ad3	-0.030949986
150	0xbd124c69	-0.0357174
151	0x3d935551	0.07194007
152	0xbe94f959	-0.29096487
153	0xbe8c8e38	-0.27452254
154	0xbe8884cb	-0.26663813
155	0xbd274fca	-0.040847577
156	0xbe8e4203	-0.27784738
157	0x3d85dfe3	0.06536844
158	0xbe6e4af4	-0.2327078
159	0xbc8e7f99	-0.017394828
160	0xbdf42cb2	-0.119225875
161	0x3d6e8e9d	0.058241475
162	0xbd59e667	-0.053198244
163	0xbe5e4f7d	-0.2171001
164	0xbe1438e1	-0.14474823
165	0xbda74d58	-0.08169049
166	0xbe2a534c	-0.16633338
167	0xbd40c008	-0.047058135
168	0xbd911aba	-0.07085176
169	0xbe0d7c48	-0.13816941
170	0x3a031b8f	0.000500136
171	0xbe2525a6	-0.16127643
172	0xbe8036dd	-0.25041857
173	0xbda8192c	-0.08207926
174	0xbe8885dc	-0.26664627
175	0xbd277a31	-0.040888015
176	0xbe07b07c	-0.13250917
177	0xbe73b625	-0.23799951
178	0xbe6cd2be	-0.23127267
179	0xbe246b8b	-0.1605665
180	0xbdd7b69d	-0.105328776
181	0xbe9cf419	-0.30654982
182	0x3cc0b536	0.023523908
183	0xbe0786c1	-0.13234998
184	0xbe6f4210	-0.23365045
185	0xbe76002f	-0.24023508
186	0xbe75223d	-0.23938842
187	0xbeb6201f	-0.3557138
188	0x3d5f80e7	0.05456629
189	0x3c7625e8	0.015023686
190	0xbe3e92e8	-0.18610728
191	0x3dddbc86	0.108269736
192	0x3c7a667c	0.015283223
193	0x3e2ce21c	0.16883129
194	0xbe495a20	-0.19663286
195	0xbdbc4807	-0.091934256
196	0xbdf2b821	-0.11851526
197	0xbe0c1fb4	-0.13683969
198	0xbd1d723b	-0.038439017
199	0x3e44d6c7	0.19222556
200	0xbe447067	-0.19183503
201	0x3cc970e9	0.024589973
202	0x3dc4c61d	0.096080996
203	0x3cadd20d	0.021218324
204	0x3dd385a4	0.10328224
205	0x3dac2647	0.08405738
206	0x3e1e00fe	0.15430066
207	0x3dafc1af	0.08581864
208	0x3d244f73	0.04011483
209	0x3c767b35	0.015044023
210	0x3e1cd0b0	0.15313983
211	0x3de1c2da	0.11023493
212	0xbe2e1f21	-0.17004062
213	0xbc700495	-0.01464953
214	0x3ca50df9	0.020148264
215	0x3db47545	0.0881143
216	0x3d408145	0.04699828
217	0xbe2619e3	-0.16220812
218	0x3d140655	0.03613885
219	0x3e2fd5c3	0.17171387
220	0x3d214d0b	0.039380115
221	0xbe5f41f9	-0.2180251
222	0xbbdc98ce	-0.006732083
223	0xbd2ea1ad	-0.042634655
224	0x3e49cf65	0.19708021
225	0xbd9f7c32	-0.0778736
226	0xbde3f96c	-0.11131558
227	0x3df84707	0.121229224
228	0xbdb25206	-0.08707051
229	0xbdc99d52	-0.098444596
230	0x3de04fe3	0.10952737
231	0x3e0a7f36	0.1352509
232	0xbe20b111	-0.15692545
233	0xbe4e874f	-0.20168804
234	0xbdc61af5	-0.096731104
235	0x3b834454	0.004005948
236	0xbe11c17d	-0.14233966
237	0xbdac9f1d	-0.08428786
238	0xbd20a70c	-0.03922181
239	0x3b28e641	0.0025772008
240	0x3dff1f41	0.12457133
241	0xbe5b5c45	-0.21421917
242	0x3e12f881	0.14352609
243	0xbe71655f	-0.23573826
244	0xbdd8ad72	-0.10579957
245	0x3d99b2e6	0.07504825
246	0x3d2befd5	0.04197677
247	0xbc3857c1	-0.011251391
248	0xbca01859	-0.01954286
249	0xbc5561d9	-0.013023817
250	0x3d7b6aed	0.06138127
251	0x3dc60f14	0.09670845
252	0x3d4914c8	0.049092084
253	0x3e4dc88c	0.20096034
254	0x3e5befb5	0.2147816
255	0x3d8a451a	0.06751461

conv.0.weight f4 [20, 1, 5, 5]
0	0xbdb54fc2	-0.08853103
1	0x3c483b7b	0.0122212125
2	0xbd880788	-0.066420615
3	0xbd953539	-0.07285542
4	0xbc65f910	-0.014036432
5	0x3bf3cc73	0.0074401437
6	0x3c195500	0.0093586445
7	0x3d1762ce	0.036959462
8	0x3ad1b3ef	0.0015999059
9	0x3d14ff92	0.036376543
10	0x3c6fdba9	0.014639773
11	0xbc531fae	-0.012885971
12	0x3ace7790	0.0015752185
13	0x3a3620c4	0.00069476315
14	0xbb8f6f24	-0.0043772627
15	0xbb41e7ae	-0.0029587555
16	0xbc8409f3	-0.016118025
17	0xbd5dea78	-0.054178685
18	0xbce7eb8e	-0.028310563
19	0x3c7de084	0.015495423
20	0x3af66c42	0.0018800574
21	0xbd50dfcd	-0.050994683
22	0xbcb4c967	-0.022068692
23	0xbc33f37a	-0.010983342
24	0xbb393812	-0.002826218
25	0x3be69dcf	0.007037855
26	0xbd10474d	-0.035224248
27	0xbc593348	-0.013256855
28	0xbc6fbbe5	-0.0146322
29	0xbcaa3d39	-0.020781146
30	0xbbcf6072	-0.006328636
31	0x3d035fb4	0.03207369
32	0xbc678e0a	-0.014132986
33	0x3cd31f8c	0.025771879
34	0xbb46710b	-0.0030279781
35	0xbd4c8f14	-0.049941137
36	0xbd0920f9	-0.03347871
37	0xbcf4118f	-0.029793529
38	0xbc9e075b	-0.019290617
39	0xbcca73f5	-0.024713496
40	0xbbd084f1	-0.006363504
41	0xbd2ca11e	-0.04214584
42	0xbbea5c6e	-0.0071521318
43	0xbc9eea6f	-0.019398896
44	0x3c696a8d	0.014246595
45	0xbc718b8f	-0.014742746
46	0xbd106812	-0.0352555
47	0xbd4d0372	-0.050052114
48	0xbcf1dea3	-0.029525107
49	0xb9df8b2a	-0.0004263756
50	0x3cb9a5d8	0.022662088
51	0x393115d5	0.00016888168
52	0x3a261435	0.00063354085
53	0x3c81bb15	0.015836278
54	0x3c35732a	0.0110748205
55	0x3ca2d802	0.019878391
56	0xbc417b91	-0.011809246
57	0xbb625d94	-0.003454064
58	0x3cb696fe	0.022288796
59	0x3d863b20	0.06554246
60	0x3cd5032e	0.026002493
61	0x3c042c42	0.0080671925
62	0x398b19fa	0.000265315
63	0x3da219c8	0.07915074
64	0x3d24d4d1	0.04024202
65	0x3d1a1f27	0.037627365
66	0x3d37c620	0.04486668
67	0x3bd2a5d9	0.006428462
68	0xbc1a0677	-0.009400955
69	0x3cc08f65	0.023505876
70	0x3dc84d7c	0.09780404
71	0x3d954da5	0.072902
72	0xbcf14d72	-0.029455874
73	0xbcdef68b	-0.02721717
74	0x3d6b81f4	0.05749698
75	0x3caf75b9	0.02141844
76	0x3bdeeea4	0.0068033505
77	0xbdb6807e	-0.08911227
78	0xbd526961	-0.05137003
79	0xbd947041	-0.07247973
80	0x3b9a2ecc	0.0047052857
81	0xbcac2e3a	-0.021018136
82	0x3d598a57	0.053110447
83	0x3d326903	0.04355718
84	0x3d8cd148	0.06875855
85	0x3da85528	0.08219367
86	0xbd014f9e	-0.03157007
87	0xbcc40722	-0.023929182
88	0x3d2513e7	0.040302183
89	0x3bbfa6c8	0.0058487393
90	0xbce99ea6	-0.028518032
91	0x3d5db06b	0.054123323
92	0xbc7929ff	-0.015207767
93	0x3d36a9b2	0.044595428
94	0x3dd70a90	0.105000615
95	0x3cd21584	0.025645025
96	0x3bd851c8	0.006601546
97	0xbd3c1c55	-0.045925457
98	0x3dfd12c7	0.12357097
99	0x3d1cd4c7	0.038288858
100	0x3e0d07ef	0.13772558
101	0x3db12a5b	0.08650657
102	0x3db6079e	0.088881716
103	0xbdca2286	-0.09869866
104	0xbe39d572	-0.18147829
105	0x3dd652e7	0.10465031
106	0x3dc12b5b	0.094320975
107	0x3d0049fd	0.03132056
108	0xbc4d528d	-0.012531889
109	0xbd891e1d	-0.06695197
110	0xbd6532eb	-0.055956762
111	0xbd35a095	-0.044342596
112	0x3da16da6	0.07882242
113	0x3e81729c	0.25282753
114	0x3e41316d	0.1886651
115	0x3e3ace4d	0.1824276
116	0x3d738dc3	0.059461366
117	0x3dfb3baf	0.12267243
118	0x3cbad165	0.022804925
119	0xbe0e7936	-0.13913426
120	0xbd95280b	-0.07283028
121	0x3dcdf51e	0.10056518
122	0x3d1ae09d	0.037811864
123	0x3e13fb40	0.14451313
124	0x3e020792	0.126982
125	0xbd482f18	-0.048873037
126	0xbdc45b6d	-0.095877506
127	0xbdef8d80	-0.11696911
128	0xbd78f7f0	-0.060783327
129	0x3d454dfb	0.04817007
130	0x3d8db729	0.06919701
131	0x3c63f63f	0.01391369
132	0xbd92e2b4	-0.071721464
133	0x3dc7fc10	0.09764874
134	0x3c9a33e9	0.01882358
135	0x3cf79827	0.03022392
136	0x3e0e38c0	0.13888836
137	0x3d298bda	0.04139314
138	0x3ce0a778	0.027423605
139	0x3da338fb	0.079698525
140	0x3ddb402b	0.107055984
141	0xbcce2123	-0.025162285
142	0x3d94fa0c	0.07274255
143	0xbc6d5a26	-0.014486825
144	0x3cadccc3	0.021215802
145	0x3d881758	0.066450775
146	0xbda8b664	-0.08237913
147	0xbd51d8b0	-0.05123204
148	0x3b769dde	0.0037630717
149	0xbd40fe70	-0.04711765
150	0xbd9056d4	-0.07047811
151	0xbd1041a2	-0.035218842
152	0x3e5c0cee	0.21489307
153	0x3e518d90	0.20464158
154	0x3d432b79	0.04764888
155	0x3e5c9d82	0.2154446
156	0xbdac62aa	-0.08417256
157	0x3de561f0	0.11200321
158	0x3e9ae56f	0.3025317
159	0x3e752183	0.23938565
160	0xbca4cdcb	-0.020117661
161	0x3dce95c9	0.10087163
162	0xbd7d1e5f	-0.061796542
163	0xbd92582c	-0.07145724
164	0xbdb71f2a	-0.08941491
165	0x3d7ea34c	0.06216745
166	0x3e0eade2	0.13933519
167	0xbcbe965f	-0.023265062
168	0x3e4d8383	0.20069699
169	0x3cf1ba05	0.029507646
170	0x3e04ce0d	0.12969227
171	0x3e036862	0.12832788
172	0x3e21e7cd	0.15811081
173	0x3e1a1a6b	0.1504914
174	0x3d0d0ffb	0.03443907
175	0x3e591636	0.21199879
176	0x3df36ed9	0.11886377
177	0xbe125a22	-0.14292195
178	0x3d89cff1	0.06729115
179	0xbd4bf94c	-0.049798295
180	0xbdcb94dd	-0.09940503
181	0x3dbbc75f	0.091688864
182	0xbe601cd4	-0.21885997
183	0xbd57681f	-0.052589532
184	0xbdf18e36	-0.11794703
185	0xbe3c0e17	-0.1836475
186	0xbe39a06c	-0.18127602
187	0xbe1f937e	-0.15583608
188	0x3d3600bc	0.044434294
189	0x3e0559ee	0.13022587
190	0xbb89002b	-0.004180928
191	0xbbdaeed5	-0.006681303
192	0x3d6bac42	0.057537325
193	0x3dd06cbb	0.10176989
194	0x3e03f9f7	0.12888323
195	0x3de0af7f	0.10970973
196	0x3d935262	0.07193448
197	0x3cbd006c	0.02307149
198	0x3d2a838a	0.04162935
199	0xbd083bd5	-0.033260185
200	0x3d1b80b8	0.037964553
201	0x3e25a9a8	0.16178
202	0x3da20b1b	0.079122745
203	0x3e883554	0.26603186
204	0xbd994de8	-0.074855626
205	0x3e25c625	0.16188867
206	0x3dcec22e	0.100956306
207	0x3e245912	0.16049603
208	0xbcbadfdc	-0.022811823
209	0xbc89744e	-0.016779091
210	0xbe43efb7	-0.19134413
211	0xbd642f1a	-0.055708982
212	0x3dafb4c1	0.08579398
213	0x3d60a1a2	0.054841645
214	0x3c204b8d	0.009783638
215	0xbcb3ca45	-0.021947036
216	0x3e1b2435	0.1515053
217	0x3e69f8b5	0.2284878
218	0x3e1b42f5	0.15162261
219	0xbdd99ce1	-0.106256254
220	0x3c845566	0.016154002
221	0xbe0978df	-0.13425015
222	0x3e3dcd2b	0.18535297
223	0x3e2f016c	0.17090386
224	0x3e1b0d63	0.15141825
225	0xbd97fd7a	-0.07421394
226	0xbd68b4ab	-0.056812923
227	0xbd22be94	-0.03973253
228	0x3cf5e706	0.030017387
229	0xbe075fa6	-0.1322008
230	0x3dc64d59	0.09682722
231	0x3a8c854d	0.0010720879
232	0xbc918f1e	-0.017768439
233	0x3cca44ab	0.024690947
234	0xbe097358	-0.13422906
235	0x3da649ce	0.08119546
236	0x3e2d9e6f	0.16954969
237	0x3e2ea97b	0.17056839
238	0x3e4679c8	0.19382393
239	0x3e0a3fee	0.1350095
240	0xbd2ce91a	-0.04221449
241	0x3c19153c	0.009343442
242	0x3e3ed5bd	0.18636222
243	0x3b23fd92	0.0025022966
244	0xbda0f80a	-0.0785981
245	0x3db858da	0.09001322
246	0x3dd6b985	0.10484604
247	0xbc5879ce	-0.013212634
248	0xbc9b9b44	-0.018994935
249	0x3dd8cc7f	0.105858795
250	0xbdb2889f	-0.08717465
251	0xbc1eef3c	-0.009700593
252	0x3c500ba7	0.012698091
253	0xbcd904c1	-0.026491525
254	0x3bdda8fe	0.00676453
255	0x3d90e084	0.07074073

conv.0.bias f4 [20]
0	0xbe6e7d4a	-0.23289981
1	0xbe9b9f60	-0.3039503
2	0x3eb5f02b	0.35534796
3	0x3ea8ad85	0.32944885
4	0xbddb9b12	-0.10722937
5	0x3ea90218	0.3300941
6	0x3d32caa9	0.043650303
7	0xbe2798a0	-0.16366816
8	0xbcc07712	-0.023494277
9	0xbdec13d8	-0.115272224
10	0xbe8613a7	-0.2618687
11	0xbe8b4827	-0.27203485
12	0xbe17ea00	-0.14835358
13	0xbdaf1110	-0.08548176
14	0xbe831e6e	-0.25609154
15	0x3d86c3ec	0.06580338
16	0xbcf6903d	-0.030098075
17	0xbe9a9c2b	-0.30197272
18	0xbe7b6688	-0.24550831
19	0xbecc750e	-0.39933056

conv.2.weight f4 [20]
0	0x3f89735a	1.0738328
1	0x3f8a5e50	1.0810032
2	0x3f95fb28	1.1717272
3	0x3f87ddb5	1.0614535
4	0x3f817401	1.0113527
5	0x3f875496	1.0572689
6	0x3f801999	1.0007812
7	0x3fb859cc	1.4402404
8	0x3f866837	1.0500554
9	0x3f72f0fc	0.9489896
10	0x3f87be76	1.0604999
11	0x3f8389ac	1.0276389
12	0x3f748e8a	0.9553
13	0x3f8572db	1.0425676
14	0x3f874506	1.0567939
15	0x3f756d62	0.9587003
16	0x3f7ebb32	0.9950439
17	0x3f8a842d	1.0821587
18	0x3fa6e7c6	1.3039482
19	0x3f89314d	1.071817

conv.2.bias f4 [20]
0	0xbe0c192a	-0.13681474
1	0xbe12cf09	-0.1433679
2	0xbeba02e6	-0.36330336
3	0xbe4405a2	-0.19142774
4	0xbe14d78c	-0.1453535
5	0xbe2d0870	-0.1689775
6	0xbe3aa1de	-0.1822581
7	0x3e568ea1	0.20952846
8	0xbde5e096	-0.11224477
9	0xbe24a46b	-0.16078345
10	0xbe3b06d6	-0.18264326
11	0xbe38f5cb	-0.18062513
12	0xbe240349	-0.16016878
13	0xbe0d4265	-0.13794859
14	0xbe47c40d	-0.19508381
15	0xbe2b15c6	-0.16707525
16	0xbe1c7f88	-0.15283024
17	0xbe0bd7b4	-0.13656503
18	0x3e46e8a5	0.19424684
19	0xbe918b11	-0.28426412

conv.2.running_mean f4 [20]
0	0xbd57fa7e	-0.052729122
1	0xbd8cb128	-0.068697274
2	0x3ed2ab9f	0.41146562
3	0x3eba2dfa	0.36363202
4	0x3d80bcc5	0.06286005
5	0x3eb4a31d	0.35280696
6	0x3e7fea1e	0.24991652
7	0xbce2ee72	-0.02770159
8	0x3e1c232e	0.15247795
9	0x3cecac7f	0.028890846
10	0xbd751c0e	-0.05984121
11	0xbd85a1aa	-0.065249756
12	0x3d61c2c3	0.05511738
13	0x3e16f41c	0.14741558
14	0xbd6ea872	-0.05826611
15	0x3e44d103	0.19220357
16	0x3e40be86	0.18822679
17	0xbd8ab647	-0.06773048
18	0xbd03e9e7	-0.03220549
19	0xbdb7474a	-0.08949144

conv.2.running_var f4 [20]
0	0x390e5902	0.00013575333
1	0x392634de	0.00015850688
2	0x3c0778dd	0.008268562
3	0x3c03bfa7	0.008041299
4	0x3d1486e9	0.036261473
5	0x3c0f1529	0.008733072
6	0x3dc5c35e	0.09656404
7	0x3b3b6e33	0.002859962
8	0x3d83f639	0.064434476
9	0x3c9d768c	0.019221567
10	0x396eb243	0.00022763856
11	0x39ca32e4	0.0003856636
12	0x3d2bc081	0.041931633
13	0x3db903ad	0.09033904
14	0x39812b09	0.0002463686
15	0x3d508943	0.050912153
16	0x3dcdc7e7	0.10047894
17	0x39194593	0.00014617135
18	0x3b87d2e7	0.0041450146
19	0x398bc0e4	0.0002665586

conv.3.weight f4 [1, 20, 5, 5]
0	0x3e17d9c4	0.14829165
1	0x3dd27fab	0.10278257
2	0x3e0329eb	0.12808959
3	0x3dde84b9	0.108651586
4	0x3d92d50e	0.07169543
5	0x3dd19bfd	0.102348305
6	0x3d923eec	0.07140908
7	0x3e0cac75	0.13737662
8	0x3ddaad87	0.10677629
9	0x3da28f03	0.079374336
10	0x3dda3a53	0.10655656
11	0x3dbbe19d	0.09173892
12	0x3dfe97ee	0.12431322
13	0x3d9a721b	0.07541295
14	0x3db0229c	0.08600351
15	0x3dead7ca	0.1146694
16	0x3dfdc440	0.12390947
17	0x3e1fbc1f	0.15599106
18	0x3e04f431	0.12983777
19	0x3d4d4dfe	0.050123207
20	0x3d686aa0	0.05674231
21	0x3d879152	0.066195145
22	0x3da64da2	0.08120276
23	0x3dd17705	0.10227779
24	0x3dc64a77	0.09682172
25	0x3e0c25c2	0.13686278
26	0x3dd5d55a	0.10441084
27	0x3e02f3d5	0.12788327
28	0x3da8ad63	0.08236196
29	0x3d97f4d4	0.07419744
30	0x3dd1a0e5	0.10235766
31	0x3e0bad4c	0.13640326
32	0x3d7d4718	0.06183538
33	0x3dc9f5dc	0.09861347
34	0x3de16c3f	0.110069744
35	0x3d3c50ad	0.045975376
36	0x3dbf732a	0.09348138
37	0x3dfbc449	0.12293298
38	0x3dbee56b	0.09321102
39	0x3e158830	0.14602733
40	0x3df607dd	0.120132186
41	0x3dabd29f	0.08389782
42	0x3e00751e	0.12544677
43	0x3e0787b2	0.13235357
44	0x3e083151	0.13300063
45	0x3dade4c8	0.08490902
46	0x3d8e6886	0.0695353
47	0x3de5a4aa	0.11213048
48	0x3e27fee5	0.16405828
49	0x3e43514d	0.19073983
50	0x3e0c9a52	0.13730744
51	0x3e03217b	0.1280574
52	0x3df75c18	0.12078112
53	0x3df44412	0.11927046
54	0x3dad8a6c	0.084736675
55	0x3e3efda2	0.1865144
56	0x3e0eb6a3	0.13936858
57	0x3e2f075f	0.17092656
58	0x3e412f2a	0.18865648
59	0x3e37433b	0.1789674
60	0x3e5d4f33	0.21612243
61	0x3e4f28df	0.20230435
62	0x3e2576b4	0.16158563
63	0x3e77bad2	0.2419236
64	0x3e8138e1	0.25238708
65	0x3e2a6d47	0.16643248
66	0x3e1510cb	0.14557187
67	0x3e67507a	0.22589293
68	0x3e416034	0.18884355
69	0x3e291961	0.16513588
70	0x3e07c18f	0.1325743
71	0x3e1f2ed2	0.15545204
72	0x3e3d8197	0.18506466
73	0x3e32835b	0.1743292
74	0x3dfecc18	0.124412715
75	0x3dfe3eb0	0.124143004
76	0x3e0ca237	0.13733755
77	0x3e6fb2ad	0.23408003
78	0x3e25b33b	0.16181652
79	0x3e19819b	0.14990847
80	0x3e05f239	0.13080682
81	0x3e0e1c65	0.13878019
82	0x3e36ef7c	0.17864794
83	0x3e13ca83	0.14432721
84	0x3e04e22d	0.12976904
85	0x3dd92a29	0.106037445
86	0x3e2318ab	0.15927379
87	0x3e2d0b53	0.16898851
88	0x3e1b14f7	0.15144716
89	0x3d91642f	0.07099187
90	0x3e047095	0.12933572
91	0x3e09c2f5	0.13453276
92	0x3db42ac3	0.08797219
93	0x3df1d84b	0.11808833
94	0x3d8a3d7f	0.06750011
95	0x3de812c5	0.11331705
96	0x3dfd5597	0.123698406
97	0x3d7ae156	0.061250053
98	0x3dbed5ab	0.09318098
99	0x3dc38dbd	0.09548519
100	0x3cae32ac	0.021264397
101	0x3d3becb3	0.04588003
102	0x3db61f5d	0.08892701
103	0x3d8855b8	0.066569746
104	0x3d5f6f56	0.054549538
105	0x3d978f69	0.074004
106	0x3e206da0	0.15666819
107	0x3e25370d	0.16134281
108	0x3dc5148b	0.09623059
109	0x3dc4f11d	0.09616301
110	0x3de20530	0.11036146
111	0x3e048aac	0.12943524
112	0x3e0e7567	0.13911973
113	0x3e0e22fc	0.13880533
114	0x3da33209	0.07968528
115	0x3d819ea0	0.063290834
116	0x3d8f6000	0.070007324
117	0x3dd55f8f	0.10418617
118	0x3dfbd4b8	0.12296432
119	0x3d97a6e2	0.07404877
120	0x3d80c5c5	0.062877215
121	0x3db6aa0c	0.089191526
122	0x3d80b955	0.06285349
123	0x3dc073db	0.09397098
124	0x3dfc5192	0.12320246
125	0x3e137a68	0.14402163
126	0x3e14b230	0.14521098
127	0x3e1f41c2	0.15552428
128	0x3e022f87	0.12713443
129	0x3e050ebe	0.12993905
130	0x3e006165	0.12537153
131	0x3e05d46b	0.13069312
132	0x3df3d3e0	0.11905646
133	0x3e484ca8	0.19560492
134	0x3e146073	0.14489917
135	0x3da66cee	0.081262454
136	0x3dec122c	0.115269035
137	0x3e2fd7f1	0.17172219
138	0x3e2fea64	0.17179257
139	0x3e290834	0.16507035
140	0x3dfdc2c1	0.12390662
141	0x3e0a6dbb	0.13518421
142	0x3e03018c	0.12793559
143	0x3e2ddeb2	0.16979483
144	0x3d9ddd57	0.07708233
145	0x3d7f3c40	0.06231332
146	0x3ddc1f9b	0.10748216
147	0x3d9aca2c	0.075580925
148	0x3dbe97cc	0.09306297
149	0x3d9f93d8	0.07791871
150	0x3cea3226	0.028588366
151	0x3d2a3640	0.041555643
152	0x3d6ee498	0.058323473
153	0x3ce79540	0.02826941
154	0x3db834ad	0.08994422
155	0x3dd9fabe	0.106435284
156	0x3dce4a65	0.100727834
157	0x3e0d1424	0.13777214
158	0x3d968cd9	0.07351083
159	0x3d627c4f	0.05529433
160	0x3db3bc68	0.0877617
161	0x3db11575	0.08646671
162	0x3e14a0b1	0.14514424
163	0x3e0e8122	0.13916448
164	0x3da7fbb2	0.08202304
165	0x3df7798d	0.12083731
166	0x3db05eea	0.086118534
167	0x3e179727	0.14803754
168	0x3dd18254	0.10229936
169	0x3d4782c4	0.048708692
170	0x3da530be	0.080659375
171	0x3d4f163c	0.050558314
172	0x3d870726	0.0659316
173	0x3df00ff0	0.1172179
174	0x3da78a4c	0.08180675
175	0xbe986133	-0.29761657
176	0xbe7867b8	-0.24258316
177	0xbe71a328	-0.23597395
178	0xbe5788c9	-0.21048273
179	0xbe6e3cf8	-0.23265445
180	0xbe64e60b	-0.2235338
181	0xbe89dd39	-0.26926592
182	0xbe6967e3	-0.22793536
183	0xbe78f178	-0.24310863
184	0xbe9b26f2	-0.3030315
185	0xbe703d5f	-0.23460911
186	0xbe8752d9	-0.26430395
187	0xbe7783eb	-0.24171416
188	0xbeac213a	-0.336191
189	0xbe79c75f	-0.2439246
190	0xbe9767ff	-0.2957153
191	0xbe9680a0	-0.29395008
192	0xbe1c80ee	-0.15283558
193	0xbe832e1d	-0.2562112
194	0xbe63b16a	-0.22235647
195	0xbea9540a	-0.3307193
196	0xbe9245d4	-0.285689
197	0xbe898668	-0.26860356
198	0xbe82d2e4	-0.25551522
199	0xbe53ff09	-0.20702757
200	0xbd98fc1e	-0.074699625
201	0xbd0a875b	-0.03382049
202	0xbd00be6c	-0.0314316
203	0xbd8fc777	-0.07020467
204	0xbd38e2dd	-0.04513823
205	0x3db51e44	0.08843663
206	0x3d25440a	0.04034809
207	0x3d5a01cf	0.05322438
208	0x3d9c9455	0.076454796
209	0x3d9bd1fb	0.0760841
210	0x3ddbdcd0	0.10735476
211	0x3d61ad3e	0.055096857
212	0x3dab8d94	0.08376613
213	0x3df0bd2d	0.117548324
214	0x3dd69006	0.10476689
215	0x3d900194	0.07031551
216	0x3d3640a9	0.04449526
217	0x3d8d528a	0.06900509
218	0x3dafa95c	0.085772246
219	0x3dc3ccf7	0.09560578
220	0xbc4da242	-0.012550892
221	0x3c71ddad	0.014762324
222	0x3d2456f7	0.040122
223	0x3da2e64a	0.079540804
224	0x3d14a3bf	0.036288973
225	0x3daa827c	0.08325669
226	0x3d9fa6d3	0.07795491
227	0x3da3182d	0.079635955
228	0x3df9b904	0.12193492
229	0x3d44bb2d	0.048030067
230	0x3ddf20c9	0.10894925
231	0x3e10901a	0.1411747
232	0x3e337909	0.1752664
233	0x3e087003	0.13323979
234	0x3e470757	0.19436394
235	0x3e1e5059	0.15460338
236	0x3e373f42	0.17895225
237	0x3e6cf680	0.23140907
238	0x3e3c64d8	0.18397844
239	0x3e211f83	0.15734677
240	0x3de3e0b5	0.11126844
241	0x3dd3bddf	0.103389494
242	0x3dd486ef	0.10377299
243	0x3dc3cd8b	0.095606886
244	0x3d4b91e3	0.049699675
245	0x3d11f285	0.035631675
246	0x3d15b5f6	0.036550485
247	0x3db0d309	0.08634002
248	0x3cfd874d	0.030948306
249	0x3d83735f	0.0641849
250	0x3e0d1db2	0.13780859
251	0x3dce480b	0.10072335
252	0x3e14a585	0.14516266
253	0x3d7904c3	0.060795557
254	0x3dd73be4	0.1050947
255	0x3dc97eed	0.09838662
