src/caches/cache_16_20_small2/param2img3.pt (torch, 184864 bytes, 19 tensors)

main.0.weight f4 [16]
00000000: 45ce 533f f70d 583f a8f4 4e3f 418c 763f
00000010: 4c1c 4d3f 0609 873f 57ff 8f3f abe4 743f
00000020: 9803 8d3f e2db 8c3f 673c 803f 4652 823f
00000030: 1dd9 8c3f 2dd2 563f 77ce 543f debb 813f
0.8273662 0.8439631 0.80842066 0.9630776 0.801213 1.0549629 1.1249799 0.9566142
1.1016722 1.1004603 1.0018433 1.0181358 1.1003758 0.8391445 0.8312754 1.0135458

main.0.bias f4 [16]
00000000: c562 f93c 110b bfbc e939 b03d 41e3 04be
00000010: 607b fbbc 45ce d9bc 7ea1 543d 5df5 f13d
00000020: a469 92bc 2d31 a1bc 4655 873e c3aa bb3d
00000030: ffe5 073d 084c dbbd f59f 08bd c67c 93bd
0.030442605 -0.023320707 0.086047955 -0.12977315 -0.030698478 -0.026587615 0.051911823 0.118143775
-0.017872639 -0.01967677 0.26432246 0.091634296 0.033178326 -0.10707861 -0.033355672 -0.07201533

main.0.running_mean f4 [16]
00000000: c8c8 ea35 00b1 47b7 adc8 4c3e 0b9e 873b
00000010: ee90 1d3c 11c4 2c3b 75bc f83e 4fd6 893b
00000020: d58e 9d3c 6003 2c3b 5ec1 f83e 1011 893b
00000030: 53bb ec3c 43da b5b8 a2d5 4c3e 86d6 883b
1.7492794e-06 -1.1902535e-05 0.19998427 0.0041387132 0.009617073 0.0026361982 0.4858128 0.004206456
0.019233147 0.002624713 0.48585027 0.004182942 0.028897917 -8.671407e-05 0.2000337 0.004175964

main.0.running_var f4 [16]
00000000: 736e 8735 40b5 8535 0726 8135 07e2 fc3a
00000010: ded6 1938 e627 0239 30fb 8f3d 8ce7 fc3a
00000020: f3af 1539 e804 0239 caf7 8f3d af84 fc3a
00000030: a384 a639 8ac9 7d35 b98b 7e35 8889 fd3a
1.0090429e-06 9.962023e-07 9.622316e-07 0.0019293436 3.6678153e-05 0.0001241263 0.07030332 0.001929508
0.00014275294 0.00012399594 0.07029684 0.0019265617 0.0003176081 9.454312e-07 9.4825697e-07 0.0019343356

main.1.weight f4 [20, 16]
00000000: 5ea8 bbbb 0a83 8e3b a11c f93b 03e9 973d
00000010: b251 00bd 0dd1 23be 0826 923e b316 143e
00000020: 07dd a03d 9f78 66be 580e d93d 3808 c3bd
00000030: 644d 2b3e 24bd 6e3a 0d02 783b 284b 3bbe
00000040: 467b 9b3b b48f 833b e9e2 27bc ba0f 4f3e
00000050: 3229 803c dfdc 2dbd b9b2 5fbe 0516 9cbd
00000060: 9920 243e 8784 ae3e c018 c43d 3bcd ac3d
00000070: 8632 ccbc e56f 673b a641 05bc e805 cbbb
00000080: 98fe c2bb 1afc 15bb 7dd2 cdbb 713d 773e
00000090: ca26 05be f0d5 123e 8b86 f73b 01d4 a23c
000000a0: 47f5 8e3d 6e06 993e 691a 133d 5777 3b3e
000000b0: 441b c63d 50cf 5d3b ae93 a5ba 8f64 ffbb
000000c0: 3688 a53a e1a5 d83b a721 ed3a ea92 72be
000000d0: 78dc e8bd 1237 11be ef11 663e 3b88 2a3e
000000e0: 7023 1ebe dd30 21be 9f21 57be e2a4 6d3c
000000f0: fa79 b2be b709 9dba d995 3cba c844 38be
00000100: 9d5c 4a3c c12f 6bbb 133b a139 c65b 2c3e
00000110: 0d14 0cbe 6c31 d23d f0c7 92be cf81 403e
00000120: e47b 1f3e 104c 933a e5dc 9abe c30b 8d3d
00000130: 7454 583e 85a7 92ba 8166 bb3b 0f16 cfbd
00000140: 0457 24bb fcbf c83b e8b1 17bb bb77 9c3c
00000150: b763 673e 0b86 083d b42a 7a3d 13b1 3bbe
00000160: 5de7 c53e ac06 37be c4fe 4d3e 8666 0f3c
00000170: 0d59 9b3e 9ebf 3c3a f8cf 083b ff99 b9bd
00000180: 6828 413a 201e eebb 21f6 3a3b 7136 3ebe
00000190: 41ab 1a3e bffb 9b3e b718 5b3c 4330 cfbd
000001a0: 448a 403e 99b7 b33e b625 953c 3fa1 26be
000001b0: 5181 f33c 836d 41ba 752d ef3a 0ba5 613e
000001c0: b4bf ad3a 1066 363c 66ac 0cba 21a0 023d
000001d0: 5db3 cbbd 1df2 b83e 339e 81bd a091 89bd
000001e0: 5f0f b83c 5497 e33d 320a 18be 1b9e 273d
000001f0: ea85 473e cf5d 0f3b 0da5 773a bc9b ce3d
00000200: fda2 d7ba 67e6 cbbb 7621 663b 8a00 2dba
00000210: d949 1b3c ddbd 203e fe7e 2a3e 31a6 78bd
00000220: 07da 5f3e 9709 963e 6d84 88bd 8282 a0be
00000230: 5b9d 2abc f3fb 113c 39ca f6bb 036f 47be
00000240: eabe f23a 4cd6 543b bef4 9e3a 6410 0b3e
00000250: bc06 0f3c c199 6b3e fe7f 193d d962 603e
00000260: 0776 be3d 5565 f53d 1b08 43bd 7d68 8dbd
00000270: 2182 a53e 007e 7f3b 842c b03a fe9a 4dbe
00000280: 96a3 283b 05b2 b4bb c410 0ebc 7536 0ebe
00000290: 3e27 fdbd 6f1e 223e 6649 e8bd abe3 e23d
000002a0: e704 8cbe d5a4 e83d d5ff fc3c c6ee 0f3e
000002b0: a958 96be 9ef3 5d37 acaf 0bbb 249e 27be
000002c0: e406 193b 22c8 d4bb d93e 9a3b 5f6e 103d
000002d0: 05e1 13be 81ae 0f3e 6264 8e3e bfd7 20be
000002e0: c04d 20be aeb2 07be cb35 cd3e 6cdc 323e
000002f0: 082f c83d 993b c23b 1484 0d3c 1af4 393e
00000300: 5ef2 223b 0ded 45bc 54d7 9b3b 6c2b e53d
00000310: 9e93 433e 5237 153e 7e0d bf3d bc1f 95bd
00000320: e9d5 0e3e 8d8f 813e 89bd c9bc 80c3 10be
00000330: ec85 6d3c a295 153c 8cec 4bbb 2ee7 8dbd
00000340: fa08 02bc 0a29 783b 1f4e 41ba 9f69 26bd
00000350: b248 a43d 589b 833c c44d cc3d 3e2b 183e
00000360: c69a debd 5a0a 40be 9438 8e3e 0a1b b4bc
00000370: d399 d73d 003e 8e3a 2120 033a d30a 373e
00000380: e2c1 743c aed1 fabb 77ad 893a 8f8e 4abe
00000390: fc45 2a3d 4587 01be e370 8b3d dc05 803d
000003a0: 8a98 3bbe f08d 87be e9bb 523e b858 963e
000003b0: 00c7 b73d aa31 2ebb eb3a e93b fc08 4cbb
000003c0: ded8 ad3a 9cfa c8bb 8a58 b73b 053d 9abe
000003d0: 6c54 463d 3491 05be d835 aa3e f4df 443e
000003e0: 9de0 b63d 0640 e23d 7fd1 7e3e 25cf 543e
000003f0: 11cb a53d a8aa 6d39 a4e6 9ab9 d491 473e
-0.005726858 0.004349117 0.00760229 0.0741749 -0.03132791 -0.15997715 0.2854464 0.14461784
0.078546576 -0.22506951 0.10598439 -0.09523052 0.16728741 0.00091071636 0.003784302 -0.18290389
0.00474492 0.0040149335 -0.010246971 0.20220843 0.015644643 -0.042446967 -0.21845521 -0.076213874
0.1602806 0.34085485 0.09575033 0.08437582 -0.024926435 0.0035314497 -0.008133328 -0.0061957724
-0.00595076 -0.002288586 -0.0062811957 0.24144532 -0.13003078 0.14339423 0.0075538806 0.019876482
0.06980377 0.29887718 0.03591386 0.18307243 0.09673169 0.0033845492 -0.0012632513 -0.00779397
0.0012629095 0.006611571 0.0018091694 -0.23688856 -0.11370176 -0.14181164 0.22467779 0.1665353
-0.15443206 -0.15741296 -0.21008919 0.014504643 -0.34858686 -0.0011981045 -0.000719396 -0.17994988
0.012351182 -0.0035886618 0.00030752327 0.16831884 -0.13679524 0.10263333 -0.28668165 0.18799518
0.15574604 0.0011237878 -0.30246654 0.06887009 0.21125966 -0.0011188841 0.0057190065 -0.10111629
-0.002507628 0.006126402 -0.0023146812 0.01910006 0.22596632 0.03333096 0.06107588 -0.18329267
0.3865308 -0.17873639 0.20116717 0.008752471 0.30341378 0.0007200184 0.0020875912 -0.090625755
0.0007368387 -0.007266775 0.0028528052 -0.18575455 0.1510439 0.30465505 0.013372592 -0.10116627
0.18802744 0.3510101 0.018206459 -0.16272448 0.029724749 -0.0007378684 0.00182478 0.22035615
0.0013255985 0.011132732 -0.00053662655 0.031890992 -0.0994632 0.36122218 -0.06329002 -0.06717229
0.022468267 0.11112848 -0.14847639 0.040922265 0.19484678 0.0021875983 0.0009446897 0.10088298
-0.0016451773 -0.0062225345 0.003511516 -0.00065995066 0.009478056 0.15697427 0.16650006 -0.060705367
0.21860515 0.2930419 -0.06665883 -0.3134957 -0.010413493 0.008910167 -0.007531431 -0.19475941
0.0018520032 0.0032476364 0.0012127382 0.13580471 0.008729633 0.23007871 0.03747558 0.21912707
0.09299856 0.11982218 -0.04761515 -0.06904695 0.32325843 0.0038985014 0.0013441001 -0.20078656
0.002573227 -0.0055143856 -0.008670989 -0.13887961 -0.123610005 0.15831922 -0.11342125 0.110785805
-0.2734749 0.11359564 0.030883709 0.14055929 -0.29364517 1.3229348e-05 -0.0021314425 -0.1636892
0.0023350054 -0.0064935843 0.004707199 0.035261508 -0.14441307 0.14031412 0.2781096 -0.157073
-0.1565466 -0.13251755 0.40080103 0.17466897 0.097745955 0.0059275148 0.008637447 0.18159524
0.00248637 -0.012080443 0.0047558937 0.11189923 0.1909928 0.14571884 0.09328745 -0.072814435
0.13948788 0.25304833 -0.02462651 -0.14137077 0.0144972615 0.0091299135 -0.0031116335 -0.0692886
-0.0079367105 0.0037866258 -0.00073740067 -0.040628072 0.08021678 0.016065285 0.0997577 0.14860246
-0.108693644 -0.18753949 0.2777754 -0.02198555 0.105273865 0.0010852218 0.0005002041 0.17875223
0.014938803 -0.0076543903 0.0010503967 -0.19780944 0.04157065 -0.12649257 0.06808641 0.062511176
-0.18319908 -0.26475477 0.20579495 0.29364562 0.08973503 -0.0026579895 0.0071176193 -0.0031133285
0.0013263484 -0.0061333906 0.0055952715 -0.3012468 0.048420355 -0.13043672 0.33244205 0.19226056
0.0892956 0.11047368 0.24884604 0.20782144 0.080953725 0.00022665656 -0.0002954501 0.19489223

main.1.bias f4 [20]
00000000: e9db 9a3d 7629 48be 8079 923e fb76 ac3a
00000010: c51b ca3e 4641 03bc 9b08 af3d a4a3 04be
00000020: deb7 003d 306f 813d 3e31 8bbc 30ca 70be
00000030: dc83 cabd dfae 7d3e dd57 b83e a5fa 513e
00000040: de76 94be 965f 4ebe abcd 4b3e 9392 4bbc
0.07561476 -0.19547066 0.28608322 0.0013158018 0.3947431 -0.008011168 0.08546563 -0.12953049
0.03142535 0.063200355 -0.016991254 -0.23514628 -0.098884314 0.2477374 0.36004534 0.2050577
-0.28996938 -0.2015365 0.19902675 -0.012425083

main.3.weight f4 [20]
00000000: 4310 773f 47ff 4e3f 12d5 623f 17a9 7d3f
00000010: 180e 693f 4d25 733f 5efd 863f 4175 733f
00000020: 57cf 7d3f 6ac8 843f c887 793f 64f2 623f
00000030: 7651 5e3f 040d 6a3f e7ed 5d3f 4b73 593f
00000040: 4a99 7e3f 0b7b 813f 346a 573f 9b3b 793f
0.9650919 0.8085827 0.8860637 0.99086136 0.9103713 0.9497879 1.0546072 0.9510079
0.991445 1.0373662 0.9747281 0.8865111 0.8684305 0.9142611 0.86691135 0.8494155
0.9945265 1.0115675 0.8414643 0.97356576

main.3.bias f4 [20]
00000000: c7c3 743a a337 96bd cf4f c7b9 15e6 d33d
00000010: 8d28 dfbb fb60 06bd 3cf3 00be b2ca 2dbe
00000020: b7d1 6bbe 3b2f 66be 9830 b63c c620 b0bd
00000030: 07c3 7dbe 2d59 20be 24fd 1f3d b514 8e3d
00000040: 9092 24be 520b e23d d0a3 00be 3103 11be
0.00093370344 -0.073348306 -0.000380157 0.10346619 -0.006810254 -0.03280733 -0.12592787 -0.16971853
-0.23029219 -0.22478954 0.022239968 -0.08600001 -0.24781428 -0.15659018 0.039059773 0.06937543
-0.16071534 0.110373154 -0.1256249 -0.14161374

main.3.running_mean f4 [20]
00000000: 1762 9c3e b023 213d 6763 cb3e 1463 8b3e
00000010: 8074 ef3e de64 b23e 3d7b 9d3e bf5c c93d
00000020: a7d1 893e 88dd 813e ddbe 883e 2101 303e
00000030: 2486 ed3d cf89 ca3e 4016 0a3f 9f2f ed3e
00000040: e78d 5f3d 89c8 193e 96e5 cf3e e227 423e
0.30543587 0.039340675 0.39724275 0.27224028 0.4676857 0.3484258 0.30758086 0.09832143
0.26917765 0.25364327 0.26708117 0.1718793 0.11597851 0.39558265 0.539402 0.46325395
0.054578688 0.15017904 0.40604848 0.18960527

main.3.running_var f4 [20]
00000000: cafc 5e3e 5597 603d 16a1 653e a08e 653e
00000010: c14f bd3e 93c0 d03e e4a0 a13e b3ba f23d
00000020: 6a2f 843e 1783 3b3e b907 553e 9d50 403e
00000030: 769f d73d e726 2b3e d3b8 5d3e e5fa 9f3e
00000040: 067f c73d 93ed 633e 2f28 ae3e 259c 443e
0.21776119 0.05483182 0.2242473 0.22417688 0.3697491 0.40771922 0.31568062 0.11852016
0.25817424 0.18311726 0.20803727 0.18780752 0.10528462 0.16714059 0.21652536 0.31246105
0.09741025 0.22258596 0.34015033 0.1920019

main.4.weight f4 [2048, 20]
00000000: b7f3 04be d9cc 43bc 1bde db3d f796 8ebc
00000010: 5ce0 dc3d d349 2fbe 5fc9 bdbd dad8 0bbc
00000020: 34af 9d3d 909e 40bb 9d70 09be 615a 9c3c
00000030: d4b4 273e 5d60 f83c 9cf7 d03d 33fe 74bd
00000040: e2b3 c5bd 7a18 acbd 44b1 a63c fdfe 1f3e
00000050: 823d 02be 5bf0 cd3b ddb7 ae3e 0a7f 303d
00000060: 8e55 80be 3c9f 803c b16f debb eb82 e1bd
00000070: 6da6 b33e 67b9 943c 2f42 1c3e b9d3 5b3e
00000080: c703 b1bd 2320 0bbd 8359 1cbd 12ab adbd
00000090: 5195 87bd 9e11 213d 9d83 183d 0bf3 39be
000000a0: f0ca 55bb 968a 9dbd 3d1b 263e 4a9f 053e
000000b0: 3de2 133d 1901 83bd cfd8 a0bd 2f38 00bd
000000c0: 490d d03d d275 0bbe fd71 a63d ccfb 71be
000000d0: 02bd 4d3e 166a 99bb 4910 0c3e 391f 303b
000000e0: a2dc 5e3e 6cc2 34be abed 61bc ba19 e0bd
000000f0: eb3d a0bd f4c7 f4bd 4987 15bd 86ac 363c
00000100: f8b7 92bd e7f3 013e 97d8 8e3e 7a7a ba3d
00000110: a655 4e3e f3c7 02be 047a 3dbe 488c e93d
00000120: 93df 8fbd ce73 3b3d 809d 79be b9e6 b53d
00000130: 83f3 b9bd 724c e63d b9d8 183e 0f58 06bc
00000140: 7b27 8dbe 09e0 47bd 790e 5abd 7bd8 a13d
00000150: fcae 673e 9ca9 c5bd 292b 7c3d d13d 183e
00000160: de16 123d b823 b23d 2841 8bbd 5f39 a03d
00000170: d796 223e 8af7 08bd 0a88 d43c 68d4 3abe
00000180: a12c 2fbe fd87 063e 7810 00be 3f57 afbd
00000190: 65e2 07be cfd0 efbd 8573 14ba d71d 01be
000001a0: df79 55be 7207 9bbd 6d5a d93c 4995 70bd
000001b0: 2a0b b2bc 0682 13bd d307 31bd dd53 933e
000001c0: 6b99 d33c 338b 9abb 752f d0bd 1014 843e
000001d0: 4147 243e c67e 8b3e 0203 cf3d 654e 39be
000001e0: 78f4 83bd f0b8 23be cfbb aebc 6a4c e3bc
000001f0: fc19 8bbe 8b6d b7bd 1f26 a8be 2e89 9bbe
00000200: 7693 5abe fab7 3dbd d1a4 a83c 9f53 d1bd
00000210: 1769 12be 59ce 493e db43 523e d8b0 63bd
00000220: db3d 1ebe d67a 3dbe a0dc 87be d6c7 c03d
00000230: 9645 05be 6255 0cbe 7910 ec3d 4a6d 38be
00000240: 8ac4 a03b 0d18 4c3e bce4 94bd 7489 66bc
00000250: 6f9c 02be c3b2 1b3d b7e8 37bd 3cb4 8e3e
00000260: 80fa a73d ffc5 13be f6c7 2f3e de59 7e3e
00000270: 2d84 063d 6685 043e 363b f23d 00ec 393e
00000280: 27f8 edbd f748 343e f0c8 8ebd 6cb9 51be
00000290: c93c e1bd c58b 9a3d 06d3 0c3e 0711 933c
000002a0: 9ff6 083d 53d3 c3bd 1edc 8d3c e1a4 6abe
000002b0: 2f49 0a3e 36a9 54be 1723 d73d 02bf de3d
000002c0: 4a6a 41bd b44d 26be d558 793d 24a1 1abd
000002d0: 2ed0 6dbc 07a9 c3bd a76a f9bd b23b 4b3e
000002e0: 6685 33be d6ea 3abe 7530 803e 0659 02be
000002f0: 4c28 5b3e 56c7 26be f6a8 a2bd 1d96 50be
00000300: 248c ff3d ca33 163e 48e6 e8bd c149 d4bd
00000310: 22f8 b03d 64ac 2abe 20b1 963d 8599 2dbe
00000320: 203b 0d3d 2f81 96bd fd1a 0c3e fbbe 8dbd
00000330: f628 603e dcd5 20be b1a0 8ebe 4a7d 49bd
00000340: 9372 7abb d11b babc 6c3e a6bd 4859 3abe
00000350: a44e 8ebe 8aa3 3dbe 8975 b33a 1a3a 6fbe
00000360: 2825 0d3d 0277 0ebe ae15 ae3d cd97 e9bc
00000370: 3543 183e 82fb 763e 7b69 6f3e 477d 76be
00000380: ee99 5a3e c358 b33c 22ea 13be 9caf a13c
00000390: cba4 253e 52dd bf3d 9203 cfbb 0790 dd3d
000003a0: c076 ccbd 9915 7bbe ee0b 143d 01e4 4dbe
000003b0: f7cf d4bc 2f9a 6ebc f09d df3d 70f8 ca3d
000003c0: fd58 d63d 020f ed3d bd57 6a3e a72b 773d
000003d0: 5ec0 7d3d 7d2a dbbd 79d1 363e 1ddd 3cbe
000003e0: d4b0 3f3e 3593 b1bc 1552 693d 4cef 3e3e
000003f0: 2e09 723e 7e6f 5a3e 5e30 44be 0ddf 243e
-0.12983595 -0.011950695 0.10735723 -0.01740597 0.10784981 -0.17118005 -0.09266924 -0.008535588
0.07699433 -0.0029391386 -0.13421865 0.019086065 0.16377574 0.030319387 0.10203478 -0.059812736
-0.096534505 -0.08403106 0.020348199 0.15624614 -0.12718776 0.006284756 0.34124652 0.043089904
-0.25065273 0.015700929 -0.006788217 -0.11011299 0.3508791 0.018154813 0.15259622 0.21467485
-0.086432986 -0.033966195 -0.038171303 -0.08479895 -0.06620277 0.03932344 0.03723489 -0.1815912
-0.003262218 -0.07692449 0.16221328 0.13049045 0.03610443 -0.06396694 -0.07853853 -0.03130358
0.10158784 -0.13619164 0.0812721 -0.23631209 0.20091632 -0.004681836 0.13678087 0.002687408
0.21763852 -0.17652291 -0.013789575 -0.10942407 -0.0782431 -0.119522005 -0.03650597 0.011149531
-0.071639955 0.12690698 0.2789962 0.09105392 0.2014986 -0.12771587 -0.18503577 0.1140371
-0.07025065 0.045764737 -0.24376488 0.088818975 -0.09079649 0.112450495 0.14926423 -0.008199706
-0.27569184 -0.04879764 -0.05323646 0.079026185 0.22625345 -0.09651491 0.0615646 0.14867331
0.03566634 0.08698219 -0.06799537 0.07823443 0.15877853 -0.033439197 0.025943775 -0.18245089
-0.17106868 0.13137813 -0.12506282 -0.08561563 -0.13269956 -0.11709749 -0.00056629657 -0.12609039
-0.20847271 -0.075697795 0.026532376 -0.05873612 -0.021733839 -0.036012672 -0.043220352 0.2877492
0.025829991 -0.004716301 -0.10165302 0.25796556 0.16042806 0.27245158 0.101079956 -0.18096311
-0.06443113 -0.15988517 -0.021329788 -0.027746398 -0.27168262 -0.089564405 -0.32841584 -0.30378097
-0.21345314 -0.04631803 0.020586403 -0.102210276 -0.14297901 0.19707622 0.20533697 -0.055588573
-0.15453283 -0.1850389 -0.2653551 0.09413116 -0.13014826 -0.13704446 0.115265794 -0.1801044
0.004906242 0.1993105 -0.0727019 -0.014070857 -0.12754987 0.038012277 -0.04489967 0.27871883
0.08202076 -0.14430998 0.17166123 0.24838969 0.032840896 0.12941512 0.118277 0.18156433
-0.11619597 0.17605959 -0.069719195 -0.20480889 -0.10997922 0.0754619 0.13752374 0.017952455
0.03343832 -0.09561791 0.017316874 -0.22914459 0.1350448 -0.20767674 0.1050474 0.108762756
-0.047220506 -0.16240579 0.060875732 -0.037751332 -0.014514966 -0.09553724 -0.121785454 0.1984699
-0.17531356 -0.18253645 0.2503697 -0.12729272 0.21402091 -0.16286978 -0.07942383 -0.20369764
0.124779016 0.14668193 -0.11372048 -0.1036563 0.086410776 -0.16667324 0.07358003 -0.16953094
0.034480214 -0.073488586 0.1368217 -0.06921192 0.21890625 -0.15706581 -0.27856973 -0.04919175
-0.0038215264 -0.022718342 -0.08117375 -0.1819812 -0.27794373 -0.18519416 0.0013691644 -0.23362008
0.034459263 -0.13912585 0.08500229 -0.028514767 0.14869387 0.2411938 0.23380081 -0.24071227
0.21347782 0.02189291 -0.14444783 0.019737057 0.16176145 0.093683854 -0.0063175643 0.10818487
-0.09983587 -0.24519958 0.03614419 -0.20106508 -0.025978072 -0.014563127 0.10918796 0.09910667
0.10466192 0.11575128 0.22885032 0.060344364 0.061951034 -0.10701463 0.17853345 -0.18443723
0.18719798 -0.02167664 0.056963045 0.18645972 0.23636314 0.21331593 -0.19159076 0.16100712

main.4.bias f4 [2048]
00000000: 3bc9 403e e7e0 7c3e dcb7 9fbd 04f9 b6bc
00000010: 358d 38be 8fae acbb ef80 d43d e453 5d3e
00000020: bae3 383e f87f 74bd f306 8e3e 5376 943e
00000030: ddd8 723e 8ba5 e33d d5fc b63e 3375 073d
00000040: 09d0 193e bb20 e4bd e1a4 4f3e 45d2 883e
00000050: a13a 943c caab d33d 9e4d 843e 67fd 5b3e
00000060: 6993 263e 4aca 013d c7b9 a13d 60fd 7b3e
00000070: f77d a63d 345f bc3d db0a db3c b5f9 523e
00000080: 2ccb 573c e87b a93d 61c0 02bc 3a99 c2bc
00000090: 4154 98bb 0e31 a73c 0f5b 8ebc 2ad6 b4bc
000000a0: bd06 bd3b 284a 263d fbd5 9e3e 193a 8c3d
000000b0: 9484 cfbd 0627 943e 4a09 643e da2d f63d
000000c0: 2434 c43d 1db7 2f3e 23c0 0f3e ef49 993d
000000d0: 6680 37bc a078 4b3e f796 e63d 6504 723e
000000e0: e925 793e 0581 773e 58c7 e5bd f721 523e
000000f0: 79be 983d 8d3e 133d 2df5 70bd f04a 62bd
00000100: 93a2 10bd 43e3 243c a457 8fbd 941f 5e3e
00000110: 8d1c 653e 087f 703e db5d 913d 61ed a13e
00000120: a06b 343e 8472 133e 867d 983e 0918 603e
00000130: 8de7 8b3e 5f9f 8e3e 3c5b 393e 5789 043e
00000140: 9912 29bc c8e0 d9bd 56bc 4abd dfea 883e
00000150: 05b7 ee3c a463 283d ed36 6a3e e9f7 bf3d
00000160: b28d d5bd ee69 633e 0677 503e 2ed3 a0bc
00000170: cf03 373e 286d 0d3e 4139 d23d 8de5 eb3c
00000180: 27dc 103e 7cf6 e23d cd2b a23e 9c73 393e
00000190: a01c 9e3d adf0 9bbd a480 4a3e 8a8c bcbd
000001a0: d3e3 c23d c3b7 233d 5d71 c5bb db56 413c
000001b0: 375c 10bd 49b3 263e 60d0 a93d d13c 953d
000001c0: c5e3 00bd b001 393e 12d9 923e a33e a33e
000001d0: aaa8 833e 9ede 573e 2119 513d 8b64 843d
000001e0: 708b b8bd 8028 4d3e 3d9c 593e e0bc eabd
000001f0: 5f03 273e 7d44 863e e2c3 a1bd 6282 213e
00000200: 36bd 9f39 8ff9 463d 4e0a 2e3e 5ea0 733e
00000210: 67d8 d7bd a513 413e ad4c 7f3e b847 903e
00000220: 3fca 663e 4df3 633d 567b f63d 74c2 f23b
00000230: 2dc7 d63c a5af b23d 06ba 9abc ff60 913d
00000240: 6c1f 4e3e c413 553e 8bf8 533e 8a50 f3bb
00000250: 4b6c 903d 87c8 6d3e 9297 953d b73d 7d3e
00000260: 3e1b 383e 74c5 7a3e 336d dbbd ec93 853e
00000270: 66e0 693e cb7c 9a3e 0ad3 253e e5d9 373e
00000280: 9612 733e e790 56bd 5fff 20bd e5b6 983e
00000290: 8592 4e3e 1a1a f03d cfd7 223e 1f8b 17bc
000002a0: 69ff 5fbd 0f2b eab9 0bf6 813e 4b33 ba3d
000002b0: 55ef ee3d f983 963e bb04 933e 0574 9b3e
000002c0: 209b 593e ef20 8dbd 06e8 b83d 1b2b a33d
000002d0: 1c44 7e3e dcfc c23d 205a 7dbc 27b6 8a3c
000002e0: cd5e 193b 485b 2f3e 293e 8f3e 22cf 413e
000002f0: ee48 2c3e 0d68 1cbc 5bb1 49bd 74ad 82bd
00000300: 3a0a 1fbe 43db f03c 18b6 e8bd c0a6 8c3d
00000310: 8d1e ca3d e3f6 cf3d b9cc 1cbe 6b95 a43d
00000320: aec1 dcbc 6b9a 4f3e 052e 313d 8ab4 6f3c
00000330: 23ea bfbd f679 3cbd 2c6f 2e3e a74a 233d
00000340: 6bdf 813d 4c4b 4d3e 4b07 933c 0864 043d
00000350: 3bb1 50be 6129 2c3e 6df8 113e 44b2 e73d
00000360: a0d7 c53d 9696 773e 7457 ecbd 00fe cabd
00000370: efae 42bb 9e70 2fbe 1a35 f6bd 32eb a7bd
00000380: 053f 4a3e f6f8 87bd 27c0 1dbe cf96 12be
00000390: 1707 66be 660c 2f3e 2a69 dfbd 2287 1dbe
000003a0: b60e 80bc 12b8 4dbe af78 95bc 343f 0c3e
000003b0: e39b 73be 40ad 42bc f0a4 83bc fd01 ae3d
000003c0: ab3c fc3d 5531 3dbe 55f8 533d 71c9 313e
000003d0: 7d8a c33d d67d 333e ebed 55bd 4e8e 11bd
000003e0: 153f 05bd 46af 34be e960 8ebc cf47 c9bd
000003f0: 3762 0bbe 5269 0dbd 8d31 ac3c 6ff2 0dbe
0.18826763 0.24695168 -0.0779874 -0.022335537 -0.18022616 -0.0052698324 0.10376155 0.21614033
0.18055621 -0.059692353 0.27739677 0.28996524 0.2371554 0.11115559 0.3573977 0.033070754
0.15020765 -0.11139055 0.2027774 0.26722923 0.018094363 0.103355005 0.25840467 0.21483384
0.1626717 0.03168706 0.07896762 0.24608374 0.08129495 0.09197846 0.026738575 0.20603068
0.013170999 0.08275586 -0.007980437 -0.023754705 -0.0046487157 0.020409133 -0.017377404 -0.022074778
0.0057686255 0.040598065 0.3102263 0.06847019 -0.10132709 0.28936023 0.22269168 0.12020464
0.095802575 0.17159696 0.14038138 0.07484805 -0.011200046 0.19870234 0.11259263 0.23634489
0.24330868 0.24170311 -0.112196624 0.20520769 0.07458205 0.035948325 -0.058827568 -0.055247247
-0.035311293 0.010063949 -0.06999138 0.21691734 0.22374173 0.23485959 0.0709798 0.31626418
0.1761918 0.14399153 0.29783267 0.21884169 0.27325097 0.27855965 0.1810121 0.12943016
-0.010319375 -0.10638577 -0.049496017 0.26741692 0.029140005 0.04111065 0.22872515 0.09373457
-0.10427417 0.22208378 0.20357904 -0.019631948 0.17872547 0.13811171 0.102648266 0.028795982
0.14146481 0.110821694 0.31674042 0.18110508 0.077203035 -0.07614265 0.19775635 -0.09206493
0.0951611 0.03997017 -0.006025477 0.011800493 -0.035244193 0.1627933 0.082916975 0.072869904
-0.031467218 0.1806705 0.28681237 0.31883726 0.25714618 0.21081015 0.051049355 0.064644895
-0.090109706 0.20034981 0.21251006 -0.11461806 0.1630988 0.26224127 -0.0789869 0.15772393
0.00030467816 0.04857784 0.16996118 0.23791644 -0.10539322 0.1885515 0.24931593 0.28179717
0.22538088 0.05565195 0.12035243 0.0074084345 0.026218021 0.08724908 -0.018887531 0.07098579
0.20129174 0.20808321 0.2070028 -0.0074253725 0.07051905 0.23221026 0.073043 0.24730574
0.17979142 0.24489385 -0.107141875 0.26089418 0.22839507 0.30173334 0.16193786 0.17954214
0.23737559 -0.052384283 -0.03930604 0.29827037 0.2017308 0.117237285 0.15902637 -0.009249478
-0.054686937 -0.0004466404 0.25383028 0.090918146 0.11666743 0.29397562 0.28714547 0.30361953
0.21250582 -0.06891047 0.0902863 0.07967206 0.24830669 0.09520885 -0.015463382 0.01693256
0.0023402453 0.17124665 0.27977112 0.18926671 0.16824695 -0.009546292 -0.049241405 -0.0638074
-0.15531245 0.029401427 -0.113628566 0.068677425 0.09869108 0.10154512 -0.1531247 0.08036312
-0.026947822 0.2027375 0.04325678 0.014630446 -0.0937083 -0.04601475 0.17034596 0.039866116
0.06341442 0.20048255 0.017947813 0.03232196 -0.20380108 0.1681266 0.14254923 0.11313298
0.09660268 0.24178538 -0.11540118 -0.09911728 -0.002970632 -0.17132804 -0.12021847 -0.08199157
0.19750603 -0.066392824 -0.15405332 -0.14315341 -0.22463642 0.17094573 -0.1090873 -0.1538358
-0.015632015 -0.20089749 -0.018246023 0.13695985 -0.23789935 -0.011882126 -0.01606986 0.08496473
0.12316259 -0.1847585 0.0517505 0.17362 0.09547899 0.17528471 -0.05222885 -0.035536103
-0.032530863 -0.17644987 -0.017380195 -0.098281495 -0.13611685 -0.03452427 0.021019721 -0.13862012

conv.0.weight f4 [20, 1, 5, 5]
00000000: 2383 a9bd 1b8f 96be 7bde 09be 3188 a7bd
00000010: fe9d 87be 7fa5 363d ad6e dcbd be61 80be
00000020: febe 67bd e6f1 653d b750 86bc 32c6 dc3d
00000030: be5c 933d a9c6 8bbd 9c92 133e 29a7 2e3e
00000040: fb52 083c 4a50 633e d20b 0b3d 22f7 ecbb
00000050: ee02 4d3b e860 883e 6c9d c1bd 4ce7 463e
00000060: f0ea 393d b886 7ebe dbcf 6ebd a50e 4bbd
00000070: a48a 9dbd 8790 1fbe ffbf 30be 41e9 aebd
00000080: 0b03 d7bd a23f 0dbe 1e80 a3bd 3def 99bd
00000090: 7442 0fbc d96a 353d c947 e63d 323b de3c
000000a0: 0e7c 7a3d 7e8b 4b3e 4623 9b3d 8ead 273e
000000b0: ee63 523e 07f3 1e3e ded8 95bd 3e06 483e
000000c0: e992 733d 3f1a 6d3d 5bd9 893d 0f17 553e
000000d0: 589e 6e3e a3e1 adbd e916 1f3e a593 df3d
000000e0: 0192 943d 8a8e a2bc 59f1 763c 8ec3 bebd
000000f0: 5238 073e fd97 293e e675 4cbc 1f23 12bd
00000100: 7716 d8bd fa40 c53d 86a7 483c f5b7 223c
00000110: e9b6 063e 7745 45be 0191 15be 4042 033e
00000120: ff35 63bd d37a 8c3d cca8 863d 8c44 f93d
00000130: cbaf 3d3e e9d3 023d b8d0 173e 05ae 0d3e
00000140: 4d5f 223a 0585 443e 5464 ffbc c2bc 823d
00000150: 6052 413e 233e 183b 6fed b63d 4070 493e
00000160: 7848 0f3d 7683 f8bc 4e3f b6bd ed1d cabd
00000170: 3058 02be a362 febd 4840 c13c 1271 8fbd
00000180: 32c7 c7bd 8e6c 94bd 8ae0 91bd b5dd c8bc
00000190: 75d2 8c3a 00ba 9f3b faa2 20be d622 bfba
000001a0: 2089 a4bc 78af a13d 1466 26bc 4f00 efbd
000001b0: 043d 95be 5f3a 04be 3147 ecbb b83e 15be
000001c0: b098 f0bc 3083 743b 91ea 8fbd c23a c3bd
000001d0: a515 803c 6d66 11be c8e2 9fbd a1e3 37bd
000001e0: bfb8 20be ebf7 f1bd 91d7 d9bd 004c cdbd
000001f0: 0a89 31bd 7c25 373e 7162 943d 7359 64be
00000200: 5993 8bbe d897 0dbe 4243 c03d 1e3d d2bc
00000210: 1b5d a8bc f757 de3d 8c29 d03d fd7d b9bd
00000220: b64c 923d d690 493d 137f 073e a2ea 8fbd
00000230: bcd3 42be 56c0 cf3c 6405 a5bc e917 74bd
00000240: b113 44bd d794 44be 8f55 8c3d 49f6 fabd
00000250: 0d90 5dbe ab3f 933d 716c b9bd 1dda 343e
00000260: b382 89bd efe0 4c3d 7d5a 413e 48b8 0f3d
00000270: 21ff 8c3d 861e 87bd a32a 143e a812 00be
00000280: 41d6 153d ff09 a33d 8a17 583e 747e 67bd
00000290: a368 183e 96d1 9d3d 4aab 5ebc 5e26 703e
000002a0: 5bea b43d 942f 56bc 2c0b d1bd a629 1bbe
000002b0: 82ea 443d 6c71 34be 482d ae3d 0556 d7bd
000002c0: f3b0 6a3d cf50 89bc 9d86 423e cbfa 8cbd
000002d0: 9b71 eb3c f8cc a8bd d045 11be ebc2 1f3c
000002e0: ffb9 59be d6be 26be 9b22 f9bd abc4 cb3c
000002f0: 7bae 52bd d74e 0e3e ab33 8b3e 3ba8 02bc
00000300: 16ae 2e3e 1ca2 86bd dd55 293e 35c0 06bd
00000310: 9fb8 57be 888a 343e 8e43 3ebe 116a 7c3d
00000320: c280 ddbb e0fe 173e c104 613e cd9a 593e
00000330: 8575 e43d deb4 84bd 5865 203d 1253 413e
00000340: 8138 3a3e 731e bf3d 384d 773d f499 59bc
00000350: a642 48b9 5b68 103d d1f5 f7bd 240a b2bd
00000360: 0cb1 3bbe c771 163c adc8 fabd 8ad1 06be
00000370: 5e99 46be 1dc8 c1bd 0ce4 09be 238a 51bd
00000380: f740 d0bc 5f07 2cbe cc9d babd 44cb 56bd
00000390: e31b 023d d119 7a3d c526 54be 56cc 21be
000003a0: ccea 54be 3753 60be 8432 8dbe d956 13bd
000003b0: 1196 d4bd 532f 30bd 8c6c 573d c441 083d
000003c0: 2294 c83d 85af 203e 36b2 e43c 56c8 a73d
000003d0: e5f5 94bd 63ea ca3d 23dc 733d e41e 363e
000003e0: 7d47 333e 1f58 df3d 82f4 b0bd 7b8a 97bc
000003f0: e9d5 32be 3956 4cbe 3666 b6bc 2f38 2dbe
-0.082769655 -0.29406056 -0.13463776 -0.08180273 -0.26487726 0.044591423 -0.10763297 -0.2507457
-0.05657863 0.056138895 -0.01639591 0.1077999 0.071954235 -0.06825001 0.14411396 0.17055954
0.008320565 0.22198597 0.03394682 -0.007231609 0.0031282264 0.26636434 -0.09453854 0.1942417
0.04539007 -0.24856079 -0.058303695 -0.049574513 -0.07692459 -0.15582477 -0.1726074 -0.085405834
-0.10498627 -0.13793805 -0.07983421 -0.07516334 -0.008743871 0.04429135 0.11244161 0.027127836
0.061153464 0.19877431 0.07575087 0.163748 0.20545933 0.15522395 -0.07316755 0.19533631
0.059466276 0.05788636 0.067309104 0.20809577 0.23302591 -0.084903024 0.15536083 0.10916833
0.072544105 -0.019843359 0.01507219 -0.09314643 0.13205078 0.16561885 -0.012479281 -0.035678025
-0.1055116 0.09631534 0.012246972 0.009931554 0.13155712 -0.1926478 -0.14606096 0.12818241
-0.055471417 0.06859364 0.06575164 0.121712774 0.18524091 0.031940375 0.14825714 0.13835914
0.00061940105 0.19191368 -0.03117577 0.06383659 0.1887908 0.0023230396 0.089320056 0.19671726
0.03498122 -0.030336123 -0.08898793 -0.09868989 -0.12728953 -0.12421157 0.023590222 -0.07003988
-0.0975479 -0.07247268 -0.071229056 -0.02451978 0.0010743873 0.004874468 -0.1568717 -0.0014582525
-0.020084918 0.07894796 -0.010156173 -0.11669981 -0.29148114 -0.12912892 -0.007210635 -0.14574707
-0.029369682 0.003730964 -0.07027162 -0.095326915 0.01563532 -0.14199229 -0.07806927 -0.04489482
-0.15695475 -0.11814865 -0.10636819 -0.100242615 -0.04334358 0.17885393 0.07245339 -0.22299747
-0.27260855 -0.13827455 0.093878284 -0.025663909 -0.020552209 0.10856622 0.101641744 -0.090572335
0.07143538 0.049210392 0.13232069 -0.070271745 -0.19026083 0.025360268 -0.020144172 -0.059593115
-0.04787034 -0.19197403 0.068522565 -0.122540064 -0.21636982 0.07189878 -0.09053887 0.17661329
-0.06714382 0.0500192 0.18882175 0.035087854 0.068845995 -0.06597619 0.1446939 -0.12507117
0.03658128 0.07960891 0.2110273 -0.05651708 0.14883666 0.07705991 -0.013590643 0.23452136
0.08833762 -0.013072867 -0.10207209 -0.15152606 0.048075207 -0.17621392 0.085047305 -0.10514454
0.05729766 -0.016762165 0.18996663 -0.068837725 0.028740695 -0.0824222 -0.14186788 0.009751062
-0.21262358 -0.16283736 -0.121648036 0.024874052 -0.05143593 0.13897263 0.27187857 -0.00797468
0.17058596 -0.06573889 0.1653666 -0.032898147 -0.21066521 0.1763097 -0.18580458 0.06162459
-0.006759734 0.14843321 0.2197447 0.21250458 0.111552276 -0.0647981 0.03915915 0.18879345
0.18185617 0.093319796 0.060376376 -0.013281334 -0.00019098315 0.03525577 -0.12107433 -0.086933404
-0.18329257 0.0091824 -0.12245307 -0.1316587 -0.19394442 -0.09461997 -0.13465899 -0.051157128
-0.025421603 -0.16799687 -0.091121286 -0.052439943 0.031764876 0.061059777 -0.20717914 -0.15800604
-0.20792693 -0.21906744 -0.27577603 -0.035971496 -0.103801854 -0.043013882 0.052593753 0.033265844
0.09793879 0.15691955 0.027917009 0.08192508 -0.07273463 0.09907987 0.05953611 0.17785221
0.1750774 0.1090548 -0.08640386 -0.01849865 -0.17464413 -0.19954766 -0.022265535 -0.16915964

conv.0.bias f4 [20]
00000000: eb60 52be 49b2 563e 2136 2dbe bf39 7dbc
00000010: d9c6 8d3e 90cd 32be 3f8c 8dbd f690 023e
00000020: ba13 acbc 3b00 f7bd ebe8 24be 69fd 63be
00000030: a5da a3bd 898a 3bbe 0e6d 00be 6cef 21bd
00000040: bf82 8a3c 1044 003d 26ea 473e 5057 74be
-0.20544784 0.20966448 -0.1691518 -0.015455662 0.2769077 -0.17461228 -0.069115154 0.1275061
-0.0210055 -0.12060591 -0.16104476 -0.22264637 -0.080006875 -0.18314566 -0.12541601 -0.03953497
0.016908048 0.03131491 0.19522914 -0.23861432

conv.2.weight f4 [20]
00000000: d23c 933f 37a8 9a3f d26c 793f c1d2 953f
00000010: e4fc 913f 95b9 813f 0057 833f 2ffe 823f
00000020: 0065 973f 1235 8f3f d0ce 8f3f 0c1e 923f
00000030: 83d1 883f 5625 8d3f d930 663f 902a 9d3f
00000040: 9a5a 923f 1370 9e3f 47b8 8d3f 9ed7 8d3f
1.1502936 1.2082585 0.9743167 1.1704942 1.1405301 1.013476 1.0260925 1.0233821
1.1827698 1.1188071 1.1234989 1.141542 1.0688938 1.1027019 0.89918286 1.2278614
1.1433899 1.2377952 1.1071862 1.1081426

conv.2.bias f4 [20]
00000000: f24f 09be 3e1e 133e ea4c 0a3e d26d 11be
00000010: 8a3a 293e baa4 133e f52a 1c3e 8991 093e
00000020: e32e 1bbe 60ef 0fbe fdf9 07be 6cc4 07be
00000030: 1150 1b3e 826b 1fbe 64f2 143e ca91 243e
00000040: a525 1abe 37b7 8dbe a1c2 1a3e e847 1d3e
-0.13409403 0.14367005 0.13505903 -0.1420205 0.16526237 0.14418307 0.15250762 0.13434424
-0.15154605 -0.14056158 -0.13278957 -0.13258523 0.15167262 -0.15568355 0.1454559 0.16071239
-0.15053423 -0.27678844 0.15113308 0.15359461

conv.2.running_mean f4 [20]
00000000: 4198 d5bc acce 613e 3aa3 823d 0dd1 fb3d
00000010: 5465 283d c310 5bbd ff28 f73d e592 0b3e
00000020: dad6 763d 2a1e 03bd e105 dbbc 26ee 19bd
00000030: 6a74 113d a523 85bc 1ef6 3a3d c4c4 4dbc
00000040: 8bea 6b3c f4d8 a8bc 5d8b 0a3f 423a f6bd
-0.026073577 0.22051495 0.06378789 0.12295733 0.04111226 -0.053482782 0.12068366 0.13630255
0.060263492 -0.03201119 -0.026736202 -0.03758063 0.03551141 -0.016252348 0.045644872 -0.01255912
0.014399181 -0.020611264 0.541189 -0.120228305

conv.2.running_var f4 [20]
00000000: ab9d 673c ebaf 1c3d 8792 c03c 3e26 dc3c
00000010: 1c64 2f3c 8c57 8b3b 78c5 003d e2f5 063d
00000020: 9f55 9d3c 5c1d 133c f2c7 423c 1912 143c
00000030: 37aa 7b3c de26 4c3c 9619 c83c 9429 803c
00000040: 32dc 803c a279 013c 0b5b 883d 24aa 4c3b
0.014136712 0.038253706 0.02350737 0.026873704 0.01070502 0.0042523798 0.03143832 0.032949336
0.019205866 0.008979168 0.011888491 0.009037518 0.015360407 0.012460439 0.024426263 0.015644826
0.015729997 0.007902535 0.0665799 0.0031229341

conv.3.weight f4 [1, 20, 5, 5]
00000000: 1a56 fd3d 2cf3 223e bf3f 053e 310b 0a3e
00000010: e1d7 053e 4f11 0d3e d1c5 163e a95f 073e
00000020: ec7f a83d b2dd ca3d 0bc7 9e3d 31d2 ed3d
00000030: 1e79 093e 230c ef3d df32 cb3d be5c 843d
00000040: 9e75 d43d 2ebf 1a3e d8d4 a13d 803e a63d
00000050: 783c 3c3e 766b eb3d a414 133e f639 1d3e
00000060: 5a36 3c3e 4d65 2abe f9ec 16be ce95 15be
00000070: 9f56 fabd a3fd 0cbe c140 3bbe bc67 37be
00000080: f7a5 35be 524b 1abe d443 22be f8a6 29be
00000090: 2601 59be 50d0 22be 40c5 f3bd 5d5d ccbd
000000a0: 81a4 fbbd 226e 80bd 402d 96bd 50dc 0cbe
000000b0: ef3a 1dbe 137d 9fb8 a4a4 0cbd abd3 ca3d
000000c0: 2f8e b93d 99ad 163b 9280 51be b823 2fbe
000000d0: 92af 29be 1e23 19be 079c f8bd 39aa fdbd
000000e0: 03e1 e3bd ca5b b2bd 4a2b aebd d48c 1bbe
000000f0: dae7 e0bd b178 07be b5ce f6bd 8487 f6bd
00000100: 175f e0bd 3b35 2fbe 3c9b aebd 8af3 1ebe
00000110: 5665 3fbe 539c 23be b138 49be 2eeb 1cbe
00000120: 1898 0ebe cff6 10be efbc 1fbe d295 1f3e
00000130: e084 183e 6cf5 3b3e 10fb b03d c8f7 d13d
00000140: c7ce c83d 1c2b 173e cd61 2e3e cef1 eb3d
00000150: 573b 123e 2665 143e b3c7 c93d 0e60 3d3e
00000160: 7c66 2a3e 5197 f53d dfb6 8f3d 0e08 1f3e
00000170: eca2 2f3e aa5d bc3d 00d0 043e 5789 073d
00000180: 4edf bd3d e454 053e c9d4 563d b4b3 f43c
00000190: 7ac2 0bbd 4d7f 8ebd 6898 18be 3ced 05be
000001a0: 4e7b d3bd dc1c b4bd 867c 27be cb0d 35be
000001b0: 9c87 cabd a0cd 27be 92ae c9bd d5b7 41be
000001c0: 10bb 42be a811 43be 9c63 fcbd 1eef 0bbe
000001d0: 88dc b6bd 1e93 43be 14ce 0abe 3bf7 d6bd
000001e0: 8c38 1ebe 5dec e0bd 506c d3bd 2994 a1bd
000001f0: 98a5 9dbd 6872 11be fddd 0dbe 85dc d3bd
00000200: 4b2c 07be f168 1cbe 148b 75be 24bf 04be
00000210: ce7b f9bd 8c6f e8bd e446 fbbd 0e32 24be
00000220: 58c8 18be d31b 11be ed17 12be ddb2 5bbe
00000230: b4c0 b9bd 2a36 b8bd 78f0 37be ad2f 24be
00000240: a0cc 19be 1577 16be 5d59 2fbe 8479 1fbe
00000250: 7dfc d0bd 915f 2ebe c447 25be a6ac 22be
00000260: 9be1 34be c141 ebbd e884 0bbe 3e64 18be
00000270: 6d31 d1bd c7ee cbbd caaf 21be cda2 46be
00000280: 035e efbd 76b0 27be 4ad5 9bbd f34e f4bd
00000290: b844 40be cb20 0ebe ce54 ddbd 889f 21be
000002a0: 3a2c fdbd dd79 50be 51a7 19be b390 24be
000002b0: 5186 e8bd 9d83 50be 0082 2abe eb39 20be
000002c0: 8a2f 0dbe 7ed9 21be 6d12 16be e46c 1fbe
000002d0: 660a 4cbe b2a5 1dbe 3498 17be ceb8 26be
000002e0: e91c dfbd 855d 0abe e8e7 09be 115a 01be
000002f0: c5ce d9bd 7c9d d7bd b89b b8bd 1b1e 16be
00000300: 5017 34be 07ff e1bd d1ab 03be 2bcf 11be
00000310: 2298 22be 1667 19be 3a77 afbd c4d7 bfbd
00000320: a7d6 3e3e f60f 203e 9942 073e 2ab6 de3d
00000330: d48e c13d ec2d 3e3e 0508 1d3e 102a 153e
00000340: abd4 243e 8a07 c53d 7154 ec3d ddae 0d3e
00000350: 3008 d03d 1f25 083e 17e6 d13d 727d 8d3d
00000360: f8d7 e63d c98f 1d3e d72c 043e 9653 353e
00000370: a557 2f3d e8fc db3d e637 f43d 149d d63d
00000380: 8eb6 8d3c 0755 b33d 4b7c b63d 0747 013e
00000390: f24f b73d 1949 873d 4400 223e 1385 033e
000003a0: 4d5f 123e 5f95 db3d b298 043e 362e aa3d
000003b0: cdc9 ce3d 5e93 983d 8983 f43d bffd bd3d
000003c0: 4233 2a3e 6dc2 463e 0f5d 143e 634c 053e
000003d0: 5c7c d13d 5795 cb3d 2c22 003e eba0 013e
000003e0: 3f74 353e aa75 f83d 4933 f33d 22a4 a23d
000003f0: 1ac9 b83d e639 853d e0cb ff3d 874e 123e
0.12369938 0.15913075 0.13012598 0.13480832 0.13070633 0.13776134 0.14723898 0.13220085
0.08227524 0.09905566 0.07752808 0.116123565 0.13425109 0.11672237 0.09921812 0.06463002
0.10373996 0.15111992 0.07901925 0.0811739 0.18382442 0.11495106 0.14363343 0.15354142
0.18380108 -0.16640206 -0.14738835 -0.14607927 -0.12223553 -0.1376863 -0.1828642 -0.17910665
-0.17739092 -0.15067795 -0.15846187 -0.165676 -0.21191844 -0.15899777 -0.11902857 -0.09978745
-0.12287236 -0.06271006 -0.073328495 -0.13755918 -0.15354513 -7.605008e-05 -0.0343367 0.09903654
0.090603225 0.0022991656 -0.20459202 -0.1710347 -0.16570881 -0.14954802 -0.12139135 -0.12385983
-0.11126902 -0.087089136 -0.085043505 -0.1519044 -0.10981722 -0.13229634 -0.12051145 -0.12037566
-0.10955637 -0.1711015 -0.08525702 -0.1552259 -0.18691 -0.15977602 -0.19650532 -0.15324089
-0.13925207 -0.1415665 -0.15599416 0.15584496 0.14894438 0.1835534 0.08641636 0.10252339
0.09805065 0.14762539 0.17029496 0.1152073 0.14280449 0.1449171 0.09852543 0.18493673
0.16640657 0.11991752 0.07017302 0.15530416 0.17151994 0.091975525 0.1296997 0.03308996
0.092711076 0.13020664 0.05244902 0.029870845 -0.034121014 -0.069578744 -0.14901888 -0.13078779
-0.10326253 -0.08794567 -0.16356096 -0.17681043 -0.09889147 -0.16387033 -0.0984775 -0.18917783
-0.19016671 -0.19049704 -0.123236865 -0.13665435 -0.08928782 -0.1909909 -0.13555175 -0.10496374
-0.15451258 -0.10982583 -0.10323393 -0.078895874 -0.076976 -0.14203799 -0.13854213 -0.10344795
-0.1320049 -0.15274407 -0.23978835 -0.1296354 -0.12181817 -0.11349401 -0.12269381 -0.1603472
-0.14920175 -0.1417077 -0.1426694 -0.2145495 -0.09069958 -0.08994706 -0.17962825 -0.16033812
-0.15019464 -0.14693864 -0.17123933 -0.15573698 -0.10204408 -0.17028643 -0.16140658 -0.15886173
-0.17664187 -0.11487151 -0.13624918 -0.1488199 -0.10214505 -0.099576525 -0.15789714 -0.19398041
-0.11687853 -0.16375908 -0.07609041 -0.11929121 -0.18776214 -0.13879697 -0.10807191 -0.15783513
-0.12361951 -0.20358987 -0.15005232 -0.16070823 -0.11353744 -0.20362706 -0.16651154 -0.15647094
-0.13787666 -0.15805623 -0.14655466 -0.15568882 -0.19925842 -0.15395239 -0.14804155 -0.16281435
-0.10894186 -0.13512237 -0.13467371 -0.12632014 -0.10635141 -0.10528085 -0.09014076 -0.14659922
-0.17587018 -0.11034971 -0.12858512 -0.14239185 -0.15878347 -0.1498073 -0.085676625 -0.09367326
0.18636571 0.15631089 0.13208999 0.10874589 0.094510704 0.18572205 0.1533509 0.14566827
0.16096751 0.096205786 0.115395434 0.13836236 0.10157812 0.1329541 0.10248964 0.069086924
0.112716615 0.15386881 0.1290773 0.17707667 0.042808194 0.107415974 0.11924724 0.10479179
0.017298963 0.08756452 0.08910426 0.12624751 0.08950795 0.06605739 0.15820414 0.12843733
0.14294167 0.1072185 0.12948874 0.08309595 0.10097084 0.07449983 0.11939151 0.09276914
0.16621116 0.19410105 0.14488624 0.1301742 0.10228798 0.09940594 0.12513036 0.12659042
0.17720126 0.12131818 0.11875016 0.07941462 0.09022732 0.06505184 0.12490058 0.14287768
