src/caches/cache_16_20_small2/param2img0.pt (torch, 184864 bytes, 19 tensors)

main.0.weight f4 [16]
0	0x3f5a9cc9	0.85395485
1	0x3f5bb7d4	0.85827374
2	0x3f5d9b16	0.8656477
3	0x3f811569	1.0084659
4	0x3f59540d	0.84893876
5	0x3f931085	1.1489416
6	0x3f7c4573	0.9854347
7	0x3f6be1b0	0.92141247
8	0x3f86f5ad	1.0543724
9	0x3f96152b	1.172521
10	0x3f6dc45d	0.9287775
11	0x3f79fe28	0.97653437
12	0x3f8d011e	1.1015966
13	0x3f59ea64	0.85123277
14	0x3f542dd2	0.82882416
15	0x3f6f9f94	0.9360287

main.0.bias f4 [16]
0	0xbdf0d745	-0.117598094
1	0xbd50348d	-0.050831366
2	0x3de2d4af	0.110757224
3	0xbd888e64	-0.06667784
4	0xbdab36df	-0.08360075
5	0xbd0c1df3	-0.03420825
6	0x3e8d6a4b	0.27620158
7	0xbc17e5bf	-0.009271084
8	0xbe217358	-0.15766656
9	0xbccf6957	-0.025318785
10	0x3d8615e8	0.06547147
11	0xbe2e33fa	-0.17012015
12	0x3dba76b4	0.09104672
13	0x3accc1ee	0.001562176
14	0xbda900e0	-0.0825212
15	0x3dd4c66b	0.10389408

main.0.running_mean f4 [16]
0	0x373a5efd	1.110858e-05
1	0xb7cd70b3	-2.4490384e-05
2	0x3e4cce52	0.2000058
3	0x3b88b245	0.004171642
4	0x3c1ce970	0.00957714
5	0x3b2c47dd	0.002628795
6	0x3ef8b7cf	0.48577735
7	0x3b8a18b6	0.0042143716
8	0x3c9df6ca	0.019282717
9	0x3b2bacd2	0.0026195538
10	0x3ef8bc47	0.48581144
11	0x3b88ce6b	0.0041749976
12	0x3cecd05c	0.028907947
13	0xb6edad2f	-7.0833116e-06
14	0x3e4ccb98	0.1999954
15	0x3b8848a0	0.004159048

main.0.running_var f4 [16]
0	0x358349fe	9.781795e-07
1	0x35864e8a	1.0006636e-06
2	0x358b7c37	1.0392458e-06
3	0x3afc997c	0.0019271816
4	0x3815a9a1	3.5682348e-05
5	0x39019154	0.00012356538
6	0x3d8ffc6a	0.07030566
7	0x3afce721	0.0019294956
8	0x39139d2e	0.00014077566
9	0x390258a7	0.00012430792
10	0x3d8ff609	0.07029349
11	0x3afd1faf	0.0019311811
12	0x39a6c0a0	0.00031805504
13	0x358d2820	1.0516997e-06
14	0x357d6cb1	9.440801e-07
15	0x3afce2ba	0.0019293644

main.1.weight f4 [20, 16]
0	0xbbd3bb7c	-0.006461559
1	0xbc8a4fb7	-0.016883714
2	0x3b9b00e4	0.004730331
3	0xbd208d67	-0.03919735
4	0x3d266ac1	0.040629152
5	0xbd747c04	-0.059688583
6	0xbdc0d0e6	-0.09414844
7	0xbe1d9f6c	-0.15392846
8	0x3e105b29	0.14097275
9	0xbdf4b6e9	-0.1194895
10	0x3dc44ed6	0.09585349
11	0xbdf1d3da	-0.118079856
12	0x3e77e3f1	0.24208046
13	0xbbdbe796	-0.006710957
14	0xbc7d0f70	-0.015445575
15	0x3e121b1d	0.14268155
16	0x39cdcd8a	0.00039253786
17	0xbc34c0b1	-0.011032269
18	0xba90c402	-0.0011044743
19	0xbe9d5592	-0.30729347
20	0x3e2b2dcf	0.16716693
21	0xbde7c635	-0.11317102
22	0x3d43902f	0.047744926
23	0x3cf02f83	0.02931953
24	0x3e03173a	0.12801829
25	0x3e0d5a5f	0.13804005
26	0x3e24fff3	0.16113262
27	0xbdf5a7ae	-0.11994873
28	0x3e5df945	0.2167712
29	0xbb1c5b35	-0.0023858075
30	0x3b1d8117	0.0024033242
31	0x3d7632f2	0.06010718
32	0xbc49dd70	-0.012320861
33	0xbc01e720	-0.00792864
34	0x3bb5db95	0.005549858
35	0xbe85c712	-0.2612844
36	0xbcaa0ff3	-0.020759558
37	0xbc27e535	-0.010247518
38	0xbe00bed7	-0.125728
39	0x3e158249	0.14600481
40	0x3dff35e9	0.124614544
41	0x3e7c7cba	0.24656954
42	0x3c4f024e	0.012634827
43	0xbe628b3c	-0.22123426
44	0x3e11e366	0.14246902
45	0x3c3bc0d5	0.011459549
46	0x3b926063	0.0044670566
47	0x3da79b3e	0.08183907
48	0x3cdd2f61	0.027000131
49	0x3c290211	0.010315434
50	0xbc310c82	-0.010806205
51	0xbcfd660c	-0.030932449
52	0xbe1fd96a	-0.1561028
53	0xbe02dada	-0.12778798
54	0x3d4239ef	0.04741853
55	0x3dee3d3c	0.11632773
56	0xbe32e6b8	-0.17470825
57	0xbe3956bf	-0.18099497
58	0x3c92e3dd	0.01793092
59	0x3db1942b	0.08670839
60	0xbe9059b0	-0.28193426
61	0xbb169380	-0.00229761
62	0xbbd8d46f	-0.006617121
63	0x3cc27c4c	0.02374091
64	0x3adb79e6	0.0016744703
65	0xbc0c7a84	-0.008574132
66	0x3c0abc45	0.0084677385
67	0x3d068db8	0.032849997
68	0xbe91f904	-0.28510296
69	0x3d58dfa1	0.052947644
70	0xbd9d5fc7	-0.07684284
71	0xbdfa36c7	-0.12217479
72	0xbd8afd29	-0.06786568
73	0xbe45afcf	-0.19305347
74	0x3e5df761	0.21676399
75	0xbd6d2963	-0.057900798
76	0xbebb596c	-0.3659166
77	0xbd0cf70a	-0.034415282
78	0xbc2d3ca9	-0.010573545
79	0x3cd62639	0.026141273
80	0x3b619904	0.003442348
81	0xbc9af805	-0.018917093
82	0x3bf44a69	0.0074551594
83	0x3daec0b8	0.08532852
84	0x3d451011	0.048111025
85	0x3ea1f42a	0.31631595
86	0xbda49979	-0.08037085
87	0xbe26363c	-0.16231626
88	0x3e5255d4	0.20540553
89	0x3eace436	0.3376786
90	0x3e50952f	0.20369409
91	0xbce9d0a8	-0.028541878
92	0xbe2aa26f	-0.16663526
93	0x3a0c7d52	0.00053592504
94	0xbb9783ee	-0.0046238815
95	0xbdcd5842	-0.100265995
96	0x3be103db	0.0068669147
97	0xbd786547	-0.06064346
98	0x3c2cfd14	0.010558385
99	0xbbc2a304	-0.005939843
100	0xbd27c9ad	-0.040963817
101	0x3e58a4ec	0.21156663
102	0x3e4b37c6	0.19845495
103	0xbccb128c	-0.024789117
104	0xbd96891c	-0.0735037
105	0x3e59cc71	0.21269394
106	0xbc74424a	-0.014908383
107	0xbe346577	-0.17616831
108	0x3e869e10	0.26292467
109	0xbbaea625	-0.0053298646
110	0xbc937410	-0.017999679
111	0x3e8c5758	0.27410388
112	0x3c211d97	0.009833715
113	0xbb76f178	-0.0037680548
114	0xbb9fc262	-0.004875467
115	0xbda953ae	-0.08267914
116	0x3a460acf	0.0007554711
117	0x3e91e3aa	0.28494006
118	0x3d9637d9	0.07334871
119	0xbe82aa95	-0.2552077
120	0x3e2e328b	0.17011468
121	0x3ceff930	0.029293627
122	0x3dbb84c0	0.091561794
123	0x3d9334c1	0.071877964
124	0x3e2d180c	0.16903704
125	0xbbc19978	-0.0059081875
126	0xbc1e20bc	-0.009651359
127	0xbcb1cb59	-0.021703409
128	0xba77295d	-0.0009428466
129	0x3bb19e32	0.0054204697
130	0xbc024ad8	-0.007952414
131	0xbded3d9c	-0.11584017
132	0xbda8e60a	-0.082470015
133	0x3e231faa	0.15930048
134	0xbdb1651c	-0.08661863
135	0x3cd94312	0.02652124
136	0x3e7978c1	0.2436247
137	0x3e7d1eeb	0.24718826
138	0xbdbda1a9	-0.0925935
139	0xbc54636c	-0.012963157
140	0x3ea5f674	0.3241459
141	0x3c3ac709	0.011399993
142	0x3c2a845d	0.010407534
143	0x3e253fac	0.1613757
144	0xbc1f3753	-0.00971778
145	0x3b13b4b6	0.0022538132
146	0x3c052ca2	0.008128317
147	0xbe34e509	-0.17665495
148	0xbe38e7b3	-0.18057136
149	0xbdcd7bb5	-0.10033361
150	0x3d0c531c	0.034258947
151	0xbda05b36	-0.07829897
152	0xbeadaa5d	-0.3391904
153	0xbda4fe9d	-0.08056376
154	0xbde23be7	-0.11046582
155	0x3e040323	0.12891822
156	0xbd5a4e39	-0.053297255
157	0xbccf4db8	-0.025305614
158	0x3bf59ccd	0.0074954988
159	0x3dec254a	0.1153055
160	0x3b7fbe87	0.0039023475
161	0x3afe9551	0.0019423162
162	0x3baa59c8	0.005198691
163	0x3d1e6145	0.038666982
164	0xbe256bd3	-0.16154413
165	0x3e255c64	0.16148525
166	0xbd63d5e5	-0.055623908
167	0x3c04769a	0.008084917
168	0xbe9c4c6d	-0.30527058
169	0xbe2693d9	-0.16267337
170	0xbdbfa8b2	-0.09358348
171	0xbdab8754	-0.08375421
172	0xbeb5cf16	-0.35509557
173	0x3c82fd07	0.015989793
174	0xbc5187dd	-0.01278874
175	0xbd76644b	-0.06015424
176	0xb7f639bf	-2.9352375e-05
177	0x3bb0b87c	0.005393086
178	0x3b0dca8f	0.0021635627
179	0x3e372301	0.17884447
180	0x3de11dc4	0.109920055
181	0x3ce853ed	0.028360331
182	0xbe004140	-0.12524891
183	0x3d5e1650	0.054220498
184	0x3e84c7d6	0.25933713
185	0xbcf02c8d	-0.029318118
186	0xbbb24bbf	-0.0054411585
187	0x3d67ca3a	0.056589343
188	0x3ead1540	0.33805275
189	0x3ba8f53e	0.0051561883
190	0x3c1f00b0	0.009704754
191	0xbe32a571	-0.17445923
192	0xbc70d2c0	-0.014698684
193	0x3c025d42	0.007956805
194	0x3c58feb7	0.0132443225
195	0x3e448b55	0.19193776
196	0x3de6ecb5	0.11275617
197	0x3e6226ae	0.22085068
198	0xbdbcb4a0	-0.09214139
199	0xbdd1da23	-0.102466844
200	0x3e428691	0.18996646
201	0x3ebe4d3f	0.3716831
202	0x3db99ccc	0.0906311
203	0xbe57e917	-0.2108501
204	0xbd0dfb96	-0.03466376
205	0xbb955489	-0.0045571965
206	0x3c1ce2c9	0.009575554
207	0xbd7ee6f5	-0.062231977
208	0x3b335c36	0.0027368194
209	0xbb924e8a	-0.004464929
210	0x3c029d6b	0.007972102
211	0x3da1c825	0.07899503
212	0xbdb0f50f	-0.08640491
213	0xba977462	-0.001155507
214	0x3e99e5c7	0.3005812
215	0xbd14adc1	-0.036298517
216	0xbd040c91	-0.032238547
217	0x3cad0b7e	0.021123644
218	0x3e997384	0.29970944
219	0xbe800424	-0.2500316
220	0x3daa08a8	0.08302432
221	0xbaa6efab	-0.0012736222
222	0xbc285da5	-0.010276233
223	0xbd273ccf	-0.040829476
224	0xba19918e	-0.0005858176
225	0xbb2766aa	-0.002554337
226	0x3b7574db	0.0037453684
227	0xbce407d9	-0.027835773
228	0x3da04a4b	0.0782667
229	0x3dc895fc	0.09794232
230	0x3e96fc7d	0.29489508
231	0x3d181f8a	0.037139453
232	0x3e265acd	0.16245575
233	0x3e2bfb48	0.16795075
234	0xbb998aa3	-0.0046857162
235	0xbcd383b1	-0.025819631
236	0x3e6a1152	0.2285817
237	0x3bb0628b	0.005382841
238	0x3ac47bae	0.0014990473
239	0x3ea2fc70	0.3183322
240	0xbc57aefc	-0.013164278
241	0xba28329c	-0.0006416233
242	0x3c02cda0	0.007983595
243	0xbe5283d1	-0.20558096
244	0xbda0788a	-0.07835491
245	0xbe8dcd31	-0.2769561
246	0xbe787a67	-0.24265443
247	0xbe4115b3	-0.18855934
248	0xbe663532	-0.2248123
249	0xbccd63f9	-0.025072085
250	0x3e50590c	0.20346469
251	0x3e08514e	0.13312265
252	0xbe32011a	-0.17383233
253	0x3b2638ef	0.0025363525
254	0xbc23e89d	-0.01000419
255	0x3e309dc0	0.17247677

main.1.bias f4 [20]
0	0x3e8c98ba	0.2746027
1	0xbdf1d26d	-0.11807714
2	0x3e8a1404	0.26968396
3	0xbd7d9851	-0.06191284
4	0x3e85ea84	0.26155484
5	0xbe8402c8	-0.25783372
6	0x3e08832f	0.13331293
7	0xbe5ae828	-0.21377623
8	0x3cd25348	0.025674477
9	0xbde888a2	-0.11354186
10	0xbd432733	-0.047644805
11	0x3d4407a3	0.047858845
12	0x3d65dc8a	0.056118526
13	0x3e9e77b7	0.3095071
14	0xbde6e504	-0.1127415
15	0xbe41bce6	-0.18919715
16	0x3e3446f8	0.17605197
17	0x3e5ea601	0.21743013
18	0x3e8e2462	0.27762133
19	0x3d148310	0.036257803

main.3.weight f4 [20]
0	0x3f785694	0.9700711
1	0x3f711129	0.9416681
2	0x3f6f4fa9	0.93480927
3	0x3f6dbaa3	0.9286291
4	0x3f731241	0.9494973
5	0x3f6bb6c2	0.9207574
6	0x3f5f199d	0.8714846
7	0x3f8103cd	1.0079285
8	0x3f6bde64	0.92136216
9	0x3f64c660	0.89365196
10	0x3f74176b	0.95348233
11	0x3f8172fb	1.0113214
12	0x3f8bc11d	1.0918308
13	0x3f6e2bbd	0.9303549
14	0x3f82ffd5	1.0234324
15	0x3f816a6e	1.0110605
16	0x3f84a959	1.0364181
17	0x3f796c1c	0.97430587
18	0x3f72f08c	0.94898295
19	0x3f748b4e	0.9552506

main.3.bias f4 [20]
0	0xbdf27cb5	-0.11840192
1	0x3cd1695f	0.02556294
2	0x3df6d4eb	0.1205233
3	0xbe09329d	-0.13398214
4	0x3e0d4540	0.13795948
5	0xbe0cf73c	-0.13766187
6	0xbdca203a	-0.09869428
7	0xbe23c5ce	-0.15993425
8	0xbe21bd78	-0.15794933
9	0xbe18c91b	-0.14920466
10	0xbdfd8484	-0.12378791
11	0xbde7c3f6	-0.113166735
12	0xbe085768	-0.13314593
13	0x3e1aaedb	0.15105765
14	0x3d8f8a02	0.07008745
15	0xbe6782c9	-0.22608484
16	0xbdcb4b59	-0.09926481
17	0x3daea132	0.08526839
18	0xbcc3f35e	-0.023919757
19	0xbd37b6bc	-0.044852003

main.3.running_mean f4 [20]
0	0x3eba265e	0.36357397
1	0x3e36a85f	0.17837666
2	0x3eb6b97f	0.35688397
3	0x3e74c729	0.23904099
4	0x3edb5c97	0.42844078
5	0x3d8e29b0	0.06941545
6	0x3eba03e0	0.3633108
7	0x3db40de0	0.08791709
8	0x3e872e7b	0.2640265
9	0x3e3c94f5	0.18416198
10	0x3e8668c5	0.26251808
11	0x3e66b0f5	0.22528441
12	0x3e803cbc	0.25046337
13	0x3f0a9c88	0.541451
14	0x3e5c71e9	0.21527828
15	0x3dcbefd4	0.09957853
16	0x3ec6743f	0.38760564
17	0x3ebb4a36	0.36580056
18	0x3eb1d511	0.3473287
19	0x3e8c2f1b	0.2737969

main.3.running_var f4 [20]
0	0x3e2cacf2	0.16862848
1	0x3e169cbb	0.14708225
2	0x3e2d176a	0.16903463
3	0x3e4fbdbc	0.20287222
4	0x3e9442e7	0.28957292
5	0x3e143315	0.14472611
6	0x3e43b3e4	0.19111592
7	0x3dcf8fbf	0.10134839
8	0x3e898271	0.2685733
9	0x3e0274d7	0.12739883
10	0x3e83ed25	0.25766864
11	0x3e54a44a	0.20765796
12	0x3e7d4c10	0.24736047
13	0x3e9a311b	0.3011559
14	0x3e467339	0.19379891
15	0x3dc0ac0f	0.094078176
16	0x3e8f2a96	0.27962178
17	0x3e2095ec	0.1568219
18	0x3e2e78b0	0.17038226
19	0x3e691af1	0.22764184

main.4.weight f4 [2048, 20]
0	0xbd54becc	-0.05193977
1	0xbe539cf1	-0.20665337
2	0x3cd7e46e	0.026354041
3	0x3e8a55cd	0.27018586
4	0x3e466b2d	0.19376822
5	0x3e6086d3	0.21926431
6	0x3d93443e	0.071907505
7	0x3dd6d407	0.1048966
8	0x3e932a53	0.28743228
9	0x3da1c867	0.07899552
10	0x3de0c4f5	0.109750666
11	0x3d3dc18a	0.04632715
12	0x3e812f62	0.25231463
13	0xbdddf14c	-0.10837039
14	0xbe0598e0	-0.13046598
15	0xbe2e4170	-0.1701715
16	0x3ea7fc96	0.32809895
17	0xbd85b809	-0.065292425
18	0xbe9974ce	-0.29971927
19	0xbe0580fd	-0.13037486
20	0xbe506aee	-0.2035329
21	0xbe536f2c	-0.20647877
22	0xbe43d6c3	-0.19124894
23	0x3d92382d	0.07139621
24	0xbeabea31	-0.3357711
25	0x3e92c820	0.28668308
26	0x3e96dcfc	0.29465473
27	0x3ea439d4	0.3207537
28	0x3e699957	0.22812401
29	0xbe02c9d1	-0.127723
30	0xbd27c489	-0.040958915
31	0xbd91fdbc	-0.07128474
32	0x3ea3cded	0.31993046
33	0x3c155f40	0.009116948
34	0x3d75cba4	0.06000866
35	0x3cced16c	0.025246345
36	0x3e3b1f34	0.18273622
37	0xbeafc457	-0.34329483
38	0xbe8d92e0	-0.2765112
39	0xbce9394c	-0.028469704
40	0x3d61dc2e	0.05514162
41	0xbcbf94ef	-0.023386447
42	0x3d801b2d	0.06255183
43	0xbd08ee44	-0.033430353
44	0x3e914906	0.28376025
45	0x3e136be3	0.14396624
46	0xbdf36f50	-0.118864655
47	0xbd533226	-0.051561497
48	0xbeb120ea	-0.34595424
49	0x3e4151f2	0.18878916
50	0xbde3ac71	-0.11116875
51	0xbeaaf503	-0.33390054
52	0xbe96c662	-0.2944823
53	0x3e103c50	0.14085507
54	0xbe7a8ad8	-0.24467027
55	0xbe1c2706	-0.15249261
56	0xbce65cad	-0.028120363
57	0x3e56de61	0.20983268
58	0xbda9320e	-0.082615
59	0x3e4b67c8	0.19863808
60	0x3db82ccc	0.08992919
61	0x3cc5cbe9	0.024145084
62	0xbdeee694	-0.11665073
63	0x3e97e340	0.29665565
64	0xbd0d0bbb	-0.034435015
65	0xbdea0b01	-0.1142788
66	0xbe3294ed	-0.17439623
67	0xbdc16011	-0.09442151
68	0xbd7f9ecc	-0.0624073
69	0x3c0b5e32	0.008506345
70	0xbd88675b	-0.066603385
71	0xbe8a26e3	-0.26982793
72	0xbe451a20	-0.19248247
73	0xbe442066	-0.19152984
74	0xbdbb0c86	-0.09133248
75	0x3e6dda8c	0.232279
76	0xbdbfa105	-0.09356884
77	0x3e358d7f	0.17729758
78	0xbe1f8c51	-0.1558087
79	0xbe451514	-0.19246322
80	0x3e67c0e4	0.22632176
81	0x3df609dd	0.120136
82	0x3e6c276a	0.2306191
83	0x3b97ae55	0.0046289363
84	0x3e495c1e	0.19664046
85	0xbbf39214	-0.0074331854
86	0x3e338d66	0.17534408
87	0x3df43de5	0.11925868
88	0xbe3471aa	-0.17621484
89	0xbe01f6b3	-0.12691765
90	0xbe8e500d	-0.2779545
91	0x3da3b1b2	0.07992877
92	0xbdd0ebe8	-0.102012455
93	0x3e4f3bc2	0.2023764
94	0x3e977b8d	0.2958645
95	0xbd342748	-0.043982774
96	0xbe9d52d8	-0.30727267
97	0x3e7c7dfc	0.24657434
98	0x3d8129b9	0.06306786
99	0x3e56603b	0.20935147
100	0x3e9cfa6c	0.30659807
101	0x3df6cf97	0.12051313
102	0xbc97e1cf	-0.018540291
103	0xbd5e533c	-0.054278597
104	0xbd1d55a0	-0.038411736
105	0x3e1318f2	0.14364985
106	0x3dcde2ca	0.10053022
107	0x3e50b5b6	0.20381817
108	0x3d913d0b	0.07091721
109	0xbe0711df	-0.13190411
110	0xbddfccab	-0.10927709
111	0x3e71edb7	0.23625837
112	0x3e52e0a7	0.2059351
113	0x3dc6d1c5	0.09707979
114	0x3de38608	0.11109549
115	0x3c0c6feb	0.008571605
116	0x3e6043cc	0.21900862
117	0xbe3806c2	-0.17971328
118	0x3e2f7c57	0.17137276
119	0x3dabb75a	0.08384581
120	0xbce66068	-0.028122142
121	0xbdeacf98	-0.114653766
122	0xbcefe3d9	-0.02928345
123	0x3a8b6b78	0.0010636887
124	0x3ea42bc5	0.32064644
125	0xbe941558	-0.28922534
126	0xbe1b977c	-0.15194505
127	0xbdc698ac	-0.096970886
128	0xbc464908	-0.012102373
129	0xbd85e4f6	-0.065378115
130	0xbe1fd250	-0.15607572
131	0xbe46ce50	-0.1941464
132	0xbe91ac67	-0.28451845
133	0x3e01952b	0.1265456
134	0xbc426089	-0.011863836
135	0xbdd0398e	-0.10167228
136	0xbdc1c79e	-0.09461902
137	0x3d429707	0.047507312
138	0x3e2f30c8	0.17108452
139	0x3e695794	0.22787315
140	0x3e4bcf2d	0.1990325
141	0x3e8634f0	0.26212263
142	0xba4042d9	-0.000733418
143	0x3cca2167	0.02467413
144	0xbde1acb2	-0.11019267
145	0x3e778184	0.241705
146	0x3e486e82	0.19573405
147	0x3e709065	0.23492582
148	0xbd249bdd	-0.040187705
149	0xbe0434d0	-0.12910771
150	0xbe1dc475	-0.15406974
151	0x3dda522e	0.10660206
152	0x3e820f94	0.2540251
153	0x3d8f518b	0.06997975
154	0x3d218581	0.03943396
155	0xbe388505	-0.18019493
156	0x3e890eca	0.26769096
157	0xbe0cd2a5	-0.1375223
158	0xbc041618	-0.008061908
159	0xbe985377	-0.2975118
160	0x3e9b5e79	0.30345514
161	0x3e3a1dfb	0.18175499
162	0x3e343234	0.17597276
163	0xbe8a1d0b	-0.26975283
164	0x3d8e5ca3	0.06951263
165	0xbd89ab2a	-0.067221
166	0xbdfc1c59	-0.123100944
167	0x3e0bac18	0.13639867
168	0x3d8aefb8	0.06784004
169	0xbe8dfa26	-0.2772991
170	0xbea674c9	-0.32510975
171	0x3d97b64b	0.074078165
172	0xbe54b683	-0.20772748
173	0x3d5fe97d	0.05466603
174	0x3db913e7	0.09036999
175	0xbdaf1c9b	-0.08550378
176	0x3d09bc9f	0.03362715
177	0x3d1ee5e0	0.038793445
178	0x3e57ae4b	0.21062581
179	0x3e149353	0.14509325
180	0xbd84d4f6	-0.064859316
181	0xbe99dfd5	-0.30053583
182	0xbe3e1efa	-0.18566504
183	0x3e253cd1	0.16136481
184	0x3e6313a5	0.22175463
185	0xbe43df98	-0.19128263
186	0xbe8d157c	-0.27555454
187	0xbe07813c	-0.13232893
188	0x3c9a5477	0.018839104
189	0x3bae8281	0.005325616
190	0xbe4dd1a0	-0.20099497
191	0xbe8ce1e3	-0.27516088
192	0xbd1185a3	-0.035527837
193	0xbd1d2cbd	-0.038372744
194	0xbdf383c9	-0.118903704
195	0x3e299c96	0.16563639
196	0xbdfdf78d	-0.12400732
197	0xbcfa7ead	-0.030577982
198	0xbc54d118	-0.012989305
199	0x3ddc2f5b	0.1075122
200	0xbe2feb5e	-0.17179629
201	0xbe8fab03	-0.2806016
202	0x3d74ba0b	0.059747737
203	0xbc89467b	-0.01675724
204	0xbe4965e9	-0.19667782
205	0x3e98db94	0.29855025
206	0x3e93baa8	0.28853345
207	0xbdb07b7d	-0.086173035
208	0x3e107465	0.14106901
209	0x3c865568	0.016398147
210	0x3e409e17	0.18810306
211	0xbe096ada	-0.13419667
212	0x3e72f225	0.23725183
213	0x3d22239d	0.039584745
214	0x3d1eabec	0.038738176
215	0xbb15a4d5	-0.0022833843
216	0x3ead6d06	0.3387224
217	0xbe8a87ec	-0.27056825
218	0xbe8d8c9c	-0.2764634
219	0xbe7cfbfa	-0.24705496
220	0xbe26a237	-0.16272818
221	0x3e096771	0.13418366
222	0x3dcac42a	0.099006966
223	0x3e16570b	0.14681642
224	0xbd534de6	-0.05158796
225	0xbe3c41b3	-0.18384437
226	0x3d8b72c6	0.06809001
227	0xbe6d60c8	-0.2318145
228	0xbe0c1b81	-0.13682367
229	0xbdc448dc	-0.09584209
230	0x3e4baef9	0.19890966
231	0xbe9ea2b1	-0.309835
232	0xbe6338ab	-0.22189586
233	0x3d63c522	0.055607922
234	0x3ddb3741	0.10703898
235	0x3d1a252a	0.0376331
236	0xbd919feb	-0.0711058
237	0x3e9254a1	0.28580192
238	0xbe02d4be	-0.12776467
239	0x3ea5c6ba	0.3237818
240	0xbe49cf73	-0.19708042
241	0xbdaf78d2	-0.085679665
242	0x3cef87f2	0.029239628
243	0x3e641069	0.22271885
244	0xbe618253	-0.22022371
245	0x3d9a88be	0.07545613
246	0xbe8aa3c0	-0.27078056
247	0xbca3f556	-0.020014446
248	0x3ccbcc24	0.024877615
249	0xbe59e92c	-0.21280354
250	0x3d505734	0.050864413
251	0x3d53f4eb	0.051747244
252	0xbe8bd7dc	-0.27313125
253	0xbe91aa9a	-0.2845047
254	0xbe469a97	-0.19394909
255	0xbd5bf2bf	-0.053698298

main.4.bias f4 [2048]
0	0x3d917064	0.07101515
1	0xbd1c3d84	-0.038144603
2	0x3e18dde5	0.14928396
3	0xbd984a96	-0.07436101
4	0x3e6e6096	0.23279032
5	0x3e89f7fe	0.26947016
6	0x3e3e5911	0.18588664
7	0x3c3810b4	0.011234451
8	0x3e7d6cad	0.24748488
9	0x3eae67f3	0.34063682
10	0xbd746cb7	-0.05967399
11	0x3ea950b7	0.33069393
12	0x3e330093	0.17480688
13	0x3ddc56c9	0.107587405
14	0xbd756d6a	-0.0599188
15	0x3e80dbc3	0.25167665
16	0xbcf98c52	-0.030462418
17	0xbda898d4	-0.08232275
18	0x3ddc4140	0.10754633
19	0x3e3f2ca7	0.18669377
20	0x3e526175	0.2054499
21	0x3d2b1477	0.041767564
22	0x3d980960	0.07423663
23	0x3de6fdb4	0.11278859
24	0x3cc036b6	0.023463588
25	0xbda05810	-0.078292966
26	0x3ea89361	0.3292494
27	0x3dc0aaa5	0.09407548
28	0xbd093709	-0.03349975
29	0x3ea2fdbc	0.3183421
30	0x3e7b4817	0.24539219
31	0x3d62b410	0.055347502
32	0x3daa2a1f	0.08308815
33	0xbdb6a016	-0.08917253
34	0x3e8c9812	0.2745977
35	0x3db97006	0.0905457
36	0x3e9616b3	0.29314193
37	0x3e831025	0.25598255
38	0x3da806d9	0.08204431
39	0x3d0f8b1d	0.03504478
40	0x3eb263f9	0.34841898
41	0xbd2044b9	-0.03912804
42	0x3dde9f43	0.108702205
43	0xbd16c509	-0.036809
44	0x3e1f5294	0.15558845
45	0x3da4266d	0.08015142
46	0x3e783a67	0.24241029
47	0x3e79ae50	0.24382901
48	0x3d900828	0.07032806
49	0x3dcf0286	0.10107903
50	0x3e86cbdb	0.26327404
51	0x3e88ce74	0.2672001
52	0x3d5e0146	0.054200433
53	0x3df54074	0.11975184
54	0x3e2e6bb0	0.17033267
55	0x3d12bd53	0.035825085
56	0xbd509cb3	-0.05093069
57	0x3e90194e	0.28144306
58	0x3e048573	0.12941532
59	0x3e18e9e9	0.1493298
60	0x3d827ef2	0.06371869
61	0x3e838ffa	0.25695783
62	0xbd0e1485	-0.034687538
63	0xbd341bdd	-0.043971885
64	0x3d001c80	0.03127718
65	0x3e3978d1	0.18112494
66	0x3db22e28	0.0870021
67	0x3d51e533	0.051243972
68	0x3e47c6f4	0.19509488
69	0xbdba8bda	-0.09108706
70	0x3dc9bf70	0.09850967
71	0x3c153048	0.009105749
72	0x3dbabb67	0.091177754
73	0xbd39d4fa	-0.045369126
74	0xbdd091b2	-0.10184039
75	0x3dd65459	0.10465307
76	0x3e80aa82	0.25130087
77	0x3d25b5da	0.04045663
78	0x3e248601	0.16066743
79	0x3dd33e38	0.10314602
80	0x3e9e5d65	0.3093063
81	0x3dae5c51	0.08513702
82	0x3e278a52	0.16361359
83	0xbbfed448	-0.0077767707
84	0xbd88e496	-0.06684224
85	0x3e0ba92b	0.13638751
86	0x3d2aae7d	0.04167031
87	0x3e2d70e6	0.16937599
88	0x3e8b1f66	0.27172393
89	0x3b0b1717	0.002122348
90	0xbbe63bf8	-0.007026192
91	0xbc76f42a	-0.015072862
92	0x3e5d28f8	0.2159766
93	0x3e9430ca	0.28943473
94	0x3dd1e013	0.10247817
95	0x3e0f4d98	0.13994443
96	0x3de478ed	0.11155877
97	0xbdd0dfef	-0.10198962
98	0x3db3684e	0.08760129
99	0x3e185960	0.14877844
100	0x3de614fd	0.11234472
101	0x3c19b9ad	0.009382647
102	0x3e3e0cff	0.18559645
103	0xbdd6587d	-0.104660966
104	0x3d6efcb2	0.058346458
105	0x3df7cadd	0.1209924
106	0x3e868e6c	0.26280534
107	0x3da8389a	0.08213921
108	0xbd94f7d5	-0.07273833
109	0x3d271965	0.040795702
110	0x3e528127	0.2055708
111	0x3e665097	0.2249168
112	0xbcdb624d	-0.026780272
113	0xbd278054	-0.040893868
114	0x3cb277ab	0.021785578
115	0xbd0706f9	-0.032965634
116	0x3e725f7c	0.23669237
117	0x3dd9dbfe	0.10637663
118	0x3e746cfe	0.23869702
119	0x3e9a5089	0.30139568
120	0x3abaf946	0.0014264963
121	0x3cf1d152	0.029518757
122	0x3df72be9	0.12068922
123	0x3d53683e	0.051613085
124	0x3e936269	0.28786018
125	0xbde108c3	-0.10987999
126	0x3bd37eda	0.006454331
127	0x3db1dd02	0.08684732
128	0xbd610d7b	-0.054944497
129	0xbe04c77a	-0.1296672
130	0xbdc47540	-0.09592676
131	0xbe267fff	-0.16259764
132	0x3b409895	0.002938782
133	0xbdc1316d	-0.09433255
134	0xbc8335a5	-0.01601679
135	0xbbaae2eb	-0.005215039
136	0x3e970677	0.2949712
137	0xbd9f7a72	-0.077870265
138	0x3e242515	0.1602977
139	0x3e02b6de	0.12765071
140	0xbe2c737b	-0.16840927
141	0xbdb12363	-0.086493276
142	0x3e865ced	0.26242772
143	0x3d2f3972	0.042779393
144	0xbe027bdb	-0.1274256
145	0xbccbcf27	-0.024879051
146	0x3e96ff3e	0.2949161
147	0x3d999077	0.074982576
148	0xbdd77826	-0.10520963
149	0x3e1ad370	0.1511972
150	0x3c696e99	0.01424756
151	0xbde272e1	-0.11057068
152	0x3e16077b	0.14651291
153	0x3dee35e7	0.11631375
154	0xbe23d6d5	-0.1599992
155	0x3c85f3a0	0.016351521
156	0xbd911304	-0.07083705
157	0x3dcfd57e	0.10148142
158	0x3e342dad	0.17595549
159	0xbd51db76	-0.051234685
160	0xbd78b40b	-0.060718577
161	0x3d8cfa23	0.06883647
162	0x3e00a241	0.12561895
163	0x3dcc1095	0.099641
164	0x3e0d4f0d	0.13799687
165	0x3e76a370	0.24085784
166	0x3d8e2f38	0.069426
167	0xbd73aa8d	-0.05948882
168	0x3caa7e6b	0.020812234
169	0xbd96cfb9	-0.07363839
170	0xbd403ff4	-0.04693599
171	0x3e82e804	0.2556764
172	0xbe043337	-0.12910162
173	0x3e11d94b	0.14243047
174	0xbe1f2aca	-0.15543666
175	0x3d8d4bc0	0.06899214
176	0x3dd80858	0.105484664
177	0xbca2313c	-0.019798867
178	0x3cc8b411	0.024499925
179	0x3e5970a7	0.2123438
180	0x3e2b8e9c	0.1675362
181	0x3e1b097a	0.15140334
182	0xbca99147	-0.020699156
183	0x3e3b1a88	0.1827184
184	0x3e39f853	0.18161134
185	0xbcae8c81	-0.021307232
186	0x3dfb38bd	0.12266681
187	0xbe46ed5e	-0.19426486
188	0x3e7a6f00	0.24456406
189	0x3e4ac28a	0.19800773
190	0xbd3df2cb	-0.046374124
191	0x3d1cbcad	0.038265873
192	0xbc7c5e33	-0.015403318
193	0xbdb590ac	-0.088654846
194	0xbe8a4a0a	-0.27009612
195	0xbea4ffb9	-0.3222635
196	0xbd47b4d1	-0.048756424
197	0xbcc4ecd0	-0.024038702
198	0xbe9119fc	-0.28340137
199	0xbd737e8a	-0.05944685
200	0xbddb4058	-0.10705632
201	0xbd3e17dc	-0.046409473
202	0x3d13e56f	0.036107477
203	0xbe383763	-0.17989878
204	0xbbab7604	-0.0052325744
205	0x3e2c31f6	0.16815934
206	0xbe866955	-0.26252237
207	0xbe313680	-0.17305946
208	0xbdba7c26	-0.09105711
209	0x3d29b4c8	0.041432172
210	0x3c7222ae	0.014778776
211	0xbe7365ec	-0.23769349
212	0xbdb5e628	-0.088817894
213	0xbe0adfdb	-0.13561957
214	0xbe2566a5	-0.16152437
215	0xbe3079d7	-0.17233978
216	0xbd81842a	-0.063240364
217	0x3d5a77f2	0.053337045
218	0xbc0c27e0	-0.008554429
219	0x3e043ef9	0.12914647
220	0x3d826b71	0.06368149
221	0xbde0948c	-0.10965833
222	0xbd2b19d6	-0.041772686
223	0xbe649f5b	-0.22326414
224	0x3cb68440	0.022279859
225	0x3dbfbf35	0.09362642
226	0xbdb1ae38	-0.08675808
227	0xbe19630e	-0.14979193
228	0xbcef5342	-0.029214505
229	0x3dc8f0f5	0.09811584
230	0xbd760bc7	-0.060069826
231	0xbeaa336c	-0.33242357
232	0xbdcc04d9	-0.09961862
233	0x3dc2e698	0.095166385
234	0x3d9ce1c6	0.0766025
235	0xbe0f41f3	-0.13990001
236	0xbe677928	-0.22604811
237	0x3d570ad9	0.05250058
238	0x3d9e0433	0.07715645
239	0xbe3ea260	-0.18616629
240	0xbd91bcc5	-0.07116083
241	0xbe633266	-0.22187194
242	0xbe39f2ca	-0.18159023
243	0x3c888b46	0.016667973
244	0xbdd7cd6a	-0.105372265
245	0xbe651b55	-0.22373708
246	0xba1ad0e5	-0.00059057615
247	0xbbb2d7e9	-0.0054578674
248	0xbe13a62b	-0.14418857
249	0xbe7c972a	-0.2466704
250	0x3dafae75	0.08578197
251	0xbe1e9416	-0.15486178
252	0xbe923eb8	-0.28563476
253	0xbe09b688	-0.13448536
254	0xbe894518	-0.26810527
255	0xbb3ba0e4	-0.0028629834

conv.0.weight f4 [20, 1, 5, 5]
0	0xbe3d19e7	-0.18466912
1	0x3d40496e	0.046945028
2	0xbd231c3e	-0.039821856
3	0x3c3fb39e	0.011700539
4	0x3c3eabeb	0.011637668
5	0xbd4ae0fd	-0.04953097
6	0x3e06963e	0.1314325
7	0xbd69d293	-0.057085585
8	0x3da1a714	0.07893196
9	0x3db226af	0.086987846
10	0xbe0f2ea5	-0.13982637
11	0xbe4bf0f8	-0.19916141
12	0x3cc1f1e1	0.023674907
13	0xbe40ebe5	-0.18839987
14	0xbe018971	-0.12650086
15	0xbe5f2e68	-0.21795046
16	0x3dee015a	0.116213515
17	0x3db93ca5	0.0904477
18	0xbe2f4162	-0.17114785
19	0x3e0c4e9f	0.13701867
20	0xbe1692f8	-0.14704502
21	0xbcdb8c83	-0.0268004
22	0xbe92c71e	-0.2866754
23	0xbe1ff1a3	-0.15619521
24	0x3d90e77e	0.07075404
25	0xbdf6aee3	-0.12045076
26	0xbdb5519b	-0.08853456
27	0xbd901aeb	-0.07036384
28	0xbcedabc2	-0.029012565
29	0xbe668b84	-0.22514158
30	0xbd9d6645	-0.07685522
31	0x3c604534	0.013688374
32	0xbcd8663f	-0.026415942
33	0xbd20f274	-0.03929372
34	0xbc0f682f	-0.008752867
35	0xbcf1b656	-0.02950589
36	0x3d0b0360	0.033938766
37	0x3d7101e1	0.058839682
38	0xbcb4cea0	-0.022071183
39	0x3c18ec2a	0.00933365
40	0x3d5a2ae9	0.05326358
41	0x3d77202a	0.06033341
42	0x3e1222eb	0.14271133
43	0x3de8c79f	0.113662
44	0x3da06f69	0.0783375
45	0x3e0a40bf	0.13501261
46	0x3e6294cb	0.22127073
47	0x3e2c4f47	0.16827117
48	0xbc19be83	-0.0093838
49	0x3e05fc60	0.13084555
50	0xbe13f20e	-0.14447805
51	0xbd999411	-0.074989446
52	0xbddc987d	-0.10771272
53	0xbdeefcaf	-0.11669289
54	0x3dbf150f	0.093301885
55	0xbdd143b5	-0.10217992
56	0xbd184ab6	-0.037180625
57	0x3c982171	0.018570634
58	0x3ddc2642	0.107494846
59	0x3d1ee95d	0.03879677
60	0xbe829400	-0.2550354
61	0xbcdb62de	-0.026780542
62	0x3d52d2ad	0.051470447
63	0xbd1efabd	-0.03881334
64	0x3d111ce9	0.03542796
65	0x3d99a9d3	0.075030945
66	0xbe9643d8	-0.29348636
67	0xbd3baa6d	-0.045816828
68	0x3dedacb5	0.11605207
69	0x3e1e2db9	0.1544713
70	0xbe5c6028	-0.21521056
71	0xbddcd1aa	-0.10782178
72	0x3e5e2997	0.21695553
73	0xbd49a22b	-0.04922692
74	0x3e8ddd36	0.27707833
75	0xbd7d0e9c	-0.06178151
76	0xbd541498	-0.051777452
77	0x3d3e2206	0.046419166
78	0xbd741028	-0.05958572
79	0x3cdef026	0.027214121
80	0x3e939ef0	0.28832197
81	0x3e129db6	0.14317974
82	0xbe01047f	-0.12599371
83	0x3e41ab60	0.1891303
84	0x3d1e73f1	0.03868479
85	0xbdcb6ef6	-0.099332735
86	0xbdf6aa79	-0.12044234
87	0x3d5fe0d8	0.054657787
88	0xbc669090	-0.014072552
89	0xbe6f7bb7	-0.23387037
90	0x3c2fdf0b	0.01073433
91	0xbe10192d	-0.14072104
92	0xbe635ef7	-0.22204195
93	0x3dd61a04	0.10454181
94	0xbe0ab5d1	-0.1354592
95	0xbc4d1165	-0.012516354
96	0xbd826c74	-0.06368342
97	0x3e10d922	0.1414533
98	0x3df1c6bb	0.11805483
99	0x3cbcc372	0.023042414
100	0x3d61c049	0.055115018
101	0xbcf9fc0a	-0.03051569
102	0xbd78d404	-0.06074907
103	0x3cd35c46	0.025800835
104	0x3c5527af	0.01300995
105	0xbe5abbe8	-0.21360743
106	0x3d82b409	0.06381995
107	0x3da27369	0.07932169
108	0x3df378e7	0.11888295
109	0xbd234f01	-0.039870266
110	0xbd14c869	-0.03632394
111	0xbda86392	-0.082221165
112	0x3d4bb909	0.04973701
113	0xbd8d1ed0	-0.06890643
114	0xbda70a48	-0.08156258
115	0xbdb0c756	-0.0863177
116	0x3e7983b5	0.24366648
117	0xbe24a6c9	-0.16079248
118	0xbe0952af	-0.13410448
119	0xbcc2d255	-0.023781935
120	0x3c9e514f	0.01932588
121	0xbe23f32a	-0.16010728
122	0x3d3e0e98	0.046400636
123	0x3e130688	0.1435796
124	0x3e39b8bf	0.18136881
125	0xbd9162c2	-0.07098915
126	0xbdb4acb4	-0.08822003
127	0x3dcdc353	0.10047021
128	0x3c22c023	0.009933504
129	0xbe145d35	-0.1448868
130	0xbe1f2a89	-0.1554357
131	0xbd7bed3f	-0.061505552
132	0xbdd432c7	-0.103612475
133	0xbdab7628	-0.08372146
134	0xbe7459bd	-0.23862357
135	0x3dcf4e11	0.10122312
136	0x3d8ef230	0.06979787
137	0x3d342f8b	0.043990653
138	0x3ddd12c0	0.10794592
139	0xbd01f1e4	-0.031724826
140	0x3e596b37	0.21232305
141	0x3e6c302c	0.23065251
142	0x3e94e96b	0.29084334
143	0x3e3b020f	0.18262504
144	0x3e169559	0.14705409
145	0x3e43e60d	0.19130726
146	0xbdc19667	-0.09452515
147	0x3ddfb714	0.10923591
148	0xbd6d0a20	-0.057870984
149	0x3da6c461	0.08142925
150	0xbe28491a	-0.16434136
151	0xbd60982b	-0.05483262
152	0xbeaea4c5	-0.34110084
153	0xbe2fa10a	-0.17151275
154	0xbd34e688	-0.044165164
155	0x3cce7a56	0.025204819
156	0xbce74b2d	-0.028234089
157	0xbd7f210b	-0.06228737
158	0xbcc625d3	-0.024187958
159	0xbcc38fd4	-0.023872294
160	0x3cc80a96	0.02441911
161	0x3de27393	0.110572
162	0x3d80b4c8	0.06284481
163	0xbd6c7b39	-0.0577347
164	0x3e369784	0.17831236
165	0xbd2adbb8	-0.041713446
166	0x3e568749	0.20950045
167	0x3e222634	0.15834886
168	0x3e29eacb	0.16593473
169	0x3cc774ff	0.02434778
170	0xbcfcecd3	-0.030874645
171	0xbdec7009	-0.115448065
172	0x3d6fa53b	0.058507185
173	0x3d87d520	0.06632447
174	0xbda5d604	-0.08097461
175	0xbe104500	-0.14088821
176	0xbde55683	-0.111981414
177	0xbe1232a6	-0.14277133
178	0xbdb87660	-0.09006953
179	0xbd9a228a	-0.07526119
180	0xbe2be11a	-0.16785088
181	0x3bd81e62	0.006595419
182	0x3d905b27	0.07048636
183	0xbd594902	-0.05304814
184	0x3e0d749b	0.13814013
185	0xbe033376	-0.128126
186	0xbc87524e	-0.016518738
187	0x3d2df688	0.04247144
188	0xbd1fd39b	-0.039020162
189	0xbc7baf10	-0.015361562
190	0xbe5ff569	-0.2187096
191	0x3c9ce533	0.01915226
192	0xbc62156c	-0.013799053
193	0xbe61eb5f	-0.22062443
194	0x3c5bc2a5	0.013413106
195	0x3c703082	0.014660003
196	0x3de67d35	0.1125435
197	0xbd6f59f4	-0.058435395
198	0x3e1a6b14	0.1507991
199	0x3e863886	0.26215
200	0xbdea1862	-0.11430432
201	0xbcf912e1	-0.03040451
202	0x3dfa4aa0	0.12221265
203	0xbc794f7b	-0.0152167035
204	0x3d560614	0.05225189
205	0x3dadfdba	0.0849566
206	0x3dc17dae	0.094477996
207	0xbe0204a0	-0.12697077
208	0xbd5b2743	-0.05350424
209	0x3e61cf67	0.22051774
210	0x3e071613	0.13192014
211	0xbe08abed	-0.13346834
212	0xbdc5eb43	-0.09664013
213	0x3e2bab42	0.16764548
214	0xbe0c55ba	-0.13704577
215	0xbda65a3d	-0.0812268
216	0x3d5603bf	0.052249666
217	0x3e09efe8	0.13470423
218	0x3dff7282	0.124730125
219	0xbe3c7c4c	-0.1840679
220	0xbe947f3d	-0.29003325
221	0xbe0fd94e	-0.14047739
222	0xbc49bc7f	-0.012313007
223	0x3d71da8f	0.059046324
224	0xbc0a6d71	-0.008448944
225	0xbd665bcc	-0.056239888
226	0x3cd17086	0.02556635
227	0x3d7acf5a	0.061232902
228	0x3da40ae9	0.080098934
229	0x3d825a88	0.06364924
230	0x3d981474	0.07425776
231	0xbc378795	-0.011201759
232	0x3d9d4391	0.07678903
233	0x3d807294	0.06271854
234	0xbdba3ec6	-0.09094004
235	0xbd76ac03	-0.060222637
236	0x3d5efd48	0.054440767
237	0x3be53795	0.0069951513
238	0xbd8c89d8	-0.06862229
239	0xbcf1bb48	-0.029508248
240	0xbe57981b	-0.21054117
241	0xbdd61fa9	-0.104552574
242	0x3da78397	0.08179396
243	0x3d12918a	0.035783328
244	0xbd8cc09b	-0.06872674
245	0x3e6698b0	0.22519183
246	0x3dff63a2	0.12470175
247	0xbd949e24	-0.072567254
248	0xbdb2428e	-0.087041005
249	0xbe397556	-0.18111166
250	0xbe030c72	-0.12797716
251	0x3e1878fa	0.14889899
252	0x3d4dd8ca	0.050255574
253	0xbe07d074	-0.13263112
254	0xbe0c4873	-0.13699512
255	0x3c4bfb57	0.012450061

conv.0.bias f4 [20]
0	0xbe2ce070	-0.16882491
1	0xbe52f531	-0.20601346
2	0x3e446300	0.1917839
3	0x3cde7fd3	0.02716056
4	0xbe07f2fe	-0.13276288
5	0xbd40422e	-0.046938114
6	0x3d885a2c	0.06657824
7	0xbdb2c7bd	-0.08729503
8	0x3e594bc2	0.21220306
9	0x3e721d20	0.23643923
10	0xbd9a172d	-0.07523952
11	0xbc385dcc	-0.011252832
12	0x3e28d26e	0.16486523
13	0xbc32099b	-0.010866548
14	0x3e845aef	0.25850627
15	0xbd99752d	-0.07493053
16	0xbe310525	-0.17287119
17	0xbca9c736	-0.020724874
18	0x3d3d0824	0.04615034
19	0xbcaf656d	-0.021410668

conv.2.weight f4 [20]
0	0x3f8384f6	1.0274951
1	0x3f9b601a	1.2138703
2	0x3f8adc60	1.0848503
3	0x3f861172	1.0474074
4	0x3f843e22	1.0331461
5	0x3f98d011	1.1938497
6	0x3f92f80a	1.1481946
7	0x3f9e16db	1.2350725
8	0x3f71c747	0.944447
9	0x3f860aa5	1.0471998
10	0x3f7e14a2	0.99250233
11	0x3f955dd6	1.1669261
12	0x3f819d54	1.0126138
13	0x3f9855fa	1.1901238
14	0x3f8580d5	1.0429941
15	0x3f95bb91	1.1697866
16	0x3f8ea13c	1.1142955
17	0x3f8f3810	1.1188984
18	0x3f94791f	1.1599463
19	0x3f8ebd80	1.1151581

conv.2.bias f4 [20]
0	0x3e0f2f2f	0.13982843
1	0x3e71b6ef	0.2360494
2	0x3e489783	0.19589047
3	0x3e0d11cf	0.13776325
4	0x3e026f6a	0.12737814
5	0x3e598fb4	0.21246225
6	0xbdfd4b76	-0.12367909
7	0x3e2cc076	0.16870293
8	0x3e0b598a	0.13608375
9	0x3e1cfedd	0.15331598
10	0x3e05096d	0.12991877
11	0x3e2f3042	0.17108253
12	0x3e01132d	0.12604971
13	0x3e070436	0.131852
14	0x3e063165	0.1310478
15	0x3e2a0940	0.16605091
16	0xbde854d4	-0.11344305
17	0xbe0e6fa9	-0.13909782
18	0xbe1d35c4	-0.15352541
19	0xbe03fc51	-0.1288922

conv.2.running_mean f4 [20]
0	0xbd86c2a7	-0.06580096
1	0xbc2c5a0b	-0.010519515
2	0x3e2081fb	0.15674584
3	0x3d856052	0.06512512
4	0xbc6f2d5a	-0.014598215
5	0x3de69dec	0.1126059
6	0x3dc56c5d	0.09639809
7	0xbced59b0	-0.02897343
8	0x3e5a742e	0.21333382
9	0x3e731249	0.23737444
10	0xbd881564	-0.06644705
11	0x3ddbb11f	0.107271425
12	0x3db5b18b	0.08871754
13	0xbc530b83	-0.012881163
14	0x3eb11074	0.34582865
15	0x3e18a34f	0.14906047
16	0xbc8dea50	-0.017323643
17	0x3dce8535	0.10084001
18	0x3d50ae5b	0.05094753
19	0x3d58def5	0.052947003

conv.2.running_var f4 [20]
0	0x3b806812	0.003918656
1	0x3c38159b	0.01123562
2	0x3d0ad6ad	0.033896137
3	0x3cb04508	0.021517292
4	0x3bf3f068	0.00744443
5	0x3d58edbc	0.052961096
6	0x3cf86a4f	0.03032413
7	0x3bb278d8	0.0054465346
8	0x3d13de76	0.036100827
9	0x3cc2873b	0.023746124
10	0x3b67fe1f	0.003539927
11	0x3d1a8cdd	0.037731994
12	0x3cd36ed2	0.02580968
13	0x3be2a5e4	0.0069167484
14	0x3d4d9f7d	0.050200928
15	0x3d5cd49e	0.053913705
16	0x3c84b7eb	0.01620098
17	0x3d385317	0.045001116
18	0x3ce7accb	0.028280636
19	0x3ceead78	0.02913545

conv.3.weight f4 [1, 20, 5, 5]
0	0xbdd5d404	-0.104408294
1	0xbdeafb22	-0.11473681
2	0xbe310fbd	-0.1729116
3	0xbe175652	-0.14779022
4	0xbd6a0802	-0.057136543
5	0xbe14968f	-0.14510559
6	0xbe3edb17	-0.18638264
7	0xbdf1da0e	-0.11809169
8	0xbe51e22e	-0.20496437
9	0xbe05582c	-0.13021916
10	0xbe216c21	-0.15763904
11	0xbe16fff2	-0.14746073
12	0xbdc130b2	-0.09433116
13	0xbe1075c5	-0.14107426
14	0xbd22058e	-0.03955608
15	0xbdd2a9ab	-0.10286268
16	0xbe19277e	-0.14956471
17	0xbdf90d52	-0.12160744
18	0xbe3400a8	-0.17578375
19	0xbe2d9480	-0.1695118
20	0xbdcd92cf	-0.10037767
21	0xbe336ae0	-0.17521238
22	0xbe02de7e	-0.12780187
23	0xbe3008d1	-0.17190863
24	0xbe3a4ca3	-0.18193297
25	0xbe3e0797	-0.18557583
26	0xbe195ad6	-0.14976057
27	0xbe2b2ff9	-0.16717519
28	0xbe45d9fc	-0.19321436
29	0xbdecac20	-0.11556268
30	0xbe437b86	-0.19090089
31	0xbe3150ac	-0.1731593
32	0xbe2588a5	-0.16165407
33	0xbe09e60c	-0.13466662
34	0xbe55a89c	-0.208651
35	0xbe427e64	-0.18993527
36	0xbe5f6ef2	-0.21819666
37	0xbe69d8f9	-0.22836675
38	0xbe48ba4e	-0.1960232
39	0xbe177b4b	-0.14793126
40	0x3d964998	0.07338256
41	0x3cba1b88	0.022718206
42	0x3ca5f6ea	0.02025934
43	0x3d5fd910	0.054650366
44	0x3ced4a13	0.028965985
45	0x3d1d1692	0.038351603
46	0x3cf7ccce	0.030249026
47	0x3d7356eb	0.059409063
48	0x3db5f611	0.08884824
49	0x3dca4eb1	0.098782904
50	0xbe38eb53	-0.18058519
51	0xbe48ae27	-0.19597684
52	0xbe1b61a4	-0.15173966
53	0xbe028191	-0.12744738
54	0xbe21fc6f	-0.15818952
55	0xbdf1f6d1	-0.118146546
56	0xbe025d67	-0.12730943
57	0xbe0cd863	-0.1375442
58	0xbe4ab1a5	-0.19794329
59	0xbe2034ef	-0.15645193
60	0xbe324285	-0.17408188
61	0xbe06817b	-0.1313533
62	0xbe3f55f4	-0.18685132
63	0xbe314b79	-0.17313947
64	0xbe02eba1	-0.12785198
65	0xbe6bef15	-0.23040421
66	0xbe020a8c	-0.12699336
67	0xbe3957dc	-0.18099922
68	0xbd2f3af4	-0.04278083
69	0xb9cf4d9f	-0.0003953995
70	0xbe1ec3cd	-0.1550438
71	0xbe194b5c	-0.14970154
72	0xbe0906a5	-0.13381441
73	0xbdac79c9	-0.08421666
74	0xbd61db41	-0.055140737
75	0xbe16b0de	-0.14715907
76	0xbe082835	-0.13296588
77	0xbe27c636	-0.16384205
78	0xbe0f5950	-0.13998914
79	0xbda517ff	-0.080612175
80	0xbde2ff74	-0.1108388
81	0xbe447ce7	-0.19188271
82	0xbe300224	-0.17188317
83	0xbe280e01	-0.16411592
84	0xbe260694	-0.16213447
85	0xbe086ba9	-0.13322319
86	0xbdbb8425	-0.09156064
87	0xbd8e7002	-0.069549575
88	0xbdc2b66f	-0.09507453
89	0xbe0526e8	-0.13003123
90	0xbde18314	-0.11011329
91	0xbdf8bee0	-0.121457815
92	0xbe0b9e22	-0.13634542
93	0xbdcc99f1	-0.099902995
94	0xbdcfe23e	-0.10150574
95	0xbde9ee57	-0.11422413
96	0xbe10c267	-0.14136659
97	0xbe5710f3	-0.2100256
98	0xbe46603d	-0.1937265
99	0xbe231b41	-0.15928365
100	0xbe165da5	-0.1468416
101	0xbe0e83f1	-0.13917519
102	0xbe0cccca	-0.13749996
103	0xbe3d53d3	-0.18489008
104	0xbdd91790	-0.10600197
105	0xbe1d18bf	-0.15341471
106	0xbe19d47f	-0.15022467
107	0xbe32db6e	-0.17466518
108	0xbddcef6a	-0.10787852
109	0xbdf17f2a	-0.11791833
110	0xbe1edfce	-0.15515062
111	0xbddfe3bd	-0.109321095
112	0xbde54065	-0.11193923
113	0xbdb23dbf	-0.087031834
114	0xbdb66dd7	-0.08907669
115	0xbe25a9da	-0.16178074
116	0xbe19b89f	-0.15011834
117	0xbe15c37c	-0.14625353
118	0xbe1db2ed	-0.15400286
119	0xbe2710dd	-0.16315027
120	0xbe04970b	-0.12948243
121	0xbe1a70dc	-0.15082115
122	0xbe1ea76c	-0.15493554
123	0xbdcb2812	-0.09919752
124	0xbe344ccf	-0.17607425
125	0xbe119be0	-0.14219618
126	0xbe3c03db	-0.18360846
127	0xbe48cf16	-0.19610247
128	0xbdd2e87d	-0.1029825
129	0xbe0731da	-0.1320261
130	0xbe182299	-0.14856948
131	0xbe24f140	-0.16107655
132	0xbe00faf5	-0.12595733
133	0xbe04aa68	-0.1295563
134	0xbe1d2451	-0.15345885
135	0xbe47c735	-0.19509585
136	0xbe4a4a20	-0.19754839
137	0xbe3d766a	-0.18502203
138	0xbe7d7435	-0.2475136
139	0xbe791429	-0.24324097
140	0xbe1c2c05	-0.15251167
141	0xbd8f2217	-0.06988924
142	0xbddb51ba	-0.107089475
143	0xbdcefc4a	-0.10106714
144	0xbd902ae4	-0.07039431
145	0x3dbd3a6b	0.09239658
146	0x3d1aa29e	0.03775274
147	0x3d4ccf1c	0.050002202
148	0x3d079af1	0.033106748
149	0x3d67f413	0.05662925
150	0x3e08740c	0.13325518
151	0x3e28692d	0.16446371
152	0x3db610fc	0.08889958
153	0x3e15b0e5	0.14618261
154	0x3e1541d1	0.14575888
155	0x3e2618c4	0.16220385
156	0x3df00843	0.11720326
157	0x3ddd0749	0.10792405
158	0x3e26f3a9	0.16303886
159	0x3d865320	0.065588236
160	0x3d94891f	0.07252716
161	0x3e01a3a9	0.12660088
162	0x3dbd2e1d	0.09237311
163	0x3de99a10	0.11406338
164	0x3df9c655	0.12196032
165	0x3da8681a	0.08222981
166	0x3dcef154	0.101046234
167	0x3dd3787c	0.10325715
168	0x3e0962cb	0.13416593
169	0x3ddd4b60	0.10805392
170	0x3e0a18ea	0.13486066
171	0x3e29b194	0.16571647
172	0x3e3ff434	0.187455
173	0x3e008635	0.12551196
174	0x3e3cde9a	0.18444291
175	0xbe418201	-0.18897249
176	0xbe3fb350	-0.18720746
177	0xbe0f4509	-0.13991179
178	0xbe1b9b52	-0.15195969
179	0xbded4f98	-0.11587447
180	0xbdf08e0c	-0.11745843
181	0xbe1cb893	-0.15304784
182	0xbe2d2767	-0.16909562
183	0xbe13e6d1	-0.14443518
184	0xbdbe0532	-0.09278335
185	0xbe136a08	-0.14395916
186	0xbe22c6cd	-0.15896149
187	0xbe17a618	-0.14809453
188	0xbe38f549	-0.18062319
189	0xbe0e32c9	-0.1388656
190	0xbdfc6a73	-0.12324991
191	0xbde6aa7c	-0.11262986
192	0xbe3a8cd3	-0.18217783
193	0xbe30c919	-0.17264213
194	0xbe0778de	-0.13229701
195	0xbe0a3f03	-0.135006
196	0xbe0a14e0	-0.13484526
197	0xbe2b0af4	-0.16703397
198	0xbd9c1fd6	-0.0762326
199	0xbdc60710	-0.09669316
200	0xbdf86a54	-0.121296555
201	0xbdbae4db	-0.09125682
202	0xbe241ef4	-0.16027433
203	0xbda4ad24	-0.080408365
204	0xbe15573f	-0.14584063
205	0xbe449b06	-0.19199762
206	0xbe4c874d	-0.19973488
207	0xbe3849a7	-0.17996846
208	0xbde10aeb	-0.109884106
209	0xbdfd0bd0	-0.12355769
210	0xbe09dac3	-0.13462357
211	0xbdd77e69	-0.10522158
212	0xbe24d7e5	-0.16097982
213	0xbe343adc	-0.17600578
214	0xbe355e2e	-0.17711708
215	0xbde499df	-0.11162161
216	0xbe2d8f7e	-0.16949269
217	0xbe181f4b	-0.14855687
218	0xbe2cb3ca	-0.16865459
219	0xbe162ba4	-0.14665085
220	0xbddadcaa	-0.106866196
221	0xbe349fd1	-0.1763909
222	0xbe078353	-0.1323369
223	0xbe02f898	-0.12790143
224	0xbe251c8a	-0.16124168
225	0xbe2a58ca	-0.16635433
226	0xbe101f9a	-0.14074555
227	0xbddb2753	-0.1070086
228	0xbe2282c4	-0.15870196
229	0xbdd543bd	-0.10413311
230	0xbe086ef5	-0.13323577
231	0xbe014cbe	-0.12626931
232	0xbdd90d35	-0.10598222
233	0xbe38b8a9	-0.18039192
234	0xbdd3803e	-0.10327195
235	0xbded0cd2	-0.11574711
236	0xbdf79ed7	-0.12090843
237	0xbe3e3bf3	-0.18577556
238	0xbde92ef0	-0.11385906
239	0xbdad2237	-0.084537916
240	0xbdfeb586	-0.124369666
241	0xbe341486	-0.17585954
242	0xbe18632e	-0.14881584
243	0xbdc9dcad	-0.09856544
244	0xbe09252e	-0.13393089
245	0xbe061f4d	-0.13097878
246	0xbe2d926a	-0.16950384
247	0xbe230242	-0.1591883
248	0xbdf7b8a1	-0.12095762
249	0xbe39b76f	-0.1813638
250	0xbe0c84c4	-0.13722521
251	0xbe38ecf6	-0.18059143
252	0xbdff22e8	-0.1245783
253	0xbe058047	-0.13037215
254	0xbdc4c536	-0.096079275
255	0xbda6f414	-0.08152023
