src/caches/cache_16_20_small2/param2img4.pt (torch, 184864 bytes, 19 tensors)

main.0.weight f4 [16]
00000000: 1e1e 513f bf36 523f a1c5 533f f5ad 8b3f
00000010: 3dcd 673f fde2 943f 3973 773f c331 843f
00000020: 8d37 6e3f 3423 943f 253d 763f 4b20 863f
00000030: d182 833f 47f6 4f3f 2c92 4f3f d25c 883f
0.8168658 0.82114786 0.8272343 1.0912462 0.90547544 1.1631771 0.9666019 1.0327686
0.93053514 1.1573243 0.9618705 1.0478605 1.0274297 0.81235164 0.81082416 1.0653327

main.0.bias f4 [16]
00000000: 5ed3 903d 49a3 df3c f44e c5bc bf45 d23a
00000010: 4260 313e a7c1 8cbd 5e95 d93d 0298 acbd
00000020: 4dcc 8fbd 22b2 4b3d 0e51 36bd 6191 b9bd
00000030: 6cd8 f1bd 525e 86bd 2891 23be 9394 a33b
0.07071565 0.02729954 -0.0240855 0.0016042514 0.17321876 -0.06872874 0.10624193 -0.08427431
-0.07021389 0.049730428 -0.044510894 -0.09060932 -0.11808857 -0.06560959 -0.15973341 0.0049920767

main.0.running_mean f4 [16]
00000000: 86c8 bdb7 3bf0 17b8 b4c8 4c3e 2263 893b
00000010: 45f1 1d3c 7be8 2b3b 7db9 f83e 7c1e 893b
00000020: 28e4 9d3c c39c 2b3b 83ba f83e fb15 893b
00000030: 860f ed3c 868f 4736 4bcb 4c3e d7ef 883b
-2.2623932e-05 -3.6224938e-05 0.19998437 0.0041927258 0.009640043 0.0026231098 0.48579016 0.004184542
0.019273832 0.0026185967 0.48579797 0.0041835285 0.028938066 2.9736852e-06 0.19999425 0.0041789818

main.0.running_var f4 [16]
00000000: b50d 8935 389c 8a35 6028 8235 18a8 fc3a
00000010: 0cc9 1738 d378 0139 20fa 8f3d c1eb fc3a
00000020: 3904 1539 3a9e 0139 1801 903d b79e fc3a
00000030: 35bd a639 2fc4 8b35 ee47 8e35 cc8b fc3a
1.0211285e-06 1.0327267e-06 9.697505e-07 0.001927617 3.6188445e-05 0.00012347409 0.070301294 0.0019296334
0.0001421132 0.00012361343 0.070314586 0.0019273375 0.00031802958 1.0413404e-06 1.0600759e-06 0.0019267737

main.1.weight f4 [20, 16]
00000000: 97da 20bb 4d0a 123c b58e 14bc 487a eebd
00000010: b457 37be d98c 9a3d 2dbe 163e a5f3 b4bc
00000020: f0c2 b5be 43a7 163d f74b 833e 2146 e03d
00000030: 668c a93b e673 7abb 20c3 3a3c 619a acbd
00000040: 2e9a 8bbb 87be 333c 3c1c 9d3a 2015 4ebe
00000050: 337b ee3d 5968 823e 5fdf e83d b224 01bc
00000060: f3c3 25bd eb06 87bd a47e 4d3d 7053 56be
00000070: 2ec6 80bd 7a36 13bc f1c5 90bb debd 6abe
00000080: acdc aa3a b151 87bb 38a5 a9ba c07e 28be
00000090: 0ecc 10be 1996 973e a446 4ebd d689 123e
000000a0: 83f3 6ebd 354d 433e 7f25 283d cc14 563d
000000b0: c6a4 d7bd 868d a43b 50f1 c13b 5419 92bd
000000c0: 8f8f 043c bd72 1cbc 008f b4ba 099e 03bc
000000d0: 82d6 503d 1c67 97be 39e7 50be 38f3 0a3e
000000e0: a84e e0bd f468 42be 9dbe 253e 71da 2f3e
000000f0: 0d20 cc3d 06be 013c 7cd3 0dbc 8f6c 86bd
00000100: da7d 193a 4450 11bc 6475 e5ba bf5f 183d
00000110: 9222 da3c 9a85 e2bd 4d29 0bbe 5d7c 7dbe
00000120: 1b8d 9cbc 0445 11be 5085 663e 711f 9ebd
00000130: 13d2 64be f117 393c b9cd 6e3a e37b febd
00000140: 4651 8f3b ba47 c33b d4c9 2f3c 8e16 773e
00000150: fcc0 bdbd a2a2 97be 5601 51be 4980 58bd
00000160: ee8d af3c a871 6abe 3e29 33be ea66 07be
00000170: 2e2d 19be 6cc7 a6bb 2826 5bbb f829 433e
00000180: cc2b 11bc f6bd b7bb 0e6f f93a c6b9 81bd
00000190: 26ba ef3d 0049 8abe da97 b33c 7618 d03c
000001a0: bb0c 033e 2f75 edb9 b226 71be 1abf 613e
000001b0: 3a6d 033e 4748 623c bae5 85bc de2a 213e
000001c0: b604 473b 4a11 08bb e9f9 f2bb 5394 41bd
000001d0: d08c 8dbd 6a66 853e b84c 5e3e 9eac 6fbe
000001e0: ff0e 04be 917a 003e 8989 1f3e dd84 d6bd
000001f0: 71b3 dcbd 907e 1bbc a273 043c accb 07bd
00000200: ddae af39 60e2 13bb e0fc d13b 7f83 433e
00000210: 8318 f9bd 1f64 0d3e a040 a03c 504f a93e
00000220: ce5b aa3d cea8 23bd 29ee fabd a3d9 083e
00000230: 8b19 81bc 9c90 a23b 6261 193c a801 823e
00000240: 6321 043c b80b 2fbb d48d baba 4595 943e
00000250: a065 0f3e 230c 90bd 872c 313e 859b 973d
00000260: 5681 62be 9934 d13d 3aee c2ba 01c7 fa3d
00000270: 3f52 b6bc a7cb a83b b6c9 7dba 86c2 933e
00000280: 46a3 c5bb 9cca 6938 8810 173b e3e8 2ebe
00000290: 979b 653c 1f16 d83d 4132 823e 7fdc 7dbd
000002a0: 76a2 54be 3612 363d c680 f1bd 8d99 a9bd
000002b0: 0193 09be c341 a439 91de 97ba 8092 35bd
000002c0: 96db 83bb 69e4 303b 671a b039 e788 e7bd
000002d0: a294 253e ca9c a7bd 2c4b 1b3e 01c5 c83c
000002e0: 81e4 46bd a802 283e 301b 1a3d 2639 86be
000002f0: 752a 8fbe b6ab aabb 8d0b 6dbb ad0a 04be
00000300: d596 9f3b fbc8 273c c5bc a0bb 0b41 3c3e
00000310: b3dd 9f3c b844 ddbd 692e 76be f19b 273e
00000320: ec07 aab9 8f71 b2bc b34a 17be 19dd 4f3e
00000330: 1ae0 e03d 414f 68ba cf18 04bc 54e2 dcbd
00000340: f581 51bb 5439 28bb decc 3f3b 5f57 81bd
00000350: 358f 9e3c 0bf5 fcbd 3150 d03c 831e 17be
00000360: 9ecf 703e c482 04bd 2a5b e3bc bd75 8a3d
00000370: f32a c33e 1a63 853b f13b 2abc 4740 743d
00000380: 98f5 0abc 96ff 77bb cdf8 203c 993d e03d
00000390: 527f bc3d 381d 88be 7c54 48bd 95b2 333e
000003a0: 2471 a53b c0a4 ebbd 3da8 0ebe f2ba 4bbd
000003b0: e56d 723e 18f0 a7bb 634c 5fbb 14cd 183e
000003c0: 5a18 303b 14e9 b7bb eedd 79bc 3c16 823e
000003d0: 592c b6bd 3fad 93be dea4 10be 09ba 2abe
000003e0: 80c6 243e 83f4 29be 1d45 adbc 5585 5c3e
000003f0: c595 2d3e 9eda 23bb 535d 933b fa79 453e
-0.0024544352 0.008913589 -0.009067227 -0.11644417 -0.1790455 0.07546396 0.14720984 -0.022088835
-0.35500288 0.036780607 0.25643894 0.10950876 0.0051742075 -0.0038216054 0.0113990605 -0.08427883
-0.004260323 0.010970718 0.0011986564 -0.20125246 0.11644592 0.25470236 0.1137073 -0.007882284
-0.040470075 -0.065931164 0.050169602 -0.20930266 -0.062878 -0.008985156 -0.0044181277 -0.22923991
0.0013035736 -0.0041296114 -0.0012942916 -0.16454601 -0.1414034 0.29606703 -0.050360337 0.14310393
-0.0583377 0.19072421 0.041051384 0.052265927 -0.10529475 0.0050217537 0.0059186593 -0.07133737
0.008090868 -0.00954884 -0.0013775527 -0.008033284 0.05098582 -0.29570854 -0.20400704 0.13569343
-0.109525025 -0.18985349 0.16185994 0.17173173 0.09967051 0.00791884 -0.008656379 -0.06563675
0.000585524 -0.0088692345 -0.0017506299 0.037200686 0.026627813 -0.11060639 -0.13589974 -0.24754472
-0.019110253 -0.14186484 0.22511792 -0.07720841 -0.22345762 0.011297212 0.00091096346 -0.12425973
0.004373702 0.005959478 0.010729272 0.24129698 -0.092653245 -0.29616266 -0.20410666 -0.052856717
0.021429982 -0.22894919 -0.17496201 -0.13222852 -0.14958641 -0.005089691 -0.003343949 0.19058979
-0.00886054 -0.005607362 0.0019030289 -0.063342616 0.11705427 -0.2700882 0.021922994 0.025402289
0.12797825 -0.0004529147 -0.23549917 0.22045556 0.12834635 0.013811178 -0.016344894 0.15739009
0.0030367798 -0.0020762258 -0.0074150455 -0.047260594 -0.069116235 0.26054698 0.21708953 -0.23405692
-0.12896346 0.12546755 0.15579809 -0.104745604 -0.10776413 -0.009490624 0.00808421 -0.03315322
0.00033508884 -0.002256535 0.006408319 0.1909313 -0.12162878 0.13807724 0.019562066 0.33068323
0.083182916 -0.039955907 -0.12252457 0.13364272 -0.01575925 0.0049610864 0.009361597 0.2539189
0.008064601 -0.0026709866 -0.0014232942 0.29020134 0.1400361 -0.07033565 0.17302142 0.0740271
-0.2211965 0.1021511 -0.0014872022 0.12244988 -0.022256015 0.0051512304 -0.00096812414 0.28859347
-0.0060314266 5.5740224e-05 0.0023050625 -0.17081027 0.014014146 0.10551094 0.25428966 -0.06197786
-0.20765099 0.04445096 -0.1179214 -0.082812406 -0.13434984 0.00031329514 -0.0011586716 -0.044329166
-0.0040239794 0.0026991612 0.00033589007 -0.11305409 0.1616998 -0.08184202 0.15165395 0.024508001
-0.048557762 0.16407263 0.037623584 -0.26215476 -0.2796208 -0.005208458 -0.0036170215 -0.12894697
0.0048702755 0.010240789 -0.0049053156 0.18384187 0.019514894 -0.10804123 -0.24041142 0.1636808
-0.0003243083 -0.021782665 -0.14774589 0.20299186 0.10980244 -0.00088619074 -0.008062555 -0.10785356
-0.003196833 -0.0025668936 0.0029266397 -0.06315493 0.019355396 -0.12351426 0.025428863 -0.14757733
0.235167 -0.03235127 -0.027753431 0.06760738 0.38118705 0.0040706517 -0.010390268 0.059631612
-0.008481406 -0.003784155 0.009824944 0.10949249 0.09203972 -0.26584792 -0.048908696 0.17548592
0.005048888 -0.11506033 -0.13931365 -0.04973883 0.23674734 -0.005125057 -0.003407263 0.14921981
0.0026869983 -0.005612502 -0.015250666 0.25407588 -0.088951774 -0.28843114 -0.14125392 -0.1667253
0.16091347 -0.1659718 -0.02115112 0.21535237 0.16951664 -0.0025002132 0.004497209 0.19284812

main.1.bias f4 [20]
00000000: 5d95 2fbe 7c2c 7e3e 8141 1cbe 8a11 abbc
00000010: 3929 813e 2c67 10be 6388 a23e 5581 aa3c
00000020: 76e9 56be 6073 a5bc 137c 173e e64a 9f3e
00000030: 37d6 e2bd 2fd3 643e 6fb1 093e 2595 033d
00000040: ecc8 823c ed34 a83e e027 dfbd 3473 b6bc
-0.17146821 0.24821657 -0.15259363 -0.020882387 0.25226763 -0.14101857 0.3174468 0.020813623
-0.20987496 -0.020196617 0.14793424 0.3111183 -0.110760145 0.22346185 0.13446592 0.032124657
0.015964948 0.3285288 -0.108962774 -0.02227173

main.3.weight f4 [20]
00000000: aa16 5b3f ccc0 703f cf45 643f 1ffa 7f3f
00000010: d91d 7a3f 5dbe 6b3f 1ab7 813f e166 763f
00000020: 8339 7f3f f5a4 763f c1a5 793f 9319 6c3f
00000030: ed4b 6f3f 5d65 803f 9007 823f f9d2 793f
00000040: 892f 813f 5083 7d3f 892a 863f 11b1 843f
0.8558146 0.94044185 0.8916902 0.9999103 0.97701794 0.92087346 1.0134003 0.9625073
0.9969713 0.96345454 0.97518545 0.92226523 0.9347523 1.0030934 1.0158558 0.97587544
1.0092632 0.9902849 1.0481731 1.0366536

main.3.bias f4 [20]
00000000: 398b 92bd 7bbd 073e 60b8 f4bd 5490 83be
00000010: 9f27 c2bd f446 36be e383 313b f254 9f3c
00000020: 515d 0e3d 514b cdbb 1654 febc ab49 443e
00000030: ac52 95bd faaa 1fbd c676 203e f289 dabd
00000040: a4c1 07be 4e24 e33d 16e8 4dbe 3d2d bcbd
-0.07155461 0.13255875 -0.11949229 -0.2569605 -0.094802134 -0.17800504 0.0027086667 0.019449685
0.034756962 -0.006265082 -0.031045955 0.19168727 -0.07291159 -0.038981415 0.15670308 -0.10670842
-0.13257462 0.11090909 -0.20108065 -0.09188316

main.3.running_mean f4 [20]
00000000: 7a43 bf3d f687 e03e c4c6 a13d 2f09 2a3e
00000010: b550 c13e ac7d 4c3e dd01 d63e 62fa 963e
00000020: 73ee 1b3e 41b7 8f3e db4c a13e d333 f83e
00000030: 2cb3 fd3d 074a a83e 77ce 9c3e 5f06 823e
00000040: 2931 a03e 88dc db3e 35e2 8e3e ef53 de3e
0.09339042 0.4385373 0.0789924 0.16605066 0.37756887 0.19969815 0.41798297 0.29487902
0.1522768 0.280695 0.3150395 0.4847704 0.1238769 0.32868978 0.3062627 0.25395486
0.31287506 0.4294169 0.27906957 0.4342341

main.3.running_var f4 [20]
00000000: 875e dd3d 0890 aa3e 4d6e 973d 53f5 0e3e
00000010: 1475 5b3e 8cf2 753e 2324 703e e1ed 803e
00000020: df49 883e 633d 8b3e 3c7e 343e bf2e 873e
00000030: 19cc 073e 9c67 5e3e 3124 713e 0bd9 823e
00000040: 3377 a83e f1f9 4a3e d0e4 a63e 3835 5d3f
0.10809045 0.33313012 0.07394085 0.13960771 0.2143138 0.24018306 0.23451285 0.25181487
0.2661886 0.27195272 0.1762628 0.26402852 0.13261451 0.21719211 0.23548962 0.25556216
0.32903442 0.19821908 0.32596445 0.8640933

main.4.weight f4 [2048, 20]
00000000: e907 14be 08f4 58bd 1bf7 9c3d 7bf7 c83d
00000010: 2ecc b8bb 8614 e83d 1b3f 723d bd9a a3be
00000020: e682 033e ac95 2d3d 208a a5be 68da 49be
00000030: c225 0d3e dae0 80be f21b 5f3e 5e26 a6bd
00000040: 7e92 9cbe f21b e2bd 43f6 0f3a 4957 91bd
00000050: 4bb7 933d 59fa 9dbc 1df1 853e dbcd 8cbe
00000060: 4654 3fbe cd9b 9bbd 954b 86be 6e2b a03e
00000070: db32 8bbd b069 623d 3d30 493e f9f5 b63e
00000080: 1674 e3bd ff08 4ebe 4753 91be 412a 98bd
00000090: c051 683d 1af7 77bb 9c7d 94bc 05d1 40be
000000a0: b174 47be 3142 50be 7fb6 d1bd 9965 443e
000000b0: 844a cabd e011 243e 5f8b f63d 4313 a3bd
000000c0: e47f 793e 97d7 35bd 9833 76be 514a 0fbe
000000d0: d4dc 83bd 0c64 8dbd 96d4 163d f49b f73d
000000e0: c87b 8bbe 4cbb e6bc 97b4 4bbe ee1e 13bd
000000f0: 1e57 2bbe 05c3 f83d 7368 a9bd 428e 52be
00000100: 4f98 193e 7926 c23d 4332 8b3e 9a58 7cbe
00000110: eebc 7cbe 0a27 46be da15 d23d 17f5 bcbc
00000120: 2647 6f3e f68a f9bc 479b 683e 119e 25bd
00000130: 0146 aabd ee06 203e 3cae 33be 7049 8b3e
00000140: b5c3 d1bd 2050 7fbd b8f9 29be 3bad 853e
00000150: 6734 0cbc c8e3 db3d e79a 90bd eb91 71be
00000160: 4702 373d 3da7 7c3e 8b35 b7bc 8139 833d
00000170: 9517 233e 8227 873c d631 183b e698 8e3e
00000180: 3c35 35be 35b1 71bd 8dba 5dbe ffd4 a439
00000190: 7735 003e 2585 14be 1b0d 41be ffe4 6dbe
000001a0: 43d2 923e c2ce 93be ba34 1cbd 2a0a 3f3e
000001b0: 46b1 e7bd cfc3 853c babe e4bd 8207 3e3e
000001c0: 7ded 9bbe 936c 7fbd 95b5 cb3d 87a5 94be
000001d0: 515f 5a3e c6d8 8abd 21d5 853e c144 8d3e
000001e0: a1c5 22bd 3c41 83bd bcb8 853e 2ee2 8bbe
000001f0: b7e3 85be 02cb 763d 858f 4dbe 7378 693e
00000200: eb6f 85be a8b3 92be 58a6 16bd 0d8e 0ebe
00000210: 25f1 0cbd b0bf 8e3e d741 b53d efe9 56bd
00000220: 8d9b 873e 321b 853d 201e 353e 5a5e 98bd
00000230: 4e4e cfbd 6c78 4e3d f186 4a3e aa4a 0bbe
00000240: 8618 953d e9b3 cfbd 08b1 3abe d05f 903e
00000250: ad17 6cbe 5c80 78bd 6e1d 913e 9800 1d3d
00000260: c731 bcbd a1ba 23be 6eb4 85be 42ae edbd
00000270: 9aff 843e fbef 213e deeb 3b3e a23f 433e
00000280: fa1f 863d 7455 a2be a58e 24bc 6282 1cbe
00000290: fd76 a6be 1d60 3abd e0ec 883d 3b6e 18bd
000002a0: dcc7 523e 165a 663e db51 01be 579b 3ebe
000002b0: ec90 1c3e 871e a8bd 7a01 b03e 5d24 00be
000002c0: 5a31 9dbe d9a6 e53d 9d8b b4bd a41d 3fbe
000002d0: 398d 8ebd a130 bd3d 7945 0fbe ff50 5abe
000002e0: 38fc 893c 462f 6cbe 00b6 a53c 81c2 4c3e
000002f0: fe3d 98bd 3388 4abe 1caa 423e d2fb e9bd
00000300: ab9c d93b bc5f b13e d492 023e 5814 b7bd
00000310: 3b9e b03d 0bf3 9c3e cdab af3d e1bd 14bd
00000320: 2c36 64be f196 47be ed40 98be f7b4 93bd
00000330: 476a c13c 7cba 833d a543 a43c 0107 90bc
00000340: 0c78 493e 1857 afbd 3f6b 633b 9ced 87bd
00000350: 086e 913e 0bf1 593e f1fd d53d 00b0 893e
00000360: a43c 4fbe fa47 883e f9fe 31be cc71 a0be
00000370: 371c b93d 3bbc 9d3d 29ee e9bc cb6b a2be
00000380: a169 6f3e e5dd 4cbd 69d9 9abe 0611 493e
00000390: 8ac1 e3bc 6706 80be c6a3 73bd c65b 603d
000003a0: 4c62 68bd 0f8d 27bb e865 8fbe 2a6b 1dbe
000003b0: 4899 833e 4190 67be 60ee f3bd 98d3 4a3e
000003c0: 5623 99be ddb7 a3bd 983d a4be 5467 a63d
000003d0: 2b87 26be b9ed 2c3e 597f 503d 0ac0 37bd
000003e0: a312 643d 5368 343e 4503 c0bc ee20 f63d
000003f0: ebf0 c63d f161 74be 06b6 053d bc77 073e
-0.14456142 -0.0529671 0.07664319 0.09812828 -0.0056395745 0.113320395 0.059142213 -0.31953993
0.12842903 0.042379066 -0.32331944 -0.19712222 0.13783935 -0.25171548 0.21788004 -0.08112787
-0.30580515 -0.110404864 0.0005491713 -0.070967264 0.07212695 -0.019284414 0.26160517 -0.27500805
-0.18684492 -0.07598076 -0.2622954 0.31283134 -0.06796809 0.055276573 0.19647308 0.35734537
-0.11106126 -0.20120619 -0.28383848 -0.07429934 0.056718588 -0.0037836493 -0.018126301 -0.18829735
-0.19478108 -0.2033775 -0.102398865 0.19179381 -0.09877494 0.16022444 0.12038302 -0.07962658
0.24365193 -0.044395056 -0.24043119 -0.13993193 -0.06438604 -0.06903848 0.03682383 0.120902926
-0.27242875 -0.028165482 -0.19893108 -0.03591817 -0.16732451 0.12146572 -0.08271875 -0.2056208
0.14999507 0.09479994 0.27186784 -0.24643174 -0.24681446 -0.1935083 0.10258074 -0.023066087
0.23366985 -0.03046177 0.22715484 -0.040433947 -0.083141334 0.15627643 -0.17546934 0.27204466
-0.10242406 -0.062332273 -0.16599166 0.26108727 -0.008557416 0.10736805 -0.07060795 -0.2359082
0.044679906 0.24673171 -0.022364398 0.064074524 0.15926965 0.016498331 0.0023223064 0.27851027
-0.17696089 -0.05900689 -0.21653195 0.00031439212 0.12520395 -0.14503916 -0.18852656 -0.23231886
0.28676042 -0.2886868 -0.03813622 0.18656221 -0.11313109 0.01632872 -0.11169191 0.18557552
-0.30454627 -0.062359404 0.099467434 -0.29032537 0.21325423 -0.067796275 0.26139167 0.27591518
-0.039739255 -0.06408927 0.26117504 -0.27321 -0.26150295 0.060252197 -0.2007428 0.22799854
-0.2606195 -0.28652692 -0.03677973 -0.13921376 -0.03440966 0.2788062 0.088504486 -0.05246919
0.26485863 0.06499328 0.17687273 -0.07439871 -0.10122357 0.050407812 0.19778039 -0.13602701
0.07280068 -0.10141737 -0.18231595 0.281981 -0.23055907 -0.060669288 0.28342766 0.038330644
-0.09189182 -0.15989162 -0.2611422 -0.11605503 0.2597626 0.15814202 0.18351695 0.19067243
0.06549068 -0.3170582 -0.010043775 -0.15284112 -0.32512656 -0.045501817 0.06685805 -0.0372145
0.20584053 0.22495303 -0.12628882 -0.18613945 0.15289658 -0.08208948 0.34376127 -0.12513871
-0.30701715 0.11213464 -0.088156916 -0.18663651 -0.0696053 0.09237791 -0.13991345 -0.2131996
0.0168439 -0.23064908 0.020228386 0.19996072 -0.07433699 -0.19778518 0.19010204 -0.11424984
0.0066409907 0.34643352 0.12751323 -0.08939427 0.0862393 0.30654177 0.0857769 -0.036313895
-0.2228629 -0.19491173 -0.29737034 -0.07212251 0.023610247 0.064320534 0.020051787 -0.017581465
0.196747 -0.08561534 0.0034701375 -0.06637117 0.2840426 0.21283357 0.10448826 0.2689209
-0.20237976 0.26617414 -0.1738242 -0.3133682 0.09038585 0.07701918 -0.028555946 -0.31722865
0.23380138 -0.050016303 -0.30243996 0.196354 -0.027802248 -0.25004885 -0.05948236 0.054775022
-0.05673437 -0.0025566255 -0.28007436 -0.15372911 0.25702882 -0.22613622 -0.11910701 0.19807279
-0.29909772 -0.079940535 -0.32078242 0.08125177 -0.162625 0.16887559 0.0509027 -0.044860877
0.055681836 0.17617922 -0.023439059 0.120179996 0.0971392 -0.23865487 0.032644294 0.13229269

main.4.bias f4 [2048]
00000000: dc9e 2d3e c637 8f3d 1ffd 993e 43fc 1f3e
00000010: 8dd7 263e e663 993e 2048 3c3e a5a1 f73d
00000020: 934f 283e 2104 763e 8a34 1f3e aaab 803e
00000030: 3a4b 8a3e 6dd7 663e 78db 3e3d b9f7 063d
00000040: 8654 643e 6db2 ccbc 3eee 553e 5f08 7e3e
00000050: 5ce3 7e3e dc83 273e 15d3 973c 6864 6d3e
00000060: 5869 6b3e 2528 8d3d 3d6b 213e e4d5 a83e
00000070: 6e36 c13d dbbf 1c3e c85f 473e 6639 2c3e
00000080: 9d78 e6bd 12eb 063e 6091 b9bd 1af6 863e
00000090: 404f 2a3e f386 afbd 2188 423e 523a 1b3e
000000a0: 8fe7 1d3e 4c2a 5c3d 2ecc 3f3e 3453 a13e
000000b0: ec01 0a3e 4d00 c43d 4afc a93d a36c 8b3e
000000c0: db1b cbbb e58d aa3e c0c1 d5bd 822f 803e
000000d0: 3672 9dbb 150e ef3b a279 663e 1f8c 713e
000000e0: 074f 313e f978 973e b7b2 a53e 9515 a93e
000000f0: d3b7 b03d 49f8 893d bcc7 433e 91d3 c0bc
00000100: 7940 6ebd f292 e2bd 4892 d9bb 423c dbbd
00000110: f226 4dbe bc25 b33d 57ed 6ebe 550d 7cbe
00000120: 9c97 1e3e 4a20 18bd 76cd 93be 0ee2 983d
00000130: 6343 0ebc 7dc3 4d3d 7362 79bd 63dd 83be
00000140: be4c b03d c831 08be 57d4 77bc 0abb 72be
00000150: 152b de3d 98ea c5b9 9c50 1bbe 78ea dbbd
00000160: 43d0 0cbe 010f 44be d91f 7abe ee1f f93d
00000170: 69e7 0b3d 5382 353d 28cf 4bbe 1e71 e0bc
00000180: e223 83bc f8b8 96bd a385 17be 8ed4 3e3e
00000190: 7625 153d 6c36 1dbc 1380 6b3c a18f 59be
000001a0: b9ec 32bc 4e19 2dbe 1a87 36be ff6f 993d
000001b0: 3796 66be 9f69 74be 5d7c 04be 6bd7 b23d
000001c0: ff0a 853d ab62 823d 2290 e33d 371e 64bd
000001d0: 5d2d 933d 6b28 77bd b681 08be c6f6 e93d
000001e0: d3b9 a23d ff76 da3c 5354 8f3d dbc9 bd3d
000001f0: 5160 c1bd 4c60 903d e736 7abe 49ac 553e
00000200: 1089 903d 794c 18be 8cbb 20be ab90 9c3c
00000210: 9b38 633d ded2 cebd df39 623d ba3a 41be
00000220: 53fb ee3d ddf7 013e 96ec 82be 6b80 f83d
00000230: 4280 afbd 30a6 dc3d 78fe c1bd 9438 233d
00000240: 35b9 5abd 7ffb 063d d39a cb3d 7128 40bd
00000250: 71c9 8fbe dcbf 5ebd 5813 3dbe 7ad4 f8bd
00000260: f3ec 2cbe 9ac4 a1bc fce9 b4bd be80 d5bd
00000270: 1bb5 003e 67cb a13d 6ef2 23be 2605 34bc
00000280: e0c0 44be 0fcc 01bd cf6f fabd cec9 48be
00000290: 1c54 e6bd 3fdb 123e ba03 1b3d ef06 843d
000002a0: b3e3 f0bd dadf 48bd e145 44be e5a2 f4bd
000002b0: 90b7 3dbe 168b dd3c 4f7d 60be ca90 6f3d
000002c0: cbf0 0bbe 4f9f 40bd e3a5 0fbe 61ff 28bd
000002d0: 9ee1 bf3d f49c 8abd 9e9b 143e 7201 a7bd
000002e0: 67d8 5bbe 9633 87be 0bc4 3fbb 236d 5f3d
000002f0: cdbc 80bb 2639 34bd 9fdb 1abc e68b 5a3b
00000300: 9807 32be 4641 ccbd 0289 983d 8dc9 c3bc
00000310: a073 e33d 4caa 93bd 4514 7bbe 2ca2 323e
00000320: a55e 373a c91e 453e c536 db3c e59d f8bd
00000330: 99d3 f1bd 8301 12be 959e 97bd bfc5 ea3c
00000340: 3164 aa3d 281d 0fbe 6779 373e 7245 75bd
00000350: 361c ca3b 112c fa3c c1cc 04be 11d4 0f3d
00000360: 8a6c 813b b39b 8c3d 1ebe 0fbd 8d1e fdbd
00000370: c2fc cbbd 5a10 24be 7ef4 bdbd 32e6 96bd
00000380: 6dca 053c 6072 10be b0ac f43d 6d88 c3bb
00000390: 7592 b83c a5c1 00be 4bc2 5abb f244 febd
000003a0: 478f 0f3e 997e ce3d 74ff 5fbd a504 e4bc
000003b0: dcea 44bd 7744 e93c d16c 033d e472 ffbd
000003c0: 731a 7d3d b855 033e 99a6 c2bd 902d 21be
000003d0: 31a7 543e e818 0ebd 2030 a9bd 8b79 4bbe
000003e0: 2b44 023e e1e0 373e a897 403c a8e3 283e
000003f0: 0cbc 13be 8418 1ebe a6f3 99bc 0139 8e3e
0.16955131 0.0699306 0.3007593 0.15623574 0.16293164 0.2995903 0.18386889 0.12091378
0.16436605 0.24025013 0.15547386 0.2513097 0.27010518 0.22543116 0.04659602 0.03295109
0.22297868 -0.024987424 0.20891663 0.24807881 0.24891418 0.16358894 0.018533269 0.23182833
0.22989404 0.068924226 0.15763564 0.32975686 0.0943421 0.15307562 0.19470131 0.16818771
-0.11253474 0.1317561 -0.09060931 0.26359636 0.16631794 -0.085706614 0.18997242 0.15158966
0.15420364 0.053751275 0.18730232 0.3150879 0.13477296 0.0957037 0.083000734 0.2723132
-0.006198389 0.33311382 -0.104373455 0.25036246 -0.004804875 0.00729538 0.22507337 0.23588608
0.17315303 0.29584482 0.3236291 0.33024278 0.08628812 0.0673681 0.19119161 -0.023538383
-0.058166955 -0.11063184 -0.0066397525 -0.10704853 -0.20034388 0.08747432 -0.23332725 -0.24614461
0.15487522 -0.03714017 -0.28867692 0.074649915 -0.008683058 0.05023526 -0.060884904 -0.25754842
0.086083874 -0.1330024 -0.015126309 -0.23704162 0.10848061 -0.00037749554 -0.15167469 -0.10738081
-0.1375132 -0.19146349 -0.24426211 0.12164293 0.034156237 0.04431374 -0.19903243 -0.027397688
-0.016008321 -0.07359499 -0.14797072 0.1863577 0.03641268 -0.009595495 0.014373797 -0.21246196
-0.010920697 -0.16904184 -0.17824975 0.07492065 -0.2251824 -0.23868416 -0.12938066 0.08732494
0.06496238 0.06366476 0.111114755 -0.055692878 0.07186387 -0.06034128 -0.13330731 0.114240214
0.079455994 0.02666807 0.069985054 0.092670165 -0.09442199 0.07049617 -0.24435006 0.20866503
0.070573926 -0.14872922 -0.15696543 0.019111952 0.055473905 -0.100988135 0.05523097 -0.18870059
0.1166903 0.12692209 -0.25571126 0.12133869 -0.08569385 0.10773885 -0.09472364 0.03984888
-0.053399283 0.03295469 0.0994164 -0.046913568 -0.28083375 -0.05438219 -0.1846441 -0.12149902
-0.16887264 -0.019747067 -0.088336915 -0.10424946 0.12569086 0.07900124 -0.16010448 -0.010987556
-0.19214201 -0.031688746 -0.12228357 -0.19608232 -0.11246511 0.14341448 0.03784535 0.06446635
-0.1176218 -0.049041606 -0.19167282 -0.11945132 -0.18527055 0.02704386 -0.21922801 0.05848769
-0.13666074 -0.04702693 -0.14028125 -0.041259173 0.09369205 -0.06768218 0.14512488 -0.081545725
-0.2146927 -0.26406544 -0.0029261138 0.05454744 -0.003928757 -0.043999813 -0.009451776 0.0033347546
-0.1738571 -0.099733874 0.07448007 -0.023899818 0.11106038 -0.07210216 -0.24519451 0.17444676
0.0006994999 0.19250025 0.026759515 -0.12139491 -0.11807937 -0.14258389 -0.07403294 0.028658746
0.08319891 -0.13975966 0.17917405 -0.05988068 0.006167914 0.03053859 -0.12968732 0.03511435
0.0039497064 0.06865635 -0.03509342 -0.12359343 -0.09960319 -0.16021863 -0.09275149 -0.07368125
0.008165938 -0.1410613 0.11947 -0.005967191 0.022530774 -0.1257387 -0.0033379968 -0.12415494
0.140195 0.1008274 -0.05468698 -0.027834246 -0.04807554 0.02847503 0.032086197 -0.124730855
0.061792802 0.12825668 -0.09504432 -0.15740037 0.20766903 -0.03469172 -0.08261132 -0.19870584
0.12721317 0.17956878 0.011754908 0.16493094 -0.14427203 -0.1543904 -0.018792938 0.27777866

conv.0.weight f4 [20, 1, 5, 5]
00000000: f7ea 8a3e 4438 c93d 1bfd d53d 96d6 b3bc
00000010: a418 543d 76d6 b1bd 939d 1e3c e1af a7bd
00000020: 347b 02be 35e9 173e 2ad7 c33d c2cd 28bd
00000030: 1661 0c3e fff3 7dbd a736 04bd 4edf 153d
00000040: 8cf3 373d 6b4f b73d 4a6c 0abe a78e 48be
00000050: 4068 0b3e 1cec 04be 0b69 3cbe 2079 b03d
00000060: 121e 3ebe a314 183e ea06 a3bd 5528 433e
00000070: d48e eb3d c6a1 2d3e 455e 5d3c c24d d7bc
00000080: c9f1 a3bd dd0e 423e baa8 363e 0a8c ffbc
00000090: 6724 893d bed1 233d 53f1 90bd b53f ea3d
000000a0: 357e 19be fdba 2ebe 9ff3 19be 0005 b53d
000000b0: e8ae 733c 9ca8 1dbe b2ba 5abd 5782 60be
000000c0: cbd0 42be d5e2 f7bd 170e f83d 6a6c 6e3e
000000d0: bb08 7c3e 45ae 3bbe b2b4 95bd 91c3 fcbd
000000e0: d9ce 243e 6a69 f1bc 5040 d0bd ad92 58be
000000f0: 3010 733d 1251 a03d 70a4 0d3d cfe4 17be
00000100: 9cd5 5bbe aa6e 33be 0116 f7bd 4d40 9f3d
00000110: 4faf aa3d 3722 b5bd 24db 8cbe 4cb5 b3bd
00000120: 11da 453d 594f b7bd ebe1 8bbc 9f52 34bd
00000130: 0df6 ad3c 7000 993d 7037 95bd eeda ee3c
00000140: 2a23 3c3e bc0b 1c3d 6123 753e 553e 833d
00000150: 16f9 be3d f28e ef3d c0d0 113e 5f46 79bd
00000160: ebbd 293e 43e8 0c3e da7e 4cbd 5adf 03be
00000170: 0211 893d 5851 143e 7f03 313d 4620 993d
00000180: 4c09 d23c 5b9e 8c3d 45d0 f5bd 1435 dcbd
00000190: d608 f8bd 8095 8f3b e432 f23d efc0 bfbc
000001a0: 6f44 63bd 907b e73c a041 7fbe 8fb1 77bc
000001b0: 7429 a53d ae52 06be 5280 b2bc b6d9 053d
000001c0: aa71 6f3e ef0d 1e3e b67e b9bd 55b1 a4bd
000001d0: 53ef 623b 15c6 313c 943a bf3d 00e4 fdbc
000001e0: bed4 de3d 0803 3d3e 8a4e c33d eb89 5abd
000001f0: 0e5a 9f3d 4aa0 05be 0dd1 7ebe 9d51 8fbe
00000200: 5ad8 97be e758 21be 66da b8bd d0d2 59be
00000210: eb84 e2bd 8ffb 48be a6da babd 9585 8e3d
00000220: 9e28 1b3d 10bd ec3c ecc7 2abc 4943 e93c
00000230: be77 74bd 6977 8dbd f368 b9bc 5f2c 12be
00000240: ab7c 3bbd 1437 9e3d 375c 2f3c 991c a0bd
00000250: deba 6dbd f773 983d 38c3 71be bd98 f73d
00000260: 06db e93d 3fbe 2cbe cd8d c63d ed20 febd
00000270: 7333 103e a642 2a3e 9965 36bd 1a45 003e
00000280: 98a7 febd edaa febc d157 a0bc 842a 823d
00000290: a3d9 b9bd d831 c83c 10fd 87bd 407f 3a3e
000002a0: 66cb 81bc 760f 23bd 4e30 1fbe 1117 79be
000002b0: 9338 803d 0ce3 9ebd 87e0 413d d383 3c3d
000002c0: e75b e73d a630 62bc 9c61 96bd 799a 0c3c
000002d0: 84a6 913e ec3d cc3d c9a1 e8bd 7a70 1c3e
000002e0: 0e3d ee3d d3c7 593d 5052 d33d 5aa6 523e
000002f0: 9701 c53d 867a 853e 64fd 513d 1d31 a33c
00000300: b74f f9bd 3681 6e3e 62d5 3c3e bceb 59bd
00000310: a322 c1bd e1b0 183e 815c 143e 1455 a7bc
00000320: f673 b83d 2494 c6bd 1306 ac3d 5b1e 51be
00000330: 6943 9dbd 745e 563e 487d 8d3e 997e 95bd
00000340: 659f f53d bfa8 91bd 4d77 873e 87ee 473e
00000350: 65a0 093e b732 babd 055e 443b 64b7 a03c
00000360: 4715 783d 0b02 6dbb 7341 083e bd35 903d
00000370: 3d8a 17be 25a1 a23d c78f c8bd ddf4 513d
00000380: 1a78 8fbc 062e 0f3c 421b 17be faeb 28be
00000390: 5c90 09be d10a 713b cb2a ccbd 5b03 67bd
000003a0: cbce f9bd a969 3dbd 4f18 e6bc dead a7bd
000003b0: 5e64 afbd b32f 09be 8e5c f4bd 2c5c 93bd
000003c0: 715a d2bd 1f82 7abe cc0e 7fbe db68 12be
000003d0: 7c5f fd3c 325d 19be e47b 45be 0c25 d4bd
000003e0: 42f3 d8bc e1db e63d e8bd 3cbe 5505 eabd
000003f0: 9a3b 1dbe c45b bbbd 27b6 eabd 7d72 f5bc
0.2713239 0.09825185 0.10448667 -0.021952908 0.05178131 -0.08683483 0.009681123 -0.08187843
-0.12742311 0.14835055 0.09562524 -0.04121185 0.1370891 -0.06200027 -0.032278683 0.036589913
0.04491 0.08950695 -0.13517871 -0.19585668 0.13613987 -0.12980694 -0.18399446 0.08616853
-0.18566158 0.14851622 -0.07960303 0.19058354 0.11501852 0.16956243 0.013511245 -0.026282195
-0.08005101 0.18950982 0.17837802 -0.031194706 0.06696396 0.039994948 -0.07077279 0.114379324
-0.1498955 -0.17063518 -0.1503434 0.08838844 0.014873244 -0.1539635 -0.053400703 -0.2192472
-0.1902496 -0.12103812 0.121120624 0.23283544 0.24612705 -0.18328197 -0.073098555 -0.12341989
0.16094531 -0.02946921 -0.10168517 -0.21149702 0.05934161 0.07827963 0.034580648 -0.14833377
-0.21468204 -0.17522684 -0.12064744 0.07775936 0.08334219 -0.088444166 -0.2751094 -0.08774814
0.048303667 -0.08950681 -0.0170755 -0.044024106 0.02123549 0.074707866 -0.072859645 0.029157128
0.18372789 0.03809713 0.23939277 0.06408373 0.09324853 0.116971865 0.14239788 -0.060858127
0.16576354 0.13760476 -0.049925663 -0.1287817 0.06692697 0.14484155 0.043216225 0.07476859
0.025639199 0.068661414 -0.12002615 -0.10752311 -0.1211106 0.0043818355 0.11826113 -0.023407428
-0.055485185 0.028257161 -0.24927378 -0.015118017 0.08064547 -0.13117477 -0.021789704 0.03267833
0.23383203 0.15435003 -0.09057371 -0.08041636 0.0034627512 0.010850449 0.09337345 -0.030992508
0.10880421 0.18458188 0.095364645 -0.053354185 0.077808484 -0.13049427 -0.24884434 -0.27991953
-0.2965725 -0.1575657 -0.09026031 -0.21271825 -0.11060508 -0.19627212 -0.09123735 0.069590725
0.037880532 0.028898746 -0.010423642 0.028474467 -0.059684508 -0.06907541 -0.022633051 -0.14274739
-0.04577319 0.07725349 0.010703138 -0.078179546 -0.05803954 0.074439935 -0.23609626 0.120896794
0.114187285 -0.16869448 0.09695015 -0.12408624 0.14082126 0.16626987 -0.044530485 0.1252636
-0.1243431 -0.031087363 -0.019573124 0.063557655 -0.09074714 0.02443783 -0.06640065 0.18212605
-0.015844058 -0.039809667 -0.1554577 -0.24325205 0.06260791 -0.077581495 0.047333267 0.046024155
0.11296826 -0.013805544 -0.07342836 0.008581751 0.28447354 0.09972748 -0.11358983 0.15277281
0.11632739 0.053169083 0.10318434 0.2057127 0.09619444 0.2607004 0.051267043 0.01992088
-0.121734075 0.23291478 0.18440774 -0.05320333 -0.094304346 0.14911224 0.14488412 -0.02042631
0.09006493 -0.09696224 0.08399596 -0.20421736 -0.07678873 0.20934469 0.27634645 -0.07299537
0.11993293 -0.07112264 0.26458207 0.19524585 0.13440092 -0.09091704 0.0029963267 0.019618697
0.060567167 -0.0036164548 0.13306217 0.070415 -0.14798827 0.07940892 -0.09793048 0.05125891
-0.017513324 0.008739 -0.14756492 -0.16496268 -0.13433975 0.0036780129 -0.099690996 -0.056399684
-0.12197646 -0.046243344 -0.028087763 -0.081874594 -0.085640654 -0.13397102 -0.11931716 -0.07195315
-0.102711566 -0.244637 -0.24907988 -0.14297812 0.03092932 -0.14976957 -0.19285542 -0.10358629
-0.026483182 0.11272407 -0.18431818 -0.11426798 -0.15354767 -0.09148362 -0.11460524 -0.029961819

conv.0.bias f4 [20]
00000000: f9ef 013e ca3a 523d 2c5d 52bd 5b6e f4bd
00000010: c6d5 2e3e 067b 5b3d 7bd1 6b3c 4037 5a3d
00000020: 86c9 023e 0a8e 133e 6e69 c23d 6ec4 ba3d
00000030: 41a2 a73d 19e2 c93d 4abd 783d 7cba 2abd
00000040: 9cbe 3fbe 4b3a ce3d 6825 0e3e a3c8 0ebc
0.12689199 0.051325597 -0.051358387 -0.11935111 0.17073736 0.05358412 0.014393206 0.053275347
0.12772188 0.14409652 0.09492765 0.09119497 0.08185244 0.09857578 0.060727395 -0.04168175
-0.18725055 0.10069712 0.13881457 -0.008714828

conv.2.weight f4 [20]
00000000: e261 943f 8016 8c3f 2dee 8c3f 8423 863f
00000010: 936a 833f 7087 9a3f 7587 8c3f dab8 863f
00000020: 98e3 8c3f df05 913f 8639 9a3f 4f1b 893f
00000030: dc46 843f dbf5 783f 0f04 803f 064e 903f
00000040: c5c9 8e3f 5ad2 8e3f 98e8 853f 5176 883f
1.1592371 1.0944366 1.1010185 1.0479589 1.0266899 1.2072582 1.0978838 1.0525162
1.1006956 1.1329917 1.2048805 1.0711459 1.0334125 0.97250146 1.0001239 1.1273811
1.1155325 1.1157944 1.0461607 1.0661107

conv.2.bias f4 [20]
00000000: 1b92 11be b85f 163e 4ed7 1c3e da50 07be
00000010: 0d5d 05be 7e0b 18be 67cf 183e c2cd 0cbe
00000020: e976 10be 31f8 10be 9e33 103e 7e9e 02be
00000030: 219c 06be 96c9 fe3d a32f 093e b529 143e
00000040: 8eb3 05be 6e56 1d3e c1d9 173e fe33 193e
-0.14215891 0.14684951 0.15316507 -0.13214436 -0.13023777 -0.14848134 0.14922868 -0.13750365
-0.1410786 -0.14157178 0.1408219 -0.12755772 -0.13145496 0.12440793 0.13397078 0.14469035
-0.13056776 0.15365002 0.1482916 0.1496124

conv.2.running_mean f4 [20]
00000000: ec7e 1f3e a283 a93d 96b5 87bc 2f38 d73d
00000010: a7db 743e 2ab5 38bd 4116 2a3d 9345 b93e
00000020: 274a 953e e27e 29bd 202a b43d 5476 373d
00000030: 0e90 5bbc 8671 983d 09f4 ac3d f9ae 4fbd
00000040: 2efe 9f3d f053 a83d 8c19 af3e 099c 533d
0.1557576 0.0827706 -0.01656608 0.10508763 0.23911916 -0.045094647 0.04152513 0.36185893
0.29158136 -0.04138077 0.08797097 0.04479058 -0.0134010445 0.07443528 0.084449835 -0.050703976
0.07812153 0.08219135 0.34199178 0.05166248

conv.2.running_var f4 [20]
00000000: 0fac f23c 2a33 bf3c 9df4 203c 58b0 d03c
00000010: 13aa eb3c 0441 8b3b 98e7 693c 4a06 643d
00000020: 1869 393d 7032 763b cf68 8e3c 0f80 983c
00000030: 2859 023c db13 9b3c ac80 9a3c 7c0d 9a3b
00000040: 4dff be3c 3018 9d3c 689c ff3c 7a12 2a3c
0.02962306 0.023339827 0.009823945 0.025474712 0.028767621 0.004249694 0.014276408 0.05567006
0.04526624 0.0037566684 0.017383961 0.01861575 0.007955827 0.018930366 0.018860184 0.0047013145
0.023315096 0.019176573 0.03120251 0.010380382

conv.3.weight f4 [1, 20, 5, 5]
00000000: 7a82 e03d 16b8 123e 04d6 1f3e 9ef0 e33d
00000010: becd 263e 301e 0d3e 516e 103e a046 0e3e
00000020: 121f 203e c331 fd3d 3b1f 0b3e 13b1 2a3e
00000030: 8db1 103e 3f5b db3d 04af ab3d 521b 323e
00000040: f35c fc3d ac6a 563e c2bd 213e c5ec 4c3e
00000050: b3ef 9c3d b8ec f83d 51d5 e13d 06dc a33d
00000060: b65f d83d 9b63 a2bd af0c 70bd 723a e0bd
00000070: 2414 f3bd aeed 37bd 80c5 08be ad2e 1bbe
00000080: be85 fcbd 5acc 23be 73ef 22be e28b 3ebe
00000090: 109a 19be 30f2 f5bd 6352 eabd 425f 0abe
000000a0: e4ce 2abe 59d4 edbd 4fce 19be 9ecb 12be
000000b0: 96c5 dcbd 83e1 1fbe 9adc 29be af57 debd
000000c0: ad34 fbbd 22d4 dabd 1940 94bd 0563 00be
000000d0: b417 22be 414d 20be 7b58 1ebe 6ca0 9fbd
000000e0: ffab 03be 0aeb f3bd 447f 35be e825 c8bd
000000f0: faa9 09be 6d6e 29be 7158 2abe 7104 0abe
00000100: 7129 ffbd 9c57 1cbe 1d27 f7bd 0e22 24be
00000110: 02b2 e5bd d96c 12be ef46 b7bd b4c9 41be
00000120: 9e83 49be 1112 10be 69be e5bd 739b 343e
00000130: 9131 293e b590 e33d d41e ec3d 88d6 c63d
00000140: 8ee1 103e c711 fa3d c6b5 b03d f5cf 0d3e
00000150: d9e4 133e f449 cc3d 1fdb 863d e20e e03d
00000160: d395 de3d e1cd fd3d da0e 883d 2e70 f13d
00000170: 5eb8 ec3d 2740 d83d 3de3 023e a339 263e
00000180: ec69 243e f2b1 2f3e ac5c 183e ca48 073e
00000190: 1f31 353e efbf 5d3d b4ed b13d ceb0 863d
000001a0: 4e0c 063e c585 413e 2f54 fc3d a8ef ad3d
000001b0: 823d ed3d b2f0 0c3e e148 ec3d 1590 113e
000001c0: 0f22 193e 159f fa3d 120c 0d3e 3ecc 2e3e
000001d0: 0f63 283e ce94 ab3d 17e0 ef3d 7a3d 503e
000001e0: 0d94 323e d58f 0a3e 20ac 0c3e 040c ee3d
000001f0: 4966 293e f2e3 9a3b 58dd 15bd ec87 c5bd
00000200: 2e64 fbbd 2b76 78bd de0e 4b3d 44b1 5cbc
00000210: 1637 10bd e204 51bd 6b9f a03a c936 873d
00000220: ae0f d03d 00a9 203d 9d39 9d3d 1e92 903d
00000230: e303 4b3e 9798 343e 2df2 283e 4679 583e
00000240: 9c01 ee3d c564 0d3e 9520 2c3e cc4d 2c3e
00000250: 6e86 4d3e fedd 1c3e 6d46 36be 476f 14be
00000260: f1d4 30be 2bcd e8bd 9411 c2bd b2cd 1abe
00000270: a116 23be 1aee 11be ba77 b0bd b56c c1bd
00000280: 53a2 34be ce10 e9bd 8ce9 e5bd c864 11be
00000290: bba7 d2bd 8a95 36be 7304 49be 0ffa fbbd
000002a0: 1bb7 4cbe faf3 24be 1f93 c7bd 6057 0dbe
000002b0: 7199 38be 76ab 07be e034 9fbd 453c d83d
000002c0: ebc1 ef3d 6435 143e 3bac d63d 5b2f 193e
000002d0: 4719 aa3d 031a e93d c828 013e d92c 1d3e
000002e0: d122 ae3d 9145 f13d e626 0a3e 811d 063e
000002f0: 933f 153e 122e ae3d c85d 7c3d 5b7c d43d
00000300: 3696 0f3e 47e8 c13d 72a5 1d3e 86b9 153e
00000310: 730f ce3d 6bff c73d 3745 df3d 79ad 2f3e
00000320: 8701 223e 88a8 0d3e c45e 593e 5c88 303e
00000330: 90ee c43d 7eb5 ce3d ecdc b23d 6f11 c83d
00000340: 4a7d c63d 13be c03d 8dd3 c73d 1caa e23d
00000350: 98a2 e23d 6b9d bf3d f4c0 953d 2dc5 e23d
00000360: edab 8b3d 0a74 2a3e 3e52 f83d d397 be3d
00000370: 0552 383e 5896 1f3e 9d88 373e 4161 c83d
00000380: 5d69 e53d 839a ef3d a76d 153e 6076 a93d
00000390: de22 133e e424 1c3e 8523 3f3e 98c9 0e3e
000003a0: 5a3c 123e 28ad 153e e79f 483e 87e0 cf3d
000003b0: 4695 253e c86a f73d 022d 3c3e 9adb 4b3e
000003c0: 8e7e d93d e406 ce3d aff5 233e 7237 1f3e
000003d0: df89 503e cd1e 083e 3607 163e 5b25 ed3d
000003e0: 8508 ef3d 2ac3 193e 65d5 fbbd da08 3dbe
000003f0: bc30 31be 057d 08be 1403 2ebe 5192 f9bd
0.109623864 0.14328036 0.15608984 0.111298785 0.16289422 0.13781047 0.14104582 0.13894129
0.15636852 0.12363007 0.13586132 0.16669111 0.1413023 0.10710763 0.08382991 0.17393234
0.12322416 0.2093913 0.15795043 0.20012195 0.076629065 0.121545255 0.11027015 0.080009505
0.105651304 -0.079291545 -0.058605846 -0.109486476 -0.11869076 -0.044904403 -0.1335659 -0.15154524
-0.12330197 -0.15995923 -0.15911655 -0.18608049 -0.15000176 -0.12009084 -0.11441495 -0.135129
-0.16680485 -0.11612768 -0.15020107 -0.14335486 -0.10779874 -0.1561337 -0.16588059 -0.10856568
-0.122659065 -0.106849924 -0.07238788 -0.12537773 -0.15829355 -0.1565447 -0.1546344 -0.0779427
-0.1285858 -0.119100645 -0.17724329 -0.09772855 -0.13443747 -0.1654603 -0.166353 -0.13478257
-0.12459076 -0.15267795 -0.12068007 -0.16028616 -0.11215593 -0.14299335 -0.089490764 -0.189246
-0.19679114 -0.14069392 -0.112179585 0.17637424 0.16522814 0.11111585 0.115293175 0.09708887
0.14148542 0.12210422 0.086284205 0.1384886 0.14442767 0.09975043 0.06584763 0.10940339
0.108684205 0.12392784 0.06643458 0.11788975 0.11558603 0.10559111 0.12781997 0.16232924
0.16056031 0.17157724 0.14879102 0.1321136 0.1769452 0.05413812 0.086879164 0.065766916
0.13090631 0.18898685 0.12320744 0.084929764 0.11583997 0.13763693 0.11537338 0.14215119
0.14954399 0.12237374 0.13774136 0.170701 0.16444038 0.083779916 0.117126636 0.20335951
0.1743929 0.1353143 0.13737535 0.116233855 0.16542925 0.00472688 -0.036588043 -0.09645066
-0.12274967 -0.06065957 0.049574725 -0.013469998 -0.035208784 -0.051030047 0.0012254542 0.06602246
0.10159241 0.03922367 0.076770045 0.0705912 0.19825701 0.17636333 0.16498633 0.21140012
0.11621401 0.13807972 0.16809304 0.16826552 0.20070812 0.15319058 -0.17800303 -0.14495574
-0.1726873 -0.11367258 -0.09476009 -0.15117529 -0.15926601 -0.14250985 -0.08616586 -0.09444562
-0.17640047 -0.11380158 -0.11226186 -0.14198601 -0.10285898 -0.17830482 -0.19630603 -0.12303554
-0.19991724 -0.16108695 -0.09744858 -0.13802862 -0.18027283 -0.13249001 -0.07773757 0.105583705
0.11706909 0.14473492 0.10482069 0.14959471 0.083056025 0.113819145 0.12613213 0.1534914
0.085027345 0.11780847 0.13491401 0.13097192 0.14575033 0.08504881 0.061612874 0.103752814
0.14022145 0.094681315 0.15395144 0.14621553 0.100615405 0.09765514 0.109018736 0.17156018
0.15820895 0.13833821 0.21227556 0.17239517 0.09615815 0.10093211 0.08733544 0.0976895
0.09691866 0.09411254 0.09757147 0.11067602 0.110661685 0.09356197 0.073121935 0.110727645
0.068199016 0.16645828 0.121250615 0.09306302 0.18000038 0.15584695 0.17923208 0.09784175
0.11201737 0.11699393 0.1459261 0.08274531 0.1436877 0.15248448 0.18665893 0.1394409
0.14280835 0.14616835 0.19592248 0.10150247 0.16170225 0.12080914 0.18376544 0.1990799
0.106198415 0.10059908 0.1601169 0.15548494 0.20365094 0.13293 0.14651188 0.115793906
0.11671547 0.15015855 -0.12296561 -0.18460408 -0.17303747 -0.13328941 -0.16993362 -0.12186111
