src/caches/cache_16_20_small2/param2img2.pt (torch, 184864 bytes, 19 tensors)

main.0.weight f4 [16]
0	0x3f4c55cc	0.79818416
1	0x3f53de94	0.827615
2	0x3f54161f	0.82846254
3	0x3f82b0b0	1.0210171
4	0x3f580e74	0.84397054
5	0x3f919e90	1.1376514
6	0x3f8a2bc1	1.0794603
7	0x3f7ecad1	0.99528223
8	0x3f877bf6	1.0584705
9	0x3f962aee	1.1731851
10	0x3f85c5c4	1.0450978
11	0x3f6d2516	0.92634714
12	0x3f919219	1.137271
13	0x3f52e97c	0.8238752
14	0x3f539391	0.82647043
15	0x3f868e9e	1.0512273

main.0.bias f4 [16]
0	0x3cb3f672	0.0219681
1	0x3d6a0e6b	0.057142656
2	0x3d040d5d	0.032239307
3	0xbc80f800	-0.015743256
4	0x3c95a25f	0.018265901
5	0x3c61e042	0.013786377
6	0x3d653e8e	0.05596786
7	0x3ba9eb36	0.00518551
8	0xbdf18a80	-0.11793995
9	0xbd6a60e5	-0.057221312
10	0x3e2f23ac	0.17103451
11	0xbd0dfaa2	-0.03466285
12	0xbd51cbc7	-0.051219728
13	0x3d66cdcb	0.056348603
14	0xbdbdecd0	-0.09273684
15	0x3cd7f86c	0.026363574

main.0.running_mean f4 [16]
0	0xb7b3208f	-2.1353624e-05
1	0x3656b06c	3.1991176e-06
2	0x3e4ccf9d	0.20001073
3	0x3b89c20d	0.004204041
4	0x3c1e58ab	0.009664695
5	0x3b2d1194	0.0026408182
6	0x3ef8bc8c	0.4858135
7	0x3b8943d0	0.004188992
8	0x3c9e280e	0.019306209
9	0x3b313abd	0.0027043067
10	0x3ef8bc72	0.48581272
11	0x3b8897d5	0.0041684904
12	0x3cece2e8	0.028916791
13	0xb80e0ba9	-3.3866298e-05
14	0x3e4cd851	0.20004393
15	0x3b891020	0.0041828305

main.0.running_var f4 [16]
0	0x3586a2c2	1.0031147e-06
1	0x35878e53	1.0099706e-06
2	0x358592ef	9.952035e-07
3	0x3afcf2ad	0.0019298397
4	0x381718d3	3.6024325e-05
5	0x390161ba	0.00012338805
6	0x3d8ff986	0.07030015
7	0x3afd01dd	0.0019302923
8	0x3913dcaf	0.00014101223
9	0x39030c4e	0.00012497717
10	0x3d90040a	0.070320204
11	0x3afc9bca	0.0019272503
12	0x39a76c40	0.00031933375
13	0x357de097	9.4576666e-07
14	0x358a36f6	1.0297797e-06
15	0x3afcec27	0.0019296453

main.1.weight f4 [20, 16]
0	0x3c1a0cc0	0.009402454
1	0xbc1754eb	-0.009236555
2	0xbc64740b	-0.013943682
3	0xbe1036c7	-0.14083396
4	0x3e10c01a	0.14135781
5	0x3e562eb0	0.20916247
6	0x3dc1bd0b	0.09459885
7	0xbe6972da	-0.22797719
8	0x3c6e3995	0.014540096
9	0x3e6bc740	0.23025227
10	0xbe00fe74	-0.12597066
11	0xbd2254ea	-0.03963176
12	0x3d48439a	0.048892595
13	0x3ba4c83d	0.005028753
14	0xbbfd5e2e	-0.0077321744
15	0x3e532846	0.20620832
16	0xbb16e2a7	-0.002302328
17	0xbc31f828	-0.010862388
18	0xbc97ff13	-0.018554246
19	0xbe33f46a	-0.17573705
20	0x3d77e878	0.060524434
21	0xbeac150c	-0.33609807
22	0xbcfe580e	-0.031047847
23	0xbd8dd383	-0.06925108
24	0x3d527f96	0.051391207
25	0xbe1c7b21	-0.15281345
26	0x3e61d6c7	0.22054587
27	0x3d3a9df9	0.04556081
28	0x3d90b990	0.07066643
29	0x3c8b3d9e	0.016997155
30	0x3a792187	0.0009503592
31	0xbd849c1a	-0.064750865
32	0x3c2e69fd	0.010645387
33	0xbb75f54a	-0.0037530237
34	0x3baedce8	0.0053363927
35	0xbd082f91	-0.033248488
36	0x3dbbda92	0.09172548
37	0x3e9b93bb	0.30386147
38	0x3cf23512	0.029566322
39	0xbc7e3beb	-0.015517215
40	0x3e20b37a	0.15693465
41	0x3e5eb439	0.21748437
42	0x3d480bfa	0.048839547
43	0x3ca883dc	0.020570688
44	0x3d9c0fc6	0.07620196
45	0xbb607d10	-0.003425423
46	0x3b346643	0.0027526773
47	0xbc7b24e0	-0.015328616
48	0xb9114936	-0.00013855551
49	0x3bc4e407	0.0060086283
50	0x3cbea692	0.023272786
51	0xbe0645e4	-0.13112599
52	0x3e323ec7	0.1740676
53	0xbe8dfa5c	-0.27730072
54	0xbe0f32c7	-0.13984214
55	0x3d321fb7	0.043487277
56	0x3e62ec9b	0.2216057
57	0xbebcc414	-0.36868346
58	0x3d900e18	0.07033938
59	0xbe3ad6f7	-0.18246065
60	0xbd27e40b	-0.040988963
61	0xbc7774f1	-0.015103565
62	0xbae3e3ae	-0.001738658
63	0x3dbea7d7	0.09309357
64	0x3a9a49aa	0.0011771221
65	0x3b0eb5dd	0.002177588
66	0xbbe05196	-0.0068456633
67	0xbcfa7da1	-0.030577483
68	0x3cca8a66	0.024724197
69	0x3e57d696	0.21077952
70	0xbe92ec75	-0.28696027
71	0x3d1a2544	0.037633196
72	0xbe466a83	-0.19376568
73	0x3e83fc90	0.25778627
74	0x3c1259a7	0.008932508
75	0x3cf5356b	0.029932698
76	0x3ddfa4dc	0.10920116
77	0xbc555b83	-0.013022306
78	0xbbc168d1	-0.0059023877
79	0x3e86cd76	0.2632863
80	0xbba430ef	-0.005010716
81	0x3c395138	0.011310868
82	0x3c12eace	0.008967115
83	0xbe3f9f41	-0.18713094
84	0xbd38a107	-0.045075443
85	0x3e307035	0.17230304
86	0x3db7f056	0.08981387
87	0x3d0570e7	0.032578375
88	0x3e58376a	0.21114889
89	0x3dd6d2c6	0.104894206
90	0x3c490202	0.012268545
91	0xbdcf849c	-0.10132715
92	0x3e94ad0a	0.29038268
93	0xbc38155c	-0.011235561
94	0xbba14e3f	-0.0049226577
95	0xbd5ec9d0	-0.054391682
96	0xb9e4dcde	-0.00043652108
97	0xbb671068	-0.0035257582
98	0xbafbc693	-0.001920896
99	0xbe2a40ac	-0.16626233
100	0xbc7b4c36	-0.015337994
101	0x3e247369	0.1605965
102	0xbe77fd30	-0.24217677
103	0x3e2a01fc	0.1660232
104	0xbe59e7f5	-0.21279891
105	0x3e1e342f	0.15449594
106	0x3d33d67c	0.04390572
107	0x3e1635a7	0.14668904
108	0xbe851ec8	-0.26000047
109	0x3b001932	0.0019546268
110	0xbb2fb990	-0.0026813485
111	0xbe90b828	-0.282655
112	0xbba39c02	-0.004992963
113	0x3c057d49	0.008147546
114	0x3b08e566	0.0020888685
115	0xbddcb02b	-0.10775789
116	0xbe3e414e	-0.185796
117	0xbcd12cda	-0.025534082
118	0x3d9d56b7	0.07682555
119	0xbdc4e6d6	-0.09614341
120	0xbe9ff0d8	-0.31238437
121	0x3e238714	0.15969497
122	0xbd054d24	-0.03254427
123	0xbd12cdb2	-0.035840698
124	0xbeeb6d6d	-0.45981923
125	0x3bf644e4	0.0075155366
126	0x3b9e94a5	0.004839497
127	0x3e29adfb	0.16570275
128	0x3c14a3a3	0.009072217
129	0xbb43f02c	-0.0029897792
130	0xbcc7cebb	-0.024390569
131	0xbe97e8fe	-0.29669946
132	0x3e1a797b	0.15085404
133	0xbe6c7afa	-0.23093787
134	0x3e3268b1	0.17422749
135	0xbda32a81	-0.07967091
136	0xbe556fc0	-0.2084341
137	0xbe3958ea	-0.18100324
138	0xb9a9e54b	-0.00032405028
139	0xbe9c131f	-0.30483338
140	0xbdef7bd4	-0.1169354
141	0x3c340b9b	0.010989095
142	0x3cba4802	0.022739414
143	0xbe84e45b	-0.2595547
144	0xbba83b56	-0.0051340265
145	0x3bff8993	0.0077983825
146	0x3ba36891	0.0049868305
147	0xbd328ffe	-0.043594353
148	0xbd4dcb78	-0.05024287
149	0xbe945c9b	-0.28976902
150	0xbd4b054e	-0.049565606
151	0x3dae9192	0.08523859
152	0xbdd1a61a	-0.102367595
153	0xbe6aa5d8	-0.22914827
154	0x3de45cec	0.11150536
155	0xbd1f9e98	-0.038969606
156	0x3d9897c8	0.07450825
157	0x3b6d8321	0.003624149
158	0x3c5dd378	0.013539188
159	0xbce0ebbb	-0.027456155
160	0x3c2d4621	0.010575802
161	0xbbdff642	-0.006834776
162	0xbbeba729	-0.007191558
163	0x3dc0f4f0	0.09421718
164	0x3d1fd9dc	0.039026126
165	0x3d87031f	0.06592392
166	0x3e48aa98	0.19596326
167	0x3e6b5d05	0.22984703
168	0xbe612a68	-0.21988833
169	0xbe45cbe6	-0.19316062
170	0x3e64d586	0.22347078
171	0x3db5bd44	0.0887399
172	0xbd2a0776	-0.04151102
173	0x3be06aec	0.0068486836
174	0xbb92f338	-0.0044845603
175	0x3dad892b	0.08473428
176	0x3bc6384d	0.006049192
177	0xbb746d0e	-0.0037296447
178	0xbc99992c	-0.018749796
179	0xbe0c95df	-0.13729046
180	0x3d975a5e	0.07390283
181	0x3e8bcf5e	0.27306646
182	0x3e462ffb	0.1935424
183	0x3d9c1fc1	0.07623244
184	0xbc6046e9	-0.013688781
185	0x3eab93f1	0.33511308
186	0x3d9f4c30	0.077782035
187	0x3e43808c	0.19092005
188	0xbe410043	-0.18847756
189	0x3b204d1b	0.002446002
190	0x3b8872c9	0.004164074
191	0xbdf399f8	-0.118946016
192	0x3c0d3167	0.0086177355
193	0xbb5a7ad7	-0.0033337378
194	0x3bed0f00	0.007234454
195	0x3b0fbe68	0.002193356
196	0xbdd28bf4	-0.102806
197	0xbe7b870f	-0.2456324
198	0xbb7f4f41	-0.003895715
199	0x3e4986b2	0.19680288
200	0xbd8e38a6	-0.069443986
201	0xbe4d1f6d	-0.20031519
202	0xbe382148	-0.17981446
203	0xbd62ad45	-0.055341024
204	0x3df272e0	0.11838317
205	0x3b1b92a2	0.0023738523
206	0x3b2d05f7	0.002640126
207	0x3e20d99b	0.1570801
208	0x38c3b839	9.332639e-05
209	0x3b0d4cd1	0.0021560679
210	0x3b9fb06e	0.004873327
211	0xbe4359e0	-0.19077253
212	0x3da6a4c9	0.08136899
213	0xbc775168	-0.015095092
214	0xbe27c69f	-0.16384362
215	0xbe159ee4	-0.14611393
216	0x3e91f4ab	0.2850698
217	0x3d611d4f	0.05495959
218	0x3e2be798	0.16787565
219	0x3e3ee48e	0.18641874
220	0x3e997120	0.2996912
221	0x39be122b	0.0003625316
222	0x3b9b7174	0.0047437493
223	0xbd8a6545	-0.06757597
224	0x3c55ec45	0.013056819
225	0x3b24d7e7	0.0025153102
226	0x3ad761d7	0.0016432357
227	0xbe3c8d70	-0.18413329
228	0xbdb8aab1	-0.09016932
229	0x3e88914d	0.26673356
230	0x3e4fd939	0.20297708
231	0x3e67fd1c	0.22655147
232	0x3d53509c	0.051590547
233	0x3e7f4d59	0.2493185
234	0xbddb855d	-0.107187964
235	0x3e3bec60	0.18351889
236	0x3e8b5189	0.27210644
237	0xbc284dd6	-0.010272464
238	0x3b55ef79	0.0032643958
239	0xbe300a8e	-0.17191526
240	0xbb9fbda3	-0.0048749014
241	0x3c1f3cbe	0.009719072
242	0x3bd691e3	0.006548153
243	0xbdd203eb	-0.102546535
244	0xb9de8ba4	-0.0004244718
245	0x3e3a5641	0.18196966
246	0x3e236bdd	0.15959115
247	0xbe078385	-0.13233764
248	0xbd04e012	-0.032440253
249	0x3d68bca4	0.056820527
250	0x3e0442cd	0.12916107
251	0xbe25cf7a	-0.16192427
252	0xbd217201	-0.039415363
253	0xba6de0d1	-0.0009074333
254	0x39a88958	0.00032145786
255	0x3ce09ce9	0.02741857

main.1.bias f4 [20]
0	0x3da6f8e9	0.081529446
1	0x3dde2743	0.10847332
2	0xbe33ca48	-0.17557633
3	0xbe6d2e41	-0.23162176
4	0x3c2369da	0.009973967
5	0x3e252491	0.1612723
6	0xbdfcb64e	-0.12339459
7	0x3db0fd99	0.0864212
8	0xbe2188e6	-0.15774879
9	0x3e935276	0.2877385
10	0xbd864782	-0.06556608
11	0x3d4286df	0.047491904
12	0xbd863600	-0.065532684
13	0xbd25d2bd	-0.04048418
14	0xbd16c45a	-0.03680835
15	0x3e70fbca	0.2353355
16	0x3eb04d22	0.34433848
17	0x3c48fba8	0.012267031
18	0xbcb1b083	-0.021690613
19	0x3c04a141	0.008095087

main.3.weight f4 [20]
0	0x3f62e2b7	0.8862719
1	0x3f6c24f7	0.92243904
2	0x3f857f33	1.0429443
3	0x3f87ad51	1.0599767
4	0x3f806a14	1.0032372
5	0x3f84eab5	1.0384127
6	0x3f7f8ca4	0.99823976
7	0x3f846801	1.034424
8	0x3f60b49b	0.8777558
9	0x3f658c63	0.8966734
10	0x3f717187	0.94313854
11	0x3f8280cb	1.0195554
12	0x3f7cfd4d	0.98824006
13	0x3f8cff48	1.1015406
14	0x3f72a984	0.9478991
15	0x3f67557e	0.90364826
16	0x3f65dfd2	0.8979465
17	0x3f6cc98b	0.9249503
18	0x3f7897dc	0.9710672
19	0x3f5d51cc	0.8645294

main.3.bias f4 [20]
0	0xbe30073a	-0.17190257
1	0xbe300969	-0.1719109
2	0xbddc94f5	-0.10770599
3	0xbdf07c2e	-0.117424354
4	0xbe0690b2	-0.13141134
5	0xbdc21c7b	-0.094780885
6	0xbd19c3c2	-0.037540205
7	0xbdc198fe	-0.09453009
8	0x3d1f5b98	0.03890571
9	0xbdec2cdf	-0.11531996
10	0xbd5b52f2	-0.0535459
11	0xbda84212	-0.08215727
12	0xbd9f918a	-0.07791431
13	0xbdc8f404	-0.09812167
14	0xbdd45c7b	-0.10369202
15	0xbc73c955	-0.014879544
16	0x3e244f7a	0.16045943
17	0xbbb9f17a	-0.005674538
18	0xbdae0770	-0.08497512
19	0xbd779f7b	-0.060454827

main.3.running_mean f4 [20]
0	0x3e6a15e0	0.22859907
1	0x3e9c6b3f	0.30550572
2	0x3e056fac	0.1303088
3	0x3e11ae76	0.14226708
4	0x3e7398f8	0.23788822
5	0x3ea6d10b	0.32581362
6	0x3e13ed65	0.14446028
7	0x3ed8f3d4	0.42373526
8	0x3e9bde19	0.30442885
9	0x3ed6e5de	0.4197225
10	0x3e7982be	0.2436628
11	0x3e8c37e5	0.27386394
12	0x3e2945d4	0.16530544
13	0x3e56e33a	0.20985118
14	0x3e3a2e14	0.1818164
15	0x3ec1303e	0.37732118
16	0x3ee68ef6	0.45030946
17	0x3e863ff9	0.26220682
18	0x3ea61ca3	0.32443723
19	0x3e8755e5	0.2643272

main.3.running_var f4 [20]
0	0x3e233f39	0.15942086
1	0x3e69d2a9	0.22834267
2	0x3e1e0ecb	0.1543533
3	0x3e5ee958	0.21768701
4	0x3e4f3ba8	0.20237601
5	0x3e7532e0	0.23945189
6	0x3e04f46d	0.12983866
7	0x3ed67b69	0.4189103
8	0x3f01ff33	0.5078003
9	0x3e5b11e0	0.21393538
10	0x3e43c05b	0.19116347
11	0x3e500aee	0.2031667
12	0x3e1dd704	0.15414053
13	0x3e449f7b	0.19201462
14	0x3e3245c1	0.17409422
15	0x3e4324a1	0.19056942
16	0x3e81e8bb	0.25372872
17	0x3e2b3418	0.16719091
18	0x3e9ca011	0.3059087
19	0x3e7a7dc8	0.24462044

main.4.weight f4 [2048, 20]
0	0x3da09124	0.078401834
1	0xbe56829f	-0.20948265
2	0xbe4dfb6d	-0.20115443
3	0x3d4b32ca	0.049608983
4	0xbd1aa340	-0.037753344
5	0x3dcbcbf2	0.09951009
6	0x3da693f7	0.08133691
7	0x3d325417	0.043537226
8	0xbd20a5da	-0.03922067
9	0x3ca783c6	0.020448577
10	0x3d6f1a32	0.05837459
11	0xbe041c13	-0.12901334
12	0x3da15381	0.07877255
13	0xbe87c2e9	-0.26515892
14	0x3dbd83c3	0.09253647
15	0x3dd6a27e	0.10480212
16	0xbe84e1a3	-0.25953397
17	0xbdd3c1cb	-0.103396975
18	0x3d09699e	0.03354799
19	0xbba15185	-0.004923048
20	0xbd39d6cd	-0.045370866
21	0x3df7c4f4	0.12098113
22	0xbeab65d1	-0.33476117
23	0xbb96cc2d	-0.0046019764
24	0xbe0ebe49	-0.13939776
25	0x3db1feb4	0.08691159
26	0xbe202514	-0.15639144
27	0x3d81dc1d	0.063408114
28	0xbe23f6c3	-0.16012101
29	0xbd6512e0	-0.055926204
30	0x3e7f88ab	0.24954478
31	0xbd680420	-0.05664456
32	0xba3dcb38	-0.000724006
33	0xbdbae0fb	-0.09124943
34	0x3d6300d0	0.055420697
35	0x3bffceb2	0.0078066224
36	0x3c0ceb91	0.008601085
37	0xbe0637b7	-0.13107191
38	0x3e5ae390	0.2137587
39	0xbe45fdf3	-0.19335155
40	0x3e6e520a	0.23273483
41	0xbe317483	-0.17329602
42	0x3dcb0340	0.09912729
43	0xbe5876cf	-0.21139072
44	0xbd9f58fe	-0.07780646
45	0x3d916c23	0.071007036
46	0xbdf668c2	-0.120317
47	0xbe38bce5	-0.18040808
48	0xbe600b68	-0.21879351
49	0xbe0dad57	-0.13835655
50	0xbdaed7ab	-0.08537229
51	0x3c873f29	0.01650961
52	0x3dfec74a	0.12440355
53	0x3d14d762	0.036338218
54	0xbdbff13a	-0.09372182
55	0xbd497228	-0.049181134
56	0xbe0c8e02	-0.13726047
57	0xbcb5448c	-0.022127412
58	0xbc08e382	-0.008355023
59	0x3dba11cc	0.09085426
60	0xbcda9d55	-0.02668635
61	0xbe5cff23	-0.21581702
62	0xbe040b78	-0.12895
63	0x3ded7bb8	0.11595863
64	0xbe2c15e6	-0.16805229
65	0x3d8e4d17	0.069482975
66	0x3d525a0f	0.051355418
67	0xbe8ef019	-0.27917555
68	0x3d48571d	0.048911203
69	0x3dddf62d	0.1083797
70	0x3de7f66b	0.113262974
71	0x3b30c3c7	0.002697216
72	0x3d18e6fc	0.03732966
73	0x3e6638cb	0.22482602
74	0x3e131d0f	0.14366554
75	0xbc8489bd	-0.01617896
76	0x3d96bb81	0.07359982
77	0xbe3fe914	-0.18741256
78	0xbec13e33	-0.37742767
79	0xbe79ecd1	-0.24406745
80	0x3df4038c	0.11914739
81	0x3c00fc4c	0.007872652
82	0x3e7c071a	0.24612084
83	0x3e2172f7	0.15766512
84	0xbdf5770e	-0.119855985
85	0xbe04c45d	-0.12965532
86	0xbe6ce3e3	-0.23133807
87	0x3ddd1b95	0.107962765
88	0xbd0f392f	-0.034966644
89	0x3da44766	0.08021431
90	0xbe44f4b6	-0.19233975
91	0xbdf806cd	-0.12110672
92	0x3bab298e	0.0052234596
93	0x3d4c6b88	0.049907237
94	0x3d174dcb	0.036939424
95	0x3d52c322	0.051455624
96	0xbd15c742	-0.03656698
97	0xbe426f52	-0.18987778
98	0xbdf8272c	-0.121168464
99	0xbdf1c88a	-0.11805828
100	0xbe1999db	-0.15000097
101	0xbdcaf260	-0.099095106
102	0x3d3b7311	0.045764033
103	0x3d53d0ae	0.051712684
104	0x3e23422e	0.15943214
105	0x3e2f1b07	0.17100154
106	0xbd43b135	-0.04777642
107	0x3dfee1fd	0.124454476
108	0xbdef33f2	-0.1167983
109	0x3df93d88	0.12169939
110	0xbdf4434a	-0.11926897
111	0xbdbde06d	-0.092713214
112	0xbd4d0724	-0.050055638
113	0x3ab284d0	0.0013619903
114	0xbe2011aa	-0.15631738
115	0x3d248ddc	0.04017435
116	0xbdfe7c71	-0.12426079
117	0x3ddb9681	0.10722066
118	0x3db7e59a	0.0897934
119	0x3d37743b	0.04478858
120	0xbe772775	-0.24136145
121	0x3e68acf2	0.22722223
122	0x3abb1341	0.0014272706
123	0x3d0c2309	0.0342131
124	0xbe2f4848	-0.17117417
125	0x3db549bc	0.08851954
126	0xbd874a22	-0.066059366
127	0xbdb5f520	-0.088846445
128	0xbe0e9675	-0.13924582
129	0xbe0989d6	-0.13431486
130	0xbcd9260e	-0.026507404
131	0x3e08c7f1	0.13357522
132	0x3e648bdd	0.22318979
133	0xbe493d57	-0.19652306
134	0xbe7ea420	-0.24867296
135	0x3d11fa71	0.03563923
136	0xbc1cb410	-0.009564415
137	0xbd13f414	-0.036121443
138	0x3d415470	0.047199667
139	0xbd709ce5	-0.058743376
140	0x3e0e2399	0.13880767
141	0xbca8861d	-0.020571763
142	0x3e4a41ca	0.19751659
143	0x3d25dead	0.040495563
144	0xbdbb33cb	-0.09140738
145	0x3d4bb3dd	0.049732078
146	0xbe0f24b6	-0.13978848
147	0x3d8423d0	0.06452143
148	0xbe04adc2	-0.12956908
149	0xbd0216c8	-0.031760007
150	0xbe3c3812	-0.18380764
151	0xbc74f1d5	-0.014950235
152	0x3e454bc9	0.19267191
153	0xbcd7b1bf	-0.026329873
154	0xbe565f23	-0.2093473
155	0xbe01ca68	-0.12674868
156	0x3e3cd7d9	0.18441714
157	0xbc2ea861	-0.010660262
158	0xbda90003	-0.08251955
159	0xbdc67677	-0.09690564
160	0x3b9c998f	0.004779048
161	0x3bf80cf2	0.0075699026
162	0xbe3cdb8d	-0.18443127
163	0x3e3dd727	0.18539105
164	0x3da27d9b	0.079341136
165	0x3e81895e	0.25300115
166	0x3d34d170	0.044145048
167	0xbdec7150	-0.1154505
168	0xbdf3d8d7	-0.11906593
169	0x3e49e459	0.19716014
170	0xbded6d7a	-0.115931466
171	0xbdbc2c21	-0.091881044
172	0xbe74c85e	-0.23904559
173	0xbe20fba7	-0.15720998
174	0x3e0ed17b	0.13947098
175	0xbe0dde24	-0.13854271
176	0x3e4e1488	0.2012502
177	0x3dbd84b9	0.092538305
178	0xbe667e4a	-0.22509113
179	0xbe49cfc4	-0.19708163
180	0xbd6d2ea5	-0.05790581
181	0x3e397a04	0.18112952
182	0xbd88c364	-0.06677893
183	0xbc187cfa	-0.0093071405
184	0xbdab7ba8	-0.08373195
185	0x3d182aab	0.037150066
186	0xbdad0d39	-0.08449788
187	0xbe1ce69a	-0.15322343
188	0x3ded8d8b	0.11599263
189	0xbdef94d4	-0.116983086
190	0xbda01047	-0.07815605
191	0xbdfc6412	-0.123237744
192	0xbe27dec8	-0.16393578
193	0x3df41221	0.1191752
194	0xbe3e8a03	-0.18607335
195	0xbdcfa07f	-0.10138034
196	0x3d3a2c09	0.04545215
197	0xbdd0ecfb	-0.102014504
198	0xbca55cb5	-0.020185808
199	0x3ba7ff60	0.0051268786
200	0xbe44635a	-0.19178525
201	0x3e06bb89	0.13157476
202	0x3e0ed18e	0.13947126
203	0xbd831c95	-0.06401936
204	0x3baefc7a	0.005340156
205	0xbe1a5715	-0.15072282
206	0x3d9315e8	0.07181913
207	0x3d70e156	0.058808647
208	0x3d925a05	0.07146076
209	0x3e25bb68	0.16184771
210	0x3dd15d92	0.10222925
211	0xbdca0568	-0.098643124
212	0x3ca962d3	0.020677006
213	0xbe06eec2	-0.13177016
214	0xbc468dbf	-0.012118756
215	0xbe4fceba	-0.20293704
216	0x3e086561	0.13319923
217	0xbc0f181f	-0.008733778
218	0xbdc8e316	-0.09808938
219	0xbdb3fa94	-0.08788028
220	0x3d899490	0.06717789
221	0x3dabf0bf	0.08395528
222	0x3cba9bdc	0.022779398
223	0xbdfcce5e	-0.12344049
224	0xbdde8e56	-0.10866992
225	0xbda2eb85	-0.07955078
226	0x3c0191d8	0.007908307
227	0xbe19c6b0	-0.150172
228	0xbd814f0d	-0.06313906
229	0xbda520aa	-0.08062871
230	0x3dbf39c8	0.09337193
231	0x3d191ec2	0.03738285
232	0x3e2af03c	0.16693205
233	0x3e3879cf	0.18015216
234	0xbd126f2a	-0.035750546
235	0xbdfc2cfc	-0.123132676
236	0xbe51bb1f	-0.20481537
237	0x3e4be373	0.19910984
238	0x3e0d3d84	0.13792998
239	0x3e241bfd	0.16026302
240	0xbd18414f	-0.037171658
241	0x3e1d2d82	0.15349391
242	0xbd182541	-0.037144903
243	0xbe4afda0	-0.19823313
244	0xbe2b1dba	-0.16710559
245	0xbbe69ea8	-0.0070379563
246	0x3e1d6f38	0.15374458
247	0x3e4984fe	0.19679639
248	0xbe05b8b9	-0.13058747
249	0x3dc1b0d1	0.09457553
250	0x3d9d9b45	0.07695631
251	0xbd70ca72	-0.058786817
252	0x3db19e42	0.086727634
253	0x3d396566	0.045262717
254	0x3df7c016	0.12097184
255	0xbdde9193	-0.1086761

main.4.bias f4 [2048]
0	0x3da4f9ed	0.08055482
1	0xbd37bab3	-0.044855785
2	0xbe00d505	-0.1258126
3	0xbe163f41	-0.14672567
4	0xbdaabc78	-0.08336729
5	0x3e484ab4	0.19559747
6	0x3d80185b	0.062546454
7	0x3db432c2	0.08798744
8	0xbdd01f90	-0.1016227
9	0x3e8c9221	0.27455238
10	0x3e7b0b82	0.24516109
11	0x3e6c7f47	0.23095427
12	0x3e508e13	0.20366697
13	0x3d1fe735	0.039038856
14	0x3e6f1f45	0.23351772
15	0x3e23dbf2	0.16001871
16	0x3de23f61	0.11047245
17	0x3e100244	0.14063364
18	0x3e24a444	0.16078287
19	0xbd24d8d9	-0.040245865
20	0xbd97c208	-0.074100554
21	0x3d4ec584	0.050481334
22	0xbdfea682	-0.124341026
23	0x3e219cd3	0.1578248
24	0x3e195422	0.149735
25	0xbc001b0e	-0.00781895
26	0xbcab0b23	-0.020879334
27	0xbd997a11	-0.074939854
28	0xbdf729b8	-0.12068504
29	0x3e3e2c15	0.18571503
30	0xbe0ff5c0	-0.1405859
31	0x3e1ae0a0	0.1512475
32	0xbda86270	-0.082219005
33	0xbe2cdbe5	-0.16880758
34	0x3c8ede0d	0.017439866
35	0x3d946d06	0.07247357
36	0x3e5fd208	0.21857464
37	0x3d7953a0	0.060870767
38	0x3e2addc6	0.16686162
39	0x3d2cbb9c	0.042171106
40	0xbd94f5a5	-0.072734155
41	0xbcb43508	-0.021997944
42	0x3e3c0bbd	0.18363853
43	0xbda91fbc	-0.08258006
44	0xbdcf3b55	-0.101187386
45	0x3def0a4d	0.116718866
46	0xbdd89c17	-0.10576647
47	0x3d42f171	0.047593538
48	0xbc867ac3	-0.01641596
49	0xbdd175e3	-0.10227563
50	0xbb3ecdf1	-0.002911445
51	0x3e09ac49	0.13444628
52	0xbe28e0a7	-0.16491948
53	0x3e33e731	0.17568661
54	0x3c4e7d79	0.012603157
55	0xbdf2ec21	-0.11861444
56	0x3d87ec6e	0.06636892
57	0x3d97df06	0.07415585
58	0xbcd862d6	-0.026414316
59	0xbe345f01	-0.17614366
60	0x3d39d09f	0.045364972
61	0x3e6183d0	0.22022939
62	0x3ce2d4f7	0.02768944
63	0xbdbb5470	-0.091469646
64	0x3bf841b2	0.007576191
65	0xbc107de7	-0.00881908
66	0x3e8d1fa1	0.27563193
67	0x3e863047	0.26208708
68	0x3e6b5034	0.22979814
69	0xbd9441c1	-0.07239104
70	0xbc58597f	-0.013204931
71	0x3d2a2fd4	0.04154952
72	0x3bc84a53	0.0061123758
73	0xbca3b824	-0.019985266
74	0x3db8ab11	0.09017003
75	0xbb340cad	-0.0027473376
76	0xbddf4a44	-0.10902837
77	0xbd35d39d	-0.044391263
78	0x3de9a02c	0.114075035
79	0xbc4bc0aa	-0.012436071
80	0xbcec037f	-0.02881026
81	0x3e0a10a2	0.13482907
82	0x3e2941bd	0.16528983
83	0xbcbe6081	-0.023239376
84	0x3e85b3ba	0.26113683
85	0x3e707870	0.23483443
86	0x3e53c7cc	0.20681685
87	0x3e9810f9	0.2970045
88	0x3da851bb	0.08218714
89	0xbc6ffcca	-0.014647672
90	0x3d933af6	0.0718898
91	0x3e96e982	0.29475027
92	0x3e2893e2	0.16462663
93	0xbccf0a2c	-0.025273405
94	0x3c6948e1	0.014238567
95	0xbdd91aeb	-0.10600837
96	0xbd52693b	-0.051369887
97	0xbdd73205	-0.10507587
98	0xbc11c241	-0.008896411
99	0xbd9b263f	-0.07575654
100	0x3e4d229b	0.20032732
101	0x3e6d4903	0.23172383
102	0x3defddc7	0.117122225
103	0xbc3efb74	-0.011656631
104	0x3d14d7dc	0.036338672
105	0xbc9c6df1	-0.019095393
106	0x3dcf8ca5	0.10134248
107	0x3e25e3dc	0.16200203
108	0x3dc29416	0.095009014
109	0xbd192ad9	-0.03739438
110	0x3e9fa9ab	0.31184134
111	0x3d8a0b5f	0.0674045
112	0xbddba541	-0.10724879
113	0x3e6b6c13	0.22990446
114	0xbd88ec47	-0.06685691
115	0x3e4ca150	0.19983411
116	0x3d85869e	0.06519817
117	0xbdc2b7ba	-0.09507699
118	0x3e464160	0.19360876
119	0x3daf1e76	0.08550732
120	0x3dc1bff6	0.09460442
121	0xb90aa6aa	-0.00013222793
122	0x3e868535	0.26273504
123	0x3da6855f	0.08130907
124	0x3dd9b8dc	0.10630962
125	0x3e175885	0.14779861
126	0x3e43f991	0.19138171
127	0xbda56ab0	-0.0807699
128	0xbddf65db	-0.10908099
129	0xbe5880a8	-0.21142828
130	0xbde4e89a	-0.11177178
131	0x3e6e0b3a	0.2324647
132	0x3d92af1a	0.07162304
133	0xbcedcdae	-0.02902874
134	0x3db1076a	0.08643992
135	0x3e44809a	0.19189683
136	0xbdb4e8f4	-0.08833495
137	0xbe0cc69f	-0.13747643
138	0x3b36825f	0.0027848703
139	0x3db56411	0.08856977
140	0x3e250e52	0.16118744
141	0xbe06a001	-0.13146974
142	0x3e3d8032	0.18505934
143	0xbd04e6a7	-0.03244653
144	0xbe1abca2	-0.1511102
145	0xbcaf30f7	-0.021385653
146	0x3e492b01	0.19645311
147	0x3e4a861f	0.19777726
148	0xbd3b01c8	-0.045655996
149	0xbdf7f82a	-0.121078804
150	0x3dc0c4b1	0.09412516
151	0x3e22a133	0.15881805
152	0x3e63667b	0.22207062
153	0x3dcc6aba	0.09981294
154	0xbdd1394a	-0.10216005
155	0x3e95c5d7	0.29252502
156	0xbe04a0fd	-0.12952037
157	0x3c39ef7f	0.011348604
158	0x3e6aac47	0.22917281
159	0xbd80243d	-0.06256912
160	0x3e81d1c3	0.25355348
161	0x3e6ef311	0.2333491
162	0xbb69a165	-0.0035649177
163	0xbc28ab10	-0.010294691
164	0xbd6ce936	-0.057839595
165	0x3dc55af6	0.0963649
166	0x3dd436a6	0.10361986
167	0x3d81c331	0.06336058
168	0x3e238599	0.15968932
169	0xbd343d64	-0.04400386
170	0x3d8575ca	0.06516607
171	0x3e4c8864	0.19973904
172	0xbd941899	-0.07231254
173	0xbc3cf0df	-0.0115320375
174	0xbe1b5383	-0.15168576
175	0x3e32544b	0.17414968
176	0xbd434270	-0.04767078
177	0x3de4261f	0.111400835
178	0xbcdc8f6c	-0.026923858
179	0x3e3b471e	0.18288848
180	0xbdc919c6	-0.09819369
181	0xbd954798	-0.07289046
182	0xbdbfd562	-0.093668714
183	0x3d25994d	0.040429402
184	0x3e5cc80d	0.21560688
185	0x3db5f063	0.08883741
186	0x3e55334a	0.20820346
187	0xbda031a9	-0.07821972
188	0x3e6edebe	0.23327157
189	0x3e725edb	0.23668997
190	0xbd35ff1a	-0.044432737
191	0x3e89efa1	0.26940635
192	0xbe259c14	-0.1617282
193	0x3d76aa62	0.060221083
194	0x3bbd03ec	0.00576829
195	0xbe23619e	-0.15955207
196	0xbc925578	-0.01786302
197	0x3df0016f	0.117190234
198	0x3df7a0ef	0.120912425
199	0xbd7a5278	-0.061113805
200	0xbd938f17	-0.072050266
201	0x3b07037a	0.0020601437
202	0x3dd03251	0.10165847
203	0xbd2ee3bc	-0.042697653
204	0x3e0d24aa	0.13783517
205	0x3d873178	0.06601232
206	0x3e4c3a58	0.19944131
207	0xbdad369e	-0.08457683
208	0x3e7107e4	0.23538166
209	0xbe079ebc	-0.13244146
210	0xbe0a8799	-0.13528289
211	0xbe173793	-0.14767294
212	0x3e04f555	0.12984212
213	0xbb75a153	-0.003748019
214	0x3e6bf8bb	0.23044102
215	0xbe049958	-0.12949121
216	0x3e1be232	0.15223005
217	0x3e2c7dd9	0.16844882
218	0x3cc3f6ec	0.023921452
219	0xbd060945	-0.032723684
220	0xbe2ba3e3	-0.16761737
221	0x3df176fb	0.11790272
222	0xbe16a70b	-0.1471216
223	0xbd0d63f0	-0.034519136
224	0x3e470221	0.19434406
225	0x3e415ff6	0.18884262
226	0xbdae041a	-0.08496876
227	0x3d27ee19	0.040998552
228	0x3d85519b	0.06509706
229	0x3c30a8c6	0.010782426
230	0x3bb8b190	0.0056364015
231	0x3d9fb072	0.07797326
232	0x3d8a1689	0.067425795
233	0x3df5e501	0.1200657
234	0xbe2a1726	-0.16610393
235	0x3cd2f8a4	0.025753327
236	0x3d3964cb	0.04526214
237	0xbe3437ab	-0.1759936
238	0xbd7afb88	-0.061275035
239	0x3d40367b	0.046926957
240	0x3e77778c	0.24166697
241	0x3e178b69	0.14799275
242	0xbe0f8867	-0.14016877
243	0x3e3637c3	0.17794709
244	0x3e723b38	0.23655403
245	0x3c94601f	0.01811224
246	0x3e3ce9f0	0.18448615
247	0xbd9356c9	-0.07194287
248	0xbd243e12	-0.040098257
249	0xbd6bbbe8	-0.05755225
250	0xbc488c94	-0.012240548
251	0x3dd6df9a	0.10491867
252	0x3e20fa3e	0.1572046
253	0x3cef78c4	0.02923239
254	0x3c4cf615	0.012509842
255	0x3d6ba7a2	0.057532914

conv.0.weight f4 [20, 1, 5, 5]
0	0x3df84dce	0.12124215
1	0x3e8ea0d0	0.27857065
2	0x3e54fee4	0.20800358
3	0x3e77826e	0.24170849
4	0xbbfd95e9	-0.007738818
5	0x3d6d2096	0.057892404
6	0xbc0ab80e	-0.008466734
7	0x3e0aead9	0.1356615
8	0x3e28c795	0.16482385
9	0x3d18b173	0.037278604
10	0x3df4c329	0.11951286
11	0x3d7d5ae8	0.061854273
12	0x3e1d8dae	0.15386078
13	0xbdb2962b	-0.087200485
14	0xbd77a9fc	-0.060464844
15	0x3db95c0a	0.09050758
16	0x3dd4a719	0.10383434
17	0xbd09eb57	-0.033671703
18	0xbddaf0da	-0.1069047
19	0x3d6acb6e	0.057322912
20	0xbe00084e	-0.12503168
21	0xbdfa99e5	-0.12236384
22	0xbdc4d054	-0.09610048
23	0x3cb7d7d6	0.022441786
24	0xba644c66	-0.0008708894
25	0x3ba46860	0.0050173253
26	0x3e19bbef	0.15013097
27	0x3c43a0fd	0.011940238
28	0xbc1fd759	-0.009755933
29	0x3d9d385b	0.076767646
30	0xbd99d70e	-0.075117216
31	0xbd57cceb	-0.05268566
32	0x3df27e85	0.11840538
33	0x3db022f1	0.086004145
34	0xbdc799ad	-0.09746108
35	0x3cd03300	0.025414944
36	0x3e616399	0.2201065
37	0x3e7882f4	0.24268705
38	0x3e82e302	0.25563818
39	0x3cc2d4fb	0.023783198
40	0xbe1c07ab	-0.152373
41	0xbdb5704a	-0.08859308
42	0x3df1080f	0.11769115
43	0xbd874430	-0.066048026
44	0xbdb4285a	-0.08796759
45	0xbdb07bbc	-0.086173505
46	0xbd8c6629	-0.06855423
47	0xbd373fe7	-0.044738676
48	0xbc2dc8b3	-0.010606932
49	0xbd50b321	-0.05095208
50	0xbd50e230	-0.05099696
51	0xbe11cdb1	-0.14238621
52	0xbcf31191	-0.029671462
53	0xbde851c0	-0.113437176
54	0xbe069544	-0.13142878
55	0x3d951969	0.07280237
56	0xbdf6b0b0	-0.12045419
57	0xbe8708dc	-0.26373947
58	0xbdedb4dd	-0.116067626
59	0x3e3b822e	0.18311378
60	0x3d9cb32d	0.076513626
61	0x3e128fa4	0.14312607
62	0xbb8b9a89	-0.0042603654
63	0x3c81b9be	0.01583564
64	0x3d820adc	0.063497275
65	0xbdb2f2a5	-0.08737687
66	0x3d6f6f3a	0.058455683
67	0xbc928f40	-0.017890573
68	0xbd702126	-0.058625363
69	0x3e65d940	0.22446156
70	0x3dbf2427	0.093330674
71	0xbe712a78	-0.23551357
72	0xbc8589ba	-0.016301025
73	0x3d45a789	0.048255477
74	0x3da5dc59	0.080986686
75	0x3e6b5571	0.22981812
76	0xbdbbd709	-0.09171874
77	0xbdba946e	-0.09110342
78	0x3e077fc5	0.13232334
79	0x3d73b863	0.059502017
80	0x3e08fd92	0.1337798
81	0xbd4e0c61	-0.050304774
82	0x3e8311bc	0.25599468
83	0x3e7ceb38	0.24699104
84	0xbdbd0024	-0.092285424
85	0x3df52902	0.11970712
86	0x3e5d2adf	0.21598385
87	0x3e2fe644	0.17177683
88	0x3d71b80a	0.059013404
89	0xbd851c89	-0.06499583
90	0x3c3035a9	0.010754981
91	0x3d7e80f6	0.062134705
92	0x3d4d313e	0.05009579
93	0x3e170af8	0.14750278
94	0xbde9fc24	-0.11425045
95	0x3d4898e2	0.048973925
96	0xbd95ecc3	-0.07320549
97	0xbdede50d	-0.116159536
98	0xbda01201	-0.07815934
99	0xbe041670	-0.12899184
100	0x3e13a66f	0.14418958
101	0xbe02fee3	-0.12792544
102	0x3cc4c7e1	0.024021091
103	0xbdebf029	-0.11520416
104	0x3d46188a	0.048363246
105	0x3d81224d	0.063053705
106	0xbe787359	-0.24262752
107	0xbc55865f	-0.013032525
108	0x3df835e0	0.12119651
109	0xbcbb86de	-0.022891458
110	0xbd69c3ad	-0.057071377
111	0x3dfae16b	0.12250026
112	0xbdf1b7c0	-0.11802626
113	0x3e898693	0.26860484
114	0xbe5f5a8f	-0.21811889
115	0x3e52909c	0.20562977
116	0xbd8179e3	-0.06322076
117	0xbe834254	-0.25636542
118	0xbe86f901	-0.2636185
119	0xbe71c26a	-0.2360932
120	0x3dd47d91	0.103755124
121	0xbe749d6d	-0.23888178
122	0xbdf311e5	-0.118686475
123	0x3cc03a15	0.023465196
124	0xbe631db8	-0.22179306
125	0xbe6f7ef5	-0.23388274
126	0xbe5efbf1	-0.21775796
127	0xbe3c025a	-0.18360272
128	0xbe02d205	-0.12775429
129	0x3c8c1f85	0.017104873
130	0xbe6f4ab6	-0.23368344
131	0xbde88134	-0.113527685
132	0x3d4b1725	0.04958262
133	0xbe1a6b27	-0.15079938
134	0x3bf83b06	0.0075753955
135	0x3df91a19	0.12163181
136	0x3dd40e6f	0.103543155
137	0x3cff31ad	0.031151617
138	0x3d8b6452	0.06806244
139	0xbc04d22e	-0.008106751
140	0x3e2cd96d	0.16879816
141	0x3e66d0e5	0.22540624
142	0x3d926b66	0.07149391
143	0x3e0c2ce6	0.13689002
144	0x3d84e43c	0.06488845
145	0x3dff5b32	0.12468566
146	0x3e109146	0.14117917
147	0x3da98eb9	0.08279175
148	0x3dec6c8f	0.115441434
149	0xbca75cb5	-0.020429948
150	0x3d8bd9fe	0.06828688
151	0xbdb3cc59	-0.087792106
152	0xbe15f382	-0.14643672
153	0xbe425b9d	-0.1898026
154	0xbe80e204	-0.25172436
155	0x3d3be84f	0.045875844
156	0xbc72c056	-0.014816364
157	0xbde550c7	-0.11197048
158	0xbe573804	-0.21017462
159	0xbe154fdd	-0.14581247
160	0xbd95cdfa	-0.073146775
161	0xbe25f46c	-0.16206521
162	0xbe1488bf	-0.1450529
163	0xbe7e3e9e	-0.24828574
164	0xbe38082d	-0.17971869
165	0x3d1f8b63	0.03895129
166	0x3b56b86d	0.0032763735
167	0xbd0c867b	-0.034307938
168	0xbb7179d8	-0.0036846306
169	0xbd89bebb	-0.06725832
170	0x3d0620ed	0.032746244
171	0x3bb669e9	0.0055668247
172	0x3d61074f	0.05493861
173	0x3d0e714a	0.03477601
174	0xbc50d2f2	-0.012745606
175	0x3e03b3d0	0.12861562
176	0xbda53eb5	-0.08068601
177	0x3e3f00dc	0.18652672
178	0x3cd93e77	0.026519043
179	0x3e82648a	0.2546733
180	0xbd1f1d0f	-0.03884607
181	0x3e2a8957	0.16653953
182	0x3e4de31d	0.20106168
183	0x3e800a52	0.25007874
184	0x3e6ab3d1	0.22920157
185	0xbd9907cf	-0.074721925
186	0x3d870b82	0.06593992
187	0x3e186f14	0.14886123
188	0xbd226b3d	-0.03965305
189	0xbd3aa04e	-0.045563035
190	0x3b931477	0.0044885236
191	0xb991eaeb	-0.00027831583
192	0xbdb3fe8d	-0.08788786
193	0xbc8aacbd	-0.016928071
194	0xbd687157	-0.056748714
195	0xbcfc257f	-0.030779598
196	0x3e04d9f7	0.12973772
197	0x3d946d69	0.07247431
198	0xb9b5ec6b	-0.00034699155
199	0x3b200a83	0.0024420328
200	0xbcada9ad	-0.021199072
201	0x3cbbcf2e	0.02292594
202	0x3d3df0e2	0.046372302
203	0x3e66ccb8	0.22539032
204	0x3e369b03	0.1783257
205	0xbdcaccb1	-0.09902323
206	0x3e164949	0.14676394
207	0xbce56594	-0.028002538
208	0xbdaf6928	-0.08564979
209	0x3dbe9efa	0.09307666
210	0x3d31596c	0.04329817
211	0xbe46917a	-0.19391432
212	0xbdace7d3	-0.084426545
213	0xbc26d439	-0.010182434
214	0xbda07c3b	-0.07836195
215	0xbe746fbc	-0.23870748
216	0xbe86fc9b	-0.26364598
217	0x3c89bdfc	0.016814224
218	0xbc308f8c	-0.010776412
219	0x3db73b88	0.089469016
220	0xbe1a0681	-0.15041544
221	0xbe5af478	-0.2138232
222	0x3c3c68f8	0.011499636
223	0xbd0d2fba	-0.034469344
224	0xbd85c56d	-0.065317966
225	0x3da9a982	0.08284284
226	0xbe89de83	-0.26927575
227	0x3d458e9f	0.048231717
228	0x3d32cb8f	0.04365116
229	0xbda73323	-0.081640504
230	0xbe383b40	-0.17991352
231	0xbe4a30a1	-0.19745113
232	0xbc886ad4	-0.016652502
233	0x3d8da4e3	0.06916215
234	0x3dd6a885	0.10481361
235	0x3daf307d	0.0855417
236	0xba364417	-0.0006952895
237	0xbd595552	-0.053059883
238	0xbe01256c	-0.12611932
239	0x3e1044e2	0.14088777
240	0x3da93ec4	0.08263925
241	0xbe4d70e0	-0.2006259
242	0x3da391f2	0.07986821
243	0xbdd5891b	-0.104265414
244	0x3d63efb0	0.055648506
245	0xbe1596cf	-0.1460831
246	0x3e400d8c	0.18755168
247	0xbe4e769f	-0.20162438
248	0x3d2e1f7e	0.042510502
249	0x3d60113d	0.05470394
250	0xbdb29030	-0.08718908
251	0xbdc59ed9	-0.096494384
252	0xbe231103	-0.15924458
253	0xbe3d0f36	-0.18462834
254	0x3e1a6342	0.15076926
255	0x3dd02d2b	0.10164865

conv.0.bias f4 [20]
0	0x3d55d511	0.05220515
1	0xbe140c7a	-0.14457884
2	0xbb7657aa	-0.0037588873
3	0xbe6a9e9a	-0.22912064
4	0xbdaf0a01	-0.0854683
5	0xbd8882ef	-0.066655986
6	0x3e34a221	0.17639972
7	0xbe0843dd	-0.13307138
8	0xbbaec5e7	-0.0053336504
9	0xbd273964	-0.040826216
10	0xbc3fd922	-0.011709483
11	0x3e924931	0.28571466
12	0xbd48845d	-0.048954356
13	0xbda149c2	-0.07875396
14	0x3d4e744f	0.05040389
15	0x3e41e7ea	0.18936124
16	0x3d7b7163	0.06138743
17	0x3d6ca65d	0.057775844
18	0xbd0ed951	-0.034875218
19	0x3e116280	0.14197731

conv.2.weight f4 [20]
0	0x3f8b4c29	1.0882617
1	0x3f8cd5a3	1.1002697
2	0x3f921f1b	1.1415743
3	0x3f8c8e0f	1.0980853
4	0x3f84cec1	1.0375596
5	0x3f947b6e	1.1600168
6	0x3f91e93a	1.13993
7	0x3f90d09b	1.1313661
8	0x3f827053	1.0190529
9	0x3f90422c	1.1270194
10	0x3f90af80	1.1303558
11	0x3f8595ee	1.043638
12	0x3f6d170f	0.9261331
13	0x3f6f0af6	0.933761
14	0x3f831fe7	1.0244111
15	0x3f71bbe5	0.9442733
16	0x3f78a1da	0.97121966
17	0x3f8a6dc2	1.0814745
18	0x3f72d12f	0.9485044
19	0x3f921cb4	1.141501

conv.2.bias f4 [20]
0	0xbe1391a1	-0.14411022
1	0xbdfa73f6	-0.12229149
2	0xbe136a15	-0.14395936
3	0xbe045a9a	-0.12925187
4	0x3e16b1e8	0.14716303
5	0x3e20b3d1	0.15693595
6	0xbe0acb13	-0.13554029
7	0xbe10bdb5	-0.14134867
8	0x3e0bb34a	0.13642612
9	0xbe0cebe6	-0.13761863
10	0xbe10c760	-0.14138556
11	0x3e231f73	0.15929966
12	0x3e10a6ef	0.1412618
13	0x3e13c451	0.14430358
14	0x3e1b52f3	0.15168361
15	0x3e06ed4a	0.13176456
16	0x3e1300b9	0.14355744
17	0xbe0aec8b	-0.13566796
18	0x3e1ede5f	0.15514515
19	0xbe0e368e	-0.13887998

conv.2.running_mean f4 [20]
0	0x3e978f9b	0.2960175
1	0x3d05e7cb	0.032691758
2	0x3cf888d9	0.030338692
3	0x3d7725ad	0.060338665
4	0xbd590112	-0.052979536
5	0x3d622fba	0.055221297
6	0xbce5181f	-0.027965603
7	0x3e2982cc	0.16553801
8	0xbbe9aafe	-0.0071309796
9	0x3a8e33f5	0.0010849225
10	0xbdc75a51	-0.09734023
11	0x3e9f243f	0.3108234
12	0xbbd95b92	-0.0066332305
13	0x3d698532	0.05701179
14	0x3e6c5076	0.23077568
15	0x3ec681c5	0.3877088
16	0x3cb6b887	0.022304786
17	0x3c60c52b	0.0137188835
18	0x3ca7d8b2	0.02048907
19	0x3ed527a8	0.41631818

conv.2.running_var f4 [20]
0	0x3d1aa2e6	0.03775301
1	0x3c596ff9	0.013271325
2	0x3c5fe681	0.013665796
3	0x3cb6c456	0.022310417
4	0x3c05a46c	0.008156877
5	0x3c978d3d	0.018499965
6	0x3b92f5bb	0.0044848598
7	0x3d089fe0	0.033355594
8	0x3c084ed7	0.008319578
9	0x3c34c3c4	0.011033002
10	0x3b227240	0.0024787337
11	0x3cd13d38	0.025541887
12	0x3bf82a57	0.0075734067
13	0x3cae438f	0.021272449
14	0x3d2a09d3	0.041513275
15	0x3d3593f4	0.044330552
16	0x3c2c7809	0.0105266655
17	0x3c64b090	0.013958111
18	0x3c243a94	0.010023732
19	0x3d267b29	0.0406448

conv.3.weight f4 [1, 20, 5, 5]
0	0x3e01e529	0.12685074
1	0x3dcbe150	0.09955084
2	0x3e2193ce	0.1577904
3	0x3db4bc6b	0.088250004
4	0x3dd5dbcf	0.10442316
5	0x3e19d6e4	0.1502338
6	0x3e060365	0.13087232
7	0x3e0d6291	0.13807131
8	0x3de87d0e	0.11351977
9	0x3dfc9fbd	0.12335155
10	0x3dec41bc	0.11535975
11	0x3e31a78b	0.17349069
12	0x3e27c076	0.16382012
13	0x3e1dcf49	0.15411104
14	0x3e09385b	0.13400404
15	0x3e0f5847	0.13998519
16	0x3de6d4bc	0.112710446
17	0x3def9260	0.11697841
18	0x3d8aad7c	0.06771371
19	0x3dcad5a7	0.09904032
20	0x3c8294a0	0.01594001
21	0x3dea9540	0.114542484
22	0x3deb18b4	0.11479321
23	0x3da21429	0.079140015
24	0x3d8f7190	0.07004082
25	0x3debe63f	0.11518525
26	0x3df3cbf2	0.11904134
27	0x3e28bb4d	0.164777
28	0x3e139a46	0.1441432
29	0x3e06a65f	0.13149403
30	0x3dae3a26	0.08507185
31	0x3e027535	0.12740023
32	0x3dcd2e6e	0.100186214
33	0x3e1c0b64	0.1523872
34	0x3db61a7b	0.088917695
35	0x3e14481e	0.14480636
36	0x3e0ab097	0.13543926
37	0x3e0f0218	0.13965642
38	0x3de38101	0.1110859
39	0x3e1bc384	0.15211302
40	0x3e08469f	0.1330819
41	0x3e26d648	0.1629268
42	0x3e189918	0.1490215
43	0x3e0a640b	0.13514726
44	0x3e1c15b0	0.15242648
45	0x3dec1cbd	0.11528919
46	0x3e2739a7	0.16330586
47	0x3e1a34c7	0.15059195
48	0x3da300ca	0.07959135
49	0x3de0f83d	0.10984848
50	0x3de8c1cd	0.113650896
51	0x3dc3faec	0.09569344
52	0x3de4b107	0.11166578
53	0x3e19a96a	0.15006033
54	0x3e17ce09	0.1482469
55	0x3da19c17	0.078911
56	0x3d94662a	0.07246049
57	0x3e3eded7	0.18639694
58	0x3e1b5817	0.15170322
59	0x3e171ed3	0.14757852
60	0x3db23e5c	0.087033
61	0x3dca03c6	0.09864001
62	0x3e2b9d65	0.1675926
63	0x3e17f8de	0.14841029
64	0x3dc1b7ad	0.094588615
65	0x3d8c1180	0.06839275
66	0x3dee92c6	0.116490886
67	0x3dd36aa7	0.10323077
68	0x3e025f7e	0.1273174
69	0x3dd41384	0.10355285
70	0x3e180067	0.14843903
71	0x3deaa295	0.11456791
72	0x3e2cb83b	0.16867153
73	0x3e38b1f2	0.18036631
74	0x3df9b326	0.12192373
75	0x3e12c136	0.14331517
76	0x3e2048b3	0.15652733
77	0x3e0b61a9	0.13611473
78	0x3e1ce88d	0.15323086
79	0x3dd9ba5e	0.1063125
80	0x3e0e071b	0.13869898
81	0x3da2b2ec	0.07944283
82	0x3e1a8d54	0.15092975
83	0x3dfd7007	0.12374883
84	0x3de8156c	0.11332211
85	0x3e1709ca	0.14749828
86	0x3dc3f9c3	0.09569123
87	0x3e2346bb	0.1594495
88	0x3e1d4f20	0.15362215
89	0x3e00d2d4	0.12580425
90	0x3d8e3f04	0.06945613
91	0x3e0c7ae9	0.13718762
92	0x3e2e847f	0.17042731
93	0x3e02f222	0.12787679
94	0x3dcb8303	0.09937098
95	0x3dd3b80d	0.10337839
96	0x3df8a516	0.12140863
97	0x3dc4652f	0.09589612
98	0x3d9ebc29	0.077507325
99	0x3d794084	0.060852543
100	0xbdda3a62	-0.10655667
101	0xbe234b3b	-0.15946667
102	0xbdcb2a63	-0.09920194
103	0xbdb99477	-0.090615205
104	0xbdf41bee	-0.1191939
105	0xbde7917d	-0.113070466
106	0xbe007667	-0.12545167
107	0xbdc0539c	-0.09390947
108	0xbdc6f9c2	-0.09715606
109	0xbe2fdd26	-0.17174205
110	0xbe335c01	-0.17515565
111	0xbddec7f7	-0.10877984
112	0xbe0620f3	-0.13098507
113	0xbe206396	-0.15662989
114	0xbe13b7d3	-0.14425592
115	0xbdf386ef	-0.11890971
116	0xbe49fe46	-0.19725904
117	0xbe3c8d20	-0.1841321
118	0xbe093435	-0.13398822
119	0xbe38f0e7	-0.18060647
120	0xbde521c1	-0.11188079
121	0xbe234438	-0.15943992
122	0xbe34eb69	-0.17667927
123	0xbe28673c	-0.16445631
124	0xbe04f2b7	-0.12983213
125	0xbdd8568b	-0.10563382
126	0xbe252ae8	-0.16129649
127	0xbe0ec20f	-0.13941215
128	0xbdf5923b	-0.11990782
129	0xbdf458a8	-0.11930972
130	0xbe7431b2	-0.23847082
131	0xbe2d0dc6	-0.16899785
132	0xbe269c40	-0.16270542
133	0xbe1b4518	-0.15163076
134	0xbe0a9a47	-0.13535415
135	0xbe77a050	-0.24182248
136	0xbe124e84	-0.14287764
137	0xbdb369a7	-0.08760386
138	0xbe41294f	-0.18863414
139	0xbe400b28	-0.18754256
140	0xbe2b9eca	-0.16759792
141	0xbdf857a6	-0.121260926
142	0xbd97871e	-0.073988184
143	0xbe187e43	-0.14891915
144	0xbe156d9e	-0.14592597
145	0xbcf638a9	-0.030056315
146	0xbd74c4d1	-0.05975801
147	0x3cddd324	0.027078219
148	0xbd07d151	-0.033158604
149	0xbd6c829a	-0.05774174
150	0x3e1b0be9	0.15141262
151	0x3e0ddbff	0.13853453
152	0x3dadd306	0.08487515
153	0x3df5b653	0.11997666
154	0x3d781ab4	0.06057234
155	0x3dc3e856	0.09565799
156	0x3e363f01	0.17797472
157	0x3dea3f90	0.11437905
158	0x3e28f320	0.16498995
159	0x3e09c465	0.13453825
160	0x3e030f9d	0.12798925
161	0x3e59993c	0.2124986
162	0x3d4438ee	0.047905855
163	0x3dae628e	0.085148916
164	0x3def9310	0.11697972
165	0x3e22823b	0.15869991
166	0x3e0502b8	0.12989318
167	0x3e4b4a19	0.19852485
168	0x3e351698	0.176844
169	0x3e0acf88	0.1355573
170	0x3e173bb7	0.14768873
171	0x3d83231c	0.06403181
172	0x3dc02f09	0.09383971
173	0x3dd12299	0.10211677
174	0x3dbf8e44	0.09353307
175	0x3e172ae5	0.14762457
176	0x3dd86e11	0.105678685
177	0x3e18e59b	0.14931338
178	0x3e0daed8	0.13836229
179	0x3d9da457	0.07697361
180	0x3e1a56d1	0.1507218
181	0x3e15ac62	0.1461654
182	0x3dcda975	0.10042087
183	0x3e108891	0.14114596
184	0x3e10df58	0.14147699
185	0x3e22aa0c	0.1588518
186	0x3e1ed885	0.15512283
187	0x3dff7dec	0.124751896
188	0x3e429c58	0.19004953
189	0x3e057012	0.13031033
190	0x3e0bb7f7	0.13644396
191	0x3dc918bd	0.098191716
192	0x3e028495	0.12745889
193	0x3e146838	0.14492881
194	0x3db3c47f	0.08777713
195	0x3d3d0fe3	0.04615773
196	0x3dc4a2d0	0.096013665
197	0x3d815202	0.0631447
198	0x3d3d2a99	0.046183202
199	0x3b0b5919	0.0021262823
200	0xbe0d7104	-0.13812643
201	0xbdad1056	-0.084503815
202	0xbe044e2f	-0.1292045
203	0xbdccbc0e	-0.09996806
204	0xbd6d281d	-0.057899583
205	0xbe0006c7	-0.12502585
206	0xbe2488cd	-0.1606781
207	0xbe25a989	-0.16177954
208	0xbe2fc77a	-0.17165938
209	0xbe232324	-0.15931374
210	0xbdd081eb	-0.1018103
211	0xbe188653	-0.1489499
212	0xbe0e7079	-0.13910092
213	0xbdcfb79d	-0.10142443
214	0xbe0bf567	-0.13667832
215	0xbe25008f	-0.16113494
216	0xbdc97418	-0.09836596
217	0xbdbad8e9	-0.091234036
218	0xbe19463c	-0.14968199
219	0xbde7223e	-0.11285828
220	0xbe2c8cad	-0.16850539
221	0xbe30935c	-0.17243713
222	0xbe3e83f9	-0.18605031
223	0xbe1d22de	-0.15345332
224	0xbe385e82	-0.18004802
225	0x3e0486ed	0.12942095
226	0x3dea0db0	0.11428392
227	0x3e00aa04	0.12564856
228	0x3e24f287	0.16108142
229	0x3ddb3b4d	0.1070467
230	0x3dfeac58	0.12435216
231	0x3e1024f4	0.14076596
232	0x3e07e7d9	0.13272037
233	0x3dd8bd46	0.10582976
234	0x3e1cb6f3	0.15304165
235	0x3dd16f4f	0.102263086
236	0x3e18d521	0.14925052
237	0x3de86935	0.11348192
238	0x3e0f3f85	0.13989075
239	0x3dc85d51	0.09783424
240	0x3d90d955	0.07072703
241	0x3dcc636d	0.099799015
242	0x3e16fce0	0.14744902
243	0x3dd9490b	0.10609635
244	0x3e0e4ff6	0.1389769
245	0x3de218b7	0.1103987
246	0x3e0c6959	0.13712062
247	0x3e51b44f	0.20478939
248	0x3e28c9e5	0.16483267
249	0x3e290391	0.16505267
250	0x3e3aca5e	0.1824126
251	0x3e1a1b63	0.1504951
252	0x3e03f35e	0.12885806
253	0x3e1759e1	0.1478038
254	0x3e178d28	0.1479994
255	0x3e1c1204	0.15241247
