src/caches/cache_16_20_small2/param2img1.pt (torch, 184864 bytes, 19 tensors)

main.0.weight f4 [16]
00000000: 5e29 533f c79b 523f 76d2 4e3f 6949 7b3f
00000010: f2d0 423f 7024 7d3f 5317 5d3f 036a 843f
00000020: 99a5 773f 720e 7b3f c6a9 803f c5ae 833f
00000030: e826 8c3f e5a5 413f 4aec 4e3f da2e 823f
0.82484996 0.8226895 0.8078989 0.9815889 0.76100075 0.98883724 0.86363715 1.0344852
0.96737057 0.98068917 1.0051811 1.028771 1.0949373 0.7564376 0.808293 1.0170548

main.0.bias f4 [16]
00000000: 127a 09be 4ef3 01be 0f5e 19be efa5 0c3e
00000010: 65f0 c3bd 3909 ab3d 5e57 0f3e f67a fc3d
00000020: d1f9 8bbe 34df 243e 3299 1d3e c5c5 143e
00000030: 50b8 e1bd 30b0 243e 0353 17be 90c9 8c3d
-0.13425472 -0.1269047 -0.14977287 0.13735174 -0.09567336 0.083513685 0.13998172 0.123281404
-0.27339032 0.1610077 0.1539047 0.14528568 -0.11021483 0.16082835 -0.1477776 0.068743825

main.0.running_mean f4 [16]
00000000: 4484 03b8 1689 41b7 06d1 4c3e 5f1a 883b
00000010: b54a 1d3c 1540 2e3b d7b7 f83e 19fd 883b
00000020: 1f13 9e3c 3e43 2e3b f7ba f83e f69b 893b
00000030: 60c6 ec3c 61a7 b334 09c7 4c3e 55be 893b
-3.1356016e-05 -1.1535614e-05 0.20001611 0.0041535343 0.009600331 0.0026588489 0.4857776 0.004180562
0.019296227 0.0026590372 0.48580143 0.0041995 0.028903186 3.3463132e-07 0.19997801 0.0042035975

main.0.running_var f4 [16]
00000000: c9ec 8435 b8cb 8035 700c 8c35 72e2 fc3a
00000010: 35b4 1738 024e 0139 9cfd 8f3d 27a0 fc3a
00000020: 6228 1539 fe9a 0139 9bff 8f3d d9c0 fc3a
00000030: 8626 a739 b28f 8735 ca41 8635 15aa fc3a
9.90368e-07 9.596033e-07 1.0434433e-06 0.001929356 3.6169036e-05 0.00012331459 0.07030794 0.0019273803
0.00014224791 0.00012360138 0.07031175 0.0019283547 0.00031881424 1.0100105e-06 1.0002925e-06 0.0019276763

main.1.weight f4 [20, 16]
00000000: 25c8 29bb e8f2 ca3a 1430 73bb d070 1d3e
00000010: e43c c9bd 5b5e 7c3d 066b 08be 9203 c6bc
00000020: f0ca ec3c e6c7 333e 679c a8be 4090 80be
00000030: 0458 0bbe d8ba 2b3b ba4c 03bb 8863 433e
00000040: 3f38 fabb ac29 233c ffed efbb 979b e53c
00000050: 67a2 36be f154 613c 0b7c 24be ed65 04bd
00000060: 39b9 59be c56e c8bd e1dc 00bd b962 26bd
00000070: 67e7 acbe 252f 5ebb 0a1a 753c b339 efbd
00000080: 114a 003c a846 52bb 7eef 353d 47f6 66be
00000090: 666d ff3d 90b3 f3bd a18a 29be cd56 17be
000000a0: 1c9c 403e a67d 6fbe 5098 063e b3f1 b0bc
000000b0: 2438 033e e55a 88bd 9fb5 3b3d 1fce 2cbd
000000c0: 28fb 8c3c 9a5a 2f3c 07e1 f9bb 271e 0f3d
000000d0: eeca 60bd f74e 953e bcaa 7abe b30e 50be
000000e0: e542 12be 63c4 483e 9179 4fbc 78c1 393e
000000f0: c8eb b13a dc8c 703c 24a8 a83b 16af 3b3e
00000100: d468 4a3d f66c ab3d 4cee a9ba bf4e b1be
00000110: 5d23 0a3e cdb2 3abe c84d 9e3d f027 96be
00000120: 519b 20be f012 1e3e bc72 7dbe 9216 afbc
00000130: acdc 743d bfa3 e33b 9763 1e3d 0753 40be
00000140: ba04 c63b 4820 1abc 7184 b7bb f820 5d3d
00000150: 0c22 953d 027d abbd 11a0 97bd f83d e53d
00000160: bc44 4abc df3f 83be 58a2 a43d ab74 0b3e
00000170: a1fa 563e c6a2 313c e159 49bc 125f a13d
00000180: 1b0c dc3a da3e 833c 2686 503b 3e01 593d
00000190: a673 b6bd d82f 553e 0816 e23d 3844 bebd
000001a0: 2187 243d 4d7f c23d 11cc 07be 4722 413e
000001b0: 8658 553e 74ce 67bb 5487 2d3c b94a 3dbe
000001c0: 79d3 95bb c486 933a 0538 d83a e8d2 87bd
000001d0: e3ea a03d c902 debd b5bc 463d 020b a6bb
000001e0: 9e7a e13c 325b febd 998e edbd e35f 603d
000001f0: 375b 0f3e 62d6 c438 b349 843a 4a9e 913c
00000200: 022f 57bb e3c2 893a db44 17bb f9a5 18be
00000210: 5e81 e6bd eded 303e 4c56 403b c4ac 693e
00000220: 5d4c 8b3d d11a 24bd 1b7f 8ebe b180 823e
00000230: 3164 203e ebd7 16bc 2872 8b3a 9a45 033e
00000240: 8ed7 533a 8351 7f3c 30ca 053c e33d d3bc
00000250: b74a 09be dd53 c2bb 2e01 9abd 39dd 80bd
00000260: 3afa 9dbd 2fab a13d 41da 8b3e e209 733e
00000270: 9e43 44bd 8e75 31bc 5ac3 0b3c 8dcc 753e
00000280: cd7c 0c3d 9427 60bd f599 d03c 4359 4ebe
00000290: 35c0 853e b866 93bd d1eb 0ebe befe 89be
000002a0: 8ebb 8bb9 8247 adbd a4d1 54be 490d 4fbe
000002b0: 49ac 26bd 0335 933d d250 11bd 0102 3cbb
000002c0: 7b74 403a 65eb c3ba 5c62 89bb 1b01 91bc
000002d0: bc31 823b 225a 183e 1153 d6bd 0d06 34bb
000002e0: b6ef 67be 4afb ea3d c1f6 5b3e 28f5 2b3d
000002f0: 1015 7bbe f867 653c 2480 32bc 0e50 733d
00000300: 3e94 cf3b e16c 80bc 8d94 4cbc b0d2 4d3e
00000310: 579c 5d3e bc43 163e ad0e f83d 8f23 d0bc
00000320: 68e6 16bd 681b f43d e89e 1e3e 63f9 673e
00000330: 8e74 683e 88ae a43c a8ad 46bc 5198 46be
00000340: 419d eebb dd84 9ebb 9e2f c2b8 9dcb 983d
00000350: 0306 94bd d8b6 9bbd 0af1 843e a9b1 5dbd
00000360: 2f8d e53b 8212 adbd ea03 4bbe 39c0 b83d
00000370: e76b 59be 3549 17bb 7ef2 533b 050a ea3d
00000380: d651 e239 8ff2 91bb c823 a5bb bbc3 18be
00000390: 941f a2bd c899 8ebd 1299 95bc b40e f93d
000003a0: 6578 db3d 2fd1 65bd db83 003d 041c 9d3d
000003b0: decf db3d a211 9c3a 59c4 58bc 91a2 203c
000003c0: 8906 46bc 008c 503b aa28 cd3c 5d19 273d
000003d0: 0b28 de3b d5c0 913e 7411 9d3d 4547 81be
000003e0: cb24 823e 96d9 183e 33a4 12be 0c6c 73be
000003f0: 7b2a 1e3e b235 cebc 1a5b 533c 19c0 e23b
-0.002590665 0.0015483769 -0.0037107514 0.15375066 -0.09826067 0.061613422 -0.13322076 -0.024171624
0.028905362 0.17556724 -0.32931826 -0.25110054 -0.13607794 0.0026203897 -0.0020034746 0.19080937
-0.0076360996 0.009958666 -0.0073220725 0.028028293 -0.17835389 0.013753162 -0.16062944 -0.032323766
-0.21262063 -0.097867526 -0.031460647 -0.040621493 -0.33770296 -0.0033902612 0.0149598215 -0.11680927
0.007830159 -0.0032085571 0.04441785 -0.22554885 0.12472038 -0.11899483 -0.16556789 -0.14779206
0.18809551 -0.23387775 0.1314404 -0.021599626 0.12814385 -0.06657962 0.045827504 -0.04218876
0.017209604 0.010702753 -0.0076257023 0.034940865 -0.05488103 0.29161808 -0.24479192 -0.20318107
-0.1428333 0.19606166 -0.012663261 0.18140209 0.0013574297 0.014682021 0.005146997 0.18328509
0.04941638 0.08370392 -0.0012964695 -0.3463039 0.13490053 -0.1823227 0.07729679 -0.29327345
-0.15684249 0.15436912 -0.24750799 -0.021373067 0.05978076 0.0069470103 0.038669195 -0.18781672
0.006043044 -0.0094071105 -0.005600505 0.05398652 0.072818846 -0.08373453 -0.07403577 0.1119346
-0.012345489 -0.25634667 0.08038777 0.13618724 0.20994045 0.010842031 -0.012289495 0.07879461
0.0016788276 0.01602118 0.003181824 0.0529797 -0.08908777 0.20819032 0.110393584 -0.092903554
0.04016793 0.09496937 -0.13261439 0.18860732 0.2083455 -0.0035370858 0.010591347 -0.18485536
-0.0045723286 0.0011255373 0.0016496187 -0.06632024 0.07857301 -0.10840375 0.04851981 -0.00506723
0.027524289 -0.12419738 -0.11599464 0.054778945 0.1399964 9.38594e-05 0.0010092765 0.017775673
-0.0032834415 0.0010510351 -0.0023081813 -0.14907064 -0.112551436 0.17278261 0.0029348312 0.22819811
0.068016745 -0.040064637 -0.2783135 0.2548881 0.1566322 -0.009206752 0.001063888 0.1281952
0.00080811314 0.015583399 0.008165881 -0.025786346 -0.13407408 -0.0059304074 -0.07519756 -0.06292195
-0.077137426 0.07893979 0.27314952 0.23734239 -0.047916047 -0.01083125 0.008530462 0.24003811
0.034298707 -0.054725245 0.025464037 -0.20151238 0.26123205 -0.071973264 -0.13957144 -0.26952165
-0.00026651885 -0.08460905 -0.20783097 -0.20219912 -0.040691648 0.071878456 -0.035477467 -0.0028687718
0.00073415757 -0.0014947472 -0.0041926336 -0.017700722 0.003973214 0.14878133 -0.104650624 -0.0027469427
-0.22650036 0.11473711 0.21480848 0.041981846 -0.24519753 0.014001839 -0.010894809 0.059402518
0.0063348105 -0.015676918 -0.012486589 0.20099902 0.2164167 0.14674276 0.12112174 -0.02540758
-0.036840826 0.1191929 0.15490305 0.22653727 0.22700712 0.020102754 -0.012126364 -0.19394042
-0.0072819297 -0.004837616 -9.25951e-05 0.07460711 -0.07227709 -0.07603234 0.25965148 -0.054124508
0.007005356 -0.08450796 -0.19825712 0.090210386 -0.21232568 -0.0023084406 0.0032340582 0.11427692
0.00043167052 -0.004453964 -0.005039666 -0.14918415 -0.07916179 -0.06962925 -0.018261466 0.121610075
0.10716323 -0.056107696 0.031375747 0.07671359 0.10733007 0.001190711 -0.013230407 0.009804384
-0.012086519 0.0031821728 0.025043804 0.040795673 0.006779676 0.28467432 0.076693445 -0.25249687
0.25418696 0.14926752 -0.1432045 -0.23771685 0.15445893 -0.025172088 0.012900138 0.0069198725

main.1.bias f4 [20]
00000000: 2718 71be 964b b6be 2ddf a0bc 0ca4 b8bc
00000010: dfe8 413d 8340 7d3e 72d4 b03e f260 72be
00000020: 1279 0abc b681 063e ef4b 51bd 2fac dbbd
00000030: f79f 973e 56c8 c2be 8528 b5be 2eec 963d
00000040: 47a8 b23e afc4 c4be df7e a33e 2655 563e
-0.2354437 -0.35604542 -0.019637669 -0.022539161 0.047341224 0.2473164 0.34537083 -0.23669794
-0.008451717 0.13135418 -0.051097807 -0.10726201 0.2961423 -0.3804347 -0.35382476 0.073692665
0.3489401 -0.38431308 0.31932732 0.20930919

main.3.weight f4 [20]
00000000: a3fd 5f3f 5dd6 683f 87a6 6b3f 6414 5f3f
00000010: 2365 783f 6251 793f 8e7d 703f cb14 823f
00000020: 9568 703f a77f 703f 1bdb 7e3f 1539 793f
00000030: c175 7b3f e8d1 693f 86fb 813f bb5c 7d3f
00000040: da33 4c3f d645 5c3f 6f4b 6d3f 0336 673f
0.87496394 0.9095209 0.92050976 0.8714049 0.9702932 0.97389805 0.9394158 1.0162596
0.9390958 0.9394478 0.9955308 0.97352725 0.98226553 0.91335917 1.0154884 0.9896962
0.7976662 0.8604406 0.9269323 0.9031679

main.3.bias f4 [20]
00000000: 2cf0 59be d8f9 2cbe 42d9 93bd 6cdd 94be
00000010: 8d18 4dbd 3c9a 8ebd f6b5 213e effc 86bd
00000020: 1c24 25be 7562 053e dee6 eebd 99fa 193d
00000030: 0439 f13b 65cf 96be c9b0 d6bd 7d6a 02be
00000040: 1bb0 98bd 8386 45bd 269e b6bc a0b2 28be
-0.21283025 -0.16892183 -0.07219173 -0.2907518 -0.05007224 -0.069630116 0.15792069 -0.06591212
-0.16127056 0.1302584 -0.11665128 0.037592504 0.007361533 -0.29455104 -0.10482938 -0.12735935
-0.074554645 -0.048223983 -0.022292208 -0.1647439

main.3.running_mean f4 [20]
00000000: 48a3 313d 057c a43d 3fd3 c53d 0799 6a3e
00000010: efb7 6a3e 0a20 a93e d4be be3e 6c8c 15bd
00000020: c381 403e ba25 a63e f6ec f93d 66e1 503e
00000030: acc1 e43e 0641 fdbc 4033 9cbd f818 703e
00000040: d8b6 ee3e 9e55 95bd e93a fe3e c4ac a33e
0.043368608 0.08031467 0.096594326 0.22909938 0.22921728 0.33032256 0.37254965 -0.03651087
0.187995 0.32450658 0.122034 0.20398483 0.4467901 -0.030914795 -0.07626963 0.23447025
0.46623874 -0.07291721 0.4965432 0.31967747

main.3.running_var f4 [20]
00000000: 5dd8 823d 7378 023e c0aa 0f3e 02b1 113e
00000010: c983 aa3e aec8 3a3e a14a fb3d 1795 703c
00000020: d08b 123e 97e6 073e 56be 5c3e c034 df3d
00000030: 36f6 583e 029a ca3c 26a0 0c3b 31dd 743e
00000040: fb84 c43d 9ad4 203d 1a4a 583e a98a 293e
0.06388924 0.1274126 0.1402998 0.1422768 0.3330367 0.18240616 0.12270094 0.014683983
0.14311147 0.13271557 0.21556982 0.10898733 0.21187672 0.02473164 0.002145776 0.23912503
0.095956765 0.039265253 0.21122018 0.16556801

main.4.weight f4 [2048, 20]
00000000: 50e7 503d 7f74 76be c8b6 24be c9f7 c73d
00000010: 221a 94be 4b01 89be ec02 a23e 0db3 85be
00000020: 6d0b 04bc 309e 1a3e 1fda 20be b47a 2e3e
00000030: b207 debd 39c2 7fbc 5681 2cbe c872 ea3d
00000040: 0398 6ebd 45b3 c2bc cdf8 4a3d 6cf7 71be
00000050: b8be ea3d 6849 173e 8aba e93d 3d9f 443d
00000060: b0fc 823d d3b7 083e 2fe3 7e3e fb98 b0bd
00000070: aad1 433d fc49 5f3c 9d5c 8ebc 8415 143d
00000080: 04ce 11be c11e e2bd a924 3ebe c1b7 663e
00000090: d39b 563e e2df 783e 0f59 a43d 02ec 093e
000000a0: 9296 bc3d f8b1 8a3e 809d 8fbd d1dd da3d
000000b0: f30f fb3d 2e61 01bd 06b6 5c3d cfe4 4ebd
000000c0: e342 253e f8fd 90bd 3756 c4bd e216 5f3e
000000d0: d743 5abe 44df 0c3e 32fd babc ce3f 06be
000000e0: 0c3f 263d 00aa 4b3e 0089 4fbc 1830 113e
000000f0: 99c9 95bd 1c12 823d 797c ff3b a7d6 5bbe
00000100: d78d 95be 0398 e93d 2841 79bd e4c7 4abe
00000110: 0d93 c8bd 65bb d33d d34b 50bd 5fb0 43bd
00000120: 8910 02be c8ef b13d 3fab 6cbe d784 29bd
00000130: 6c66 80bd af5c 79be f87e 04be 5c60 95bc
00000140: 176f e63d e9ae 3abd 994b ad3d 548d dc3d
00000150: 7e06 92bc da47 89be 5ddc f13d 80e1 113c
00000160: 7e07 7fbe ae99 e8bd eb5a 4ebe 9177 ed3d
00000170: d2f3 533e 4f7f c9bd 8347 313e 1746 d33c
00000180: fe60 0bbd fe18 d13d cfbf c2bc 16bf 7bbb
00000190: 9372 a1be 55e0 81be a104 183d 5e18 9abe
000001a0: 7cca 543e bdde e23c e0c7 cdbc 2396 0ebe
000001b0: 29f4 e6bc c185 d63d b8ea dfbd f4a7 17bd
000001c0: d801 4f3d 2623 93be 6b15 0a3e e3ff 99bd
000001d0: 754e 83be f5f7 eabd 4240 99bd 6fc2 a2be
000001e0: ac29 8a3e 24f8 453e c3b9 86be f75e 813d
000001f0: 2ca3 b5bd 94af 623e 25ec 3f3e 34ce 2d3d
00000200: ab0b 1e3e a639 733d dcb1 9a3d 5e81 11bc
00000210: 9df2 52be 8c28 c53d b818 f4bc af63 ff3d
00000220: cf8f 15be 64fd 60be 7bea 033e 5700 6b3b
00000230: 52a1 5b3e 9849 ce3c 7e1d d93d 6cbd c0bc
00000240: 99dc ab3d f376 823e d0be 47bc 6b2b c33d
00000250: 98d8 85bd ad1b 663e 6523 583d 0076 573e
00000260: a13e 1f3e 5fdc aebd f12b 0f3d 0b3b d2bd
00000270: bf14 bcbd 4d4e 123d 94c1 333e aab2 8a3d
00000280: 39ec 123e 7cde 5e3e 7a3c 763e 11fe 473d
00000290: be7c 063e ef11 33be 75ca 743e 0a4f 733e
000002a0: 77c6 24be 5f96 763e 834a 28bd ef2c 083e
000002b0: a6c8 31be 00b7 f1bd 31a4 06be 368d 853e
000002c0: a3b0 493d 6907 003e b61f 6d3e 3496 c5bc
000002d0: c13b 303e e877 8a3e f808 eb3d 3d11 d03d
000002e0: c801 00be 7647 ad3d 46a0 cd3d 6663 02be
000002f0: b45c 3ebe 981e efbc 147f 22be 3f35 30be
00000300: 5ec9 3ebe 0b45 97bd 1656 7fbe 17df 6bbe
00000310: c6f5 4cbd 20c4 4a3d e74f d13d 8d6f d7bd
00000320: 4df8 ddbd 182e 4dbe ac6c 3f3e b68c 9bb9
00000330: 2e6c 1ebe fec7 ae3d 2567 a83d 7d87 c13d
00000340: 9efc 4e3d 7126 02be 9c84 26bc 9093 3ebe
00000350: e2cc 2b3e 1177 82be 1b97 863c 8523 86bd
00000360: f4b9 6fbe 877f a63d 6fac d9bd f687 193d
00000370: 4021 e53c bc82 bf3d 2417 7cbd 4175 d63d
00000380: fac6 fc3c a539 673e 1be3 debd 3d2d 47be
00000390: 1cb5 1c3e 7b76 273e fcbc 39be 52d2 f53d
000003a0: e32f 3ebe 448b 8d3d c05e f13d e9f8 06be
000003b0: 806a 793d 9f43 2ebd 3cfe 443e 1bee fa3d
000003c0: 2cb5 033d e73e c93d 92b8 653d 25fe 8ebe
000003d0: 83f8 4f3c 296c 3dbe ea6b 403e ee21 003e
000003e0: 9e18 41be 40da 6f3e 64ba 853d 9c51 e5bc
000003f0: aa1b 213e 8d05 6ebe e5f5 0abe dc0c 53be
0.051001847 -0.24067877 -0.1608535 0.09764058 -0.28926188 -0.267588 0.31642854 -0.26113167
-0.008059365 0.15099406 -0.15708207 0.17038995 -0.108413115 -0.015610271 -0.16846213 0.11447674
-0.05825044 -0.023767123 0.04955368 -0.2362954 0.11462158 0.14774096 0.11412533 0.048003424
0.063958526 0.13351373 0.24891351 -0.08622929 0.047807373 0.013628479 -0.017378146 0.03615333
-0.14238745 -0.11041022 -0.18568672 0.22531034 0.2095788 0.24304155 0.08024799 0.13468936
0.092084065 0.27088904 -0.070124626 0.10686839 0.122589014 -0.03158682 0.05388453 -0.050511178
0.16138797 -0.07079691 -0.09586757 0.21786073 -0.21314941 0.13757044 -0.022825811 -0.13110277
0.04058747 0.19889069 -0.012666941 0.14178503 -0.07313842 0.0635111 0.0077968207 -0.21468602
-0.29209778 0.11405947 -0.060853153 -0.19802815 -0.09793673 0.10338477 -0.05085356 -0.047775622
-0.1270162 0.08688313 -0.231122 -0.04138645 -0.062695354 -0.24351762 -0.1293906 -0.018234424
0.112516575 -0.045576964 0.08461685 0.10769144 -0.017825361 -0.2681263 0.11809609 0.008903861
-0.24905202 -0.11357437 -0.2015187 0.11595071 0.20698479 -0.09838735 0.17312436 0.025790257
-0.034028046 0.10209845 -0.023773102 -0.0038413457 -0.31532726 -0.25366464 0.03711379 -0.30096716
0.20780367 0.0276941 -0.025119722 -0.1392446 -0.028192597 0.1047473 -0.10933441 -0.037025407
0.050538868 -0.28737754 0.13484733 -0.0751951 -0.25645795 -0.11473075 -0.07482959 -0.31788966
0.26984918 0.1933294 -0.263136 0.06316941 -0.08869013 0.2213729 0.18742426 0.04243298
0.15434138 0.05938115 0.07553455 -0.008880941 -0.20600362 0.09626874 -0.029796943 0.12470185
-0.1460564 -0.21971661 0.12882416 0.0035858357 0.21448258 0.025181577 0.10601328 -0.023527823
0.08391685 0.25481376 -0.012191489 0.09529766 -0.065354526 0.22471495 0.05276813 0.21041107
0.15551235 -0.08538126 0.034954015 -0.10265168 -0.091836445 0.035719205 0.17554313 0.06772359
0.14347924 0.21764559 0.24046507 0.04882628 0.13133523 -0.1748731 0.23905356 0.2376062
-0.16091333 0.240808 -0.041086685 0.13298391 -0.17361698 -0.118024826 -0.13148572 0.26084298
0.04924072 0.12502827 0.23156628 -0.024119474 0.17210294 0.27044606 0.1147632 0.10159538
-0.1250068 0.08460896 0.10040335 -0.1273323 -0.18590051 -0.029189393 -0.15868789 -0.17207812
-0.18631503 -0.07386216 -0.24935183 -0.23034321 -0.050039075 0.049503446 0.10220318 -0.105193235
-0.10838375 -0.20037115 0.18693799 -0.00029668742 -0.15470955 0.08534239 0.08222798 0.094496705
0.050533883 -0.12709977 -0.0101634525 -0.18610978 0.16777375 -0.25481465 0.016429475 -0.065497436
-0.23410779 0.08129793 -0.10628592 0.037483178 0.027969956 0.093511075 -0.061545506 0.10471583
0.030856598 0.22580583 -0.10883161 -0.19450851 0.15303463 0.1635379 -0.18138498 0.12003006
-0.18572955 0.069113284 0.1178565 -0.13180889 0.060892582 -0.042544957 0.19237608 0.12252446
0.0321552 0.09826451 0.056084223 -0.27928272 0.012693527 -0.18498291 0.18791166 0.12512943
-0.18857047 0.234231 0.06529692 -0.027993016 0.15733209 -0.23244305 -0.13570364 -0.20610374

main.4.bias f4 [2048]
00000000: 5bdd 1c3e d0cc 51be 1725 8dbd 5cd9 813d
00000010: 451f a43d ebdf 2c3d 10b7 8c3e 0b2a 08be
00000020: 65f7 663e 1e3d eb3d 19f9 993e 49f2 8ebd
00000030: b70c 113d b084 2c3e 3317 513e 088b bd3c
00000040: da70 033e 6b31 f9bc 1917 25bd 725d 723e
00000050: 5ba4 0cbd 3b05 503e 3e63 c23d 1841 e9bd
00000060: 7393 8fbd 4369 863e ea09 8f3e e4bb 2cbd
00000070: b09f a43d df3f 0b3e 3098 f4bd 4975 e93d
00000080: dbe2 c8bd b951 143e 4d1e 833e 2fbe d93c
00000090: 000a 213d f136 cf3c affc c5bc 5d7e eebd
000000a0: 1b0e 6b3e 03e1 8e3e 87a0 3a3e 2666 7f3e
000000b0: 0d00 94bd aeb5 ee3d ffec 493d 410a 98bc
000000c0: 0af6 9fbd 1e14 83bd e3de 1a3e 8b46 063e
000000d0: 0b09 933d b77d d6bc 0e81 4b3d 9b02 153c
000000e0: a41b 413e 0ba7 ecbc ff29 2d3d 61cd b93d
000000f0: 59d8 2b3e f265 8a3d efb4 643e bd30 8dbd
00000100: 6fe2 23be c0f7 b5bd db19 853e 4356 50be
00000110: 934d 27be b73c 873d 468d fb3d df0a c5bc
00000120: 81c7 123e e0b7 e63d 2705 163e 76ee 6e3c
00000130: ce4a cb3d 798c 313d 1aa6 e4bd 769a bd3b
00000140: be6d 73bd 279a f83c 2f4d 6ebd 98fd 9dbd
00000150: 07bf 5d3d e8ab e73d c7ba 86bd 74ac 3ebd
00000160: 8a93 af3d aa9f 24bd 0bf2 59bd 689d 393e
00000170: 1398 e03d 8a0d 12be 2a93 9b3d 3225 d9bd
00000180: b34b c33c 7fcc 38ba 8efc 7e3d 0489 07be
00000190: 4b03 853e 8ca6 153e 0b51 fa3d c63f d63d
000001a0: 112a 1cbc b4d4 cfbc fcbc 18be 9852 5b3d
000001b0: a0b9 a4bc 6e69 023e 6fe4 91bd c0bd 0f3e
000001c0: 0939 66bd b7e0 8b3d 67a1 913c c056 24be
000001d0: 164f 053e 859b 12bd 80c6 453e 3b80 e8bb
000001e0: 8a60 983d 0030 983d 2a4f c43d 998e 393e
000001f0: 9ffd dcbd 7cf1 47be df0d 053d ff0a 9bbd
00000200: 6a63 43be 488a c83b 4428 6abe 9c3d 0bbe
00000210: fe07 9cbc 176e 983c 1aeb 85bb 1738 0f3d
00000220: 6f2a e03d 61e5 ebbd a693 acbd 31c1 0e3e
00000230: 4837 73bc bf5c 493d af1c 4a3d bc1b f03d
00000240: 582f afbd 6e78 16bc b9ce 1abe 7716 4abe
00000250: ad35 96bd d6bf 553d 65ae b23c 69ec 5fbe
00000260: bf69 0a3e 7ef5 213d 0d80 47be 2b50 bd3c
00000270: edb1 51be 8f57 3d3d 6311 703c 30a0 cebd
00000280: f80c e8bd 5839 1fbe c532 ba3d f0bc 31bc
00000290: 6320 e53d dcca 1dbe a19d cbbd 79b2 7a3d
000002a0: 0223 58be 671d 80be 4c53 273e 7c04 e0bd
000002b0: 0c30 abbd b7b8 aabd 703e 97be 523a f63c
000002c0: 318d 3bbe 741b e6bd 4a95 c63d fc28 99bd
000002d0: 5320 ddba c2f6 aebd 223b 28be d447 71be
000002e0: 4c7f abbd 553d 46be 3f55 b13d 3168 ff3b
000002f0: e40c ffbd 6632 33be a04a 68be b0ab d4bc
00000300: c9fb 75be 9b9a 5dbe 707f c7bd ecaa 273d
00000310: c5af f3bb c783 363d 8093 48bd 32a6 06bd
00000320: ab42 a73d c294 14be 9fa9 883d 16e1 0bbe
00000330: 4608 9abd d872 8bbc d127 a8be 6cbc 73be
00000340: 71e3 10be 8337 243c a4df 4a3d 5d1e c53d
00000350: e399 8bbd 3b81 99bd 505f d33b 1080 1dbe
00000360: dd98 c43d 8727 e9bd 0fad 58be ceb3 79bd
00000370: 81b4 9abe cdbc 5fbd 13cd 81bd 20f6 683d
00000380: 2021 74be 7523 2dbe ebdf 45be e5bc 993d
00000390: 72f8 b0bc aa04 5bbe d1f7 b7bd 1a64 9f3d
000003a0: 519d 80be c420 1dbd a1fe bfbe e3f9 cdbc
000003b0: 2439 223d 7046 93bd 9559 84be 5940 0cbe
000003c0: 1889 3cbe b3a3 c33d 0322 1abd 0635 bf3b
000003d0: e9c9 92be 85db 54be a062 8fbe c0f8 97bd
000003e0: 27f1 19be a268 fbbd 7a4d 10be 626a 18be
000003f0: 4342 54bd 223b a2be c68e 4ebe 0b71 1e3d
0.15318815 -0.20488286 -0.0689184 0.06340286 0.08013777 0.042205732 0.27483416 -0.13297288
0.22555311 0.114862666 0.3007286 -0.06979806 0.035412516 0.16847491 0.20419006 0.023137584
0.12836018 -0.030419072 -0.04030523 0.23668459 -0.03433643 0.20314495 0.09491585 -0.11389369
-0.070105456 0.26252183 0.2793725 -0.042171374 0.080382705 0.13598584 -0.1194309 0.113993235
-0.09808894 0.144843 0.25609055 0.026579944 0.039316177 0.025294753 -0.02416834 -0.11645196
0.229546 0.27906045 0.18225299 0.2494131 -0.07226572 0.116557464 0.049298283 -0.018559577
-0.078106 -0.064003214 0.15124087 0.13112848 0.07179459 -0.026182992 0.049683623 0.0090948595
0.188582 -0.028888246 0.04227638 0.09072376 0.16781749 0.06757726 0.22334646 -0.06894062
-0.16004346 -0.08885145 0.2599629 -0.20345406 -0.16338186 0.06603377 0.12282805 -0.024053035
0.14333917 0.1126554 0.14650403 0.014583221 0.09926377 0.043346856 -0.11164494 0.0057862354
-0.05943083 0.030346943 -0.058179077 -0.07714385 0.054137256 0.113120854 -0.06578594 -0.046551183
0.08573063 -0.04019133 -0.053209346 0.18126452 0.10966506 -0.14262977 0.07596429 -0.106027976
0.023839807 -0.0007049515 0.062252574 -0.13235861 0.25979075 0.14614314 0.12222489 0.104613826
-0.009531514 -0.02536998 -0.14915842 0.053545564 -0.020108044 0.1273553 -0.071236484 0.14037228
-0.056206737 0.0682997 0.017777158 -0.16048717 0.1301845 -0.035792846 0.19314003 -0.0070953644
0.07440288 0.0743103 0.09585412 0.18120803 -0.10790562 -0.19525713 0.03248393 -0.07570457
-0.19080892 0.00612 -0.22866923 -0.13597721 -0.01904678 0.018607182 -0.004086864 0.0349656
0.109455936 -0.1151836 -0.08426599 0.13940884 -0.014844723 0.049160715 0.04934376 0.1172404
-0.08553952 -0.009183986 -0.15117921 -0.19735132 -0.073344566 0.052184902 0.021811673 -0.21867527
0.13516901 0.03954076 -0.19482441 0.023109516 -0.2047803 0.04622608 0.014652583 -0.10089147
-0.113305986 -0.15549219 0.09091715 -0.010848269 0.11187818 -0.15409416 -0.09942175 0.06120536
-0.21107104 -0.25022432 0.16340369 -0.10938355 -0.083587736 -0.08336013 -0.29539824 0.030057106
-0.18315579 -0.11235705 0.096964434 -0.0747852 -0.0016870595 -0.08543159 -0.16428807 -0.23562557
-0.08373889 -0.19359334 0.086588375 0.007794403 -0.124536306 -0.17499694 -0.22684717 -0.025960773
-0.2402183 -0.21641009 -0.09741104 0.04093449 -0.007436725 0.044559266 -0.048968792 -0.03287334
0.08167013 -0.14509872 0.06672978 -0.13660082 -0.07521109 -0.017022535 -0.32842878 -0.23802346
-0.14149262 0.010023001 0.049529687 0.09624932 -0.06816461 -0.07495352 0.006450571 -0.15380883
0.09599469 -0.11384492 -0.21159767 -0.06096249 -0.3021584 -0.054623414 -0.06337943 0.056875348
-0.23840761 -0.16908057 -0.19323699 0.07506732 -0.021602843 -0.21388498 -0.08982814 0.07782765
-0.25120023 -0.038361326 -0.37498954 -0.02514357 0.039605275 -0.07191169 -0.25849596 -0.13696422
-0.18411672 0.095527075 -0.037630092 0.0058351783 -0.2866967 -0.20786865 -0.28004932 -0.07420492
-0.15033399 -0.122758165 -0.14092055 -0.14884332 -0.051821005 -0.3168574 -0.20171651 0.038682025

conv.0.weight f4 [20, 1, 5, 5]
00000000: 8a03 b93d 8b66 d3bc 1b6e 85be a1c5 31be
00000010: 689c d03d 6f9c 0cbe 933b be3d 5a52 99be
00000020: 7482 82be 5f37 adbc e7be 6dbe 0b63 f8bd
00000030: c8ae 8b3d 8127 75bc 57cc 6dbd 227a 5a3e
00000040: 44d9 25be 935e fb3d 1eab 0cbd 6efa 343e
00000050: 9293 053e 41cf 733e e41f ecbd e33b ffbd
00000060: ddf3 b13d f7d9 6a3e 4a78 383e 0e4d 333e
00000070: 0015 3f3e 43eb 163d 47b9 be3d 5dda 2c3e
00000080: 6ed8 42bd d07d d53d 3482 c23d 50dd 373d
00000090: 1d78 dc3b f594 04bd 33e2 ad3c feb4 073d
000000a0: aaf5 adbd 97b5 f3bc 10ba bebd 117f 123d
000000b0: d2df 32bd 8843 07be 6ef1 d93d 1faa 48bd
000000c0: 3b1f 55bd f67f 223e 7271 d93d b9ae 06bc
000000d0: 708a 46bd 6fd2 ce3d 44f0 863c de14 c4bb
000000e0: e538 e93d 1b40 013e b864 96bd 86c5 303d
000000f0: 8fda 673d dff0 fabc 7357 563e 3419 2f3d
00000100: a841 853c 69ac e53d ddd8 7f3d bad6 c4bd
00000110: b6aa d43d 050e d8bd ed55 2bbd bdf2 62bd
00000120: 4c4b 4fbd 62cb a5bc 65f1 9bbd 25ad 373e
00000130: ff87 613e 3e2a 893e 0ede a43c 7665 143d
00000140: c2b6 5a3e 657b ba39 ae6e 2f3e c291 ad3c
00000150: faa5 7b3e ac61 bd3d 0129 80bd 767d d7bc
00000160: d313 003e 1c68 99bd d491 453e 7c8c 5e3c
00000170: 354e 663d b67d cf3d faa2 a73d 88fd b3bd
00000180: 4d0d c13d ed7a c6bc 1b7f 333d 143e 213e
00000190: 5888 5a3d 81d4 88bc 3fca 043e a62c b7bd
000001a0: 0ebd a23d cdb0 b9bb 4c10 423e 3c3b 323e
000001b0: 31c9 95bc b16d 0abd 3442 3c3e 42bc 073d
000001c0: d8b2 293e b32b c83d f692 8ebd b083 153d
000001d0: 680a 1d3e a83f 39bd 5ee2 c83d 20c8 f03d
000001e0: 158c e9bc c90b ea3c ac50 343e d202 373e
000001f0: e38c 3e3d 5dd2 f6bd ed1e 5fbe 3c6c d7bd
00000200: b145 acbb fb9c 00be 0a2b b1bd 6b4e 4fbe
00000210: d58c a8bc 05ea 473d 0fb2 b2bb 8bb4 bd3d
00000220: 2e07 b63d a007 c3bc e3ac 0ebe c128 96bd
00000230: 5922 2abd acbe 833e 1d4b 353e 292f 0d3d
00000240: 51a1 2bbe 39f8 a03d 1165 273e d9e2 233e
00000250: bd9d 8abd 4ddb 4e3c d571 a43d 6074 8d3d
00000260: 9f3a f4bd 7ff3 f4bd 8b52 f13b 2f46 b2bd
00000270: ee30 e9bc 3b68 b4bd bf67 11bd 7b7f bdbc
00000280: 4946 aebd 95d5 a23d 58d0 acbd 9896 bf3c
00000290: 7223 11bd 0551 b9bb 472e b03c 56d8 a4bb
000002a0: f408 5e3b 443d d63b 63f7 e1bb 899a aa3c
000002b0: 1d98 5b3d 6307 5fbd eff0 ffbc f4b6 7cbd
000002c0: 88ef 44bd 49aa 7dbd bf89 883c 5d60 633d
000002d0: 68bc 633d 203c 2ebd b05a 7ebc b68f 8dbd
000002e0: 812e f1bd f1a7 cc3d ca78 3d3e 42f8 5a3e
000002f0: 1e28 1a3e 8dad e83d acb1 a5bd d37b ed3d
00000300: 400a 4b3e 3e3f 7c3c ee6f eabc 360f 843e
00000310: cb33 7e3e 2d82 b33d 814b f5bc 9018 273e
00000320: 2b28 eabd ac6e c1bd 8da6 c1bc cb3a a93d
00000330: 36c0 fb3d 45cd 563d 592c ec3b 0cc9 423d
00000340: 065a f6bd d85b 8ebd 02f9 a9bd db66 25bd
00000350: 4568 0f3e 4eff b43d 61a2 acbd b130 923e
00000360: f39e 943e 81b1 133d 843c 2b3d 0014 86bd
00000370: 3060 733c ca5a 963e 4a71 0e3e f33a 163e
00000380: b01e 763e aa57 04be f8dc 58bd 8fc2 cdbd
00000390: adb6 f5bd 8330 d0bd 564a 65bd b5f4 84bc
000003a0: bb8c 77bd fff9 f9bd ae99 24be 9b4d 233e
000003b0: 2586 ba3d f611 043e 33b0 bf3b 7f00 41bd
000003c0: 53fa d33d 12d5 f23d 8050 0b3e ae3e 183d
000003d0: 7d4f 5f3c 1730 adbd 3fc2 0a3d 1a4b 613d
000003e0: 9e7d d4bc da40 0cbe 1073 13be 2bb8 80bd
000003f0: 0686 31be ecd3 653d 4c39 d23d d6bf 2bbd
0.09033878 -0.025805732 -0.26060566 -0.17360546 0.10186082 -0.1373155 0.09288707 -0.29945642
-0.25490153 -0.021144567 -0.23217355 -0.12128266 0.06820446 -0.014963032 -0.0580562 0.21335652
-0.16196162 0.12273898 -0.034342878 0.17673656 0.13044575 0.2380953 -0.1152952 -0.12462594
0.08689091 0.2293471 0.18014637 0.17509863 0.18660355 0.036845457 0.093126826 0.16880174
-0.047569685 0.104243875 0.094974905 0.044888794 0.006728186 -0.03236862 0.021226024 0.033131592
-0.08494122 -0.029749675 -0.09312832 0.03576571 -0.043670483 -0.13209355 0.10641752 -0.048990365
-0.052031737 0.15869126 0.10617341 -0.008220368 -0.048471868 0.10098731 0.01647199 -0.005983933
0.11387805 0.1262211 -0.07343429 0.043157123 0.056604918 -0.030632434 0.20931797 0.042748645
0.016266659 0.11214525 0.062462676 -0.09611268 0.10384123 -0.10549549 -0.041829992 -0.055407275
-0.050608918 -0.020238582 -0.07614402 0.17937143 0.22024535 0.2679004 0.020125415 0.036229573
0.21358779 0.0003556862 0.17132065 0.021187667 0.24575034 0.09247145 -0.06257821 -0.026304942
0.12507562 -0.074905604 0.1929391 0.013583299 0.056226928 0.10131399 0.08185382 -0.087885916
0.09426365 -0.024228537 0.04382239 0.15746337 0.053352684 -0.016702892 0.12967776 -0.08944063
0.079462156 -0.0056668282 0.1895153 0.17405409 -0.018284412 -0.033796016 0.1838463 0.03313852
0.1657213 0.0977396 -0.06961624 0.03650254 0.15336001 -0.045226723 0.09808801 0.11756921
-0.02850918 0.028570073 0.17608899 0.1787217 0.04652108 -0.12051842 -0.21789141 -0.10518691
-0.0052573313 -0.12559883 -0.08650787 -0.20244758 -0.020574966 0.048807163 -0.005453355 0.092629515
0.08888088 -0.023807347 -0.13933139 -0.07331992 -0.041536663 0.2573141 0.17704435 0.034468804
-0.16760756 0.07859845 0.16347148 0.16004504 -0.067683674 0.012625528 0.08029524 0.069069624
-0.119252436 -0.11960506 0.007364576 -0.08704793 -0.028465714 -0.08808943 -0.03549933 -0.023132076
-0.085094996 0.07950894 -0.08438176 0.023387238 -0.035434194 -0.0056554102 0.021506442 -0.005030672
0.0033879848 0.006538065 -0.006895946 0.020825641 0.053611863 -0.054450404 -0.031242816 -0.061697915
-0.048079997 -0.061929975 0.016667245 0.05551182 0.0555996 -0.04253781 -0.015524551 -0.06912176
-0.11776448 0.0999297 0.18503109 0.21383765 0.15054366 0.11361227 -0.08090529 0.11595883
0.19828129 0.0153959375 -0.028617825 0.25792855 0.24824445 0.087650634 -0.02994323 0.16317964
-0.11433443 -0.09444937 -0.023638988 0.08263167 0.12292521 0.052441854 0.007207435 0.047555014
-0.12028889 -0.069511116 -0.082994476 -0.040381294 0.1400462 0.08837758 -0.08429409 0.28552774
0.2902752 0.036057953 0.04180576 -0.065467834 0.014854476 0.29366142 0.13910404 0.14670925
0.24035144 -0.12924066 -0.052945107 -0.10046875 -0.11997733 -0.10165503 -0.055979095 -0.016229967
-0.060436945 -0.12205886 -0.16074249 0.15947573 0.09107617 0.12897477 0.005849862 -0.047119614
0.1035048 0.11857046 0.13604927 0.03716915 0.013629791 -0.08456438 0.033876654 0.055003263
-0.025938805 -0.13696614 -0.14399362 -0.06285127 -0.17336282 0.056110308 0.10264835 -0.041930996

conv.0.bias f4 [20]
00000000: 3734 43ba e5a9 b93e c57a 6f3e e5c1 283e
00000010: 35a4 89bd 08dc 53be 8959 97be 402f fdbc
00000020: 185a e0bd abe7 07be f873 7dbe f37b ddbd
00000030: 126f 90bd 4551 66bd c88e 68be dfa1 33be
00000040: 3ec4 16ba 46fd 97be 35ef 4fbe aa2d 81be
-0.000744644 0.36262432 0.23386677 0.16480215 -0.06720773 -0.20689404 -0.29560497 -0.03090632
-0.10954684 -0.13271968 -0.2475127 -0.10814657 -0.07052435 -0.05622985 -0.22710717 -0.17542218
-0.0005751288 -0.2968542 -0.20306094 -0.2523015

conv.2.weight f4 [20]
00000000: 20d7 a43f 8e6b 8f3f 1ebd 833f 3045 873f
00000010: 471c 833f 7dc0 973f 3609 8a3f 569e 853f
00000020: 8e2b 863f 25f6 a93f f165 7a3f 15a6 843f
00000030: e689 973f be32 873f 1b68 933f 5c73 843f
00000040: 5a04 823f 038d 943f 458e 803f 2f5e 943f
1.2878151 1.1204698 1.0292089 1.0567989 1.0243005 1.1855618 1.0784061 1.0438945
1.0482042 1.3278242 0.978118 1.0363184 1.1838958 1.056236 1.1516145 1.0347705
1.0157578 1.1605533 1.0043417 1.1591243

conv.2.bias f4 [20]
00000000: b634 2f3e ca84 5abe a86b 11be 4098 423e
00000010: d713 06be adbd 523e 02b1 22be 2464 01be
00000020: 8cf3 1bbe 43cc 8e3e 5928 2abe 3d07 09be
00000030: 7aac 2b3e dbeb fabd af56 623e 2741 0dbe
00000040: b2d0 34be ff3a 353e db0a 02be d6a2 053e
0.17109951 -0.21339718 -0.14201224 0.19003391 -0.13093506 0.20580168 -0.15887836 -0.12635857
-0.15229625 0.27890214 -0.16616954 -0.13381667 0.16765013 -0.12252017 0.2210338 -0.13794385
-0.17657736 0.17698286 -0.12699454 0.13050398

conv.2.running_mean f4 [20]
00000000: d0d5 a73c 96bb 013f 7741 9b3e f284 dd3e
00000010: c13f 283e aebd 27bd 35ae 91bd e870 323e
00000020: e67e dc3d 738a dcbc 2dac 7cbd 8f0a 173e
00000030: 465b 703d 4e09 d63c 7574 ecbc 8657 bbbc
00000040: 201e 233e b6a0 d3bc 999d 49bd 7fc2 87bc
0.020487696 0.5067686 0.30323383 0.43265492 0.1643057 -0.040952377 -0.071133055 0.17425883
0.107663915 -0.026921486 -0.061687637 0.14750122 0.058680795 0.026127484 -0.028864125 -0.022868883
0.1592946 -0.025833469 -0.049222562 -0.016572235

conv.2.running_var f4 [20]
00000000: ccee 853c 386d 543d 88b9 bc3c dc56 d73d
00000010: 0016 7b3d 8f32 b33b fdb5 053a d99a 883d
00000020: feb7 673d 7200 583b f501 7d3a 0b98 913d
00000030: 312d d03c 77dc 9b3c 8fae b33b 3c73 973b
00000040: 8e41 5a3d ad22 4c3c beaf b33a 9a45 353c
0.016349219 0.05186197 0.023037687 0.10514614 0.061300278 0.0054686735 0.0005100666 0.0667016
0.056571953 0.003295925 0.00096514757 0.07109078 0.025412174 0.019026024 0.0054834555 0.0046218913
0.053285174 0.012459439 0.0013708991 0.011063958

conv.3.weight f4 [1, 20, 5, 5]
00000000: 0320 15be ff9e fcbd 32a9 06be 19d8 38be
00000010: 4bae 08be 6c41 19be 897b 19be 9dea dbbd
00000020: 5a0d 29be 0dec 4dbe 917d 6ebe fb3f 57be
00000030: b7c0 6abe f85e 74be b3de 2cbe 7500 4cbe
00000040: 1a5b 0cbe 1d68 27be c049 31be fc74 3fbe
00000050: c15b 19be daf1 3fbe 3bfb 47be 6a95 47be
00000060: 4b21 39be be59 2c3e 91bb c93d b647 043e
00000070: 268a 023e 4f5a 1a3e 6624 073e e4b2 1c3e
00000080: cdf9 203e 80ab 183e 1a54 f23d aceb 233e
00000090: b0c1 473e c18d 4f3e 5f77 443e a341 2b3e
000000a0: 6313 0d3e 2013 203e d424 253e 7226 0f3e
000000b0: 4102 f23d 12ec 40bc 5ebe 213d 225d b93d
000000c0: a92c aa3c 800a 123d 3a14 003e eb3e fc3d
000000d0: 3418 d33d e0de d63d 38d7 973d c6c3 873d
000000e0: 0209 a93d 662f b33d 18d6 023e 7932 ad3d
000000f0: d77f 273e 8c4b fa3d 6990 c53d 659a cb3d
00000100: 5950 6f3d f175 063e 26ae f23d e00d e33d
00000110: 2f57 e23d e292 373d e1e1 0b3e d6f4 143e
00000120: ad71 053e bb10 f23d 2c4a bc3d 1ccc 13be
00000130: 8426 23be fdee 32be 4fc7 2cbe a4fd 0bbe
00000140: ad6e eabd cc3d 28be 2015 9cbd a897 17be
00000150: 0ab1 39be 521c 0abe 5350 2ebe 3a9b 47bd
00000160: 3abf 1bbe f87d 2bbe d0c9 32be 8ba2 16be
00000170: 5776 bdbd 9305 04be 81b0 1cbe 61da 07be
00000180: 777f d4bd 25c2 03be 4ddb febd 49e9 0fbe
00000190: a47a 103e 3663 933d 5247 d73d 905c b23d
000001a0: 1b91 ac3d 91db cf3d bc66 d93d 9c7c 073e
000001b0: 3b73 0f3e dabe 023e ced6 c43d c82f c13d
000001c0: 14ca 0d3e 036a 003e 7223 0f3e 9478 c03d
000001d0: 2be9 d13d bb34 303e 1084 a13d cc7e ea3d
000001e0: 52b8 883d c79b 033e 99aa cb3d 36f0 743d
000001f0: 37c6 a53d 187e 63be 5b20 52be 4da2 26be
00000200: 64d1 46be 6acf 44be aaaa 5ebe 916f 3fbe
00000210: 74dd 4fbe d8eb 34be 8891 38be 804c 59be
00000220: 84c6 0ebe 4dab 7fbe 024a 53be 1ded 55be
00000230: a272 4cbe 1190 57be d8ce 0dbe 7f57 37be
00000240: b8cd 49be f487 1bbc af0d 22be de71 10be
00000250: 6c4a 1ebe 878d 52be 4ddd 943d bfad a63d
00000260: 26ef 013e 1f91 c43d 23a0 b53d c698 ea3d
00000270: 0d9c db3d b926 ce3d a1b9 093e 105b 0c3e
00000280: ca8d d83d 0602 1e3e d6f7 f23d 410b 213e
00000290: aa52 073e a2c2 263e 12a5 da3d 4afd ab3d
000002a0: f516 bf3d c625 df3d 440f 9b3d a8ca be3d
000002b0: 6d30 053e 0489 9c3d ea1a 083e f702 ae3d
000002c0: 1842 973d dee9 113e a62c 9f3d 9e15 993d
000002d0: 45e7 e23d 2aa3 063e c7da 0c3e 396b ce3d
000002e0: 67db 983d b34b 133e f13d ef3d bf81 063e
000002f0: 5df5 d83d 141d bc3d 664c cc3d 25a7 dd3d
00000300: 5440 e83d 79ec eb3d e29e 933d d0e5 f53d
00000310: 1a82 9f3d 85d2 613d bb0c fc3d f979 953d
00000320: e887 a83d 644d 9d3d 606a 213e c241 a13d
00000330: a5ae cf3d 3b38 d53d 4d67 1c3e e4fc 043e
00000340: 3999 e23d 9ef0 1d3e af52 fb3d a25a 113e
00000350: a29b 243e b70c bb3d ec42 f33d cd85 a83d
00000360: fe44 113e 348b ea3d d197 063e bc97 173e
00000370: 2b77 083e ce9d a33d 97e5 d93d 33fb 823d
00000380: 7085 d83d d40c 39be 04cf 51be c2b9 81be
00000390: 3b82 62be ceea 84be f9a1 50be b212 8abe
000003a0: 505b 63be 7f32 71be 0593 4dbe 67ce 77be
000003b0: c7b2 89be fd37 9dbe 8eeb 87be 764b 87be
000003c0: 71c7 cebd eb36 8cbe dbf2 a1be 69d8 83be
000003d0: 2437 51be b6c8 fd3b 41ba d0bd f909 04be
000003e0: 7d64 2bbe c7c3 b6bd cbd3 f13d 8187 fa3d
000003f0: 962d 043e 5b7f 0a3e 6bed 003e 03f3 083e
-0.14562993 -0.123350136 -0.1315048 -0.18051185 -0.13347737 -0.14966363 -0.14988531 -0.10738108
-0.16509 -0.20109577 -0.23290087 -0.210205 -0.22925077 -0.23864353 -0.16881828 -0.1992205
-0.13706627 -0.1634831 -0.1731329 -0.1869697 -0.14976408 -0.18744603 -0.1952943 -0.1949059
-0.18079107 0.16831109 0.098502286 0.1291798 0.12748012 0.15073512 0.13197479 0.15302616
0.15720291 0.14909172 0.11832447 0.1600787 0.1950748 0.20268919 0.19186161 0.16724257
0.13776927 0.15632296 0.1612733 0.1397951 0.11816836 -0.011775034 0.03948819 0.09050967
0.020773249 0.035654545 0.12507716 0.12316688 0.10307351 0.10491729 0.074140966 0.06629138
0.08253671 0.08749275 0.12776983 0.084568925 0.16357361 0.12221441 0.09646685 0.09941558
0.058426235 0.13130929 0.118496224 0.11086631 0.11051785 0.044817813 0.13660385 0.14546522
0.13031645 0.11819597 0.09193835 -0.1443333 -0.15932661 -0.1747398 -0.16872905 -0.13670975
-0.11446891 -0.16429824 -0.07621217 -0.14803946 -0.18133941 -0.13487366 -0.17022829 -0.04873202
-0.15209666 -0.16747272 -0.17459798 -0.14710443 -0.09251087 -0.12892751 -0.15301706 -0.13266899
-0.103758745 -0.12867029 -0.12444172 -0.14053835 0.14109284 0.07196657 0.1051165 0.08709061
0.08426114 0.10149301 0.10615298 0.13231128 0.140088 0.12768117 0.09611283 0.09432942
0.13846618 0.1254044 0.13978365 0.093979985 0.102495514 0.17207615 0.07886517 0.11449966
0.06675781 0.12852393 0.09944648 0.059799396 0.08094447 -0.2221607 -0.20520155 -0.1627285
-0.19415814 -0.19219747 -0.2174479 -0.18694903 -0.20299321 -0.17668092 -0.18024266 -0.21220589
-0.13942915 -0.2496769 -0.206337 -0.20891233 -0.19965604 -0.2105105 -0.13848436 -0.17904471
-0.19707382 -0.009492863 -0.15825532 -0.14105937 -0.15458077 -0.20561801 0.07268772 0.08138608
0.12688884 0.09597992 0.08868434 0.114549205 0.10723124 0.100659795 0.13449718 0.13706613
0.10573919 0.1543046 0.11863677 0.1572695 0.13215128 0.16285184 0.10676016 0.083979204
0.093305506 0.108958766 0.07571271 0.09315997 0.13006754 0.07643321 0.13291517 0.08496659
0.07385653 0.1424937 0.07772188 0.07474826 0.110792674 0.1314818 0.13755332 0.10079045
0.07463723 0.14384346 0.11681736 0.13135432 0.10593674 0.09185234 0.09975509 0.10822896
0.113403946 0.11519713 0.07208039 0.12006724 0.07788487 0.055132408 0.12307116 0.07298655
0.08229047 0.07680777 0.15763235 0.078738704 0.10140733 0.10411116 0.15273781 0.12987095
0.11064381 0.1542382 0.1227163 0.1419473 0.16074994 0.091332845 0.11877999 0.082286455
0.14186475 0.11452332 0.13143851 0.14803976 0.13326709 0.07989083 0.10639494 0.06395569
0.10572326 -0.180713 -0.20489126 -0.25337034 -0.22119991 -0.25960392 -0.20374288 -0.26967388
-0.22202802 -0.23554419 -0.20075615 -0.2419983 -0.2689421 -0.30706778 -0.265469 -0.2642476
-0.10096634 -0.2738565 -0.31630597 -0.25751045 -0.2043119 0.007744874 -0.10191775 -0.1289443
-0.16737552 -0.0892406 0.118079744 0.122328766 0.12908015 0.13525145 0.12590568 0.13373952
