src/caches/cache_10_8_ink/param2img3.pt (torch, 184864 bytes, 19 tensors)

main.0.weight f4 [16]
000000 00 00 80 3f 00 00 80 3f 00 00 80 3f 00 00 80 3f
       1.0 1.0 1.0 1.0
000010 f1 eb 81 3f bb 17 75 3f bc 9d 86 3f 00 00 80 3f
       1.0150129 0.95739335 1.0516887 1.0
000020 47 26 74 3f 17 4c 86 3f 14 f1 83 3f 00 00 80 3f
       0.95370907 1.0491971 1.0307946 1.0
000030 d2 c3 76 3f 00 00 80 3f 00 00 80 3f 00 00 80 3f
       0.9639255 1.0 1.0 1.0

main.0.bias f4 [16]
000000 48 3e 8a 3d c3 b2 7b 3d 83 f5 90 3d 63 85 87 bd
       0.067501605 0.061449777 0.07078078 -0.066172384
000010 c6 e9 5e bd 27 62 9d bd 30 67 ac 3b 9c 5c c8 bd
       -0.054422162 -0.07684737 0.0052613243 -0.09783289
000020 b7 e9 e8 3c 2c 0c d2 bc 57 68 b0 3c 6e 4e b3 bd
       0.028431756 -0.02564057 0.021534128 -0.08755194
000030 dc 09 09 3c 4a 92 b5 3d be 7b a1 bd 3f 09 c0 3d
       0.008364167 0.08865793 -0.0788493 0.093767636

main.0.running_mean f4 [16]
000000 00 00 00 00 00 00 00 00 c2 cc 4c 3e 00 00 00 00
       0.0 0.0 0.19999984 0.0
000010 2e d9 5b 3b 5e fa 5f 39 f8 4d f2 3e 00 00 00 00
       0.0033546197 0.00021360206 0.4732511 0.0
000020 2e d9 db 3b 5e fa 5f 39 f8 4d f2 3e 00 00 00 00
       0.0067092394 0.00021360206 0.4732511 0.0
000030 df e2 24 3c 00 00 00 00 c2 cc 4c 3e 00 00 00 00
       0.010063856 0.0 0.19999984 0.0

main.0.running_var f4 [16]
000000 9d 02 ce 1c 9d 02 ce 1c 66 bc 41 24 9d 02 ce 1c
       1.3632612e-21 1.3632612e-21 4.2009784e-17 1.3632612e-21
000010 e5 cd 68 36 16 1e a5 37 42 e9 9e 3d 9d 02 ce 1c
       3.469054e-06 1.9683543e-05 0.07759334 1.3632612e-21
000020 e5 cd 68 37 16 1e a5 37 42 e9 9e 3d 9d 02 ce 1c
       1.3876216e-05 1.9683543e-05 0.07759334 1.3632612e-21
000030 d4 f3 02 38 9d 02 ce 1c 66 bc 41 24 9d 02 ce 1c
       3.1221498e-05 1.3632612e-21 4.2009784e-17 1.3632612e-21

main.1.weight f4 [20, 16]
000000 e2 16 41 bc 8d 4f 7a be 9a 65 a5 bd 8d 0c c6 bd
       -0.011785241 -0.24444409 -0.080760196 -0.096703626
000010 a7 47 e1 bd ea be 88 bd 46 8b 6e be 65 91 02 3e
       -0.10999995 -0.06677039 -0.23295316 0.12750776
000020 ac be 42 3b e3 59 f4 3c 13 d7 49 3d 38 8c 6d be
       0.00297157 0.029828018 0.049277376 -0.2319802
000030 7b 66 8b 3d 98 00 5e bd 88 15 de 3d fe ec cb bc
       0.06806656 -0.054199785 0.108439505 -0.02489328
000040 ac b5 9c 3e a7 db f1 3b 2b 9f b7 bd 89 2b 18 bd
       0.30607355 0.007380921 -0.08965906 -0.037150893
000050 47 e5 d9 bc bf 31 14 bd 94 1c 12 bc 28 25 57 be
       -0.026598586 -0.036180254 -0.008917946 -0.21010268
000060 d8 6f 56 be 13 7c fb bd d7 46 62 be 3e 16 a9 be
       -0.20941103 -0.12279525 -0.22097336 -0.33024782
000070 cf 57 44 3d 1d 2c a6 3e 09 fe 4e bc 56 e6 0c be
       0.047935303 0.3245553 -0.012633809 -0.13759741
000080 51 79 24 be 52 6a 3d be 6b 84 32 3d e6 72 4b 3e
       -0.16061904 -0.18497589 0.043583315 0.19868049
000090 a5 fc 1d be 7e c2 61 3e 9e e6 dc bd 9b 0c 9b 3d
       -0.15428407 0.22046849 -0.10786174 0.07570764
0000a0 36 c1 3c 3d 6f 85 2b bd 16 f9 68 3e 8a b9 b4 3c
       0.046082698 -0.0418753 0.22751269 0.022061128
0000b0 8f a4 00 3e 8f 75 c6 3d fd d7 17 3e 03 50 f3 bd
       0.12562774 0.09690391 0.14828487 -0.118804954
0000c0 e8 39 40 3e 8b 0c ee 3d fd 1a d7 3c 95 4b c8 bd
       0.1877209 0.11623486 0.026257986 -0.09780041
0000d0 e1 ea 15 be 35 40 db bd 08 da 51 3d 87 2d 21 3e
       -0.1464038 -0.10705606 0.05123332 0.15740024
0000e0 7e 7d 9d 3d 4c 22 02 3d b3 7f 52 3c dc 0b 63 be
       0.07689951 0.03177099 0.012847829 -0.22172493
0000f0 d9 d9 14 bd 49 1c 60 3e 29 22 4a 3e 18 ee cc 3d
       -0.03634057 0.2188579 0.19739594 0.1000635
000100 58 d8 00 be fc 09 57 3e d1 fd c1 3d e8 f8 6a be
       -0.12582529 0.20999902 0.0947224 -0.22946513
000110 96 92 6e be ed e1 75 3d 22 07 86 3d 1f 5b ae bd
       -0.23298106 0.060029913 0.06544329 -0.08513474
000120 b6 6c 65 3e 4e 9a 4b 3d 21 aa 67 3e 57 8f 1d 3d
       0.22404751 0.049707703 0.22623493 0.038466778
000130 5f a6 7d bd 0e 0b 41 bd 29 d7 be bd a1 de 51 3e
       -0.061926242 -0.047129683 -0.09318382 0.20495082
000140 42 fa 2d 3e 5c fe 46 3e 1d de ac 3e b5 4a 3b be
       0.16989997 0.19432968 0.3376321 -0.18290217
000150 49 7a 71 bb fb f2 4e 3e ab 59 03 3e ba a9 57 bd
       -0.003684657 0.20209877 0.12827174 -0.0526521
000160 3f cd 49 3e 76 48 09 3e 89 b3 c2 bd 60 a6 71 be
       0.19707201 0.13406548 -0.095069 -0.23598623
000170 86 ae 7c 3d b1 83 86 3e 6f 0c 73 3d 97 58 75 3e
       0.061689876 0.26272348 0.05933803 0.23959576
000180 ec 8f b9 bc 2f 66 cb bc 07 32 e5 bd 80 68 54 be
       -0.022651635 -0.024828998 -0.111911826 -0.20742989
000190 b4 db 74 bc d3 19 53 bd bb 58 47 3e 49 9f a1 be
       -0.014944959 -0.0515383 0.19467442 -0.31566837
0001a0 59 72 aa bd f7 63 fe bd e0 58 4d 3e 2a 64 41 be
       -0.08322591 -0.124214105 0.20053434 -0.18885866
0001b0 69 d5 82 3d 5e ee 85 3e 5c 6a 28 be cb 7b 23 3e
       0.06388361 0.26158422 -0.16446823 0.15965192
0001c0 be 36 4e 3e a4 98 2f 3e 3c 60 43 3d 6b 34 ff bd
       0.2013807 0.17148072 0.047699198 -0.1246117
0001d0 52 4f ba bd 6a a0 e5 bd 8e fb 36 3e f1 54 08 be
       -0.090971604 -0.11212237 0.17869398 -0.13313653
0001e0 32 14 0f 3e a2 69 8f 3e db f5 f3 3d 5f 8b a5 bd
       0.13972548 0.2801028 0.119121276 -0.080832236
0001f0 52 4b 67 3e 06 99 22 be 88 8c 36 be b2 d8 2e be
       0.22587326 -0.15878686 -0.17827046 -0.1707485
000200 24 3b 40 3d 81 a8 42 3e 74 a9 8a 3e 44 9e 3f be
       0.0469314 0.19009592 0.27082407 -0.18712717
000210 99 10 a5 3d ba cf 16 be 30 95 1e be 0e fa ac 3d
       0.080598064 -0.14727679 -0.15486598 0.08446132
000220 b2 3a 65 3e 85 dd e6 3d 11 ba 68 3d 91 2c 01 3d
       0.22385672 0.1127272 0.05681807 0.031536642
000230 7e 56 72 be 50 89 2f 3e ec 7e 5a be 21 95 5d 3e
       -0.23665807 0.17142224 -0.2133748 0.2163892
000240 f4 4a 58 3d cd 3f 86 3d 82 db 68 3e da 3d 6d be
       0.052805856 0.06555138 0.22739986 -0.23168126
000250 76 90 07 3e f6 b6 18 3e 58 87 3b be a9 d7 d6 3d
       0.13238701 0.14913544 -0.18313348 0.10490353
000260 5e 7f 5e 3e d3 c4 ee bd f3 14 0d 3e a7 07 57 bc
       0.21728274 -0.11658635 0.13777523 -0.013124383
000270 39 19 6e be f9 ce fb bd 4b e1 d8 3d 52 e7 b2 3c
       -0.23251809 -0.12295336 0.10589846 0.021838818
000280 f9 9a 77 3c f1 46 01 be e6 58 6e 3e 78 f7 4f be
       0.015112632 -0.12624718 0.232761 -0.20309246
000290 5e 42 79 3e e4 a3 09 3d 5a ff 0f 3e 6c 3b 6f be
       0.24341723 0.033603564 0.14062253 -0.23362511
0002a0 0f 29 5e 3e f2 a2 0e 3e e3 33 d5 bc a5 76 73 be
       0.2169535 0.13929346 -0.026025718 -0.23775728
0002b0 3f f3 30 3d 14 c1 86 3e a5 70 2d be 32 35 3c be
       0.043200728 0.26319182 -0.16937502 -0.18379667
0002c0 e6 d5 75 be aa 02 6f be 99 2c df bd 7f 8b b0 bd
       -0.24007377 -0.2334086 -0.10897178 -0.08620357
0002d0 81 2a 68 3d 47 e7 2a be 1e aa 14 3e d3 97 08 3e
       0.05668116 -0.16689788 0.1451802 0.13339166
0002e0 1b 19 c6 3d 12 a1 45 3e d1 ac 8e 3e b1 7b 4b 3e
       0.09672757 0.19299725 0.27866223 0.19871403
0002f0 87 56 53 be 83 31 b1 3d 6f 06 1a be 1b 60 52 3e
       -0.20638476 0.08652022 -0.15041517 0.20544474
000300 f0 26 0c 3c 4a c4 f5 3a e2 05 16 3e 0c 36 83 3d
       0.008554205 0.0018750515 0.14650682 0.06406793
000310 9b 5e 66 be 37 ff 3a be 1f 24 47 be 08 3d 83 be
       -0.22497027 -0.18261419 -0.19447373 -0.256325
000320 c5 f9 1c 3d 50 78 1c be 09 9e c7 3d 55 0b 8d be
       0.038324136 -0.1528027 0.0974694 -0.27547708
000330 00 6e 12 3e a3 a1 39 3e 8c f7 82 be 86 1e 9b 3e
       0.14299774 0.18128066 -0.25579488 0.30296725
000340 47 5b 91 3e df 49 51 3e 34 e1 d6 3d 09 7a 51 3e
       0.28389952 0.20438336 0.10492173 0.20456709
000350 a3 95 18 3d c5 35 32 bd ea ed 42 be 0c 8d be bc
       0.03725208 -0.04350831 -0.1903607 -0.023260616
000360 fc c4 32 3d d5 75 56 bd e3 b9 77 3d b9 c2 21 3d
       0.04364489 -0.052358467 0.06048001 0.039492343
000370 28 c7 c1 bd d8 60 4d be d3 2e 11 be ee 6e 4d 3d
       -0.09461814 -0.20056474 -0.14178018 0.05015462
000380 48 b6 38 3e 70 63 a1 bd 22 09 36 3e c0 6b 70 be
       0.18038285 -0.07880294 0.17776921 -0.23478603
000390 5a 87 20 3e 40 19 18 be 8a 66 7b 3e ba 0a 9f bd
       0.15676633 -0.14853382 0.24550834 -0.07765718
0003a0 a6 93 12 be 19 cf 03 3d 05 ec 2e 3d d0 5a e0 bd
       -0.14314136 0.032179926 0.042705555 -0.10954821
0003b0 90 3b 91 bd a2 c9 71 3e d3 ba 66 3d 9c 12 3e be
       -0.07091439 0.23612073 0.056330513 -0.18561786
0003c0 5a 8e 35 3c 77 ad 8a 3e b4 d8 09 bd 94 c4 6b be
       0.011081303 0.27085468 -0.03365393 -0.23024207
0003d0 30 3c c6 3d 05 8e 79 bd 0b 74 06 3e ae fe 78 be
       0.096794486 -0.060926456 0.13130204 -0.24315903
0003e0 2e 51 e7 bc db e2 97 3e d7 b8 8c bd e3 25 96 3c
       -0.028236952 0.29665264 -0.06871193 0.018328613
0003f0 d8 b4 f4 3d 26 37 41 3e 0a 1e 40 be 53 40 50 3e
       0.11948556 0.18868694 -0.18761459 0.20337038

main.1.bias f4 [20]
000000 ff ca 67 3e ed e5 cc 3d 41 e4 28 3e 0b 29 74 3e
       0.2263603 0.10004792 0.16493322 0.23843782
000010 8b ee 48 3d ba 20 fb bd c1 74 01 be 82 87 ed 3c
       0.049055617 -0.122621015 -0.12642194 0.02899528
000020 71 1e 0a 3e be 59 00 3e 3a 46 39 3d c7 ea 38 3e
       0.13488175 0.12534234 0.04523299 0.1805831
000030 b5 17 6f 3e a0 a7 a3 3d a0 8d a6 3b d3 8f dd bc
       0.23348887 0.07990956 0.005082801 -0.02704612
000040 45 51 08 3e 32 c2 2a 3e 7d 83 f2 bd f3 73 63 3e
       0.13312252 0.16675642 -0.11841486 0.222122

main.3.weight f4 [20]
000000 a5 76 83 3f 28 bc 66 3f 2e 37 7a 3f 56 72 63 3f
       1.0270582 0.90130854 0.9774045 0.8884634
000010 62 df 86 3f a4 f5 63 3f 9f f6 61 3f f5 a5 76 3f
       1.0536921 0.8904669 0.8826694 0.9634698
000020 dd eb 5c 3f 6f 69 6d 3f f3 46 72 3f fa 60 6b 3f
       0.862974 0.92739004 0.9463951 0.9194485
000030 ae 37 74 3f 5e 48 7b 3f 55 0e 5f 3f 98 76 65 3f
       0.9539746 0.981573 0.87131244 0.89634085
000040 6b 94 60 3f fd b9 64 3f 82 4a 6f 3f 81 ad 6d 3f
       0.8772647 0.89346296 0.93473065 0.9284287

main.3.bias f4 [20]
000000 d6 d6 14 bd b1 ad 8b bd 62 68 de bc 6d de e2 3d
       -0.036337696 -0.068202384 -0.027149383 0.110775806
000010 bf 2d c5 bd 7a c5 17 be 59 61 16 be 38 e1 08 be
       -0.09627866 -0.14821425 -0.14685573 -0.13367164
000020 c8 b6 7a bc a6 cc c4 bd 0d 2d 0a be 2e a4 dd bd
       -0.0153023675 -0.09609346 -0.13493748 -0.108223304
000030 80 ee 0a 3e 71 e0 84 bd f3 f7 05 bc 73 ea e4 bc
       0.13567543 -0.06488121 -0.0081767915 -0.027943825
000040 2d e1 f3 3d 97 e9 7c bd 95 01 e6 bd 69 e4 d5 3d
       0.11908183 -0.061746206 -0.112307705 0.104439564

main.3.running_mean f4 [20]
000000 b7 3b 65 3e 5d 98 67 3e 3a 2b 07 3e 90 63 9a 3e
       0.2238606 0.22616716 0.13200083 0.30154085
000010 d4 66 38 3e de 9e d3 3d 6c 37 12 3e 73 fc 48 3e
       0.18007976 0.10333036 0.14278954 0.19627552
000020 85 3d 6c 3e 05 8b 03 3e 06 5e 4e 3e 58 5c 84 3e
       0.23070343 0.12846 0.20153055 0.25851703
000030 20 f0 ca 3e 6d ee 01 3e 10 ee 10 3e 99 35 fc 3d
       0.39636326 0.12688608 0.14153314 0.123149104
000040 7f 98 6b 3e ab 96 40 3e f9 9e 37 3e 44 b3 a0 3e
       0.23007391 0.18807475 0.17931737 0.3138677

main.3.running_var f4 [20]
000000 5a a5 ff 3c 7f c2 64 3d 0c 50 cf 3c f7 e8 21 3c
       0.031206775 0.05584955 0.025306724 0.009882203
000010 71 20 69 3d 1e db 51 3d a1 e0 b0 3d 24 91 d0 3d
       0.056915704 0.051234357 0.086365946 0.101839334
000020 b1 39 30 3c 22 4e 61 3b fe 13 a1 3d ea b1 e5 3d
       0.010755942 0.0034378846 0.07865141 0.11215575
000030 be 4b 8f 3d c6 d9 80 3c 6d ab 52 3d fa 6b 16 3d
       0.069968686 0.015728842 0.051433016 0.03672407
000040 14 e5 b2 3d 2a 54 25 3d 29 a5 c7 3d f5 f2 4c 3c
       0.087350994 0.04036347 0.09748299 0.012509097

main.4.weight f4 [2048, 20]
000000 56 d3 70 3e 61 a5 da bd c1 87 46 3e 4e 6f ba 3d
       0.23518118 -0.10676075 0.19387724 0.09103261
000010 97 b5 1e 3e 64 99 60 3e c7 a7 88 be bc 47 ff bd
       0.15498959 0.21933514 -0.26690504 -0.12464854
000020 ba 0b 77 3d 64 96 0e bc 48 8d 04 be 75 1a 27 be
       0.060313918 -0.008702848 -0.1294452 -0.16318686
000030 8d 7c 90 bd 06 d2 ff 3c 62 9b 1f be ea eb 58 3e
       -0.07055006 0.031228077 -0.15586618 0.21183744
000040 7d ad 24 bd 37 ff 29 3d 23 fd 35 be 00 57 73 3a
       -0.040204514 0.041503157 -0.17772345 0.00092826784
000050 bf 96 b0 3d fc d0 c9 3d 0e 47 11 3d 31 28 71 bc
       0.086225025 0.09854314 0.035468154 -0.014719055
000060 6a 09 50 3e a4 9a 05 3e 20 83 28 be 67 69 bd 3d
       0.20316091 0.13047272 -0.1645627 0.092486195
000070 b7 93 ba 3d a8 c2 ae 3d 57 e6 58 bd 4b 9e 17 be
       0.091102056 0.085332215 -0.052954044 -0.14806478
000080 69 e3 63 3e ab 73 d1 3d 75 47 aa 3d 86 e9 4a 3e
       0.22254719 0.1022714 0.083144106 0.19815645
000090 31 2a 21 3e 88 b6 bc 3d 51 be 23 3e bb f8 a0 bd
       0.15738751 0.092145026 0.15990569 -0.078599416
0000a0 82 71 35 be 0b 45 3a bd 1e 2c 2f 3c 85 7a a6 3d
       -0.17719081 -0.045476 0.010691671 0.081288375
0000b0 ed 5e 5f 3d 2a 3d ba 3d ec 3d 80 3d 90 5e fe bb
       0.054533888 0.09093697 0.06261811 -0.0077627376
0000c0 7d fa e6 bd 6c cf b6 3b 65 86 26 be f8 8f fd bc
       -0.112782456 0.005578926 -0.16262205 -0.030952439
0000d0 38 e2 22 be 1b 0a 0e 3e a5 1d 09 3e d7 11 2d 3d
       -0.15906608 0.13871042 0.13390215 0.04225334
0000e0 5a d8 f5 bd ef 35 22 3d c7 57 17 bd dc 20 ee 3d
       -0.120041564 0.039602216 -0.036948945 0.11627361
0000f0 e8 4b 0a 3e cc 94 a7 bd 96 bc df 3d 80 f4 1d be
       0.13505518 -0.081826776 0.10924642 -0.154253
000100 85 46 81 3d c0 51 d0 3d 07 2f d5 bd 3b 27 87 be
       0.06312279 0.101718426 -0.104093604 -0.26397118
000110 bb 92 ca 3d ec 7c 3e bd 9d 33 13 be e8 df e5 3c
       0.09891268 -0.046505854 -0.14375158 0.028060868
000120 6c 94 6e 3d e7 87 63 bc 89 cf f0 3d 64 5d 12 3e
       0.058247015 -0.013887382 0.11758334 0.14293438
000130 ff 67 2d 3c b0 11 bd 3d 04 0f b4 3d b8 c5 57 3e
       0.010583877 0.09231889 0.087919265 0.21071517
000140 66 90 81 be e4 2c 59 3d 7c 06 b3 bd b0 0f 2e 3e
       -0.2530548 0.053021327 -0.08741471 0.16998172
000150 ee b5 cc bd a5 72 62 be ce cb 66 bd f5 59 6c 3d
       -0.09995638 -0.22114046 -0.056346707 0.057702977
000160 b5 d4 3a be 3c d0 9c bd 2b 20 e3 3d e8 c3 a7 3e
       -0.18245204 -0.07656905 0.1109012 0.32766652
000170 09 5d 7f ba 29 63 93 be 80 88 a2 bd b2 0f 13 3d
       -0.00097413413 -0.2878659 -0.079361916 0.03590364
000180 e4 77 d2 bd 4f 22 27 be 4c d3 c8 bd 95 eb f7 3d
       -0.102767736 -0.16321681 -0.09805927 0.121054806
000190 fe de 9f 3c 99 86 93 bd 92 0c b6 bd a4 24 6a be
       0.01951551 -0.07203407 -0.08889116 -0.2286554
0001a0 7e 89 77 bd 5b 6b 1f bd 7f 4c 23 3d 53 8f f3 3d
       -0.060433857 -0.03892074 0.039867874 0.11892571
0001b0 f5 47 43 3e 0f 20 2b 3c 9b a5 51 bd 89 40 96 be
       0.19070418 0.010444655 -0.051183324 -0.2934611
0001c0 9c d3 87 3c 12 8b e7 bd 07 e3 78 3d 42 d9 3f bd
       0.016580395 -0.113058224 0.060763385 -0.046838053
0001d0 93 c4 1a 3c bb 22 fc bd 46 8a 61 3d 1a 80 30 be
       0.009446281 -0.12311312 0.05506351 -0.17236367
0001e0 7c 12 60 be 10 64 59 be e1 a1 f2 3d 6f 61 2c 3e
       -0.21882051 -0.21229577 0.11847282 0.16834043
0001f0 30 8b 1d 3e 5f 41 68 be ad 66 e8 3d 0a fa 13 be
       0.15385127 -0.22681187 0.11347709 -0.14450851
000200 9f b3 24 3e bb ae be bd 8a ff e0 bd e0 53 06 be
       0.16084145 -0.09310671 -0.1098624 -0.13117933
000210 21 75 b6 3d fb 98 d3 3d 92 75 01 be 4a 1f 4b 3e
       0.08909059 0.10331913 -0.12642506 0.19836155
000220 c3 fc c7 3b 4c 60 3e bd 03 fd b2 3d 98 de 77 3d
       0.0061031296 -0.046478555 0.087396644 0.060515016
000230 3d db 0e 3d 51 13 14 be db cd 39 3e bc 35 07 3e
       0.03487705 -0.14460494 0.18144934 0.13204092
000240 a9 ec dd 3d 0d 69 34 3e d5 76 9e bd 8d 56 17 3e
       0.10836155 0.17618199 -0.07737509 0.1477911
000250 f5 06 85 3e 1b 1e 2f 3d f2 dc 3e bc 2e 85 c0 3c
       0.2598187 0.04275332 -0.011649357 0.023501005
000260 c9 36 ad 3d fe 0e 2a be 39 2f 23 be c9 31 96 bd
       0.08457715 -0.16607282 -0.15935983 -0.073337145
000270 a0 86 8e bd 7b b9 a4 3d 6d b0 dd bd 74 e2 c8 3d
       -0.069592714 0.0804319 -0.10824666 0.098088175
000280 e0 7b f7 bd ba e0 3b 3e 88 bb 0e 3d cd 03 9c 3d
       -0.12084174 0.18347445 0.034846812 0.076179124
000290 f5 80 1f bd 40 d2 8f bd 1a 1f 3b be 80 9d d9 bd
       -0.038941342 -0.07022524 -0.18273583 -0.10625744
0002a0 1a e0 05 3e c2 83 d5 bd 6d 2b 18 be 73 f8 80 bb
       0.13073769 -0.104255214 -0.14860316 -0.0039358675
0002b0 1f b7 08 3e 88 f9 1d be d1 20 4c bd 59 11 a1 3d
       0.13351105 -0.1542722 -0.049835984 0.07864637
0002c0 43 2b 01 bd a0 02 3d be dd c8 6e be 0a 4b c1 bc
       -0.0315354 -0.18458033 -0.23318811 -0.023595352
0002d0 fd 61 40 3e 76 d6 02 be 8c ca 47 3e fd 3e 01 bc
       0.1878738 -0.12777123 0.19510859 -0.007888553
0002e0 25 51 86 bd 8f 2a 41 bd a0 7f ee 3d a4 38 68 3d
       -0.06558446 -0.047159728 0.11645436 0.05669464
0002f0 3e ba fd bd f5 60 85 bb 57 f6 7c 3d 95 52 26 bd
       -0.123890385 -0.004070396 0.061758365 -0.0406061
000300 66 d7 a8 3c bb 82 42 be af 19 ff 3d c0 34 20 3e
       0.020610522 -0.18995182 0.12456071 0.15645123
000310 56 90 42 bc 49 42 ff bd 9c b5 e3 3c 95 36 1d 3c
       -0.011875233 -0.12463815 0.027796559 0.009595533
000320 5e e3 6c 3d 58 e5 aa 3d 77 cb 7f bd af a8 77 3d
       0.05783402 0.08344525 -0.0624499 0.060463604
000330 11 23 55 be df 8b 06 be cb 9b 2e 3d fd 5b 26 be
       -0.20814158 -0.13139294 0.042629045 -0.16246028
000340 22 b9 29 3d 3f 3f a7 3d 75 2f 49 be 51 c4 79 3e
       0.041436322 0.0816636 -0.1964701 0.24391295
000350 28 43 04 be aa 26 a6 3d a9 e1 0c be 05 fd 60 be
       -0.12916243 0.08112843 -0.13757958 -0.2197152
000360 3f 47 1d be 36 16 df bc e9 5b 6f 3d 27 5e 36 be
       -0.1535921 -0.02723227 0.05843726 -0.17809354
000370 b7 16 a2 bc 6c 79 05 3e dd 48 74 3d b4 97 91 bd
       -0.019786222 0.130346 0.0596398 -0.07109013
000380 92 b5 15 3e 65 d0 df bc 07 72 0d 3e 9a fa 25 bd
       0.14620045 -0.02732105 0.13813029 -0.040522195
000390 d8 8c 3e 3d a1 3d 3c be 61 ad de 3d ce 4d 19 be
       0.046521038 -0.18382885 0.10872913 -0.14971086
0003a0 f1 18 28 bc 4b 87 99 3d eb 4c 59 3e 91 62 82 be
       -0.010259853 0.07496508 0.21220748 -0.25465825
0003b0 92 1a 50 be 43 fa 12 3e ff 58 9d bd ea bd a4 bd
       -0.20322636 0.1435328 -0.0768299 -0.08044036
0003c0 00 22 30 be 2a 72 bc bd fc 88 1e be 89 4c 85 bd
       -0.1720047 -0.092014626 -0.15481943 -0.065087385
0003d0 66 3e 7a bd 47 26 fd 3d 2d e7 03 be 10 88 7c 3d
       -0.061094664 0.123608164 -0.12881155 0.061653197
0003e0 37 f9 41 3e d6 e2 1b 3b a3 23 81 3e 59 e5 07 3e
       0.18942724 0.0023786328 0.252225 0.13271083
0003f0 8a a6 41 3d 83 f8 1f be 81 eb 11 bd b7 99 04 3c
       0.047277965 -0.15622143 -0.035624985 0.008093289

main.4.bias f4 [2048]
000000 8c ec 69 3e db e8 7a 3c 1d e6 e7 bd 8e ae ed 3d
       0.22844142 0.015314306 -0.113231875 0.11605559
000010 5d a9 4c bd 34 4b 4b 3e 07 b4 54 bd e7 1d cf 3d
       -0.049966205 0.19852906 -0.0519295 0.10113125
000020 2f 82 5e be 03 d5 d7 3d 0c 23 93 3c c2 6a 23 ba
       -0.21729349 0.10538676 0.017961048 -0.00062338647
000030 f5 d3 c4 3b ec 9f f6 bd ff 36 c4 bd 34 4c 02 be
       0.0060067126 -0.120422214 -0.09580802 -0.12724382
000040 d7 66 d5 bd 91 2d 2b 3e 4c 68 8f bd c5 eb 14 3e
       -0.10420006 0.16716601 -0.07002315 0.14543064
000050 e3 93 a4 bd 67 57 f1 bd c9 ca e6 3d 4a b9 0b be
       -0.0803602 -0.11784249 0.11269147 -0.13644901
000060 55 32 1e bc bd d5 cd ba 85 63 ca 3d 40 70 7d 3d
       -0.009655555 -0.0015703958 0.09882263 0.061874628
000070 55 08 b1 bc 58 e8 c1 3d 3b 00 4b bc f6 db 04 3e
       -0.021610418 0.09468144 -0.012390192 0.12974533
000080 93 10 cf 3c a0 1c 16 be 23 24 c3 3d a8 93 3a be
       0.025276458 -0.14659357 0.09528377 -0.18220389
000090 aa ec ee 3d 28 ef 04 3d ae a6 23 3d 0e 05 04 be
       0.11666234 0.03245464 0.03995388 -0.12892553
0000a0 c0 da 5d bd 95 12 16 3e 4f e7 13 3e b2 21 e2 bd
       -0.054163694 0.14655526 0.14443706 -0.11041583
0000b0 42 1a 39 be 06 5c 37 3d 8c e2 34 bd 0c 1e 1d 3d
       -0.18076423 0.044765495 -0.044161364 0.038358733
0000c0 65 c3 d5 bd 85 12 11 3d 55 38 12 3e b6 df bb bd
       -0.10437659 0.035418052 0.14279301 -0.09173529
0000d0 9e 48 c3 bd bf 92 98 bc 9d 1c 17 3e 5d 4c c0 bd
       -0.09535335 -0.018624661 0.14757009 -0.09389565
0000e0 88 69 09 3e 82 3d 61 3d da b0 29 be 6c bc 3e 3e
       0.13419163 0.0549903 -0.1657137 0.18626565
0000f0 40 bf 8e 3c 0c d7 1c be bd a1 86 bd 9c 1c bb 3d
       0.01742518 -0.15316409 -0.06573818 0.09136316
000100 e8 99 00 3d 6d ae b5 3d a5 5a fe bd 95 d0 ca 3d
       0.031396776 0.0887116 -0.12419633 0.09903065
000110 46 70 d6 bc b6 67 e5 3d 64 f6 65 3e df 48 2a bc
       -0.026176583 0.11201422 0.22457272 -0.01039335
000120 66 a2 c4 3d ae a4 6e bd fe 55 4c 3c cd f0 8e 3d
       0.096012875 -0.05826252 0.012471674 0.06979523
000130 0b ca c8 bc be 59 ec bd 3f 11 bf 3d 7d 8c 5e 3e
       -0.024510404 -0.115405545 0.09329461 0.2173328
000140 4b 3a 22 3d e4 13 0a bd 80 2b 1c bd d9 bc a6 3d
       0.039606374 -0.033710375 -0.038127422 0.081414886
000150 6a 47 5d bd 9a 55 1e 3e 36 b6 9a bd ef 0b e1 3d
       -0.054023184 0.15462342 -0.07554285 0.10988604
000160 10 07 95 3d 58 4f 26 3d 9a c6 18 3e 30 22 d7 3d
       0.07276738 0.04060301 0.1491951 0.105045676
000170 a1 af 8e ba 0d f1 e0 3d ed 3a bb bd 43 c4 93 3d
       -0.0010886082 0.10983477 -0.091420986 0.07215168
000180 b4 8f be 3c 14 80 b8 bd 41 3f 7a 3d 0b 25 e5 bd
       0.023261882 -0.09008804 0.06109548 -0.11188706
000190 bc 78 23 3e d2 be b1 bc 74 a6 93 bd da e1 3b 3e
       0.15964025 -0.021697436 -0.07209483 0.18347874
0001a0 cd 6c 83 bd 18 ad ee bd b3 00 18 3e 62 d6 42 3e
       -0.064172365 -0.11654109 0.14844017 0.19027093
0001b0 33 1c 9d 3d 91 40 50 3e 86 50 14 3e 24 90 f5 bc
       0.07671394 0.2033713 0.14483842 -0.029975958
0001c0 84 7f a7 bd 6b eb e3 bd 17 08 87 3d 56 d1 52 3e
       -0.081786186 -0.11128887 0.0659334 0.20587668
0001d0 29 ea b8 bd c4 f3 20 be f7 1a 5f 3e 21 2e 5a 3e
       -0.090290375 -0.15717989 0.2178763 0.2130666
0001e0 22 17 8e 3c 2f eb 1c bd df 2b f7 3d 8b 38 68 3e
       0.017345015 -0.038310226 0.120689146 0.2267782
0001f0 31 1f 86 3e 2b 79 20 be 4d 38 9d 3c 5b 4a 8b 3e
       0.26195672 -0.15671222 0.019191885 0.27205166
000200 ad 9b ab bd b0 f6 ae 3d 8c a8 2c 3d 8f 19 b5 bc
       -0.08379302 0.08543146 0.042152926 -0.022106914
000210 01 ba 2f be be 9b b9 bd a5 1d 54 3d 65 54 34 3e
       -0.17160799 -0.090629086 0.051786084 0.17610319
000220 10 ff 0a 3e a7 54 c2 3d 6f be b1 3d d7 26 a2 bd
       0.13573861 0.094888024 0.086789005 -0.07917564
000230 62 20 2b 3e 2f cb 2c 3e 74 c6 4f be 11 8c 94 bd
       0.16711572 0.16874383 -0.20290548 -0.07253278
000240 c6 24 1d 3e d3 91 bb bd 86 55 0f be 46 72 b8 bd
       0.15346059 -0.09158673 -0.13997468 -0.09006171
000250 31 ae c7 3d ea d2 54 3d ad 97 3a be 0b 31 a4 3d
       0.09750021 0.051958956 -0.18221922 0.08017167
000260 5f 37 0a 3e e7 bd 39 be 74 18 7a 3d 5c 56 bc bc
       0.13497685 -0.18138848 0.061058477 -0.022990398
000270 73 e7 39 bc 64 3f 17 3e b6 f5 12 be 37 c6 fd 3c
       -0.011346686 0.14770275 -0.14351544 0.030978305
000280 c4 03 43 be 82 db 51 be bf 57 b0 3d d3 0f 2d bd
       -0.19044405 -0.20493892 0.08610486 -0.04225142
000290 c3 15 cf 3d 99 d3 e4 3d 7b 13 7a 3d 8e db 84 bd
       0.101115726 0.111731716 0.061053734 -0.06487189
0002a0 66 31 64 3d b3 25 c0 3d a2 e4 a8 3c eb 0e 2f be
       0.055711173 0.093821906 0.020616833 -0.17095535
0002b0 1f 9f 08 be 13 97 25 bd 39 0c 87 bc e4 34 6a bc
       -0.1334195 -0.04042728 -0.01648532 -0.014294837
0002c0 31 eb aa 3c c9 81 5f 3e 51 3f 64 3d 79 cb b9 3c
       0.020864101 0.21826853 0.055724446 0.022680031
0002d0 9f eb b9 3d 93 25 36 bd 19 ce 3e be 84 65 e9 3d
       0.09078144 -0.044469427 -0.18633308 0.11396316
0002e0 77 ef 3b be a6 f1 de 3d 93 d5 0c 3e 77 17 60 bd
       -0.18353067 0.108859345 0.13753347 -0.054709878
0002f0 7b d5 83 3d 72 4a f4 bd c9 2e 07 be 48 69 fe 3d
       0.064372025 -0.11928262 -0.13201441 0.124224246
000300 2c e2 85 3d 09 07 0e 3d 03 af 10 be 35 97 ec bd
       0.065372795 0.034674678 -0.14129262 -0.11552278
000310 86 15 5e 3e ea 96 7d 3e 5c 28 58 3c 08 ad a6 3d
       0.21687898 0.247646 0.013193216 0.08138472
000320 d8 09 6f bd 7a 4e 25 be e2 10 73 bd 02 9e fc bd
       -0.058358997 -0.16143218 -0.059342273 -0.12334825
000330 84 1f f0 bd 0e d0 8b 3d 97 5a 0e bd d6 7b de 3d
       -0.11724761 0.06826793 -0.034754362 0.108634636
000340 d0 b9 ae bd 2d 88 ce bd 48 c9 91 3d f0 b7 75 bd
       -0.08531535 -0.10084567 0.071184695 -0.05998987
000350 5d 3d 14 3e 75 43 b0 bd b4 d1 df bd 1f e6 0e be
       0.14476533 -0.086066164 -0.109286696 -0.13954972
000360 8c a4 b2 3d 93 58 d9 bd cd 35 4d 3e e0 80 9e bd
       0.08722791 -0.10612597 0.20040055 -0.07739425
000370 c5 a9 05 bd 8c 7b fb bd 1e 4e 51 bd 4b 3b af 3d
       -0.032632608 -0.12279424 -0.05109989 0.08556231
000380 9e df dc 3d 69 dc 20 3e ce f9 82 bd 77 76 57 3c
       0.10784839 0.1570908 -0.06395303 0.013150803
000390 4a 24 0b be 82 f3 0b be e8 2f e4 bd be bc f1 3c
       -0.13588062 -0.1366711 -0.1114195 0.029508945
0003a0 44 bf 14 3e 73 35 32 3e 10 5b ba bd ec d8 cb bb
       0.14526087 0.17403202 -0.090994 -0.0062209275
0003b0 27 3c 0a be c8 f0 45 3e ef 72 94 3d 1e 52 09 3e
       -0.13499509 0.19330132 0.07248484 0.13410231
0003c0 ce 4d cd bd ab a7 8c 3d 29 28 16 be c0 f8 d7 3d
       -0.10024606 0.068679176 -0.14663757 0.10545492
0003d0 87 c9 d0 bd b4 03 98 3c d1 13 39 3e 39 a2 5f bd
       -0.10194688 0.018556453 0.18073966 -0.054598067
0003e0 e1 a5 ba bd d7 3a 39 3e b1 4c 4d bd eb 10 93 3e
       -0.0911367 0.18088852 -0.050121967 0.28723845
0003f0 79 62 0c 3e ec 27 64 bd cd 31 4b be 88 d1 f5 bc
       0.1370944 -0.055702135 -0.19843216 -0.030007139

conv.0.weight f4 [20, 1, 5, 5]
000000 d2 45 1b 3e a4 bc 8f bd 23 3d 2c 3e 6d bb 16 3e
       0.15163353 -0.07018402 0.16820197 0.14719935
000010 79 14 40 3e 29 8b c8 bd cf f9 aa 3d e4 65 a0 3d
       0.1875781 -0.09792168 0.083484285 0.07831934
000020 65 6f 2b bd c8 8a 8d 3e 57 a1 ce bd 29 7f 3e 3d
       -0.04185428 0.27644944 -0.10089367 0.046507988
000030 0a 40 f8 bd af c1 7b 3d 86 e3 e3 bd 43 84 66 be
       -0.121215895 0.061464008 -0.11127381 -0.22511391
000040 9e c1 2d be 52 98 18 be 43 40 6a bd 0e bb 7a be
       -0.1696839 -0.14901856 -0.05719019 -0.24485418
000050 22 d9 03 3c 8c e0 83 3d 77 03 2e be 38 26 b5 bd
       0.008047374 0.06439313 -0.16993509 -0.0884518
000060 89 ed 95 3c ad da c8 bd 25 19 04 be cf 91 1a be
       0.018301742 -0.09807334 -0.12900217 -0.15094684
000070 16 e3 b4 bc 73 be b8 3d d5 bf 6e bd 7d 41 42 bd
       -0.02208094 0.090207 -0.058288414 -0.047425736
000080 e0 c2 40 3c 7f b6 fa bd b6 9b 26 be 1c ee 92 3c
       0.011765212 -0.122418396 -0.16270337 0.017935805
000090 d7 41 8d 3c a4 01 03 bd 11 1c 9f bc ec 48 be bb
       0.017243309 -0.031983986 -0.019422563 -0.005807033
0000a0 fe 46 0b 3e 1a 43 28 3e 12 29 b8 3d a7 bc 51 3e
       0.136013 0.16431847 0.089922085 0.20482121
0000b0 4b 0f 3f 3e 2a b2 8a 3d ae cb 43 3d 16 29 d5 3d
       0.18658178 0.06772263 0.047801666 0.10408227
0000c0 4c 50 2c 3e d2 8f 14 3e 07 bd 8a bd 22 bc c1 bc
       0.16827506 0.14507988 -0.06774335 -0.023649279
0000d0 3b f8 1b bd 6c d3 96 bd a6 93 8e bd 78 f3 93 bd
       -0.038078528 -0.07364544 -0.069617555 -0.07224172
0000e0 b7 39 eb bd 24 25 71 bd e4 a8 7b bd 21 2c c9 bd
       -0.114856176 -0.05887331 -0.061440364 -0.0982287
0000f0 d0 d9 8a 3d cd 98 cd 3c eb 07 d0 3d c8 bf b7 3d
       0.06779826 0.025097275 0.1015776 0.08972126
000100 00 63 74 3d a0 0c 30 3e 29 c8 46 3e 02 70 47 3e
       0.059664726 0.17192316 0.19412293 0.19476321
000110 b1 e1 0f 3e 65 cf 07 3e 62 29 0f 3d 84 4b 95 3c
       0.14050938 0.13262708 0.034951575 0.018224485
000120 77 2e e1 3d 55 a8 08 3e 92 74 0b bd aa 18 0e be
       0.109951906 0.13345464 -0.034046717 -0.13876596
000130 bc 57 ae 3d 79 07 39 3c 97 2e fd 3c 1a 30 c7 3d
       0.08512828 0.0112932855 0.030906005 0.097259715
000140 74 7e 05 bc 80 c7 51 bd 1e e0 ca 3d 75 90 0c bc
       -0.008147825 -0.05121565 0.09906028 -0.008579363
000150 3a 16 c7 bb f0 e5 1e be af 58 b6 3d 5b 25 58 3e
       -0.0060756477 -0.15517402 0.08903634 0.21108
000160 e9 67 0e bd aa 68 de bd 78 78 04 bd 98 fc 01 be
       -0.034767065 -0.10859807 -0.03234145 -0.12694013
000170 6b a2 28 3e 00 64 4c ba 68 4d 2f 3d d7 6f 8e bd
       0.16468208 -0.00077968836 0.04279843 -0.069549255
000180 c9 56 ac 3c fd 2d 06 be 86 40 45 3d e4 ef 6f bd
       0.021037476 -0.1310348 0.048157237 -0.058578387
000190 4d 74 02 3e 4d e3 60 bd 55 e9 19 be ba 2a f7 bd
       0.12739678 -0.05490427 -0.15030415 -0.12068696
0001a0 00 b1 07 be 68 7a 2b be 8e 4f 2c be 50 44 46 3e
       -0.13251114 -0.16745913 -0.16827223 0.19361997
0001b0 12 fd 34 be c6 45 5a 3b 08 9a 15 3d 7d 6a 2c be
       -0.17674664 0.0033305748 0.03652385 -0.16837497
0001c0 b8 ac 0c 3e b3 0b e2 bd ff b3 1e 3e 30 df 24 3e
       0.13737762 -0.11037388 0.1549835 0.16100764
0001d0 4a dd 6d be 47 f5 c1 bd 3b 30 87 bc 67 32 d0 3d
       -0.23228946 -0.09470611 -0.01650249 0.101658635
0001e0 28 16 09 3e e4 e4 12 3d 71 cd b3 3d 6e 3d 93 be
       0.13387358 0.03586282 0.08779419 -0.28757805
0001f0 c1 36 de 3d f5 43 a0 3c 8e db df 3d 49 9d 9c bd
       0.10850287 0.019563654 0.109305486 -0.07647187
000200 5a da 10 be 02 5e a2 bd 0b 02 e5 3d b2 15 92 3c
       -0.14145795 -0.07928087 0.1118203 0.01783261
000210 9f c7 12 bd 6a 46 a1 3d 91 fe df 3d 2d 7c 87 3e
       -0.035834905 0.078747585 0.109372266 0.26461926
000220 60 87 36 3e 7d e8 a2 3d 6f 41 10 3d ac 22 84 3e
       0.17825079 0.079545 0.035218652 0.25807703
000230 d6 61 96 3d 75 3e 3a 3e a5 52 02 3e 21 5e 3e 3d
       0.073428795 0.18187888 0.12726839 0.046476487
000240 55 5c 4e 3d 48 18 b1 3c c4 cf 1f 3e b0 ff aa bc
       0.050381023 0.021618024 0.156066 -0.020873874
000250 51 b6 2d bb 13 66 dd bd 78 7b 21 3e 19 88 bd 3c
       -0.0026506374 -0.10810485 0.15769756 0.023136185
000260 49 c2 0b 3e d5 bb 44 3e 8d 43 b5 3b f4 17 c8 3d
       0.13648333 0.19212277 0.0055317343 0.09770194
000270 12 3f 1e 3e 44 f8 f1 3d a3 2a 48 3e 0e 3f 5f 3e
       0.15453747 0.11814931 0.19547515 0.21801397
000280 a1 38 57 3d 25 1e 25 3d 03 0a 03 3e f9 43 a7 3d
       0.05254424 0.04031195 0.12796788 0.08167262
000290 af 01 0c 3b 89 88 71 3d df 36 d7 b8 de 9c 71 bd
       0.0021363308 0.0589681 -0.000102622194 -0.05898749
0002a0 4e f6 5a b6 94 25 d9 bd c1 a0 ca 3d 86 88 22 3e
       -3.26279e-06 -0.106028706 0.098939426 0.15872392
0002b0 1f 57 7d 3d 08 0b bd 3d ef 3f 66 3d 03 ef 41 3e
       0.061850663 0.0923062 0.056213316 0.18938832
0002c0 e0 e3 67 3d 4e 20 3e 3e b6 e6 66 3e 57 23 69 3e
       0.056613803 0.18567011 0.22548947 0.22767387
0002d0 f3 94 42 3e c3 62 62 3e 87 4b 3d 3e fd cc 22 3e
       0.19002132 0.22107987 0.18485843 0.1589851
0002e0 2b c4 ad 3d b6 75 ff bd f8 76 f3 bb b3 13 d0 bd
       0.08484682 -0.124736235 -0.0074299537 -0.10160007
0002f0 9a 98 aa 3b 55 a6 c8 bc 46 3d 5a 3c 45 4f 88 bc
       0.00520618 -0.024493376 0.013320273 -0.016639361
000300 c2 ba f1 3b 97 a5 4c 3c 13 9e 2f 3c e0 79 e7 3d
       0.0073769996 0.012490652 0.01071884 0.11302543
000310 7c cf 9f 3b d2 ee 9a 3d 35 f0 d4 3d fb 4f 5b bd
       0.004877029 0.075650826 0.10397378 -0.053543072
000320 50 19 16 3e 2c 33 69 be b5 37 ce bc 07 75 c3 bd
       0.14658093 -0.22773427 -0.025173048 -0.095438056
000330 f7 d2 0a bd fe cc 81 3e de 1a a6 bd a3 a3 59 be
       -0.033892598 0.2535171 -0.08110593 -0.21253829
000340 26 cf 52 3d 25 62 26 3d 51 00 90 3e 91 82 91 3d
       0.051467083 0.04062094 0.2812524 0.07104982
000350 05 f5 3b bd 58 76 0b be 63 d4 39 3d 54 96 bb bd
       -0.045887966 -0.13619363 0.045368563 -0.09159532
000360 85 37 56 3d f1 6d 3b bd 1f 7d 86 3e 75 b0 3f bd
       0.05229904 -0.045759145 0.26267335 -0.046799142
000370 34 1d 5a 3e 96 57 c4 3c ea de 06 3d 1d a3 c1 bd
       0.21300203 0.023967545 0.03292743 -0.094549395
000380 50 a5 4f bc 46 cb 1c 3e f3 ac 52 3c 3e 5e ce bc
       -0.012673691 0.15311918 0.012858617 -0.025191423
000390 0d ba de bc c2 4d 24 be 3c 31 4d be 46 c9 86 3d
       -0.027188325 -0.16045287 -0.20038313 0.065813586
0003a0 f1 2e 73 bc 38 11 e8 3c 17 b6 a2 3c ec da a9 3d
       -0.014842735 0.028328523 0.019862218 0.08293709
0003b0 b4 87 27 bd e0 ce 68 3e 0c 01 8e 3e a5 e0 c4 3b
       -0.0409009 0.22735167 0.27735174 0.006008225
0003c0 d7 bd 76 bc e9 66 74 3c fc 82 e1 3c 97 3a 07 3d
       -0.01505991 0.014917114 0.027528279 0.03301486
0003d0 ec ce cf 3d 9f 4c 8b bd ae f0 f0 bd 13 b1 be 3d
       0.10146889 -0.06801724 -0.11764656 0.09311118
0003e0 1a 54 2a bd d2 e2 b8 3d 27 a3 0e be 55 75 bb bd
       -0.04158411 0.090276375 -0.13929425 -0.09153239
0003f0 3d f7 5e bd c4 03 5d be 8f a4 15 3b 62 f3 31 bd
       -0.054435004 -0.21583468 0.002283368 -0.043445

conv.0.bias f4 [20]
000000 90 46 f3 bd cb 51 86 3e 87 19 3f 3e 0a 90 0b bd
       -0.11878693 0.26234278 0.18662082 -0.034072913
000010 b0 33 00 bc c5 49 3f 3e 54 aa c2 bd 8e 3c ae bd
       -0.007824823 0.18680485 -0.09505144 -0.08507644
000020 e5 37 93 3d 06 36 3f be b3 13 eb bd 4c f7 8d 3d
       0.071883954 -0.18672952 -0.11478367 0.06931934
000030 00 e3 36 3e a7 01 20 be 4b bd 5d bd d2 72 36 3e
       0.17860031 -0.1562563 -0.054135602 0.17817238
000040 d6 11 2e 3e 5b 52 df bd 65 26 c2 bd 34 af 67 ba
       0.16998991 -0.1090438 -0.094799794 -0.0008838058

conv.2.weight f4 [20]
000000 ff ab 96 3f 67 f1 8e 3f bb af 93 3f 66 6a 93 3f
       1.1771239 1.116742 1.1538004 1.1516845
000010 38 4b 83 3f 93 51 8f 3f f4 b7 90 3f de 30 98 3f
       1.025733 1.119677 1.1306138 1.1889913
000020 03 0e 82 3f 92 95 8f 3f c2 4e 7e 3f f5 da 94 3f
       1.0160526 1.121752 0.99338925 1.162932
000030 64 09 8f 3f ed 41 99 3f 62 ef 8e 3f 0f e0 90 3f
       1.1174741 1.1973244 1.1166804 1.1318377
000040 98 01 90 3f 05 97 92 3f f9 71 82 3f 61 52 91 3f
       1.1250486 1.1452338 1.0191032 1.1353265

conv.2.bias f4 [20]
000000 a8 d4 01 be a1 f8 0c be 4c e7 23 be c5 0e 0f 3e
       -0.12678778 -0.1376672 -0.16006202 0.13970478
000010 0e cd f5 bd d1 49 03 3e 48 4c 0a be 71 c8 09 be
       -0.12002002 0.12821127 -0.13505661 -0.13455369
000020 70 45 f2 3d 36 ea 10 3e 6f 09 fe bd ac 2c 06 3e
       0.118296504 0.14151844 -0.12404143 0.13102978
000030 6e e0 01 3e 93 aa f0 bd 67 1b f3 bd 2c ee fb 3d
       0.1268327 -0.117512845 -0.11870461 0.12301287
000040 96 30 02 3e ab f8 05 be e3 8e f4 bd e6 9d 00 be
       0.12713847 -0.1308314 -0.11941316 -0.12560233

conv.2.running_mean f4 [20]
000000 13 13 9f bc f4 f9 bf 3e 4f 3f ab 3e c5 cf c9 3c
       -0.019418275 0.37495387 0.33446738 0.024635205
000010 8f 7a 90 3c 4c 90 eb 3e de 3e 84 3e e1 fa 64 3e
       0.017636565 0.46008527 0.25829214 0.22361328
000020 99 99 24 3e 81 73 18 3c 30 b7 24 3d 59 7d 80 bb
       0.16074218 0.009304882 0.040213764 -0.0039211926
000030 42 dd b3 3e d2 21 cc bc 04 a4 8c bd 96 2c db 3e
       0.35129744 -0.02491847 -0.06867221 0.42807454
000040 d4 23 c9 3d bc ac 56 3c df 8a ce bb 42 d1 20 bd
       0.09821287 0.0131027065 -0.006303176 -0.039262064

conv.2.running_var f4 [20]
000000 94 1b 69 3c 4c ce ec 3c 00 76 bc 3c 3f 9f 0a 3c
       0.014227767 0.028906964 0.023005486 0.008460819
000010 dc 86 8c 3c 8f 26 0c 3d 27 72 f9 3c cd ac 0e 3d
       0.01715415 0.03421646 0.03044994 0.034832764
000020 63 28 15 3d 8e 5d 33 3c 9d f6 65 3c 49 57 1d 3c
       0.03641547 0.010947598 0.014035848 0.00960333
000030 64 b4 f9 3c 8f 1b 22 3c 89 3a 5d 3b 0f 8d c6 3c
       0.030481525 0.009894266 0.0033756814 0.024237184
000040 55 72 9e 3c 5e e7 77 3c b9 7d 2c 3c de e7 ec 3b
       0.019341627 0.015130846 0.0105280215 0.007229789

conv.3.weight f4 [1, 20, 5, 5]
000000 96 39 b4 3d 41 67 25 3e 3c 21 21 3e 14 11 17 3e
       0.08800046 0.1615267 0.15735334 0.14752609
000010 26 8b d4 3d 53 eb 16 3e 46 60 da 3d 07 be a9 3d
       0.10378103 0.14738207 0.10662894 0.08288198
000020 c8 30 17 3e 02 5a d0 3d 6f e1 cf 3d 20 0f 0a 3e
       0.14764702 0.10173418 0.1015042 0.13482332
000030 60 2f e4 3d 8d 7c 09 3e d1 9c 7b 3d 53 b7 09 3e
       0.111418486 0.13426419 0.06142885 0.13448839
000040 97 9b 9c 3d bf 7c 0d 3e ed b4 b2 3d 54 da 2a 3e
       0.07646864 0.13817118 0.08725915 0.16684848
000050 e8 18 e6 3d e9 40 e6 3d f8 38 c2 3d 72 89 c6 3d
       0.11235219 0.112428494 0.09483522 0.09694184
000060 88 59 aa 3d 7b 52 a0 bc cd 21 79 bc 7f dd f7 3b
       0.08317858 -0.01957058 -0.015205813 0.007564246
000070 f7 46 e1 bb de a3 14 bd 77 56 80 3d ce 7a 9e 3d
       -0.0068749147 -0.03628909 0.06266492 0.07738267
000080 64 97 75 3d bd 70 d6 3d 9b ef 04 3e ce 8b 04 3e
       0.05995883 0.10470722 0.12982027 0.12943956
000090 ac 6f f3 3d d5 48 f2 3d 41 3d 06 3e 0e 35 bc 3d
       0.11886534 0.11830298 0.13109304 0.09189807
0000a0 bc 70 23 3e e4 36 1d 3e 65 03 02 3e 42 c0 00 3e
       0.15960974 0.1535297 0.12696607 0.1257334
0000b0 4e bb f9 3d 13 28 e3 3d f2 ed 14 3e 9f 03 13 3e
       0.12193929 0.11091628 0.14543894 0.1435685
0000c0 8c 59 f1 3d 1d 09 f9 3d f6 ee e3 bd ad be 13 bd
       0.11784658 0.12159941 -0.111295626 -0.036070514
0000d0 69 47 9c bd 58 5b 34 bd cc 80 89 bd 90 6a b7 3c
       -0.07630808 -0.044032425 -0.06714019 0.02238968
0000e0 74 72 ce 3d 62 ea eb 3d db 3a eb 3d 75 f1 95 3d
       0.10080424 0.11519314 0.11485835 0.07321445
0000f0 42 42 07 3e 7a 46 19 3e 60 9f e1 3d 76 5a 27 3e
       0.13208869 0.14968291 0.110167265 0.16343102
000100 07 ca de 3d cb cd ef 3d 3e 0a 0b 3e b1 66 6d 3e
       0.108783774 0.11709174 0.13578126 0.23183705
000110 91 5f 3c 3e c4 91 ff 3d 28 4d 28 3e 58 62 19 3e
       0.1839583 0.124789745 0.16435683 0.14978921
000120 54 da 0f 3e 6d ab 0d 3e e2 13 04 3e c7 50 e7 bd
       0.1404813 0.13834925 0.1289821 -0.11294704
000130 b7 b5 87 bd 11 08 29 be 2a 73 10 be 20 dc 56 bd
       -0.06626456 -0.16506983 -0.14106432 -0.05245602
000140 07 8c 21 be 88 5e 09 be af 0b f9 bd 00 12 1e be
       -0.15776072 -0.13414967 -0.121604316 -0.15436554
000150 85 d6 04 be 3c d0 01 be 59 19 fa bd 46 98 ec bd
       -0.12972458 -0.12677091 -0.12211866 -0.11552481
000160 96 4d da bd 08 04 f4 bd f8 66 09 be 93 78 a8 bd
       -0.106593296 -0.119148314 -0.13418186 -0.08226123
000170 f1 12 d2 bd 14 2a a0 bd 4a 3d 09 be 17 3b 1c be
       -0.10257519 -0.07820526 -0.13402286 -0.15256916
000180 d0 ca d1 bd 9f 5e 10 be 5c b0 22 be 97 d7 0b be
       -0.102437615 -0.14098595 -0.15887588 -0.1365646
000190 d9 f1 f0 3d 6d e9 bb 3d 4d 83 0c 3e 13 c0 0f 3e
       0.11764879 0.09175382 0.13721962 0.14038114
0001a0 42 74 91 3d be 48 30 3e aa 67 25 3e f3 6b 0c 3e
       0.071022525 0.17215249 0.16152826 0.13713054
0001b0 34 15 0d 3e 30 13 c1 3d 45 11 c7 3d 3c 32 00 3e
       0.1377762 0.09427488 0.09720091 0.12519163
0001c0 b9 2d 0e 3e 34 33 a4 3d 30 35 f0 3d 7c 4c a6 3d
       0.1388463 0.08017579 0.11728895 0.08120057
0001d0 43 cf ac 3d 8c ef 1a 3e 7f e2 01 3e 57 a9 cf 3d
       0.084379695 0.15130442 0.12684058 0.10139721
0001e0 1a 40 93 3d 1d 1a ad 3d 73 38 1d 3e d2 45 16 3e
       0.07189961 0.08452246 0.15353565 0.14675072
0001f0 5c 13 2b 3e 66 b1 08 be 3c e3 c5 bd b9 89 77 bd
       0.16706604 -0.13348922 -0.09662482 -0.060434077
000200 23 52 ad bd a9 8c 0f be ab eb f5 bd f4 c8 23 be
       -0.08462932 -0.14018501 -0.12007841 -0.15994626
000210 1f 50 00 be 82 be 2b be 7b bc b9 bd d1 86 1a be
       -0.12530564 -0.16771892 -0.09069153 -0.15090491
000220 55 a9 b7 bd 26 8d 81 bd 99 d3 f5 bd 16 9b d5 bd
       -0.089678444 -0.0632575 -0.1200325 -0.10429971
000230 0d be 10 be 4c 47 18 be d0 50 db bd a6 7c 2d be
       -0.14134999 -0.14870948 -0.10708773 -0.16942081
000240 40 27 c3 bd 9f 49 c0 bd 8a 91 92 bd 23 82 ce bd
       -0.09528971 -0.09389042 -0.071566656 -0.10083415
000250 0a 12 04 be bc 05 ba bd 7f c7 81 3d a7 02 04 3e
       -0.12897506 -0.09083125 0.06336879 0.12891637
000260 6c ee 1f 3e c3 9e e2 3d 87 bf 89 3d 8f db b0 3d
       0.15618294 0.11065438 0.06725984 0.086356275
000270 90 7d 05 3e b3 e7 21 3e 72 5d f9 3d f6 ed f2 3d
       0.1303618 0.15811042 0.121760264 0.11861794
000280 6d 6a 11 3e 5d 2a 05 3e 68 b5 12 3e 81 3d 22 3e
       0.14200754 0.13004442 0.14327013 0.15843774
000290 84 72 13 3e 9e f0 9e 3d 83 31 24 3e 71 55 d7 3d
       0.14399153 0.07760738 0.16034512 0.105143435
0002a0 fa c5 df 3d 90 56 80 3d 53 d0 08 bc 50 c3 9a 3d
       0.10926433 0.062665105 -0.00835045 0.07556784
0002b0 6f e4 e2 3d f8 d5 65 3d 03 1c 2f 3d 2c e5 94 3d
       0.110787265 0.05611226 0.042751323 0.072702736
0002c0 2f d9 b5 3d 1d a3 15 3e e4 9d 04 3e 1c 1f b7 3d
       0.08879315 0.14613004 0.12950855 0.089414805
0002d0 c7 31 22 3e 31 07 22 3e 5f d2 b4 3d 97 55 28 3e
       0.15839301 0.15823056 0.088291876 0.164389
0002e0 9e 8b 09 3e f0 bf f5 3d ec 31 90 3d 2e a8 0a 3e
       0.13432166 0.119995 0.07040772 0.13540718
0002f0 fa 49 1b 3e aa 65 0d 3e a3 e3 11 3e 30 72 08 3e
       0.15164939 0.13808313 0.14246993 0.13324809
000300 5b 4e 03 3e 20 e0 0f 3e 32 b3 ae 3d 02 97 b6 3c
       0.12822859 0.1405034 0.085302725 0.022288803
000310 66 57 60 bc 63 ae 42 3d 66 1e 63 bc db 35 17 bc
       -0.013692712 0.04752959 -0.013862228 -0.009229149
000320 c9 7b c8 bd cd 9f d1 bd ed f2 04 be 25 1d 10 be
       -0.09789235 -0.10235558 -0.12983294 -0.14073618
000330 e4 d1 15 be bc 6b 1a be 0e ff d1 bd ee d6 8e bd
       -0.14630848 -0.1508016 -0.10253726 -0.06974588
000340 df 04 08 be a2 39 1c be 35 c0 02 be 8f 1f 16 be
       -0.13283108 -0.1525636 -0.12768634 -0.14660476
000350 85 29 e9 bd e9 b8 11 be 47 a5 1a be d4 88 1f be
       -0.11384872 -0.14230694 -0.15102111 -0.1557954
000360 9c 50 00 be 52 a0 97 bd 9d 90 1f be f3 ff d9 bd
       -0.1253075 -0.074036255 -0.1558251 -0.106445216
000370 5f ec a6 bd c5 05 dc bd a8 86 d9 bd 67 0e 9f bd
       -0.08150553 -0.10743288 -0.10621387 -0.07766419
000380 65 8c 25 be 6f 25 eb bd af a6 0d be 45 11 07 be
       -0.16166838 -0.11481749 -0.13833116 -0.13190182
000390 da 0e 0c be a6 22 c9 bd 5e 3b fb bd da 0f 16 be
       -0.1367754 -0.09821062 -0.12267183 -0.14654484
0003a0 71 e0 11 be b4 67 e8 bd 3b 91 16 be ad b8 d7 bd
       -0.14245774 -0.11347905 -0.14703839 -0.10533271
0003b0 5b 42 de bd 6a 5b d0 bd 24 d7 ba bd 19 a2 07 be
       -0.108525 -0.10173686 -0.09123066 -0.13245429
0003c0 ec 25 00 be 9f d2 2c be 05 4b dd bd 23 36 f7 bd
       -0.12514466 -0.1687722 -0.108053245 -0.12070873
0003d0 b9 d2 24 be db 79 fd bd 82 b5 ae bd a3 af a9 bd
       -0.1609601 -0.12376758 -0.085307136 -0.08285453
0003e0 5a f0 ad bd cf ec 11 be 4f ae c8 3d b8 bc b7 3d
       -0.08493109 -0.14250492 0.09798872 0.08971542
0003f0 db b2 88 3d c1 d4 d9 3d f1 6b fa 3d bb b1 ce 3d
       0.06674739 0.10636283 0.122276194 0.10092493
