src/caches/cache_10_8_ink/param2img0.pt (torch, 184864 bytes, 19 tensors)

main.0.weight f4 [16]
1.0 1.0 1.0 1.0 0.99785054 0.93311155 0.93010485 1.0
0.99473846 0.8840066 0.8425347 1.0 0.97515434 1.0 1.0 1.0
00000000: 0000 803f 0000 803f 0000 803f 0000 803f
00000010: 2273 7f3f 66e0 6e3f 5a1b 6e3f 0000 803f
00000020: 2ea7 7e3f 424e 623f 5bb0 573f 0000 803f
00000030: b7a3 793f 0000 803f 0000 803f 0000 803f

main.0.bias f4 [16]
0.1704655 0.16449168 -0.13457109 -0.17637457 -0.12871633 0.12451448 -0.14084132 -0.17943646
-0.13965574 0.056398056 -0.16322906 -0.13322648 -0.1375503 -0.14136267 -0.1655639 -0.15717596
00000000: 828e 2e3e 8270 283e 01cd 09be 899b 34be
00000010: 37ce 03be 7301 ff3d b538 10be 31be 37be
00000020: ea01 0fbe a601 673d 8525 27be 866c 08be
00000030: fcd9 0cbe 60c1 10be 9589 29be bcf2 20be

main.0.running_mean f4 [16]
0.0 0.0 0.19999984 0.0 0.0033546197 0.00021360206 0.4732511 0.0
0.0067092394 0.00021360206 0.4732511 0.0 0.010063856 0.0 0.19999984 0.0
00000000: 0000 0000 0000 0000 c2cc 4c3e 0000 0000
00000010: 2ed9 5b3b 5efa 5f39 f84d f23e 0000 0000
00000020: 2ed9 db3b 5efa 5f39 f84d f23e 0000 0000
00000030: dfe2 243c 0000 0000 c2cc 4c3e 0000 0000

main.0.running_var f4 [16]
5.0439e-25 5.0439e-25 4.2008437e-17 5.0439e-25 3.469054e-06 1.9683543e-05 0.07759334 5.0439e-25
1.3876216e-05 1.9683543e-05 0.07759334 5.0439e-25 3.1221498e-05 5.0439e-25 4.2008437e-17 5.0439e-25
00000000: e519 1c17 e519 1c17 cfba 4124 e519 1c17
00000010: e5cd 6836 161e a537 42e9 9e3d e519 1c17
00000020: e5cd 6837 161e a537 42e9 9e3d e519 1c17
00000030: d4f3 0238 e519 1c17 cfba 4124 e519 1c17

main.1.weight f4 [20, 16]
0.0058102515 -0.10241999 -0.049191974 -0.120611876 0.048130807 0.10175248 0.07399849 -0.1830899
0.27451894 0.07104961 -0.12317281 -0.16181503 0.28881153 0.19641525 -0.122320704 -0.049813125
0.013671286 -0.36507398 0.39615571 -0.044146936 0.24599075 -0.071147464 0.020080844 0.24743585
0.124289826 0.121749215 0.030968202 0.0172011 0.037241444 0.2489819 0.060075272 0.11127611
0.10214405 -0.1858581 0.020153854 0.03238147 -0.08302223 0.040436056 0.032992795 -0.16891646
0.022363998 -0.025323635 -0.07958164 0.16587305 -0.064596765 0.0023840663 -0.19939093 0.07668985
-0.24875847 -0.15041503 0.022179395 0.3846179 0.075720996 0.028247155 0.061477676 0.34841207
0.19018696 -0.05152442 -0.030551085 -0.040793832 0.081356525 0.13794954 0.24495248 -0.020558378
-0.2825545 -0.067865476 0.14249626 0.24682423 -0.06735922 -0.16483624 0.14851438 0.36312804
0.24582806 0.18167289 0.12573382 0.14305584 0.23848964 0.32098347 0.096025296 0.43268895
-0.16731411 -0.16691564 0.09223182 -0.17951149 0.07837591 0.20440291 -0.046707638 -0.012967308
-0.2105736 -0.15896805 -0.024670452 0.19740438 0.054977674 0.013841686 0.2748286 0.01890661
-0.31358075 0.13995399 -0.023358956 0.13922317 0.131758 0.109875776 0.02214907 -0.012002927
0.05961662 -0.12590893 0.051584154 0.28208962 0.04518977 0.27369326 0.29850453 0.076717325
-0.41041037 -0.3835272 0.33670428 -0.013759257 0.17576575 -0.056720104 0.041829653 0.25943542
0.07816828 0.051745284 -0.017635401 0.39482677 0.07372102 0.086178906 0.438395 0.24465376
0.08332769 -0.24962522 0.23325066 0.17897989 0.07812916 0.03759175 -0.04841504 0.13549672
0.102618665 -0.063989915 -0.027140193 0.17671692 -0.22267406 0.11736031 -0.08714753 -0.20115978
-0.13905725 -0.24426654 0.08305459 0.15393862 0.23985797 0.19537279 0.124696545 0.14072634
-0.043234874 0.14819863 -0.080673575 -0.0037469752 0.21235332 0.16252756 0.13866487 0.22807936
-0.17048152 -0.1451002 -0.045737322 0.13090782 -0.17471588 0.14636461 0.056883443 0.083129525
0.18954399 -0.12098656 0.023761405 0.2283244 0.15636136 0.22792079 -0.042120866 0.030839631
0.29746205 0.0179564 -0.020350486 -0.39062443 -0.07177529 0.086899765 0.07203364 -0.46921673
-0.1397582 0.09866847 -0.11474171 -0.22569266 -0.12728716 -0.15558545 -0.08954862 -0.22659758
-0.19536322 -0.26889387 0.116567016 0.29341227 0.122456655 -0.011275199 0.2883497 -0.03379233
0.064919665 -0.18260846 0.13311087 0.076807916 -0.04030446 0.27378553 0.04557712 0.19206998
0.029670518 0.35927045 -0.23494908 -0.21915863 0.033216793 -0.04626634 0.015008056 0.08603175
-0.1943439 0.057628423 -0.09150831 -0.06326788 0.016168445 -0.309038 -0.009085546 -0.099346
-0.10238768 -0.09996847 0.104965724 0.014936006 -0.13953552 -0.14285757 0.12525451 0.18804234
0.17267247 0.16831216 -0.07816927 0.33734187 0.02740048 0.30643994 0.009796934 0.22572134
-0.21216294 0.006073344 0.13110137 -0.1730569 -0.008713485 -0.17305563 -0.101084016 0.050163154
-0.1802484 -0.17422555 -0.10887239 0.028574292 -0.28440952 -0.19816926 -0.14257647 0.0022228826
00000000: ec63 be3b 92c1 d1bd 867d 49bd 5c03 f7bd
00000010: cf24 453d 9b63 d03d 858c 973d eb7b 3bbe
00000020: bf8d 8c3e 7582 913d 0742 fcbd d7b2 25be
00000030: 1bdf 933e 1421 493e 4783 fabd d908 4cbd
00000040: 88fd 5f3c faea babe ecd4 ca3e 6bd3 34bd
00000050: 00e5 7b3e c3b5 91bd 9580 a43c d35f 7d3e
00000060: aa8b fe3d a757 f93d 07b1 fd3c 52e9 8c3c
00000070: 7c8a 183d 1cf5 7e3e 7d11 763d bbe4 e33d
00000080: e630 d13d 9651 3ebe b219 a53c 6fa2 043d
00000090: 8f07 aabd 47a0 253d 7423 073d 70f8 2cbe
000000a0: b434 b73c 8373 cfbc b3fb a2bd a0da 293e
000000b0: 4f4b 84bd ff3d 1c3b 232d 4cbe 910f 9d3d
000000c0: 8aba 7ebe 6606 1abe 90b1 b53c a3ec c43e
000000d0: 9c13 9b3d 9466 e73c 04d0 7b3d 1163 b23e
000000e0: 5fc0 423e 450b 53bd 4546 fabc 6f17 27bd
000000f0: 409e a63d a542 0d3e d3d4 7a3e 0b6a a8bc
00000100: fcaa 90be 0efd 8abd 8aea 113e 7ebf 7c3e
00000110: a1f3 89bd d5ca 28be 2714 183e ebeb b93e
00000120: 5aba 7b3e 7508 3a3e 5ec0 003e 3b7d 123e
00000130: a136 743e f257 a43e e9a8 c43d 6889 dd3e
00000140: 6454 2bbe efeb 2abe 09e4 bc3d dcd1 37be
00000150: 8d83 a03d ff4e 513e 8250 3fbd d574 54bc
00000160: 9ba0 57be 85c8 22be b019 cabc 6024 4a3e
00000170: 4530 613d 3dc8 623c 56b6 8c3e 09e2 9a3c
00000180: a88d a0be 1950 0f3e 485b bfbc 8590 0e3e
00000190: 92eb 063e 8d06 e13d f771 b53c eda7 44bc
000001a0: 8f30 743d 45ee 00be e849 533d 0d6e 903e
000001b0: e918 393d 8621 8c3e 96d5 983e f91d 9d3d
000001c0: 4f21 d2be ad5d c4be 8164 ac3e 826e 61bc
000001d0: f0fb 333e 5753 68bd 9255 2b3d b8d4 843e
000001e0: b116 a03d ddf2 533d 1e78 90bc bc26 ca3e
000001f0: 0cfb 963d 917e b03d 4f75 e03e 8486 7a3e
00000200: b5a7 aa3d c19d 7fbe 43d9 6e3e 8146 373e
00000210: 2e02 a03d cff9 193d d94e 46bd a7bf 0a3e
00000220: bc29 d23d 250d 83bd 1c55 debc 48f5 343e
00000230: ab04 64be 9a5a f03d 677a b2bd d4fc 4dbe
00000240: 0665 0ebe 0221 7abe 8618 aa3d 16a2 1d3e
00000250: 549d 753e ce0f 483e e760 ff3d 911a 103e
00000260: 0d17 31bd 62c1 173e 3038 a5bd d08f 75bb
00000270: 2673 593e a06d 263e 2afe 0d3e a38d 693e
00000280: b592 2ebe 2695 14be 0f57 3bbd b30c 063e
00000290: b8e8 32be 9be0 153e 9dfe 683d d03f aa3d
000002a0: d217 423e cdc7 f7bd 47a7 c23c dfcd 693e
000002b0: 311d 203e 1164 693e ee86 2cbd 65a3 fc3c
000002c0: f24c 983e 4d19 933c 10b6 a6bc edff c7be
000002d0: ecfe 92bd 81f8 b13d 6086 933d 2d3d f0be
000002e0: c61c 0fbe b212 ca3d b4fd eabd fa1b 67be
000002f0: 9157 02be cb51 1fbe 4465 b7bd 3209 68be
00000300: 4c0d 48be 75ac 89be b0ba ee3d 223a 963e
00000310: 8eca fa3d 9dbb 38bc 92a2 933e d469 0abd
00000320: 9af4 843d b6fd 3abe 374e 083e 784d 9d3d
00000330: 4a16 25bd 9e2d 8c3e 13af 3a3d fead 443e
00000340: 960f f33c 4cf2 b73e 7e96 70be 1f6b 60be
00000350: 550e 083d c681 3dbd 59e4 753c 6a31 b03d
00000360: 1602 47be c80b 6c3d b568 bbbd 9792 81bd
00000370: b073 843c 3b3a 9ebe 8bdb 14bc ea75 cbbd
00000380: a2b0 d1bd 45bc ccbd 45f8 d63d 26b6 743c
00000390: 66e2 0ebe 4149 12be b842 003e 2c8e 403e
000003a0: 0dd1 303e 065a 2c3e 3617 a0bd 13b8 ac3e
000003b0: f976 e03c b2e5 9c3e 5283 203c 7f23 673e
000003c0: 3e41 59be e702 c73b 703f 063e d435 31be
000003d0: 01c3 0ebc 7f35 31be 2305 cfbd e177 4d3d
000003e0: 0993 38be 2f68 32be 7df8 debd a214 ea3c
000003f0: 209e 91be e2ec 4abe 91ff 11be c8ad 113b

main.1.bias f4 [20]
-0.060537294 -0.15045539 -0.22323997 -0.14968888 0.0031569088 -0.2622709 -0.12196657 -0.0723867
-0.20959738 -0.056977194 -0.1866783 0.32607335 -0.25704727 0.27935615 -0.027477471 -0.106338345
-0.21765801 0.22629943 0.13265511 -0.019855976
00000000: f4f5 77bd fa10 1abe 0599 64be 0b48 19be
00000010: 24e4 4e3b 5f48 86be 9cc9 f9bd 7a3f 94bd
00000020: b2a0 56be eb60 69bd 9928 3fbe 16f3 a63e
00000030: b39b 83be c507 8f3e 6f18 e1bc ebc7 d9bd
00000040: bee1 5ebe 0abb 673e bed6 073e 00a9 a2bc

main.3.weight f4 [20]
0.9066498 0.89736676 0.9190748 0.9807398 0.99306786 0.878301 1.0188034 1.0241052
0.8491433 0.9079505 1.0365623 0.93263865 0.8926028 1.0181642 1.0327867 0.9458313
1.0584271 0.9083025 0.9533256 1.021276
00000000: 341a 683f d4b9 653f 7c48 6b3f c311 7b3f
00000010: b239 7e3f 56d8 603f 2668 823f e115 833f
00000020: 7561 593f 726f 683f 13ae 843f 68c1 6e3f
00000030: 9e81 643f 3453 823f 5b32 843f 0022 723f
00000040: 8a7a 873f 8386 683f 260d 743f 2cb9 823f

main.3.bias f4 [20]
-0.13387853 -0.11130463 0.057454363 -0.17549492 -0.19891694 0.04151732 -0.13110937 -0.22449996
0.05059392 -0.13388437 -0.20419326 -0.12670393 -0.15280673 -0.08776441 -0.08599597 -0.15622951
-0.107853726 -0.11768183 -0.113823876 -0.14517426
00000000: 7417 09be aff3 e3bd 4455 6b3d f1b4 33be
00000010: e2b0 4bbe 110e 2a3d 8941 06be 51e3 65be
00000020: 923b 4f3d fc18 09be 0a18 51be adbe 01be
00000030: 5e79 1cbe d4bd b3bd a81e b0bd a1fa 1fbe
00000040: 6ae2 dcbd 2c03 f1bd 7e1c e9bd 90a8 14be

main.3.running_mean f4 [20]
0.13646488 -0.08242071 -0.037515115 -0.08922593 -0.053467225 -0.066906035 -0.068906486 -0.10430676
-0.059826702 -0.014558312 -0.06903386 0.7095946 -0.0956245 0.49834552 -0.052062742 0.15056287
-0.06571464 0.4203309 0.5724102 -0.08387128
00000000: 73bd 0b3e 30cc a8bd 73a9 19bd 16bc b6bd
00000010: 7300 5bbd 0806 89bd d81e 8dbd c89e d5bd
00000020: d80c 75bd fc85 6ebc a061 8dbd fea7 353f
00000030: c7d6 c3bd 2527 ff3e be3f 55bd 272d 1a3e
00000040: 6695 86bd 9d35 d73e 7a89 123f b5c4 abbd

main.3.running_var f4 [20]
0.08690377 0.0035115506 0.00035991662 0.0029694715 0.030274678 0.00054276956 0.0012443693 0.0018835113
0.00045421137 0.027529072 0.0023948548 0.08759756 0.017250534 0.02026755 0.00043790226 0.09312128
0.0008231848 0.023224376 0.17314589 0.0012752939
00000000: 9bfa b13d 0b22 663b 31b3 bc39 779b 423b
00000010: 9a02 f83c a648 0e3a 1b1a a33a 27e0 f63a
00000020: 3823 ee39 a684 e13c fff2 1c3b 5966 b33d
00000030: fe50 8d3c 2208 a63c 3f96 e539 5fb6 be3d
00000040: ffca 573a 0c41 be3c 284d 313e c327 a73a

main.4.weight f4 [2048, 20]
0.002004367 0.17620592 0.04303476 -0.19262958 -0.09932119 -0.15669638 0.08687857 -0.2892912
-0.110250145 -0.1238694 0.18649963 0.1416114 -0.008164163 0.09751092 0.12159959 -0.2055947
-0.055292696 -0.09613003 0.09024334 -0.046555378 0.16760764 -0.17035003 0.1376899 0.006111518
0.17159024 0.17142987 0.03214424 -0.05060408 0.19023798 0.071799435 -0.085034706 -0.05867133
0.12930423 -0.12805712 0.08921504 0.08555478 0.017227057 -0.058174595 -0.13054036 -0.22143874
-0.06846338 0.021073367 0.1845185 -0.098031834 -0.026863977 0.028673893 0.00085017196 0.14656484
0.012385469 -0.008383263 -0.09336536 -0.13910656 0.16810618 -0.18160754 -0.139162 0.0822657
-0.1646833 -0.1603669 0.17100719 -0.02400445 -0.09525438 -0.12561768 0.09895059 0.06824739
0.20383997 -0.16672292 0.08649196 0.117155395 0.062069297 0.008503443 0.18426532 -0.119908504
-0.23053552 0.1391 -0.12854047 -0.12944916 0.15170528 0.046138197 -0.14883591 -0.103128985
0.11120158 -0.16064635 0.03454606 -0.05472753 -0.059303436 -0.21284147 -0.031700563 -0.06692456
0.05454876 0.14075565 -0.007778946 0.22176309 0.11950221 -0.16199888 0.220854 0.088312045
-0.10842222 0.16176328 -0.02359179 -0.123740874 0.06790372 -0.08964167 -0.052298233 0.22970611
0.0890072 -0.07884498 0.01673546 0.037316 0.103442535 0.18272893 0.015599499 -0.014580571
-0.11762823 -0.087874606 0.035738397 0.13366275 -0.18456188 -0.045848213 0.08942297 0.03391143
-0.1938267 -0.1864285 -0.17692053 0.15661047 0.07957983 0.12494411 -0.21076137 0.10154805
0.11806233 0.039226595 -0.050510406 -0.01896268 -0.2768357 0.152721 -0.13486415 -0.061464556
0.15945444 -0.017207019 0.12288969 -0.14228386 0.17228425 -0.045658395 -0.11626354 -0.13494156
0.23288533 -0.016865866 0.10662243 -0.098825134 0.03515467 -0.120789446 0.14947546 -0.034823593
-0.050867688 -0.10222292 0.009596497 0.14546964 0.043962084 0.16832303 0.0030959272 0.12468462
0.18293135 -0.18251681 -0.11048747 -0.20804386 0.03610182 0.08903914 0.08136899 0.011270438
-0.069658265 -0.13936353 0.17412333 0.18482357 -0.20814279 0.06189215 -0.15867165 0.12134664
0.038817227 0.1184351 -0.22734441 0.13847902 -0.12836699 0.16350143 -0.16257009 0.13878474
-0.03334845 -0.12741369 -0.17920256 0.06878798 -0.18948086 -0.12642968 0.056352377 0.099649474
-0.18565877 -0.10320926 -0.12331886 0.010438194 0.04049607 0.012658875 -0.23869285 0.010534664
0.018259898 -0.2480882 0.27478158 0.1518691 0.2048855 0.05598496 -0.092972346 -0.111395136
0.1514434 0.17947723 0.06864649 -0.14582217 0.18935278 -0.13965379 -0.17496991 0.066257395
-0.1585114 0.06581608 -0.12616469 -0.007417691 -0.13413385 -0.25971475 -0.06570247 0.048372287
0.00898124 0.101129845 0.21238187 -0.18270534 0.04292317 -0.031960156 -0.108327046 0.07664413
-0.08269528 -0.055485375 0.05274142 -0.052284297 -0.13251053 0.23477969 0.036096822 -0.048033763
-0.14680749 -0.11412007 -0.088359945 -0.17336312 -0.105155684 0.03959759 0.14643508 -0.058176506
-0.062056955 0.156327 0.21310778 -0.21273184 0.016363123 -0.22801092 -0.14181904 -0.19395034
00000000: b35b 033b 536f 343e 3745 303d b040 45be
00000010: e868 cbbd 0475 20be 64ed b13d fa1d 94be
00000020: d4ca e1bd 3daf fdbd c2f9 3e3e 9402 113e
00000030: fbc2 05bc ceb3 c73d 3509 f93d 6b87 52be
00000040: 987a 62bd d2df c4bd 80d1 b83d dab0 3ebd
00000050: 56a1 2b3e 3d70 2ebe 95fe 0c3e 2143 c83b
00000060: 5ab5 2f3e 508b 2f3e aea9 033d 3946 4fbd
00000070: bfcd 423e 950b 933d ad26 aebd 5951 70bd
00000080: 5468 043e 6821 03be 60b6 b63d 5837 af3d
00000090: c21f 8d3c 7c48 6ebd 5fac 05be d6c0 62be
000000a0: 8736 8cbd 0ea2 ac3c 6bf2 3c3e eac4 c8bd
000000b0: d811 dcbc 83e5 ea3c 13de 5e3a 1815 163e
000000c0: 6cec 4a3c f459 09bc 5636 bfbd f371 0ebe
000000d0: 0724 2c3e 54f7 39be 7c80 0ebe eb7a a83d
000000e0: bda2 28be 3837 24be 821c 2f3e fba4 c4bc
000000f0: ba14 c3bd eca1 00be 9ba6 ca3d 4ac5 8b3d
00000100: 6dbb 503e 6ab9 2abe b222 b13d 2bef ef3d
00000110: 603c 7e3d 0652 0b3c 0cb0 3c3e 9792 f5bd
00000120: 8111 6cbe 3b70 0e3e 1da0 03be 528e 04be
00000130: a158 1b3e 68fb 3c3d 7168 18be 4a35 d3bd
00000140: a7bd e33d 7a80 24be 2b80 0d3d f929 60bd
00000150: 29e8 72bd 1df3 59be 73d8 01bd be0f 89bd
00000160: 856e 5f3d 4022 103e 87e6 febb dd15 633e
00000170: 93bd f43d 09e3 25be 8d27 623e f2dc b43d
00000180: 780c debd 46a5 253e 9243 c1bc db6b fdbd
00000190: 1b11 8b3d 0d96 b7bd ac36 56bd 1438 6b3e
000001a0: 6849 b63d 7a79 a1bd ce18 893c a9d8 183d
000001b0: aed9 d33d 4b1d 3b3e 0b95 7f3c 59e3 6ebc
000001c0: 12e7 f0bd 9af7 b3bd 6d62 123d e3de 083e
000001d0: cafd 3cbe 56cb 3bbd 6423 b73d b6e6 0a3d
000001e0: 827a 46be 1de7 3ebe a82a 35be 7f5e 203e
000001f0: c0fa a23d b3e2 ff3d d4d1 57be 6df8 cf3d
00000200: aaca f13d 11ac 203d 00e4 4ebd 9f57 9bbc
00000210: 69bd 8dbe e562 1c3e d419 0abe 42c2 7bbd
00000220: 0648 233e bcf5 8cbc 97ad fb3d dcb2 11be
00000230: 486b 303e 4c04 3bbd 941b eebd 1f2e 0abe
00000240: 7e79 6e3e 492a 8abc dc5c da3d d564 cabd
00000250: 58fe 0f3d 7560 f7bd 1810 193e 2fa3 0ebd
00000260: a35a 50bd 405a d1bd a03a 1d3c fef5 143e
00000270: 9611 343d df5c 2c3e 0ae5 4a3b a65a ff3d
00000280: 5b52 3b3e b0e5 3abe 4147 e2bd 7309 55be
00000290: 81df 133d 275a b63d c9a4 a63d a5a7 383c
000002a0: fea8 8ebd 50b5 0ebe 634d 323e 6442 3d3e
000002b0: 6223 55be a082 7d3d d27a 22be 9684 f83d
000002c0: d0fe 1e3d 1a8e f23d f9cc 68be 72cd 0d3e
000002d0: a372 03be eb6c 273e c678 26be 961d 0e3e
000002e0: 6298 08bd bc78 02be e080 37be b6e0 8c3d
000002f0: 4507 42be c876 01be c0d1 663d 0615 cc3d
00000300: 551d 3ebe 605f d3bd 998e fcbd f504 2b3c
00000310: 35df 253d 2c67 4f3c e66b 74be 9599 2c3c
00000320: c895 953c d50a 7ebe 2cb0 8c3e 9383 1b3e
00000330: 81cd 513e 7c50 653d 4968 bebd 2223 e4bd
00000340: fb13 1b3e e1c8 373e 8896 8c3d 6852 15be
00000350: b2e5 413e 6701 0fbe 502b 33be f5b1 873d
00000360: d050 22be 95ca 863d 5131 01be 1a10 f3bb
00000370: 625a 09be 55f9 84be 048f 86bd 0522 463d
00000380: 0d26 133c 2a1d cf3d a27a 593e 1c17 3bbe
00000390: 35d0 2f3d a7e8 02bd 92da ddbd 99f7 9c3d
000003a0: 255c a9bd a244 63bd 6307 583d 0f28 56bd
000003b0: d7b0 07be 166a 703e 43da 133d 0dbf 44bd
000003c0: b454 16be c9b7 e9bd 0ff6 b4bd 1a86 31be
000003d0: dd5b d7bd 1531 223d 14f3 153e 7d4a 6ebd
000003e0: 6f2f 7ebd 2f14 203e ed38 5a3e 60d6 59be
000003f0: f50b 863c b27b 69be 0339 11be eb9a 46be

main.4.bias f4 [2048]
-0.048061434 -0.035124846 0.13596441 0.0060946746 -0.06657737 -0.17303745 0.3249839 -0.053463235
0.12212052 -0.06339646 0.15573052 -0.062900186 0.13610147 0.05568728 -0.09266484 0.18121514
-0.14763808 0.13379443 0.17301776 0.15554382 0.07928252 -0.20658195 -0.023806814 -0.09423755
0.24535805 0.026815264 0.2220031 0.122581564 -0.18874939 -0.06878806 0.18050157 0.15651017
-0.03965676 0.2242732 -0.14165705 -0.008739626 0.09006311 -0.14185755 -0.07521986 -0.2177115
-0.12903494 0.10722357 0.16218197 -0.08370887 0.1422144 -0.19590679 0.2059384 0.13214561
-0.031937677 0.32420567 -0.17070077 0.031197498 -0.09168605 0.21630007 -0.04886602 -0.17769001
-0.014728295 -0.17647116 0.1195342 0.032852605 -0.05650835 -0.21114077 -0.0932183 0.023699004
-0.005851514 -0.13718282 0.066486835 0.011123661 -0.121651724 0.13317697 0.015733989 -0.20469424
0.123302884 -0.2248448 0.19673413 0.034195248 0.072517544 -0.14595081 0.17407009 -0.20590451
-0.04285059 -0.08463374 -0.22265016 0.13245825 -0.08405499 0.11321844 -0.22643986 -0.040709116
-0.19684087 -0.22344923 -0.26898402 -0.23265155 0.027009223 0.105179764 0.065926835 -0.1520423
-0.065961495 -0.1349793 0.035064757 -0.252479 0.010431211 -0.17511092 0.10908521 0.05970091
0.19235733 -0.032430157 -0.057875656 -0.03331348 -0.040600747 0.11591718 0.016383665 0.072022244
-0.21646275 0.037138976 -0.11950229 0.09688319 0.07178919 0.13073984 -0.11863168 0.11226273
-0.00525986 -0.16559021 0.056122415 0.12171064 -0.0802428 -0.15482387 0.03452241 -0.07519874
-0.03853751 0.056286767 -0.26242846 -0.031803314 0.0369001 -0.10963791 0.11956717 0.051366556
-0.18238132 -0.023070216 -0.07269361 -0.009846245 -0.18200876 0.13560948 -0.24347168 -0.18116742
0.19126251 -0.28953707 -0.055547334 -0.21217033 0.009045193 0.08510693 -0.15727091 0.037747283
0.17351687 -0.15222435 -0.07718544 0.20011367 -0.0839656 -0.1089138 -0.23563875 -0.08844866
-0.055029705 -0.09988625 -0.045499828 0.10339178 0.09152925 -0.0066356217 -0.19022496 0.053652342
0.016758481 -0.07387427 -0.28337243 0.06650228 0.10725123 -0.06368174 -0.20317723 0.047901772
-0.08120981 0.16115126 -0.07722019 0.0988445 -0.17964964 -0.10408098 0.009423312 0.06373649
-0.01952872 -0.17685865 0.05371244 0.14279984 -0.09174279 -0.01538934 -0.031664357 -0.1564969
-0.08116964 -0.07606847 -0.2940553 -0.33921894 -0.19805184 0.068795174 0.003917045 -0.06874652
-0.011954221 0.015585686 0.089755796 -0.06467495 0.24147502 0.12504156 0.052488368 0.030082652
-0.042765804 0.17711528 -0.010031934 0.19741237 -0.13010755 -0.30800304 -0.0004062258 -0.107332096
0.20307298 -0.12186563 0.16828199 -0.21917772 -0.17993025 0.011376544 0.050061475 -0.12868887
-0.10096118 0.07995461 0.056912743 0.09225658 0.06967994 -0.026190141 -0.1491052 -0.11595926
0.13802822 -0.2641956 0.16705176 0.12579948 -0.11489924 -0.0017796736 -0.04184583 0.095566645
0.017954513 0.11252271 -0.00406838 0.029661927 0.12668087 0.10363289 -0.16498815 -0.052145515
-0.14835548 -0.030985544 -0.0004490964 0.19119248 -0.1813839 0.103290446 -0.13216451 0.064813666
00000000: 11dc 44bd 12df 0fbd 413a 0b3e d6b5 c73b
00000010: b759 88bd bb30 31be 4a64 a63e 44fc 5abd
00000020: 531a fa3d 01d6 81bd d277 1f3e d0d1 80bd
00000030: 2f5e 0b3e 5818 643d 10c7 bdbd 7690 393e
00000040: 702e 17be 6801 093e 912b 313e e146 1f3e
00000050: e05e a23d 388a 53be 8206 c3bc 9eff c0bd
00000060: 243f 7b3e afab db3c c854 633e 0b0c fb3d
00000070: 8547 41be c1e0 8cbd 67d5 383e 3444 203e
00000080: 206f 22bd e0a7 653e 8c0e 11be a630 0fbc
00000090: 0273 b83d 1b43 11be df0c 9abd c3ef 5ebe
000000a0: bc21 04be 0898 db3d 0813 263e 8e6f abbd
000000b0: a7a0 113e ca9b 48be 84e1 523e 2e51 073e
000000c0: 15d1 02bd 49fe a53e 2fcc 2ebe e591 ff3c
000000d0: e5c5 bbbd c47d 5d3e bc27 48bd 5ff4 35be
000000e0: f24e 71bc dbb4 34be 59ce f43d 7490 063d
000000f0: 4d75 67bd 4935 58be 3ce9 bebd 6a24 c23c
00000100: 0fbe bfbb a779 0cbe 402a 883d 0440 363c
00000110: 8a24 f9bd 8b5f 083e 91e4 803c 5e9b 51be
00000120: 3986 fc3d b73d 66be ac74 493e 5110 0c3d
00000130: 1484 943d 2174 15be 6e3f 323e a2d8 52be
00000140: 1a84 2fbd 7454 adbd 67fe 63be 23a3 073e
00000150: 0625 acbd 12df e73d dadf 67be 9abe 26bd
00000160: a790 49be e0cf 64be 46b8 89be 353c 6ebe
00000170: 7242 dd3c 7d68 d73d a604 873d fab0 1bbe
00000180: d216 87bd 0338 0abe 10a0 0f3d ed44 81be
00000190: ace7 2a3c 4750 33be 1168 df3d f188 743d
000001a0: 52f9 443e 7cd5 04bd 060f 6dbd b773 08bd
000001b0: f84c 26bd fd65 ed3d 0937 863c 6680 933d
000001c0: 69a8 5dbe 0a1f 183d 9ebd f4bd b26a c63d
000001d0: 3606 933d aae0 053e 2bf5 f2bd 01ea e53d
000001e0: e75a acbb 7b90 29be 9ee0 653d 6e43 f93d
000001f0: 5656 a4bd 268a 1ebe 5f67 0d3d cc01 9abd
00000200: 82d9 1dbd f48c 663d 065d 86be 3144 02bd
00000210: 8f24 173d d789 e0bd a2df f43d bd65 523d
00000220: 2bc2 3abe c0fd bcbc 63e0 94bd 2552 21bc
00000230: 8160 3abe 36dd 0a3e a450 79be f483 39be
00000240: 52da 433e 343e 94be 9a85 63bd 2e43 59be
00000250: 4a32 143c 8b4c ae3d a00b 21be e59c 1a3d
00000260: 68ae 313e b3e0 1bbe 6613 9ebd 99ea 4c3e
00000270: 28f6 abbd 330e dfbd 494b 71be 9224 b5bd
00000280: d466 61bd 2a91 ccbd 075e 3abd 12bf d33d
00000290: b073 bb3d a16f d9bb 55ca 42be 8fc2 5b3d
000002a0: 1549 893c 654b 97bd 3116 91be 5932 883d
000002b0: 88a6 db3d 926b 82bd b10d 50be a634 443d
000002c0: 5451 a6bd d604 253e 9e25 9ebd fc6e ca3d
000002d0: 13f6 37be 6928 d5bd 3c64 1a3c 4788 823d
000002e0: b2fa 9fbc 6f1a 35be 9301 5c3d 1f3a 123e
000002f0: a5e3 bbbd 9223 7cbc 7cb2 01bd b940 20be
00000300: 453c a6bd c9c9 9bbd 6b8e 96be 1bae adbe
00000310: 1ace 4abe 7ce4 8c3d 8e5a 803b faca 8cbd
00000320: a3db 43bc 1b5b 7f3c e3d1 b73d 4d74 84bd
00000330: 3a45 773e e50a 003e 0bfe 563d e56f f63c
00000340: 322b 2fbd b55d 353e fb5c 24bc 7826 4a3e
00000350: ea3a 05be 93b2 9dbe b4fa d4b9 eed0 dbbd
00000360: 5df2 4f3e b094 f9bd 1d52 2c3e 2070 60be
00000370: a33f 38be af64 3a3c 430d 4d3d 04c7 03be
00000380: bcc4 cebd 3ebf a33d 561d 693d 05f1 bc3d
00000390: 5bb4 8e3d b58c d6bc 09af 18be 0c7c edbd
000003a0: 4557 0d3e a544 87be 9e0f 2b3e 94d1 003e
000003b0: 4b50 ebbd f043 e9ba 8866 2bbd 72b8 c33d
000003c0: 5815 933c 4e72 e63d 0c50 85bb 92fd f23c
000003d0: a1b8 013e 7b3d d43d a7f2 28be 8996 55bd
000003e0: 80ea 17be 65d5 fdbc b374 ebb9 f6c7 433e
000003f0: b3bc 39be f189 d33d 2256 07be 07bd 843d

conv.0.weight f4 [20, 1, 5, 5]
-0.07265611 0.0073810057 -0.099136546 0.15660483 0.2269219 -0.075074345 0.19920093 0.008909707
0.24389432 0.09944171 0.026312394 -0.020892996 0.090201765 0.09220974 -0.016727792 -0.116155714
-0.033850003 -0.098335244 -0.16064785 -0.05867923 -0.07229922 -0.056887385 -0.09050834 -0.112496436
0.06191913 -0.14134687 -0.0540616 0.11170891 0.02244632 -0.21383487 -0.14529406 -0.014110868
-0.09649969 0.2380686 0.07937 -0.092908345 0.06006402 -0.12017957 0.16120347 -0.15838607
-0.06773467 0.14936401 0.09892595 0.013995261 0.18315344 -0.28003034 -0.15572047 -0.101068296
-0.13938119 -0.17579329 0.10733225 -0.028936427 -0.14946462 0.044969767 -0.24383621 -0.065705605
-0.15092967 -0.11885327 -0.09423031 0.062119048 -0.14304087 -0.03483995 -0.02502427 0.047046043
-0.15772003 -0.14300644 -0.07814551 0.08824048 0.07530245 -0.1124115 -0.020314164 -0.111420944
0.0841858 -0.054843213 0.06033298 -0.17921843 -0.06304105 -0.08609091 0.23430577 0.18489285
0.15208511 0.12202981 -0.111578465 0.09343928 0.20464933 -0.08877118 -0.17914487 0.08583483
-0.17173389 -0.011736695 -0.13964994 0.04059001 0.10097586 -0.06746572 0.19499582 0.107255846
-0.10746181 -0.22668259 0.043057013 0.11685608 0.107033834 -0.10949563 0.19417028 0.02481718
-0.02435544 -0.07537836 0.08509483 0.13433872 0.06697495 -0.09833927 0.03240737 0.15098529
0.17365319 0.19779421 0.21042113 0.031193653 0.021836165 0.012863096 0.03207246 0.018227221
-0.17536862 0.0076810913 -0.22429712 -0.22539821 -0.06911783 0.010449044 0.06337444 -0.07899193
-0.17384456 0.027652308 -0.0060843076 0.022679163 0.05300783 -0.116393864 0.13058387 -0.047127474
-0.12558435 0.16226876 0.038977724 0.033787936 0.19497216 -0.10232722 -0.023586202 0.007945479
0.11593942 0.12354414 -0.032757737 0.08468785 0.10431567 -0.05388871 -0.016366 0.14969173
-0.08336561 -0.06585791 -0.27076495 -0.14257091 -0.1524256 -0.089564 0.015292195 -0.19742636
0.011732676 0.1189894 -0.12922852 0.14305398 0.16957146 -0.009888971 0.17532316 0.034616377
-0.08640669 0.20267442 0.005567677 0.27020305 0.08505247 -0.09506241 0.16591074 0.033723194
-0.089583576 0.026058154 -0.04006657 0.1343478 -0.03512901 0.039828006 0.13571936 0.088682026
-0.06759225 0.008020526 0.05879699 0.13737819 -0.07489822 0.017477065 0.06619717 0.033590592
-0.03761874 -0.12537432 -0.15562513 -0.041404672 -0.122312054 -0.10761394 -0.016444702 -0.050300024
-0.08982379 -0.015117995 -0.13228135 -0.016597113 -0.18785666 -0.048666276 -0.06734863 -0.07049887
-0.1303751 0.022076901 0.06335901 0.017283814 0.13566801 0.14336012 -0.07437426 0.045507226
0.22081642 0.031195221 0.055451103 0.10082615 0.111393996 0.15568839 -0.009624716 0.1419719
-0.063287824 -0.071509235 -0.20111346 -0.028308919 -0.13689274 -0.13748324 -0.073357075 0.088610195
0.17887223 -0.066516116 0.1287325 0.08261725 0.13837036 -0.07100282 -0.023018133 0.117153294
0.2142798 -0.028031237 0.09208668 0.09225301 0.06476449 -0.026288325 -0.00714672 0.07329981
0.027294042 -0.05831157 -0.09015557 0.031127686 -0.022271309 0.13192962 0.19860865 0.006439762
00000000: bacc 94bd 5ddc f13b 1a08 cbbd 045d 203e
00000010: 375e 683e 94c0 99bd 54fb 4b3e 05fa 113c
00000020: 6fbf 793e 18a8 cb3d 178d d73c ca27 abbc
00000030: b4bb b83d 76d8 bc3d b908 89bc 0ce3 edbd
00000040: 4da6 0abd fd63 c9bd df80 24be a259 70bd
00000050: 9d11 94bd bf02 69bd 705c b9bd 8864 e6bd
00000060: ea9e 7d3d 3cbd 10be b26f 5dbd a4c7 e43d
00000070: 58e1 b73c 87f7 5abe f7c7 14be 4531 67bc
00000080: a1a1 c5bd 41c8 733e bd8c a23d bb46 bebd
00000090: b105 763d b520 f6bd 8612 253e f52f 22be
000000a0: 7ab8 8abd e1f2 183e b099 ca3d 614c 653c
000000b0: 938c 3b3e 2360 8fbe 3075 1fbe e5fc cebd
000000c0: f1b9 0ebe 2803 34be 03d1 db3d 160c edbc
000000d0: 410d 19be 3832 383d 33b0 79be a990 86bd
000000e0: 4f8d 1abe 5869 f3bd d2fb c0bd 8b70 7e3d
000000f0: 4e79 12be 56b4 0ebd b3ff ccbc 5ab3 403d
00000100: 5c81 21be 4870 12be c10a a0bd 6db7 b43d
00000110: 2c38 9a3d 0038 e6bd e469 a6bc aa30 e4bd
00000120: 9b69 ac3d 47a3 60bd b71f 773d 0985 37be
00000130: ab1b 81bd 6e50 b0bd daed 6f3e 8d54 3d3e
00000140: 33bc 1b3e c4ea f93d 4083 e4bd 185d bf3d
00000150: 988f 513e aacd b5bd c171 37be 2cca af3d
00000160: 02db 2fbe 444b 40bc 6500 0fbe b641 263d
00000170: 6fcc ce3d 782b 8abd fcac 473e f4a8 db3d
00000180: f014 dcbd 7b1f 68be 8d5c 303d 3e52 ef3d
00000190: 8e34 db3d 3f3f e0bd 93d4 463e 664d cb3c
000001a0: 0f85 c7bc f85f 9abd 3346 ae3d 1790 093e
000001b0: 2a2a 893d 1966 c9bd 97bd 043d e39b 1a3e
000001c0: 24d2 313e 918a 4a3e a378 573e d589 ff3c
000001d0: c2e1 b23c bcbf 523c 695e 033d 4151 953c
000001e0: d593 33be aab1 fb3b 25ae 65be cace 66be
000001f0: a68d 8dbd 7832 2b3c 75ca 813d 85c6 a1bd
00000200: 4f04 32be 1887 e23c df5e c7bb a7c9 b93c
00000210: bd1e 593d e85f eebd c7b7 053e bd08 41bd
00000220: 2f99 00be c829 263e 1ba7 1f3d 3865 0a3d
00000230: c8a6 473e ef90 d1bd da37 c1bc c12d 023c
00000240: a671 ed3d b604 fd3d fa2c 06bd d370 ad3d
00000250: 74a3 d53d 68ba 5cbd fd11 86bc ca48 193e
00000260: 97bb aabd 83e0 86bd b4a1 8abe 1cfe 11be
00000270: 7515 1cbe 556d b7bd 1d8c 7a3c 232a 4abe
00000280: 693a 403c b7b0 f33d 7b54 04be be7c 123e
00000290: 24a4 2d3e 5a05 22bc ea87 333e e7c9 0d3d
000002a0: fef5 b0bd e289 4f3e 0f71 b63b 0e58 8a3e
000002b0: fd2f ae3d 15b0 c2bd 81e4 293e 5521 0a3d
000002c0: 9877 b7bd e977 d53c d81c 24bd 7892 093e
000002d0: 70e3 0fbd b122 233d 04fa 0a3e ec9e b53d
000002e0: ce6d 8abd 8668 033c 1dd5 703d deac 0c3e
000002f0: 3d64 99bd 102c 8f3c 6292 873d 4a96 093d
00000300: 1c16 1abd 2062 00be 325c 1fbe f297 29bd
00000310: be7e fabd b364 dcbd 0ab7 86bc 6607 4ebd
00000320: 89f5 b7bd 78b1 77bc c374 07be abf6 87bc
00000330: 7f5d 40be 4a56 47bd 14ee 89bd b661 90bd
00000340: 0d81 05be 9eda b43c 5ec2 813d c996 8d3c
00000350: 8eec 0a3e ffcc 123e 8851 98bd c965 3a3d
00000360: b31d 623e 1f8d ff3c b220 633d f17d ce3d
00000370: 8922 e43d c76c 1f3e fcb0 1dbc 1561 113e
00000380: 0c9d 81bd 6f73 92bd b0f0 4dbe 1be8 e7bc
00000390: 9c2d 0cbe 68c8 0cbe 3c3c 96bd 4379 b53d
000003a0: 482a 373e 9a39 88bd 74d2 033e 3c33 a93d
000003b0: f6b0 0d3e ed69 91bd 8690 bcbc 11ee ef3d
000003c0: 2a6c 5b3e c4a1 e5bc f197 bc3d 25ef bc3d
000003d0: 3fa3 843d 9d5a d7bc 082f eabb 361e 963d
000003e0: c197 df3c 1dd8 6ebd 7ca3 b8bd 7dff fe3c
000003f0: 5272 b6bc 8f18 073e 1160 4b3e a404 d33b

conv.0.bias f4 [20]
-0.104006015 -0.053814154 -0.24409744 -0.1043536 -0.046634197 -0.21777686 0.092387356 -0.31314486
-0.08255726 -0.14460811 -0.07743198 -0.15497752 -0.090510994 0.07832856 0.1257885 0.11401101
-0.16158193 0.110576026 0.18689951 0.07977596
00000000: 1b01 d5bd 3b6c 5cbd aef4 79be 57b7 d5bd
00000010: 8003 3fbd e600 5fbe 9535 bd3d 8654 a0be
00000020: c813 a9bd 2614 14be a894 9ebd 6db2 1ebe
00000030: d45d b9bd b96a a03d b3ce 003e 9b7e e93d
00000040: bc75 25be af75 e23d 9662 3f3e 9461 a33d

conv.2.weight f4 [20]
1.100855 1.1066936 1.0710323 1.0527477 1.0651377 1.1102992 1.0943519 1.088579
1.0723917 1.1090273 1.0731831 1.0680819 1.0705805 1.0847071 1.1563306 1.0770307
1.079235 1.2281812 1.1608995 1.1165907
00000000: d1e8 8c3f 23a8 8d3f 9617 893f 70c0 863f
00000010: 6f56 883f 491e 8e3f b913 8c3f 8f56 8b3f
00000020: 2244 893f 9bf4 8d3f 105e 893f e8b6 883f
00000030: c808 893f afd7 8a3f a402 943f 24dc 893f
00000040: 5f24 8a3f 0b35 9d3f 5b98 943f 72ec 8e3f

conv.2.bias f4 [20]
-0.1552765 0.1553457 0.17009526 0.15166005 -0.14470378 0.16990927 0.13992962 -0.12075858
0.14442974 0.16230135 -0.1354991 -0.12769908 -0.15418614 -0.12463673 0.15597449 -0.15630959
0.15448187 -0.17268507 -0.12625912 0.1497604
00000000: ce00 1fbe f112 1f3e 742d 2e3e c64c 1b3e
00000010: 3a2d 14be b2fc 2d3e b649 0f3e 4650 f7bd
00000020: 64e5 133e 5332 263e 47c0 0abe 8cc3 02be
00000030: f9e2 1dbe 8b41 ffbd c7b7 1f3e 9f0f 20be
00000040: 7f30 1e3e 5bd4 30be 124a 01be ca5a 193e

conv.2.running_mean f4 [20]
0.0076125003 -0.010358377 -0.07897557 0.022042947 0.07763418 -0.014533852 0.16146499 -0.064291306
0.042891905 0.015576773 0.054527897 -0.0021507724 0.016967118 0.14491569 0.20524105 0.23603259
0.017356608 0.14810546 0.20644005 0.19546467
00000000: 4872 f93b 2fb6 29bc f2bd a1bd 6993 b43c
00000010: abfe 9e3d 651f 6ebc 1457 253e 29ab 83bd
00000020: 6caf 2f3d b935 7f3c a558 5f3d f9f3 0cbb
00000030: a0fe 8a3c c764 143e b62a 523e 87b2 713e
00000040: 722f 8e3c f5a8 173e 0565 533e e427 483e

conv.2.running_var f4 [20]
0.019134337 0.014773406 0.0024960898 0.020691225 0.04561334 0.012687585 0.05213939 0.003807292
0.031921547 0.022258827 0.04506795 0.017416742 0.019267803 0.034699593 0.053277884 0.06352844
0.026246395 0.053810276 0.029387679 0.05364881
00000000: 9dbf 9c3c 280c 723c 7095 233b a580 a93c
00000010: 0ed5 3a3d 97df 4f3c 1d90 553d c383 793b
00000020: 2bc0 023d 2558 b63c 2c99 383d 8ead 8e3c
00000030: 83d7 9d3c 2921 0e3d e939 5a3d 331b 823d
00000040: ae02 d73c 2a68 5c3d 6ebe f03c dbbe 5b3d

conv.3.weight f4 [1, 20, 5, 5]
0.08426547 0.12392691 0.11552585 0.13730258 0.15456332 0.15457524 0.103789575 0.09830984
0.1226849 0.12991822 0.1367204 0.07746855 0.12628089 0.11525981 0.10831025 0.17368685
0.1294886 0.14321959 0.09217846 0.12095103 0.123328835 0.13668548 0.13516602 0.1142988
0.08009524 -0.080400534 -0.097668394 -0.06723554 -0.10750504 -0.1187193 -0.1568123 -0.15159531
-0.10077171 -0.19780774 -0.12426872 -0.1318298 -0.11924466 -0.16486879 -0.18906479 -0.15275022
-0.12971443 -0.13045155 -0.124742486 -0.15666169 -0.15456074 -0.056157216 -0.13546367 -0.10930069
-0.11942575 -0.08663721 -0.12237059 -0.13612811 -0.14293687 -0.13335182 -0.096231416 -0.09358258
-0.1024803 -0.16979145 -0.10564723 -0.14130177 -0.11257867 -0.09293268 -0.13861771 -0.123490684
-0.15380886 -0.13544145 -0.14025943 -0.18173824 -0.107114695 -0.1140572 -0.13685052 -0.10814911
-0.13900869 -0.15555643 -0.14495331 -0.12236745 -0.17371316 -0.17287916 -0.19443026 -0.17180638
-0.1349046 -0.16842307 -0.15760341 -0.21269932 -0.20625803 -0.14091744 -0.1975333 -0.13681842
-0.13818967 -0.085403934 -0.13462873 -0.15031245 -0.1425425 -0.16304132 -0.13139983 -0.12582846
-0.12461248 -0.109473065 -0.13932766 -0.12597641 0.12790486 0.11555563 0.1366932 0.14768672
0.08567209 0.08147844 0.088924125 0.11271586 0.11745275 0.11864833 0.089554645 0.16867284
0.13247691 0.11007819 0.13899742 0.09736103 0.16252117 0.14485927 0.12171786 0.07970785
0.16537756 0.09523418 0.15922771 0.12304663 0.096614875 -0.20561779 -0.19049746 -0.18947934
-0.2016197 -0.2308683 -0.1830751 -0.17874832 -0.07291937 -0.17500593 -0.19809875 -0.13502955
-0.14786385 -0.14070469 -0.13642329 -0.12195745 -0.12812783 -0.11132676 -0.15255265 -0.11623186
-0.08809543 -0.12745544 -0.12729211 -0.13261257 -0.15334739 -0.13143921 -0.13399948 -0.16276918
-0.15027007 -0.1510074 -0.12891585 -0.08452218 -0.097973354 -0.10731704 -0.100861005 -0.07955052
-0.08570715 -0.0967478 -0.12749764 -0.142911 -0.13030608 0.019272884 -0.04825797 -0.068360955
-0.0618533 -0.030185217 -0.10030033 -0.10773749 -0.111718416 -0.10419355 -0.049976904 0.12987715
0.11581011 0.102201305 0.12787527 0.08872573 0.12626846 0.11965486 0.07744805 0.08563302
0.11530878 0.13219759 0.06366154 0.1336667 0.12561002 0.112029925 0.10700954 0.06802472
0.13064334 0.11451242 0.11741671 0.07723725 0.08302778 0.07731508 0.07375867 0.138597
-0.13059084 -0.117555544 -0.13267827 -0.1822928 -0.111032344 -0.11272798 -0.105849065 -0.07704382
-0.095439024 -0.16953082 -0.09327912 -0.109856315 -0.09135083 -0.11082217 -0.10885004 -0.062183313
-0.08622554 -0.05450476 -0.059379824 -0.049980115 -0.077127054 -0.059278656 -0.07765503 -0.06875948
-0.096579276 -0.13898161 -0.11212962 -0.141047 -0.13549048 -0.17451735 -0.16848944 -0.13098258
-0.18600233 -0.12598988 -0.21659145 -0.15000132 -0.1143926 -0.16311985 -0.13548467 -0.14776598
-0.13898261 -0.12717567 -0.16641106 -0.10711 -0.13793051 -0.07908104 -0.071318164 -0.07178362
-0.047138814 -0.07613393 0.12231681 0.13344555 0.07235517 0.14511268 0.0777717 0.08507996
00000000: 6093 ac3d 64cd fd3d d198 ec3d 0c99 0c3e
00000010: d945 1e3e f948 1e3e a18f d43d ab56 c93d
00000020: 3942 fb3d 4809 053e 6f00 0c3e d5a7 9e3d
00000030: c74f 013e 560d ec3d c4d1 dd3d f7da 313e
00000040: a998 043e 28a8 123e 0fc8 bc3d 2cb5 f73d
00000050: d493 fc3d 47f7 0b3e f668 0a3e 7d15 ea3d
00000060: f908 a43d 09a9 a4bd 5e06 c8bd c9b2 89bd
00000070: 9a2b dcbd 1b23 f3bd 6793 20be cd3b 1bbe
00000080: 6661 cebd 1d8e 4abe 9980 febd 64fe 06be
00000090: 8b36 f4bd 5dd3 28be 339a 41be 8e6a 1cbe
000000a0: dcd3 04be 1795 05be fd78 ffbd ec6b 20be
000000b0: 2c45 1ebe 1c05 66bd fdb6 0abe 0ad9 dfbd
000000c0: 7d95 f4bd d96e b1bd 6f9d fabd 2b65 0bbe
000000d0: 0b5e 12be 618d 08be fa14 c5bd 39a8 bfbd
000000e0: 31e1 d1bd cfdd 2dbe 935d d8bd 69b1 10be
000000f0: a58f e6bd 7d53 bebd cdf1 0dbe afe8 fcbd
00000100: 1280 1dbe 2ab1 0abe 2ba0 0fbe 9719 3abe
00000110: f35e dbbd d296 e9bd 8b22 0cbe 487d ddbd
00000120: 4b58 0ebe 2f4a 1fbe a46e 14be c99b fabd
00000130: dde1 31be 3c07 31be ba18 47be 03ee 2fbe
00000140: 6e24 0abe 1977 2cbe ca62 21be dacd 59be
00000150: 4e35 53be a94c 10be 2b46 4abe 211a 0cbe
00000160: 9881 0dbe 42e8 aebd 1ddc 09be 82eb 19be
00000170: a9f6 11be 4ef4 26be ad8d 06be 2dd9 00be
00000180: d434 ffbd 6a33 e0bd e9ab 0ebe f6ff 00be
00000190: 7ef9 023e 6ea8 ec3d 4df9 0b3e 303b 173e
000001a0: d974 af3d 2bde a63d da1d b63d 93d7 e63d
000001b0: 118b f03d e5fd f23d 6d68 b73d 93b8 2c3e
000001c0: 07a8 073e ad70 e13d 5755 0e3e 3865 c73d
000001d0: f36b 263e fd55 143e 3747 f93d df3d a33d
000001e0: bc58 293e 230a c33d 970c 233e dfff fb3d
000001f0: 05de c53d 788d 52be c411 43be df06 42be
00000200: 6575 4ebe bd68 6cbe 0a78 3bbe cd09 37be
00000210: c056 95bd c134 33be 66da 4abe 3045 0abe
00000220: 9f69 17be e414 10be 8cb2 0bbe d4c4 f9bd
00000230: f133 03be 49ff e3bd c336 1cbe f80a eebd
00000240: 606b b4bd ae83 02be dd58 02be 97cb 07be
00000250: 1907 1dbe 0098 06be 2937 09be f7ac 26be
00000260: 66e0 19be afa1 1abe 8402 04be f719 adbd
00000270: 41a6 c8bd 09c9 dbbd 3790 cebd 62eb a2bd
00000280: 3b87 afbd b623 c6bd be8e 02be 4357 12be
00000290: f56e 05be 2be2 9d3c 26aa 45bd d400 8cbd
000002a0: e359 7dbd fd46 f7bc 426a cdbd 79a5 dcbd
000002b0: a0cc e4bd 6e63 d5bd 95b4 4cbd 84fe 043e
000002c0: da2d ed3d eb4e d13d bcf1 023e d6b5 b53d
000002d0: 854c 013e 9b0d f53d 159d 9e3d 5d60 af3d
000002e0: 0227 ec3d ce5e 073e fb60 823d ecdf 083e
000002f0: ea9f 003e f26f e53d d127 db3d 8b50 8b3d
00000300: 5ec7 053e 7d85 ea3d 2c78 f03d 902e 9e3d
00000310: 780a aa3d 5e57 9e3d c90e 973d 5fec 0d3e
00000320: 9bb9 05be f6c0 f0bd d0dc 07be f7aa 3abe
00000330: ed64 e3bd eddd e6bd 65c7 d8bd 26c9 9dbd
00000340: 8975 c3bd 7d99 2dbe 2009 bfbd 59fc e0bd
00000350: 2516 bbbd bcf6 e2bd c5ec debd eeb3 7ebd
00000360: 0497 b0bd 6240 5fbd 4238 73bd f3b7 4cbd
00000370: caf4 9dbd 2dce 72bd 9a09 9fbd c5d1 8cbd
00000380: 5bcb c5bd 3251 0ebe 37a4 e5bd a06e 10be
00000390: 04be 0abe adb4 32be 7f88 2cbe 4c20 06be
000003a0: 6577 3ebe 7e03 01be 26ca 5dbe f299 19be
000003b0: ab46 eabd e408 27be 7ebc 0abe f74f 17be
000003c0: 7551 0ebe 573a 02be a967 2abe 7d5c dbbd
000003d0: a83d 0dbe 3ef5 a1bd 420f 92bd 4a03 93bd
000003e0: a114 41bd 1bec 9bbd 3c81 fa3d f3a5 083e
000003f0: f32e 943d 6b98 143e c546 9f3d 673e ae3d
