src/caches/cache_10_8_ink/param2img4.pt (torch, 184864 bytes, 19 tensors)

main.0.weight f4 [16]
1.0 1.0 1.0 1.0 1.0230396 0.91519266 1.0396609 1.0
0.9333095 0.91853786 0.969813 1.0 0.9534797 1.0 1.0 1.0
00000000: 0000 803f 0000 803f 0000 803f 0000 803f
00000010: f6f2 823f 114a 6a3f 9c13 853f 0000 803f
00000020: 5fed 6e3f 4c25 6b3f aa45 783f 0000 803f
00000030: 3f17 743f 0000 803f 0000 803f 0000 803f

main.0.bias f4 [16]
0.14460507 0.13129683 -0.13866924 -0.12501846 -0.12859279 0.14997564 0.14806172 -0.13465972
-0.11997413 0.12876728 0.040320065 -0.14606677 0.10152634 -0.114372425 0.16890644 0.109453015
00000000: 5a13 143e ad72 063e 4fff 0dbe d704 00be
00000010: d4ad 03be 3793 193e 7e9d 173e 3de4 09be
00000020: ffb4 f5bd 92db 033e a726 253d 8792 15be
00000030: 0bed cf3d 173c eabd cff5 2c3e e728 e03d

main.0.running_mean f4 [16]
0.0 0.0 0.19999984 0.0 0.0033546197 0.00021360206 0.4732511 0.0
0.0067092394 0.00021360206 0.4732511 0.0 0.010063856 0.0 0.19999984 0.0
00000000: 0000 0000 0000 0000 c2cc 4c3e 0000 0000
00000010: 2ed9 5b3b 5efa 5f39 f84d f23e 0000 0000
00000020: 2ed9 db3b 5efa 5f39 f84d f23e 0000 0000
00000030: dfe2 243c 0000 0000 c2cc 4c3e 0000 0000

main.0.running_var f4 [16]
2.36594e-40 2.36594e-40 4.2008437e-17 2.36594e-40 3.469054e-06 1.9683543e-05 0.07759334 2.36594e-40
1.3876216e-05 1.9683543e-05 0.07759334 2.36594e-40 3.1221498e-05 2.36594e-40 4.2008437e-17 2.36594e-40
00000000: 8793 0200 8793 0200 cfba 4124 8793 0200
00000010: e5cd 6836 161e a537 42e9 9e3d 8793 0200
00000020: e5cd 6837 161e a537 42e9 9e3d 8793 0200
00000030: d4f3 0238 8793 0200 cfba 4124 8793 0200

main.1.weight f4 [20, 16]
-0.16318698 0.28409377 0.05331636 -0.117337465 -0.11513885 0.06746171 0.1302255 -0.13107044
0.011796023 0.2771322 0.21089944 -0.10394667 -0.20194356 0.037452195 -0.01068749 0.023999225
-0.0339519 0.011111448 -0.05892096 -0.07100196 -0.17092857 0.12429403 0.17841263 -0.1846811
-0.05679601 -0.016485328 0.24816045 -0.17006314 0.20107657 -0.041364685 0.3236752 0.111119494
-0.1271009 -0.1709643 0.21425217 -0.13660333 0.31719548 -0.09972252 -0.06068795 0.29119653
0.3096465 -0.24680024 -0.11678287 -0.054291286 -0.15693843 0.28027856 0.125776 -0.14160109
-0.16296397 0.18670563 -0.06645821 0.0690616 0.17746107 -0.11432992 -0.15070274 -0.21477023
0.05142457 0.010811848 0.02279007 -0.15117636 -0.0024198936 0.22441077 -0.07940985 -0.16327736
-0.16646042 -0.07401689 0.09489907 0.14554572 0.07775148 0.100709885 -0.11597002 0.28543133
0.19201232 -0.15749288 0.050102897 0.1766018 -0.17639503 -0.051241323 0.0017297795 0.039463315
0.14120601 0.025510574 -0.12190124 0.051271364 -0.09153388 -0.21622393 -0.016061788 0.12700336
0.03586273 -0.1688084 -0.29094768 -0.066032045 -0.11222014 -0.10958613 0.23519953 -0.026326064
-0.26328886 -0.31887662 0.13067234 0.326764 0.07740625 0.07380006 -0.1847423 0.03595732
0.14032215 -0.1781853 0.08486802 0.32261685 -0.122743025 0.012392032 -0.29740983 -0.25807855
0.29267788 0.20188996 -0.15820146 -0.18735181 -0.099311836 0.20283869 -0.081885085 -0.045371365
-0.21449214 -0.116637185 -0.15353785 -0.33735526 -0.2971174 -0.37598386 0.30995008 0.014325254
-0.011782538 0.30421317 -0.18757597 -0.22115026 0.09098873 -0.07786557 0.11843554 -0.23963502
-0.076259 0.20287949 -0.06937928 0.00032336175 -0.0678702 -0.14020512 0.2904327 0.09156489
-0.30327365 -0.32671043 0.007381378 0.38870308 -0.070118405 -0.05040833 -0.0384903 0.22011028
0.052778266 -0.03888129 -0.07082144 0.2826825 0.03045904 0.12967312 0.033141658 -0.23185115
0.11811899 -0.094876476 0.14859791 0.005627184 0.32894665 0.14294256 0.18050523 0.055522386
-0.03017257 -0.14352514 -0.28589407 -0.020405117 -0.08032084 0.10180456 0.013477896 -0.20811138
-0.30153146 -0.082641095 0.15626894 -0.056803945 -0.043088533 -0.10847682 -0.23683526 0.3760962
-0.039724562 -0.06697317 0.069350764 0.062572844 0.07813951 0.22441038 -0.2868455 -0.048472155
0.28203616 0.26554617 -0.20433342 -0.18289071 -0.17339872 0.05693564 0.012140727 0.061850186
0.23634726 0.028611701 0.14156547 0.113519125 0.14166364 0.0012372984 0.013577837 0.1239757
-0.067261234 -0.2352559 0.35026437 0.010073913 0.24086492 -0.16295137 -0.13820907 0.13714269
0.09090899 0.0019041669 -0.031153506 0.2582907 -0.19881766 0.3109271 -0.38020283 -0.24956517
-0.013769703 -0.14539436 0.13507278 -0.123090684 0.13908474 -0.07194172 -0.2242167 -0.12746064
0.15603592 -0.004533663 0.17315239 0.14318655 -0.18783376 -0.20644887 -0.23597258 0.1208422
0.012591014 -0.05949227 -0.21514824 -0.14196959 -0.06640729 -0.028261412 0.25073406 0.0323018
-0.21303979 -0.009989587 0.1483577 -0.23419324 -0.0015128729 -0.15280466 0.063091554 0.36876857
00000000: 7d1a 27be bd74 913e 4162 5a3d a04e f0bd
00000010: ebcd ebbd 5d29 8a3d d559 053e 5437 06be
00000020: 1b44 413c 46e4 8d3e 06f6 573e fee1 d4bd
00000030: 4bca 4ebe 7967 193d 951a 2fbc 069a c43c
00000040: 2611 0bbd ca0c 363c 1b57 71bd 7a69 91bd
00000050: e607 2fbe de8d fe3d cdb1 363e 0b1d 3dbe
00000060: efa2 68bd 3d0c 87bc c61d 7e3e 0825 2ebe
00000070: 04e7 4d3e 046e 29bd c1b8 a53e 9e92 e33d
00000080: bd26 02be 4411 2fbe ec64 5b3e bee1 0bbe
00000090: 7267 a23e 523b ccbd ee93 78bd b617 953e
000000a0: fc89 9e3e 34b9 7cbe db2b efbd 8a60 5ebd
000000b0: 78b4 20be ac80 8f3e 6ccb 003e e0ff 10be
000000c0: 07e0 26be c32f 3f3e 3e1b 88bd 2b70 8d3d
000000d0: 5bb8 353e ce25 eabd d251 1abe baec 5bbe
000000e0: 92a2 523d 2d24 313c 3eb2 ba3c facd 1abe
000000f0: 1497 1ebb f0cb 653e a2a1 a2bd 2e32 27be
00000100: 9a74 2abe 2b96 97bd 725a c23d f009 153e
00000110: 2b3c 9f3d fc40 ce3d b181 edbd 0e24 923e
00000120: e19e 443e d045 21be b238 4d3d 1ad7 343e
00000130: e6a0 34be 6ce2 51bd c5b9 e23a 49a4 213d
00000140: 4f98 103e 8dfb d03c 5ba7 f9bd ec01 523d
00000150: 1d76 bbbd ce69 5dbe 0394 83bc 2b0d 023e
00000160: cce4 123d 1cdc 2cbe 18f7 94be cf3b 87bd
00000170: acd3 e5bd b16e e0bd 25d8 703e c2a9 d7bc
00000180: cccd 86be cc43 a3be f8ce 053e 9c4d a73e
00000190: 2b87 9e3d 7c24 973d 162d 3dbe fc47 133d
000001a0: 9cb0 0f3e 3576 36be 49cf ad3d 092e a53e
000001b0: b260 fbbd f307 4b3c 1a46 98be df22 84be
000001c0: e0d9 953e 3ebc 4e3e 90ff 21be 27d9 3fbe
000001d0: 0164 cbbd f2b4 4f3e 5eb3 a7bd 53d7 39bd
000001e0: d4a3 5bbe 7adf eebd 0739 1dbe d4b9 acbe
000001f0: c61f 98be f580 c0be c7b1 9e3e 78b4 6a3c
00000200: 8c0b 41bc d4c1 9b3e ea13 40be 3775 62be
00000210: 4d58 ba3d fc77 9fbd 558e f23d e262 75be
00000220: ae2d 9cbd a4bf 4f3e b916 8ebd e188 a939
00000230: 88ff 8abd ee91 0fbe 98b3 943e 6086 bb3d
00000240: af46 9bbe 9746 a7be 7ddf f13b 1704 c73e
00000250: 3d9a 8fbd f778 4ebd 01a8 1dbd 9764 613e
00000260: 062e 583d fd41 1fbd d50a 91bd c3bb 903e
00000270: 3d85 f93c 08c9 043e 8cbf 073d 636a 6dbe
00000280: 5ee8 f13d 994e c2bd 0d2a 183e 3e64 b83b
00000290: b26b a83e 895f 123e 5dd6 383e 716b 633d
000002a0: 772c f7bc 41f8 12be b560 92be a228 a7bc
000002b0: 417f a4bd e97e d03d 65d2 5c3c 261b 55be
000002c0: 5562 9abe bc3f a9bd f704 203e 41ab 68bd
000002d0: 9a7d 30bd 1829 debd f184 72be ae8f c03e
000002e0: 39b6 22bd 3b29 89bd c607 8e3d 3126 803d
000002f0: 9b07 a03d d6cb 653e 6add 92be bd8a 46bd
00000300: 0b67 903e abf5 873e c83c 51be b447 3bbe
00000310: 6f8f 31be 5835 693d e6e9 463c 9f56 7d3d
00000320: 0405 723e 1663 ea3c 8af6 103e b77c e83d
00000330: 4610 113e d82c a23a 9375 5e3c f9e6 fd3d
00000340: 42c0 89bd ece6 70be da55 b33e 0e0d 253c
00000350: 4ba5 763e b9dc 26be ae86 0dbe 226f 0c3e
00000360: 7e2e ba3d 3d95 f93a a335 ffbc ae3e 843e
00000370: db96 4bbe d631 9f3e f2a9 c2be 038e 7fbe
00000380: 529a 61bc 42e2 14be 8550 0a3e f816 fcbd
00000390: 3b6c 0e3e 2e56 93bd 1099 65be 0b85 02be
000003a0: e1c7 1f3e 1f8f 94bb dc4e 313e 7f9f 123e
000003b0: 7e57 40be 5567 53be cca2 71be 1e7c f73d
000003c0: 8a4a 4e3c 2bae 73bd d24f 5cbe 7a60 11be
000003d0: 8c00 88bd 7a84 e7bc 3760 803e e44e 043d
000003e0: 1a27 5abe 5dab 23bc 15eb 173e 5ad0 6fbe
000003f0: 974b c6ba d378 1cbe 2536 813d 3ccf bc3e

main.1.bias f4 [20]
-0.23572947 -0.12210399 0.12652093 -0.057174847 -0.059600078 -0.07840271 -0.03756105 0.012578346
0.2179778 -0.06657919 -0.26193377 -0.28465062 0.007649012 0.040173225 -0.18116543 0.030968245
-0.2615897 -0.26332197 0.19424886 0.10728543
00000000: 1163 71be a811 fabd b48e 013e 2c30 6abd
00000010: 361f 74bd 9a91 a0bd 9ed9 19bd 6815 4e3c
00000020: 9335 5f3e ac5a 88bd 2f1c 86be babd 91be
00000030: 90a4 fa3b ae8c 243d 6e83 39be 1eb1 fd3c
00000040: 16ef 85be 23d2 86be 2ce9 463e 77b8 db3d

main.3.weight f4 [20]
0.9453539 0.940165 0.94115853 0.95454407 1.0135716 0.9626473 0.98943615 0.918868
0.92773473 0.90873146 0.914205 1.0157937 0.9473542 0.9250409 1.0106146 0.95053136
1.0112553 0.9245275 0.92639786 0.9307687
00000000: b702 723f a7ae 703f c4ef 703f 005d 743f
00000010: b7bc 813f 0e70 763f b04b 7d3f ef3a 6b3f
00000020: 0680 6d3f a0a2 683f 5709 6a3f 8705 823f
00000030: ce85 723f 7bcf 6c3f d25b 813f 0656 733f
00000040: d070 813f d6ad 6c3f 6928 6d3f dc46 6e3f

main.3.bias f4 [20]
-0.06542566 -0.024959601 -0.059766874 -0.0029305161 -0.123014264 -0.12081203 -0.10938814 -0.1126856
-0.033469442 -0.0906403 0.04673395 -0.114331156 0.019909305 -0.09682175 0.18209516 -0.042245165
-0.109040305 -0.09995645 0.0006380861 -0.035499364
00000000: e3fd 85bd 1478 ccbc 1cce 74bd e70d 40bb
00000010: e7ee fbbd 4c6c f7bd e406 e0bd b5c7 e6bd
00000020: 4117 09bd 9fa1 b9bd 196c 3f3d 7426 eabd
00000030: d718 a33c 7b4a c6bd 2777 3a3e 4409 2dbd
00000040: 8650 dfbd f8b5 ccbd 3c45 273a c867 11bd

main.3.running_mean f4 [20]
0.071109116 0.22067219 0.046671495 -0.0037920114 -0.04995611 0.09366866 -0.0766814 0.37128866
0.43689793 -0.06476713 -0.068801105 -0.10635322 0.1903355 -0.06653577 -0.061115403 0.3072797
-0.093688965 -0.11943248 0.3097737 0.17586261
00000000: a8a1 913d e4f7 613e 9c2a 3f3d 6583 78bb
00000010: c79e 4cbd 5bd5 bf3d 230b 9dbd 8c19 be3e
00000020: 16b1 df3e a1a4 84bd 98e7 8cbd b8cf d9bd
00000030: 4fe7 423e e843 88bd 2554 7abd c453 9d3e
00000040: 00e0 bfbd 0499 f4bd a99a 9e3e 5415 343e

main.3.running_var f4 [20]
0.060893655 0.103369534 0.045196086 0.0066094683 0.00026418295 0.050101586 0.00065925356 0.18553108
0.013860737 0.0005798561 0.0004999563 0.0017342523 0.04805933 0.0020642432 0.0002752887 0.11509452
0.0010412915 0.0019753498 0.15311174 0.040777974
00000000: a06b 793d 68b3 d33d 881f 393d 3d94 d83b
00000010: 0982 8a39 5237 4d3d c2d1 2c3a dcfb 3d3e
00000020: 2518 633c 7c01 183a 800f 033a da4f e33a
00000030: dcd9 443d 4148 073b a054 9039 adb6 eb3d
00000040: f27b 883a df74 013b 53c9 1c3e ce06 273d

main.4.weight f4 [2048, 20]
-0.024031153 -0.031644884 -0.08319686 0.0280847 0.07694945 -0.0637494 0.051151432 -0.13859852
0.1770408 0.05626087 0.10499774 -0.08569976 -0.02757066 -0.079263255 -0.11427666 0.20606361
-0.05190089 0.002836106 -0.086419076 0.1502464 0.17526913 0.124410264 -0.10738546 0.24153304
-0.0004150175 0.07609828 -0.11275884 0.110113956 0.16738425 -0.07206707 0.18350661 0.010071793
-0.13614881 -0.0069041136 -0.051465854 0.010913545 0.018369673 0.11009897 -0.078136064 -0.13830517
0.1875558 -0.21578395 -0.084547274 -0.23000707 0.19586079 0.054849595 -0.049822208 0.0058429707
-0.08026015 -0.09999952 -0.16307959 0.2453329 -0.2513677 -0.12621881 -0.038977545 -0.07048435
0.08219608 -0.0031814906 0.042852152 -0.19987087 -0.035150632 0.023292983 0.06245192 -0.042474303
0.09742118 -0.12542225 -0.13374127 -0.019804882 -0.10495851 -0.052287985 0.057532057 0.20409852
-0.032045443 -0.06472873 -0.06490505 0.08925928 0.13926512 0.28686595 -0.106870405 -0.18965924
0.008722838 -0.123555526 -0.15140499 -0.11628664 0.11954749 0.03670505 -0.119870454 -0.05321994
-0.12650122 0.15418757 0.09101282 -0.14132917 0.21007548 -0.07568171 0.2876447 0.07111576
0.03739715 -0.18394825 -0.16324882 -0.01234693 -0.017066188 -0.07715612 -0.10051948 -0.14577736
0.2144345 -0.27997872 0.1256716 0.16971746 -0.09862079 0.08877828 -0.002330348 0.23623972
-0.15355368 -0.07721391 -0.26474905 0.032708693 0.18606618 -0.13554995 0.12842837 0.017199324
-0.09782993 0.02838158 0.044601027 -0.12600332 -0.0045621307 -0.03531717 0.117911994 0.023334803
0.0312267 0.007401822 -0.1459247 -0.08947571 0.21872066 -0.15398648 0.09457633 0.17131564
0.007363377 -0.08001798 0.13249359 0.05504847 0.028276728 -0.020254815 0.15966724 0.08388052
-0.08323712 -0.10291351 0.14845973 0.04679291 -0.048371486 0.1114609 0.061840475 0.21722846
0.12369441 0.10211155 -0.12437369 0.13320735 0.015380114 -0.10410121 0.21624883 0.006642668
-0.2625333 -0.1964448 -0.0830501 0.12198218 0.15775062 0.06306011 0.0108978115 0.07321629
-0.03289526 -0.1928025 0.31334752 -0.18252446 0.0066401726 -0.20234366 -0.097587086 0.13138987
-0.10050607 -0.12072129 -0.1316316 -0.19446822 0.09562893 0.007750811 0.12497494 0.10025735
0.29743788 -0.18935053 -0.13034387 0.11452464 0.12708373 -0.140774 -0.20583026 0.14434046
0.1149545 0.017074209 -0.119464755 -0.061882153 0.09124191 -0.06783854 0.121307455 0.064302914
0.10164387 -0.054655474 -0.19855876 -0.11525462 -0.058264125 0.08356111 0.2951312 -0.060691275
-0.027125904 0.16466856 -0.17854601 -0.011710365 0.1043703 0.11433166 0.031632107 0.06554323
-0.05940461 0.22415468 -0.029652018 0.06933539 0.013670737 -0.052916393 0.08445779 -0.01752865
-0.07445573 -0.01801384 0.079805255 0.0655116 0.10888676 -0.10565508 0.013506304 0.3013395
-0.17762123 0.0670389 -0.1274415 0.23572582 -0.13483569 0.05258183 0.03149203 -0.1575879
0.19324328 -0.114764504 0.048432946 -0.12552136 0.056912996 -0.049131934 -0.12568289 0.150826
0.20315343 0.20412 -0.13399415 0.098395966 0.1068231 -0.14779207 0.14838481 -0.18844338
00000000: fbdc c4bc 119e 01bd 1e63 aabd e311 e63c
00000010: ac97 9d3d 0c8f 82bd 2a84 513d c5ec 0dbe
00000020: 2f4a 353e cc71 663d 0e09 d73d 5b83 afbd
00000030: dddb e1bc c654 a2bd e209 eabd 5702 533e
00000040: 0796 54bd f7dd 393b 7cfc b0bd 31da 193e
00000050: c079 333e cfca fe3d e8ec dbbd 7054 773e
00000060: b596 d9b9 6ad9 9b3d 1bee e6bd 6d83 e13d
00000070: c766 2b3e e697 93bd 28e9 3b3e 2904 253c
00000080: 986a 0bbe e73b e2bb dccd 52bd bace 323c
00000090: ff7b 963c 927b e13d cd05 a0bd df9f 0dbe
000000a0: a10e 403e 78f6 5cbe 1f27 adbd f986 6bbe
000000b0: bb8f 483e f8a9 603d 5f12 4cbd 6476 bf3b
000000c0: 6f5f a4bd 8ccc ccbd 56fe 26be 8c38 7b3e
000000d0: 44b3 80be 813f 01be eba6 1fbd 195a 90bd
000000e0: 6b56 a83d 8e80 50bb bd85 2f3d f3aa 4cbe
000000f0: 1cfa 0fbd edd0 be3c 96cd 7f3d 89f9 2dbd
00000100: c184 c73d b16e 00be 79f3 08be d93d a2bc
00000110: 7df4 d6bd ed2b 56bd bca6 6b3d 34ff 503e
00000120: 1542 03bd 7f90 84bd f0ec 84bd 92cd b63d
00000130: 849b 0e3e 18e0 923e dfde dabd 0836 42be
00000140: 3cea 0e3c ae0a fdbd e909 1bbe b127 eebd
00000150: 50d5 f43d 0958 163d a47e f5bd 27fd 59bd
00000160: 8989 01be 59e3 1d3e ee64 ba3d 98b8 10be
00000170: 071e 573e 03ff 9abd 2b46 933e 24a5 913d
00000180: c12d 193d ee5c 3cbe b32a 27be c74a 4abc
00000190: 64ce 8bbc 0704 9ebd 28dd cdbd a946 15be
000001a0: b894 5b3e 5f59 8fbe 0eb0 003e 6aca 2d3e
000001b0: b2f9 c9bd 63d1 b53d c0b8 18bb d3e8 713e
000001c0: 2d3d 1dbe 5422 9ebd 308d 87be 8df9 053d
000001d0: 2288 3e3e 9bcd 0abe ba82 033e 99e5 8c3c
000001e0: 0f5b c8bd 7d80 e83c 91af 363d 0407 01be
000001f0: ed7d 95bb bda8 10bd d87b f13d a128 bf3c
00000200: 23cf ff3c fc8a f23b 496d 15be 0b3f b7bd
00000210: 4ff8 5f3e a2ae 1dbe 3cb1 c13d 5e6d 2f3e
00000220: 7c48 f13b 77e0 a3bd 66ac 073e 817a 613d
00000230: 99a4 e73c 6ded a5bc cf7f 233e 8dc9 ab3d
00000240: 3978 aabd 51c4 d2bd d405 183e eca9 3f3d
00000250: 2e21 46bd 9d45 e43d 704c 7d3d 2371 5e3e
00000260: 7f53 fd3d dc1f d13d a2b7 febd 8267 083e
00000270: e0fc 7b3c 0433 d5bd 5570 5d3e bdaa d93b
00000280: c46a 86be d328 49be 2c16 aabd cbd1 f93d
00000290: 6189 213e a925 813d bc8c 323c 6cf2 953d
000002a0: 2ebd 06bd 056e 45be 166f a03e b1e7 3abe
000002b0: ce95 d93b 2d33 4fbe bddb c7bd 118b 063e
000002c0: 20d6 cdbd b93c f7bd 6fca 06be ad22 47be
000002d0: 1ad9 c33d 84fa fd3b ddf2 ff3d ba53 cd3d
000002e0: c749 983e 1be5 41be dd78 05be e58b ea3d
000002f0: 3d22 023e 0f27 10be 2bc5 52be fccd 133e
00000300: 446d eb3d 36df 8b3c f0a9 f4bd 2478 7dbd
00000310: 0add ba3d efee 8abd 0b70 f83d 3fb1 833d
00000320: a92a d03d 6bde 5fbd fd52 4bbe 9d0a ecbd
00000330: 5da6 6ebd 1622 ab3d 701b 973e 6a97 78bd
00000340: 2537 debc e09e 283e c4d4 36be d5dc 3fbc
00000350: 19c0 d53d b826 ea3d ab90 013d 873b 863d
00000360: 4052 73bd ce88 653e cae8 f2bc b7ff 8d3d
00000370: 3afb 5f3c dcbe 58bd 35f8 ac3d 3e98 8fbc
00000380: 3f7c 98bd c391 93bc f070 a33d f22a 863d
00000390: 0600 df3d b161 d8bd 8b49 5d3c 2c49 9a3e
000003a0: 57e2 35be b14b 893d 0680 02be 1c62 713e
000003b0: 5e12 0abe 0c60 573d c9fd 003d b95e 21be
000003c0: 91e1 453e a709 ebbd a061 463d ac88 00be
000003d0: 9a1d 693d 913e 49bd 04b3 00be 2272 1a3e
000003e0: 7407 503e d504 513e c335 09be d383 c93d
000003f0: 12c6 da3d ce56 17be 30f2 173e 4df7 40be

main.4.bias f4 [2048]
0.12802252 0.12343803 0.091331586 0.20624593 0.13645048 0.22227612 -0.11134646 0.1514092
0.30890408 -0.21373932 -0.17735498 0.28039768 -0.06072215 0.014584741 -0.11146489 0.27382877
0.09790589 -0.23626643 0.046500623 -0.061465207 -0.13265893 0.2558212 0.011268376 0.2057245
0.11929793 0.11523335 0.08386082 -0.12988575 -0.08454082 0.13932317 0.13518736 0.17543614
-0.16444989 0.15720646 0.08344238 0.21947317 0.14378278 -0.2093189 0.024438418 -0.1501512
-0.10063151 0.040413164 -0.045254327 -0.14913912 0.16079189 0.19060202 0.15221168 0.19885336
-0.16823913 0.18721946 -0.20483738 0.026133684 0.1662832 -0.14298052 0.014086212 0.0027069226
0.07755082 -0.02513382 0.112706095 0.1217601 0.13226223 -0.060623426 0.23404561 0.27279708
-0.23330116 -0.08931933 -0.26609334 -0.118858136 0.032874167 0.018384123 -0.18371694 0.029187357
-0.020545071 -0.2488734 -0.0053614834 -0.041171007 -0.065768085 -0.13625336 0.1305754 -0.11507703
0.19058642 0.12684222 -0.23483841 -0.061925508 -0.042053718 -0.1976913 0.050660256 -0.19690292
-0.28447983 0.16949038 -0.2596308 0.011762453 -0.19079363 0.065548435 0.045111682 -0.11761108
0.05588737 -0.0925894 -0.001002671 -0.08409926 -0.06491194 -0.2787946 0.11319766 -0.0016343776
0.1253913 0.027686203 0.021810869 -0.13636434 0.018194668 -0.116834246 -0.047578868 -0.090715244
0.18039167 -0.21343713 0.17327395 0.10430365 0.049837153 0.12160188 0.15914372 -0.11558661
0.059007835 0.10038667 -0.022508241 0.009399531 -0.03599067 0.08284911 0.1804863 0.072268166
0.0059769684 -0.32985187 -0.22921303 -0.10752615 -0.16717687 -0.19518289 -0.17739218 -0.0019649891
0.035330605 -0.021011852 -0.10643075 -0.21317033 -0.07469915 -0.22861032 0.03285019 -0.23889168
-0.2837795 0.004470949 0.031098774 -0.29378596 -0.101597704 0.027234307 -0.07915251 -0.41400415
-0.13127473 0.062608846 -0.3604097 -0.113262065 -0.29471752 -0.30807394 -0.25879332 -0.22501288
-0.20733683 -0.073777 -0.34611422 -0.085652255 -0.23505366 -0.18310101 -0.11882752 -0.07119123
-0.32546064 -0.28594893 0.038165048 -0.2660798 -0.25700474 -0.24139631 -0.16343287 -0.051202692
0.0755766 -0.23552911 0.08896554 -0.050484464 0.08821775 -0.27250168 -0.23161493 -0.06362488
-0.06166024 -0.33116287 -0.356888 -0.18887225 -0.13041954 -0.0030609071 -0.089309506 0.1015541
-0.08037064 -0.0994326 -0.11371983 -0.06912391 -0.0090988455 -0.037598096 -0.011654025 0.03767932
-0.12383751 0.012029257 -0.26001412 -0.1540574 -0.36059847 -0.21797496 0.03681558 -0.29079238
-0.1973309 0.050542668 -0.08426217 -0.23460802 -0.054720078 -0.06234186 -0.08475196 0.10809816
-0.22747801 0.050547317 -0.2744168 -0.09830512 -0.061500985 -0.03147481 0.06185437 -0.091147035
-0.31345072 -0.33420995 -0.15117647 -0.096774 -0.17941865 -0.011101425 -0.09463756 0.07071533
-0.009452551 -0.08292296 -0.1381892 -0.033423174 -0.21273367 -0.148164 -0.06942012 -0.15896797
-0.16006306 -0.1464095 -0.25470302 -0.08536181 -0.044159018 -0.17809846 -0.11481725 -0.24865814
0.09421499 -0.2651334 -0.13178836 -0.3098511 -0.12977514 -0.27980468 -0.21306641 -0.14708282
00000000: 5618 033e 14cd fc3d 0e0c bb3d 2232 533e
00000010: adb9 0b3e 5a9c 633e 9d09 e4bd 030b 1b3e
00000020: ad28 9e3e 7bde 5abe 8b9c 35be 4990 8f3e
00000030: cab7 78bd d6f4 6e3c b447 e4bd 4933 8c3e
00000040: e282 c83d d4ef 71be 7077 3e3d f1c2 7bbd
00000050: bed7 07be fffa 823e ff9e 383c 71a9 523e
00000060: 7952 f43d 76ff eb3d 39bf ab3d c500 05be
00000070: bd23 adbd bcaa 0e3e 8e6e 0a3e 88a5 333e
00000080: 8d65 28be bbfa 203e d7e3 aa3d 93bd 603e
00000090: cb3b 133e b257 56be 1433 c83c 3cc1 19be
000000a0: e517 cebd 4688 253d 9a5c 39bd edb7 18be
000000b0: a1a6 243e 2d2d 433e 61dd 1b3e 37a0 4b3e
000000c0: e146 2cbe 75b6 3f3e e4c0 51be 4f16 d63c
000000d0: 2546 2a3e 7c69 12be dbc9 663c a066 313b
000000e0: f7d2 9e3d 71e5 cdbc 74d2 e63d 5c5d f93d
000000f0: c06f 073e 4550 78bd a7a9 6f3e 0fac 8b3e
00000100: 80e6 6ebe 0eed b6bd 633d 88be e56b f3bd
00000110: 10a7 063d 4d9a 963c 4b20 3cbe 531a ef3c
00000120: 234e a8bc abd8 7ebe 62af afbb eea2 28bd
00000130: 6bb1 86bd 0086 0bbe 8fb5 053e 82ad ebbd
00000140: 1629 433e ede2 013e 7b79 70be 9aa5 7dbd
00000150: 8540 2cbd 976f 4abe 2181 4f3d eba0 49be
00000160: 57a7 91be e38e 2d3e 54ee 84be 4eb7 403c
00000170: 685f 43be 423e 863d 07c7 383d 14de f0bd
00000180: 28ea 643d 839f bdbd 0e6c 83ba 3c3c acbd
00000190: 8df0 84bd 2abe 8ebe 2dd4 e73d 9d38 d6ba
000001a0: 9466 003e 2dce e23c b5ac b23c 18a3 0bbe
000001b0: fc0c 953c cb46 efbd 0fe2 42bd eac8 b9bd
000001c0: 98b8 383e 438f 5abe ba6e 313e 279d d53d
000001d0: 0b22 4c3d 680a f93d 92f6 223e acb8 ecbd
000001e0: 33b2 713d 8797 cd3d 3463 b8bc 7e00 1a3c
000001f0: f46a 13bd cbac a93d 67d1 383e 5501 943d
00000200: 72da c33b 58e2 a8be d2b6 6abe ac36 dcbd
00000210: 6a30 2bbe 06de 47be 4ca6 35be 0cc7 00bb
00000220: d3b6 103d 0c21 acbc 5df8 d9bd 5349 5abe
00000230: defb 98bd d318 6abe ec8d 063d 05a0 74be
00000240: 8c4b 91be 0a81 923b dbc2 fe3c 1d6b 96be
00000250: 7512 d0bd 7b1a df3c b61a a2bd 5af8 d3be
00000260: e26c 06be 1139 803d 9f87 b8be f1f5 e7bd
00000270: 37e5 96be debb 9dbe 8f80 84be c769 66be
00000280: 1b50 54be 6518 97bd e235 b1be 736a afbd
00000290: e8b1 70be d57e 3bbe d85b f3bd b5cc 91bd
000002a0: c7a2 a6be e667 92be f452 1c3d 9d3b 88be
000002b0: 2096 83be 9830 77be f25a 27be eab9 51bd
000002c0: e8c7 9a3d 8b2e 71be 9133 b63d ccc8 4ebd
000002d0: 82ab b43d 5785 8bbe 772c 6dbe c34d 82bd
000002e0: 738f 7cbd 2e8e a9be 06ba b6be ba67 41be
000002f0: b38c 05be 8099 48bb e7e7 b6bd 99fb cf3d
00000300: 5d99 a4bd 52a3 cbbd f1e5 e8bd d690 8dbd
00000310: 5313 15bc 7600 1abd 86f0 3ebc a155 1a3d
00000320: 859e fdbd 5c16 453c 9220 85be 39c1 1dbe
00000330: 5da0 b8be d434 5fbe efcb 163d bde2 94be
00000340: 1d11 4abe d405 4f3d a591 acbd 163d 70be
00000350: 2922 60bd 2e5a 7fbd 7092 adbd 9162 dd3d
00000360: ffef 68be b40a 4f3d 5c80 8cbe 3254 c9bd
00000370: 75e8 7bbd bbeb 00bd 025b 7d3d 4cab babd
00000380: 9d7c a0be 911d abbe 01ce 1abe 7231 c6bd
00000390: 86b9 37be c0e2 35bc 56d1 c1bd 33d3 903d
000003a0: dfde 1abc 83d3 a9bd 7881 0dbe bde6 08bd
000003b0: dbd6 59be 4eb8 17be 232c 8ebd 80c8 22be
000003c0: 92e7 23be 5fec 15be 6f68 82be 2cd2 aebd
000003d0: 16e0 34bd 715f 36be 4e25 ebbd 3da0 7ebe
000003e0: caf3 c03d 91bf 87be 87f3 06be cea4 9ebe
000003f0: c6e3 04be 8f42 8fbe 152e 5abe e19c 16be

conv.0.weight f4 [20, 1, 5, 5]
0.051470418 -0.02072187 0.108479194 0.07611173 0.048123203 0.03911747 0.23412439 -0.11924649
-0.12231561 0.045727972 0.20021911 0.12301937 0.07707382 0.028806698 0.1751716 -0.013200537
0.03640253 0.2149076 -0.10071897 -0.0066769547 -0.11807144 -0.14272857 0.21220857 -0.15173094
0.1896056 -0.00661892 0.1488725 -0.078643166 0.037479304 0.13731006 0.062905125 -0.007525646
0.11422649 0.057755623 -0.049593616 -0.031185027 -0.06645763 0.100393355 -0.04795995 0.13193673
0.08730873 0.073668286 -0.07377104 -0.036610242 0.17748165 0.1786819 0.03880265 -0.12678418
0.075582124 -0.09309925 0.0848357 0.006488753 -0.0130752195 -0.07452738 0.027826324 0.027015764
0.070181504 0.048247933 0.02488416 -0.06852995 -0.0012550523 -0.011311113 0.07538627 0.03598806
-0.016141752 0.0063888533 0.008518294 0.10382312 0.05458137 0.046612002 -0.014656621 -0.013974152
0.06635507 -0.043037646 0.056032304 0.0021038917 0.026855007 0.007882049 -0.010802775 0.0061104065
0.015197358 0.04536859 0.019274449 0.044844836 0.013714186 0.025461834 -0.018655619 -0.012400039
0.018084697 -0.022593748 -0.04881281 0.012049829 -0.012128799 0.047332663 0.02459177 0.034045197
0.0012782232 0.004793516 0.045540985 0.036179803 0.036047112 0.10350825 0.1352196 0.19692713
0.16280447 0.12280961 -0.04658732 0.003831327 0.09423412 0.008943992 -0.1523371 -0.076359995
0.11706839 0.14821504 0.0480803 -0.17532775 -0.019251417 -0.17026891 -0.12562288 -0.043599907
-0.018134238 -0.016398849 -0.050640248 0.17656012 -0.119395815 0.0829082 0.05417055 -0.019279609
0.114994906 0.21463242 0.08361253 0.037419584 -0.011987019 -0.087371886 0.0688477 -0.11136899
0.0007386124 -0.10099769 -0.052149333 0.08957701 0.1286811 -0.14140607 0.011649233 -0.09590566
0.17184746 -0.12620637 -0.13459219 -0.023484146 -0.16571312 0.21621987 -0.021092702 -0.04917224
-0.062420942 0.039701916 -0.03235537 -0.056603108 -0.07700116 0.18200715 -0.0037903935 0.14341027
-0.03828764 0.10301381 0.09726405 0.25418228 -0.038149424 -0.053985618 0.08256297 0.09888013
0.07320868 0.17181917 -0.08511421 -0.21041468 0.07741291 0.12843882 0.10683801 -0.035427954
-0.020650195 -0.00627161 -0.22134496 -0.038160276 0.08184434 0.044612598 -0.016454782 0.06748667
-0.16064754 0.11353882 -0.089656 -0.093371116 -0.101477526 -0.014997155 0.03396895 0.04615114
-0.072233655 0.17216729 -0.06644484 0.18710893 0.04364578 0.23289293 0.18231028 -0.009133674
0.050198797 0.14179777 -0.0606259 0.020824393 -0.04510169 0.15714559 -0.0028756482 0.21560475
-0.032466114 0.19437402 0.05787608 0.1017864 0.08916585 0.040376853 0.06461405 -0.16559859
-0.2476022 0.02843551 -0.24095199 -0.17738974 0.06768575 -0.1295051 0.046117585 -0.08713648
-0.018896293 -0.016435422 -0.19272 -0.040242795 -0.011080977 -0.22040793 -0.13515782 -0.013813528
-0.039985947 -0.092976965 -0.056661148 0.094704956 0.17106867 0.12690543 0.05025457 -0.09613995
0.020938363 0.053582404 0.08982465 0.056812722 -0.037936054 0.17631909 0.08533292 0.0976104
0.13028547 -0.11046146 0.029551232 -0.034083802 -0.038759224 0.035177685 -0.009188257 -0.08407897
00000000: a5d2 523d e9c0 a9bc 572a de3d 77e0 9b3d
00000010: d61c 453d a439 203d 4ebe 6f3e 8137 f4bd
00000020: 9b80 fabd 414d 3b3d 3d06 4d3e 94f1 fb3d
00000030: e1d8 9d3d 06fc eb3c 2f60 333e 1147 58bc
00000040: d21a 153d bd10 5c3e bf45 cebd 5bca dabb
00000050: 70cf f1bd 7027 12be 344d 593e 5b5f 1bbe
00000060: f827 423e 86e3 d8bb 0872 183e ab0f a1bd
00000070: e683 193d 029b 0c3e 67d4 803d b299 f6bb
00000080: 94ef e93d 2991 6c3d ad22 4bbd be77 ffbc
00000090: f01a 88bd 089b cd3d a771 44bd 6c1a 073e
000000a0: ebce b23d 66df 963d 4515 97bd 9ff4 15bd
000000b0: c0bd 353e 63f8 363e 87ef 1e3d b6d3 01be
000000c0: cdca 9a3d d2aa bebd 57be ad3d 9b9f d43b
000000d0: 7239 56bc d0a1 98bd 08f4 e33c 2a50 dd3c
000000e0: 52bb 8f3d a09f 453d ded9 cb3c 6e59 8cbd
000000f0: 9180 a4ba 3f52 39bc 1e64 9a3d 3768 133d
00000100: b53b 84bc 9659 d13b 5190 0b3c 37a1 d43d
00000110: b790 5f3d 3aec 3e3d 5322 70bc d7f3 64bc
00000120: 2be5 873d 3e48 30bd 2182 653d 72e1 093b
00000130: 08ff db3c b623 013c 1ffe 30bc ce39 c83b
00000140: 57fe 783c 6ad4 393d 73e5 9d3c 38af 373d
00000150: 77b1 603c 5695 d03c abd3 98bc 8829 4bbc
00000160: 5c26 943c 8616 b9bc f1ef 47bd a56c 453c
00000170: dfb7 46bc e5df 413d ae74 c93c fa72 0b3d
00000180: 0e8a a73a ed12 9d3b 2f89 3a3d 4631 143d
00000190: 23a6 133d 22fc d33d 0277 0a3e 44a7 493e
000001a0: 37b6 263e 9b83 fb3d 58d2 3ebd 0017 7b3b
000001b0: d1fd c03d d289 123c 42fe 1bbe a162 9cbd
000001c0: 8dc1 ef3d afc5 173e d9ef 443d 1e89 33be
000001d0: 26b5 9dbc f95a 2ebe 49a3 00be d195 32bd
000001e0: 418e 94bc e156 86bc 266c 4fbd 2dcc 343e
000001f0: cb85 f4bd c6cb a93d f0e1 5d3d 45f0 9dbc
00000200: 7382 eb3d 9ac8 5b3e 0c3d ab3d 4745 193d
00000210: 3465 44bc 08f0 b2bd 0600 8d3d 6d15 e4bd
00000220: 709f 413a e0d7 cebd 8a9a 55bd 2774 b73d
00000230: fac4 033e c1cc 10be 6ddc 3e3c 306a c4bd
00000240: c8f8 2f3e 3e3c 01be 89d2 09be d361 c0bc
00000250: b3b0 29be be68 5d3e 9aca acbc d568 49bd
00000260: 1aad 7fbd 7a9e 223d 1087 04bd a9d8 67bd
00000270: c9b2 9dbd 1560 3a3e 4068 78bb 24da 123e
00000280: 80d3 1cbd e8f8 d23d 6032 c73d 2e24 823e
00000290: 9242 1cbd 0620 5dbd c616 a93d aa81 ca3d
000002a0: 6fee 953d 5df1 2f3e 5c50 aebd f276 57be
000002b0: a98a 9e3d 7785 033e e3cd da3d e71c 11bd
000002c0: 992a a9bc 1482 cdbb 41a8 62be f34d 1cbd
000002d0: 019e a73d b3bb 363d 2ecc 86bc 7436 8a3d
000002e0: ca80 24be 0a87 e83d 919d b7bd 5b39 bfbd
000002f0: 73d3 cfbd a1b6 75bc 0723 0b3d fa08 3d3d
00000300: 3def 93bd 9f4c 303e 3b14 88bd 7c99 3f3e
00000310: ebc5 323d 7c7b 6e3e 8caf 3a3e 68a5 15bc
00000320: 419d 4d3d 6f33 113e dd52 78bd eb97 aa3c
00000330: 8dbc 38bd c6ea 203e 5f75 3cbb 7ec7 5c3e
00000340: 30fb 04bd fc09 473e 780f 6d3d 6375 d03d
00000350: 969c b63d 3362 253d 5f54 843d ad92 29be
00000360: 6e8b 7dbe 96f1 e83c 1ebc 76be a8a5 35be
00000370: d49e 8a3d fc9c 04be cbe5 3c3d 9c74 b2bd
00000380: 66cc 9abc 94a3 86bc 6458 45be a1d5 24bd
00000390: fc8c 35bc 9eb2 61be d066 0abe 2352 62bc
000003a0: 4ec8 23bd b56a bebd 8515 68bd acf4 c13d
000003b0: a02c 2f3e 7ff3 013e bcd7 4d3d 06e5 c4bd
000003c0: ee86 ab3c 3979 5b3d fcf5 b73d 75b4 683d
000003d0: d662 1bbd fe8c 343e 07c3 ae3d f6e7 c73d
000003e0: 8e69 053e 9e39 e2bd 6d15 f23c 759b 0bbd
000003f0: fec1 1ebd 7a16 103d 588a 16bc 9831 acbd

conv.0.bias f4 [20]
-0.024090005 -0.2575823 -0.25774422 -0.19399263 -0.23354878 -0.1416704 0.11166368 -0.055480257
-0.0012491043 -0.10920801 0.428105 -0.16880451 0.05288714 -0.092355706 -0.23174451 -0.20558883
-0.079265065 -0.19892538 -0.11817294 -0.32357836
00000000: 6758 c5bc d4e1 83be 0df7 83be 01a6 46be
00000010: 6927 6fbe 0c12 11be edaf e43d 443f 63bd
00000020: fcb8 a3ba 73a8 dfbd 9430 db3e 17db 2cbe
00000030: 30a0 583d fd24 bdbd 6f4e 6dbe e185 52be
00000040: b955 a2bd 18b3 4bbe a804 f2bd 10ac a5be

conv.2.weight f4 [20]
1.0341321 1.0910162 1.0940456 1.0694158 1.1148418 1.1026706 1.0814714 1.054224
1.1688766 1.2124207 1.2605052 1.0731004 1.0291119 1.0381198 1.074796 1.0937904
1.051333 1.0936378 1.1528106 1.0915092
00000000: 715e 843f 6ba6 8b3f b009 8c3f 9ee2 883f
00000010: 23b3 8e3f 4f24 8d3f a86d 8a3f d0f0 863f
00000020: c09d 953f 9a30 9b3f 3c58 a13f 5b5b 893f
00000030: f0b9 833f 1ce1 843f ea92 893f 5301 8c3f
00000040: 1492 863f 53fc 8b3f 4c8f 933f 93b6 8b3f

conv.2.bias f4 [20]
-0.12372606 -0.14585796 -0.11933905 -0.13613726 0.36029527 0.13308986 0.2658268 0.19338626
0.20839721 0.111692324 -0.31601623 -0.12779407 -0.12953405 -0.13251741 -0.116752535 -0.18231116
-0.13348123 -0.15047741 0.15015034 -0.12045699
00000000: 1764 fdbd ca5b 15be 0868 f4bd 9167 0bbe
00000010: 9f78 b83e b548 083e 731a 883e 0c07 463e
00000020: 1466 553e f2be e43d e1cc a1be 73dc 02be
00000030: 93a4 04be a5b2 07be f41b efbd c7af 3abe
00000040: 4eaf 08be c016 1abe 03c1 193e 28b2 f6bd

conv.2.running_mean f4 [20]
0.059104733 -0.040660363 -0.046142776 -0.035628352 -0.040915385 -0.021219531 0.16149603 0.007043865
0.036436122 -0.014501422 0.36062056 -0.028928857 0.114771895 0.033908594 -0.03056837 -0.027825898
0.037628755 -0.03571749 -0.020623498 -0.057105456
00000000: ce17 723d 7b8b 26bd 3500 3dbd 09ef 11bd
00000010: e496 27bd 95d4 adbc 375f 253e 39d0 e63b
00000020: 0b3e 153d 5f97 6dbc 42a3 b83e 36fc ecbc
00000030: 870d eb3d bde3 0a3d 856a fabc 23f3 e3bc
00000040: 9c20 1a3d 814c 12bd 9cf2 a8bc 69e7 69bd

conv.2.running_var f4 [20]
0.010968289 0.0012690594 0.00014500436 3.6127643e-05 0.0010760608 0.0017107835 0.011193823 0.0035687168
0.005949673 0.0018167871 0.0067662112 0.00024018594 0.015821645 0.010637313 0.002935941 0.002090059
0.010025344 2.4531686e-05 0.0011154007 0.00030967244
00000000: 57b4 333c 9156 a63a 500c 1839 c387 1738
00000010: 9c0a 8d3a 5e3c e03a 4c66 373c 22e1 693b
00000020: 79f5 c23b 4221 ee3a 18b7 dd3b 6cda 7b39
00000030: 659c 813c 2048 2e3c eb68 403b 5ff9 083b
00000040: 5741 243c 65c9 cd37 a332 923a 885b a239

conv.3.weight f4 [1, 20, 5, 5]
0.06321691 0.06971437 0.12379753 0.11909723 0.06557902 0.09024728 0.090076245 0.044746134
0.044109102 0.023568595 0.03153391 0.07547986 0.1076166 0.14417711 0.11459351 0.091019124
0.112971246 0.048804022 0.11106465 0.05246994 0.07730052 0.091590725 0.07933567 0.11759063
0.06949927 0.090481035 0.07709507 0.07851802 0.06326462 0.07643215 0.0806511 0.13949728
0.14070182 0.09106431 0.082661435 0.13907556 0.09438007 0.1037914 0.124036744 0.115190715
0.10137514 0.11463519 0.10922127 0.08269652 0.092277974 0.068175115 0.09864201 0.12169502
0.054119132 0.09542474 0.057277158 0.09584071 0.051873192 0.12041486 0.11311539 0.11404364
0.11857769 0.052285805 0.10315803 0.04786168 0.096997365 0.11348973 0.092725895 0.09478135
0.06806762 0.11123915 0.12847292 0.11470172 0.10993391 0.077175625 0.045952827 0.03879298
0.11912521 0.06169616 0.09799607 0.102382734 0.050180435 0.06666424 0.03358077 0.10277063
0.08043796 0.07015103 0.09316132 0.099066086 0.03773178 0.077514045 0.09728388 0.059414413
0.12194101 0.07869911 0.05231621 0.07055577 0.05856163 0.070855856 0.06390406 0.058494896
0.06617397 0.07808135 0.08442522 0.045357 -0.2650704 -0.16861339 -0.27969953 -0.12901598
-0.2757466 -0.23413719 -0.22798778 -0.19923756 -0.18632877 -0.14703113 -0.22522415 -0.22726813
-0.25137925 -0.26113436 -0.24471755 -0.24042559 -0.16244648 -0.2955172 -0.27003163 -0.23255436
-0.1850269 -0.19615832 -0.20992611 -0.18605578 -0.21815519 -0.18133594 -0.16343172 -0.12646024
-0.13609214 -0.13757996 -0.15045008 -0.13050766 -0.08714995 -0.16058916 -0.20754828 -0.14493757
-0.11369042 -0.074466065 -0.069552705 -0.12533805 -0.12126057 -0.16875085 -0.13824569 -0.12515217
-0.14576936 -0.15773365 -0.17356816 -0.1860099 -0.19048396 -0.19217175 -0.07638832 -0.112131625
-0.16518916 -0.21959595 -0.12448167 -0.16550359 -0.17546585 -0.1895722 -0.20837972 -0.091011904
-0.14400922 -0.12816788 -0.15892361 -0.12816127 -0.14545552 -0.17707728 -0.16227236 -0.13605729
-0.117867306 -0.115653925 -0.15845135 -0.17734613 -0.11246147 -0.05889342 -0.045951393 -0.15186724
-0.1459079 -0.1308265 -0.13865441 -0.12275936 -0.16591421 -0.11613755 -0.1585535 -0.21260431
-0.0820272 -0.13324031 -0.12916382 -0.16897702 -0.20000647 -0.13613844 -0.18885215 -0.18226168
-0.20995213 -0.17638227 -0.10608359 -0.18944584 -0.17492343 -0.14119375 -0.19697873 -0.1572621
-0.0072113327 0.06708223 -0.04742929 0.03002514 -0.03291225 -0.119152255 -0.060251005 -0.12918963
-0.08783782 -0.11541465 -0.13369596 -0.14000554 -0.14570478 -0.13361813 -0.14971343 -0.17262287
-0.123884775 -0.15668872 -0.14780523 -0.13832492 -0.074297115 -0.17112812 -0.08123232 -0.12698701
-0.07104158 -0.16980031 -0.18875085 -0.16930608 -0.14491896 -0.16142932 -0.18730955 -0.1607098
-0.20385912 -0.25915542 -0.16633758 -0.059885852 -0.15313219 -0.1152335 -0.1514598 -0.12149042
0.024995599 -0.03532947 0.0128604695 -0.007803056 -0.016623527 0.017213225 -0.06960023 -0.027305251
-0.043370984 -0.09660871 0.20741811 0.2470047 0.25657982 0.16935796 0.21266058 0.20626092
00000000: de77 813d 68c6 8e3d 8f89 fd3d 40e9 f33d
00000010: 4b4e 863d 91d3 b83d e579 b83d b947 373d
00000020: bfab 343d ed12 c13c b429 013d 2f95 9a3d
00000030: 1866 dc3d 2aa3 133e 01b0 ea3d 3c68 ba3d
00000040: 785d e73d bae6 473d dd75 e33d b8ea 563d
00000050: bc4f 9e3d eb93 bb3d bd7a a23d 5bd3 f03d
00000060: a255 8e3d 1f4e b93d 05e4 9d3d 0ece a03d
00000070: e290 813d 7688 9c3d 672c a53d 60d8 0e3e
00000080: 2314 103e ed7f ba3d 664a a93d d369 0e3e
00000090: 574a c13d 9690 d43d fa06 fe3d 1ce9 eb3d
000000a0: c59d cf3d dbc5 ea3d 67af df3d cb5c a93d
000000b0: 3cfc bc3d 659f 8b3d d204 ca3d 3d3b f93d
000000c0: 06ac 5d3d 0c6e c33d 749b 6a3d 2248 c43d
000000d0: fc78 543d 119c f63d 0ba9 e73d b68f e93d
000000e0: dcd8 f23d a429 563d 8444 d33d 9c0a 443d
000000f0: 8ea6 c63d 4e6d e83d 13e7 bd3d b91c c23d
00000100: 0967 8b3d 5ad1 e33d 688e 033e bce8 ea3d
00000110: 0825 e13d 410e 9e3d 0839 3c3d 63e5 1e3d
00000120: ebf7 f33d 1db5 7c3d 2ab2 c83d 0aae d13d
00000130: 008a 4d3d 4387 883d fd8b 093d 6879 d23d
00000140: a8bc a43d 58ab 8f3d 5dcb be3d 29e3 ca3d
00000150: a48c 1a3d afbf 9e3d c53c c73d 875c 733d
00000160: 35bc f93d 002d a13d 8649 563d 8b7f 903d
00000170: 52de 6f3d e01c 913d 22e0 823d 5898 6f3d
00000180: 3886 873d 1de9 9f3d 21e7 ac3d 43c8 393d
00000190: 4fb7 87be fda8 2cbe c734 8fbe c41c 04be
000001a0: a92e 8dbe a9c1 6fbe a175 69be ee04 4cbe
000001b0: f8cc 3ebe 548f 16be 29a1 66be fab8 68be
000001c0: c8b4 80be 67b3 85be 3d97 7abe 2032 76be
000001d0: 5f58 26be 084e 97be 9641 8abe bb22 6ebe
000001e0: b177 3dbe badd 48be dff6 56be 6885 3ebe
000001f0: 1364 5fbe 21b0 39be a55a 27be cb7e 01be
00000200: bd5b 0bbe c3e1 0cbe 960f 1abe cda3 05be
00000210: ac7b b2bd 7c71 24be 8987 54be 846a 14be
00000220: 86d6 e8bd aa81 98bd a671 8ebd 9e58 00be
00000230: 7657 f8bd 06cd 2cbe 4790 0dbe e427 00be
00000240: 9044 15be ee84 21be dabb 31be 6179 3ebe
00000250: 3a0e 43be acc8 44be 7b71 9cbd 44a5 e5bd
00000260: 5927 29be c3dd 60be 3ff0 febd c679 29be
00000270: 52ad 33be 371f 42be 7e61 55be 7364 babd
00000280: 2777 13be 713e 03be dfbc 22be b53c 03be
00000290: 4bf2 14be bf53 35be ba2a 26be 9a52 0bbe
000002a0: 6a64 f1bd f7db ecbd 1241 22be 399a 35be
000002b0: 3352 e6bd 3a3a 71bd 8737 3cbd 1683 1bbe
000002c0: e168 15be 62f7 05be 6cfb 0dbe 4269 fbbd
000002d0: 6ae5 29be 86d9 edbd d95b 22be f2b4 59be
000002e0: e0fd a7bd 2670 08be 8543 04be 5008 2dbe
000002f0: 7fce 4cbe e067 0bbe 7562 41be cea2 3abe
00000300: b1fd 56be 8e9d 34be 5a42 d9bd 17fe 41be
00000310: 211f 33be 1895 10be cbb4 49be 5109 21be
00000320: 0b4d ecbb 6862 893d 3745 42bd 48f7 f53c
00000330: ffce 06bd 1906 f4bd c2c9 76bd 494a 04be
00000340: 51e4 b3bd 845e ecbd 98e7 08be 9d5d 0fbe
00000350: a233 15be 31d3 08be 7a4e 19be 0dc4 30be
00000360: 4db7 fdbd 0273 20be 415a 17be 0ca5 0dbe
00000370: 1629 98bd 363c 2fbe 215d a6bd e208 02be
00000380: 3f7e 91bd 22e0 2dbe e747 41be 935e 2dbe
00000390: a365 14be ba4d 25be 13ce 3fbe 1c91 24be
000003a0: 72c0 50be 05b0 84be 6654 2abe de4a 75bd
000003b0: afce 1cbe 8bff ebbd 4718 1bbe f8cf f8bd
000003c0: 92c3 cc3c a2b5 10bd b8b4 523c c7b0 ffbb
000003d0: 102e 88bc c002 8d3c 918a 8ebd 43af dfbc
000003e0: c6a5 31bd cada c5bd 6a65 543e cdee 7c3e
000003f0: 6e5e 833e 2c6c 2d3e b2c3 593e 1036 533e
