src/caches/cache_16_20_small/param2img9.pt (torch, 184864 bytes, 19 tensors)

main.0.weight f4 [16]
000000 02 a1 4d 3f f2 2f 4e 3f 70 a8 52 3f 23 ea 7b 3f
       0.80323803 0.8054191 0.82288265 0.9840414
000010 71 aa 2e 3f 42 7f 71 3f 69 4b 6d 3f d6 d5 87 3f
       0.6822882 0.94334805 0.9269319 1.0612133
000020 b5 ec 83 3f 86 92 8b 3f a1 fa 6d 3f 4b 00 78 3f
       1.0306612 1.090409 0.92960554 0.9687545
000030 08 84 90 3f a7 23 4c 3f ea 1c 52 3f 32 13 8c 3f
       1.1290293 0.797419 0.8207537 1.0943358

main.0.bias f4 [16]
000000 e1 8c 07 be 49 79 30 3a 95 b8 0d bd 27 67 2b 3e
       -0.13237335 0.000673194 -0.03459986 0.16738568
000010 a4 1f 1b 3e 86 2c 11 3e 2a 6b 20 3e 1d 3d 5d 3e
       0.15148789 0.1417714 0.1566588 0.21605344
000020 6d 6e 1b 3e 01 94 b5 bd 4f 1d d8 3d 9a 5c 61 3c
       0.15178843 -0.0886612 0.10552465 0.013754988
000030 cb 2e 11 3e ee b0 01 3e ba 54 18 be b2 21 4a 3e
       0.14178006 0.1266515 -0.1487607 0.19739416

main.0.running_mean f4 [16]
000000 d5 1c 4a 37 2f b5 82 37 4f c6 4c 3e 4b 43 be 3a
       1.2046851e-05 1.5581578e-05 0.19997524 0.0014515904
000010 ee c9 32 3c 10 25 34 ba b6 a6 f4 3e 00 3f bd 3a
       0.010912402 -0.0006871978 0.4778344 0.0014438331
000020 cf 09 b3 3c a0 5a 38 ba db a6 f4 3e ee 12 be 3a
       0.021855263 -0.0007032547 0.4778355 0.0014501491
000030 aa 44 06 3d ee af 97 37 f0 d7 4c 3e dd a8 bd 3a
       0.032780327 1.8082526e-05 0.20004249 0.0014469881

main.0.running_var f4 [16]
000000 46 ba 82 35 3b 19 84 35 91 5e 89 35 22 46 26 3b
       9.739967e-07 9.842109e-07 1.0234818e-06 0.0025371392
000010 de fc ed 37 ee 57 0c 39 fa 9c a5 3d 72 62 26 3b
       2.8370352e-05 0.00013384197 0.080865815 0.0025388268
000020 b9 94 e9 38 91 53 0c 39 27 a1 a5 3d 06 34 26 3b
       0.000111380075 0.00013382571 0.08087378 0.0025360598
000030 dd dc 81 39 db fc 84 35 90 a9 86 35 2c 41 26 3b
       0.00024769353 9.908357e-07 1.0033127e-06 0.0025368435

main.1.weight f4 [20, 16]
000000 92 5f 9c ba 3a e8 df bb 36 e5 b6 3b e3 59 19 3d
       -0.0011930338 -0.0068331035 0.0055815233 0.03743924
000010 88 28 80 bd e1 40 ef bd c8 bb fa 3b 49 5c 28 3d
       -0.06257731 -0.116822965 0.00765178 0.041103635
000020 3e 6e 92 be c2 c4 22 3e 06 ca 9c 3d b4 9c 6f be
       -0.28599733 0.1589537 0.076557204 -0.23399621
000030 4a 46 a2 be 13 17 23 bb b4 a7 0a ba 3e 04 a8 3d
       -0.3169425 -0.002488558 -0.0005289272 0.08203934
000040 ed 82 cd bb 76 72 61 ba 0a 0a 09 bc b4 7f d0 3d
       -0.006271711 -0.0008600125 -0.00836421 0.101806074
000050 0b 09 3b bd 4b fa 40 bc c8 43 2a 3e 4a 39 b3 3c
       -0.04566292 -0.0117784245 0.16627419 0.021877903
000060 9e ca 12 be ad 96 8e 3d 64 c2 db bb 5f 8a 90 bd
       -0.14335105 0.06962333 -0.006706523 -0.07057642
000070 cd b2 86 be f2 31 74 bb a2 96 c8 bb 78 23 6e 3e
       -0.2630829 -0.0037261215 -0.0061214725 0.23255718
000080 20 99 52 3a c7 51 3a bb 19 fc 85 ba 7f f1 e5 bc
       0.00080336817 -0.002843009 -0.0010222226 -0.028069256
000090 db 48 46 3c dc 9e 03 3d c2 d9 4d 3d 99 96 fd bc
       0.012102331 0.032133922 0.0502565 -0.0309556
0000a0 40 cf ab 3d 05 f0 8f 3d 1f 18 e0 bb ee ca f0 bd
       0.08389139 0.07028202 -0.006838813 -0.11757456
0000b0 81 e0 11 3e 8e 7d ab ba ac b3 d0 39 e5 3b 57 3a
       0.14245798 -0.0013083683 0.00039806718 0.0008210524
0000c0 26 77 6f 3b 8d 4c f3 3a 85 f9 ea b9 09 9a db bc
       0.0036539524 0.0018562243 -0.00044817865 -0.026806848
0000d0 d5 8f 85 3d 62 97 e1 bd cd 05 45 bd 49 99 87 3c
       0.065215744 -0.11015202 -0.048101235 0.016552584
0000e0 fb 58 fa 3d 24 ab 11 be 27 49 20 be 02 97 83 3e
       0.12224003 -0.14225441 -0.15652905 0.25701147
0000f0 65 04 6e 3e 6d 5f cb ba 62 b0 af 3b 1b 0c 8d bd
       0.23243864 -0.001551611 0.0053616026 -0.068870746
000100 13 bd e4 ba 80 cc 87 bb 15 28 ac 3b 69 d0 67 be
       -0.0017451368 -0.0041442513 0.0052538016 -0.22638096
000110 05 f1 06 3c 80 9c 91 3e 5a b9 22 3e f2 25 8c 3d
       0.0082361745 0.28439713 0.15891019 0.06843175
000120 17 ae 9e 3d a9 0f 83 3e 9b 2f 8a bc 04 bf 56 3d
       0.07748049 0.25597885 -0.016868403 0.05242826
000130 a0 98 04 3e 7d 35 c2 38 d9 19 12 3c e2 97 1d 3e
       0.12948847 9.260604e-05 0.008917295 0.1538997
000140 bd dd 45 b8 45 9f 73 3b f2 54 af 3b 37 53 95 be
       -4.717497e-05 0.003717379 0.0053507024 -0.2916505
000150 bb f9 28 be ae a3 df bd 17 b7 d8 3b 5c b8 2f be
       -0.16501515 -0.10919891 0.006613623 -0.17160171
000160 39 ca c2 3a 14 ac 3e 3e 49 df fb bd 93 9a 8f bd
       0.0014861292 0.1862033 -0.12298448 -0.070119046
000170 47 b1 97 be b8 fa 98 bb 9c d3 0c 3c d8 35 eb bd
       -0.2962744 -0.00466856 0.0085953735 -0.11484879
000180 68 d7 e9 ba ef e3 f0 ba 1e e5 67 b8 3c 1b 32 be
       -0.0017840685 -0.0018378476 -5.5288074e-05 -0.17393202
000190 f0 af c1 bc 0b 5e 4e be 8e 36 8e 3d 0d 16 83 bd
       -0.023643464 -0.20153062 0.06943999 -0.0640069
0001a0 1e 8c ad bd 9d 60 46 bd 11 a2 98 bd e8 40 95 3c
       -0.08473991 -0.04843198 -0.07452787 0.018219426
0001b0 73 e3 1c be 1a 22 d3 3b 4b 81 09 bb e1 bf 54 be
       -0.1532114 0.006443274 -0.0020981606 -0.20776321
0001c0 02 30 70 3b d8 23 a2 3b ca 76 75 39 ac 18 41 3e
       0.0036649709 0.0049481206 0.00023409273 0.18857068
0001d0 23 3a 46 3d bd e9 f5 bd 2d d8 27 3e c4 41 d6 bd
       0.048395287 -0.12007473 0.16391058 -0.104617625
0001e0 00 1c 05 3e 46 55 13 be b1 82 f9 3b 56 50 a7 bd
       0.12998962 -0.14387998 0.0076144566 -0.0816962
0001f0 40 ea 4f 3e 4f 72 1c 3c 05 07 ce 3b a3 20 1e 3e
       0.20304203 0.009548738 0.006287458 0.15442137
000200 ac 2d 23 3b 4e ca af ba 98 34 63 b9 f1 85 5f bd
       0.0024899049 -0.0013411732 -0.00021668 -0.054571096
000210 54 6a 36 3d a0 e7 89 3e 89 92 5e bd 08 6f 0d be
       0.044534996 0.26934528 -0.054338966 -0.13811886
000220 e1 8b 9d 3d 89 f1 22 3e cf d4 aa bc 00 e0 30 3e
       0.076926954 0.15912451 -0.020853428 0.17272949
000230 c2 d8 0a 3e e5 ec 58 38 b3 6d 15 3c fe d6 a9 3d
       0.13559249 5.171904e-05 0.009120393 0.0829296
000240 5e 46 0a bb 15 a7 13 3c 62 11 91 3b 16 20 51 3e
       -0.002109907 0.009012003 0.004427121 0.20422396
000250 8c 35 b2 3d 42 cf 5a 3d 26 79 4d be 5c 57 92 3c
       0.087016195 0.053420313 -0.20065746 0.017863922
000260 e9 d5 6b 3e af 83 46 3e a5 66 27 bc 30 69 1d bd
       0.23030819 0.19386171 -0.010217343 -0.038430393
000270 6f f5 c4 3e fc 51 9a 3b 2d 77 bc 3b 0e ed 1a be
       0.384685 0.0047094803 0.0057515115 -0.15129492
000280 fb 32 6e 3b 1f 17 e5 3a 4a a1 04 ba df ec 56 3d
       0.0036346305 0.0017478204 -0.00050594343 0.05247199
000290 f2 de d9 3d 1d 15 24 3e c7 cf 91 3d 5e 1a 02 be
       0.106382266 0.16023679 0.071197085 -0.12705371
0002a0 76 af 6e 3e e1 d3 0f 3e 29 0d cc bc 43 04 57 3e
       0.2330912 0.14045669 -0.024908619 0.2099772
0002b0 f9 75 c0 3e c6 f4 13 3a 57 54 dc ba 0e 1a 4b 3e
       0.37590006 0.0005644079 -0.0016809803 0.19834158
0002c0 68 11 a3 3b 5d 67 68 ba f4 70 b6 ba 5b 6e 02 3e
       0.00497644 -0.00088655 -0.0013919161 0.1273741
0002d0 df f8 f1 bc 1d 55 5e 3d 61 32 ad 3c 39 f6 37 be
       -0.029537616 0.05428039 0.021142187 -0.1796502
0002e0 7c 29 4c bc 30 23 9b 3d bd f8 5f bd 1d c3 ee 3d
       -0.0124610625 0.07575071 -0.054680575 0.11658309
0002f0 b2 65 58 be c0 e1 86 3b d3 5b 88 ba cd 9c 9f be
       -0.21132544 0.004116267 -0.0010403342 -0.31174317
000300 6c 9a be b9 11 a1 4b 3c 95 fe 18 3a b4 8f 9f 3e
       -0.00036354677 0.012428538 0.00058362755 0.31164324
000310 97 bc 3d bd 09 7c f3 3d 19 19 3a be db a9 bf 3e
       -0.04632243 0.11888892 -0.18173636 0.37434277
000320 0d ca 67 3e 43 19 16 3d 20 1c 5f be 7f 49 8f 3e
       0.2263567 0.036645185 -0.21788073 0.2798576
000330 22 27 0c bd b9 43 b3 ba 1f de 50 3c 4a 1f c0 3e
       -0.034217007 -0.0013676799 0.01274827 0.37523872
000340 c2 c1 5b bb fc a7 06 3b 0d df 8a 3a 91 2f 0d be
       -0.0033532237 0.0020546904 0.0010595039 -0.13787676
000350 50 ce 46 be f8 e8 f7 bd db 17 bf bd c2 02 95 bd
       -0.1941464 -0.12104982 -0.09330722 -0.07275917
000360 46 4c af be de bc 16 3e 47 55 79 bd 82 ce 5e be
       -0.3423788 0.14720485 -0.060872342 -0.21758464
000370 29 65 69 be c2 e1 03 3c b3 14 78 3b 80 c9 06 bb
       -0.22792496 0.00804943 0.0037854135 -0.002056688
000380 77 44 bf 3a db 65 81 bb 51 91 a0 bb 64 3b 0f bd
       0.0014592548 -0.0039489097 -0.0049001356 -0.03496875
000390 cd 29 17 3a 32 40 b4 be 71 e8 c2 bd 69 f4 db bd
       0.00057664217 -0.35205227 -0.09516991 -0.10739977
0003a0 41 37 66 3d f1 d4 af be 3a 17 22 3e 72 6b 34 be
       0.056205038 -0.3434215 0.15829173 -0.17619112
0003b0 cc 69 24 be d4 23 de 3b 1e 54 05 3b f3 78 b4 bd
       -0.16055983 0.0067791734 0.0020344327 -0.08812132
0003c0 d8 af e1 39 81 14 8e 3b aa 5d 46 bb 7d 70 94 be
       0.00043046358 0.0043359403 -0.003026823 -0.28992072
0003d0 02 14 2f 3c af 74 7a bd 13 58 2d bd a9 64 e4 bd
       0.010685923 -0.061146434 -0.042320322 -0.11152012
0003e0 ad 17 68 3d c1 d7 9f be 41 b0 60 3e 5d 49 89 be
       0.056663204 -0.31219295 0.21942236 -0.26813784
0003f0 0a b2 7c 3d 62 69 2c ba 57 15 fa ba f7 40 3c be
       0.06169323 -0.00065769826 -0.0019079846 -0.18384157

main.1.bias f4 [20]
000000 ee 9c 7c be ad c3 b3 3e f1 28 f8 3e c9 bd 54 3e
       -0.24669239 0.35110226 0.48468736 0.20775522
000010 e9 05 41 3e 61 b3 56 be 18 a7 4f be 93 10 38 3e
       0.18849911 -0.20966865 -0.20278585 0.17975073
000020 51 87 94 be 95 8d c7 bd 2d 43 9f be 7d f6 c0 be
       -0.29009488 -0.097438015 -0.3110594 -0.37688056
000030 45 ca d3 3d 02 f0 83 bd 91 9f 8c bc 1f cc 5f bd
       0.10341314 -0.06442262 -0.017165931 -0.054638024
000040 05 04 9b be a1 db 43 bd 71 1b 41 be a2 e3 a2 be
       -0.30276504 -0.047816876 -0.18858124 -0.31814295

main.3.weight f4 [20]
000000 e2 30 52 3f 9f 5a 80 3f 27 e6 6c 3f 51 80 84 3f
       0.8210584 1.0027655 0.92538685 1.0351659
000010 a2 68 79 3f 58 81 69 3f 01 03 72 3f 2e ec 86 3f
       0.9742528 0.9121299 0.94535834 1.0540826
000020 66 a6 8a 3f e3 65 7b 3f cf cd 84 3f 65 3b 51 3f
       1.0832031 0.9820234 1.0375308 0.81731254
000030 e7 a4 7a 3f 0a 49 57 3f db 69 7b 3f c9 a4 81 3f
       0.9790787 0.84095824 0.982084 1.0128413
000040 5d 73 66 3f 67 31 6a 3f c6 9c 45 3f 08 ff 70 3f
       0.9001978 0.9148163 0.7719234 0.94139147

main.3.bias f4 [20]
000000 1f 8b 57 be 5b 26 29 37 a5 da 60 3d 97 da f6 bb
       -0.21049164 1.0082115e-05 0.054896016 -0.007533382
000010 f5 16 ef bd 5b a6 d2 bd ac d0 41 be 58 3c 31 be
       -0.116743006 -0.10285636 -0.18927258 -0.17308176
000020 e8 28 3f be 86 a7 42 bd ba be c5 3c 1b b8 b7 bd
       -0.18667948 -0.047523044 0.024138797 -0.08970662
000030 90 db 77 bd 53 e5 50 be 63 c4 17 bd 6a 17 d5 bd
       -0.060512125 -0.2039998 -0.037052523 -0.104048565
000040 eb 3b 5b 3a 60 7d 38 be f9 63 4c be 01 f8 e4 3d
       0.00083631155 -0.18016577 -0.19960012 0.111801155

main.3.running_mean f4 [20]
000000 12 f7 53 3d 27 72 ea 3e fa 8d 04 3f 00 10 ab 3e
       0.051749296 0.45790216 0.5177914 0.33410645
000010 46 29 bb 3e 93 7e d8 3c 13 c6 77 3c ab 89 bb 3e
       0.36554927 0.026427543 0.015122908 0.3662847
000020 ab e5 f8 3c 67 b8 79 3e 58 a1 2e 3e 00 c0 a0 bd
       0.030382952 0.2438675 0.17053735 -0.07849121
000030 47 63 2a 3f aa d1 e6 3d 98 5e 63 3e e8 ec 8f 3e
       0.66557735 0.11270459 0.22204053 0.28110433
000040 71 b9 34 bd 08 36 12 3e 63 ce 63 3d d3 ca a0 3d
       -0.044122163 0.14278424 0.055616748 0.07851186

main.3.running_var f4 [20]
000000 6b c2 e3 3d b2 b1 7d 3e 8a e7 c1 3d e6 21 34 3e
       0.11121067 0.24774817 0.09467991 0.17591056
000010 a1 e4 58 3e 15 1c 10 3e a2 34 96 3d 5f 15 22 3e
       0.21180965 0.14073212 0.07334258 0.15828465
000020 bf af 69 3d e4 b4 71 3e c6 bf 44 3e 50 2a 83 3c
       0.05705237 0.2360416 0.19213781 0.016011387
000030 ad 34 85 3f 45 ab 55 3e 62 bb 83 3e 22 65 d7 3e
       1.04067 0.20866115 0.257289 0.42069346
000040 f2 1a 4b 3d a0 43 32 3e 38 a9 54 3e ad 3c 29 3e
       0.049586244 0.1740861 0.20767677 0.16527052

main.4.weight f4 [2048, 20]
000000 8b 94 7f 3e c4 1b 83 3e d2 33 59 3c f0 71 85 3d
       0.24959008 0.2560712 0.013256984 0.065158725
000010 91 68 1c be ad 50 25 3b 1e 8a d4 bc 31 38 3e be
       -0.15274264 0.0025225088 -0.025944766 -0.18576123
000020 2b 89 52 bd 71 18 e6 bc 80 12 2b 3c e6 49 0e bd
       -0.051400345 -0.028087826 0.010441422 -0.034738444
000030 90 e4 74 3e 0d 9d 23 bd 3e e2 42 be 6b b6 93 be
       0.23915315 -0.039944697 -0.19031617 -0.2885011
000040 3b 47 aa 3d 91 7d 1d be 0a f9 04 be 6f 78 6e be
       0.083143674 -0.15379931 -0.12985626 -0.2328813
000050 a1 a1 89 be 09 0c 99 3e 85 31 3e 3e db 79 ab be
       -0.26881126 0.29891995 0.18573578 -0.33491406
000060 49 8b 37 3d f1 8a 9c 3d 1e 2f 94 be c6 a4 ba bd
       0.044810567 0.076436885 -0.28942198 -0.09113459
000070 27 9c 42 be ae 53 56 3d 90 7b 93 be 0a 27 90 be
       -0.1900488 0.052325897 -0.28805208 -0.28154784
000080 ab 8c 66 be c0 83 ea 3c 13 9d 5a 3e c8 18 27 be
       -0.22514598 0.028627276 0.21348982 -0.16318047
000090 64 21 6f bd 14 b5 20 be 2e 56 0c 3e e5 34 2f 3c
       -0.058381453 -0.15694076 0.1370475 0.010693763
0000a0 95 ca d4 3d 5e 66 22 be e0 f1 2f 3e b0 db 6a bd
       0.10390202 -0.15859362 0.17182112 -0.057338417
0000b0 b7 18 8c 3d 75 12 0d bd 30 a9 22 be 9d b1 46 3d
       0.068406515 -0.03444143 -0.15884852 0.04850923
0000c0 f1 d4 fd 3c 3e f3 6d 3e ab 09 4e 3e ac 8b 2e 3d
       0.030985327 0.23237321 0.20120876 0.04261367
0000d0 2a 3c 20 3d 40 43 73 be 29 77 aa 3e 64 b6 9a 3e
       0.039119877 -0.23756123 0.33294037 0.30217278
0000e0 6f 8b 42 3e 1b 2f db bd ad 00 32 3e e3 be 4f 3e
       0.18998502 -0.10702344 0.1738307 0.20287661
0000f0 c7 2d f3 3d 24 74 c7 bc 84 ce 06 be fb c4 3c 3e
       0.11873966 -0.024347372 -0.13164717 0.18434517
000100 fe 24 f2 bc 6c 80 27 be 80 36 52 bd 28 16 34 be
       -0.029558655 -0.16357583 -0.051321507 -0.17586577
000110 73 ba aa 3d db df 00 3e d5 8d 28 be 40 13 56 bd
       0.083363436 0.12585394 -0.16460355 -0.052264452
000120 d2 76 79 be 79 0d 48 3d 40 2f b2 bd 83 fa 09 3d
       -0.24361733 0.048840974 -0.087004185 0.033686172
000130 d8 9b 1c be ac ea 6e be 6c 05 d9 bd 59 79 2d 3e
       -0.15293825 -0.23331708 -0.10596737 0.16940822
000140 d0 a0 d9 3d f9 b3 1d 3d ed 42 dc bd 91 6e 8f be
       0.10626376 0.038501713 -0.107549526 -0.28014043
000150 bd 2e 49 bd 67 0a 2c 3d 9f 2e be bd d3 22 9f 3d
       -0.04911684 0.042002108 -0.09286236 0.07770314
000160 7f 37 9f 3d 5d 02 ed bd 36 44 60 be 24 d4 1e 3e
       0.07774257 -0.115727164 -0.2190102 0.15510613
000170 4c 09 bb bd a4 72 0f be 8d dd 3a 3e aa cd 9c bc
       -0.091326326 -0.14008576 0.18248577 -0.019141037
000180 26 b5 99 bd 92 eb fe 3c e0 10 f1 3d 41 e5 17 3e
       -0.075052544 0.031118188 0.11770797 0.14833547
000190 e2 86 d0 bd 4a 54 0a 3e e9 0b 10 be b0 36 bc 3d
       -0.10181977 0.13508716 -0.14067043 0.09190118
0001a0 b4 4b 8d bd 6c e6 48 3d 4c f4 05 be 84 48 68 3b
       -0.06899205 0.049047872 -0.13081473 0.0035443613
0001b0 cf 44 c4 3d f1 b6 24 3e 4f 67 d3 3c 9c d3 3b be
       0.09583437 0.16085412 0.025806097 -0.18342441
0001c0 08 86 dc bc 8e f3 3e be 88 f8 43 3e 76 6f db bc
       -0.02691938 -0.18647596 0.19137776 -0.026786547
0001d0 fb 40 44 3c 4d 60 0f 3e 80 75 9e bd 0f d7 15 3d
       0.011978383 0.1400158 -0.07737255 0.03658205
0001e0 6c 0a 46 be 47 a6 fc bd 59 87 87 3d 27 82 61 3e
       -0.19339913 -0.123364024 0.066176124 0.22022305
0001f0 de 07 b6 3c 2c 43 59 be b7 38 ac 3d 87 b7 6a 3c
       0.022220548 -0.2121703 0.08409255 0.014325983
000200 c7 a1 3a 3e 62 b0 78 3e 18 78 04 be 49 84 2c be
       0.18225776 0.24286035 -0.12936437 -0.16847338
000210 f6 7b 46 3b d4 74 0b bc a1 d2 d7 bd fb 68 44 be
       0.0030286289 -0.008511741 -0.10538221 -0.19180672
000220 00 69 9f 3d e1 05 ba bd 71 4e 26 3d f5 4e 3b 3e
       0.07783699 -0.090831526 0.04060215 0.18291838
000230 57 93 9c bd 7b bd 9a 3e a4 12 03 3e a2 f9 92 be
       -0.0764529 0.30222687 0.1280008 -0.2870608
000240 9a e7 31 be af 45 51 bc 27 a5 61 bc e3 7d c1 3c
       -0.17373505 -0.0127729615 -0.013772286 0.023619598
000250 90 54 b5 3b 60 cd 22 be bb 7e d2 bb 11 16 bb bd
       0.0055337623 -0.15898657 -0.006423799 -0.09135068
000260 7d 29 43 be eb 2d 8c bc 2f b9 68 be 88 69 16 bd
       -0.19058795 -0.01711174 -0.22726892 -0.036721736
000270 10 75 a7 3d bb 17 87 3d 0c b5 5b be e1 32 63 3a
       0.08176625 0.06596323 -0.21455783 0.00086669443
000280 9f c9 4a 3d c2 c2 e0 3d 6f 6f cc bd 45 a4 b9 3d
       0.049508687 0.10974647 -0.09982192 0.09064535
000290 79 18 59 ba 1f 34 08 3d 97 1b d3 3d 04 49 26 3d
       -0.000828154 0.03325283 0.10307997 0.040596977
0002a0 83 62 49 be 95 96 12 be 00 a9 06 be a0 87 cc bd
       -0.19666485 -0.14315255 -0.13150406 -0.09986806
0002b0 e7 f4 50 be 22 21 8b be 15 51 f5 3d f3 c0 ce 3d
       -0.20405923 -0.27173716 0.11978356 0.10095396
0002c0 ad 60 8b be 24 05 44 be 5a e9 1f be b3 de 43 3e
       -0.27222195 -0.19142586 -0.1561636 0.19127922
0002d0 35 cb 57 be 0d 33 00 3e bf d9 14 be c7 7c d2 3d
       -0.21073611 0.12519474 -0.14536189 0.10277706
0002e0 29 4f 7c bc 03 93 c4 bd dc 15 0b be 09 89 af be
       -0.015399733 -0.09598353 -0.13582557 -0.34284237
0002f0 41 46 fe bd b6 76 82 bd 83 f9 33 be d1 ee b7 bd
       -0.124157436 -0.063702986 -0.1757565 -0.089810975
000300 59 64 07 be b4 a4 14 3e 5b 0e 7a 3c 26 fa 2e 3e
       -0.13221873 0.14515954 0.015262212 0.17087612
000310 f3 52 4f be 37 7f 0a 3e b2 84 8b bc 49 2c 68 bd
       -0.20246486 0.13525091 -0.017031047 -0.05668286
000320 6c 82 b1 bd b4 76 e7 3d 01 79 2b bd 4b 29 1e bd
       -0.08667454 0.11301938 -0.041863445 -0.0386136
000330 db e4 b2 3d 42 c5 53 be ea ad c6 bd 62 53 47 3e
       0.08735057 -0.20680717 -0.0970114 0.19465402
000340 79 1c 64 3d ef 34 f6 3d d8 7f 11 be 04 09 0d be
       0.055691216 0.12021815 -0.14208925 -0.1377297
000350 ec 24 d6 3d 0d 0f 5f be ed e6 4f be 51 e0 13 3d
       0.10456261 -0.21783085 -0.20302935 0.036102597
000360 93 fd 2e bd 5e e6 15 be 28 0c 93 be 3a 16 79 3d
       -0.042722296 -0.1463866 -0.28720212 0.060812213
000370 02 3a d0 3d 8f 9f b5 bd 90 58 1e 3e ac 70 0e 3e
       0.10167314 -0.08868324 0.15463471 0.13910168
000380 d2 60 e8 3d bc b5 39 be 85 16 88 3e 80 b9 b7 bc
       0.11346592 -0.18135732 0.2657968 -0.02242732
000390 5e d5 0f be b3 01 b3 bd 78 ad 83 be 60 9f 29 3e
       -0.14046237 -0.087405585 -0.25718284 0.16564703
0003a0 6c 1c 22 be d6 3d b1 bd 4e a6 72 3b c9 2a a6 3d
       -0.15831155 -0.086543724 0.0037025395 0.08113629
0003b0 cd f1 e3 bd 4e ef 54 3e 93 26 e9 3d d2 d0 d0 bc
       -0.11130104 0.20794412 0.113843106 -0.025490198
0003c0 8e d9 98 bd b6 c0 19 3d 5a dc 20 be 44 a5 26 be
       -0.0746337 0.0375373 -0.15709057 -0.16273981
0003d0 36 c8 83 3e cd db 6a 3e ef 4c 93 3d ce 23 ae bd
       0.25738686 0.2293541 0.07192408 -0.08502923
0003e0 7a 81 1e 3c 3c e9 bb bc b4 e7 19 3e 5e 0d 4b 3e
       0.009674424 -0.022938363 0.15029794 0.19829318
0003f0 1c ae 79 3e 09 ab 01 3e 31 51 a8 bd 8d a7 d9 3c
       0.24382824 0.12662901 -0.08218611 0.026569152

main.4.bias f4 [2048]
000000 61 30 26 bc 30 07 0a 3e a6 82 df bd 14 d5 35 3e
       -0.01014337 0.13479304 -0.10913591 0.17757064
000010 56 78 7d 3e 8f 31 11 3e 5d 82 da bd a8 23 91 bd
       0.24752936 0.14179061 -0.10669396 -0.07086879
000020 81 5b 9b bd 5b cd 61 3e d9 42 f9 3c 66 ca 68 3e
       -0.07585812 0.22050993 0.030427383 0.22733459
000030 bd 85 e0 bd fc 10 34 3e f4 5f 93 3e 78 c7 95 3e
       -0.109630086 0.17584604 0.28784144 0.29253745
000040 ae bd 63 3d db a3 74 3e c0 b3 a6 3e 97 bd 20 3d
       0.055600815 0.23890631 0.32559013 0.039243307
000050 7f 9d a2 3e 5e 0c 9e 3e 39 d9 83 3d 38 f7 8c 3e
       0.31760785 0.3086881 0.06437916 0.27532363
000060 c4 4a 56 3e b9 fd c1 3d 2b 11 3e 3d 65 a8 0f 3d
       0.20926958 0.09472222 0.04640309 0.035072703
000070 2e 5c 89 bd 33 16 a5 3e 74 de a7 3e 93 63 76 3e
       -0.06707035 0.322435 0.32786906 0.24061422
000080 ad 51 96 bd ef 5c cf bd 74 29 6f 3e 20 d4 be bd
       -0.07339797 -0.101251476 0.23355657 -0.093178034
000090 6d fb 5b bd 28 bc cc 3c a1 cb 0a 3e c9 c3 88 3e
       -0.053706575 0.024992064 0.13554241 0.26711872
0000a0 0a e1 b2 3d 9a 19 8f 3e 49 4a 28 3e b6 aa 18 3e
       0.08734329 0.2794922 0.16434588 0.14908871
0000b0 c8 e4 33 3d 8e 73 f3 3c 46 41 e1 bd d4 3a ce 3c
       0.043919355 0.029718187 -0.10998778 0.025174536
0000c0 d6 da 8f 3d 06 0f 81 bd b7 45 19 3e e4 41 a3 3e
       0.070241615 -0.063016936 0.14968 0.31886208
0000d0 94 6f 6f 3e e5 11 c5 3d 9f e9 95 bc 42 80 67 3e
       0.23382407 0.09622554 -0.018299876 0.2260752
0000e0 ef 5a 6a bc 54 e9 60 3c ad 81 32 3e 72 9b d8 bc
       -0.014303907 0.013727505 0.1743228 -0.02644131
0000f0 47 51 6d 3e 8c 06 53 3e 52 94 ab bc 4c 2c 87 bc
       0.23175536 0.20607966 -0.020944748 -0.016500615
000100 c3 f1 35 3e 8c ca 48 3d 21 39 3b 3e 96 07 ef bc
       0.17768006 0.04902129 0.18283512 -0.029178422
000110 1c 1b f0 bc dc 24 07 3e 70 b4 b5 3d d3 d2 2e bd
       -0.029309802 0.13197654 0.08872306 -0.042681526
000120 e8 05 7f bd ca 9c df 3d 03 89 79 3d ea ed 36 bd
       -0.062261492 0.10918577 0.06092168 -0.044660486
000130 67 43 0c 3e 53 96 3b 3e c7 90 68 3e 40 63 37 3e
       0.13697587 0.18319063 0.22711478 0.17908955
000140 e9 65 6b 3e dc 0d 39 3e 25 c4 20 bd ca e7 19 3d
       0.22988094 0.18071693 -0.039249558 0.037574567
000150 15 63 4b 3d 07 75 00 3e 31 c8 e6 bd 4f a5 62 3e
       0.04965504 0.12544642 -0.11268652 0.22133373
000160 10 3e 8a 3e 85 bd 16 bd 1c 49 02 3d 7f c8 1f 3e
       0.27000475 -0.036801834 0.031808004 0.15603827
000170 62 ae 0a bd b9 68 5a 3e f7 d7 0c 3e a6 ea 4d 3e
       -0.03385771 0.21329011 0.13754259 0.20109043
000180 c4 3f 37 3e 30 d8 cc bd d0 a8 f5 3d d5 23 c8 bd
       0.17895418 -0.10002172 0.11995089 -0.097724594
000190 dc af 08 3e a6 fb 80 bb e4 b7 77 bd b1 e1 0b 3e
       0.13348335 -0.003936249 -0.060478106 0.13660313
0001a0 39 5f d5 3d f9 2d 32 3d a6 86 b4 3d 88 df 3a bd
       0.10418553 0.043500874 0.08814745 -0.045623332
0001b0 37 b1 79 bd f6 e7 f7 3d 03 12 0f be 96 be 14 3e
       -0.06096002 0.1210479 -0.13971715 0.14525828
0001c0 3f 72 82 3e b4 05 60 3e fe 94 8f 3d 0b 04 50 3e
       0.25477788 0.21877176 0.0701084 0.20314042
0001d0 b9 26 f0 bc e4 b3 05 be b3 d3 71 bd e7 0b 96 3e
       -0.02931534 -0.13056904 -0.059039783 0.29305956
0001e0 5e 99 9f 3c 7c 48 2c bc 38 54 40 3e 55 7b 39 3e
       0.01948231 -0.0105153285 0.18782127 0.18113454
0001f0 f7 f1 59 3e 99 3a de 3d 85 ab 3a be 5c 1b 87 bd
       0.21283709 0.1085102 -0.18229492 -0.06597015
000200 7d 5b 32 bd 0e b2 8e 3e 06 20 dd 3d 20 33 b1 bd
       -0.04354428 0.2787022 0.107971236 -0.086523294
000210 ca 8f 2a 3c db f7 01 be 95 b8 69 3d 9a 0e c1 3d
       0.010410259 -0.12692206 0.057060797 0.09426613
000220 15 b6 33 3e 0e 6d 8b 3a 9f 77 47 3e 61 69 85 bd
       0.17549928 0.0010637359 0.19479226 -0.0651424
000230 90 a5 c4 bc 5b 00 3f 3e 94 39 15 3d 23 2a 18 3e
       -0.024004728 0.1865248 0.036431864 0.14859824
000240 95 7f 15 be 79 36 b4 bd a8 83 13 bc d9 f5 24 3d
       -0.1459945 -0.08799452 -0.009003557 0.04027352
000250 52 5d 61 bd cb 18 1c be 58 cc 43 3e 7c f7 0d 3e
       -0.055020638 -0.15243833 0.1912092 0.13863939
000260 32 af a2 bd d3 62 63 3d 09 34 67 bd bc 1a ca bd
       -0.07943572 0.055514168 -0.05644611 -0.098683804
000270 e7 24 15 3e 6a 2e cf 3d bd d2 80 3e 4b 4f 49 3e
       0.14564858 0.10116275 0.2516078 0.19659154
000280 6f 10 3b 3e ad 0e bd bd 43 82 eb bd f6 0f 18 3e
       0.18267988 -0.09231315 -0.11499455 0.14849839
000290 41 01 d9 bb 8d 9d 0c be 40 07 8a 3d 54 96 07 be
       -0.006622464 -0.13731976 0.06739664 -0.1324094
0002a0 67 92 ec bd ed d8 cf bc 84 b1 4d 3e ad 7d b6 bd
       -0.115513615 -0.025371993 0.20087248 -0.089106895
0002b0 cf 88 5a 3d f9 4f 83 3e 61 8d c4 3c bd e6 3f 3d
       0.053353127 0.25646952 0.023993196 0.04685091
0002c0 6b 52 4f 3d 6b b2 24 be 1d d7 09 3e 39 4e cf bd
       0.05061571 -0.16083686 0.13460965 -0.10122342
0002d0 19 04 54 bd 3f 55 3b 3e 3d 13 c0 bd bf 0c 23 bc
       -0.05176172 0.18294238 -0.093786694 -0.009951769
0002e0 86 c9 2c 3e a9 f1 3f 3e 83 6d 2f be d5 9b 17 3c
       0.1687375 0.1874453 -0.17131619 0.009253462
0002f0 d2 15 72 3e 6e a4 03 be ae 67 53 bd 6e fe 16 3e
       0.23641136 -0.12855694 -0.05161255 0.14745495
000300 55 51 21 3d 3e 68 20 3e 00 b5 2b be 56 0d f1 bc
       0.039384205 0.15664765 -0.16768265 -0.029425304
000310 f0 14 df 3d c9 11 31 3e e6 4d 42 be 22 55 15 3d
       0.108926654 0.17291941 -0.18975028 0.036458142
000320 c2 f6 8a 3d 85 8c fe 3d 8b 1a 90 bd 7a 3f d7 bc
       0.067853466 0.12429146 -0.07036313 -0.026275385
000330 59 5a fb bd da 0a 9e bd 3e 2b 9c 3c 82 26 52 3e
       -0.12273092 -0.077169135 0.019063588 0.20522502
000340 db 3e 9c bd c1 52 56 bd e7 05 32 3e 18 ad 75 bc
       -0.07629176 -0.052325014 0.17385064 -0.014994882
000350 09 39 fc 3d 8b c0 3a 3e a2 6e 9d bd ff 39 11 3d
       0.12315566 0.18237512 -0.07687117 0.0354557
000360 bc 7b ef 3c 9b d4 7e 3d d3 27 6a bc 51 47 1c 3d
       0.029233806 0.062214475 -0.014291721 0.03815395
000370 99 70 32 3d 40 94 a2 bd f0 31 1e be 78 d3 1b 3c
       0.043564413 -0.07938433 -0.15448737 0.009510867
000380 9e 77 91 3d a4 89 44 be e7 22 e3 bb 84 24 18 bc
       0.07102893 -0.1919313 -0.006931651 -0.00928605
000390 bd df 5b bd 45 e8 82 3d fe 14 62 3e a1 1d bf bd
       -0.05368017 0.06391958 0.2207832 -0.09331823
0003a0 4b c4 0a 3c 27 a1 e4 bc d8 08 9a bd 22 35 02 3e
       0.008469651 -0.027908875 -0.07521218 0.12715581
0003b0 71 f3 12 3d f5 d6 6f 3c 25 b0 80 3e 33 01 85 3d
       0.035876695 0.014638652 0.25134388 0.06494369
0003c0 f8 4b 0a bd e5 6e 24 3d d1 fd 4c bc ef 12 02 be
       -0.033763856 0.04014482 -0.012511686 -0.12702535
0003d0 6b 9a d7 bd 65 d2 b7 3d 22 ac 3a 3e e1 91 17 be
       -0.105275 0.089756764 0.18229726 -0.14801742
0003e0 dc 91 2a 3d 7a 08 8c 3c 9b 87 2d 3e 22 c2 de bd
       0.04164301 0.017093886 0.1694626 -0.10876872
0003f0 26 9c 60 bd 18 e1 92 3e 0c b5 d7 3d 1f d5 87 be
       -0.054836415 0.28687358 0.10532579 -0.26529786

conv.0.weight f4 [20, 1, 5, 5]
000000 1e 86 c2 3d 39 0d 14 3e 5b 76 37 3e f1 b4 88 bc
       0.09498237 0.14458169 0.17916243 -0.016687842
000010 2e c2 a0 3d 7f df 5a bd 0c 07 b7 3b da ea 8d bd
       0.07849537 -0.0534358 0.005585557 -0.0692956
000020 02 37 61 bd 45 8b ef 3d 88 9a cc 3c ff 00 96 bc
       -0.0549841 0.116964854 0.02497603 -0.018311022
000030 2c 23 d9 bd 5b b9 1f 3e c3 33 3c be 85 88 4e be
       -0.10602412 0.15598051 -0.1837912 -0.20169266
000040 40 dc 2b 3e e7 bc 08 3e 88 62 43 be c8 74 11 3c
       0.16783237 0.1335331 -0.19080555 0.0088779405
000050 33 d1 37 be 7b 90 58 bd e6 bd 19 3e 2a 58 f2 3d
       -0.17950897 -0.052872162 0.15013847 0.11833222
000060 9a 0e 15 3e 7a 53 5b 3d e8 83 18 be 50 6d 8e bb
       0.14556351 0.053546406 -0.14894068 -0.004346527
000070 2d 1c b1 3d d7 ad 15 3e 77 fa c3 bd 3d 48 3d be
       0.08647952 0.14617096 -0.09569257 -0.18484588
000080 ed 2f f0 bd 2b b1 f2 3d 2c e7 a4 bd b7 05 b9 bd
       -0.11727891 0.11850198 -0.08051905 -0.09034293
000090 9c b1 aa 3b 32 cc f9 bc de e1 bf bd c5 01 72 3e
       0.005209161 -0.030492876 -0.093692526 0.23633488
0000a0 8c f7 c6 bd b3 06 77 bd 7a 4b 93 bd aa 7b 13 3d
       -0.097151846 -0.060309123 -0.071921304 0.036006607
0000b0 bf fe 2c bd e6 f9 27 3d f1 48 7b be d1 e9 28 bd
       -0.042235132 0.041009806 -0.24539544 -0.04123861
0000c0 b1 aa 56 3e be 32 84 3e 60 85 07 be 71 03 44 be
       0.20963551 0.25819963 -0.13234472 -0.19141938
0000d0 36 83 49 bd 96 03 c2 3c ea 57 1d 3d fc 48 59 be
       -0.049197398 0.02368335 0.03841392 -0.21219248
0000e0 37 4d c6 bd 83 70 01 3c 33 6f f9 3d 7b 03 54 3d
       -0.09682696 0.00790036 0.12179413 0.05176113
0000f0 02 7d 2c be 52 51 4a be b1 3c a2 bd 52 53 92 3d
       -0.16844562 -0.19757584 -0.07921732 0.07144798
000100 f0 c3 74 bd 27 72 a7 bd 25 47 7b 3c dc 02 cd bd
       -0.059757173 -0.0817607 0.015336786 -0.10010311
000110 81 45 eb 3d 0f e3 95 bd 5a cb 07 be 08 2f ff bd
       0.11487866 -0.073186986 -0.13261166 -0.124601424
000120 3c 8e 09 be 45 13 f5 3c 60 f6 c0 3d 4f 78 22 bc
       -0.13433164 0.029916415 0.09421992 -0.009916379
000130 67 a9 30 3d 24 4e 3a be 95 04 b3 3d df 5e eb 3d
       0.043130305 -0.18193871 0.08741108 0.114927046
000140 dc d9 3e be b1 c3 41 ba fc be e8 3d 11 36 db 3d
       -0.18637794 -0.0007391526 0.113645524 0.10703672
000150 69 df bf 3d 58 ce 72 be e7 d7 e5 3d 5b c3 84 bb
       0.09368784 -0.23711526 0.11222821 -0.0040516085
000160 9a b7 67 bd 82 81 de 3d 9e 0e 22 3e aa 6d 14 3d
       -0.05657158 0.108645454 0.15825889 0.036237396
000170 3f 4b 58 be b5 76 11 be 3e b5 57 be 57 91 31 be
       -0.21122454 -0.1420544 -0.21065232 -0.17340599
000180 0e 13 49 be be b9 0e be 91 0e 8f be b6 8d 2a be
       -0.19636175 -0.13938043 -0.279408 -0.16655621
000190 79 e3 98 bd 4d 7a 8c 3c b9 41 29 be a1 dc b0 bd
       -0.07465262 0.017148161 -0.16528977 -0.086358316
0001a0 f4 73 3f 3c df 63 64 3d e8 8c 9e bd a3 70 19 3d
       0.01168536 0.055759307 -0.077417195 0.037460934
0001b0 34 2a 94 3d 4c 3a 95 3d 01 27 37 be b9 b6 0b bd
       0.07234612 0.0728651 -0.17885973 -0.034109805
0001c0 38 a8 0b be c7 42 08 3e a0 e0 b5 bd 60 bf 3a be
       -0.13638389 0.13306724 -0.088807344 -0.18237066
0001d0 60 5a 28 be 41 e9 ad 3d c8 f1 52 bd a9 6b 3f bc
       -0.16440725 0.08491755 -0.05150011 -0.011683383
0001e0 c7 57 a9 be 14 6a ad be a3 e3 74 be d8 eb 8a be
       -0.3307478 -0.33869994 -0.23914962 -0.2713306
0001f0 6d 6b 96 3c ae cb e9 3d 69 8d 1c 3d ce 43 cd bd
       0.018361771 0.11415802 0.038220797 -0.10022698
000200 2a 61 ee 3d 2d 80 a5 bd 5e c0 e7 bc 95 da 87 be
       0.11639626 -0.08081088 -0.02828997 -0.26533952
000210 93 87 cb bd ae 44 5c 3d 0d 9f 1d be f5 0f a2 be
       -0.09937968 0.053776436 -0.15392704 -0.316528
000220 1e 2c aa 3d 08 af e0 3d 78 cd 3a be 38 92 02 be
       0.08309196 0.109708846 -0.18242443 -0.1275109
000230 7c d0 59 3d 02 f4 33 be 1d 27 3c 3c a9 92 6b 3d
       0.05317734 -0.1757355 0.011483935 0.057512913
000240 31 68 50 3e 5c e2 bd bd 7f 0c c1 be 46 8f f1 bd
       0.20352246 -0.0927169 -0.37704846 -0.11794905
000250 4e e4 ec 3d d8 00 53 3d 6f a6 2d bd 0e 0e 97 3d
       0.11566983 0.051514477 -0.04239505 0.073757276
000260 86 7b 5e 3d f0 04 5f bd d2 b8 d2 3c b9 a2 9d bd
       0.05431702 -0.05444807 0.025722895 -0.076970525
000270 b2 95 12 3e 0e 9e 20 3e fc fc 06 bd 13 c8 c6 3d
       0.14314917 0.15685293 -0.03295611 0.0970613
000280 a9 f9 f3 3d 85 d8 cc 3d d6 b1 8b bd 7c b1 11 3e
       0.11912853 0.10002235 -0.06821029 0.14227861
000290 2e 6a 61 3d c2 82 c4 bd 5b de 90 be ff 4f 6b be
       0.0550329 -0.095952526 -0.28294644 -0.22979735
0002a0 8b 80 96 be f0 a6 8b be 27 63 14 be b7 ec 0f be
       -0.29394946 -0.272758 -0.14490949 -0.14055143
0002b0 30 0d 40 be 1e c7 77 3d 2c d2 81 be 97 38 a6 bb
       -0.1875503 0.060492627 -0.2535566 -0.005072664
0002c0 44 6b 42 bd 6f 1b 2c 3d 96 2c 0c 3e 4d 60 86 bc
       -0.047465578 0.04201835 0.13688883 -0.016403342
0002d0 d8 fe 62 be c5 8c e5 3c d7 12 0f bd d6 bf 85 bd
       -0.22167528 0.028021226 -0.034930076 -0.065307304
0002e0 9a 96 0c bd 54 b4 8e bd 6e 2d a5 3d 06 a3 ea 3d
       -0.034323312 -0.069679886 0.08065306 0.114568755
0002f0 ca 1c c1 3d 9b 11 5e 3c 43 44 ae bc 01 ed 8f 3d
       0.09429319 0.013554002 -0.021272784 0.07027627
000300 ba aa 9a 3d f0 e3 35 be e6 6b 19 bc 88 fb 81 3d
       0.07552095 -0.17762733 -0.009364104 0.06346804
000310 a4 39 4c 3e 75 fa c6 3d f7 52 88 bd 37 91 79 3e
       0.19943863 0.0971574 -0.06656449 0.24371801
000320 2a fe 24 be 03 45 81 bd 92 5d 3b be 63 e5 13 be
       -0.16112581 -0.06311991 -0.18297413 -0.14442973
000330 64 4f 87 bd fe 64 5f 3e 82 cd 72 3d b4 50 11 bc
       -0.066069394 0.21815869 0.05927802 -0.008869339
000340 e1 c1 0b 3d 41 bb b6 3d e8 de 44 3e 07 0c 7d 3e
       0.034120444 0.089224346 0.19225657 0.2471162
000350 e2 56 2f 3e c8 39 59 bd 98 f9 08 be 8a 10 cb 3d
       0.17122987 -0.05303362 -0.13376462 0.09915264
000360 c9 44 36 be 0d 2b 88 3d ea 87 24 be c6 06 32 bd
       -0.17799677 0.06648836 -0.16067472 -0.04346349
000370 00 95 e0 3d 58 19 cb 3d 0f 11 93 bd ca 66 ad 3d
       0.109659195 0.09916943 -0.07180988 0.08466871
000380 74 8f ee bd a8 6f e2 3c 29 ee 83 bd e7 d4 38 bd
       -0.11648455 0.027641132 -0.0644191 -0.045124914
000390 cd 0a e9 bd 7f a0 21 be dc 5c c4 3d df d1 ec 3c
       -0.11379013 -0.1578388 0.09588024 0.028908668
0003a0 06 9a b3 3d 71 24 6a 3b 34 80 9d 3d da ee 89 3d
       0.08769612 0.0035727287 0.076904684 0.067350104
0003b0 cc 64 e8 3d 49 f3 b8 3b 26 7c 87 3d c6 7f 08 3e
       0.113473505 0.005644236 0.06615476 0.13329992
0003c0 5b fe 2d be 66 65 ea bd 98 bc 0e be 31 b3 42 be
       -0.1699156 -0.114451215 -0.1393913 -0.19013669
0003d0 ca 8e 3a be a4 85 8a bb fb 95 a6 bd 6d 5d 65 bd
       -0.18218532 -0.004227357 -0.08134075 -0.0559973
0003e0 a4 a2 a4 bd f5 b6 c7 bc 9b dc 40 3d 86 54 4d be
       -0.08038834 -0.024379233 0.047085386 -0.20051774
0003f0 2b 25 04 be 1a d9 22 3e 22 3b dc 3d 61 c2 91 bd
       -0.12904803 0.1590313 0.10753466 -0.07117153

conv.0.bias f4 [20]
000000 91 04 b7 ba a6 e2 96 3c f8 3b 3b be ac 87 2f 3e
       -0.0013963153 0.018418621 -0.18284595 0.17141598
000010 bf b7 5d 3d 3f 14 68 bd 70 cc 69 be ab a9 2f 3e
       0.054130312 -0.056659933 -0.22831893 0.17154567
000020 7a 95 d3 bc a4 14 01 be 37 86 46 be f2 d5 85 3e
       -0.025828112 -0.1260553 -0.19387136 0.2613979
000030 25 20 f3 3d 51 ff e3 bd 1c 61 29 bd 07 62 1a bd
       0.118713655 -0.11132682 -0.041352376 -0.037691142
000040 1f 6a d2 bd b4 b4 11 be e5 44 c1 3d 1c b7 16 3e
       -0.10274147 -0.14229089 0.09436969 0.14718288

conv.2.weight f4 [20]
000000 8e a4 6f 3f 69 97 8b 3f f9 f9 89 3f a6 45 af 3f
       0.93610466 1.0905582 1.0779411 1.369313
000010 3e b0 9f 3f a5 47 89 3f 9c ac 93 3f 95 c0 87 3f
       1.247566 1.0724989 1.1537051 1.0605646
000020 7c ed 84 3f 1a 25 91 3f 83 c8 92 3f 8e f2 88 3f
       1.0384974 1.1339447 1.1467441 1.0699022
000030 12 f4 88 3f b8 c9 9c 3f 76 ea 8d 3f 27 ce 98 3f
       1.0699484 1.224906 1.1087177 1.1937913
000040 30 68 8b 3f 3e c8 8b 3f ef 6c 93 3f 2f c6 8e 3f
       1.089117 1.0920484 1.1517619 1.1154231

conv.2.bias f4 [20]
000000 e6 89 18 3e 91 4a 27 be 94 86 1e be 64 0f 34 3e
       0.14896354 -0.16337039 -0.15481025 0.17583996
000010 93 fa 31 3e 6f 9b 22 3e a2 06 22 be 52 d6 16 be
       0.17380743 0.15879606 -0.15822843 -0.14730194
000020 e4 f2 10 be 21 b2 01 be ee 10 35 3e 38 bb 32 3e
       -0.14155155 -0.12665607 0.1768224 0.17454231
000030 f5 9b 25 be 98 0e 5a be 61 94 1b be ed 75 26 3e
       -0.16172774 -0.2129463 -0.15193321 0.16255923
000040 04 fa 22 be 37 6b 0d be ba 90 1c be af 72 22 be
       -0.15915686 -0.1381043 -0.15289584 -0.15864061

conv.2.running_mean f4 [20]
000000 92 8e b3 3d 4f fa 4a 3d c8 71 93 bd 8b 5f 8d 3d
       0.087674275 0.04955512 -0.071994364 0.06902989
000010 dd 24 05 bd 47 00 02 bd 01 9e 95 bd 3d 05 79 3e
       -0.03250586 -0.031738546 -0.073055275 0.24318404
000020 94 6a 78 3d f8 4b 20 bd 4c e0 40 bd e7 51 7f 3e
       0.060648516 -0.03913495 -0.047088906 0.24933587
000030 6e c0 07 bd 69 87 01 3e 91 92 6f 3d 41 58 b5 3c
       -0.0331425 0.12649311 0.058489386 0.02213681
000040 3c f9 bd 3c c8 87 66 bd 14 46 1c bd fe 3f f1 3d
       0.023190133 -0.056281835 -0.03815277 0.11779784

conv.2.running_var f4 [20]
000000 a9 49 a9 3c c4 44 88 3c 06 82 be 3a 29 02 92 3c
       0.020665007 0.016634353 0.00145346 0.017823296
000010 91 7f a2 3b c0 ee cd 3b c7 57 79 3b c8 41 c2 3c
       0.0049590548 0.0062845647 0.0038046704 0.023713008
000020 c9 c9 9f 3c 6f 61 11 3b b5 57 3a 3b d9 ea ec 3c
       0.019505398 0.002218332 0.0028433625 0.028920578
000030 9d c1 24 3b e7 ff 03 3d d2 bd a0 3c 82 59 88 3c
       0.0025139817 0.03222647 0.019621763 0.016644243
000040 af 28 56 3c f5 82 11 3b 57 e3 47 3b 0b 13 a9 3c
       0.013071223 0.00222033 0.0030500495 0.020638963

conv.3.weight f4 [1, 20, 5, 5]
000000 f3 2a 36 be 3f 0e 40 be e1 3a 63 be be 3d e9 bd
       -0.17789821 -0.18755434 -0.2219043 -0.113887295
000010 cf da 1a be 44 71 17 be f4 92 06 be e3 cc 06 be
       -0.15122531 -0.14789301 -0.13141996 -0.13164096
000020 fb bc 15 be ae 78 3d be d8 a6 1b be 5f 57 1a be
       -0.14622872 -0.18503067 -0.15200365 -0.15072392
000030 2b 5c ca bd 9e 65 e4 bd b7 2d bc bd 6b 30 0e be
       -0.09880861 -0.111521944 -0.09188407 -0.13885657
000040 75 34 09 be d0 ec 30 be 7a c3 07 be 3c ac 04 be
       -0.13398917 -0.17277837 -0.13258162 -0.12956327
000050 6b 42 18 be e6 8b f0 bd e5 64 52 be cc ac 1b be
       -0.14869086 -0.117454335 -0.205463 -0.15202636
000060 1e 6c 08 be 51 4c 1b 3e 2b 26 1f 3e b6 fd 88 3d
       -0.13322493 0.15165831 0.15541904 0.066890165
000070 78 ee ef 3d 7a 1f cb 3d 8d bf 29 3e b2 bc eb 3d
       0.11715406 0.09918113 0.16576977 0.115106
000080 60 be 0a 3e 0b 98 23 3e 7e d8 0a 3e 18 a6 11 3e
       0.13549185 0.15975969 0.13559148 0.14223516
000090 3a 66 2a 3e 9d 79 12 3e 11 3e c8 3d 60 97 19 3e
       0.16640559 0.14304204 0.09777463 0.14999151
0000a0 05 6b ed 3d 6e 26 1d 3e 60 af 31 3e 56 ed 0c 3e
       0.11592678 0.15346691 0.17352057 0.13762411
0000b0 92 c1 17 3e 26 cb 10 3e 60 48 27 3e 5b 70 0b 3e
       0.14819935 0.14139995 0.16336203 0.13617079
0000c0 4d 09 23 3e a8 65 ec 3d 0a a4 d4 3d 46 17 22 3e
       0.15921517 0.11542827 0.103828505 0.1582919
0000d0 b7 ff ed 3d 18 1d 03 3e e6 ad d4 3d 85 7d ec 3d
       0.11621039 0.12804067 0.10384731 0.115473785
0000e0 80 80 1c 3e 09 11 d9 3d 65 52 1b 3e ae 4d 21 3e
       0.15283394 0.10598952 0.1516815 0.15752289
0000f0 0d 21 f2 3d 6c 11 31 3e 5d 4b cc 3d 34 34 d1 3d
       0.1182271 0.17291802 0.09975312 0.10215035
000100 b2 bd 19 3e 36 a0 17 3e 1e 27 15 3e 6b 61 94 3d
       0.1501377 0.1480721 0.14565703 0.072451435
000110 6c 8d d6 3d ee 2b 11 3e 0b dc 23 3e 10 55 ea 3d
       0.10476193 0.14176914 0.16001908 0.11442006
000120 f7 e1 10 3e 6b 95 b8 3d 58 f2 20 3e 79 37 23 be
       0.14148699 0.09012874 0.15717447 -0.1593913
000130 5e fa c6 bd 73 74 dc bd 47 98 9c bd 71 1b b9 bd
       -0.097157225 -0.107643984 -0.07646232 -0.09038437
000140 04 29 ed bd 0a 94 36 be b0 31 48 be b0 61 0e be
       -0.11580089 -0.1782991 -0.19550204 -0.13904452
000150 b8 77 c6 bd d2 97 14 be 27 b6 37 be 94 cb 2b be
       -0.09690803 -0.1451104 -0.1794058 -0.16776878
000160 19 f7 4c be e1 15 0e be 57 cb 26 be 0e 8c 2b be
       -0.20016135 -0.13875534 -0.16288505 -0.16752645
000170 72 06 00 be fe f0 47 be 87 82 0e be ea 0a 04 be
       -0.12502459 -0.19525525 -0.1391698 -0.12894788
000180 3c 7a 19 be db da 3a be 93 56 07 be c3 fe 4e be
       -0.14988035 -0.18247549 -0.13216619 -0.20214371
000190 3e 82 ed bc b4 3f d8 bd 58 f3 fe bd 56 f1 26 bc
       -0.028992768 -0.105590254 -0.12448758 -0.010189375
0001a0 8f 15 50 3b 70 c0 b1 bd 60 d0 10 be 5e 90 d7 bd
       0.0031751131 -0.08679283 -0.14141989 -0.10525583
0001b0 1a 08 ae bd 4b a7 e4 bd 43 32 e5 bd 63 2f 35 be
       -0.08497639 -0.11164721 -0.11191227 -0.17693858
0001c0 72 c6 10 be 16 3f 1e be 14 2a f9 bd 90 de 44 be
       -0.14138201 -0.15453753 -0.12166229 -0.19225526
0001d0 3e ad 6e be d6 73 63 be 0c d8 44 be f5 4c 4a be
       -0.23308274 -0.22212157 -0.1922304 -0.1975592
0001e0 45 4c 19 be 93 ba 2c be 45 d8 58 be 5f d1 ff bd
       -0.14970501 -0.16868047 -0.2117625 -0.12491106
0001f0 84 e9 20 be 43 c0 18 be 38 92 0e be 53 69 dd bd
       -0.15714079 -0.14917092 -0.13922966 -0.108111046
000200 c5 56 1a be 15 ff e5 bd 67 6e 39 be f8 fd 56 be
       -0.15072162 -0.11230294 -0.18108521 -0.20995319
000210 13 ae 38 be 1e 40 29 be 9e 8b 4b be b7 e1 11 be
       -0.18035154 -0.16528365 -0.19877478 -0.1424626
000220 31 de 3b be 22 3c 28 be 64 da 93 bd 28 05 06 be
       -0.18346478 -0.16429189 -0.07219389 -0.13087904
000230 94 ea 1b be a3 3c 07 be 0b 7b 49 be cd 04 3e be
       -0.15226203 -0.13206725 -0.19675843 -0.18556519
000240 aa bf 09 be f9 45 f2 bd 8b 0c 0b be 9e df 39 be
       -0.1345202 -0.118297525 -0.13579004 -0.1815171
000250 5a 69 38 be 0e 28 0b be c6 62 04 3e 70 53 d7 3d
       -0.18008938 -0.13589498 0.12928304 0.10513961
000260 19 14 1c 3e 25 9d 22 3e 7c 2f 10 3e 41 b1 15 3e
       0.15242042 0.15880258 0.14080614 0.14618398
000270 3a 5a 33 3e 91 be ce 3d 3b ac ea 3d 8a cd f3 3d
       0.17514887 0.100949414 0.114586316 0.11904438
000280 ee 35 f9 3d a3 62 eb 3d 0f aa 01 3e c0 4a 0a 3e
       0.121684894 0.11493423 0.12662528 0.13505077
000290 79 88 17 3e a3 5e 09 3e 0b a4 1f 3e 37 88 e6 3d
       0.14798154 0.13415007 0.15589921 0.1125645
0002a0 dd 92 3e 3e 65 2a db 3d d4 70 da 3d e7 b2 31 3d
       0.18610711 0.107014455 0.106660515 0.043383505
0002b0 03 85 a4 3d a6 33 b6 3d 02 4b b8 3d 01 ba ff 3d
       0.080331825 0.0889657 0.089986816 0.12486649
0002c0 6b 9c dc 3d e3 4c 32 3e d7 0a 9a 3d b8 d8 f0 3d
       0.10772022 0.17412142 0.07521599 0.11760086
0002d0 ca 1e 85 3d 48 52 a2 3d cd 83 28 3e ff d0 04 3e
       0.06500013 0.0792585 0.16456528 0.1297035
0002e0 db f7 1f 3e 9f f3 24 3e 04 17 a4 3d 48 35 95 3d
       0.15621893 0.16108559 0.080122024 0.07285553
0002f0 7f 7c a3 3d b2 81 e4 3d 8a e4 31 3e 46 4b 37 3e
       0.0798273 0.1115755 0.17372337 0.17899808
000300 74 24 16 3e 30 a4 11 3e 41 d8 fc 3d b1 cf 28 3e
       0.14662343 0.14222789 0.12345935 0.16485478
000310 65 f4 46 3e 48 3e 1b 3e 0e f9 ed 3d 97 a9 c8 3d
       0.19429167 0.15160477 0.11619769 0.09797972
000320 be 5b 1b 3e e9 fb 31 3e e2 9d 17 3e d4 10 cc 3d
       0.15171716 0.17381252 0.14806321 0.09964147
000330 20 a1 32 3e 10 8d 3a 3e 89 bf ce 3d 9f 3f 32 3e
       0.17444277 0.18217874 0.10095126 0.17407082
000340 06 37 25 3e 62 c3 e2 3d b4 2c 06 3e 1d 6e ca 3d
       0.16134271 0.110724226 0.1310299 0.09884284
000350 72 9e ba 3d c8 6c 0b 3e 85 41 ae 3d 9f cf ab 3d
       0.09112252 0.13615716 0.085085906 0.0838921
000360 87 05 fc 3d 1d 79 c0 3d 3d ff b7 3d 94 6d c3 3d
       0.12305742 0.093981005 0.0898423 0.09542385
000370 0c 31 ff 3d 8d f6 f2 3d bf 52 1a 3e 4b 57 fa 3d
       0.12460527 0.11863432 0.15070628 0.12223681
000380 6f 2f b1 3d 8a 72 05 3e 32 56 32 3e af 89 03 3e
       0.08651625 0.13031974 0.17415693 0.12845491
000390 b6 aa fd 3d 23 18 2d 3e 1f 3a 25 3e 3c 2c 3f 3e
       0.12386076 0.16903739 0.16135453 0.18669218
0003a0 ee 3e 1d 3e bc 35 34 3e dd de 21 3e bc 27 05 3e
       0.15356037 0.17598623 0.15807672 0.13003439
0003b0 54 2b e3 3d b0 67 0b 3e d4 bd 09 3e 0c 42 b5 3d
       0.110922486 0.13613772 0.1345132 0.08850488
0003c0 0c 04 cb 3d b6 0e 14 3e 6f 5e cd 3d e9 eb c3 3d
       0.09912881 0.14458737 0.100277774 0.09566481
0003d0 36 6f 22 3e f2 e9 af 3d fc e9 8e 3d 49 cf 05 3e
       0.15862736 0.085895434 0.06978223 0.13067354
0003e0 bf 9f 69 3d 73 b4 00 3e a2 42 14 be 1d f3 e8 bd
       0.05703711 0.12568836 -0.14478543 -0.11374495
0003f0 a2 f4 2b be a5 25 14 be bf 2f 34 be 54 d1 51 be
       -0.16792539 -0.14467485 -0.17596339 -0.20490009
