src/caches/cache_16_20_small/param2img4.pt (torch, 184864 bytes, 19 tensors)

main.0.weight f4 [16]
000000 17 48 54 3f 03 33 55 3f 1b 88 50 3f 5c 0f 7f 3f
       0.829225 0.8328096 0.8145768 0.9963281
000010 cb e8 59 3f a5 16 86 3f 4f 54 6e 3f b5 b8 7c 3f
       0.8512084 1.047566 0.93097395 0.9871934
000020 ce 92 79 3f 45 75 85 3f 2e 86 7a 3f 6c a3 8e 3f
       0.9748963 1.0426413 0.9786099 1.1143622
000030 da 9d 98 3f 83 1b 57 3f fa 8a 54 3f fe 36 86 3f
       1.1923172 0.84026355 0.8302456 1.0485532

main.0.bias f4 [16]
000000 8e 69 0e 3e c3 7a c5 bc 7e 3d 1d 3e 98 75 a8 bd
       0.13907453 -0.024106389 0.15355489 -0.08225554
000010 5b d3 46 bc bb c4 30 bd a9 61 c7 bd f0 d7 9f bd
       -0.012135352 -0.043156367 -0.09735424 -0.07804859
000020 44 64 b9 3d 90 9b d9 bb 01 34 82 3d 6b bf 83 bd
       0.09052327 -0.006640859 0.06357575 -0.064329945
000030 f1 53 32 3d 68 c7 bc 3d 9c 30 8b bd 7a 88 d4 bd
       0.043537084 0.09217721 -0.06796381 -0.10377593

main.0.running_mean f4 [16]
000000 6a 2d e5 b7 46 d6 5a 37 f1 ca 4c 3e e6 1d bd 3a
       -2.7320075e-05 1.3043702e-05 0.19999291 0.0014428466
000010 8d a2 32 3c 98 e5 31 ba a4 a5 f4 3e 28 8b be 3a
       0.010903013 -0.00067862263 0.47782624 0.0014537321
000020 c5 02 b3 3c 4e 28 30 ba 05 a8 f4 3e c9 18 c2 3a
       0.021851907 -0.0006719873 0.4778444 0.0014808412
000030 b8 16 06 3d 37 cd e6 b6 30 d2 4c 3e 42 7b be 3a
       0.03273651 -6.8784243e-06 0.20002055 0.0014532583

main.0.running_var f4 [16]
000000 2d 11 87 35 e7 4b 82 35 af 51 85 35 57 41 26 3b
       1.0063283e-06 9.707845e-07 9.933045e-07 0.0025368535
000010 8c dc eb 37 73 35 0c 39 08 b4 a5 3d 2f 58 26 3b
       2.8116883e-05 0.00013371352 0.08090979 0.0025382151
000020 72 fd e5 38 c4 8f 0c 39 72 a8 a5 3d 49 14 26 3b
       0.00010966779 0.00013404997 0.08088769 0.002534168
000030 ad f0 80 39 28 ae 89 35 21 b6 7d 35 96 4a 26 3b
       0.0002459338 1.0257982e-06 9.4514877e-07 0.0025374047

main.1.weight f4 [20, 16]
000000 c8 33 a3 3b 1f 29 64 bb 44 d1 dc bb 5a d7 c6 3d
       0.004980538 -0.003481455 -0.0067388136 0.09709044
000010 d9 6a d0 bd 1c 02 0d 3e 9c 9f ff bd b9 43 21 3e
       -0.101766296 0.13770336 -0.12481615 0.1574849
000020 a5 55 37 3d d9 70 a8 3d b0 85 71 3e df 77 81 3d
       0.04475941 0.08224649 0.23586154 0.06321692
000030 77 33 13 be 72 2b 61 b7 79 a9 6e bb 60 ef 4b 3e
       -0.14375101 -1.34211605e-05 -0.0036416932 0.19915533
000040 3c 81 9e bb e6 f9 98 bb 24 e3 69 bb d3 c0 e6 3d
       -0.0048371833 -0.004668462 -0.0035688365 0.11267247
000050 57 1e f8 3d 96 4e f3 bd 37 2a f1 bd e7 50 4a 3d
       0.12115162 -0.118802235 -0.1177563 0.04939356
000060 e1 59 fb 3c 97 21 06 be 45 d2 2f be 5c f9 ae be
       0.030682506 -0.13098751 -0.17170055 -0.3417462
000070 21 8d be 3c 54 01 33 3b d6 94 9a 3a 21 16 7a be
       0.023260655 0.0027314024 0.0011793624 -0.24422504
000080 98 c4 d7 bb 67 da 11 b9 4b bc 44 bc b5 a3 45 3e
       -0.006584715 -0.00013909639 -0.012007783 0.1930073
000090 2e 95 04 be 50 30 aa bc 36 02 07 3e fb 10 5e 3d
       -0.12947533 -0.02077499 0.13184437 0.054215413
0000a0 1f 89 d6 bd c0 9d f3 bd c5 75 7c bd 7b e1 30 3d
       -0.104753725 -0.11895323 -0.06163575 0.043183785
0000b0 97 1a 79 be 1f 95 9c bb ca 9f 13 ba e9 07 a5 bd
       -0.2432655 -0.004778519 -0.00056314154 -0.08058149
0000c0 ef f8 71 3a 99 b5 8f 39 44 ba 86 b9 36 26 91 bd
       0.00092305144 0.00027410386 -0.0002569725 -0.07087366
0000d0 9b 8b 89 3d 79 a8 9c bd 69 5a 85 3e 35 2e be 3e
       0.06716081 -0.07649321 0.2604554 0.37144628
0000e0 3d 2c e4 bd 6b 09 09 be f9 c1 4a bd 56 01 ab 3e
       -0.1114125 -0.13382499 -0.049501393 0.33399457
0000f0 98 a5 11 be 15 c5 a2 3a a1 b3 7b 3a f1 4d a2 3e
       -0.14223325 0.0012418354 0.0009601657 0.3170009
000100 41 65 75 3b 74 eb f3 ba 17 dc c4 ba bf b6 37 be
       0.0037444385 -0.0018609599 -0.0015019205 -0.17940806
000110 24 b3 9b bd 4c 6a 8d be 78 5b 2a 3d a1 01 42 be
       -0.07602528 -0.2762016 0.041591138 -0.18945934
000120 3f 79 80 bc 95 96 b5 be 58 71 ef 3c 91 a8 5e 3e
       -0.015682815 -0.35466447 0.029228851 0.2174399
000130 33 41 28 be 83 c5 07 3b 1e a9 03 3c 78 bd 10 be
       -0.16431122 0.0020717091 0.008035926 -0.14134777
000140 00 d2 fe 39 76 26 ef 3b 70 5d b3 3b fc d5 ee bb
       0.00048603117 0.007298286 0.005473785 -0.0072886925
000150 ce 0b d3 3d 08 d2 ad 3d 67 7d 2e 3c c1 29 51 3e
       0.10304986 0.08487326 0.010650015 0.20426084
000160 c0 66 78 3e 2d 16 69 3c 78 01 84 3d ff 0a d7 3d
       0.24257946 0.0142264785 0.06445593 0.10500144
000170 a1 94 bf 3e 4a 80 9f b8 73 aa 08 bb 40 e5 7d bd
       0.37418082 -7.6056065e-05 -0.0020853549 -0.061986208
000180 86 c2 54 3b b8 c4 de bb 59 0a 11 3b 67 59 44 bd
       0.0032464578 -0.006798353 0.0022131412 -0.047936823
000190 64 ac aa bb 82 a5 98 3d d1 74 7a be 7c 15 d6 bd
       -0.005208539 0.07453443 -0.24458624 -0.104533166
0001a0 83 16 62 3e de 5a 1f 3e 4c ae c2 bd ef 8f 24 3d
       0.220789 0.15562007 -0.09505901 0.04017633
0001b0 62 2b 80 3e 07 57 dd 3b de d0 6b bb 60 55 17 be
       0.25033098 0.0067547592 -0.003598265 -0.14778662
0001c0 60 e3 be 3a d4 e3 14 ba a4 a4 60 b9 82 07 3a be
       0.0014563613 -0.0005679701 -0.00021423638 -0.18166927
0001d0 1e 85 2e 3d d5 84 6a be a8 c4 81 be 4e 7f 4b bc
       0.04260742 -0.22902234 -0.2534535 -0.0124204885
0001e0 a3 25 e5 3d 64 67 31 be 83 fa 86 3d 13 c1 4b 3d
       0.11188819 -0.17324597 0.0659075 0.049744677
0001f0 30 de 34 3e a1 ce 2b ba fb a3 f8 b9 4c 3f 3d 3e
       0.17662883 -0.00065539224 -0.0004742442 0.18481177
000200 1e 0c 6a bb 5b 1e 9e bb fe a3 0d 3b aa 76 82 3e
       -0.0035712789 -0.004825396 0.002161264 0.25481158
000210 e8 fb 21 bd 4c e1 12 3d 51 64 a0 3e 3c 4e ff 3d
       -0.039546877 0.03585939 0.31326535 0.12466094
000220 da 9c 5e be b5 2a c7 bd 0c f9 44 3d 82 ad 1d 3e
       -0.21739522 -0.097249426 0.048089072 0.15398219
000230 c2 9b 61 be e2 b1 48 bb ee 44 8f 3b 89 fb 91 3e
       -0.22032073 -0.0030623605 0.0043722307 0.2851222
000240 50 05 d4 ba fa 27 5d bb f9 34 5d ba 73 fe 49 be
       -0.00161759 -0.0033745752 -0.00084383745 -0.19725971
000250 87 69 33 bd 15 8c 62 bd 34 0e dd 3d 31 cc 52 3e
       -0.04380181 -0.055309374 0.10793725 0.20585705
000260 81 89 7a be 0f 09 26 be 46 f6 b7 3c 5f 9f 5f bd
       -0.24466516 -0.16214393 0.0224563 -0.054595347
000270 18 76 a2 be e3 f6 c4 bb be 8c 0e 3c 45 9f 90 3e
       -0.31730723 -0.0060108765 0.008700548 0.28246513
000280 7d b9 57 bb 6b 51 50 3a ba bc 12 bb 22 fe 81 be
       -0.0032916956 0.00079467025 -0.0022390322 -0.253892
000290 25 49 89 3d 53 71 57 3e 3b 5d 67 bd 74 06 91 be
       0.06703404 0.21039324 -0.056485396 -0.28325236
0002a0 70 3f 30 bd aa 47 18 3e 4f b4 cd bd 9a 1a 87 be
       -0.04302925 0.14871088 -0.10044157 -0.26387483
0002b0 cc 97 62 3d aa 05 02 3c 15 94 e0 3b 73 c1 7f 3b
       0.055320546 0.007935921 0.0068535903 0.0039025217
0002c0 99 0b 9c bb ac 44 5b 3a fb 3c b6 3b c5 3c 0f be
       -0.0047621247 0.000836442 0.0055614687 -0.13988025
0002d0 7e f1 9c 3d 17 f7 59 3e 59 b7 bc bd ad 2f c2 bd
       0.076632485 0.21285664 -0.09214658 -0.0948175
0002e0 a4 7d 96 3d 4a 12 f0 3d 4b 38 64 3e ce 81 c9 3d
       0.07348183 0.11722238 0.22287099 0.098392114
0002f0 f9 14 34 3e fd d4 8b bb a5 9d 03 bb 6b 7e 21 3e
       0.17586125 -0.0042673335 -0.0020082977 0.15770881
000300 d1 7e f5 bb 53 08 e5 3a 9a 78 51 3b 30 cd 42 bd
       -0.0074919243 0.0017473794 0.0031962753 -0.047558963
000310 53 09 cf bd 5e 63 06 3c 43 c5 27 be f2 49 49 3e
       -0.101092 0.008202402 -0.16383843 0.19657114
000320 be 5b 0f be 3d cf 30 3e 0c 4d a1 bd 69 b8 81 bd
       -0.1399984 0.17266555 -0.07876024 -0.063340016
000330 a4 f0 ac be 61 72 29 3b ec cf 0c 3c 6b ba 7d 3d
       -0.33777344 0.0025855529 0.008594494 0.06194536
000340 87 f6 5e ba 92 97 91 39 ca 8e 8b 3a 84 f3 82 3e
       -0.00085053634 0.00027769484 0.0010647413 0.25576413
000350 6d 0a 06 bd 6d 9b c2 3d 58 88 ba 3c a3 f3 13 3d
       -0.032724787 0.09502301 0.022770092 0.036121022
000360 98 b5 20 be 4e be 97 3e e3 d6 3c 3e 30 1e 55 bd
       -0.15694273 0.29637378 0.18441348 -0.052030742
000370 b2 05 53 be 2b 70 d0 bb 71 4e 06 3b 13 1f 2d be
       -0.20607641 -0.0063610277 0.0020493532 -0.16906385
000380 40 26 dd 38 a7 7d 0e bb cb ef 37 3b 04 69 f6 3d
       0.00010545226 -0.0021742375 0.0028066512 0.12031749
000390 6a 60 a4 bd 30 df d4 3c 8d 9a 1b 3e 1d 53 79 bd
       -0.08026202 0.02598533 0.15195675 -0.06087028
0003a0 cc 91 83 be 6f 03 a1 bc 44 ee 12 3e 6e a2 8a 3e
       -0.25697172 -0.019654958 0.14348704 0.2707705
0003b0 59 ba b0 bd fa 92 8f ba 95 e1 7e bb 09 ad f2 3d
       -0.08629293 -0.0010953837 -0.0038891782 0.1184941
0003c0 b3 fd ef bb cb c2 90 3b 8f e2 88 bb 2a 80 91 3e
       -0.0073239445 0.0044177524 -0.0041773985 0.28418094
0003d0 27 e5 bd 3c 93 07 66 be 1a a1 63 3e 0a cd 87 3e
       0.023180557 -0.22463827 0.22229424 0.2652362
0003e0 16 83 02 3e 40 2d b7 3d 15 fb 6b 3e a6 8b a6 3e
       0.12745318 0.08944178 0.23044999 0.32528418
0003f0 ec 7f 22 3a 2e 54 9d bb 0c 0c 0b bc 47 32 8e 3e
       0.00061988714 -0.0048012948 -0.008486759 0.27772734

main.1.bias f4 [20]
000000 55 61 d8 3e 1b 33 d6 3d 0a b8 79 bd e2 d7 68 be
       0.42261758 0.10458966 -0.06096653 -0.22738603
000010 a2 3c 34 3e 42 eb 05 be f3 6a c7 bd 78 c4 44 be
       0.17601255 -0.13078025 -0.09737196 -0.19215572
000020 73 f4 2f 3e 89 3b 33 3e 90 18 f3 3d 55 65 f3 bc
       0.17183094 0.1750318 0.11869919 -0.029711405
000030 8a 62 39 3e a7 a6 3d 3e 0a ea 87 be 10 99 e3 bd
       0.18103996 0.18520604 -0.26545745 -0.11113179
000040 93 5c 00 be f9 1c 34 3e 9d 04 5d be 74 01 79 3e
       -0.12535314 0.17589177 -0.21583791 0.2431696

main.3.weight f4 [20]
000000 fa d4 6c 3f 20 49 5d 3f f6 46 5c 3f 12 59 88 3f
       0.92512476 0.86439705 0.8604578 1.0652182
000010 a3 e7 7a 3f d9 03 6f 3f 16 78 7e 3f 2e 66 79 3f
       0.980097 0.93365246 0.99401987 0.9742154
000020 2a ca 80 3f 44 49 70 3f bd 73 8a 3f 22 d1 64 3f
       1.0061696 0.93861794 1.081657 0.8938161
000030 0a 81 7e 3f 34 bc 7f 3f 68 60 58 3f 09 c2 6a 3f
       0.9941565 0.9989655 0.84522104 0.91702324
000040 8f 9d 68 3f 80 c0 6e 3f c0 6d 6c 3f da 6a 5a 3f
       0.90865415 0.9326248 0.92354965 0.8531929

main.3.bias f4 [20]
000000 b2 80 44 be a3 77 ce 3d ef 42 fc bd b2 af 3a be
       -0.19189718 0.10081413 -0.12317454 -0.18231085
000010 bb 26 cd bd f7 0c 76 3d 0a 40 bb bd b0 4c af bd
       -0.10017153 0.060070958 -0.09143074 -0.08559549
000020 e3 67 d2 bd 64 92 8f bb 15 bf 88 3a 11 bf a8 bd
       -0.10273721 -0.004381465 0.0010432923 -0.08239568
000030 68 10 1f bd c5 20 b5 bd a6 db 62 bd ae 64 f2 bd
       -0.038834006 -0.08844141 -0.055385254 -0.118356094
000040 a9 3d e8 3b 9c 6d e8 bd b0 9d d6 3d c4 58 ae bd
       0.0070874286 -0.11349031 0.10479295 -0.085130244

main.3.running_mean f4 [20]
000000 31 e5 fe 3e 3b c0 9e 3e c6 63 f5 3d 3f 10 2f 3e
       0.49784234 0.31006035 0.11981921 0.17096041
000010 09 ba c5 3e 02 c1 38 3e fb fe 5c 3e 83 c1 e6 3d
       0.38618496 0.18042377 0.21581642 0.11267378
000020 44 d7 c0 3e 72 0a a0 3e 2b 78 d0 3e df 65 15 3e
       0.37664235 0.3125797 0.4071668 0.14589642
000030 ca 81 a5 3e 04 dc a1 3e a3 e4 74 3d f0 80 9d 3e
       0.32325584 0.3161317 0.059788357 0.30762434
000040 8a 90 26 3e 20 e9 c3 3e 5f 66 f1 3d 8a d2 04 3f
       0.16266075 0.38263798 0.11787104 0.5188376

main.3.running_var f4 [20]
000000 8b a2 8e 3e 89 bb 6c 3e 43 74 d8 3d f0 a4 af 3e
       0.27858385 0.23118414 0.1056905 0.34305525
000010 6b c5 91 3e 67 97 37 3e 5d 1e 54 3e 0b 84 d4 3d
       0.2847093 0.17928849 0.20714708 0.10376748
000020 1c 49 03 3f d7 04 85 3e fe d7 ad 3e f2 1b b1 3d
       0.5128343 0.25980255 0.3395385 0.08647908
000030 1c 21 6d 3e 40 fb 50 3e 1e b7 0a 3e b6 76 05 3f
       0.23157161 0.20408344 0.13546416 0.52134264
000040 25 4a 0c 3e 64 ca 8f 3e d0 69 00 3e bd 6d d9 3e
       0.13700159 0.280841 0.12540364 0.42466536

main.4.weight f4 [2048, 20]
000000 ed db fd 3a 23 95 5a 3e 29 e4 6e bd b8 e3 cb bd
       0.0019367911 0.21345954 -0.05832306 -0.09955543
000010 ab 53 23 be 92 1d f5 3d 2e 20 73 3e a9 7d 9d bd
       -0.15949886 0.11968531 0.23742744 -0.076899834
000020 fa 9a 26 be 1f da 3d 3c be 15 17 bd 70 be ee bd
       -0.16270056 0.011587649 -0.03688597 -0.11657417
000030 13 a1 bc bd 96 6b 55 3e 03 a4 79 be 0d 54 18 3e
       -0.0921041 0.20841822 -0.24378972 0.14875813
000040 5d eb 42 3e 5f 58 0b be 71 bb 97 3d dc 38 45 3e
       0.19035096 -0.1360793 0.074087985 0.19259971
000050 eb 6c ac 3d 91 19 2f be 8f bd 9a 3d b7 59 cd 3d
       0.08419212 -0.17099597 0.07555687 0.100268774
000060 9f 82 9d 3c 20 7d b9 3d a4 12 ce 3d 22 36 59 be
       0.019227324 0.09057069 0.10062149 -0.21212056
000070 db d0 26 be 6d c5 00 3e 9e 88 43 be a1 c3 b9 3d
       -0.1629061 0.12575312 -0.19095084 0.090705164
000080 fe 8d cc 3d c5 89 18 be 41 c1 e8 3d 80 21 26 3d
       0.0998802 -0.14896305 0.11364985 0.04055929
000090 57 11 44 bc 87 21 3c be 93 d7 ce 3c 65 f3 5a be
       -0.011967025 -0.18372165 0.025249278 -0.2138191
0000a0 bc ff c2 bd 36 a0 9b 3d e8 71 95 be 38 8f 9e be
       -0.09521434 0.07598917 -0.29188466 -0.30968642
0000b0 49 eb bb bd cb ec 25 be a1 1a d1 be cb dc 20 3a
       -0.091757365 -0.1620361 -0.4084063 0.00061364163
0000c0 7b 20 d9 3d e3 55 d3 3d c4 7d ba 3c e9 a8 7e bd
       0.10601898 0.10319116 0.022765048 -0.062172804
0000d0 ec d5 06 be 53 f0 78 be c8 5f 6c 3d b5 f6 46 be
       -0.13167542 -0.24310426 0.05770853 -0.19430049
0000e0 e7 16 17 be 0b 61 a0 3d 6b 4f 22 3d 26 2a 94 3d
       -0.1475483 0.078310095 0.03962652 0.07234602
0000f0 cc 65 81 bd cf 6e 0d be c7 09 50 be 7f 68 82 bc
       -0.06318244 -0.13811801 -0.2031623 -0.015918968
000100 a7 eb ee 39 78 8e 19 3e 6c a6 ac 3c 2f cd d0 3d
       0.00045570472 0.14995754 0.02107545 0.10195386
000110 96 2c 91 be 49 32 91 be 09 17 3f 3b 1b 8d 61 3e
       -0.2835433 -0.28358677 0.0029158017 0.22026484
000120 ce 22 8f be 58 6a 26 be 45 92 d6 3d 4a 90 28 3e
       -0.2795624 -0.16251504 0.104771174 0.16461292
000130 51 1b f2 3c 94 23 59 bd ff 73 c7 3d 65 97 67 be
       0.029554041 -0.053012446 0.097389214 -0.22616346
000140 5e cc c4 3d 28 7b 2a 3e 10 aa 8b 3d 3d 3b 45 be
       0.096092924 0.16648543 0.06819546 -0.19260879
000150 7d 4b 8c bc 1c a4 bb 3d 9b dd eb bd 81 e2 a2 3d
       -0.01712584 0.09162161 -0.11516877 0.079533584
000160 2b 11 5c be 06 79 a3 bd 6a 17 29 be bc 7c bf bd
       -0.21490924 -0.07982068 -0.16512838 -0.09349963
000170 bd f7 67 be ab b3 d3 bd d8 02 02 3d c1 10 74 3e
       -0.22653098 -0.10337003 0.031740993 0.23834516
000180 9e b5 37 3e db 59 10 3d 8b 79 3f 3d 27 d4 26 be
       0.17940375 0.035241943 0.04674677 -0.16291867
000190 fd 29 2f 3e 91 d6 68 bd 62 e2 2b 3e 3e ad 22 3e
       0.17105861 -0.05684525 0.16785577 0.15886399
0001a0 ef 86 1a 3e 8e 89 89 bc 35 9b 98 be c3 72 92 be
       0.15090536 -0.016789224 -0.29805914 -0.2860318
0001b0 d9 98 af bd 31 d2 db 3d 16 0d a9 bb 54 cf 9b 3d
       -0.08574075 0.1073345 -0.0051590307 0.07607904
0001c0 2a db 4a 3e 04 0c 8b bc 54 b4 7a bd 89 e1 a1 bd
       0.19810167 -0.016973503 -0.06120713 -0.079043455
0001d0 0a 9c 6d 3d ba 49 f7 3d 76 36 c3 3d b5 5b 8f be
       0.05801014 0.12074609 0.09531872 -0.27999654
0001e0 ab 47 96 be d3 32 4d bb 51 85 bc 3c af b5 07 3e
       -0.29351553 -0.0031310811 0.023012789 0.132529
0001f0 16 6a d1 bd 3c 2c 8a be 96 30 17 be 1f ec 5a 3d
       -0.102253124 -0.26986873 -0.14764628 0.05344784
000200 9e 90 15 be 5a 99 1d 3e 1c 0b f1 bd ab 3d 5d bd
       -0.14605948 0.1539053 -0.11769697 -0.05401389
000210 7f 37 69 3d b4 aa 76 3e c7 9e 40 3e e1 a0 86 be
       0.05693769 0.24088556 0.18810569 -0.26294616
000220 d7 1d 33 be f5 4a 93 be 8a 2c 3e 3d 7a f4 6e be
       -0.17491852 -0.28768125 0.046429195 -0.23335448
000230 53 47 d7 3d bb ac 50 3d ca ba b0 3d 0b f6 a8 be
       0.10511651 0.05094598 0.08629377 -0.33000216
000240 c9 18 99 bd e6 33 66 3c ad 1a 08 be 1d 38 27 bd
       -0.074754305 0.0140504595 -0.13291426 -0.040825
000250 58 8c 8e be 85 18 79 be 5d b0 8b 3d 71 75 d6 bd
       -0.2784145 -0.2432576 0.06820748 -0.10471619
000260 18 51 5b be 07 23 1a be 92 3b fb bd ab 22 6f be
       -0.21417654 -0.15052424 -0.122672215 -0.23353069
000270 d7 80 80 3e 4e 18 b8 3d 41 92 21 bd e7 50 1e bd
       0.25098297 0.08989011 -0.03944612 -0.038651373
000280 17 68 b7 3d 03 a8 0c 3e 93 6c 82 bc c9 70 0f be
       0.089554004 0.13735966 -0.015920913 -0.14007868
000290 4e 30 5c be bb ab 50 3e fd 83 ef 3d c9 c5 60 3d
       -0.21502802 0.2037801 0.11695097 0.054876123
0002a0 b9 2f 9d be 44 7d 9b 3b 70 e9 c8 bd d6 67 a1 bd
       -0.30700472 0.0047451574 -0.0981015 -0.07881133
0002b0 90 f9 01 3e a4 0c 8d be 15 6c 2f be bd 22 48 3e
       0.12692857 -0.27548707 -0.17131074 0.19544502
0002c0 98 6a 10 bd b4 33 ff 3d 5e 3b 1a 3d 30 72 c9 bd
       -0.035257906 0.124610335 0.037654273 -0.09836233
0002d0 7f 1b bd 3d 0e 1a 86 3e c2 32 4a be c3 a3 50 3c
       0.0923376 0.26191753 -0.19745925 0.012734356
0002e0 68 72 e4 3d ea 9d bb 3d 81 1f 6d 3e 40 bb ab 3d
       0.11154634 0.09160979 0.23156549 0.083853245
0002f0 d7 30 3a be 24 ba 19 3e 82 bd 6b 3e 8e f2 9d be
       -0.18182693 0.15012413 0.2302151 -0.30849117
000300 e7 1a 1e 3e 4a 8f 83 3e b2 6e b8 3d 00 05 25 3e
       0.1543995 0.25695258 0.090054885 0.16115189
000310 2b a7 18 3c c4 31 21 be 97 e2 90 be 5e ea 9d be
       0.0093172 -0.1574164 -0.28297874 -0.3084287
000320 14 bd 2c 3e 5d 63 84 3d b0 f0 6f be dc 57 62 3e
       0.16869003 0.064642645 -0.23431659 0.22103828
000330 62 76 83 be df f8 50 be bd bf 91 3d e7 bb 12 be
       -0.25676256 -0.20407437 0.07116649 -0.14329492
000340 0a f7 80 3d 50 3c b0 b8 0b 60 20 be 02 44 d4 bd
       0.06297119 -8.403568e-05 -0.15661637 -0.10364534
000350 98 af f8 bd ce 09 56 3e f0 1a 37 3e 7a 6a 1b 3e
       -0.12142867 0.20902178 0.1788137 0.15177336
000360 84 71 69 3d b2 1a 86 3d c6 f0 56 bd 6a c0 c9 bc
       0.056993023 0.065480605 -0.052475713 -0.024627883
000370 5b 49 7a 3d a0 dc 85 3d a3 bb c0 3c 3d 3a 0f be
       0.061105113 0.065362215 0.023526972 -0.1398706
000380 9a 8b 4d be 74 a6 25 3e 40 c4 86 be e7 f0 f7 3d
       -0.20072785 0.16176778 -0.26321602 0.12106495
000390 c7 81 49 3e 35 a4 11 be 61 04 44 be 54 ba 44 3e
       0.19678412 -0.14222796 -0.19142295 0.19211704
0003a0 07 e7 86 bd dc 40 59 3d 43 5a 11 3e 42 17 78 3d
       -0.06587034 0.05304037 0.14194588 0.060569055
0003b0 9a 75 3f 3e 19 70 d9 bd 4b cb 95 3e 78 f9 0d be
       0.18697205 -0.10617084 0.29256663 -0.13864696
0003c0 2a 19 1f 3e 97 bf 32 be 2f 4d 44 be 42 86 bd 3d
       0.15536943 -0.17455898 -0.19170068 0.09254123
0003d0 7f cc 66 3c 7c c2 15 3e 78 a7 7e 3e 41 b6 ea 3d
       0.014086842 0.14624971 0.24868572 0.114605434
0003e0 db dc 9e bd 20 5e a5 bd 7c b6 7d 3e b8 bd a7 3d
       -0.077569686 -0.080745935 0.24776644 0.08190483
0003f0 73 60 01 be 62 79 84 3c 19 dc 9d bd be e1 42 be
       -0.12634449 0.016171161 -0.07707996 -0.19031426

main.4.bias f4 [2048]
000000 35 02 8e 3d 88 8e 92 3e ab 3a b8 3e d6 00 e7 3d
       0.06934015 0.28624368 0.3598226 0.11279456
000010 cd 43 7b bd 1f 20 2d 3d 1a 99 a3 bd 29 4a 3b 3e
       -0.061343957 0.04226696 -0.07988186 0.18290009
000020 b7 45 72 bd 1d 1c 51 3e 10 32 97 3e 2c 77 a6 bd
       -0.059148517 0.2042088 0.29530382 -0.08128199
000030 60 f1 b0 3c a5 05 2c 3e 17 28 ca 3d 2d fb 62 bd
       0.021599472 0.16799028 0.09870928 -0.05541532
000040 69 61 a1 3e 3b 13 8c 3e db 96 4f 3e 23 82 3a 3e
       0.3151963 0.27358422 0.2027239 0.18213706
000050 3b 65 92 3e e8 42 0b 3e 38 02 6e bd d5 93 b9 3e
       0.28592858 0.13599741 -0.058107585 0.362456
000060 79 be 25 3d c6 52 9f 3e fd ed f1 bc ab 1c 55 bc
       0.040464852 0.3111784 -0.029532427 -0.013007323
000070 37 ef 80 3e 5c 47 a7 3e 3c b0 a9 3e c7 97 a6 3e
       0.25182506 0.3267163 0.3314227 0.32537672
000080 4b 41 3b 3e 73 59 08 bd 7f d8 22 3e 23 8a 65 bc
       0.18286626 -0.03328843 0.15902899 -0.014009985
000090 35 2b 34 3e 3d e8 7d 3d bc 4b a4 3e 78 2c 91 3e
       0.17594607 0.061989058 0.3208903 0.2835424
0000a0 89 f6 88 3e db 7d 4f 3e 69 ae 7e 3e d6 87 93 3e
       0.2675059 0.20262854 0.2487122 0.28814572
0000b0 4f 4d f0 3d 89 26 2b 3e 14 e1 50 3b 87 3a a3 3e
       0.117334954 0.16713919 0.0031872438 0.3188059
0000c0 0b 91 21 3e e1 b9 a1 3e 23 7f 77 3d fe ce 24 3e
       0.15777986 0.31587127 0.06042398 0.16094586
0000d0 15 44 67 3e 5e b8 43 3e de df 04 3e 1c b5 90 3e
       0.22584565 0.19113299 0.12976024 0.28263175
0000e0 f0 73 a2 bd b8 a6 73 3d 4f 3d 67 3d 80 aa ab 3e
       -0.079322696 0.059485167 0.056454953 0.3352852
0000f0 55 30 83 3c 28 78 f3 3c 32 c5 a5 bd 9d 5e 62 be
       0.016014257 0.02972038 -0.08094253 -0.22106405
000100 c6 d7 b0 3d 05 54 96 3d fd 34 18 bc 7b 42 cc bd
       0.086349055 0.07340244 -0.009289977 -0.09973618
000110 ed 3d 5f 3d 44 a8 33 3c 61 39 39 3e fa 12 10 3e
       0.054502416 0.010965411 0.18088295 0.14069739
000120 f7 13 28 3e f3 3f 00 bd 1c ee 62 3c 07 a1 1f be
       0.16413866 -0.031310987 0.013850715 -0.15588771
000130 7d e8 96 3d 48 76 0f bd fa b3 07 be 46 27 56 3d
       0.07368562 -0.03502491 -0.1325225 0.052283548
000140 64 53 79 3d 1b e8 9a bd 14 2e e2 3b bd 3d a4 3d
       0.060870543 -0.07563802 0.0069024656 0.08019588
000150 8f e2 ef bd 82 80 23 be 5b 85 01 bd 4d 8a 43 3b
       -0.117131345 -0.1596699 -0.03162132 0.0029837072
000160 97 ce bb 3d 92 e1 2f be 04 55 e6 bd 22 f2 10 be
       0.09170263 -0.17175892 -0.11246684 -0.14154866
000170 e4 9d 35 be 9c b7 b7 3c 19 01 ec bd b6 9c a4 bd
       -0.17736012 0.022426419 -0.11523647 -0.08037703
000180 bd 76 5a 3e 5c 75 37 be b4 88 00 3e fc 2c 18 bd
       0.21334358 -0.17915863 0.12552148 -0.037152275
000190 47 0f f5 bd 8f 46 ce 3d 4e 07 b3 3d 73 2c 4c 3d
       -0.119658045 0.10072052 0.08741628 0.049847078
0001a0 f0 6c d9 3d e4 75 1f 3e c2 b5 72 bc 73 91 bf bd
       0.10616481 0.15572315 -0.014813842 -0.09353914
0001b0 b8 7b 89 3d 7f 74 18 be 70 d0 99 3d 53 6d 4c be
       0.067130506 -0.1488819 0.075104594 -0.19963579
0001c0 2d 56 2c be e3 7b 43 bc 78 10 b6 bd 73 6f ae bd
       -0.16829748 -0.011931392 -0.0888986 -0.08517351
0001d0 6f 34 df 3c 40 23 0a be 26 17 2d 3d 41 9f 24 3d
       0.027246682 -0.1349001 0.042258404 0.04019094
0001e0 4d cd 89 3c 29 d1 62 3b 2f 74 0f 3e 03 b1 b7 bd
       0.016821528 0.0034609532 0.14009164 -0.08969309
0001f0 d7 fa 0a 3e 5b e5 01 be d4 21 15 be 44 53 47 3e
       0.1357225 -0.12685148 -0.14563686 0.19465357
000200 81 08 08 3d 55 df 5d be 68 98 8a be fe 44 9d bb
       0.033211235 -0.21667226 -0.27069402 -0.0047994843
000210 3c 3e 64 3d d5 cd 7d bd a3 3f 0f 3e f2 ac 9e bd
       0.055723414 -0.061963875 0.13989119 -0.077478305
000220 c6 ea 51 3d 38 66 16 be 4a d9 c5 bc 7c 89 28 3e
       0.051249288 -0.14687431 -0.024151463 0.16458696
000230 1b a1 09 be ca 39 19 3e 33 65 9a 3b 01 e3 bc 3d
       -0.13440363 0.14963451 0.004711771 0.09222985
000240 16 f9 e4 3d 39 50 a9 3c 26 81 2a 3e 05 e0 fe 3d
       0.11180322 0.020668136 0.16650829 0.12445072
000250 60 be 12 3c 83 ad 0c 3e fe 58 31 bd 8e da 37 3e
       0.008956522 0.13738064 -0.04329776 0.17954466
000260 6d 40 20 3d 80 76 ce bc 03 c0 0e be 10 71 c8 bd
       0.03912394 -0.02520299 -0.13940434 -0.0978719
000270 d3 df d7 3d b2 5e 3a 3e 2a 4a 0e be 4c d8 1c be
       0.10540738 0.18200186 -0.13895479 -0.15316886
000280 03 51 f5 bc d8 92 06 3e 4d 1a 5e 3c 8a be 53 be
       -0.029945856 0.13141954 0.013556075 -0.20678154
000290 7e 9b 0c 3e aa c3 ce bd d4 4d f2 bd 3c f2 40 3e
       0.1373119 -0.10095914 -0.11831251 0.18842405
0002a0 66 15 f5 3d d3 35 e4 bd 60 57 bb bd 78 6a 9f 3d
       0.11966972 -0.11143079 -0.09147525 0.07783979
0002b0 2a 42 18 3e c8 77 78 be da 51 12 3e e5 6c 2f 3d
       0.1486899 -0.24264443 0.14289036 0.04282846
0002c0 07 71 3c bd aa 37 31 3e b7 66 b3 bc b6 dc 1c 3e
       -0.04600623 0.1730639 -0.021899564 0.1531857
0002d0 9c dd 08 be f0 cd 1c bc 23 84 4d be 47 5e e8 bc
       -0.13365787 -0.009570584 -0.20069937 -0.028365267
0002e0 9d df 5c bc ac 00 ae ba 43 03 1c bd fe e7 81 3d
       -0.013481048 -0.0013275347 -0.038089048 0.06343077
0002f0 da d9 5a be 80 c8 5a bd d8 ff 1d 3c 50 bb a9 3d
       -0.21372166 -0.053413868 0.009643517 0.0828768
000300 58 9c e2 bd 38 f3 ce bd ea a5 d9 bd 68 20 ba bd
       -0.110649765 -0.10104984 -0.10627349 -0.09088212
000310 1f 4a c1 bd 0c 95 2a 3e e8 7b 65 3e 69 a8 61 3e
       -0.094379656 0.1665842 0.22410548 0.220369
000320 bf 62 cc bd df eb 5f 3e 5d 5f 99 bd 8a 33 24 be
       -0.09979772 0.21867321 -0.07488892 -0.16035286
000330 d6 ae ec 39 8b 29 ef 3d c1 28 3c 3e c8 e5 52 3c
       0.0004514369 0.116778456 0.18374921 0.012872167
000340 9e 85 af 3c ce 27 08 3e 6a 7a c6 bc 6c c1 28 3c
       0.021426018 0.13296434 -0.024228293 0.010300022
000350 f5 ac 68 3e 77 44 53 3e bc f9 f3 3d ce 81 85 bc
       0.22722228 0.20631586 0.119128674 -0.016297247
000360 2c b8 36 be eb af ed 3d a4 a9 20 3d 6f 10 85 3e
       -0.17843693 0.11605819 0.039224282 0.259891
000370 ca cb e4 3d ef 78 e8 bd e0 ed 24 3d 85 5c e7 3c
       0.11171682 -0.11351191 0.040265918 0.028242359
000380 3a 4b 20 3d 0c 0b 27 be c2 c1 01 bd c5 25 1c bb
       0.03913424 -0.16312808 -0.031678922 -0.0023826223
000390 a6 78 4e ba 8f 5c df 3d 72 04 00 3e 93 1c 6b 3e
       -0.00078762544 0.10906326 0.12501696 0.22960119
0003a0 7d f6 73 3e d5 db 13 be 8f fd 19 3e 09 45 9a bd
       0.23824497 -0.14439328 0.15038131 -0.07532699
0003b0 1a bb f4 bd 9b 8e 3c 3e b7 e3 8c bc 7a 97 12 bd
       -0.11949749 0.18413775 -0.017198427 -0.03578899
0003c0 a0 de ec bd 59 9f 08 bd 42 7e b1 bd 5e b2 d6 bc
       -0.115659 -0.03335509 -0.0866666 -0.026208099
0003d0 f0 de 39 3e 2c 54 09 bd a9 fe 4b 3d e7 c3 53 3e
       0.1815145 -0.03352754 0.04980341 0.206802
0003e0 de 03 d3 3d c6 3f b0 3d 76 82 85 3e 86 c6 82 bd
       0.10303472 0.08605914 0.26076096 -0.063855216
0003f0 99 01 ef bd e9 c2 41 bd 15 6b 36 3e 1b 42 18 be
       -0.116702266 -0.04730502 0.17814286 -0.14868967

conv.0.weight f4 [20, 1, 5, 5]
000000 7c 0f 4e be 9a 90 01 3e 88 92 07 be 53 f2 e0 bc
       -0.20123094 0.12652817 -0.13239491 -0.0274593
000010 24 ee b2 bd 18 f5 87 bc f8 76 e2 bd 0c 9d 94 3d
       -0.08736828 -0.016596362 -0.11057848 0.07256517
000020 11 25 5b bd 0b 07 c3 bd 0c ad 56 3e fe a4 33 3e
       -0.053502146 -0.09522828 0.2096445 0.17543408
000030 d2 ab 98 bd ad 80 b2 bc 11 d9 83 3e 2e cd 37 3e
       -0.07454647 -0.021789873 0.25751546 0.17949364
000040 e3 1d 4c 3d a7 ac 04 bd bd 2a 78 be 93 f5 ce bc
       0.04983319 -0.032391217 -0.24235053 -0.025263583
000050 05 59 b2 bd 20 f6 f8 bb af 44 e9 3d 14 52 76 be
       -0.087083854 -0.0075976998 0.113900535 -0.24054748
000060 3f 26 09 be 79 62 09 3e ef 64 0e 3e 2c 77 ce bc
       -0.13393496 0.1341647 0.1390569 -0.02520331
000070 e0 b6 76 3d 30 84 a2 bd a4 c6 a9 3d 0e c4 25 3e
       0.060232997 -0.07935369 0.08289841 0.1618807
000080 ee e3 e2 3d ad 35 ec 3d 79 58 00 3c 6d 52 94 bc
       0.110786304 0.11533675 0.0078335935 -0.01810571
000090 ab e0 99 bd 62 4b ff bc da c9 6a bd dc 06 ae 3c
       -0.07513555 -0.031163875 -0.057321407 0.021243505
0000a0 f7 fa d8 bd 4f 8e da bd 4a fe 14 be dd 5a 55 bc
       -0.10594743 -0.106716745 -0.14550129 -0.013022152
0000b0 03 6a 90 bd 1c 3f 6d be be e2 1b be d3 e4 60 be
       -0.0705147 -0.23168606 -0.15223214 -0.2196229
0000c0 6c 3d 09 be c4 51 5b be 4a 7f 38 3d 70 c4 25 3d
       -0.13402337 -0.2141791 0.045043267 0.04047054
0000d0 37 28 24 be 76 5c 38 bd 4f eb 68 be 5f 05 3f be
       -0.16030966 -0.045010053 -0.22746013 -0.18654393
0000e0 d5 09 b5 bc c8 36 18 be be d2 a6 bc 9b 07 c7 3c
       -0.022099415 -0.14864647 -0.020364162 0.024295619
0000f0 20 86 b3 bc 96 bc 20 bc 7a da aa bc 81 1e 78 bd
       -0.021914542 -0.009810587 -0.02085613 -0.060575966
000100 29 03 8a 3d 81 84 09 3e c7 3f e8 3d 9c be ce 3d
       0.06738884 0.13429452 0.113402896 0.100949496
000110 e4 73 49 3d 74 5d 96 bb ce 2d f4 3d 99 ba 63 3e
       0.049182788 -0.004588777 0.11922799 0.2223915
000120 2e 65 6a 3e 2e be be 3d 19 13 ce 3d ff 7e f3 3d
       0.2289016 0.09313618 0.10062236 0.11889457
000130 92 dd 35 3d f4 9a 83 3e 5c 87 63 3d b2 b8 18 bd
       0.04440076 0.25704157 0.05554901 -0.037285514
000140 48 3f cc bc f4 aa 04 3c 4c 36 d9 3d ab 38 1e bd
       -0.024932519 0.008097399 0.106060594 -0.03862826
000150 61 14 00 3e 6f 80 85 bd 07 6b 08 be 97 0e bc bd
       0.12507774 -0.065186374 -0.13322078 -0.0918247
000160 26 96 66 be 93 23 b1 bd b4 35 c2 3c 91 b5 1c 3e
       -0.22518215 -0.08649363 0.023707248 0.15303637
000170 cd 1d 16 be db a7 07 be 00 05 89 3d 2a 33 07 be
       -0.14659806 -0.13247626 0.06690407 -0.13203111
000180 ce 4c 00 bc e3 9a 49 be a5 23 6c be a1 90 48 be
       -0.007830812 -0.19687991 -0.23060472 -0.19586422
000190 cd 50 cf bc 4a 49 ed bd 57 b4 d7 3a a9 d1 26 be
       -0.025307084 -0.115862444 0.0016456944 -0.16290917
0001a0 6b dd f8 3d 1c 87 77 3d 16 46 91 3d 8c 34 a6 bb
       0.12151607 0.060431585 0.07093446 -0.005072182
0001b0 e7 97 e9 bc 2b 54 af 3d ae de 42 be 1a cb 8d ba
       -0.028514815 0.08560976 -0.19030258 -0.0010817975
0001c0 2e 15 ec 3d 12 1f 5f bd 65 18 8e bd dc 78 77 3e
       0.11527477 -0.05447299 -0.06938247 0.24167198
0001d0 50 70 54 3e 88 70 e1 bd 6e 1c 37 be 4b 99 20 3e
       0.20745969 -0.11007792 -0.17881939 0.15683477
0001e0 50 7a 26 3c d2 73 99 bd 6f 33 ac 3d 7b 71 7c 3d
       0.0101609975 -0.07492794 0.08408248 0.06163166
0001f0 54 e1 58 bc 8f 3d 0c 3e e7 c7 bf 3d 10 85 43 3e
       -0.013237316 0.13695358 0.093643 0.19093728
000200 c8 a3 9f 3d 3d 9c 6e 3d 09 6d 0d 3e 84 30 0d 3e
       0.07794911 0.05825447 0.13811125 0.13788038
000210 2d 8f 3f 3e ed bc 10 3e 77 cc 06 3e 1f e2 c1 3c
       0.18706961 0.1413457 0.13163935 0.023667393
000220 bd 94 59 3c 84 90 73 3d 41 0f 68 3d 79 2f c3 3d
       0.013280091 0.059463993 0.056655172 0.09530539
000230 93 fc c4 bd 7d 71 af bd 5e a5 d1 bd 10 14 97 bb
       -0.09618487 -0.08566568 -0.102366194 -0.004610546
000240 06 1d 7b 3c bc 3c 00 be 64 26 b3 bd f9 9d 01 be
       0.015326744 -0.12523168 -0.08747557 -0.12657918
000250 41 ca cb bd 52 e1 02 bd f1 03 68 be 91 22 43 be
       -0.09950686 -0.031953163 -0.22657754 -0.19056155
000260 ad c8 72 be 01 d0 0c be f9 bb 3f be 27 30 81 bd
       -0.23709364 -0.13751222 -0.1872405 -0.063080125
000270 79 e7 8e bd ae de 3a 3d 1a df 2d bc 26 e8 9b bd
       -0.06977744 0.04562252 -0.010612274 -0.07612638
000280 dd e5 03 3e 87 07 fc 3d 87 90 cf 3c 86 b6 8c 3c
       0.12880655 0.12306123 0.02533747 0.017176878
000290 4a 2b d3 bc 88 78 9d 3c 7c 57 f6 bc 41 f0 79 3d
       -0.025777478 0.019222513 -0.030071013 0.06102014
0002a0 76 ae 03 3e 1b dd 1e 3e 92 b1 7d bb f4 65 07 3d
       0.1285952 0.15514033 -0.0038710576 0.033056214
0002b0 ff d4 b8 3d a0 cc 52 3e 83 73 fa 3d 7a e0 f2 3c
       0.09025001 0.2058587 0.12229063 0.029648054
0002c0 35 01 04 bd 38 0a 81 3e fc 9f 38 3e 4c fc 99 bd
       -0.032227714 0.2520311 0.18029779 -0.07518825
0002d0 21 cc 91 be 7e 94 32 bd fe ae b9 bd 40 a9 3b be
       -0.2847605 -0.043598644 -0.0906658 -0.18326283
0002e0 01 1e c3 bd d9 d5 92 be 4a 9a 5a be 88 eb 25 3e
       -0.09527207 -0.28678778 -0.21347919 0.1620313
0002f0 6f 64 db 3d e0 9a 40 be 64 49 61 bd 46 b9 40 bd
       0.107125156 -0.1880908 -0.05500163 -0.04705169
000300 68 bc dd 3d 98 41 50 be bf a8 3d be a8 3c a7 3d
       0.10826951 -0.20337522 -0.18521403 0.08165866
000310 27 3a 1f be 6a 4f 33 bc f3 b2 89 bd 69 a5 05 3d
       -0.15549527 -0.010944227 -0.06723585 0.03262845
000320 d0 4d a1 3d 4b 38 6b bb 0c 84 5e be 9e 25 96 be
       0.0787617 -0.0035891708 -0.2173006 -0.29325575
000330 a8 c4 ed bd 6f 2c 49 3d 9a 8c 7e 3d a7 d3 1d be
       -0.11609775 0.04911464 0.062145807 -0.1541277
000340 64 4a 2c be af 3c b4 bd 8c f8 6d 3d 69 b9 98 bd
       -0.16825253 -0.08800637 0.05809836 -0.07457239
000350 45 d0 99 bd 8f 4d b5 3d 78 4d 0f 3e 86 f0 c0 bc
       -0.075104274 0.08852684 0.13994396 -0.02355219
000360 7e 99 0e bc e8 09 ff 3d 85 94 00 3e 61 58 2e bd
       -0.008703588 0.12453061 0.12556656 -0.042564753
000370 75 f0 31 3e 51 94 44 3e bc e4 3c bc 29 25 8f 3d
       0.17376883 0.19197203 -0.011529144 0.069895096
000380 1c a4 42 3e e8 c1 64 3e 73 60 32 3e 1c 8c 32 3e
       0.19007915 0.22339594 0.17419605 0.1743626
000390 a1 37 52 bb 00 81 fd bd 87 be f8 3d 45 0a cf bc
       -0.0032076614 -0.123781204 0.12145715 -0.025273452
0003a0 bb dc 82 3e 21 4c 6e bd 46 51 14 3e 4d 11 52 be
       0.2555903 -0.05817807 0.14484128 -0.20514412
0003b0 e3 f2 e7 3d 59 2d 31 be f7 a2 90 3d 14 6b b6 bd
       0.11325624 -0.17302455 0.07062333 -0.08907142
0003c0 3e 4c be 3d 3e d4 13 be d6 ad 13 be dc 12 50 be
       0.09291886 -0.14436433 -0.14421782 -0.20319694
0003d0 54 05 48 be 58 af 13 3d 64 aa 2f be aa 29 62 bd
       -0.19533283 0.036055893 -0.17154843 -0.055215515
0003e0 34 51 c4 bd c7 3c 41 be 9b 44 64 3d f3 0d bc 3a
       -0.09585801 -0.18870841 0.05572949 0.0014347419
0003f0 7a fb 5b bd cf a0 38 be 04 64 3b be 5f 2e 22 be
       -0.053706624 -0.18030094 -0.18299872 -0.15838002

conv.0.bias f4 [20]
000000 e2 75 7b bd 4b bd 94 bd 21 89 75 3e 99 b4 5c be
       -0.06139172 -0.07262667 0.23978092 -0.21553268
000010 fc a8 b7 bd f4 de 4e be 1d 42 56 3e f4 62 3f 3d
       -0.08967778 -0.20202237 0.20923658 0.04672523
000020 b2 37 eb 3d f6 49 fd 3d ce f6 78 be ae af 16 bd
       0.114852324 0.123676226 -0.24312899 -0.036788635
000030 08 fa e7 bc 62 48 33 be ae 58 76 bc b4 3e b6 bd
       -0.028317466 -0.1750808 -0.015035791 -0.088986784
000040 3d 5b 60 bd 4e 2f 7c 3d 8a a0 b6 3d 74 5a 3d be
       -0.05477451 0.06156855 0.08917339 -0.18491536

conv.2.weight f4 [20]
000000 26 67 8a 3f 54 c3 a2 3f 5e 32 97 3f 48 36 9c 3f
       1.0812728 1.271586 1.1812246 1.2204065
000010 f4 cb 8c 3f f6 57 95 3f 76 c1 98 3f 5d 62 82 3f
       1.0999742 1.1667469 1.193404 1.0186268
000020 b8 dc 91 3f 72 a4 92 3f 89 b2 88 3f 5a 5c 92 3f
       1.1395483 1.1456435 1.0679485 1.1434433
000030 9a 16 91 3f 65 c9 93 3f 28 f3 92 3f 83 ea 87 3f
       1.1335022 1.1545836 1.1480455 1.0618442
000040 42 cf ba 3f 4f 50 86 3f cc d2 8a 3f a3 3f 85 3f
       1.45945 1.0493258 1.084558 1.0410045

conv.2.bias f4 [20]
000000 a9 b1 06 be f5 31 37 3e 09 d0 17 3e 66 1c 18 3e
       -0.1315371 0.17890151 0.14825453 0.14854583
000010 6d cc 1a 3e 76 00 13 be 3a ee 16 3e 57 2a 2f 3e
       0.15117045 -0.14355645 0.14739314 0.17105995
000020 29 dd 22 3e 76 0c 0e 3e 30 e0 16 be 65 e8 1d 3e
       0.15904678 0.13871941 -0.14733958 0.15420683
000030 b8 1e 0f be 6c 10 52 3e 8f 61 1a be c0 16 03 be
       -0.13976562 0.20514077 -0.15076278 -0.12801647
000040 45 ee 14 3e 94 e3 0b be d8 5b 0c 3e bd 9e 0b be
       0.14544018 -0.13661033 0.1370691 -0.13634773

conv.2.running_mean f4 [20]
000000 c9 b4 07 3c 77 67 15 bd 39 1b 9e 3e db ae 8a bd
       0.008282849 -0.036475625 0.30880144 -0.06771632
000010 64 38 a3 3c 6e 3b 2c 3c 65 aa 5d 3e a7 74 f8 bb
       0.01992435 0.010512216 0.21647032 -0.0075822654
000020 6c eb 19 3e d1 48 c5 3d 37 d7 96 bd 62 22 8b bb
       0.15031213 0.09633029 -0.07365268 -0.004246042
000030 aa 44 fe bc 02 e9 8d bc ea 46 35 3e 12 4e b8 bc
       -0.031038601 -0.01732302 0.17702833 -0.022498164
000040 46 8e 4d bb f0 ce 5c 3d e8 c9 bd 3d f9 e7 b3 bb
       -0.003136532 0.05390829 0.09267026 -0.0054903

conv.2.running_var f4 [20]
000000 b4 c8 70 3c 66 07 40 3b 4c d8 f2 3c 29 97 2d 3b
       0.014696289 0.0029301285 0.029644154 0.0026487804
000010 d3 fc 36 3c 8c 2d 3f 3c b8 c1 c0 3c af 57 29 3c
       0.011168676 0.011668574 0.023529872 0.010335847
000020 b2 98 cd 3c c3 a6 d5 3c 12 9c 2c 3b fd 73 1a 3c
       0.025097225 0.026080495 0.0026338142 0.009427068
000030 28 98 c6 3b f7 97 0e 3c 29 29 49 3d e3 b9 ea 3b
       0.006060619 0.008703223 0.04911152 0.0071632727
000040 ea e9 f9 3b b6 26 86 3c 00 60 8e 3c 0d bf 22 3c
       0.0076267617 0.01637588 0.01737976 0.009933245

conv.3.weight f4 [1, 20, 5, 5]
000000 50 05 dd 3d 26 53 ee 3d 84 22 1f 3e e8 0f e2 3d
       0.10792029 0.11636953 0.1554051 0.1103819
000010 30 af 0c 3e b7 34 ee 3d 1a fd 95 3d 3d 6b 00 3e
       0.13738704 0.11631148 0.07323666 0.12540908
000020 e1 fe 13 3e e0 6b 10 3e 80 b6 ae 3d 73 d8 af 3d
       0.14452697 0.14103651 0.08530903 0.08586206
000030 1e f3 97 3d b9 38 2d 3d f5 8a 66 3d 81 e3 15 3e
       0.07419418 0.042290423 0.056284864 0.14637567
000040 18 06 de 3d 91 ea 15 3e e7 84 0c 3e bf 40 c9 3d
       0.10841006 0.14640261 0.13722573 0.098268025
000050 71 02 e9 3d 20 d8 2e 3e c0 58 f8 3d 84 5b 1e 3e
       0.11377419 0.17074633 0.12126303 0.15464598
000060 90 2f 43 3e 9b ca 02 bb 24 6a 2c 3d b7 88 07 3d
       0.19061112 -0.0019957188 0.04209341 0.033089366
000070 c0 89 94 3d 2c 66 72 3d 44 9f 7a bd 3c eb ad bd
       0.07252836 0.05917947 -0.061187044 -0.08492133
000080 ff ec 8e bd 29 b3 0d be e3 d6 d5 bd 71 45 51 be
       -0.06978797 -0.13837875 -0.10441377 -0.20436646
000090 e9 87 63 be 98 94 40 be 80 3d 81 be f3 5f 32 be
       -0.22219814 -0.18806684 -0.25242233 -0.17419414
0000a0 7e e9 20 be c9 81 2b be d1 56 bc bd 97 38 3a be
       -0.1571407 -0.16748728 -0.091962464 -0.1818565
0000b0 b4 0c 21 be ab f1 32 be 61 aa 45 be c9 03 2e be
       -0.15727502 -0.17475002 -0.19303276 -0.16993631
0000c0 30 ea 42 be 7e 18 2a be 4f a7 39 be 09 44 36 be
       -0.19034648 -0.16610906 -0.1813023 -0.17799391
0000d0 48 c6 06 be 97 9f 12 be b5 0e de bd 10 e7 16 be
       -0.13161576 -0.14318691 -0.10842649 -0.14736581
0000e0 b1 4a 3a be 0b 0c ef bd 0f dd 37 be f2 28 c0 bd
       -0.18192555 -0.11672219 -0.17955421 -0.0938281
0000f0 f4 d2 07 be 7d 97 e6 bd e5 45 ea bd 12 d3 ee bd
       -0.13264066 -0.11259363 -0.114391126 -0.11661352
000100 e9 33 1e be 57 d6 b6 bd 1e 3f 04 be 52 a5 4c bd
       -0.1544949 -0.08927601 -0.12914702 -0.04996235
000110 c2 1d d2 bd dd b0 f2 bd a9 d5 86 bd 11 88 56 be
       -0.10259582 -0.1185014 -0.06583721 -0.20950343
000120 dc ab 9b bd 38 3a d4 bd 09 08 56 bd 03 49 05 be
       -0.07601139 -0.10362667 -0.052253757 -0.13016133
000130 74 ac fb bd 9a 53 f6 bd 13 13 3d be 22 ec af bd
       -0.12288752 -0.120276645 -0.18464307 -0.08589961
000140 3d 37 25 be 95 0b 21 be 98 36 34 be 7a 81 11 be
       -0.16134353 -0.15727074 -0.17598951 -0.14209548
000150 cb 4d e8 bd 9e a1 1e be 98 1a cb bd 16 78 ef bd
       -0.11342963 -0.1549134 -0.09917182 -0.116928264
000160 42 24 16 be c1 5f 0c be c5 31 12 be 31 70 2e be
       -0.14662269 -0.13708402 -0.14276798 -0.17034985
000170 50 d7 49 be d3 3b 18 be b7 b4 3b be 46 2a 41 be
       -0.19711041 -0.14866571 -0.18330656 -0.18863782
000180 af 70 38 be bb bf 24 be a2 d0 29 be e8 3e 0a be
       -0.18011735 -0.16088764 -0.16583493 -0.1350056
000190 38 cf 3e be e5 63 12 be 93 38 07 be 50 50 38 be
       -0.18633735 -0.14295919 -0.13205175 -0.17999387
0001a0 53 32 41 be 7b da 15 be c9 d3 2c be c3 df 02 be
       -0.18866853 -0.14634125 -0.16877665 -0.12780671
0001b0 6f ce 2c be d9 a6 64 be 12 11 d8 bd f8 2a d9 bd
       -0.16875623 -0.22329272 -0.10550131 -0.10603899
0001c0 26 52 f1 bd 90 0f 33 be fa 6e cd bd db 39 41 be
       -0.11783247 -0.17486405 -0.10030933 -0.18869726
0001d0 bc 43 3b be 1e d7 fc bd d3 bf 1a be 08 27 2c be
       -0.18287557 -0.12345718 -0.15112238 -0.16811764
0001e0 18 b2 07 be 43 76 1b be ab 6d 45 be 76 59 d5 bd
       -0.13251531 -0.15181832 -0.19280116 -0.10417454
0001f0 56 4f 1e be 92 b6 27 3e 47 97 38 3e 98 79 37 3e
       -0.15459952 0.16378239 0.18026458 0.17917478
000200 f3 7d 1a 3e 44 31 ee 3d 48 ff ff 3d 01 08 07 3e
       0.15087108 0.116304904 0.12499863 0.13186647
000210 14 f5 28 3e 56 53 39 3e 90 dc 47 3e 14 98 b6 3d
       0.1649974 0.18098196 0.19517732 0.08915725
000220 52 cc d8 3d fa 04 f1 3d 04 16 ba 3d e0 43 90 3d
       0.10585846 0.11768527 0.090862304 0.07044196
000230 57 b4 f0 3c 06 89 bd 3c fa 9d 0c 3e 11 9e ee 3c
       0.029382868 0.023136627 0.13732138 0.029128106
000240 e6 41 a0 3d 2f 50 98 bb bc 73 bb 3d 2c 08 de 3d
       0.07825069 -0.0046482305 0.09152934 0.108414024
000250 24 2a 2c 3d f4 c1 cb 3c 01 16 59 be 86 3b fa bd
       0.042032376 0.024872757 -0.211998 -0.122183844
000260 7b 1b 48 be cb d6 3d be d3 41 29 be 4c ad 13 be
       -0.19541733 -0.18538968 -0.16529016 -0.14421576
000270 e6 c7 42 be 93 08 40 be e8 7c 35 be c2 5d 47 be
       -0.19021568 -0.18753271 -0.17723429 -0.1946936
000280 d9 57 3d be 86 34 5f be aa 8d 0e be b7 56 03 be
       -0.18490542 -0.2179738 -0.13921228 -0.12826048
000290 17 d4 33 be 74 aa f8 bd 8c d4 ad bd 1c 41 bb bd
       -0.17561375 -0.12141886 -0.08487806 -0.09143278
0002a0 2e 54 4b bc 35 6c 88 bc 4e 39 40 bd d0 4c 8d bd
       -0.012410207 -0.01665316 -0.04692965 -0.068994164
0002b0 e3 72 03 bd 2b fd 13 bd 42 44 ad bc 7c 1b 26 be
       -0.032091986 -0.03613011 -0.021150712 -0.16221422
0002c0 5c 5c 34 be 32 75 24 be 78 3c b3 bd 27 0a 29 be
       -0.17613357 -0.16060331 -0.08751768 -0.16507779
0002d0 0c be 0d be a4 97 21 be 3c 5e 04 be 93 64 1a be
       -0.13842028 -0.15780503 -0.12926573 -0.15077429
0002e0 07 c6 a2 bd 14 46 0f be 2b 5b 85 be f0 c0 5b be
       -0.07947927 -0.13991576 -0.26046118 -0.21460319
0002f0 89 2a 32 be 34 c0 1e be 06 46 23 be cb 48 68 be
       -0.17399038 -0.15503007 -0.1594468 -0.22684018
000300 33 59 33 be 41 df cd bd f5 3f 01 be 44 33 cf bd
       -0.17514496 -0.10052348 -0.12622054 -0.101172
000310 84 7c 41 be 87 ea 53 be 6f 8e 68 be b0 52 d9 bd
       -0.18895155 -0.20694934 -0.22710584 -0.106114745
000320 bd 96 49 be 53 b7 53 be 36 6a 11 be 6c de 3e be
       -0.19686408 -0.20675401 -0.14200673 -0.18639535
000330 e6 de 39 be f0 a4 29 be 32 d3 33 be f7 8b 03 be
       -0.18151435 -0.16566825 -0.17561033 -0.12846361
000340 4e 88 13 be 97 1d 14 be 8f 1c 95 be 98 3b 37 be
       -0.14407465 -0.14464413 -0.2912335 -0.17893827
000350 40 a6 ce bd 87 e7 49 be 33 03 00 be 6d 16 33 be
       -0.100903034 -0.19717227 -0.1250122 -0.17489024
000360 a5 8c f9 bd e0 34 87 bd 11 50 d9 bd e7 9d 14 be
       -0.12185029 -0.06601882 -0.106109746 -0.1451336
000370 6c 0e 11 be 80 64 52 be 8d 13 f0 bd f9 5a 49 be
       -0.14165658 -0.2054615 -0.11722479 -0.1966361
000380 84 ee 21 be f2 04 77 ba 48 60 9e bd 7a f1 7c bd
       -0.15813643 -0.0009423039 -0.07733208 -0.061753727
000390 fd 86 84 bd dc ea 0b bd 4f fd a1 bd b4 bc 99 bd
       -0.064710595 -0.034159526 -0.07909643 -0.075066954
0003a0 da 4c 84 bd 00 fe f2 bd d2 10 10 be 80 8e 8f bd
       -0.06459971 -0.11864853 -0.14068916 -0.070096016
0003b0 c4 4a 31 be de 44 0f be 6f c0 2e be f0 56 2a be
       -0.17313677 -0.13991114 -0.17065595 -0.16634727
0003c0 23 6e f6 bd 53 01 2c be 45 bd f5 bd 93 fb d6 bd
       -0.12032726 -0.1679738 -0.11998991 -0.10497203
0003d0 ff 52 23 be 40 7e 49 be 02 0e 16 be b0 7b 1e be
       -0.15949629 -0.19677067 -0.14653781 -0.1547687
0003e0 30 ed 43 be bf 26 14 be ee bb 1d 3e b5 8b 83 3d
       -0.19133449 -0.14467905 0.1540372 0.064231314
0003f0 24 e7 d2 3d a8 f2 b9 3d 28 f2 83 3d 6d ea 04 3e
       0.10297993 0.09079486 0.06442672 0.12980051
