src/caches/cache_16_20_small/param2img1.pt (torch, 184864 bytes, 19 tensors)

main.0.weight f4 [16]
0.8360335 0.8126358 0.79630965 1.068556 0.8258659 1.1298974 1.0389299 1.0398194
1.077764 1.0437697 0.98619443 1.0415182 0.916137 0.8242099 0.8351614 1.0182006
00000000: 4b06 563f e608 503f f3da 4b3f 71c6 883f
00000010: f36b 533f 7aa0 903f a8fb 843f cd18 853f
00000020: 2cf4 893f 3f9a 853f 3d77 7c3f 7850 853f
00000030: f487 6a3f 6cff 523f 23cd 553f 6654 823f

main.0.bias f4 [16]
0.13845843 0.019562725 0.13863122 0.124887295 0.08779395 0.16273543 -0.08534875 -0.066556975
-0.16734906 -0.09346173 -0.10647149 0.19946769 0.114711076 -0.0137025155 0.00838518 -0.05282968
00000000: 0cc8 0d3e 0242 a03c 58f5 0d3e e9c4 ff3d
00000010: 51cd b33d 1ea4 263e 53cb aebd 064f 88bd
00000020: 8d5d 2bbe dd68 bfbd b90d dabd 4241 4c3e
00000030: a4ed ea3d 8480 60bc fe61 093c ef63 58bd

main.0.running_mean f4 [16]
-3.0376157e-05 7.018563e-06 0.19996856 0.0014545599 0.010938078 -0.0006657942 0.47784716 0.001484956
0.021835947 -0.0007110098 0.47782123 0.0014449758 0.032763314 -2.435094e-05 0.20000543 0.0014366438
00000000: 4dd0 feb7 ff80 eb36 8fc4 4c3e eea6 be3a
00000010: a035 333c b188 2eba 62a8 f43e dba2 c23a
00000020: 4de1 b23c 0f63 3aba fca4 f43e 5865 bd3a
00000030: d332 063d 3f45 ccb7 39ce 4c3e c44d bc3a

main.0.running_var f4 [16]
9.930864e-07 9.51734e-07 1.052022e-06 0.00253814 2.8225917e-05 0.00013369878 0.080878675 0.0025331348
0.00011059546 0.00013334777 0.08087497 0.0025395486 0.00024670083 9.518477e-07 9.881528e-07 0.0025378058
00000000: 304a 8535 aa7a 7f35 3333 8d35 ec56 263b
00000010: b2c6 ec37 7e31 0c39 b8a3 a53d f302 263b
00000020: 7cef e738 45d3 0b39 c7a1 a53d 8e6e 263b
00000030: a057 8139 7a82 7f35 aca0 8435 5151 263b

main.1.weight f4 [20, 16]
0.00061283977 -0.008353257 -0.0049665775 0.09760117 -0.035933673 0.19880544 0.022281714 0.18206392
0.24104592 0.41374183 -0.014618529 -0.270017 0.070723966 0.016520083 0.001931148 0.18654427
6.468503e-05 -0.004453433 0.0013931098 0.14520375 0.018433625 -0.21093093 0.10432739 0.1828771
0.07130337 -0.22143595 -0.14747138 -0.2280648 0.22725989 0.002294755 -0.004604756 -0.13220114
-0.0077538425 -0.0061966246 -0.0034769867 0.011762401 -0.09176149 -0.06088157 -0.12556624 -0.2063664
-0.3039734 -0.16207083 0.22570619 0.10592218 -0.36197758 -0.009043745 -0.004245221 0.007631672
0.0093359975 -0.0033488174 -0.0009825908 0.022562353 0.058373414 0.32693592 -0.22397234 0.1561423
-0.21646363 0.096815966 -0.09960569 0.021917056 -0.011325965 0.0023130237 -0.0032690845 -0.27662545
-0.0075070574 -0.0077969776 -0.0026954033 -0.08659056 0.16306725 -0.29977408 -0.08051967 -0.028340975
0.21944596 -0.3002195 -0.10948244 -0.14547253 -0.18094753 -0.0050631487 -0.0023589563 -0.0036228008
0.008631716 -0.008059916 -0.0019854938 0.048857428 0.19053386 -0.03449715 0.06231864 -0.23131981
0.43431976 0.1941415 -0.0800854 0.08531737 0.19589427 -0.0023822472 0.00901857 0.06641887
-0.004131078 -0.0023247823 -0.0049893004 0.0043469784 0.006138023 -0.0386797 0.1987268 -0.105391406
0.16075471 0.05279401 0.1763009 -0.23257346 -0.048287313 -0.007123892 -0.00046076046 -0.29039153
0.0014987874 -0.0051841214 -0.0023566033 -0.22500165 0.025505453 -0.026868952 0.015415488 -0.07514107
0.047016546 -0.105524935 -0.2236559 -0.25467592 0.06696275 0.0093566645 0.0028675857 0.18806574
-0.0008946395 8.947255e-05 0.006560673 0.18679157 0.013095898 -0.106517114 0.062996715 0.31916168
0.25131318 0.1083505 -0.07703044 -0.04573612 0.028009953 0.0010329123 0.0011283656 0.11893775
-0.004981809 0.004791217 -0.007999125 -0.2809198 -0.027220773 -0.2355005 0.10110315 0.017158993
0.15837269 -0.2327391 0.15612058 0.030226015 0.0065263277 -0.00726276 0.00578433 -0.22912984
0.010494006 0.004039001 0.0079178335 -0.24574585 0.014301065 -0.12935674 0.21449193 -0.081282765
0.017249636 -0.049666945 0.14749348 -0.11948936 0.03514906 -0.0026127468 -0.002434832 -0.149223
0.005269698 0.0025467821 -0.01196509 0.045458447 0.15011336 -0.13487855 0.15616563 -0.08176735
0.19794111 -0.06425791 0.28228334 -0.23392871 -0.12288986 0.00036382888 -0.0010782281 -0.13008331
0.0037769333 0.00396043 0.0064984644 0.27734247 0.12407026 0.035216656 -0.17771597 0.18682832
0.0723226 0.008818625 0.04879661 0.25421908 -0.0779929 -0.010040907 -0.002641599 0.020888057
0.0008845963 -0.0027758316 -0.0060897227 0.15720499 0.016287148 0.11634222 0.14495263 -0.17371058
0.18625166 0.12862349 -0.15976477 0.176957 0.40883288 0.0038426395 0.0053056073 -0.14347862
0.00051566184 0.0010630888 -0.004040742 -0.14389247 -0.02289433 -0.3262127 -0.13856637 0.21412697
0.06355547 -0.2269119 0.13684647 -0.20561722 0.03083786 0.0023851201 -0.0029736897 0.08119399
0.0017746282 0.0017913731 0.0032755204 -0.098466 0.1231955 -0.1925391 -0.18098015 0.18179457
0.21417977 -0.025653135 -0.07987848 0.15531197 0.21691202 -0.0021226224 0.0043481756 0.14733447
00000000: fba6 203a 19dc 08bc acbe a2bb 1fe3 c73d
00000010: 302f 13bd a793 4b3e 2488 b63c f76e 3a3e
00000020: bed4 763e f8d5 d33e 8e82 6fbc ab3f 8abe
00000030: bad7 903d 2055 873c 931e fd3a 7605 3f3e
00000040: 83a7 8738 1bee 91bb 0299 b63a 4bb0 143e
00000050: 1d02 973c 47fe 57be 99a9 d53d 2244 3b3e
00000060: 8007 923d 1bc0 62be bd02 17be d289 69be
00000070: d1b6 683e 9a63 163b 7ee3 96bb bc5f 07be
00000080: f213 febb 0e0d cbbb 28de 63bb 16b7 403c
00000090: 73ed bbbd f45e 79bd 7094 00be b751 53be
000000a0: 67a2 9bbe e5f5 25be 861f 673e baed d83d
000000b0: 2055 b9be 372c 14bc 7f1b 8bbb 1b13 fa3b
000000c0: 03f6 183c d577 5bbb 47ca 80ba afd4 b83c
000000d0: f618 6f3d 2564 a73e 0159 65be c4e3 1f3e
000000e0: a4a8 5dbe 7347 c63d 11fe cbbd 668b b33c
000000f0: 8a90 39bc 1996 173b 233e 56bb daa1 8dbe
00000100: c3fd f5bb ca7d ffbb 5da5 30bb 6456 b1bd
00000110: 1afb 263e fd7b 99be 7fe7 a4bd 552b e8bc
00000120: 71b6 603e 5fb6 99be 5438 e0bd c0f6 14be
00000130: 4f4a 39be c5e8 a5bb b898 1abb 836c 6dbb
00000140: 0a6c 0d3c bd0d 04bc 0f1f 02bb ba1e 483d
00000150: 4f1b 433e e24c 0dbd d541 7f3d 1adf 6cbe
00000160: 295f de3e 08cd 463e d003 a4bd e0ba ae3d
00000170: 8298 483e 7a1f 1cbb a0c2 133c 9e06 883d
00000180: fe5d 87bb 605b 18bb 497d a3bb 1971 8e3b
00000190: 7821 c93b 9b6e 1ebd 0a7f 4b3e 73d7 d7bd
000001a0: e29c 243e 883e 583d 3988 343e bd27 6ebe
000001b0: ebc8 45bd 8a6f e9bb 3992 f1b9 33ae 94be
000001c0: f672 c43a 90df a9bb 3e71 1abb d566 66be
000001d0: d0f0 d03c 471c dcbc 3e91 7c3c 90e3 99bd
000001e0: 6c94 403d 751d d8bd 0d06 65be e264 82be
000001f0: c423 893d b24c 193c 1bee 3b3b 4e94 403e
00000200: 3e86 6aba 36a3 bb38 eafa d63b 4a46 3f3e
00000210: 2d90 563c a525 dabd 6c04 813d 2969 a33e
00000220: 1fac 803e dee6 dd3d 23c2 9dbd cc55 3bbd
00000230: 2175 e53c c962 873a abe5 933a a395 f33d
00000240: 713e a3bb a4ff 9c3b c30e 03bc b8d4 8fbe
00000250: 19fe debc 0b27 71be 2b0f cf3d 0491 8c3c
00000260: 732c 223e 2953 6ebe 13de 1f3e 8c9c f73c
00000270: ceda d53b 72fc edbb 7a8a bd3b 03a1 6abe
00000280: 0def 2b3c 9959 843b cdb9 013c cda4 7bbe
00000290: 044f 6a3c 1876 04be c6a3 5b3e 9477 a6bd
000002a0: 1c4f 8d3c 916f 4bbd 8808 173e d6b6 f4bd
000002b0: 76f8 0f3d 9e3a 2bbb b491 1fbb eacd 18be
000002c0: 6ead ac3b eae7 263b 3a09 44bc a332 3a3d
000002d0: 51b7 193e 9a1d 0abe e2e9 1f3e a475 a7bd
000002e0: 13b1 4a3e a799 83bd 7187 903e 028b 6fbe
000002f0: aead fbbd 49c0 be39 5553 8dba 8f34 05be
00000300: 6d86 773b 7fc6 813b 12f1 d43b d5ff 8d3e
00000310: 8c18 fe3d 573f 103d 2dfb 35be ec4f 3f3e
00000320: df1d 943d fe7b 103c f4de 473d 0129 823e
00000330: beba 9fbd 9e82 24bc ad1e 2dbb 6e1d ab3c
00000340: 41e4 673a baea 35bb 4c8c c7bb 58fa 203e
00000350: a06c 853c d444 ee3d 766e 143e 30e1 31be
00000360: c1b8 3e3e e0b5 033e 6099 23be 3734 353e
00000370: 8b52 d13e cbd4 7b3b a9da ad3b 0fec 12be
00000380: 7b2d 073a 5757 8b3a 3368 84bb 8c58 13be
00000390: e48c bbbc 5a05 a7be 58e4 0dbe 1a44 5b3e
000003a0: 5f29 823d 985b 68be 7b21 0c3e 528d 52be
000003b0: ae9f fc3c ad4f 1c3b 3ce2 42bb 0949 a63d
000003c0: a49a e83a 82cc ea3a 1daa 563b 8ba8 c9bd
000003d0: ec4d fc3d f828 45be dc52 39be 5b28 3a3e
000003e0: f151 5b3e 8626 d2bc 5497 a3bd 1a0a 1f3e
000003f0: 2f1e 5e3e b21b 0bbb 247b 8e3b d9de 163e

main.1.bias f4 [20]
-0.4241313 0.36901897 0.34947205 0.3723931 -0.14165536 -0.25328854 0.10947764 -0.20918031
-0.37977818 -0.08999401 0.035271265 -0.24049428 0.013441779 0.25916937 -0.18124913 0.2524082
-0.5327902 0.15337124 -0.22571225 0.21441819
00000000: bd27 d9be 0ef0 bc3e 00ee b23e 4faa be3e
00000010: 1a0e 11be 09af 81be d035 e03d 5d33 56be
00000020: 4972 c2be c84e b8bd 9a78 103d 2244 76be
00000030: e83a 5c3c d9b1 843e 5f99 39be a63b 813e
00000040: f064 08bf 5a0d 1d3e 1d21 67be 7190 5b3e

main.3.weight f4 [20]
1.0167186 1.0013899 0.9811151 1.0935975 0.92250454 1.0032039 1.0002649 0.96729636
0.964413 0.9606719 0.95009845 0.94425774 0.96243626 1.0607926 1.0118128 1.0024195
0.9026335 1.0326605 0.8975197 1.0018994
00000000: d623 823f 8b2d 803f 5c2a 7b3f 01fb 8b3f
00000010: 4229 6c3f fc68 803f ae08 803f bca0 773f
00000020: c5e3 763f 98ee 753f a739 733f e0ba 713f
00000030: 3962 763f 0dc8 873f 1583 813f 484f 803f
00000040: fd12 673f 382e 843f dac3 653f 3d3e 803f

main.3.bias f4 [20]
-0.14085844 -0.06702117 -0.21863559 -0.12978466 -0.10079048 0.0069600944 0.0043074205 -0.091291234
-0.06947709 -0.10369874 -0.216834 -0.011670965 -0.11208535 -0.037248217 -0.25750616 -0.1378411
-0.13969597 -0.073785536 -0.10527619 0.038634818
00000000: 323d 10be 6542 89bd 02e2 5fbe 45e6 04be
00000010: 3d6b cebd 8111 e43b 4325 8d3b e6f6 babd
00000020: 014a 8ebd 0160 d4bd bb09 5ebe 9337 3fbc
00000030: 018d e5bd 9691 18bd d9d7 83be 3826 0dbe
00000040: 760c 0fbe df1c 97bd 0b9b d7bd 8b3f 1e3d

main.3.running_mean f4 [20]
-0.017271888 0.4241459 0.49938926 0.5583683 0.13650373 0.10771031 0.2554821 0.033599075
-0.018012451 0.16980395 0.22107089 0.03807526 0.31954637 0.45355824 0.042108744 0.39003858
-0.06589852 0.36844417 0.058916286 0.5965866
00000000: c67d 8dbc a729 d93e f3af ff3e 3af1 0e3f
00000010: a2c7 0b3e 3997 dc3d 8dce 823e 2f9f 093d
00000020: d98e 93bc 16e1 2d3e 6860 623e cef4 1b3d
00000030: 959b a33e c938 e83e 387a 2c3d 23b3 c73e
00000040: cef5 86bd b7a4 bc3e 3452 713d e6b9 183f

main.3.running_var f4 [20]
0.09376129 0.21070404 0.35368484 0.25962517 0.17783053 0.15007396 0.2350052 0.0642333
0.0646461 0.23904529 0.25236544 0.1364638 0.28650448 0.2358311 0.07679205 0.2879282
0.057260692 0.23311464 0.17429185 0.8526034
00000000: eb05 c03d cdc2 573e 2e16 b53e 97ed 843e
00000010: 3519 363e fdac 193e 34a5 703e c08c 833d
00000020: 2d65 843d 4ac8 743e 0b36 813e 2bbd 0b3e
00000030: b7b0 923e b57d 713e 2645 9d3d 536b 933e
00000040: 308a 6a3d 9bb5 6e3e 9079 323e 3744 5a3f

main.4.weight f4 [2048, 20]
0.088033 -0.016768403 0.1573084 -0.117664516 -0.05087344 0.24834552 0.12112622 0.120388225
0.27097294 0.139893 -0.1267906 -0.21952699 0.22510734 -0.022168005 -0.14051622 -0.1047924
0.1230008 -0.03376178 -0.21550412 0.0069412445 -0.0013654159 -0.12712081 0.14284196 0.08341714
0.14190492 0.055555023 -0.0058379755 0.15141432 0.0019454131 0.04688253 -0.12997647 0.16289139
-0.19173352 -0.045160566 -0.008387015 -0.044698324 -0.054518867 -0.014119672 0.12394255 -0.09673931
0.101329036 0.142681 0.15233205 0.028292362 -0.06810076 -0.011512994 -0.14675611 0.05397018
-0.008049001 0.08512453 0.16010574 -0.12955655 -0.059004467 -0.010519248 -0.112322286 0.2213921
0.12023953 0.0076979795 0.26946646 0.090624094 -0.1340283 -0.09624044 0.10299015 0.14254929
-0.16189675 0.0040083346 -0.18298966 -0.16286618 -0.036318216 -0.10731958 -0.2528321 -0.048009582
0.09865125 0.14652735 -0.1523721 -0.14741884 0.010313009 0.07531393 0.012384812 -0.31371793
-0.037206855 -0.04799811 0.03498546 0.047786854 -0.129897 -0.19729914 -0.07634875 0.244814
-0.103731565 -0.16215397 0.074603856 -0.00043799932 0.0068138195 0.06729636 0.11216564 -0.13657846
0.06895039 -0.04877269 -0.033632804 -0.26855063 0.2952431 -0.16167279 -0.1750454 -0.13309197
0.03508852 -0.16409838 -0.2898165 0.10253349 -0.13339472 0.16506468 -0.13556032 0.10341836
-0.12253483 0.0071016992 -0.24021085 0.24077241 0.13870274 0.1312189 -0.115775876 -0.064001575
-0.10804123 -0.15714504 0.14946434 0.11867275 0.043412108 0.14939646 0.10939994 -0.14719689
0.07577145 -0.0792876 -0.07982939 -0.05506356 -0.061558817 -0.095928214 -0.14205104 0.1428006
0.007548097 0.19771253 -0.11243406 0.011563533 -0.050059635 0.058045574 -0.19712378 -0.008995719
-0.10339501 -0.052375965 0.11051316 -0.12595919 -0.070424944 -0.022173787 -0.14141281 -0.09716111
-0.13424264 0.12037139 -0.10216212 0.097707234 -0.1398305 -0.058881428 -0.13287367 -0.119239405
-0.10904007 0.12464306 -0.10537725 0.07101846 0.03809867 -0.089722805 0.16768709 0.024162687
-0.13573682 -0.11151541 -0.06334191 0.033867422 0.0032171148 -0.14236644 0.16532625 -0.09019358
-0.017918183 0.053321864 -0.11423718 0.013121132 -0.2028351 -0.121740244 0.055674687 -0.1282281
-0.1598564 0.13662562 -0.16943735 -0.10354871 0.1878394 -0.056384653 -0.160247 0.16153198
0.10392884 0.07612421 -0.18696724 0.059205916 -0.2846075 -0.09208414 -0.03338494 0.06577071
0.088265695 -0.010708661 0.028627343 -0.1268983 -0.14061046 0.041687082 0.17403035 0.109062545
-0.07551134 -0.0328377 0.09738713 0.0510192 -0.121379085 0.06523784 0.09248383 0.08209033
-0.0657147 -0.08122109 0.14426754 -0.024212342 -0.12468779 0.019562285 -0.14078249 0.18565385
0.07800821 -0.008678806 0.112874374 -0.036899816 0.03454081 -0.15683448 -0.20293713 -0.017307118
0.0637215 -0.07314108 0.06730641 0.154321 0.013410005 0.004802371 0.117714 0.09395941
0.10794205 -0.22116457 0.115630224 -0.15382689 -0.18648595 -0.16705179 -0.09465772 -0.16221453
0.16619949 0.18850689 0.20186095 -0.07592282 0.025390679 0.06403758 -0.024710411 0.16519377
00000000: a54a b43d e45d 89bc 7415 213e 18fa f0bd
00000010: ab60 50bd 4a4e 7e3e 0611 f83d 1a8e f63d
00000020: f7bc 8a3e 1c40 0f3e 65d5 01be afcb 60be
00000030: 8a82 663e ad99 b5bc 7ce3 0fbe 669d d6bd
00000040: d8e7 fb3d cb49 0abd 1dad 5cbe 6173 e33b
00000050: c1f7 b2ba f52b 02be 2a45 123e 9bd6 aa3d
00000060: 864f 113e aa8d 633d 7d4c bfbb 5b0c 1b3e
00000070: 3bfd fe3a e507 403d 8d18 05be 00cd 263e
00000080: cb55 44be 49fa 38bd b169 09bc 9715 37bd
00000090: 2d4f 5fbd 3256 67bc 97d5 fd3d 421f c6bd
000000a0: 9985 cf3d f81a 123e effc 1b3e 62c5 e73c
000000b0: 6978 8bbd ffa0 3cbc 3c47 16be d60f 5d3d
000000c0: f5df 03bc c555 ae3d c2f2 233e 79aa 04be
000000d0: abae 71bd ed58 2cbc 3a09 e6bd 9cb4 623e
000000e0: 2540 f63d 553f fc3b 82f7 893e 2099 b93d
000000f0: b73e 09be b519 c5bd 80ec d23d 71f8 113e
00000100: 43c8 25be 5958 833b a461 3bbe 64c6 26be
00000110: 69c2 14bd 5eca dbbd 3673 81be b2a5 44bd
00000120: ab09 ca3d 440b 163e 6f07 1cbe f7f4 16be
00000130: e5f7 283c 313e 9a3d abe9 4a3c a39f a0be
00000140: 3766 18bd ab99 44bd ea4c 0f3d 26bc 433d
00000150: b803 05be c908 4abe bc5c 9cbd 85b0 7a3e
00000160: 3771 d4bd b10b 26be e8c9 983d 46a3 e5b9
00000170: 7646 df3b add2 893d 19b7 e53d 39db 0bbe
00000180: dd35 8d3d dfc5 47bd 8dc2 09bd 787f 89be
00000190: 1b2a 973e 8d8d 25be 1a3f 33be 4349 08be
000001a0: fbb8 0f3d 6809 28be d462 94be 14fd d13d
000001b0: a098 08be b706 293e 53d0 0abe 01cd d33d
000001c0: 8af3 fabd 5fb5 e83b d5f9 75be 0b8d 763e
000001d0: 1708 0e3e 3f5e 063e e71b edbd 4213 83bd
000001e0: b844 ddbd a1ea 20be 2e0d 193e b30a f33d
000001f0: e5d0 313d 63fb 183e 130d e03d c8ba 16be
00000200: 102e 9b3d 8a61 a2bd 977d a3bd 548a 61bd
00000210: 1925 7cbd 0376 c4bd d475 11be 523a 123e
00000220: 0756 f73b 2775 4a3e d443 e6bd f974 3d3c
00000230: 550b 4dbd 32c1 6d3d d1da 49be c862 13bc
00000240: c3c0 d3bd 2e88 56bd b954 e23d 72fb 00be
00000250: f43a 90bd cda5 b5bc 85ce 10be 67fc c6bd
00000260: e776 09be 4685 f63d 603a d1bd bb1a c83d
00000270: ba2f 0fbe a72d 71bd 0910 08be ca33 f4bd
00000280: 6650 dfbd dc44 ff3d 07d0 d7bd 2072 913d
00000290: 5a0d 1c3d 97c0 b7bd 2ab6 2b3e d4f0 c53c
000002a0: 98fe 0abe 3162 e4bd 67b9 81bd 91b8 0a3d
000002b0: 3bd6 523b 82c8 11be 494b 293e 69b7 b8bd
000002c0: 27c9 92bc 0768 5a3d 2ff5 e9bd 04fa 563c
000002d0: 01b4 4fbe f352 f9bd 240b 643d 3a4e 03be
000002e0: 65b1 23be 96e7 0b3e fc80 2dbe 5911 d4bd
000002f0: f958 403e 98f3 66bd ca17 24be a468 253e
00000300: a5d8 d43d 03e7 9b3d 5774 3fbe e781 723d
00000310: 13b8 91be 9c96 bcbd a6be 08bd cbb2 863d
00000320: a5c4 b43d 6173 2fbc e483 ea3c a1f1 01be
00000330: 30fc 0fbe 13c0 2a3d 0335 323e 2f5c df3d
00000340: b0a5 9abd d380 06bd e772 c73d 82f9 503d
00000350: 9995 f8bd 6b9b 853d 2a68 bd3d fa1e a83d
00000360: 6e95 86bd 3e57 a6bd dfba 133e f658 c6bc
00000370: 505c ffbd 1641 a03c 4929 10be 0b1c 3e3e
00000380: c5c2 9f3d 8d31 0ebc ae2a e73d 4324 17bd
00000390: aa7a 0d3d 3899 20be c0ce 4fbe a8c7 8dbc
000003a0: 6b80 823d feca 95bd f1d7 893d 5306 1e3e
000003b0: a3b5 5b3c 355d 9d3b 0a14 f13d cb6d c03d
000003c0: b910 dd3d f778 62be 8acf ec3d cc84 1dbe
000003d0: 2cf6 3ebe a00f 2bbe e8db c1bd 911b 26be
000003e0: 3330 2a3e f307 413e a3b4 4e3e 6c7d 9bbd
000003f0: 1d00 d03c 2226 833d 7d6d cabc 8e28 293e

main.4.bias f4 [2048]
-0.09235205 -0.15421356 -0.23264924 -0.00015547489 -0.08563456 -0.15586534 -0.11341376 -0.21556596
0.016037265 0.010288017 -0.1950972 0.041577056 0.09821535 -0.047645874 0.20008041 -0.16122875
-0.13976943 -0.067160144 0.04209798 -0.049327847 -0.16508237 0.09031564 -0.030630823 -0.19084014
-0.15099499 -0.087240994 -0.17001992 0.02905662 -0.0006723818 -0.21995346 0.03201511 -0.13215226
-0.24487835 -0.15077677 -0.15351678 -0.123080924 -0.11235026 -0.18918653 -0.09735166 -0.083214544
0.06433564 -0.27699214 0.021005196 0.0665025 0.11143438 0.098758414 0.002037393 0.05076784
-0.04679047 0.081292585 -0.20778503 -0.12164064 -0.18969987 0.11967754 -0.29248908 0.13965026
-0.2539517 -0.025461465 -0.2067804 0.04801606 -0.017705228 0.09655005 -0.1939603 -0.036935102
0.0729139 -0.21534169 -0.26456848 -0.078187466 0.12601906 0.085243724 -0.0034935374 -0.16399138
-0.04693804 0.11588343 0.10383851 -0.1768407 -0.21880111 -0.14389633 -0.13793747 0.13714054
0.106085 0.17044592 -0.093125254 -0.09377486 -0.15953384 -0.003064804 -0.16219415 0.050057538
-0.08928209 -0.043086823 -0.004175334 0.06964208 0.22104664 -0.20472984 -0.19091527 0.13029994
0.11678245 -0.061474763 0.1699307 -0.11058403 0.07169918 0.09420131 -0.12182686 -0.1498716
-0.059776496 0.057627637 0.15517356 -0.044170164 -0.030377816 -0.05164815 -0.22891825 -0.039171405
0.12332156 0.10096623 0.062923074 0.0046486817 0.048831355 -0.16806237 0.14828981 -0.078000925
0.10964339 -0.26728913 -0.16028766 -0.008387472 -0.1809975 0.067662574 0.21121202 0.21936515
0.13575764 -0.17315224 -0.26080462 0.067754604 -0.02982493 0.15767574 -0.031125106 -0.19200276
-0.22561164 0.08283686 0.19386321 0.15868033 -0.11093594 -0.15010864 0.029233618 -0.20773345
-0.058152344 -0.20377928 0.063503504 -0.009462782 0.033161562 -0.069440626 -0.018637307 -0.046371825
-0.03544081 0.09903208 -0.016452821 -0.116614446 -0.032795697 -0.12958178 -0.15950213 0.0570484
0.0031458093 0.106021374 -0.05145507 -0.17900532 0.10647886 -0.033376966 -0.04370773 0.16343813
-0.01994067 -0.04214831 0.0067749284 0.0031476507 -0.0691966 0.022771657 0.005098906 -0.23262888
-0.12840371 -0.1558806 -0.19739686 -0.12437789 -0.12173143 0.13193008 -0.1344634 -0.08477158
0.06519868 -0.06640871 -0.18498018 0.15970954 -0.05058707 -0.07370214 0.19404437 0.26097474
0.2655652 -0.11400266 -0.15192634 0.12456418 -0.12714869 -0.19016851 0.13016431 0.19097295
-0.13984697 0.08971616 0.14766042 0.11553317 -0.11271869 -0.029656243 -0.0701326 0.030248202
-0.04600483 0.12958524 0.021857042 -0.1399078 0.12639584 0.08301506 0.026418367 0.08065961
0.03910215 0.0011400942 -0.14417073 -0.043572344 -0.06452129 0.16687086 0.22768144 -0.028454455
-0.050535176 0.054704554 -0.13895825 -0.08822204 -0.06893824 0.09323477 -0.11762516 -0.21479821
-0.037101068 -0.03179624 -0.10687183 0.15494768 -0.014431554 0.101034835 -0.19189939 0.118191876
-0.064363346 0.08219427 -0.20571376 0.18974839 -0.14154877 0.1692889 -0.18999657 -0.087968774
0.023894455 0.03606253 0.005737391 -0.21828555 -0.03974881 -0.19149794 0.00027651258 0.197528
00000000: 1223 bdbd 29ea 1dbe 9a3b 6ebe f906 23b9
00000010: 2c61 afbd 2a9b 1fbe 7945 e8bd 53bd 5cbe
00000020: 9560 833c 128f 283c 8fc7 47be b44c 2a3d
00000030: 2125 c93d 5228 43bd e1e1 4c3e 2619 25be
00000040: b81f 0fbe 428b 89bd ee6e 2c3d ff0b 4abd
00000050: 5a0b 29be 68f7 b83d 7eed fabc 996b 43be
00000060: 6e9e 1abe 68ab b2bd b419 2ebe 2608 ee3c
00000070: c742 30ba 7b3b 61be 4722 033d ec52 07be
00000080: 64c1 7abe 3a65 1abe 8133 1dbe da11 fcbd
00000090: e517 e6bd 1dba 41be 4f60 c7bd 636c aabd
000000a0: 67c2 833d ead1 8dbe 1713 ac3c 7632 883d
000000b0: b537 e43d da41 ca3d c885 053b f0f1 4f3d
000000c0: 5da7 3fbd ba7c a63d 99c5 54be ba1e f9bd
000000d0: af40 42be 8019 f53d 21c1 95be 7a00 0f3e
000000e0: f505 82be 9094 d0bc 3ebe 53be 7dac 443d
000000f0: 8e0a 91bc 08bc c53d 879d 46be 4349 17bd
00000100: e253 953d 8882 5cbe 8575 87be c020 a0bd
00000110: 240b 013e 4394 ae3d d5f3 64bb 5bed 27be
00000120: 1a42 40bd 4b54 ed3d 49a9 d43d ba15 35be
00000130: 660d 60be 8f59 13be 7b3f 0dbe 926e 0c3e
00000140: 1843 d93d 6089 2e3e 74b8 bebd 090d c0bd
00000150: d75c 23be e1da 48bb 3916 26be 2209 4d3d
00000160: 87d9 b6bd cf7b 30bd 3dd1 88bb 82a0 8e3d
00000170: 0d5a 623e b3a4 51be 4b7f 43be 596d 053e
00000180: a32b ef3d f6cc 7bbd 5002 2e3e e179 e2bd
00000190: 05d7 923d 9eec c03d 5c80 f9bd f177 19be
000001a0: 33d8 74bd f50a 6c3d d1e5 1e3e c6eb 34bd
000001b0: e6da f8bc 038d 53bd 8c69 6abe 3272 20bd
000001c0: 0490 fc3d 62c7 ce3d d0dd 803d f853 983b
000001d0: 6303 483d 8b18 2cbe 49d9 173e f3be 9fbd
000001e0: b78c e03d 1fda 88be 7322 24be 9b6b 09bc
000001f0: 6957 39be ad92 8a3d f747 583e 42a1 603e
00000200: 0d04 0b3e d24e 31be 2f88 85be edc2 8a3d
00000210: 6953 f4bc c075 213e 14fa febc 5f9c 44be
00000220: bd06 67be 5fa6 a93d 1484 463e 197d 223e
00000230: 6232 e3bd 14b6 19be 577b ef3c 14b8 54be
00000240: 2731 6ebd 84ab 50be 200e 823d c909 1bbc
00000250: 6bd4 073d e336 8ebd 44ad 98bc 62f0 3dbd
00000260: 622a 11bd 55d1 ca3d 11c8 86bc 8ed3 eebd
00000270: c854 06bd 16b1 04be 8754 23be 95ab 693d
00000280: ec29 4e3b bc21 d93d 8dc2 52bd 2c4d 37be
00000290: 9711 da3d 49b6 08bd e006 33bd 535c 273e
000002a0: 9e5a a3bc b5a3 2cbd 3800 de3b d148 4e3b
000002b0: f2b6 8dbd a08b ba3c b914 a73b 4436 6ebe
000002c0: 437c 03be 2a9f 1fbe 6722 4abe d6b9 febd
000002d0: 544e f9bd ae18 073e c6b0 09be b99c adbd
000002e0: e386 853d 4a01 88bd 726b 3dbe e68a 233e
000002f0: 6334 4fbd 26f1 96bd 91b3 463e 7b9e 853e
00000300: 29f8 873e 3a7a e9bd 9492 1bbe 811b ff3d
00000310: 4433 02be 89bb 42be cb49 053e 6a8e 433e
00000320: 0b34 0fbe 1bbd b73d 4b34 173e a89c ec3d
00000330: 0ed9 e6bd a6f1 f2bc aea1 8fbd 14cb f73c
00000340: 906f 3cbd feb1 043e 8a0d b33c fe43 0fbe
00000350: e96d 013e cd03 aa3d 556b d83c de30 a53d
00000360: 9329 203d 376f 953a 7ea1 13be ea78 32bd
00000370: bd23 84bd 32e0 2a3e 5325 693e 5119 e9bc
00000380: f9fd 4ebd e211 603d 124b 0ebe c2ad b4bd
00000390: 7e2f 8dbd dff1 be3d 76e5 f0bd 10f4 5bbe
000003a0: 4af7 17bd c63c 02bd 9edf dabd 9baa 1e3e
000003b0: 5372 6cbc 5aeb ce3d 4681 44be 950e f23d
000003c0: eed0 83bd 7855 a83d a1a6 52be 674d 423e
000003d0: 29f2 10be 125a 2d3e 768e 42be f928 b4bd
000003e0: 4ebe c33c 4eb6 133d b900 bc3b 3f86 5fbe
000003f0: a6cf 22bd 0918 44be e4f8 9039 c844 4a3e

conv.0.weight f4 [20, 1, 5, 5]
-0.21625987 -0.113025256 -0.07761526 -0.10561329 0.02208347 -0.13103071 0.08034186 0.00034625723
0.090205595 -0.09371594 0.007976717 0.060647275 -0.061030325 0.023517987 -0.052811246 -0.10151216
0.13082601 0.14471133 0.1564955 0.09507142 -0.20628601 -0.035564035 -0.07183748 0.062356394
0.029142885 -0.116668895 -0.06378497 -0.072253674 0.08013032 -0.078825325 -0.05597668 -0.08362101
-0.1620927 0.07190853 -0.09489402 -0.0409305 -0.025428606 -0.1763895 -0.03382714 -0.11399066
-0.057778697 0.15278831 0.0373144 0.033399332 0.042128492 -0.12326046 -0.06769763 0.06557875
-0.041376404 -2.1546026e-05 -0.08998051 0.006983703 -0.121599995 -0.20179977 -0.07908743 -0.1154111
-0.07803927 -0.28158653 -0.27845117 0.07964551 -0.12355949 -0.050511595 -0.056083933 -0.08462436
0.17309721 0.18810083 -0.0064529576 -0.123451695 -0.027469084 -0.0037347556 0.08977153 -0.06167221
-0.008896648 0.11078411 0.099251814 0.14720535 0.17427039 -0.062210605 0.15002741 0.121372275
0.1650065 0.033030357 -0.05887145 0.15903951 0.071764864 0.119968265 0.043072827 -0.038661566
0.06250256 -0.045148358 -0.07133424 -0.14496054 -0.085424796 -0.07687322 -0.16952486 -0.26451686
-0.0038516116 -0.17799708 -0.23657233 -0.19321175 0.10889976 0.08552693 0.037527986 0.15712488
0.054617275 -0.008445367 0.09198891 0.055158075 0.046096537 0.03938151 -0.040006377 -0.058906596
-0.044784777 -0.10390784 -0.13639961 -0.14773941 -0.1854315 0.018007517 -0.2589106 -0.20593795
-0.059300706 -0.21503434 -0.06926943 -0.11786423 -0.21617989 -0.1070007 -0.11003586 0.15259379
-0.11850419 -0.3124994 -0.13088281 -0.097388975 0.17940958 0.10234937 -0.30842134 -0.11729313
0.02157903 0.0795678 0.027467301 -0.20921324 -0.22356369 -0.09537717 0.16997373 -0.10541321
0.15835766 -0.031862665 -0.11078279 0.016038898 0.017976886 -0.04723173 0.08322104 0.0850812
0.1418745 0.036687728 -0.030089498 0.09209685 0.09636614 -0.103239045 -0.11803534 -0.08445361
0.07764733 0.02732569 0.02727053 -0.04434389 -0.14595911 -0.078533426 0.041844677 -0.2285224
-0.22169103 -0.049292527 0.020406337 -0.18122666 -0.1346691 -0.23369047 -0.12523901 -0.1918109
-0.22793745 -0.07055078 -0.13676675 -0.18349911 -0.010759247 -0.04627175 -0.081379145 0.047443278
0.123932354 0.08043291 0.13105659 0.16193986 0.16866527 0.054547396 -0.023712719 0.2486006
0.20986478 0.025820486 0.17458509 0.08927832 0.15313919 0.13953553 -0.0040960764 0.02177799
0.05450479 -0.10769034 -0.038242478 -0.09676431 0.03854403 0.0019264272 0.00084745954 -0.24649195
0.03756497 0.06380386 -0.24757671 0.08600883 0.09902408 -0.012139322 0.1327167 -0.05675542
0.0016502182 0.08263846 0.170147 0.2324932 -0.06582201 -0.01341123 0.22335333 0.28524372
0.17505065 0.21327212 0.17490448 0.10370956 0.027815882 0.17649737 -0.05854274 0.10292102
0.12960812 0.05539067 -0.0069439257 -0.06941599 -0.14536089 -0.15387376 -0.09989739 -0.016598176
-0.035397302 -0.23394929 -0.2888951 -0.09390657 -0.18780838 0.06055744 -0.2612938 -0.19561565
0.06554517 -0.07239347 0.15900874 0.13996843 0.053068444 0.07046664 0.2027898 0.08771813
00000000: 3a73 5dbe c979 e7bd c0f4 9ebd c84b d8bd
00000010: 65e8 b43c ea2c 06be 468a a43d dc89 b539
00000020: b6bd b83d 25ee bfbd c7b0 023c 4769 783d
00000030: effa 79bd cba8 c03c 9b50 58bd 9be5 cfbd
00000040: 41f7 053e 352f 143e 5b40 203e ceb4 c23d
00000050: a43c 53be 98ab 11bd 871f 93bd 6b69 7f3d
00000060: 0fbd ee3c 1af0 eebd b2a1 82bd bcf9 93bd
00000070: 5d1b a43d 2c6f a1bd ce47 65bd 7e41 abbd
00000080: a1fb 25be c844 933d cc57 c2bd bda6 27bd
00000090: a74f d0bc 739f 34be 548e 0abd ef73 e9bd
000000a0: 5ba9 6cbd 8a74 1c3e fcd6 183d bdcd 083d
000000b0: ed8e 2c3d fb6f fcbd 0ea5 8abd 274e 863d
000000c0: 4e7a 29bd bdbd b4b7 b447 b8bd 8cd7 e43b
000000d0: 6b09 f9bd 99a4 4ebe 97f8 a1bd a85c ecbd
000000e0: 0ed3 9fbd 1c2c 90be 2791 8ebe 2f1d a33d
000000f0: c20c fdbd 3fe5 4ebd 44b8 65bd 894f adbd
00000100: 6540 313e 819d 403e 5573 d3bb 3ed4 fcbd
00000110: d806 e1bc cdc2 74bb 23da b73d 009c 7cbd
00000120: 3fc3 11bc c8e2 e23d 8944 cb3d 00bd 163e
00000130: f073 323e 8cd0 7ebd c9a0 193e 0792 f83d
00000140: 77f7 283e d74a 073d 3123 71bd 41db 223e
00000150: 75f9 923d ecb1 f53d 226d 303d 975b 1ebd
00000160: 5801 803d 7ced 38bd b017 92bd 8970 14be
00000170: 32f3 aebd b56f 9dbd ed97 2dbe c16e 87be
00000180: 526b 7cbb de44 36be 0440 72be 4dd9 45be
00000190: d606 df3d be28 af3d f2b6 193d 58e5 203e
000001a0: 5db6 5f3d 705e 0abc af64 bc3d 6fed 613d
000001b0: b9cf 3c3d 824e 213d badd 23bd 0b48 71bd
000001c0: 3e70 37bd a2cd d4bd 57ac 0bbe 0049 17be
000001d0: c1e1 3dbe 8084 933c ee8f 84be 66e1 52be
000001e0: 4ce5 72bd f631 5cbe 22dd 8dbd cd62 f1bd
000001f0: 435e 5dbe 2f23 dbbd 7b5a e1bd 8c41 1c3e
00000200: 53b2 f2bd ecff 9fbe 2506 06be df73 c7bd
00000210: 25b7 373e 8c9c d13d 67e9 9dbe 6137 f0bd
00000220: 82c6 b03c 71f4 a23d 1b03 e13c ff3b 56be
00000230: e1ed 64be 1b55 c3bd 980d 2e3e e2e2 d7bd
00000240: 8328 223e 6d82 02bd 16e2 e2bd 0264 833c
00000250: 4344 933c 0f76 41bd cb6f aa3d 0d3f ae3d
00000260: 8d47 113e df45 163d 407e f6bc 469d bc3d
00000270: 9c5b c53d fe6e d3bd 83bc f1bd 04f6 acbd
00000280: 9005 9f3d 20da df3c 7266 df3c f0a1 35bd
00000290: 4e76 15be 22d6 a0bd 5365 2b3d c701 6abe
000002a0: f902 63be f6e6 49bd 312b a73c 7b93 39be
000002b0: b2e6 09be 8e4c 6fbe a83e 00be 146a 44be
000002c0: 6f68 69be ed7c 90bd 950c 0cbe 31e7 3bbe
000002d0: 8d47 30bc 7287 3dbd 1caa a6bd e253 423d
000002e0: 3fd0 fd3d 02ba a43d b333 063e 90d3 253e
000002f0: 97b6 2c3e 176d 5f3d 2d41 c2bc 2891 7e3e
00000300: cbe6 563e 7c85 d33c 6fc6 323e 8dd7 b63d
00000310: 85d0 1c3e 67e2 0e3e 6138 86bb c167 b23c
00000320: 6a40 5f3d c18c dcbd 25a4 1cbd 5e2c c6bd
00000330: 58e0 1d3d 2c80 fc3a 0c28 5e3a 6368 7cbe
00000340: badd 193d 99ab 823d c084 7dbe 6625 b03d
00000350: 23cd ca3d 02e4 46bc e3e6 073e 5f78 68bd
00000360: 224c d83a 5a3e a93d 043b 2e3e b312 6e3e
00000370: b1cd 86bd c7ba 5bbc bcb6 643e 770b 923e
00000380: 7a40 333e 0264 5a3e 291a 333e ae65 d43d
00000390: 22de e33c babb 343e 83ca 6fbd 41c8 d23d
000003a0: feb7 043e 54e1 623d df89 e3bb f829 8ebd
000003b0: 7cd9 14be 1591 1dbe 0197 ccbd e6f8 87bc
000003c0: c3fc 10bd 6790 6fbe 0fea 93be 1652 c0bd
000003d0: d750 40be 140b 783d 4dc8 85be 784f 48be
000003e0: 8c3c 863d 0743 94bd 30d3 223e e253 0f3e
000003f0: 4c5e 593d d050 903d 21a8 4f3e 90a5 b33d

conv.0.bias f4 [20]
0.1997393 -0.23515303 -0.14994155 -0.1141026 -0.044977117 0.06173661 -0.28110233 0.043132223
-0.15457787 -0.20699002 -0.16035119 -0.013299596 0.22441855 -0.0914524 0.05910552 -0.01561361
0.059680633 0.10167806 0.07082903 -0.1570201
00000000: 7688 4c3e f5cb 70be 478a 19be a0ae e9bd
00000010: ed39 38bd 87df 7c3d a5ec 8fbe 6aab 303d
00000020: a949 1ebe 31f5 53be 1a33 24be 8ce6 59bc
00000030: facd 653e 654b bbbd a118 723d 3ad0 7fbc
00000040: ae73 743d 963c d03d cf0e 913d e1c9 20be

conv.2.weight f4 [20]
1.0864809 1.0569597 1.1257789 1.2107556 1.1188116 1.3515992 1.0798218 1.1053951
1.0595734 1.1245369 1.1713853 1.089384 1.0603151 1.0507225 0.9940228 1.1999155
1.1472132 1.0262898 1.0439124 1.0628706
00000000: ce11 8b3f 754a 873f 8619 903f 0afa 9a3f
00000010: 3835 8f3f 3401 ad3f 9a37 8a3f 967d 8d3f
00000020: 1aa0 873f d3f0 8f3f f4ef 953f ef70 8b3f
00000030: 68b8 873f 137e 863f 4778 7e3f d596 993f
00000040: e2d7 923f 775d 833f ec9e 853f 250c 883f

conv.2.bias f4 [20]
0.20207544 -0.18941157 0.17461255 0.1881111 -0.14148663 0.19473667 -0.15269528 -0.15202956
-0.17044751 -0.15926094 0.31985736 0.15795214 0.15229465 -0.13801347 0.15331343 0.19960156
-0.15054275 -0.12822606 -0.14058565 -0.13985682
00000000: ddec 4e3e 1bf5 41be a2cd 323e 32a0 403e
00000010: dfe1 10be 0d69 473e 275c 1cbe a3ad 1bbe
00000020: cb89 2ebe 4d15 23be 58c4 a33e 35be 213e
00000030: 21f3 1b3e 6753 0dbe 32fe 1c3e 5a64 4c3e
00000040: e127 1abe b14d 03be aff5 0fbe a036 0fbe

conv.2.running_mean f4 [20]
0.17072403 -0.0765628 -0.059303787 -0.01770276 -0.043135688 0.009444435 -0.09178336 0.22121114
0.06427101 -0.06663878 -0.048545636 0.062095832 0.38416788 0.061959617 0.16378784 -0.019846333
-0.03741806 0.056314804 0.21665235 0.044059593
00000000: 48d2 2e3e f5cc 9cbd 87e8 72bd 6105 91bc
00000010: 0caf 30bd d5bc 1a3c eaf8 bbbd 2c85 623e
00000020: 85a0 833d ea79 88bd cad7 46bd 3358 7e3d
00000030: a7b1 c43e 5ec9 7d3d 00b8 273e c794 a2bc
00000040: ae43 19bd 5aaa 663d 1dda 5d3e d577 343d

conv.2.running_var f4 [20]
0.022144437 0.0015028851 0.0038201562 0.013658467 0.0060193297 0.012687677 0.00308143 0.05351709
0.035006456 0.0070719784 0.009392871 0.0261195 0.047578294 0.030027127 0.040838923 0.007729988
0.006947731 0.016593464 0.041366085 0.036969908
00000000: 4068 b53c 75fc c43a 965b 7a3b c3c7 5f3c
00000010: cc3d c53b f9df 4f3c d1f1 493b bc34 5b3d
00000020: ee62 0f3d 0ebc e73b 8ee4 193c 90f8 d53c
00000030: 75e1 423d 73fb f53c b746 273d d74b fd3b
00000040: cba9 e33b 04ef 873c 7c6f 293d c26d 173d

conv.3.weight f4 [1, 20, 5, 5]
-0.08268204 -0.12016196 -0.09548016 -0.16292204 -0.11406543 -0.1798912 -0.14001271 -0.09612686
-0.12208373 -0.16285539 -0.16452593 -0.15296826 -0.14006707 -0.14559242 -0.15861195 -0.19297804
-0.2126536 -0.15064956 -0.12926292 -0.11896299 -0.054072294 -0.053537145 -0.031392112 -0.043842643
-0.016953947 0.1787335 0.100361235 0.17688304 0.16883467 0.121310696 0.24680929 0.2368951
0.1414465 0.18669501 0.1643264 0.1332957 0.13638464 0.1079836 0.1966852 0.20353457
0.116341226 0.18815298 0.08437422 0.13006413 0.1070971 0.16065195 0.120924644 0.138236
0.17990442 0.14244583 -0.09887276 -0.12377514 -0.11084301 -0.15474951 -0.09739396 -0.094912484
-0.12713008 -0.09982763 -0.14373735 -0.08018346 -0.15652303 -0.1702118 -0.1752277 -0.18864907
-0.14271072 -0.20571049 -0.2140958 -0.24048325 -0.15100555 -0.1579025 -0.1300804 -0.14444195
-0.12609719 -0.13123658 -0.13979271 0.04578656 0.07292202 0.095621064 0.0667289 0.07640585
-0.042269103 -0.059019275 -0.07289887 -0.06449673 -0.07237799 -0.20515445 -0.18878189 -0.1946971
-0.16642877 -0.20029435 -0.18741214 -0.18674159 -0.16499585 -0.15662812 -0.11479732 -0.14281733
-0.112691924 -0.10960676 -0.17898263 -0.19625124 0.12612493 0.13141227 0.14377575 0.13268445
0.14163046 0.13641419 0.078891404 0.10320426 0.13694197 0.12415805 0.074760415 0.12091937
0.0948627 0.10452908 0.0924096 0.05483213 0.08873223 0.034885067 0.056709774 0.13369374
0.06994645 0.08205959 0.12817867 0.08306488 0.10717361 -0.12033098 -0.16038772 -0.19518484
-0.16579464 -0.13376784 -0.11530314 -0.21203676 -0.16911978 -0.18603602 -0.14236298 -0.12594642
-0.15388596 -0.20820823 -0.21271649 -0.17715763 -0.1735626 -0.16643089 -0.2253622 -0.12564589
-0.11807871 -0.11196994 -0.10794657 -0.14860885 -0.09979162 -0.09343846 0.11267857 0.08835884
0.09919938 0.09235368 0.09365602 0.088103734 0.06949458 0.099769846 0.1512984 0.1106477
0.10890997 0.1355208 0.115859054 0.14818846 0.09144196 0.10868219 0.117298216 0.10499381
0.10326802 0.12030516 0.12444768 0.15289965 0.08761061 0.0934447 0.123487 0.10978312
0.07601082 0.11586627 0.16064522 0.13288862 0.120090194 0.15852748 0.10987513 0.16464928
0.13731445 0.15850434 0.14631175 0.16688104 0.13331765 0.15308768 0.13599645 0.107937224
0.10832989 0.07337958 0.107697345 0.11028135 0.12872761 0.14645489 0.0961519 0.08874291
0.15143238 0.1793462 0.13248807 0.11881609 0.10413219 0.1373077 0.12993672 0.12086937
0.12108791 0.14916368 0.12664595 0.20166688 0.11535286 0.104917005 0.10966986 0.11043249
0.14898977 0.18954802 0.17720382 0.13291146 0.15058537 0.18080996 0.10969945 0.13777946
0.14903185 0.09272951 0.17038873 0.112525135 0.15306666 0.15599723 0.11220731 0.123054974
0.18887147 0.1190607 0.16279043 0.1205163 0.10100929 0.098913506 0.10637227 0.110376485
0.10195252 0.13811237 0.15520722 0.1350633 0.17886084 0.13224947 0.14895545 0.09329759
0.10782638 0.13092406 0.095152065 0.09138229 0.10779178 0.10286781 0.08205598 0.0976232
00000000: 3455 a9bd 7917 f6bd 1a8b c3bd 09d5 26be
00000010: 239b e9bd 6635 38be 7e5f 0fbe 29de c4bd
00000020: 0907 fabd 90c3 26be 7c79 28be b6a3 1cbe
00000030: be6d 0fbe 2e16 15be 2c6b 22be 099c 45be
00000040: dec1 59be e143 1abe 805d 04be dea2 f3bd
00000050: e97a 5dbd c449 5bbd 0495 00bd 5894 33bd
00000060: 01e3 8abc ea05 373e 318a cd3d d420 353e
00000070: ffe2 2c3e be71 f83d 93bb 7c3e a194 723e
00000080: 5ad7 103e fa2c 3f3e 2e45 283e ab7e 083e
00000090: 6aa8 0b3e 8126 dd3d d867 493e 5e6b 503e
000000a0: 4f44 ee3d 2dab 403e 64cc ac3d 882f 053e
000000b0: b955 db3d f281 243e 57a7 f73d bd8d 0d3e
000000c0: dd38 383e 52dd 113e cd7d cabd d27d fdbd
000000d0: a901 e3bd a876 1ebe 7c76 c7bd 7a61 c2bd
000000e0: 632e 02be 6e72 ccbd e22f 13be 3a37 a4bd
000000f0: 9347 20be 014c 2ebe e46e 33be 392d 41be
00000100: c222 12be c5a5 52be ee3b 5bbe 3e41 76be
00000110: 33a1 1abe 31b1 21be cc33 05be 97e8 13be
00000120: 9f1f 01be e262 06be d225 0fbe b08a 3b3d
00000130: 2458 953d fad4 c33d 29a9 883d ac7a 9c3d
00000140: 5e22 2dbd 32be 71bd 014c 95bd dd16 84bd
00000150: e93a 94bd 0214 52be 0a50 41be ad5e 47be
00000160: 4e6c 2abe f619 4dbe f8e8 3fbe 3039 3fbe
00000170: acf4 28be 1f63 20be db1a ebbd b53e 12be
00000180: 06cb e6bd 8279 e0bd 3947 37be 16f6 48be
00000190: e526 013e f090 063e f339 133e 6fde 073e
000001a0: 9307 113e 29b0 0b3e d191 a13d c15c d33d
000001b0: 843a 0c3e 9346 fe3d fd1b 993d 93a4 f73d
000001c0: 6047 c23d 5813 d63d 3f41 bd3d a897 603d
000001d0: 3eb9 b53d a5e3 0e3d 8248 683d 03e7 083e
000001e0: 1640 8f3d dc0e a83d 4541 033e eb1d aa3d
000001f0: d67d db3d 1770 f6bd ae3c 24be 89de 47be
00000200: 12c6 29be 70fa 08be 0d24 ecbd 2a20 59be
00000210: bc2d 2dbe 3a80 3ebe 9ac7 11be 19f8 00be
00000220: 4894 1dbe 8a34 55be 5ad2 59be cf68 35be
00000230: 65ba 31be dc6c 2abe 59c5 66be 51a9 00be
00000240: 40d3 f1bd 7f50 e5bd 1713 ddbd eb2c 18be
00000250: 8d5f ccbd aa5c bfbd 06c4 e63d 7bf5 b43d
00000260: 0b29 cb3d ed23 bd3d bace bf3d bb6f b43d
00000270: 2d53 8e3d 2254 cc3d f8ed 1a3e 439b e23d
00000280: 310c df3d f7c5 0a3e 8347 ed3d b7be 173e
00000290: ec45 bb3d c594 de3d 0c3a f03d ff06 d73d
000002a0: 2f7e d33d 8d62 f63d 6dde fe3d ba91 1c3e
000002b0: 316d b33d ef5f bf3d c1e6 fc3d f9d5 e03d
000002c0: 90ab 9b3d 4c4b ed3d 2e80 243e f413 083e
000002d0: d9f1 f53d 0755 223e 3606 e13d d299 283e
000002e0: 299c 0c3e f64e 223e bfd2 153e dde2 2a3e
000002f0: 6c84 083e 04c3 1c3e a742 0b3e 310e dd3d
00000300: 10dc dd3d 0948 963d 6d90 dc3d 30db e13d
00000310: 2cd1 033e 45f8 153e 4aeb c43d d8be b53d
00000320: 1711 1b3e 88a6 373e f4aa 073e da55 f33d
00000330: 4243 d53d 649a 0c3e 220e 053e 5c8a f73d
00000340: f0fc f73d 5dbe 183e 7aaf 013e c381 4e3e
00000350: 1f3e ec3d bade d63d 979a e03d 6e2a e23d
00000360: c690 183e e018 423e eb74 353e f119 083e
00000370: 0d33 1a3e 3f26 393e 1baa e03d 0f16 0d3e
00000380: ce9b 183e f8e8 bd3d 627a 2e3e 9473 e63d
00000390: 82bd 1c3e bdbd 1f3e f2cc e53d 3f04 fc3d
000003a0: 8667 413e 19d6 f33d 89b2 263e 40d1 f63d
000003b0: f5dd ce3d 2a93 ca3d b4d9 d93d 110d e23d
000003c0: 7ccc d03d 546d 0d3e a4ee 1e3e 094e 0a3e
000003d0: 4c27 373e 686c 073e c787 183e cf12 bf3d
000003e0: 14d4 dc3d f510 063e 16df c23d a326 bb3d
000003f0: f0c1 dc3d 5cac d23d f70c a83d acee c73d
