src/caches/cache_16_20_small/param2img5.pt (torch, 184864 bytes, 19 tensors)

main.0.weight f4 [16]
0.79403317 0.7314569 0.73611677 1.0175296 0.85704863 0.98584944 1.0297786 0.9850641
1.025574 0.9821824 0.9398612 1.0335165 1.0301112 0.76257896 0.75319695 0.9229517
00000000: c245 4b3f c240 3b3f 2672 3c3f 693e 823f
00000010: 8a67 5b3f a160 7c3f c9cf 833f 292d 7c3f
00000020: 0246 833f 4e70 7b3f be9a 703f 454a 843f
00000030: afda 833f 6038 433f 84d1 403f 9046 6c3f

main.0.bias f4 [16]
0.16710123 0.19052115 0.11789562 0.113540076 0.03563652 -0.1991536 -0.15722606 0.1468828
0.13736239 0.14007388 -0.0467606 0.119717434 0.17031583 0.1450097 -0.048001915 0.153435
00000000: 961c 2b3e fa17 433e 4273 f13d b387 e83d
00000010: 99f7 113d ecee 4bbe deff 20be 7268 163e
00000020: baa8 0c3e 876f 0f3e 0b88 3fbd 6a2e f53d
00000030: 4667 2e3e 6c7d 143e a89d 44bd 111e 1d3e

main.0.running_mean f4 [16]
8.860586e-06 -1.921645e-06 0.20000437 0.0014759321 0.010912011 -0.000720056 0.4778668 0.0014813439
0.021864193 -0.0006746316 0.477817 0.0014517234 0.03275912 1.5648438e-05 0.19999455 0.0014376292
00000000: eda7 1437 9cf5 00b6 f2cd 4c3e 1074 c13a
00000010: 4bc8 323c 24c2 3cba f5aa f43e a729 c23a
00000020: 891c b33c c3d9 30ba 6ea4 f43e c147 be3a
00000030: 6d2e 063d c444 8337 5fcb 4c3e d56e bc3a

main.0.running_var f4 [16]
9.802047e-07 9.609838e-07 9.964141e-07 0.002536031 2.7813743e-05 0.00013392633 0.08088543 0.0025374894
0.000110456036 0.00013361263 0.080872215 0.0025357092 0.00024743206 1.0352733e-06 1.0154184e-06 0.0025383097
00000000: 948f 8335 27fb 8035 87bc 8535 8a33 263b
00000010: 8f51 e937 936e 0c39 43a7 a53d 024c 263b
00000020: a2a4 e738 5e1a 0c39 55a0 a53d 242e 263b
00000030: c5b9 8139 b8f3 8a35 8349 8835 c559 263b

main.1.weight f4 [20, 16]
-0.0017567056 -0.013215645 -0.013896421 0.2186817 -0.099871345 0.1607852 0.24236567 0.04339102
-0.23111951 -0.09448521 -0.07777169 -0.09176071 -0.36182392 -0.007466991 0.0019542424 -0.02537155
0.013165714 -0.022144845 0.0053273533 -0.039130915 -0.18062317 -0.20041303 -0.015157944 -0.016150348
-0.08621452 -0.15139523 -0.10683322 -0.25767082 -0.2851279 0.010168379 0.014273941 -0.22673869
0.0075525404 0.04266509 -0.019603156 -0.20525107 -0.07737609 -0.11232235 -0.0069048502 -0.09574715
-0.06859015 -0.014007689 0.295901 -0.04133709 -0.2446887 -0.005195713 0.0004655781 -0.057172593
0.0050117783 -0.018513937 -0.010381815 0.14452723 -0.0813315 0.120854445 0.044514824 -0.1872232
-0.25422844 -0.019316655 -0.085051075 -0.18289635 -0.12732103 0.015573472 0.006596781 -0.08646433
-0.001985746 0.007256118 -0.0024015976 0.0299693 0.059178367 -0.25409162 0.3756418 -0.022458104
0.15113226 -0.10288087 0.34892714 -0.15613669 -0.110425785 -0.0055621904 -0.0037186968 -0.045975972
0.0046063014 -0.0015452028 0.0015094186 0.28852427 0.0361443 0.0724498 0.22385837 0.29469654
0.14606284 -0.08682969 -0.18857168 0.20711309 -0.09181377 0.0010411266 0.006460282 -0.07901074
-0.036318 -0.031058667 -0.003972995 -0.27152878 0.092165865 0.1666329 0.11498003 -0.14781064
-0.128148 -0.09778665 0.03240188 0.06609433 -0.098435245 -0.04090851 -0.010815539 0.116718486
0.012903403 0.014774623 -0.0069569065 0.056134395 -0.06421348 0.2088666 -0.20688984 0.07393851
-0.19694377 0.3358933 0.093554236 0.07289225 0.1527205 0.008108623 -0.005807179 0.039014935
0.0013196665 -0.005221489 -0.0016304192 0.023966497 0.012765403 -0.30636114 -0.20178229 0.17052524
0.120476656 -0.43867305 0.19937919 -0.0054909172 0.0023435403 -0.0037367719 -0.006480817 -0.1533883
-0.0025258355 -0.0035182824 0.005422244 -0.31225652 -0.024390524 0.1675618 0.21425736 -0.020586917
0.0005765339 0.19969311 -0.054799363 -0.32138556 0.0959685 0.005870393 0.010020423 -0.21607624
-0.04219173 -0.099920794 0.07517512 -0.24968086 0.12784463 0.18273976 0.15481046 -0.037600208
-0.19332334 -0.24205664 -0.16569157 -0.12454812 -0.2402509 -0.06986204 -0.047963772 0.116241544
0.003595054 -0.003660276 -0.010853264 0.2589367 -0.011529519 -0.108209856 -0.06731354 -0.050923496
-0.15656154 0.056980595 0.16980381 -0.21973395 -0.00630678 0.005676924 0.008081205 -0.12631732
-0.009336448 -0.0075926958 0.003721419 -0.023946222 -0.008230587 0.2347669 0.072243445 -0.1930705
0.066796966 -0.18650372 -0.052863553 0.19816299 -0.2256211 -0.0023954131 -0.0024627247 -0.13793696
-0.010977306 -0.06411348 -0.037209436 -0.07199757 -0.20180397 0.18236099 0.17270465 -0.23348893
-0.19776951 -0.181966 0.18707693 -0.17914723 -0.02689527 0.022147592 0.014441268 0.23314504
-0.00092241936 -0.014168961 -0.0038328306 0.106792934 0.09443088 0.1567059 -0.0008126758 -0.27532795
0.2878958 -0.005778854 0.01926321 0.15591589 0.43262267 0.005140963 0.0032420012 -0.1810003
0.0030834589 -0.0048379423 0.0051147803 -0.054764193 0.05768094 0.27647194 0.0047164923 0.15285498
0.20517215 0.26957446 0.007209744 -0.22474349 0.25205392 0.006661571 -0.0017339361 -0.016960021
00000000: 4241 e6ba 6f86 58bc d0ad 63bc 18ee 5f3e
00000010: 5989 ccbd e0a4 243e b52e 783e c8ba 313d
00000020: 98aa 6cbe 7681 c1bd c446 9fbd 0aed bbbd
00000030: fc40 b9be a9ad f4bb bf12 003b ffd7 cfbc
00000040: 02b5 573c 1b69 b5bc 1491 ae3b bd47 20bd
00000050: 48f5 38be 1339 4dbe 0659 78bc bc4d 84bc
00000060: 3d91 b0bd 5a07 1bbe 60cb dabd 6eed 83be
00000070: 49fc 91be 4699 263c 3fdd 693c 302e 68be
00000080: 4d7b f73b 97c1 2e3d cc96 a0bc 562d 52be
00000090: 5b77 9ebd 4309 e6bd 1542 e2bb 1517 c4bd
000000a0: fe78 8cbd 8280 65bc 5680 973e 1551 29bd
000000b0: ad8f 7abe cd40 aabb d618 f439 cf2d 6abd
000000c0: d839 a43b 8aaa 97bc 7d18 2abc f2fe 133e
000000d0: 2191 a6bd 8982 f73d 2d55 363d 70b7 3fbe
000000e0: 3b2a 82be f63d 9ebc 422f aebd 2e49 3bbe
000000f0: 7260 02be e027 7f3c cf29 d83b 3614 b1bd
00000100: 4a23 02bb bbc4 ed3b 1f64 1dbb 2d82 f53c
00000110: 0465 723d 4c18 82be 1f54 c03e 0ffa b7bc
00000120: 6ac2 1a3e 35b3 d2bd 94a6 b23e 4ce2 1fbe
00000130: ea26 e2bd 0943 b6bb 61b5 73bb 4d51 3cbd
00000140: 75f0 963b 6788 caba afd7 c53a 74b9 933e
00000150: 0c0c 143d 9060 943d 213b 653e 77e2 963e
00000160: 7f91 153e c4d3 b1bd ef18 41be 7415 543e
00000170: dc08 bcbd 6976 883a c6b0 d33b 62d0 a1bd
00000180: 2fc2 14bd bf6e febc e62f 82bb d205 8bbe
00000190: 75c1 bc3d d1a1 2a3e a67a eb3d ac5b 17be
000001a0: 3b39 03be 5e44 c8bd d5b7 043d 775c 873d
000001b0: 6b98 c9bd af8f 27bd a933 31bc 1a0a ef3d
000001c0: cb68 533c 4311 723c c3f6 e3bb 2eed 653d
000001d0: 5b82 83bd 20e1 553e eeda 53be 136d 973d
000001e0: a1ab 49be 35fa ab3e 5d99 bf3d 8848 953d
000001f0: c362 1c3e 08da 043c 264a bebb 20ce 1f3d
00000200: a9f8 ac3a 0619 abbb cab3 d5ba 6355 c43c
00000210: fb25 513c 5edb 9cbe 04a0 4ebe 2b9e 2e3e
00000220: 77bc f63d c199 e0be 0f2a 4c3e 27ed b3bb
00000230: 1596 193b a1e4 74bb 095d d4bb d311 1dbe
00000240: 7d88 25bb fc92 66bb 14ad b13b 16e0 9fbe
00000250: a3ce c7bc 5295 2b3e 4866 5b3e e5a5 a8bc
00000260: 8922 173a 5a7c 4c3e 4c75 60bd a68c a4be
00000270: 228b c43d 6d5c c03b b32c 243c 1743 5dbe
00000280: 3cd1 2cbd 46a3 ccbd 6af5 993d 57ac 7fbe
00000290: b4e9 023e 2220 3b3e a286 1e3e ad02 1abd
000002a0: 8ef6 45be b2dd 77be 0dab 29be 1613 ffbd
000002b0: 5504 76be d413 8fbd a975 44bd 0c10 ee3d
000002c0: ff9a 6b3b 3ee1 6fbb e3d1 31bc 5a93 843e
000002d0: 4fe6 3cbc 219d ddbd aedb 89bd 2895 50bd
000002e0: ab51 20be 7c64 693d 0de1 2d3e f001 61be
000002f0: 1ba9 cebb 7d05 ba3b 0867 043c 5459 01be
00000300: e7f7 18bc 26cc f8bb 0de3 733b de2a c4bc
00000310: 95d9 06bc bc66 703e 5ff4 933d 46b4 45be
00000320: d9cc 883d d5fa 3ebe 7487 58bd 3deb 4a3e
00000330: 3809 67be 5dfc 1cbb aa65 21bb 593f 0dbe
00000340: 29da 33bc ee4d 83bd ec68 18bd 7673 93bd
00000350: b3a5 4ebe d7bc 3a3e 7dd9 303e b917 6fbe
00000360: 1784 4abe 4c55 3abe 1891 3f3e 5f72 37be
00000370: 7853 dcbc de6e b53c 119b 6c3c 93bd 6e3e
00000380: 84ce 71ba ee24 68bc 3a30 7bbb 41b6 da3d
00000390: fa64 c13d 8377 203e c009 55ba c9f7 8cbe
000003a0: 1467 933e 8a5c bdbb e1cd 9d3c 6aa8 1f3e
000003b0: b880 dd3e 8675 a83b c177 543b 2558 39be
000003c0: db13 4a3b 9a87 9ebb e399 a73b 6b50 60bd
000003d0: d942 6c3d bb8d 8d3e ce8c 9a3b 0486 1c3e
000003e0: a618 523e aa05 8a3e b73f ec3b 2823 66be
000003f0: 360d 813e 4f49 da3b 3e45 e3ba beef 8abc

main.1.bias f4 [20]
-0.12237431 0.07671827 -0.066949286 -0.072538 0.022180254 -0.38734853 -0.2370008 0.22844303
-0.26642042 0.2809777 -0.33986035 -0.46331027 -0.31792015 -0.095966205 -0.007617765 -0.079417765
0.08176585 -0.42754966 0.39039055 -0.17005952
00000000: 629f fabd 781e 9d3d b51c 89bd ce8e 94bd
00000010: 5db3 b53c 8c52 c6be 56b0 72be f8ec 693e
00000020: 4268 88be 4fdc 8f3e 2d02 aebe 0137 edbe
00000030: 6ec6 a2be ee89 c4bd 729e f9bb c8a5 a2bd
00000040: db74 a73d cae7 dabe 45e1 c73e 1524 2ebe

main.3.weight f4 [20]
0.947189 0.90542144 0.9539108 0.9231877 0.97444725 0.9980603 0.9031725 0.9597693
1.0226752 1.0085373 0.91278684 0.9411483 0.97399175 0.91391313 1.0322713 1.025858
0.98464274 0.9301453 0.9611322 0.8986402
00000000: fa7a 723f b3c9 673f 8033 743f 0756 6c3f
00000010: 6075 793f e180 7f3f 5036 673f 71b3 753f
00000020: 05e7 823f c017 813f 66ac 693f 18ef 703f
00000030: 8657 793f 36f6 693f 7721 843f 514f 833f
00000040: 8c11 7c3f 011e 6e3f c30c 763f 490d 663f

main.3.bias f4 [20]
-0.06012294 -0.104879 -0.08730793 -0.06722142 0.12741855 -0.12104179 -0.08923362 0.032181352
0.014283257 0.1702425 -0.06734817 -0.08190731 -0.09356665 -0.0609 -0.03979786 0.0018026043
-0.12111986 -0.17405671 -0.12529407 -0.07191118
00000000: 7943 76bd cdca d6bd 80ce b2bd 62ab 89bd
00000010: 027a 023e c2e4 f7bd 1ec0 b6bd 98d0 033d
00000020: 5204 6a3c 0d54 2e3e d6ed 89bd 05bf a7bd
00000030: df9f bfbd 4772 79bd 1503 23bd 5d45 ec3a
00000040: b00d f8bd ec3b 32be 174d 00be 2b46 93bd

main.3.running_mean f4 [20]
0.09329574 0.24082334 0.113105565 0.056408897 0.2461024 0.058584694 -0.06238971 0.40544435
0.11534965 0.40996188 -0.08564487 -0.094794065 -0.09165815 0.042295255 0.30066377 0.21339457
0.27792352 0.029501077 0.51394624 0.033369306
00000000: d611 bf3d 659a 763e e4a3 e73d 040d 673d
00000010: 4402 7c3e 81f6 6f3d 5a8c 7fbd 6796 cf3e
00000020: 703c ec3d 86e6 d13e 9466 afbd 6423 c2bd
00000030: 45b7 bbbd ca3d 2d3d 9af0 993e 1b84 5a3e
00000040: fe4b 8e3e 3eac f13c fb91 033f 41ae 083d

main.3.running_var f4 [20]
0.14091605 0.25588405 0.12646894 0.081939906 0.31904578 0.11424354 0.010175489 0.23528247
0.14019272 0.34289575 0.022750773 0.0025321993 0.0019558293 0.08147916 0.27553713 0.19098216
0.24799119 0.14410187 0.09868344 0.051458552
00000000: 4c4c 103e 3c03 833e 1381 013e 1cd0 a73d
00000010: f859 a33e 84f8 e93d 18b7 263c e3ed 703e
00000020: ae8e 0f3e 0890 af3e d45f ba3c 41f3 253b
00000030: 5f2d 003b 8cde a63d 3413 8d3e d490 433e
00000040: 67f1 7d3e 718f 133e 8b1a ca3d 34c6 523d

main.4.weight f4 [2048, 20]
0.03355636 -0.09049835 -0.02651634 0.14947963 0.18896386 0.21263908 -0.13943365 0.038921136
0.09376371 -0.13076597 0.07325438 0.15096381 -0.06985602 -0.12285533 -0.22822812 -0.1198774
0.15746099 -0.16568269 -0.043939706 -0.11687646 0.1540206 0.13455853 0.12134922 0.18554595
0.08786075 0.11401952 0.14146997 0.08071517 0.102895804 -0.14880913 -0.09526157 0.2033873
0.20627265 0.034911033 0.1837034 -0.06758116 -0.09543253 0.14097817 0.055357307 0.10952297
-0.009487625 0.08997656 -0.15423451 0.007520414 -0.14373423 0.0064063473 0.20271294 0.12492059
0.054401077 -0.066231586 -0.08276792 0.30251694 0.28128698 0.055282228 0.080637984 0.15785666
-0.15372883 0.01581216 0.11739817 -0.09026072 -0.047878787 0.18619889 -0.072633505 0.12503485
-0.19692379 0.0076785786 0.008257124 -0.02629287 -0.1999035 -0.06671033 0.117932655 0.100669615
0.0700973 -0.12943548 0.18641907 0.07934697 -0.027990824 -0.092631824 0.20134683 0.116661526
-0.12166161 -0.040498726 0.037265837 0.012206777 0.005701006 0.120810315 0.08642233 0.22774805
-0.14764857 -0.046055872 0.1686769 0.2182056 0.18105415 0.02834977 0.14872909 -0.113176
0.11674081 0.07691872 0.22762483 -0.017279152 0.012096906 -0.14720282 0.0057614967 0.12891915
-0.09123935 0.02632529 -0.081704065 0.07381144 -0.0953713 -0.12946844 0.14833628 -0.09773751
0.14847726 0.16814281 0.11542832 -0.023854308 0.036755126 0.09832813 0.16096242 0.07936414
-0.058055803 -0.19641149 0.086795986 -0.01924368 0.10257643 0.12709059 -0.0041769724 0.25616443
-0.025502326 0.041994713 -0.01824215 -0.20411572 -0.017413719 0.12400991 0.0023124272 0.14832872
-0.1190503 -0.114142165 0.20052207 0.0210156 -0.05515686 0.08006357 0.15994106 0.19211681
0.06551883 -0.03293163 0.08696134 0.013756612 -0.14506614 -0.076590195 0.054097764 0.116392426
-0.08525944 -0.081538424 -0.09885275 0.18035197 -0.059449356 0.046733156 -0.052360732 -0.16919276
0.13356958 -0.10645414 0.08759728 -0.06551941 -0.17207216 -0.08923594 -0.08299821 0.13411166
-0.03723113 0.032054137 -0.11886832 0.010865677 -0.083402164 0.1455239 -0.18106104 0.14053693
-0.13048713 -0.03705258 0.111274265 -0.17040795 0.13678797 0.01654828 -0.114036255 0.014576242
-0.013542499 -0.14969495 -0.18804917 -0.060217418 -0.03602454 -0.028348211 0.21504378 -0.018563122
0.049980856 -0.051611736 0.30545 -0.10421309 0.16442992 -0.1438755 0.048845775 0.19897012
-0.085666776 0.095299765 -0.00561709 0.0029419607 0.082875684 0.31311917 -0.13046522 0.18821889
-0.0005730969 -0.12496817 0.14400117 0.112762846 0.17832024 0.10672748 -0.09747774 0.06423276
0.018086124 -0.21603955 -0.028493429 -0.10360532 -0.1346656 -0.25848657 -0.17885678 -0.0016515157
0.1194366 -0.05483097 -0.20140655 0.17111091 0.25238165 -0.12541121 -0.047817226 0.006611955
0.16525827 -0.024427501 -0.017293625 0.14779764 0.12951046 -0.0018252996 0.0834455 -0.06224817
-0.15703091 0.014031788 -0.12765594 -0.039180405 -0.11636761 -0.09417923 -0.15266678 0.08123144
-0.16621132 0.08494285 0.1517393 0.052584425 -0.070177436 0.11195128 0.19187613 -0.09013019
00000000: 6572 093d 3357 b9bd cc38 d9bc 3011 193e
00000010: be7f 413e 0fbe 593e b2c7 0ebe c56b 1f3d
00000020: 3007 c03d 84e7 05be 6406 963d 4296 1a3e
00000030: ac10 8fbd 939b fbbd a2b4 69be 4882 f5bd
00000040: 743d 213e b9a8 29be 1ffa 33bd ed5c efbd
00000050: 93b7 1d3e b6c9 093e f185 f83d c2ff 3d3e
00000060: 56f0 b33d 1183 e93d 81dd 103e ff4d a53d
00000070: 09bb d23d 6c61 18be 7f18 c3bd c344 503e
00000080: 2339 533e dffe 0e3d be1c 3c3e fe67 8abd
00000090: 2172 c3bd 955c 103e 58be 623d 944d e03d
000000a0: fc71 1bbc a145 b83d a7ef 1dbe ce6d f63b
000000b0: 112f 13be 56ec d13b fb93 4f3e 5ed6 ff3d
000000c0: aad3 5e3d 6da4 87bd 3a82 a9bd 80e3 9a3e
000000d0: d904 903e 9e6f 623d 8725 a53d 2da5 213e
000000e0: 176b 1dbe 8188 813c 746e f03d 9dda b8bd
000000f0: 8c1c 44bd ecaa 3e3e e0c0 94bd 2309 003e
00000100: 64a6 49be 969c fb3b e348 073c 2564 d7bc
00000110: 81b3 4cbe 6d9f 88bd ad86 f13d df2b ce3d
00000120: 2c8f 8f3d bc8a 04be a4e4 3e3e aa80 a23d
00000130: 034d e5bc c1b5 bdbd dd2d 4e3e 3dec ee3d
00000140: b929 f9bd fee1 25bd 10a4 183d effe 473c
00000150: 81cf ba3b 666b f73d 31fe b03d c936 693e
00000160: 3031 17be 15a5 3cbd a3b9 2c3e 4a71 5f3e
00000170: 4266 393e c73d e83c 704c 183e d2c8 e7bd
00000180: ce15 ef3d 9087 9d3d 7c16 693e 028d 8dbc
00000190: 1a32 463c 56bc 16be f0ca bc3b 6203 043e
000001a0: b2db babd 22a8 d73c 7654 a7bd 742a 973d
000001b0: 0752 c3bd 6093 04be 77e5 173e 9b2a c8bd
000001c0: 6c0a 183e a12d 2c3e af65 ec3d 1c6a c3bc
000001d0: 8b8c 163d 4260 c93d 55d3 243e ab89 a23d
000001e0: eccb 6dbd 1820 49be 18c2 b13d eca4 9dbc
000001f0: 9713 d23d 0924 023e fcde 88bb fc27 833e
00000200: 41ea d0bc a602 2c3d 9070 95bc b603 51be
00000210: 37a7 8ebc e8f8 fd3d 178c 173b 7ce3 173e
00000220: a5d0 f3bd 5ec3 e9bd a855 4d3e e828 ac3c
00000230: 29ec 61bd 5ef8 a33d 97c7 233e 45ba 443e
00000240: bd2e 863d 51e3 06bd c918 b23d 6a63 613c
00000250: 388c 14be 52db 9cbd 9e95 5d3d 275f ee3d
00000260: 809c aebd 9efd a6bd 5073 cabd 30ae 383e
00000270: 2b81 73bd 446b 3f3d 3578 56bd de40 2dbe
00000280: 77c6 083e a104 dabd 3466 b33d 0a2f 86bd
00000290: af33 30be 55c1 b6bd f7fa a9bd 9154 093e
000002a0: ab7f 18bd 334b 033d 3c71 f3bd f405 323c
000002b0: c1ce aabd 3804 153e 1168 39be eae8 0f3e
000002c0: 6b9e 05be 72c4 17bd c3e3 e33d 6c7f 2ebe
000002d0: 2512 0c3e 4290 873c d78b e9bd 31d1 6e3c
000002e0: 5ce1 5dbc a249 19be f68f 40be 8aa6 76bd
000002f0: 788e 13bd 823a e8bc 7034 5c3e b011 98bc
00000300: bab8 4c3d d466 53bd f163 9c3e ac6d d5bd
00000310: 5160 283e 1954 13be 8212 483d d3be 4b3e
00000320: 1072 afbd 862c c33d 910f b8bb e9cd 403b
00000330: baba a93d 2851 a03e ad98 05be 74bc 403e
00000340: e23b 16ba 50ef ffbd 0b75 133e 35f0 e63d
00000350: 9599 363e f093 da3d 69a2 c7bd 778c 833d
00000360: 5a29 943c 7939 5dbe 0d6b e9bc 072f d4bd
00000370: c7e5 09be 5a58 84be 3b26 37be ac77 d8ba
00000380: 2d9b f43d 7096 60bd 853d 4ebe b337 2f3e
00000390: 2b38 813e cc6b 00be ffdb 43bd 19a9 d83b
000003a0: 7739 293e 2f1c c8bc 5cab 8dbc 4458 173e
000003b0: 649e 043e e43e efba 79e5 aa3d f0f7 7ebd
000003c0: b6cc 20be 96e5 653c 3db8 02be a27b 20bd
000003d0: 2452 eebd 0ae1 c0bd ae54 1cbe ab5c a63d
000003e0: 4d33 2abe 84f6 ad3d 8c61 1b3e c462 573d
000003f0: 30b9 8fbd b646 e53d 2d7b 443e 2d96 b8bd

main.4.bias f4 [2048]
-0.13017523 -0.10419642 -0.12664339 0.104498684 -0.0109647475 -0.12049589 -0.19414757 0.005094571
-0.12330116 0.092358254 -0.24765414 -0.035221614 -0.05495274 -0.07847534 0.048434917 -0.20001529
-0.20276827 -0.16032761 0.0021792315 0.0011258322 0.09375637 -0.009293652 0.024507571 -0.121617585
0.04231303 0.021376926 -0.07654547 0.028103963 -0.05771593 0.045272127 0.07621766 -0.079114705
0.17534517 -0.093189485 -0.22193004 -0.20894665 -0.10465046 -0.004839157 0.15452936 0.17829354
-0.2006394 -0.04201912 -0.18280433 -0.15258771 0.06280634 0.22723152 0.16728996 -0.23177987
-0.112042 -0.20979273 0.0630117 -0.020167483 -0.13397783 -0.10720276 -0.03054446 -0.011488164
-0.026810836 0.0032900877 0.16007422 -0.07103977 0.16729522 -0.20086269 -0.27676806 0.08599823
0.16879451 0.05438575 -0.22106665 0.05567502 -0.009716999 0.117176116 -0.10594493 -0.0060372804
0.00797023 -0.18995449 0.07347814 -0.060607027 0.16258763 -0.08570487 0.055505406 0.104308
-0.14635056 0.16978551 0.21117844 -0.047159083 0.045262415 -0.075454295 0.15330058 0.14587559
0.16437356 -0.18793003 0.16778567 -0.077491194 0.052568976 0.077051036 -0.12438659 0.2043581
-0.032012165 0.14051956 -0.011549907 -0.08037626 0.12218885 -0.03721001 -0.14564739 -0.010907028
-0.18702193 0.06127645 -0.07518367 -0.027722469 0.055087756 0.13409501 -0.011758185 0.017237859
0.030345919 -0.047610883 0.03224102 -0.106141336 0.09839869 -0.08252777 -0.026747938 -0.024727205
-0.08457359 0.10082461 -0.0137893045 0.08046491 0.05364985 -0.03067075 -0.15284248 0.2171233
0.16861673 0.13302894 -0.17984305 -0.31167084 -0.13988927 -0.21834911 -0.18925056 -0.040863834
-0.18858036 0.13210385 -0.17974465 -0.21713808 0.094934106 0.07575969 -0.14320688 0.07274192
-0.2021093 0.038368408 -0.13718794 0.02164601 0.13010882 0.074494354 -0.122024536 -0.091884874
0.067392804 0.07151612 0.028858123 -0.21982516 -0.039844546 0.014820131 -0.21885425 -0.063751325
-0.23896007 0.16727604 -0.11279196 -0.13045128 -0.23303933 0.1571338 -0.029470315 -0.11323152
-0.10532018 -0.1141641 0.14896783 0.098704346 0.099478506 -0.048535332 -0.014560822 -0.1597201
-0.101915725 -0.17090224 0.113209195 -0.15769644 -0.11649085 -0.22716276 -0.13263696 -0.14333463
0.0802966 -0.22486743 -0.09258441 -0.028305687 0.050665893 0.11422271 -0.16875625 -0.2282255
0.29574686 -0.028702412 0.04106689 -0.069037504 -0.027232578 0.09308771 -0.24241102 0.074061
-0.1777041 0.091740586 -0.03422857 -0.18716335 0.08969812 0.053748336 -0.15708826 -0.15622826
0.14876148 -0.12955183 -0.22132346 -0.18550582 -0.14200145 0.14293215 -0.120425105 -0.14962502
0.10564195 0.05612313 -0.24861622 0.11880488 0.13905698 -0.08957866 -0.071465455 0.07363254
-0.06778996 0.083911404 -0.15355414 -0.06674584 0.061952114 -0.11366387 0.061905734 -0.15765902
-0.0451491 -0.01326605 0.063857004 0.060954012 0.10999484 -0.007820525 -0.21578375 -0.20937009
-0.11226615 0.115702145 -0.1856425 0.008860959 -0.21228634 0.12743422 0.1036044 0.10776243
-0.23688969 0.03565135 -0.11866891 0.13653658 0.21963984 -0.23802558 -0.020542132 -0.17842083
00000000: a84c 05be ef64 d5bd ceae 01be 6803 d63d
00000010: 7ca5 33bc 8dc6 f6bd 9fce 46be 5cf0 a63b
00000020: 5285 fcbd 5326 bd3d 0c99 7dbe 8a44 10bd
00000030: 2016 61bd aeb7 a0bd b163 463d cfd0 4cbe
00000040: 7ca2 4fbe ec2c 24be 70d1 0e3b a990 933a
00000050: 5703 c03d 6744 18bc 1ac4 c83c a412 f9bd
00000060: 6e50 2d3d aa1e af3c dfc3 9cbd 483a e63c
00000070: 8a67 6cbd 446f 393d 0118 9c3d e406 a2bd
00000080: af8d 333e 21da bebd a141 63be 1cf6 55be
00000090: fb52 d6bd cb91 9ebb f23c 1e3e 9592 363e
000000a0: 6a74 4dbe 3e1c 2cbd 0f31 3bbe f43f 1cbe
000000b0: 9ca0 803d 61af 683e 0f4e 2b3e b457 6dbe
000000c0: 4776 e5bd e8d3 56be 470c 813d 4736 a5bc
000000d0: 7c31 09be 1f8d dbbd 6038 fabc da38 3cbc
000000e0: 66a2 dbbc 839e 573b 7fea 233e 4d7d 91bd
000000f0: 704f 2b3e f3ae 4dbe 8bb4 8dbe d71f b03d
00000100: 78d8 2c3e 98c3 5e3d 4c5f 62be 7d0b 643d
00000110: 0c34 1fbc 08fa ef3d a8f9 d8bd 61d4 c5bb
00000120: 9195 023c 6e83 42be b57b 963d 133f 78bd
00000130: 5f7d 263e 0986 afbd a359 633d 6f9f d53d
00000140: ecdc 15be 41dc 2d3e 293f 583e e229 41bd
00000150: 1565 393d c887 9abd d4fa 1c3e 6960 153e
00000160: 8b51 283e bb70 40be 02d0 2b3e b4b3 9ebd
00000170: 9152 573d efcc 9d3d 66be febd 4043 513e
00000180: 301f 03bd 5ce4 0f3e d23b 3dbc 4f9c a4bd
00000190: 263e fa3d 8669 18bd 9724 15be 64b3 32bc
000001a0: ad82 3fbe 04fd 7a3d e5f9 99bd 3b1a e3bc
000001b0: b3a3 613d 3450 093e 67a5 40bc 6936 8d3c
000001c0: 0198 f83c a103 43bd 290f 043d a160 d9bd
000001d0: 4185 c93d 5204 a9bd 7e1e dbbc b590 cabc
000001e0: eb34 adbd 227d ce3d 89ec 61bc c9ca a43d
000001f0: f2bf 5b3d 3a41 fbbc bd82 1cbe 9255 5e3e
00000200: dda9 2c3e bd38 083e c728 38be 5293 9fbe
00000210: 223f 0fbe e996 5fbe e6ca 41be d660 27bd
00000220: 361b 41be 3b46 073e fb0e 38be 7259 5ebe
00000230: d06c c23d e527 9b3d d3a4 12be b7f9 943d
00000240: bef5 4ebe 3128 1d3d ff7a 0cbe f952 b13c
00000250: 3f3b 053e 7f90 983d 00e8 f9bd 232e bcbd
00000260: 3d05 8a3d 0b77 923d df67 ec3c d919 61be
00000270: 0934 23bd 22d0 723c 541b 60be 0e90 82bd
00000280: f3b1 74be 694a 2b3e 79ff e6bd 0595 05be
00000290: dda1 6ebe afe7 203e bb6b f1bc ede5 e7bd
000002a0: 1bb2 d7bd dece e9bd 068b 183e 8125 ca3d
000002b0: 63bb cb3d fccc 46bd 8490 6ebc aa8d 23be
000002c0: 31b9 d0bd ff00 2fbe 39da e73d 2d7b 21be
000002d0: c192 eebd 5b9d 68be fcd1 07be 50c6 12be
000002e0: 8b72 a43d a643 66be e59c bdbd 54e1 e7bc
000002f0: 0a87 4f3d 99ed e93d 70ce 2cbe f2b3 69be
00000300: 226c 973e 5221 ebbc c135 283d 8963 8dbd
00000310: db16 dfbc c5a4 be3d 983a 78be 4bad 973d
00000320: 10f8 35be 7de2 bb3d 4233 0cbd c0a7 3fbe
00000330: a6b3 b73d 3727 5c3d bfdb 20be 4dfa 1fbe
00000340: ee54 183e 3ca9 04be 9ea2 62be 3df5 3dbe
00000350: d468 11be ce5c 123e 70a1 f6bd 4d37 19be
00000360: cf5a d83d 5ee1 653d 4095 7ebe f94f f33d
00000370: f464 0e3e 0475 b7bd 7b5c 92bd a8cc 963d
00000380: 76d5 8abd bed9 ab3d 4c3d 1dbe 0bb2 88bd
00000390: 80c1 7d3d 9ac8 e8bd de90 7d3d 5e71 21be
000003a0: 43ee 38bd d959 59bc 76c7 823d eaaa 793d
000003b0: fa44 e13d a921 00bc 6af6 5cbe 1d65 56be
000003c0: cceb e5bd 3ff5 ec3d 1119 3ebe 8e2d 113c
000003d0: 9761 59be 1e7e 023e 8b2e d43d 8db2 dc3d
000003e0: 3693 72be 2607 123d af08 f3bd 3fd0 0b3e
000003f0: 44e9 603e fabc 73be f947 a8bc f3b3 36be

conv.0.weight f4 [20, 1, 5, 5]
0.053482853 -0.047278225 0.010832266 0.04861387 0.017118579 0.033717133 -0.033020455 -0.00653271
-0.0149429655 -0.03853217 -0.058771346 -0.01949862 0.027995408 -0.10261665 -0.028271647 0.02250309
0.0026609276 -0.024812428 4.629663e-05 0.01965838 0.12086905 0.03963859 -0.0305782 0.07854745
0.032975223 -0.09640193 -0.03367344 0.023342751 -0.19264919 -0.19043812 0.019829506 -0.12222423
0.030074652 0.021289464 -0.123431206 -0.07658897 -0.050375063 -0.04663072 0.13967338 0.052538637
0.22817358 0.05640658 0.20089313 0.06906567 -0.014433154 0.08402956 -0.0208283 0.023101047
0.013514854 0.13671614 0.17165111 0.0652603 0.11708635 -0.14750658 0.06806913 0.113134
-0.07656679 0.09263906 0.04199262 -0.11103066 0.16712858 -0.121388026 -0.009777487 -0.09949169
-0.067989185 0.014969699 0.2185524 -0.060752425 -0.026842078 -0.12919688 0.19648165 -0.15377338
0.17439103 -0.070778616 0.06254883 0.14351766 0.013883223 0.117403954 -0.019873654 -0.028643606
0.084690735 0.044180322 -0.17285268 0.053593505 0.11502305 0.027453642 0.02112901 0.009200292
0.06591754 -0.11280837 -0.096804634 0.03813838 -0.25009164 -0.045036662 -0.23857605 0.03424191
-0.17985405 0.04630662 0.073098354 -0.19278629 0.18960467 0.0033030827 0.063764885 0.04048244
0.16752195 0.122851156 -0.03347689 0.10945115 0.05965822 -0.014468578 0.08555571 -0.0039727692
0.08759243 0.07159342 0.09579993 0.01161514 -0.14350092 0.016331624 -0.059972055 -0.10792363
-0.29190826 -0.21120769 -0.21641578 -0.24872176 -0.020371724 0.019066963 0.039317295 -0.10986567
-0.1844867 0.010630152 -0.11986615 -0.04296977 -0.02922976 0.11451247 0.0037998296 -0.07978653
-0.18637371 -0.077044934 -0.15349565 0.10744489 -0.10337473 0.03708497 0.07046726 -0.06596751
-0.03570686 -0.03991992 -0.11463101 0.0056499806 -0.11473927 0.14938648 -0.09664736 0.029474257
0.037760913 -0.030875837 -0.00745252 -0.06284452 -0.04717089 0.10831562 0.05167562 0.13245957
0.066335015 -0.11596679 -0.008870215 0.065064356 0.14471473 0.035839017 -0.10197223 -0.09168697
-0.08738628 -0.112775736 0.014774559 -0.11662962 -0.040898316 -0.09907527 0.06139287 -0.15004434
-0.06771036 -0.16639331 -0.098877646 0.05082351 -0.1400208 -0.12292336 -0.121450536 -0.0752135
-0.09689124 0.07952013 -0.017472578 0.14808436 0.06257191 0.04468581 0.09242767 0.07289016
-0.06310417 0.11698495 0.16121183 0.09751863 0.15844661 0.11470801 0.14815462 -0.07514433
0.22774397 0.006406816 0.04783826 0.019167176 -0.08586729 -0.005545829 -0.10925329 -0.06925183
-0.048909098 0.017898632 0.006309254 0.042704634 0.04635667 0.1336922 0.06892018 0.11825047
-0.023071587 -0.078868605 -0.07238054 -0.1400712 0.1463763 0.10063212 0.017600868 0.089709446
-0.05436005 0.0055021034 -0.016946996 -0.030058922 -0.05412075 0.03129958 0.025623677 -0.056233436
0.0085552605 -0.07047537 -0.066479795 0.08262238 0.025190284 0.049127974 0.041589953 0.0014141155
0.017440548 0.1514336 0.17637132 -0.03242876 -0.0020463928 -0.0029398098 0.17660215 -0.024187379
-0.0058735455 0.034153115 -0.0024734978 0.03210349 -0.013760641 0.092412435 -0.0006784141 -0.014100113
00000000: d610 5b3d d0a6 41bd d179 313c 561f 473d
00000010: 433c 8c3c fa1a 0a3d 7540 07bd 5810 d6bb
00000020: 57d3 74bc e9d3 1dbd 39ba 70bd 92bb 9fbc
00000030: a056 e53c ae28 d2bd f199 e7bc 6658 b83c
00000040: f562 2e3b 6f43 cbbc a12e 4238 9c0a a13c
00000050: 318a f73d 135c 223d 227f fabc 7cdd a03d
00000060: 0711 073d 606e c5bd 29ed 09bd 4c39 bf3c
00000070: d445 45be 3602 43be 7d71 a23c b250 fabd
00000080: 1e5f f63c 3e67 ae3c 80c9 fcbd aeda 9cbd
00000090: 1556 4ebd dbff 3ebd 8a06 0f3e c132 573d
000000a0: 56a6 693e 960a 673d eeb6 4d3e 4d72 8d3d
000000b0: 0979 6cbc b117 ac3d 1ca0 aabc 683e bd3c
000000c0: 686d 5d3c 51ff 0b3e 4fc5 2f3e 31a7 853d
000000d0: f8ca ef3d f70b 17be d467 8b3d ccb2 e73d
000000e0: 0dcf 9cbd 8cb9 bd3d 7400 2c3d 0b64 e3bd
000000f0: c123 2b3e 499a f8bd c131 20bc 4dc2 cbbd
00000100: ea3d 8bbd 7843 753c 33cc 5f3e 89d7 78bd
00000110: ebe3 dbbc 304c 04be 7c32 493e c576 1dbe
00000120: 9093 323e 61f4 90bd 9a19 803d 4bf6 123e
00000130: 7576 633c 7c71 f03d 13ce a2bc ffa5 eabc
00000140: 5672 ad3d 6df6 343d 4b00 31be dd84 5b3d
00000150: 3491 eb3d 76e6 e03c bf16 ad3c d2bc 163c
00000160: c6ff 863d 1308 e7bd 8241 c6bd fd36 1c3d
00000170: 030c 80be 5d78 38bd 484d 74be 3f41 0c3d
00000180: a92b 38be 03ac 3d3d 97b4 953d c569 45be
00000190: ba27 423e 8878 583b 2a97 823d ead0 253d
000001a0: e08a 2b3e 6399 fb3d 101f 09bd ed27 e03d
000001b0: 2d5c 743d 9d0d 6dbc d537 af3d 012e 82bb
000001c0: a963 b33d 929f 923d c132 c43d 6e4d 3e3c
000001d0: e8f1 12be e6c9 853c 42a5 75bd 1007 ddbd
000001e0: 0075 95be d446 58be 199c 5dbe ebb0 7ebe
000001f0: 9ae2 a6bc 5232 9c3c 2c0b 213d 4101 e1bd
00000200: 15ea 3cbe 172a 2e3c 627c f5bd 1201 30bd
00000210: 4073 efbc 8485 ea3d 9006 793b 1f67 a3bd
00000220: c0d8 3ebe bcc9 9dbd f72d 1dbe 110c dc3d
00000230: 21b6 d3bd 69e6 173d 2451 903d f919 87bd
00000240: 5b41 12bd 1283 23bd aac3 eabd 7923 b93b
00000250: 6cfc eabd c5f8 183e 0def c5bd ff73 f13c
00000260: 30ab 1a3d 53ef fcbc 4534 f4bb a1b4 80bd
00000270: 4336 41bd 94d4 dd3d d1a9 533d 7ba3 073e
00000280: a7da 873d ff7f edbd 6154 11bc 7640 853d
00000290: 1930 143e efcb 123d d1d6 d0bd 61c6 bbbd
000002a0: 94f7 b2bd f7f6 e6bd fe10 723c 83db eebd
000002b0: fe84 27bd fae7 cabd 1777 7b3d 39a5 19be
000002c0: bbab 8abd 0263 2abe 5d80 cabd 502c 503d
000002d0: 9d61 0fbe 3ebf fbbd 0fbb f8bd 8909 9abd
000002e0: ea6e c6bd 73db a23d a722 8fbc 6da3 173e
000002f0: b425 803d 7808 373d b84a bd3d 7047 953d
00000300: c23c 81bd ce95 ef3d b714 253e d9b7 c73d
00000310: d43f 223e 08ec ea3d d8b5 173e 45e5 99bd
00000320: b735 693e 45f0 d13b 0df2 433d 7b04 9d3c
00000330: 31db afbd c9b9 b5bb 30c0 dfbd e7d3 8dbd
00000340: e854 48bd 27a0 923c dcbd ce3b 0eeb 2e3d
00000350: 7ee0 3d3d 9ce6 083e 0626 8d3d 4d2d f23d
00000360: a000 bdbc dd85 a1bd 403c 94bd d36e 0fbe
00000370: abe3 153e 3718 ce3d b22f 903c 96b9 b73d
00000380: a5a8 5ebd fd4a b43b 6dd4 8abc 213e f6bc
00000390: b8ad 5dbd fd33 003d bfe8 d13c 0855 66bd
000003a0: 5d2b 0c3c 6455 90bd 8f26 88bd ec35 a93d
000003b0: db5b ce3c 6a3a 493d 3a5a 2a3d d859 b93a
000003c0: 7bdf 8e3c 6911 1b3e af9a 343e 05d4 04bd
000003d0: c61c 06bb d3a9 40bb 32d7 343e 9c24 c6bc
000003e0: df76 c0bb 23e4 0b3d 681a 22bb f37e 033d
000003f0: 5074 61bc bb42 bd3d 99d7 31ba 2904 67bc

conv.0.bias f4 [20]
-0.25849947 0.2935107 0.13637532 0.25210688 -0.083616406 -0.12878363 -0.25797728 -0.3217182
-0.1955048 0.24715918 -0.17878821 0.25046933 -0.16783611 -0.04807472 -0.11260842 -0.16882199
0.17519203 0.2699124 0.060876463 -0.07485247
00000000: 0b5a 84be 0947 963e f9a5 0b3e 2714 813e
00000010: 143f abbd dbdf 03be 9915 84be 3fb8 a4be
00000020: 6932 48be 4c17 7d3e 4214 37be 843d 803e
00000030: 3bdd 2bbe ffe9 44bd 3e9f e6bd acdf 2cbe
00000040: 8a65 333e f531 8a3e 9959 793d 404c 99bd

conv.2.weight f4 [20]
1.1274364 1.116717 0.93427306 1.1418852 1.1288486 1.0520496 1.128665 1.0993204
1.053843 1.1054012 1.09913 1.0079006 1.0765235 1.0883943 1.1600834 1.0558724
1.4044199 1.1110066 1.1210548 1.0773554
00000000: d64f 903f 95f0 8e3f 852c 6f3f 4b29 923f
00000010: 1c7e 903f 90a9 863f 1878 903f 88b6 8c3f
00000020: 54e4 863f c97d 8d3f 4bb0 8c3f e302 813f
00000030: 86cb 893f 8150 8b3f 9d7d 943f d426 873f
00000040: 08c4 b33f 7735 8e3f b97e 8f3f c8e6 893f

conv.2.bias f4 [20]
-0.15382351 0.17069647 0.15165465 -0.15237142 -0.16145551 0.16263618 -0.1373282 0.21349089
0.179576 -0.14653182 -0.15464668 0.14393584 0.19276176 -0.14252003 0.163379 0.22406417
0.19906525 -0.18098955 0.23999593 -0.14542647
00000000: e983 1dbe 0ecb 2e3e 5b4b 1b3e 4107 1cbe
00000010: 9854 25be 198a 263e c39f 0cbe 5b9d 5a3e
00000020: c5e2 373e 700c 16be b35b 1ebe eb63 133e
00000030: 5763 453e c5f0 11be d34c 273e 1471 653e
00000040: c3d7 4b3e 5355 39be 7ec1 753e adea 14be

conv.2.running_mean f4 [20]
-0.049859397 0.31456065 0.186282 0.21478975 -0.005515913 -0.042492 -0.056460865 -0.05683902
-0.023937708 0.2974492 -0.039206464 0.29734606 -0.053045236 0.019280767 -0.02103791 -0.020368543
0.17898081 0.23768845 0.06696011 0.036706537
00000000: 5e39 4cbd 180e a13e b5c0 3e3e d8f1 5b3e
00000010: d5be b4bb 170c 2ebd 8243 67bd 08d0 68bd
00000020: 0319 c4bc 434b 983e f596 20bd be3d 983e
00000030: f645 59bd b3f2 9d3c b257 acbc eedb a6bc
00000040: bf46 373e 9a64 733e 6222 893d 9859 163d

conv.2.running_var f4 [20]
0.00020034482 0.018862475 0.025580421 0.018793369 0.006181166 0.0012997915 0.0007412786 0.0022912994
0.0030884468 0.009635284 0.00076052453 0.019713255 0.0008956735 0.009319274 0.0021622784 0.0030126316
0.018137686 0.014853306 0.011487776 0.016417209
00000000: a713 5239 7a85 9a3c 088e d13c 8df4 993c
00000010: 618b ca3b c45d aa3a 5d52 423a a029 163b
00000020: 8a67 4a3b 4fdd 1d3c f05d 473a b17d a13c
00000030: a2cb 6a3a deaf 183c 03b5 0d3b 926f 453b
00000040: 7c95 943c 485b 733c 3a37 3c3c 627d 863c

conv.3.weight f4 [1, 20, 5, 5]
0.04244849 0.11069405 0.08455987 0.09324359 0.069894165 0.14728618 0.10096625 0.15329263
0.1627462 0.08717564 0.13838221 0.13834977 0.1433474 0.14376321 0.13289252 0.15416685
0.16519476 0.1781891 0.0869408 0.11386302 0.14082359 0.07407381 0.16019316 0.13519879
0.097056374 -0.121354446 -0.1663005 -0.20934136 -0.18167628 -0.20291238 -0.17458144 -0.18164697
-0.15860577 -0.2087822 -0.15948182 -0.16840631 -0.14779061 -0.1500621 -0.12030158 -0.20725903
-0.220621 -0.15798792 -0.2442261 -0.104197204 -0.13385676 -0.16178627 -0.09290834 -0.083666086
-0.1375622 -0.054933026 -0.17490236 -0.14456913 -0.16775583 -0.13714956 -0.17864014 -0.15634328
-0.08066697 -0.14872 -0.14513731 -0.095406644 -0.14555714 -0.14381498 -0.16805755 -0.141794
-0.12440619 -0.14378266 -0.14329246 -0.074494556 -0.14701076 -0.12007909 -0.19416146 -0.17426838
-0.14630353 -0.16089162 -0.13329563 0.109622486 0.113336824 0.18345015 0.1852663 0.12494693
0.15872373 0.19513679 0.1600219 0.122654215 0.09831705 0.13439433 0.11926699 0.11527756
0.1587187 0.14895459 0.14370446 0.15851948 0.17239358 0.19630559 0.1605263 0.13422684
0.09351409 0.099924535 0.1497636 0.15105866 0.14468656 0.13856146 0.16792877 0.14088905
0.1595117 0.10503981 0.16692376 0.15698467 0.14687338 0.10653095 0.07244709 0.151084
0.12997551 0.13663404 0.14330451 0.079940796 0.12794092 0.11856619 0.09846821 0.08387124
0.13642797 0.15580264 0.13394655 0.08690447 0.12205753 -0.09747054 -0.16208003 -0.14234295
-0.17140348 -0.16132964 -0.10880339 -0.053889234 -0.1115205 -0.13545845 -0.09336486 -0.12924702
-0.16220362 -0.20915331 -0.15327291 -0.103495754 -0.13980332 -0.1877999 -0.22988705 -0.20276159
-0.18734147 -0.12995315 -0.17997985 -0.11008225 -0.18184224 -0.14936219 0.118306786 0.12992397
0.11491465 0.1617771 0.13407023 0.121002525 0.1285488 0.14830604 0.15386073 0.18089323
0.11590966 0.13577712 0.14309733 0.13337211 0.16275212 0.109880365 0.15969041 0.12408842
0.18438286 0.16061792 0.10333389 0.10111298 0.101203434 0.11152055 0.12488307 -0.18582845
-0.17870909 -0.17403646 -0.124352485 -0.13370295 -0.16954662 -0.09967841 -0.117114834 -0.13316809
-0.15153533 -0.097501665 -0.13427968 -0.13360468 -0.13719167 -0.10599718 -0.09381131 -0.07195911
-0.11705315 -0.12270313 -0.064020306 -0.063162334 -0.12361777 -0.15427178 -0.10335486 -0.03144535
-0.16374901 -0.146296 -0.16828343 -0.16348538 -0.17845522 -0.15535825 -0.21175489 -0.14478943
-0.21777426 -0.17269894 -0.21581177 -0.1810424 -0.13143036 -0.16696249 -0.22843985 -0.19257236
-0.13987033 -0.06286119 -0.17949222 -0.19130169 -0.20455486 -0.17301913 -0.16489398 -0.12636405
-0.1854151 0.14068638 0.08988154 0.12749635 0.11034665 0.13541242 0.09035457 0.08952266
0.16134495 0.17489369 0.07470046 0.13197128 0.14366776 0.10775257 0.16156639 0.18520504
0.09534517 0.15451594 0.15587537 0.094109625 0.1499943 0.11860807 0.09447444 0.15978758
0.09577947 0.1334731 0.13015915 0.08573601 0.15509818 0.15332948 0.11704588 0.12866847
00000000: 78de 2d3d 90b3 e23d ba2d ad3d 7ff6 be3d
00000010: ac24 8f3d 30d2 163e 65c7 ce3d bef8 1c3e
00000020: f1a6 263e 2489 b23d 11b4 0d3e 90ab 0d3e
00000030: a9c9 123e aa36 133e fa14 083e eadd 1d3e
00000040: d128 293e 3477 363e 050e b23d 0431 e93d
00000050: 0f34 103e 02b4 973d ad09 243e 8d71 0a3e
00000060: 7ec5 c63d ae88 f8bd ae4a 2abe 955d 56be
00000070: 5909 3abe 43c8 4fbe 7ac5 32be aa01 3abe
00000080: 8d69 22be 00cb 55be 344f 23be b472 2cbe
00000090: 6c56 17be e1a9 19be ad60 f6bd b63b 54be
000000a0: 79ea 61be 96c7 21be 6816 7abe 5865 d5bd
000000b0: bf11 09be 4dab 25be ba46 bebd 2059 abbd
000000c0: 1bdd 0cbe 7401 61bd 9b19 33be ee09 14be
000000d0: 2fc8 2bbe ef70 0cbe 71ed 36be 7418 20be
000000e0: b934 a5bd 0e4a 18be e09e 14be 8f64 c3bd
000000f0: ee0c 15be 3c44 13be 4717 2cbe 7232 11be
00000100: acc8 febd c33b 13be 42bb 12be 9a90 98bd
00000110: fd89 16be 07ec f5bd 43d2 46be 6973 32be
00000120: 98d0 15be c6c0 24be a67e 08be c181 e03d
00000130: 231d e83d 5bda 3b3e 73b6 3d3e 2de4 ff3d
00000140: 7988 223e f0d1 473e c8dc 233e 2232 fb3d
00000150: 735a c93d ab9e 093e 4042 f43d a416 ec3d
00000160: 2887 223e 8d87 183e 4327 133e ee52 223e
00000170: f187 303e 5504 493e 0261 243e c372 093e
00000180: 5184 bf3d 3ca5 cc3d a15b 193e 1faf 1a3e
00000190: b728 143e 0ee3 0d3e 85f5 2b3e 3845 103e
000001a0: 0957 233e 1d1f d73d 10ee 2a3e 97c0 203e
000001b0: fa65 163e e62c da3d 245f 943d c4b5 1a3e
000001c0: 4d18 053e cbe9 0b3e 6bbe 123e 00b8 a33d
000001d0: f202 033e d5d2 f23d b3a9 c93d afc4 ab3d
000001e0: c6b3 0b3e ba8a 1f3e 4929 093e f9fa b13d
000001f0: 4cf9 f93d a29e c7bd 4ff8 25be 5ac2 11be
00000200: 6584 2fbe 9933 25be 50d4 debd f5ba 5cbd
00000210: dc64 e4bd 9fb5 0abe 1336 bfbd 5559 04be
00000220: b518 26be 492c 56be 93f3 1cbe 95f5 d3bd
00000230: 9a28 0fbe 9e4e 40be 8367 6bbe bca0 4fbe
00000240: 71d6 3fbe 7012 05be a34c 38be cd72 e1bd
00000250: da34 3abe 67f2 18be d44a f23d ca0a 053e
00000260: 5f58 eb3d e5a8 253e b549 093e 2cd0 f73d
00000270: 4ca2 033e 8add 173e ab8d 1d3e 133c 393e
00000280: 0b62 ed3d 2809 0b3e 1b88 123e b392 083e
00000290: 7ea8 263e f508 e13d e285 233e 1222 fe3d
000002a0: dcce 3c3e 0679 243e b8a0 d33d 5214 cf3d
000002b0: bf43 cf3d e364 e43d b2c2 ff3d d049 3ebe
000002c0: 84ff 36be 9d36 32be 84ac febd 6de9 08be
000002d0: a19d 2dbe 3224 ccbd e7d9 efbd 375d 08be
000002e0: 142c 1bbe f4ae c7bd 9d80 09be aacf 08be
000002f0: f97b 0cbe 0d15 d9bd 2520 c0bd 4c5f 93bd
00000300: 90b9 efbd c74b fbbd 141d 83bd 415b 81bd
00000310: 502b fdbd 6cf9 1dbe b6ab d3bd d7cc 00bd
00000320: d2ad 27be 9ece 15be 7e52 2cbe b668 27be
00000330: f7bc 36be 3c16 1fbe 46d6 58be ae43 14be
00000340: 3700 5fbe fed7 30be c3fd 5cbe 2e63 39be
00000350: ae95 06be 37f8 2abe 23ec 69be b031 45be
00000360: 2b3a 0fbe 5ebd 80bd cfcc 37be 97e4 43be
00000370: d476 51be ed2b 31be f8d9 28be 9465 01be
00000380: 75dd 3dbe 1710 103e d013 b83d 678e 023e
00000390: 6dfd e13d 8ea9 0a3e d10b b93d a857 b73d
000003a0: 9c37 253e 5517 333e 8efc 983d 7b23 073e
000003b0: a41d 133e 61ad dc3d a971 253e 64a6 3d3e
000003c0: 5444 c33d 6d39 1e3e cb9d 1f3e 8cbc c03d
000003d0: 1b98 193e cae8 f23d d17b c13d 5b9f 233e
000003e0: 0728 c43d 2cad 083e 7148 053e 5c96 af3d
000003f0: 0fd2 1e3e 6702 1d3e c0b5 ef3d abc1 033e
