src/caches/cache_16_20_small/param2img8.pt (torch, 184864 bytes, 19 tensors)

main.0.weight f4 [16]
0	0x3f54dde6	0.8315109
1	0x3f521841	0.8206826
2	0x3f4f3bdb	0.8095071
3	0x3f840669	1.0314456
4	0x3f1fb3c3	0.6238367
5	0x3f90644f	1.1280612
6	0x3f7f680f	0.99768156
7	0x3f8bb237	1.0913762
8	0x3f65fd85	0.89839965
9	0x3f9bac60	1.216198
10	0x3f88717a	1.065963
11	0x3f8527a4	1.0402722
12	0x3f8f4641	1.1193315
13	0x3f52293c	0.8209417
14	0x3f525087	0.82154125
15	0x3f87a32a	1.0596669

main.0.bias f4 [16]
0	0x3cee0cb2	0.029058788
1	0xbd9b27d5	-0.07575957
2	0x3daaf3d2	0.08347286
3	0xbdea75f4	-0.11448279
4	0x3c9385ca	0.018008132
5	0x3d8efcb7	0.06981795
6	0xbab315b4	-0.0013663084
7	0x3d857949	0.06517274
8	0xbe04d5e5	-0.1297222
9	0x3c31c844	0.01085097
10	0x3caf53f8	0.021402344
11	0xbcefef76	-0.029288989
12	0x3d8ece2e	0.069729194
13	0x3dbe8fe4	0.09304789
14	0x3e053a9a	0.13010636
15	0x3e16c3f4	0.14723188

main.0.running_mean f4 [16]
0	0x3784efa4	1.5847218e-05
1	0xb77fd476	-1.5248652e-05
2	0x3e4ccd9b	0.20000307
3	0x3ac04027	0.0014667556
4	0x3c33801e	0.0109558385
5	0xba35a12e	-0.00069286197
6	0x3ef4aace	0.47786564
7	0x3abe8965	0.0014536796
8	0x3cb31023	0.02185828
9	0xba34d02f	-0.0006897477
10	0x3ef4a52c	0.47782266
11	0x3aba281e	0.001420263
12	0x3d062d30	0.032757938
13	0x36142ae9	2.2078696e-06
14	0x3e4cd62a	0.20003572
15	0x3abc9202	0.0014386775

main.0.running_var f4 [16]
0	0x35817012	9.643866e-07
1	0x3585ff40	9.98356e-07
2	0x3589204a	1.0216693e-06
3	0x3b2612a3	0.0025340698
4	0x37f0135f	2.861925e-05
5	0x390c8f5e	0.00013404849
6	0x3da59b2d	0.08086238
7	0x3b2649fb	0.0025373686
8	0x38e74b44	0.00011028958
9	0x390d37eb	0.00013467639
10	0x3da5a476	0.08088009
11	0x3b26403e	0.0025367881
12	0x39821e48	0.00024818094
13	0x358736e9	1.0074265e-06
14	0x35829be8	9.73113e-07
15	0x3b267c6e	0.0025403756

main.1.weight f4 [20, 16]
0	0xbb1d59ea	-0.0024009892
1	0x3ad81f0f	0.0016488748
2	0xbb6a93d8	-0.0035793688
3	0xbd223abb	-0.03960679
4	0x3d2bb929	0.04192463
5	0xbd1b1b25	-0.037867684
6	0xbd916e0d	-0.07101069
7	0x3e93314e	0.28748554
8	0x3e552c53	0.2081769
9	0x3cc666c1	0.024218919
10	0xbd23d873	-0.040001344
11	0x3d21e959	0.03952918
12	0x3e1c21ec	0.15247315
13	0xbacf924d	-0.0015836448
14	0x3b427f20	0.0029677823
15	0x3e82f572	0.25577885
16	0xba42722c	-0.00074175256
17	0xbc135e43	-0.008994642
18	0x3b260d85	0.0025337648
19	0xbdc55fc8	-0.096374094
20	0xbd21e737	-0.039527144
21	0xbe03eca2	-0.12883237
22	0x3d03dcff	0.03219318
23	0x3d45a794	0.048255518
24	0x3e1413a5	0.14460619
25	0xbcb1f996	-0.021725457
26	0x3e411642	0.18856147
27	0xbe61fbd2	-0.22068718
28	0x3c03a69a	0.008035326
29	0x3a4cbb41	0.00078098854
30	0x399f253d	0.00030354588
31	0xbe32e809	-0.17471327
32	0xbbde44c7	-0.0067831012
33	0x3a691b5f	0.0008892323
34	0x39df70f1	0.00042618022
35	0xbd8c16cd	-0.068402864
36	0x3df4d272	0.11954202
37	0x3e6edc96	0.23326334
38	0xbe2f3db2	-0.17113379
39	0x3de58bc7	0.11208301
40	0xbdc60688	-0.096692145
41	0x3e422eab	0.18963115
42	0x3deb1e6f	0.11480414
43	0x3e8694ec	0.26285493
44	0x3cc86aa1	0.024464907
45	0xbad69516	-0.0016371335
46	0x3b349c94	0.0027559148
47	0x3e94d34e	0.29067463
48	0xb8512100	-4.9860217e-05
49	0x3a4747df	0.0007601957
50	0x3b9c27ba	0.004765478
51	0xbe6857af	-0.22689699
52	0x3dc8e8b6	0.09810011
53	0xbe4a9aa4	-0.19785553
54	0xbdb0bd52	-0.0862986
55	0xbd809fd1	-0.062804826
56	0x3e4d9b03	0.20078664
57	0xbe59039f	-0.21192788
58	0xbd824d2d	-0.06362376
59	0xbe21d87a	-0.15805236
60	0xbc165b38	-0.009177022
61	0x3b95ec03	0.004575254
62	0x3bb01900	0.005374074
63	0x3e21af0c	0.15789431
64	0x3b4c7022	0.0031194766
65	0xbbe04289	-0.006843869
66	0x3b744b73	0.0037276417
67	0xbe1e422e	-0.15454933
68	0xbd515639	-0.05110762
69	0xbe63193c	-0.22177595
70	0x3e5fef11	0.2186854
71	0x3e13e1c7	0.14441596
72	0xbd28a65e	-0.041174285
73	0xbe0aa35e	-0.13538882
74	0xbe258405	-0.16163643
75	0xbcd8d63e	-0.026469346
76	0xbe70e74b	-0.23525731
77	0xbb33a169	-0.002740944
78	0xbb0680d3	-0.0020523563
79	0xbe2b66c0	-0.16738415
80	0xbb124e16	-0.0022324375
81	0xbbd00b81	-0.0063490276
82	0x3a9fb37e	0.001218423
83	0x3cd2d698	0.025737092
84	0xbdd03eca	-0.10168226
85	0xbec8c3e4	-0.39211953
86	0xbd07de5d	-0.033171047
87	0x3cb39469	0.021921353
88	0x3dcd621b	0.10028478
89	0xbeb2b863	-0.349063
90	0x3d88ba85	0.06676201
91	0xbe139f93	-0.14416341
92	0xbe213d2b	-0.1574599
93	0x3c0bb37d	0.00852668
94	0xbb80d026	-0.003931063
95	0xbd9c1df1	-0.07622898
96	0xbc053696	-0.00813069
97	0xbb71a2ff	-0.0036870835
98	0x3a9ecca8	0.0012115436
99	0x3e1ee2f0	0.15516257
100	0x3c8d1e6b	0.017226418
101	0x3e3cc11c	0.1843304
102	0xbe218c6c	-0.15776223
103	0xbe0c3dd5	-0.13695462
104	0xbd2fb13b	-0.04289363
105	0x3e957731	0.29192498
106	0x3e19cc1a	0.15019265
107	0xbe932b98	-0.28744197
108	0x3e32231b	0.17396204
109	0x3ac59b30	0.0015076157
110	0x3b2ec90b	0.0026670124
111	0xbe8b7270	-0.27235746
112	0x3c42ac1b	0.011881853
113	0xbb6dcb7c	-0.0036284616
114	0x3ba172f6	0.0049270345
115	0xbe596956	-0.21231589
116	0xbcc1ebe8	-0.02367206
117	0xbe12eb35	-0.14347537
118	0x3e6627e0	0.22476149
119	0xbd00eb06	-0.031474136
120	0xbd0b4867	-0.034004595
121	0xbe6d5c78	-0.23179805
122	0xbdc813d2	-0.097694054
123	0xbd96ab38	-0.07356876
124	0x3dac7d5c	0.08422348
125	0x3b63fe5f	0.0034789068
126	0x38cbfa07	9.7263655e-05
127	0xbac67f4e	-0.0015144141
128	0x3b1ff3e8	0.0024406854
129	0xbbbcb1c9	-0.0057584983
130	0x3c0e69f3	0.008692252
131	0xbe672b3c	-0.22575086
132	0x3dc589fa	0.096454576
133	0xbda1b552	-0.07895912
134	0xbe624302	-0.22095874
135	0xbeb2831c	-0.34865654
136	0xbdfc6a11	-0.12324918
137	0xbda9a5e4	-0.08283594
138	0x3e1a480d	0.15066548
139	0xbea7e100	-0.3278885
140	0x3d87e54d	0.066355325
141	0xbb345632	-0.0027517197
142	0xbbe925ec	-0.0071151163
143	0xbe3d3336	-0.18476567
144	0xb95b189f	-0.0002089464
145	0x3b9a91a0	0.004717067
146	0x3a94f8c3	0.0011365641
147	0xbe441e46	-0.19152173
148	0xbda92051	-0.08258117
149	0x3e1fb208	0.15595257
150	0xbd0ff755	-0.035147984
151	0xbe547b65	-0.20750196
152	0xbc9134ad	-0.017725313
153	0x3e19d491	0.15022494
154	0x3e892348	0.2678473
155	0xbe479fa5	-0.19494493
156	0x3df7f158	0.121065795
157	0x39b4c538	0.00034479215
158	0x3aefa15b	0.0018282341
159	0x3d86beb3	0.06579342
160	0xbb9b7c66	-0.004745054
161	0xbad25093	-0.0016045742
162	0xbbd57502	-0.0065141926
163	0x3e6d0734	0.23147279
164	0x3e27cc35	0.16386493
165	0x3d13bd5a	0.03606925
166	0xbdcd9d83	-0.100398086
167	0x3e5c397c	0.21506304
168	0xbc434300	-0.0119178295
169	0xbc8e155c	-0.01734417
170	0xbe823502	-0.25431067
171	0x3e61645e	0.22010943
172	0x3e80af26	0.25133628
173	0x3c0849e3	0.008318397
174	0x3b01b4e7	0.0019791664
175	0x3e2bca72	0.16776446
176	0xbc0df6ab	-0.008664767
177	0xbb5d152f	-0.003373455
178	0x3b80d7da	0.0039319815
179	0xbde60176	-0.112307474
180	0x3d93424b	0.07190379
181	0x3dbd7d27	0.092523865
182	0xbd42be0d	-0.047544528
183	0x3e57e0f3	0.21081905
184	0xbe820625	-0.25395313
185	0xbd0fe789	-0.03513292
186	0x3e166e68	0.14690554
187	0x3dff3cb5	0.12462751
188	0xbe86375d	-0.26214114
189	0xbbfa3dab	-0.007636746
190	0xbb85e577	-0.004086192
191	0x3e4e7e56	0.20165381
192	0xbb9309dd	-0.00448726
193	0x3b3c0fbb	0.00286959
194	0xbbd714ca	-0.0065637575
195	0xbc92bdaa	-0.017912704
196	0xbdec7bd3	-0.11547055
197	0x3e1662bd	0.14686103
198	0xbdf47561	-0.11936451
199	0xbe1e3407	-0.15449534
200	0xbe5eb444	-0.21748453
201	0xbd52744e	-0.051380448
202	0x3d371779	0.04470012
203	0x3e7698ca	0.24081722
204	0xbe6a0ee1	-0.22857238
205	0xbb9f6ab3	-0.0048650145
206	0xba8d9110	-0.0010800678
207	0x3e1f5aad	0.15561934
208	0x3a4dcdb8	0.0007850784
209	0x3b66d8f4	0.003522453
210	0xba924ff1	-0.001116274
211	0x3d9018d5	0.07035986
212	0x3d292fb0	0.041305244
213	0xbddc1f2e	-0.107481346
214	0x3dff8f70	0.124785304
215	0x3e84bd25	0.25925556
216	0x3e037d87	0.12840854
217	0xbe527a4b	-0.20554464
218	0xbbd41524	-0.0064722467
219	0xbda64cad	-0.081200935
220	0x3def2b9e	0.11678241
221	0x3b8139ea	0.0039436715
222	0x3bb68434	0.005569959
223	0x3e432196	0.19055781
224	0xbb12c632	-0.0022395966
225	0x3b7b0832	0.0038304445
226	0xba69b048	-0.00089145126
227	0x3e10cacf	0.14139865
228	0x3cb87365	0.022515962
229	0xbe43a550	-0.1910603
230	0xbeb51274	-0.3536564
231	0x3e3d6d93	0.1849883
232	0x3ab831dc	0.0014052945
233	0xbd74c511	-0.05975825
234	0xbe8367c8	-0.25665116
235	0xbe16880e	-0.14700338
236	0x3dbe7583	0.09299757
237	0xba844e85	-0.0010094201
238	0xbb7c63c1	-0.0038511606
239	0xbd4d2e8b	-0.050093215
240	0xbba95fe9	-0.005168904
241	0x3acf1a1a	0.0015800626
242	0x3a06cd65	0.00051423005
243	0x3d378677	0.04480597
244	0xbceb8dca	-0.028754134
245	0x3d9f82d3	0.077886246
246	0x3e8a90b9	0.2706354
247	0xbd0346d4	-0.03204997
248	0xbe6ca9bd	-0.23111625
249	0xbd2d9ef6	-0.042387925
250	0x3e01d27a	0.12677947
251	0x3d129c0b	0.035793345
252	0xbe466948	-0.19376099
253	0x3bb0804c	0.005386388
254	0xbb2bcdcb	-0.0026215191
255	0x3e82e41e	0.25564665

main.1.bias f4 [20]
0	0xbd8d004e	-0.06884824
1	0xbe7aa1a3	-0.24475722
2	0x3d8e1383	0.06937315
3	0x3de04c24	0.10952023
4	0x3e595b24	0.21226174
5	0xbd550cad	-0.05201404
6	0xbdeeb04f	-0.11654722
7	0x3d93bedf	0.0721414
8	0x3ead9f40	0.3391056
9	0x3e8d2b1a	0.27571946
10	0x3e1c3d4c	0.15257758
11	0x3ecb87e3	0.3975211
12	0xbe9318cf	-0.28729865
13	0xbd90b3d8	-0.070655525
14	0xbdce3194	-0.1006805
15	0x3e8abe2a	0.2709821
16	0x3e9871d0	0.29774332
17	0xbd8e12a2	-0.06937148
18	0xbdaa66f6	-0.083204195
19	0x3dbba42f	0.09162175

main.3.weight f4 [20]
0	0x3f6fe313	0.9370586
1	0x3f6e9fe1	0.93212706
2	0x3f7c7231	0.9861174
3	0x3f640707	0.8907322
4	0x3f71dfb9	0.94482
5	0x3f76cc93	0.96405905
6	0x3f82b7eb	1.0212377
7	0x3f620f59	0.8830467
8	0x3f7c8bd4	0.9865086
9	0x3f77193d	0.96522886
10	0x3f7845c6	0.96981466
11	0x3f71374e	0.94225013
12	0x3f6f2d17	0.93428177
13	0x3f74614b	0.9546096
14	0x3f6db6ae	0.9285687
15	0x3f7dd696	0.9915556
16	0x3f7cccb0	0.9874983
17	0x3f50b99a	0.81533206
18	0x3f5b2b1d	0.8561266
19	0x3f68bc24	0.9091208

main.3.bias f4 [20]
0	0xbd5bec69	-0.053692255
1	0xbddca439	-0.107735105
2	0xbe1d89ef	-0.15384649
3	0xbe013e24	-0.12621361
4	0xbe250f07	-0.16119014
5	0xbe256782	-0.16152766
6	0xbdbf4d66	-0.093409345
7	0xbdb44d8c	-0.088038534
8	0xbd278cd7	-0.0409058
9	0xbd7733ea	-0.060352243
10	0xbd8015f3	-0.062541865
11	0xbdd35c27	-0.10320311
12	0xbe1bdfd4	-0.15222102
13	0xbdaafbed	-0.08348832
14	0xbdba9d19	-0.09111995
15	0xbc22256a	-0.0098966155
16	0xbdddbab2	-0.10826625
17	0xbe03c602	-0.12868503
18	0xbdf65a80	-0.1202898
19	0xbe0fe21f	-0.14051102

main.3.running_mean f4 [20]
0	0x3e51f071	0.20501877
1	0x3d4379b0	0.047723472
2	0x3ec24b45	0.3794805
3	0x3e9482dd	0.2900609
4	0x3e9a35b7	0.30119106
5	0x3e6aa4cf	0.22914432
6	0x3e292c7f	0.1652088
7	0x3e810f1c	0.2520684
8	0x3f1cef6e	0.6130284
9	0x3ee69f95	0.45043626
10	0x3edff3b1	0.4374061
11	0x3f105641	0.56381613
12	0x3d6bfd5c	0.05761467
13	0x3e2b32a3	0.16718535
14	0x3e2fd5f8	0.17171466
15	0x3ee47387	0.4461939
16	0x3eb465a6	0.35233802
17	0x3ea82850	0.32843256
18	0x3e497e48	0.19677079
19	0x3e896906	0.2683794

main.3.running_var f4 [20]
0	0x3e2fe3ef	0.17176794
1	0x3dbc50f4	0.09195128
2	0x3ea2862b	0.31742987
3	0x3e5e5f34	0.21716005
4	0x3e275718	0.16341817
5	0x3e82c209	0.25538662
6	0x3e2ddd23	0.16978888
7	0x3e37287a	0.17886534
8	0x3f49ed3b	0.7887761
9	0x3e74bc33	0.23899917
10	0x3efd2afc	0.49446857
11	0x3eb05844	0.3444234
12	0x3da7b19b	0.081881724
13	0x3e16d3d1	0.14729239
14	0x3e2fb690	0.17159486
15	0x3e99353b	0.29923424
16	0x3e32d03d	0.17462249
17	0x3eea8cfb	0.45810685
18	0x3e66db8b	0.22544686
19	0x3e3b18f0	0.18271232

main.4.weight f4 [2048, 20]
0	0xbd39c682	-0.045355327
1	0xbe13e71a	-0.14443627
2	0xbe1d4f00	-0.15362167
3	0xbca8a594	-0.020586766
4	0x3e57eb2c	0.21085805
5	0xbd92fcc4	-0.071771175
6	0xbd5fba19	-0.054620836
7	0x3db9c689	0.09071071
8	0x3d17de62	0.037077315
9	0xbda7ad4f	-0.08187353
10	0xbe324a6c	-0.17411202
11	0xb9e0f6f0	-0.00042908592
12	0x3dcbe5b6	0.09955923
13	0xbe4e35e1	-0.2013774
14	0x3da1c4ca	0.07898863
15	0x3d17f57e	0.037099354
16	0x3e1b090f	0.15140174
17	0x3d77c163	0.060487162
18	0x3d403c40	0.04693246
19	0x3c518a6a	0.012789348
20	0x3ddc83a2	0.107672945
21	0x3ca6fe32	0.020384882
22	0xbe7816a6	-0.2422739
23	0xbdabab80	-0.083823204
24	0x3dfd6ead	0.12374625
25	0xbe23aea6	-0.15984592
26	0xbe1281c6	-0.14307317
27	0xbc826a83	-0.01591993
28	0x3df76910	0.12080586
29	0x3dfebaec	0.12437996
30	0x3e0fe31c	0.14051479
31	0xbe5c95c8	-0.21541512
32	0xbe5baa61	-0.21451713
33	0x3dcca2bf	0.09991979
34	0x3c56d30b	0.01311184
35	0xbc7b685a	-0.015344704
36	0xbe63916c	-0.22223443
37	0xbe95159d	-0.29118052
38	0x3bc42837	0.0059862393
39	0xbe5affda	-0.21386662
40	0xbe082ab5	-0.13297541
41	0xbd9c36e4	-0.07627657
42	0xbe60cb3e	-0.2195253
43	0xbde6898c	-0.11256704
44	0x3db36f85	0.08761505
45	0xbe64e7f8	-0.22354114
46	0xbe790658	-0.24318826
47	0xbdb70de6	-0.08938198
48	0xbbb8cfcd	-0.005640006
49	0xbd7e7529	-0.06212345
50	0x3e84b103	0.259163
51	0x3e0561e6	0.13025627
52	0x3e16df57	0.14733635
53	0x3d97e31c	0.074163646
54	0xbd0bfa7e	-0.034174435
55	0xbca4ca9f	-0.020116149
56	0x3e7baacf	0.24576877
57	0xbde6a6f8	-0.112623155
58	0xbdbd0751	-0.09229911
59	0xbd817d40	-0.06322718
60	0xbcfc2d71	-0.030783387
61	0xbe0f4c33	-0.13993911
62	0x3e097562	0.13423684
63	0x3daa6159	0.08319349
64	0xbe12e443	-0.14344887
65	0xbe616cc6	-0.2201415
66	0xbad0b855	-0.0015924076
67	0xbe237f68	-0.1596657
68	0xbe8af707	-0.27141592
69	0xbdca56a3	-0.09879806
70	0xbdd06b55	-0.10176722
71	0xbe37da00	-0.17954254
72	0x3da9c8c0	0.08290243
73	0xbe0edb89	-0.13950934
74	0xbe0942cc	-0.13404387
75	0x3e170210	0.1474688
76	0x3e369119	0.17828788
77	0x3d8493a6	0.06473474
78	0x3d19acbf	0.03751826
79	0xbe4c7cd9	-0.199695
80	0xbe4d303d	-0.20037933
81	0xbc6d3a2a	-0.014479199
82	0xbe85f7ba	-0.26165563
83	0x3db29606	0.08720021
84	0xbe028083	-0.12744336
85	0xbe0d71d2	-0.1381295
86	0x3cdf5c62	0.027265731
87	0xbe412b05	-0.18864067
88	0x3d69f924	0.057122365
89	0x3cdc9115	0.02692465
90	0xbd35c3c1	-0.04437614
91	0xbdcb94c6	-0.09940486
92	0x3e2efaa9	0.17087807
93	0xbe6d15f1	-0.23152901
94	0x3db46177	0.088076524
95	0x3b24292e	0.002504896
96	0x3e5e0c15	0.21684296
97	0xbe0183ae	-0.12647888
98	0x3d483bc8	0.048885137
99	0xbda5411f	-0.080690615
100	0xbe4ed2ca	-0.20197597
101	0x3e3ef9f4	0.18650037
102	0xbd865597	-0.06559294
103	0x3dff48e1	0.124650724
104	0xbdc1045a	-0.09424658
105	0x3ded66df	0.11591887
106	0x3dc4497a	0.09584327
107	0x3d78c18c	0.060731456
108	0xbd7e3ceb	-0.062069815
109	0xbe8ab4e9	-0.27091148
110	0x3d3d4336	0.046206675
111	0xbe41bfe5	-0.18920858
112	0x3cfc9a9b	0.03083544
113	0x3d47063c	0.04858993
114	0xbd94fcba	-0.07274766
115	0x3e514625	0.20436914
116	0xbccfb9cd	-0.025357151
117	0x3d7fb5fa	0.062429406
118	0x3de26931	0.1105522
119	0xbd9c745b	-0.076393805
120	0xbdd39e67	-0.10332947
121	0x3e5d70e8	0.21625102
122	0xbe206fe0	-0.15667677
123	0x3e15dcb3	0.14634971
124	0x3cc81c54	0.02442757
125	0xbe3e2fda	-0.18572941
126	0x3e2bd85e	0.16781756
127	0xbd9c870a	-0.07642944
128	0xbce83bec	-0.028348885
129	0x3e3ed20a	0.18634811
130	0x3e0df7bd	0.13864036
131	0xbe249943	-0.1607409
132	0xbdaa8d0f	-0.08327686
133	0xbe18b3a1	-0.14912273
134	0xbd85a4d0	-0.06525576
135	0x3d74809e	0.05969297
136	0xbe6f2f96	-0.23357996
137	0x3d0cdc89	0.034390006
138	0xbd8eb0c6	-0.069673106
139	0xbd094176	-0.033509694
140	0xbe328ba8	-0.17436087
141	0xbe257613	-0.16158323
142	0xbe3455f1	-0.17610909
143	0x3c8b7631	0.017024131
144	0x3d5d84ac	0.054081604
145	0x3d87c7f3	0.06629934
146	0xbe010d4e	-0.12602732
147	0x3da44e55	0.08022753
148	0xbc00fd8b	-0.007872949
149	0x3e12a32a	0.14320055
150	0x3e3ca0ca	0.18420711
151	0xbe1552a4	-0.14582306
152	0x3e0d4443	0.13795571
153	0xbd97ec03	-0.074180625
154	0xbdc82886	-0.09773354
155	0x3e34908c	0.17633265
156	0x3da3f737	0.08006137
157	0x3d11d863	0.035606753
158	0x3e36e2bf	0.17859934
159	0xbe5e3b37	-0.21702276
160	0x3dee7461	0.11643291
161	0x3d8fffc2	0.07031204
162	0x3dd8ae72	0.10580148
163	0xbe081ad3	-0.13291483
164	0x3c8e43f4	0.017366387
165	0x3d1e116c	0.038590834
166	0xbd434983	-0.047677528
167	0x3e25e773	0.16201572
168	0xbdabf70f	-0.08396732
169	0x3d9918b4	0.07475415
170	0x3d864be8	0.06557447
171	0x3e3b7329	0.18305649
172	0x3d7da8b6	0.061928473
173	0xbe143a3a	-0.14475337
174	0x3d63e308	0.055636436
175	0xbd6e8abe	-0.058237784
176	0x3d337073	0.04380841
177	0x3e49e3f1	0.19715859
178	0xbdfae5bc	-0.122508496
179	0x3e3fb5da	0.18721715
180	0xbe33b108	-0.17548001
181	0xbdb284d1	-0.08716739
182	0x3da456f3	0.08024397
183	0x3cb6fc8d	0.022337222
184	0xbe0ead87	-0.13933383
185	0x3db584f1	0.08863247
186	0xbe43b0f6	-0.19110474
187	0xbd904ad7	-0.070455246
188	0x3de937bb	0.11387583
189	0x3dde5a53	0.10857072
190	0x3c281e20	0.010261089
191	0x3dc8cdc7	0.09804874
192	0xbe2ad8ec	-0.16684312
193	0x3e2ff6b1	0.17183949
194	0xbd9dbe03	-0.077022575
195	0xbe4b3d0d	-0.19847508
196	0x3e828a2a	0.25496036
197	0x3c5eaa01	0.013590337
198	0xbd4efef6	-0.05053612
199	0xbd639268	-0.055559546
200	0x3d48498a	0.048898257
201	0xbd85685c	-0.065140456
202	0x3d99c82c	0.07508883
203	0xbd9226e8	-0.07136327
204	0x3c3552d5	0.011067112
205	0xbe2bdeb6	-0.16784176
206	0x3dcb1a78	0.09917158
207	0xbd6bc702	-0.057562836
208	0xbdd94564	-0.10608938
209	0x3db28aaa	0.08717854
210	0x3d477f37	0.048705306
211	0xbd06395a	-0.03276954
212	0xbdb46458	-0.088082016
213	0xbe7a473a	-0.24441233
214	0x3d2459c9	0.04012469
215	0x3df6e1c6	0.120547816
216	0xbe3328be	-0.1749601
217	0x3ca8bbf1	0.02059743
218	0x3cd8e05a	0.026474167
219	0x3db68476	0.08911984
220	0x3e3f22e4	0.18665653
221	0x3ca6950e	0.020334747
222	0xbd9aeab7	-0.075642996
223	0x3e18436d	0.14869471
224	0xbe773215	-0.24140199
225	0xbe0ca073	-0.13733082
226	0x3d8f1717	0.06986826
227	0x3e09b79b	0.13448946
228	0xbd5a1890	-0.05324608
229	0xbd3f68fd	-0.046730984
230	0x3db1c1b6	0.086795256
231	0x3db568d8	0.08857888
232	0xbe5fcf2d	-0.21856375
233	0x3c91619a	0.017746735
234	0xbdeb312d	-0.11483989
235	0x3e33407f	0.17505072
236	0xbd5a83b8	-0.053348273
237	0xbdeaae5f	-0.1145904
238	0xbe569532	-0.20955351
239	0x3da7fe2a	0.08202775
240	0xbe52c190	-0.2058165
241	0xbd7127f5	-0.058875997
242	0x3db14570	0.08655822
243	0x3d9ae166	0.075625226
244	0x3c4b1415	0.012394925
245	0x3e443320	0.19160128
246	0x3cc9aabc	0.024617545
247	0x3e7543a6	0.23951587
248	0xbd8a6832	-0.06758155
249	0x3d723399	0.05913124
250	0xbdb0b52a	-0.08628304
251	0xbe1bd031	-0.15216137
252	0xbe82ba4b	-0.25532755
253	0xbd4b9721	-0.049704675
254	0x3d70ff9b	0.058837514
255	0x3e338af1	0.1753347

main.4.bias f4 [2048]
0	0xbe16d21c	-0.14728588
1	0x3e7770bd	0.241641
2	0xbe2a5bb7	-0.16636549
3	0x3e3ff5c8	0.18746102
4	0x3e82ffd7	0.25585815
5	0xbc864be9	-0.016393619
6	0xbdb7dde0	-0.08977866
7	0x3e6773d9	0.22602786
8	0x3e3d066f	0.18459485
9	0x3e852b0a	0.260094
10	0x3da93412	0.08261885
11	0xbdb937bc	-0.090438336
12	0xbdf6229e	-0.120183215
13	0xbe328383	-0.1743298
14	0x3e4be61e	0.19912001
15	0xbd85ccde	-0.06533216
16	0x3dd8a108	0.10577589
17	0x3c9c1ccc	0.0190567
18	0xbd247c1d	-0.040157426
19	0xbe2e34cb	-0.17012326
20	0x3e82e056	0.2556178
21	0x3de3ec40	0.111290455
22	0x3e7473bc	0.23872274
23	0xbd287b5a	-0.041133262
24	0xbe13a91c	-0.14419979
25	0xbe05ef32	-0.13079527
26	0xbd896c3c	-0.06710097
27	0xbe0fb514	-0.1403392
28	0x3d2ada09	0.04171184
29	0x3e57505e	0.21026751
30	0x3e1014d6	0.14070448
31	0x3e054a2d	0.13016577
32	0xbcc72265	-0.024308393
33	0xbd25c630	-0.04047221
34	0x3e83dd1d	0.25754634
35	0x3b6bd50f	0.0035985147
36	0x3e24907d	0.16070743
37	0xbd3c9b3f	-0.04604649
38	0xbdb04d87	-0.08608537
39	0x3e4b0569	0.19826283
40	0x3e5814f9	0.2110175
41	0xbdad7ae0	-0.08470702
42	0xbd6cc95d	-0.057809222
43	0x3e2202a9	0.15821327
44	0x3d960e4a	0.07326944
45	0x3c98f2a3	0.018670386
46	0xbd8ecc3f	-0.069725506
47	0x3cd3377f	0.025783299
48	0x3e58c26a	0.21167913
49	0x3dce8f91	0.10085977
50	0x3de362a5	0.11102799
51	0xbe15f06a	-0.14642492
52	0xbe213307	-0.15742122
53	0x3df84973	0.12123384
54	0x3e0d23a0	0.13783121
55	0xbdb4a38e	-0.08820258
56	0x3d28a2b2	0.041170783
57	0xbdc57a5f	-0.09642481
58	0xbd9e0835	-0.07716409
59	0xbca1bfd4	-0.019744791
60	0x3e94d8a5	0.29071537
61	0x3d80eb6d	0.06294904
62	0xbe08e440	-0.1336832
63	0x3de6d47b	0.11270996
64	0x3e844b68	0.2583878
65	0x3e1ea06d	0.15490885
66	0x3d860cfb	0.065454446
67	0x3c3b3fae	0.011428757
68	0x3e66d59c	0.22542423
69	0xbdd77b4f	-0.10521566
70	0xbdedfa8b	-0.11620053
71	0xbd6d41ce	-0.057924084
72	0x3e940d39	0.28916338
73	0xbdc46f3b	-0.09591528
74	0x3e2bb23e	0.16767213
75	0xbda4b1a2	-0.08041693
76	0x3d49d628	0.0492765
77	0x3e49008c	0.19629115
78	0x3df8054a	0.12110384
79	0x3e5834ff	0.21113966
80	0x3d06e434	0.032932475
81	0x3e22a6af	0.15883897
82	0x3e868ae6	0.26277846
83	0xbc2ff4e7	-0.010739542
84	0xbc7542b3	-0.014969516
85	0x3e3829be	0.17984673
86	0x3ced19d5	0.028942982
87	0x3d85e28a	0.065373495
88	0x3e8d650b	0.27616152
89	0xbd91db98	-0.07121962
90	0x3e411b9a	0.18858185
91	0x3e25f1ea	0.16205564
92	0x3d3d55d9	0.04622445
93	0xbd705313	-0.058672976
94	0x3bedf105	0.007261398
95	0xbd8d730b	-0.06906708
96	0x3cbdf400	0.023187637
97	0x3e88ff14	0.2675711
98	0xbdd59838	-0.10429424
99	0x3e840f2d	0.25792828
100	0xbd59aa57	-0.053140964
101	0xbd657932	-0.056023784
102	0x3cc10052	0.023559723
103	0xbdd4a28a	-0.10382564
104	0xbd40d019	-0.047073457
105	0x3e3de7fb	0.18545525
106	0x3da7ef4f	0.08199941
107	0x3e8179db	0.2528828
108	0xbd7d1710	-0.061789572
109	0x3e0cc68b	0.13747613
110	0xbdb70760	-0.089369535
111	0xbcd4d721	-0.025981488
112	0x3c5a44d6	0.013322076
113	0xbdbf7b1c	-0.09349653
114	0x3ca60f5e	0.020271
115	0x3e46fb71	0.19431855
116	0x3e9011a0	0.28138447
117	0xbbca1023	-0.0061664744
118	0x3e635180	0.22199059
119	0xbde363a0	-0.11102986
120	0xbd2ec351	-0.042666737
121	0xbcdbae08	-0.026816383
122	0x3e0f4f4c	0.13995093
123	0xbd0a5e0c	-0.033781096
124	0x3dddaab3	0.10823574
125	0x3e6e84a6	0.23292789
126	0x3d954e48	0.072903216
127	0x3e8e39a6	0.27778357
128	0x3cf5953f	0.029978393
129	0xbe42c7e9	-0.19021572
130	0x3d8d0410	0.068855405
131	0xbe5883ba	-0.21144
132	0xbe893c14	-0.26803648
133	0x3e2204b5	0.15822108
134	0xbd89d506	-0.06730084
135	0x3de8c5a2	0.113658205
136	0xbd7f912d	-0.06239431
137	0x3dfbd49a	0.1229641
138	0x3d77b321	0.060473565
139	0xbe378db7	-0.17925154
140	0x3e1ebc20	0.15501451
141	0xbd479d3e	-0.048733942
142	0xbd851363	-0.06497838
143	0xbdf83fdc	-0.12121555
144	0xbd9cc4ef	-0.076547496
145	0x3d20e183	0.039277565
146	0x3de40a7d	0.11134813
147	0x3d98658e	0.07441245
148	0xbd9bc143	-0.07605221
149	0x3e09cf1d	0.13457914
150	0xbe13f61e	-0.14449355
151	0xbc3840be	-0.0112459045
152	0x3cbea5d8	0.02327244
153	0x3d59ee06	0.053205512
154	0x3e06a4cc	0.13148803
155	0xbcaf94b6	-0.021433216
156	0xbe1bc6aa	-0.15212503
157	0x3dea0205	0.114261664
158	0x3e03bce7	0.1286503
159	0x3e4c663c	0.19960874
160	0xbdc66200	-0.09686661
161	0x3d33c432	0.04388828
162	0x3db6ef05	0.08932308
163	0x3ddeb3eb	0.108741604
164	0xbd96ea1f	-0.07368874
165	0xbdbe977a	-0.093062356
166	0xbe395fb8	-0.1810292
167	0x3e2964e3	0.16542391
168	0xbd5950d0	-0.053055584
169	0x3e2ccee6	0.168758
170	0x3ce37f4d	0.027770663
171	0xbded6005	-0.1159058
172	0xbe061142	-0.13092521
173	0xbd18acb8	-0.037274092
174	0xbdbcd8d8	-0.09221047
175	0x3d188bb2	0.0372426
176	0xbe2e7b6e	-0.17039272
177	0xbd913c23	-0.07091548
178	0xbe0de761	-0.13857795
179	0xbe403186	-0.18768892
180	0xbb0d0dd6	-0.002152314
181	0x3dd01f21	0.10162187
182	0xbe61a988	-0.22037327
183	0x3ca97fb8	0.020690784
184	0xbd089481	-0.03334475
185	0x3de1215b	0.1099269
186	0xbcf69095	-0.030098239
187	0xbea0b662	-0.31389147
188	0x3db644a4	0.08899811
189	0x3e1032a5	0.1408182
190	0x3dd2a5bd	0.10285518
191	0x3e184647	0.14870559
192	0x3da86a83	0.082234405
193	0x3e240304	0.16016775
194	0x3d8af30b	0.06784638
195	0xbe27958a	-0.16365638
196	0x3e40ce5f	0.18828724
197	0x3e20c840	0.1570139
198	0xbde681f5	-0.11255256
199	0xbd910261	-0.07080532
200	0x3e029f98	0.12756193
201	0xbdd9712f	-0.10617291
202	0xbd73ac71	-0.059490625
203	0x3d12d68e	0.035849147
204	0x3db55de2	0.08855797
205	0xbd39aa50	-0.04532844
206	0x3e004576	0.12526497
207	0xbcc58ec1	-0.024115922
208	0x3e77601c	0.24157757
209	0x3c855351	0.01627508
210	0x3e28e0ea	0.16492048
211	0xbda4d6fb	-0.08048817
212	0xbcad06ab	-0.021121344
213	0x3d9c4594	0.076304585
214	0x3dfeba4d	0.12437878
215	0xbd71e4d3	-0.059056114
216	0x3cbb727d	0.02288174
217	0x3de1997d	0.11015604
218	0x3ccaf850	0.024776608
219	0x3e514b93	0.20438986
220	0xbdfa672f	-0.12226712
221	0x3e72b5fa	0.23702231
222	0xbe413ed2	-0.1887162
223	0x3e570756	0.20998892
224	0xbe18b3d4	-0.14912349
225	0x3d464bd4	0.04841216
226	0xbd6d4d47	-0.057935026
227	0xbe0a98cf	-0.13534854
228	0x3e38938b	0.18025033
229	0x3d40a89a	0.04703579
230	0x3d7b062a	0.061285175
231	0xbe1b24b4	-0.1515072
232	0x3e419646	0.18904981
233	0xbe057dbc	-0.13036245
234	0x3d75dd4e	0.060025506
235	0x3e330eb7	0.17486082
236	0xbc89b78b	-0.016811153
237	0xbdae1b97	-0.08501356
238	0x3dfbcc57	0.12294834
239	0x3dd04852	0.10170044
240	0x3cefd7ce	0.029277708
241	0x3da61d3a	0.08111043
242	0x3e3721b1	0.17883946
243	0xbd37b6db	-0.04485212
244	0x3da62653	0.081127785
245	0x3dbcc0ae	0.09216438
246	0x3dd8e513	0.105905674
247	0xbd66b6f5	-0.056326825
248	0xbc34c8de	-0.011034219
249	0x3ddcfafe	0.107900605
250	0xbba51a2a	-0.0050385194
251	0xbe42140c	-0.1895296
252	0xbc55808b	-0.013031135
253	0x3d3bd876	0.04586073
254	0x3dc326e6	0.09528904
255	0xbdcfa33e	-0.10138558

conv.0.weight f4 [20, 1, 5, 5]
0	0x3d875fe8	0.066100895
1	0x3e0ec611	0.13942744
2	0x3e75b233	0.23993759
3	0x3e11f9b8	0.14255416
4	0x3db056bf	0.086102955
5	0xbc8ed59e	-0.017435845
6	0xbdd1df19	-0.102476306
7	0x3d12a209	0.03579906
8	0x3e62209f	0.22082756
9	0x3e418bab	0.18900935
10	0x3c63d2a2	0.013905199
11	0xbd420c96	-0.047375284
12	0x3ddf7950	0.109118104
13	0xbd5ea82e	-0.054359607
14	0xbdb03287	-0.08603387
15	0xbd4f58fe	-0.05062198
16	0xbdf58784	-0.11988738
17	0xb9167654	-0.00014349195
18	0xbcaf99c2	-0.021435622
19	0x3b9a4105	0.004707458
20	0xbe0754e4	-0.13215977
21	0xbe2fcd16	-0.17168078
22	0x3d2a9b5f	0.04165208
23	0xbd9ca41e	-0.0764849
24	0xbe1551dd	-0.1458201
25	0xbe1371a7	-0.14398824
26	0x3e00dad2	0.12583473
27	0x3d8c7517	0.068582706
28	0x3e285ce9	0.16441692
29	0x3db8506d	0.08999715
30	0x3dec8bfb	0.11550137
31	0xbe43807a	-0.19091979
32	0x3d70327a	0.05864189
33	0xbdcaef36	-0.09908907
34	0xbe443723	-0.19161658
35	0x3e049dee	0.1295087
36	0xbc757179	-0.014980667
37	0xbd8e395a	-0.06944533
38	0x3e3118b4	0.1729458
39	0xbdfefa88	-0.12450129
40	0xbad52a04	-0.0016263132
41	0x3e450049	0.1923839
42	0xbd7a8380	-0.061160564
43	0x3e0240c9	0.12720026
44	0x3cbad71e	0.022807654
45	0x3e041d06	0.12901697
46	0x3e2c2023	0.16809134
47	0x3dbf1a44	0.09331182
48	0x3da3ec0e	0.08004008
49	0xbdbfe34d	-0.09369526
50	0xbd1938d1	-0.0374077
51	0x3cb0f660	0.021601856
52	0x3df02b17	0.11726969
53	0x3e1e259e	0.15444037
54	0x3b89fb6c	0.00421088
55	0xbdb9e11a	-0.09076138
56	0xbdaaef55	-0.0834643
57	0x3e0ce32e	0.13758537
58	0x3d7f85e7	0.06238356
59	0x3bb9943b	0.0056634224
60	0xbe2e56cf	-0.17025302
61	0xbe1be188	-0.15222752
62	0xbd42024f	-0.047365483
63	0xbe01aac1	-0.12662794
64	0xbda486ed	-0.080335476
65	0xbdb8ae85	-0.09017662
66	0x3be58202	0.0070040235
67	0xbc59319a	-0.013256455
68	0x3d7522a2	0.05984748
69	0x3dd150ba	0.102204755
70	0xbcbc3af4	-0.02297733
71	0xbe4b1cf0	-0.19835258
72	0xbe48d7a1	-0.19613506
73	0xbd77bfad	-0.06048553
74	0x3de26240	0.11053896
75	0xbd007f91	-0.031371657
76	0x3dfd0ab2	0.123555556
77	0xbda04ee1	-0.07827545
78	0xbdd3b422	-0.10337092
79	0x3d4d0b3f	0.050059553
80	0x3e5628ab	0.20913951
81	0x3cb17396	0.021661561
82	0x3d30c959	0.04316077
83	0x3e8fd053	0.28088626
84	0xbd5f4742	-0.054511316
85	0x3e2323ff	0.159317
86	0xbe18de09	-0.1492845
87	0x3c8cdf2f	0.017196266
88	0xbe34541b	-0.17610209
89	0xbdf2473a	-0.11829992
90	0x3cd3d3fb	0.025857916
91	0xbdf04fe1	-0.11733986
92	0x3d5c0485	0.053715248
93	0xbe011bab	-0.1260821
94	0x3e00f0d0	0.12591863
95	0x3ccaba83	0.024747139
96	0x3d80d5fc	0.06290814
97	0x3e0057d2	0.12533501
98	0x3e23ac52	0.15983704
99	0x3e27c9f1	0.16385628
100	0xbe3760ed	-0.17908068
101	0xbdebc743	-0.115126155
102	0xbd85a9bd	-0.06526516
103	0x3dcb86d7	0.09937828
104	0xbe33209c	-0.17492908
105	0xbe38b6dd	-0.18038507
106	0xbe6ff746	-0.23434171
107	0xbda38a8b	-0.07985409
108	0x3c173711	0.009229437
109	0xbdd144fe	-0.10218237
110	0x3ddc895c	0.10768387
111	0xbc141fbb	-0.009040768
112	0x3cbfdb37	0.02341996
113	0xbd687534	-0.0567524
114	0xbe0744aa	-0.13209787
115	0xbe2bab80	-0.16764641
116	0x3dfd4f77	0.12368672
117	0xbdaa58e1	-0.083177336
118	0xbdb4c098	-0.08825797
119	0xbd91971e	-0.071089014
120	0xbe956f92	-0.29186684
121	0xbd804618	-0.06263369
122	0x3d9c304d	0.076264
123	0x3d0b7508	0.034047157
124	0xbce7d293	-0.028298652
125	0xbd915ce6	-0.07097797
126	0xbe6a4b38	-0.22880256
127	0x3dc8930d	0.09793673
128	0x3d696390	0.056979716
129	0xbbfc1199	-0.0076925275
130	0x3e142861	0.14468528
131	0x3d81dd91	0.063410886
132	0xbe19285a	-0.14956799
133	0xbe38b32b	-0.18037097
134	0x3cb84a30	0.022496313
135	0xbe40c327	-0.18824445
136	0xbded0747	-0.11573654
137	0xbe3d476a	-0.18484274
138	0x3db00f33	0.08596649
139	0xbe59e192	-0.21277454
140	0x3b63e829	0.003477583
141	0xbd989557	-0.07450359
142	0x3d52f039	0.051498625
143	0x3d6cfe71	0.05785984
144	0x3e4659c7	0.19370185
145	0xbe2e2496	-0.17006144
146	0x3d6355ba	0.055501677
147	0xbe3a60c2	-0.18200973
148	0xbdcfee45	-0.10152868
149	0xbe4ade18	-0.19811285
150	0xbdc6bf04	-0.09704402
151	0xbd5c8f8d	-0.05384784
152	0xbd1a66cf	-0.037695702
153	0x3e1b7f7e	0.15185353
154	0x3d011441	0.031513456
155	0x3d313feb	0.043273848
156	0xbd687b49	-0.0567582
157	0x3df9d993	0.12199702
158	0x3e58b5e2	0.21163133
159	0x3cf895ed	0.030344928
160	0x3cec1150	0.028816849
161	0xbda9e573	-0.08295717
162	0x3c6bda0d	0.014395249
163	0x3dcb750d	0.09934435
164	0x3e774760	0.24148321
165	0xbd8acf77	-0.06777852
166	0x3dd29bc2	0.10283615
167	0xbd935093	-0.07193103
168	0x3dbc919b	0.092074595
169	0x3e2a8c22	0.16655019
170	0x3c8a4a69	0.016881185
171	0x3d0d4ff2	0.03450007
172	0x3c92052e	0.017824735
173	0x3ddaf5c0	0.10691404
174	0xbe14992c	-0.14511555
175	0x3b30e342	0.0026990925
176	0x3d6e7638	0.05821821
177	0xbdff7113	-0.12472739
178	0xbcae83d1	-0.02130309
179	0xbe7411ae	-0.2383487
180	0x3de273f8	0.110572755
181	0x3e7257d0	0.2366631
182	0xbe107b83	-0.14109616
183	0x3e292005	0.1651612
184	0x3c877dd3	0.01653949
185	0xbe324af1	-0.174114
186	0x3e0a618a	0.1351377
187	0x3c481453	0.012211877
188	0x3d0a411d	0.033753503
189	0x3d97ec11	0.07418073
190	0xbdd1adb5	-0.1023821
191	0x3da79d27	0.08184271
192	0xbe59665f	-0.21230458
193	0xbcb2346d	-0.021753514
194	0xbdb7fd58	-0.08983868
195	0xbe0d12ba	-0.13776675
196	0x3dab0b42	0.08351757
197	0xbe301751	-0.17196395
198	0x3d3b6fb6	0.045760833
199	0xbd97d692	-0.07413973
200	0x3d91d618	0.07120913
201	0x3cb856a9	0.02250226
202	0xbe52d686	-0.20589647
203	0xbe2508ed	-0.16116686
204	0x3cf5b417	0.0299931
205	0xbe1a6cd8	-0.15080583
206	0xbe03de13	-0.12877683
207	0xbdd6fa5b	-0.1049697
208	0x3d1a4d01	0.037671093
209	0x3d14cf80	0.0363307
210	0x3e009389	0.1255628
211	0xbe08f7b6	-0.13375744
212	0x3db422df	0.08795714
213	0xbe5dab02	-0.21647266
214	0xbe8982c6	-0.26857585
215	0x3e1f64e4	0.1556583
216	0xbdf295a1	-0.11844946
217	0xbe37705f	-0.1791396
218	0x3df73c93	0.120721005
219	0xbe053220	-0.13007402
220	0x3dbc0118	0.09179896
221	0x3d1e7088	0.038681537
222	0xbd9a0c79	-0.0752191
223	0x3d379dd4	0.04482825
224	0x3e0a18fd	0.13486095
225	0x3c7eeaf5	0.015558948
226	0x3da9ccdb	0.08291026
227	0xbda74074	-0.0816659
228	0x3dd7cd01	0.10537148
229	0x3d86ca84	0.065815955
230	0x3dc35a11	0.09538663
231	0x3c4e3737	0.012586406
232	0x3cdadfe5	0.02671809
233	0xbd2b72ca	-0.04185752
234	0x3cfb42c2	0.030671481
235	0x3e0534ce	0.13008425
236	0x3d9ea1e0	0.07745719
237	0xbe0e0689	-0.1386968
238	0xbc8d3922	-0.017239157
239	0xbcfcbba8	-0.0308512
240	0xbd58560c	-0.052816436
241	0x3e430e13	0.19048338
242	0x3e0f5ef2	0.14001063
243	0x3e5ab714	0.21358901
244	0xbc83f5f6	-0.016108494
245	0x3d6bc3e5	0.057559866
246	0x3dc61ed2	0.09673847
247	0xbe036cd7	-0.12834488
248	0x3dbf7770	0.09348953
249	0x3e1a2a23	0.15055136
250	0xbe653fab	-0.22387569
251	0xbe703e94	-0.23461372
252	0xbe4602b1	-0.19336964
253	0xbe04ba75	-0.12961753
254	0xbe02ee12	-0.12786129
255	0xbd8e7520	-0.069559336

conv.0.bias f4 [20]
0	0xbc9736fc	-0.018458836
1	0x3de69c93	0.11260333
2	0x3e5702d6	0.20997176
3	0xbcae842d	-0.02130326
4	0x3de63da5	0.112422265
5	0xbd08c23e	-0.03338837
6	0xbe3576d3	-0.17721109
7	0xbdccd091	-0.100007184
8	0xbddb6e1a	-0.107143596
9	0xbe20c3fb	-0.1569976
10	0x3bd31562	0.006441758
11	0x3d347b9e	0.044063203
12	0xbe113243	-0.1417933
13	0x3dff8755	0.124769844
14	0xbe646f04	-0.22307974
15	0x3e19476d	0.14968653
16	0x3bc3d4bb	0.005976287
17	0xbd143c91	-0.036190573
18	0xbd981ceb	-0.07427391
19	0x3e06417f	0.13110922

conv.2.weight f4 [20]
0	0x3f8e585c	1.1120715
1	0x3f71188a	0.9417807
2	0x3f8928b7	1.071555
3	0x3f6fc19f	0.9365482
4	0x3f8a6bed	1.0814186
5	0x3f83c2f5	1.0293871
6	0x3f8c69a2	1.0969737
7	0x3f8d421f	1.1035804
8	0x3f8ebad3	1.1150764
9	0x3f8e2fb5	1.1108309
10	0x3f933f83	1.1503757
11	0x3f90c0f2	1.1308882
12	0x3f8d90ac	1.1059775
13	0x3f7bef60	0.9841213
14	0x3f96fa42	1.1795123
15	0x3f94883e	1.1604078
16	0x3f9a3922	1.2048686
17	0x3f891b68	1.0711489
18	0x3f830d16	1.0238369
19	0x3f667453	0.90021247

conv.2.bias f4 [20]
0	0x3e3c6509	0.18397917
1	0x3e0f7e98	0.14013135
2	0x3e0f8328	0.14014876
3	0x3e106801	0.14102174
4	0xbe002adf	-0.12516354
5	0x3e0acd19	0.13554801
6	0xbe09ee40	-0.13469791
7	0x3e2a2113	0.1661418
8	0xbe132797	-0.14370571
9	0xbe0e8ffe	-0.13922116
10	0x3e30211c	0.1720013
11	0xbe03cb7a	-0.12870589
12	0xbe0c64be	-0.13710305
13	0x3e0d3c7f	0.13792609
14	0xbe06a39b	-0.13148348
15	0xbe090fbb	-0.13384907
16	0x3e141498	0.14460981
17	0xbe0f8327	-0.14014874
18	0x3e2094dd	0.15681787
19	0x3e0c9b7f	0.13731192

conv.2.running_mean f4 [20]
0	0x3d92e65d	0.071728446
1	0x3e82a27b	0.25514588
2	0x3df53d49	0.1197458
3	0x3e00b1bb	0.12567799
4	0xbcc7d274	-0.024392344
5	0xbd34d4ef	-0.04414838
6	0x3d3e4ffa	0.04646299
7	0xbcc0ab88	-0.023519292
8	0xbd44c9d5	-0.048044045
9	0x3d9611e1	0.07327629
10	0x3cf0eb02	0.029408935
11	0x3e2f0b96	0.17094263
12	0x3e1d71d1	0.15375449
13	0x3e6839ff	0.22678374
14	0xbcfbce50	-0.030738026
15	0xbcca7bf7	-0.024717314
16	0xbc91f69b	-0.017817786
17	0x3e2ed26f	0.17072462
18	0x3da07fa2	0.07836844
19	0x3e4119dc	0.18857521

conv.2.running_var f4 [20]
0	0x3c7caa86	0.015421515
1	0x3d0657f7	0.032798734
2	0x3c8035ee	0.015650716
3	0x3ccfb413	0.02535442
4	0x3b9a4865	0.004708337
5	0x3b8d7fab	0.0043181977
6	0x3c4c3cbd	0.012465653
7	0x3ba8ed7f	0.005155265
8	0x3b8bd8a4	0.004267769
9	0x3c6ac478	0.014329068
10	0x3c336ea4	0.010951672
11	0x3ceae3e5	0.028673122
12	0x3cc6fe72	0.02429125
13	0x3cf2e65c	0.02965086
14	0x3b8ce640	0.004299909
15	0x3aca1ee2	0.0015420581
16	0x3bae24ab	0.0053144298
17	0x3ceca31f	0.028886376
18	0x3c918c21	0.017767014
19	0x3cc48090	0.023987085

conv.3.weight f4 [1, 20, 5, 5]
0	0xbe1b3fe8	-0.15161097
1	0xbe0a595a	-0.13510647
2	0xbe2d2c36	-0.16911396
3	0xbe23e45e	-0.16005084
4	0xbe176e72	-0.14788225
5	0xbe24821c	-0.16065258
6	0xbe289845	-0.16464336
7	0xbe1419b9	-0.14462937
8	0xbe3678ca	-0.17819515
9	0xbde85643	-0.11344578
10	0xbdc9d651	-0.09855331
11	0xbdb6a398	-0.08917922
12	0xbd495bfa	-0.04915998
13	0xbdee8018	-0.11645526
14	0xbd8caba9	-0.06868679
15	0xbe3c336b	-0.1837899
16	0xbdcea0a1	-0.10089231
17	0xbdacc348	-0.084356844
18	0xbe0e8fdc	-0.13922065
19	0xbdf30992	-0.1186706
20	0xbe384008	-0.17993176
21	0xbe29829f	-0.16553734
22	0xbe25630a	-0.16151062
23	0xbdfb9dcf	-0.12285959
24	0xbe19a3f3	-0.15003948
25	0xbe209c33	-0.15684585
26	0xbe2905ac	-0.1650607
27	0xbe3e35b1	-0.18575169
28	0xbe2e49c4	-0.17020327
29	0xbe142e65	-0.14470823
30	0xbe3c84f8	-0.18410099
31	0xbe1287d3	-0.14309625
32	0xbe0223b2	-0.12708929
33	0xbdf361df	-0.11883902
34	0xbdc61d41	-0.096735485
35	0xbe0b5dc4	-0.13609987
36	0xbdefd19e	-0.11709903
37	0xbdc01f66	-0.09380989
38	0xbde053b3	-0.10953464
39	0xbe348a57	-0.17630897
40	0xbdd7888d	-0.10524092
41	0xbe1719dd	-0.1475596
42	0xbdce9e02	-0.10088731
43	0xbe17ad73	-0.1481226
44	0xbe15f3e1	-0.14643814
45	0xbe245a16	-0.1604999
46	0xbdfa9451	-0.1223532
47	0xbdc7f4bd	-0.09763477
48	0xbe228990	-0.15872788
49	0xbe05a1d0	-0.13050008
50	0xbe080901	-0.13284685
51	0xbe3b0fce	-0.18267748
52	0xbe351605	-0.17684181
53	0xbe1fe164	-0.15613323
54	0xbdfbbbbf	-0.12291669
55	0xbdcf5b4d	-0.10124836
56	0xbe2665eb	-0.16249816
57	0xbdd40c72	-0.10353936
58	0xbd9e353e	-0.07724999
59	0xbe2912a2	-0.16511014
60	0xbe0ec763	-0.13943247
61	0xbdfb3819	-0.12266559
62	0xbdd40f37	-0.103544645
63	0xbe002bc4	-0.12516695
64	0xbd92b009	-0.07162482
65	0xbe1624fe	-0.14662549
66	0xbdb2985d	-0.08720467
67	0xbe22d6e3	-0.15902285
68	0xbe10df0e	-0.14147589
69	0xbd9874dc	-0.07444164
70	0xbe107d21	-0.14110233
71	0xbe17b9b2	-0.14816931
72	0xbddb5431	-0.107094176
73	0xbe2c24cc	-0.16810912
74	0xbe332f1c	-0.1749844
75	0xbde33b89	-0.1109534
76	0xbe113e48	-0.14183915
77	0xbe29643c	-0.16542143
78	0xbdb59242	-0.08865787
79	0xbe11a55a	-0.14223233
80	0xbde23405	-0.11045078
81	0xbe2b5d82	-0.16734889
82	0xbe2508a5	-0.16116579
83	0xbdff8139	-0.12475819
84	0xbdc987e1	-0.0984037
85	0xbe083953	-0.13303117
86	0xbdc0089b	-0.09376641
87	0xbdd002c8	-0.101567805
88	0xbe0201a3	-0.12695937
89	0xbdcf3cfc	-0.10119054
90	0xbdea361f	-0.11436104
91	0xbe203bca	-0.15647808
92	0xbddcc673	-0.10780039
93	0xbe327d60	-0.1743064
94	0xbe006b41	-0.12540914
95	0xbe533cb8	-0.20628631
96	0xbe164168	-0.14673388
97	0xbe483480	-0.19551277
98	0xbdfd92a1	-0.12381483
99	0xbdff6ba7	-0.12471705
100	0x3e1ec33b	0.15504162
101	0x3e4c68b6	0.19961819
102	0x3e231c4f	0.15928768
103	0x3e2e92aa	0.17048135
104	0x3e33cc71	0.17558457
105	0x3e3e3238	0.18573844
106	0x3e0048a8	0.12527716
107	0x3e2f640f	0.17128013
108	0x3e345318	0.17609823
109	0x3e2ecd04	0.17070395
110	0x3df99a3c	0.12187621
111	0x3e045d07	0.12926112
112	0x3dc69567	0.09696465
113	0x3e0936d5	0.13399823
114	0x3e38fc50	0.18065
115	0x3ddd2a4b	0.10799082
116	0x3e2f57b8	0.17123306
117	0x3dbf1f8c	0.09332189
118	0x3e293ed4	0.16527873
119	0x3e2f0422	0.1709142
120	0x3df126c8	0.11774975
121	0x3e054e13	0.13018064
122	0x3e221861	0.15829612
123	0x3e115d52	0.14195755
124	0x3e1a7abb	0.1508588
125	0xbe06b680	-0.13155556
126	0xbdd025d8	-0.10163468
127	0xbe1e2246	-0.15442762
128	0xbd9a9074	-0.075470835
129	0xbda320af	-0.07965218
130	0xbe2edd8d	-0.17076702
131	0xbe3b1ede	-0.18273494
132	0xbe0fe905	-0.14053734
133	0xbe29be1b	-0.16576426
134	0xbe186592	-0.14882496
135	0xbe2624da	-0.16224995
136	0xbe25d7a7	-0.16195546
137	0xbe23ecf1	-0.16008355
138	0xbe0e618f	-0.13904403
139	0xbe351d08	-0.17686856
140	0xbe26cddd	-0.16289468
141	0xbe271d59	-0.16319789
142	0xbdde5a73	-0.108570956
143	0xbe1adf90	-0.15124345
144	0xbdc7dd7c	-0.09759042
145	0xbe0c8de3	-0.13726
146	0xbe39a91b	-0.18130915
147	0xbe1763b6	-0.1478413
148	0xbdf963a5	-0.12177209
149	0xbe03e713	-0.12881117
150	0x3e0eb1c5	0.13935001
151	0x3e1a061c	0.15041393
152	0x3e0cdc57	0.13755928
153	0x3dfb3293	0.12265506
154	0x3e37ad79	0.17937268
155	0x3da3c46f	0.07996451
156	0x3da91633	0.08256187
157	0x3df00b27	0.11720877
158	0x3df55e66	0.11980896
159	0x3e261c51	0.1622174
160	0x3e0d252e	0.13783714
161	0x3db3232c	0.08746943
162	0x3e2dff5d	0.16991945
163	0x3e02211f	0.12707947
164	0x3e29338a	0.16523567
165	0x3e076145	0.13220699
166	0x3e0c5d66	0.13707504
167	0x3df932bb	0.12167879
168	0x3de3f2fd	0.11130331
169	0x3db40572	0.08790101
170	0x3dd5a90a	0.10432632
171	0x3df48512	0.11939444
172	0x3e0dc052	0.13842896
173	0x3e13e07d	0.14441104
174	0x3dc4b5a0	0.09604955
175	0xbde99698	-0.114056766
176	0xbdca2174	-0.09869662
177	0xbe12f12b	-0.14349811
178	0xbdc6ccaa	-0.09707005
179	0xbdd83737	-0.105574064
180	0xbe0f0ce5	-0.13969763
181	0xbe0b77df	-0.13619946
182	0xbe134e06	-0.14385232
183	0xbe1093a4	-0.1411882
184	0xbe0fc7ce	-0.14041063
185	0xbd8bd876	-0.06828396
186	0xbda4d543	-0.08048489
187	0xbe088ec8	-0.13335717
188	0xbdcfe0bb	-0.10150286
189	0xbe338624	-0.1753164
190	0xbe1e28bf	-0.15445231
191	0xbdf82f85	-0.12118439
192	0xbdf34f8d	-0.118804075
193	0xbdce51b0	-0.100741744
194	0xbe1fb3e5	-0.15595968
195	0xbe3abce0	-0.18236113
196	0xbe30eb4f	-0.17277263
197	0xbe1607e2	-0.14651445
198	0xbe1e9ad9	-0.15488757
199	0xbe0f4940	-0.13992786
200	0x3e23358a	0.15938392
201	0x3e02fc72	0.12791613
202	0x3ded074d	0.11573658
203	0x3dc9293e	0.098223194
204	0x3e1049de	0.14090678
205	0x3e1f6218	0.15564764
206	0x3e4670fd	0.19379039
207	0x3ddf0568	0.10889703
208	0x3e460060	0.1933608
209	0x3e4d4380	0.2004528
210	0x3e04423f	0.12915896
211	0x3df62cb8	0.12020248
212	0x3dd61412	0.10453047
213	0x3e1f5b09	0.15562071
214	0x3e34ef13	0.17669325
215	0x3e2013f0	0.15632606
216	0x3e4ac8aa	0.1980311
217	0x3e438875	0.19095023
218	0x3e0f3a03	0.13986973
219	0x3e184770	0.14871001
220	0x3e165e0b	0.14684312
221	0x3e02c515	0.12770493
222	0x3db935b3	0.090434454
223	0x3e0f3b0f	0.13987373
224	0x3e02e6f1	0.1278341
225	0x3dec011e	0.115236506
226	0x3db72d97	0.089442424
227	0x3e0286cc	0.12746733
228	0x3dc30831	0.09523047
229	0x3ded82ba	0.115972
230	0x3e0980c0	0.1342802
231	0x3e0b25db	0.1358866
232	0x3e23df80	0.16003227
233	0x3deadfc2	0.1146846
234	0x3e073c65	0.13206632
235	0x3dcc1c18	0.09966296
236	0x3dcd1a02	0.10014726
237	0x3e3bfd73	0.18358402
238	0x3e172c82	0.14763072
239	0x3dad85f5	0.08472816
240	0x3dacfcc5	0.084466495
241	0x3e11ac9f	0.14226006
242	0x3e38094a	0.17972293
243	0x3e042a5e	0.12906787
244	0x3e0b86bb	0.13625614
245	0x3e161671	0.14656998
246	0x3e03d70b	0.12875001
247	0x3e16d7fa	0.14730826
248	0x3db57f35	0.088621534
249	0x3e122079	0.142702
250	0xbe0cc4fd	-0.1374702
251	0xbde450f7	-0.11148255
252	0xbdbf9688	-0.093548834
253	0xbe1e05d6	-0.15431914
254	0xbe276e3b	-0.16350643
255	0xbe2aa2a7	-0.1666361
