src/caches/cache_16_20_small/param2img2.pt (torch, 184864 bytes, 19 tensors)

main.0.weight f4 [16]
00000000: 8caf 583f 34a7 4f3f b0f4 563f 41fb 8c3f
00000010: 30e0 5d3f b9a5 8a3f 1507 6b3f a715 843f
00000020: 634c 8c3f b00c 923f 79db 743f 9c1e 933f
00000030: 1fdb 983f 7d88 553f 549d 583f 2a75 813f
0.84642863 0.81114507 0.83967113 1.1014177 0.8667021 1.0831825 0.9180768 1.0319108
1.0960811 1.1410122 0.9564739 1.1493716 1.194187 0.8341139 0.84615064 1.0113881

main.0.bias f4 [16]
00000000: f52f 79bd c584 5cbd b4c6 333d 644a 5f3d
00000010: 1242 debd ce34 063e 2b36 82bc 032f 3abd
00000020: b47c c5bd 5273 be3d b759 633c a5c2 afbd
00000030: b0c3 603d 0c88 913d ea1c 593d 8485 0e3e
-0.06083675 -0.053837556 0.04389067 0.054514304 -0.10852446 0.13106081 -0.01589497 -0.04545499
-0.09642926 0.09299339 0.01387637 -0.085820474 0.054874122 0.07106027 0.05300609 0.1391812

main.0.running_mean f4 [16]
00000000: da75 e237 310d f737 bcd4 4c3e 79ce bc3a
00000010: e457 333c 1ae3 2eba eca9 f43e 31e3 c03a
00000020: 0e2f b33c 0cc7 2fba d4a4 f43e 13cd bc3a
00000030: ad44 063d 3b9c 61b8 aac4 4c3e d5ac be3a
2.6996178e-05 2.9450837e-05 0.20003027 0.0014404795 0.010946248 -0.0006671414 0.4778589 0.0014716146
0.021873023 -0.00067053805 0.47782004 0.0014404379 0.032780338 -5.378968e-05 0.19996896 0.0014547358

main.0.running_var f4 [16]
00000000: 7381 8b35 3c0d 8635 8680 8535 4928 263b
00000010: 4303 ee37 1ec4 0c39 aaaa a53d 6352 263b
00000020: 1901 e838 db78 0d39 539d a53d fa55 263b
00000030: abab 8139 641f 8635 10b0 8135 8e23 263b
1.0393982e-06 9.98763e-07 9.946677e-07 0.0025353602 2.837333e-05 0.000134245 0.08089192 0.0025378696
0.000110628265 0.0001349183 0.08086648 0.0025380836 0.000247327 9.992914e-07 9.66249e-07 0.0025350782

main.1.weight f4 [20, 16]
00000000: 29d0 09bc 4cf0 d93a d4ad b63b f110 593e
00000010: 89bb 5abe de2e 8f3e 0e81 c2bd 2232 b33d
00000020: 9f96 86be 25e9 12bd 4ce3 29be 3dd5 2fbe
00000030: f19c 0dbe 1b2a 9ebb df1d 32bb 2e3f 103e
00000040: d238 b3bb fff3 7737 6b76 d23b 4dd2 2a3d
00000050: 8b71 ca3c d856 c3bd 476c 48be c061 8c3e
00000060: c7e5 273e 8d18 c4bc 9701 81bd 1baf 043d
00000070: e317 643e a6ea 72bb 1b0f 3d3c 9114 a43e
00000080: d20e 423b 6f57 b8bb 2ad7 183c a8f6 80be
00000090: 2f5e 00be 4305 20be ed06 a9bd cced 86bc
000000a0: 4ca1 773d e091 953e 1fc3 ffbd 4f87 bcbe
000000b0: 72aa 453e a3d6 9a3b bdd1 443c ab31 99bd
000000c0: d1b3 e53b d3bc ebbb f45d 96bb ccf0 48be
000000d0: 0d7c 4e3d 3f97 9dbe 6748 94bd b0d0 493e
000000e0: e614 fb3c 43bf a9be 1857 eb3d abc2 e6bc
000000f0: bd5d 2fbd b0ad 993b f4a2 4cbb 3f88 a2bd
00000100: 58a0 3fbc 6e27 013b 7cc8 423c 413a 0c3e
00000110: a7bf 40bd ff08 6cbe 4af0 8f3c 80e5 02bc
00000120: 8623 763e a81c a63c a509 69be 125b af3e
00000130: 13c0 cd3d 53be 6bbb 4cbf 89bb 1a0f 7f3e
00000140: 6516 2ebb c990 da3b d239 cfbb 0daa 90bd
00000150: b0d5 103e 9617 bc3d 4a0b 5e3d 2952 043e
00000160: e5bf 9b3e 5dc2 473c 3e6b 913d dc04 9e3c
00000170: 2a7d b73e 83b4 53bb 7118 ec3a 8d1f 09bd
00000180: 0c67 5dbb 0445 843b 2bb5 083c 6dc4 173d
00000190: 468e f93d 37c5 8d3e 6b45 f13c bd42 cdbd
000001a0: b4e5 a63d e3b3 a83e 2e21 02be b1dd 38bd
000001b0: de27 b53d 74a0 e4ba fa82 2f3b e2c4 60be
000001c0: 0a38 753b c8fb ee3b e471 75bc 64ec 543a
000001d0: 184c 553c 277a acbe 1065 82bd 323c e03d
000001e0: 4b33 373e 7257 98be 99fd 803c b500 23be
000001f0: 811d 3f3e 8d4b 5f3b da87 1c3c 8fff 0e3c
00000200: 8a7b 05b9 cb22 96ba 9ac1 a73b 0e2e 043e
00000210: 5259 6abe 86a3 963d 5952 8bbb 9d15 0cbe
00000220: ea1c 8abe 2e0f 483e 08a0 a43d 637c 25be
00000230: 355f 4fbe 3bc5 99b9 4bff 8fbb 0164 b0bd
00000240: 201e 14b9 f5d1 173b 35dd 0ebb 339c 6c3d
00000250: 4c45 d53d 385b 823e ab0c 023e 4250 ff3d
00000260: 82f1 4d3e f49c 713e 03e0 293b a176 5abe
00000270: 763f 323e 3801 38bb a76a 26bc b233 5ebd
00000280: 452a 983a 7ece f4bb e947 9d3c 3d19 123e
00000290: b222 0d3e d43d ed3d 4b5b 2bbd 9470 7a3e
000002a0: be79 d9bc 0868 9fbe 8a7b 413e 27a1 a03e
000002b0: 0472 963b 937e 963b 3620 3ebb 94a9 53bd
000002c0: 1f5a 50ba 05db 3e3b b8c8 903b 4652 fdbd
000002d0: c177 1a3e 5fe1 07be df25 09be 1c43 0dbe
000002e0: 61a7 f73d 820d c8bd 8c76 dd3d 394f 4fbe
000002f0: 1915 e73d ae61 8b3b b71a e63a f452 2c3e
00000300: 9f71 14bb 01ec b73b df9e 5e3b 42a6 0b3e
00000310: 0087 fcbd e12f 98bd 2e88 a93d e14f 983d
00000320: ca3f 8fbe 5201 d2bd 7cfa 13be b519 fdbd
00000330: 9bcb 9fbd cdbf 26ba da6b b63b 7be0 623d
00000340: 6593 4dbb 55a9 f1b9 4e11 a2bc f0f9 24be
00000350: 0bd6 323e 8d14 353e 332f 41be 9e0a 7f3e
00000360: 5ed9 233e 4544 24bd 6e80 49be 5bc5 483e
00000370: 089a 873e 94a2 5e3c 9dd8 fe3a c562 8f3e
00000380: 9d67 9dbc 8437 fb3b 50af aabb 6066 5a3e
00000390: 486a 0bbd f35b 96bd 9b5b 52be 951b 9b3e
000003a0: 4d08 8dbe bf68 af3d 1a1b 4c3e bf2b 473e
000003b0: fa26 803d 15df 87bb a2b8 a33a 023b a0bd
000003c0: 2884 993b 2a84 0abc a3bc 043c 526f e83d
000003d0: 5a29 5bbd 1574 d6bd 2567 073e 7ed4 10bb
000003e0: f679 01be 575a 94be 7797 27be 7687 e3bd
000003f0: 8d96 c0be 3395 763a 03f7 8e3c 1935 803e
-0.008411446 0.00166274 0.005574921 0.21197869 -0.21360601 0.27965444 -0.094972715 0.087497965
-0.2628679 -0.035866875 -0.16590613 -0.17171188 -0.138294 -0.0048267967 -0.002717845 0.14086601
-0.00546942 1.4779157e-05 0.006422808 0.041704465 0.024712345 -0.095380485 -0.19572555 0.27418327
0.16396247 -0.023937488 -0.06299131 0.032393556 0.22274737 -0.003706613 0.011539246 0.3204694
0.0029610884 -0.0056256573 0.009328643 -0.25188184 -0.12535928 -0.15627007 -0.08253274 -0.016470812
0.06045656 0.29212856 -0.12488388 -0.36821982 0.19303301 0.0047252937 0.012012896 -0.074801765
0.007009961 -0.0071941405 -0.004588837 -0.19623107 0.050411273 -0.30779454 -0.07240372 0.19708514
0.030649614 -0.33153734 0.11491221 -0.028168997 -0.042814005 0.0046898946 -0.0031225057 -0.07936143
-0.011695944 0.001970734 0.0118886195 0.13694097 -0.047057774 -0.23050307 0.017570633 -0.007989287
0.24036989 0.020277336 -0.22757585 0.3424917 0.10046401 -0.0035971596 -0.0042037126 0.24908105
-0.002656364 0.0066700918 -0.0063240314 -0.070636846 0.14144015 0.09184186 0.054209985 0.12921967
0.3041984 0.012192336 0.07100533 0.019289427 0.3583768 -0.0032303638 0.0018012655 -0.033477355
-0.0033783345 0.0040365476 0.008343975 0.03705256 0.1218534 0.27689525 0.029452046 -0.10022495
0.08149281 0.32949743 -0.1270797 -0.045133296 0.08845495 -0.0017442838 0.002678095 -0.21950105
0.0037417435 0.0072931983 -0.014980767 0.0008122383 0.01301863 -0.33686945 -0.063669324 0.10948981
0.1789066 -0.29754215 0.015745925 -0.15918238 0.18663599 0.0034072131 0.009553874 0.008727922
-0.0001272989 -0.0011454461 0.0051195147 0.12908193 -0.22885635 0.07355408 -0.00425176 -0.1368012
-0.26975185 0.1953704 0.08038336 -0.16160731 -0.20251162 -0.00029329382 -0.004394447 -0.08612824
-0.00014125602 0.0023165916 -0.002179933 0.05776615 0.10413608 0.2546022 0.12700145 0.1246648
0.20111659 0.23595029 0.0025920875 -0.21334316 0.17407021 -0.0028076898 -0.010157264 -0.05424852
0.0011609277 -0.007470905 0.019199328 0.1426744 0.13782766 0.115840584 -0.04183511 0.24457008
-0.026547309 -0.31134057 0.18894783 0.3137295 0.0045912284 0.0045927255 -0.0029010898 -0.051675394
-0.00079479994 0.0029122245 0.004418459 -0.12369208 0.15084745 -0.13269566 -0.13393353 -0.13795131
0.12092472 -0.097682014 0.10813627 -0.20245065 0.11283321 0.0042535877 0.0017555569 0.16828519
-0.0022650731 0.0056128507 0.0033969206 0.13637641 -0.12330437 -0.07431007 0.08277927 0.07437111
-0.27978355 -0.10254158 -0.14451021 -0.12358419 -0.078025065 -0.0006360978 0.005567056 0.055389863
-0.0031368372 -0.00046093264 -0.019783642 -0.16110969 0.17464463 0.17683621 -0.18865661 0.24906394
0.16000888 -0.04010417 -0.19677898 0.19606535 0.26484704 0.013588566 0.0019443218 0.28005043
-0.019214446 0.00766653 -0.005208887 0.21328115 -0.034036905 -0.07341757 -0.20542757 0.3029448
-0.27545395 0.085649006 0.19932213 0.19450282 0.06257434 -0.0041464665 0.0012490938 -0.07823755
0.0046849437 -0.008454362 0.008101615 0.11349358 -0.053506233 -0.1047136 0.1322294 -0.0022099311
-0.1264418 -0.28975174 -0.16366373 -0.111098215 -0.3761486 0.00094063877 0.017451769 0.2504051

main.1.bias f4 [20]
00000000: 1c17 cc3d 35fd d43d 180c 6a3e 0ff3 11be
00000010: a74e e1bd 13a6 eebd c7b9 71be bc7f a0bc
00000020: 30cf c73c 811d 023e bd03 bb3b 3993 983e
00000030: 1193 763e aa55 313e 4f34 34be 15f5 623e
00000040: 41fc 33be 0484 973e 70ff 1c3e 630f 0cbe
0.09965345 0.10399858 0.22856176 -0.14252876 -0.1100133 -0.1165277 -0.23606025 -0.019592158
0.024390787 0.12706567 0.0057072327 0.29799822 0.24079539 0.17317834 -0.17598079 0.22163804
-0.17576696 0.29592907 0.15331817 -0.13677745

main.3.weight f4 [20]
00000000: 8150 623f aaf2 693f d201 5a3f 83c3 7c3f
00000010: 5ef5 743f e288 833f 6180 813f 1ad7 783f
00000020: 9375 6c3f 16d6 883f bdf7 533f eba5 703f
00000030: 837e 7a3f 9d47 813f 6e6e 543f 010c 7c3f
00000040: 8f05 5e3f a735 6d3f 2037 613f 86f7 773f
0.8840409 0.913859 0.8515903 0.9873583 0.956869 1.0276148 1.0117303 0.9720322
0.92366904 1.0690334 0.82799894 0.9400317 0.9784929 1.009998 0.82981 0.98455817
0.8672723 0.9265999 0.8797474 0.96862066

main.3.bias f4 [20]
00000000: 6186 123d 27d5 0b3d 6b80 5cbd 8dd6 82bd
00000010: 1030 c7bd 6dac dcbd a328 633b 1766 efbd
00000020: 2467 cbbb ea7b 06be 035a ccbd 94b9 1c3e
00000030: d515 383b 638b c3bd 7859 2ebe b93c 9abd
00000040: dd12 0fbe ba78 193e 9861 8e3d 62c6 da3c
0.035772685 0.034138825 -0.053833406 -0.063885786 -0.09725964 -0.10775075 0.0034661673 -0.11689394
-0.0062073637 -0.13133207 -0.09978106 0.15305167 0.0028089185 -0.0954807 -0.17026317 -0.07531113
-0.1397204 0.1498746 0.06952208 0.026705924

main.3.running_mean f4 [20]
00000000: d81b ca3e d0db af3e 2f40 ec3e 6fd1 ce3d
00000010: e8e0 523e bb04 473e 3e28 0c3e d722 693e
00000020: 5541 a53e f5b2 ad3e 9898 603e 0d47 ca3e
00000030: cee1 b73e 01a0 d33e 22d9 243e a215 ca3e
00000040: 4b7e 3d3e efdc 003f 050e cd3e 0f48 703e
0.39474368 0.3434739 0.46142718 0.1009854 0.20593607 0.19435398 0.13687226 0.22767197
0.32276407 0.33925596 0.2193321 0.39507332 0.35914463 0.4133301 0.16098455 0.3946963
0.18505208 0.5033712 0.4004976 0.23464988

main.3.running_var f4 [20]
00000000: 08d4 973e 7428 a83e fc57 c23e 6c32 053e
00000010: 148f 8c3e 363b 603e 48af 293e 14cc 813e
00000020: 56b8 993e 9db9 793e d6a4 5b3e 2591 753e
00000030: ef89 383e 689b d53e 79b7 3f3e 6db6 a93e
00000040: 3bc7 833e d117 da3e 6adf d33e 5f17 603e
0.29653955 0.32843363 0.37957752 0.13007516 0.2745291 0.21897587 0.1657077 0.25351012
0.3002345 0.24387212 0.21449599 0.2398115 0.18021367 0.41720128 0.18722333 0.33146992
0.25737938 0.42596295 0.4138139 0.21883915

main.4.weight f4 [2048, 20]
00000000: e3c9 013d ddb1 a13d adef 603e 593e bf3d
00000010: efbb 623e 0a6a c23d 7c04 2e3e ca34 09be
00000020: 8d22 863d 23f7 45bd c42b 8abe eb18 4c3e
00000030: 4e90 5ebe a198 65be ea20 afbd f7fb 09be
00000040: da9b f4bd 8f64 223e 18f1 97be 2193 85bc
00000050: 271c 8d3e a11b 47be 4a55 9bbd 9403 053e
00000060: a9d1 0ebe 1f00 38be cfe8 72be eefa a8bd
00000070: 8a68 943e 5d9a 01be 2611 343e 2a3a a4bd
00000080: fd11 773e b6a2 9abe bea0 313e b0b9 883e
00000090: d7f8 f3bd 4fe4 71bc 1003 143d 6f10 cc3d
000000a0: bf25 e4bd 6c3e 1c3d 7390 55be 7721 e5bd
000000b0: cc60 6b3c ae27 133e 70f1 8b3e 6662 1b3e
000000c0: 2fe8 19be ddc2 283e befb 053e 857b 2cbd
000000d0: 2300 9fbe 2190 1f3e b615 38bd ef65 3abe
000000e0: 85fb 273e e2a0 a5bc 7201 443e 76da acbd
000000f0: 44d9 a73d 6d38 80be 8743 9a3d 240e ffbb
00000100: d769 62be c74c 383e 45ac bc3d b68d ea3d
00000110: ca6e 013d fd8e 8c3e 4e3c c6bd 037b c83d
00000120: 0e70 32be 6ed5 19be e9ef 53be 79a7 2ebd
00000130: ff74 6ebe 38d0 cb3d a40c b13d d4d5 d0bc
00000140: 008d 34bd fe38 c23d 5394 90ba c408 9b3e
00000150: 75a2 25be 3ccf 96be d1a3 323d 98ed 33be
00000160: 9189 50bd 8662 8cbe d347 01be f318 863d
00000170: cfaa 87be 366f 94be b34c 54bb f8d1 95be
00000180: 4be9 03bd 5961 99bd ca6c 94be f7fa 653e
00000190: 546c 4e3e 4ed2 903e 7ab0 7dbe ade8 49be
000001a0: 3107 123e 8dbf a33d b3ad 83be d008 04be
000001b0: 53cc 17be 9648 063d b196 8bbd 906c 26be
000001c0: 09f4 3e3e d9c7 943e c110 43bd d075 30be
000001d0: ea66 a8bb 901b 59be 9352 313e 0d48 573e
000001e0: c26b 4ebe 3f1f 95bd 5c02 09be bfeb 983d
000001f0: 3457 f13d aba7 e2bd 90b6 33be 4d31 e93d
00000200: ee25 83be 9710 2bbe de4b 0e3e c2c1 693e
00000210: 1ec1 0c3e 02ad 64be 689c 5a3b a11b 163e
00000220: f83c 613d 417e 71be 695d 3c3e 0831 7abe
00000230: 7fc1 193e 39f2 80be d3ba 4e3e e130 aebd
00000240: 99b2 50be 7394 61be 66af 3a3e bc16 9abe
00000250: 5f59 963d cbae 30be 8a27 31be 3469 a03d
00000260: 6f3d 4f3d dc36 60bd e431 5abe a8f3 e1bd
00000270: eebe 053d f544 4e3e f917 22be 8a32 db3d
00000280: 121e 2bbd 2d64 f03c 1975 23be 081e a9bd
00000290: 14ad 843e 8dcf 043e 85e3 a93c 2916 443e
000002a0: 83a6 0cbe ad96 c9bd 5170 1dbe ace1 f33d
000002b0: d874 18be 77fa 703e 22d7 18be c03c 47be
000002c0: 2b26 b8bd 727a 423e a919 15be d9aa 78be
000002d0: 44e8 6c3d d597 32bb 7c77 a7be eb00 85bd
000002e0: 4667 12bd f9c4 80bd ad01 c63d 986f c3bc
000002f0: 27d6 2c3e ac7b 38be e239 953d 308c c1bd
00000300: 6613 7e3e 4562 423e de21 ad3e 7b3c 4c3e
00000310: 1b89 c73c 9cea b9bd 2b3c c33d 6b84 d93d
00000320: 4b04 323d 6380 09be 0f4b 3dbc 0a0a 3fbe
00000330: 1627 85be 5aa5 abbd c084 7d3e 7765 f5bc
00000340: f0f9 ff3d e31b f9bd 2cc3 9fbe 8a31 f339
00000350: 6f19 98bd 6ddc e1bb c753 683d 4ccc a2be
00000360: 5efb a4be b650 893d 0252 80be a252 4fbe
00000370: a493 a3bd bfa8 02bd 4860 49be 7a19 77be
00000380: b7ad 493e b1db 513e f8bd c0bd b543 0dbc
00000390: 02c1 09be 2952 4abd 04af 553e 0032 6dbe
000003a0: 46f1 083d 7bf5 7d3e 766f 993e e415 6c3e
000003b0: 3cb4 453d 33f3 bbbd f03c 093e 1dca ef3d
000003c0: 0519 3abe 27d6 90be d755 0e3e 8349 e33d
000003d0: 8d52 98be 942b 583d 3b17 b33d e9fd 373d
000003e0: 1d0f 8e3d acc3 d6bd 534b 87be a648 fdbc
000003f0: c8eb 1f3c f1cb 4dbe 464b 3bbe 3df7 9abe
0.031686675 0.07895253 0.21966429 0.09338064 0.22142003 0.094928816 0.16993898 -0.13399044
0.06549559 -0.04833139 -0.26986516 0.1993138 -0.21734735 -0.22421505 -0.085512 -0.13475023
-0.11943789 0.15858673 -0.29676127 -0.016305508 0.2756054 -0.19444133 -0.07584627 0.12989646
-0.13947167 -0.17968796 -0.23721622 -0.08250986 0.28986007 -0.12656541 0.17584667 -0.080189064
0.24127956 -0.30202264 0.17346475 0.26704168 -0.11912697 -0.014763906 0.036135733 0.09964072
-0.11140012 0.038145468 -0.20855884 -0.111880235 0.01436634 0.14370605 0.2733264 0.15174255
-0.15029977 0.16480584 0.13084313 -0.042109985 -0.31054792 0.15582325 -0.04494258 -0.18202947
0.16404541 -0.020218316 0.19141176 -0.084401056 0.08195737 -0.2504305 0.07532411 -0.007783668
-0.22110687 0.17998038 0.09212545 0.114528105 0.031599797 0.2745284 -0.09679471 0.097890876
-0.17425558 -0.15022823 -0.20696987 -0.042640183 -0.23286818 0.09951824 0.08644989 -0.025492586
-0.04407978 0.09483527 -0.0011030532 0.30280125 -0.16175254 -0.29454982 0.04361326 -0.17571104
-0.050912444 -0.27418917 -0.12625055 0.065477274 -0.26497504 -0.28991097 -0.003239435 -0.29261756
-0.032204907 -0.07489271 -0.2898925 0.22459017 0.20158511 0.2828545 -0.24774352 -0.19717665
0.14260556 0.0799552 -0.2571846 -0.12893987 -0.14824037 0.032784067 -0.068158515 -0.16252351
0.1864778 0.29058722 -0.0476234 -0.17232442 -0.0051392214 -0.2120192 0.17316656 0.21023579
-0.20158294 -0.0728135 -0.13379806 0.0746684 0.11784211 -0.110671364 -0.17550111 0.113863565
-0.25614876 -0.16705547 0.13896129 0.22827819 0.13745543 -0.22331622 0.0033357386 0.14658977
0.054989785 -0.23583318 0.18395008 -0.24432766 0.15015219 -0.251848 0.20188455 -0.08505417
-0.2038063 -0.22029285 0.18230972 -0.3009547 0.07341265 -0.17254178 -0.17300239 0.07832566
0.050595697 -0.054739818 -0.21308094 -0.11032802 0.032652788 0.20143493 -0.15829457 0.10702999
-0.041776724 0.029344643 -0.15962638 -0.08257681 0.25913298 0.129698 0.020738373 0.19149078
-0.13735394 -0.09843192 -0.15374877 0.11908278 -0.14888322 0.23533045 -0.14925817 -0.19456768
-0.08991655 0.18992022 -0.1456057 -0.24283923 0.057838693 -0.0027251143 -0.32708347 -0.06494316
-0.03574302 -0.062875696 0.096682884 -0.023856923 0.16878568 -0.18015927 0.07286431 -0.09450567
0.24812087 0.189828 0.338149 0.19944946 0.02435737 -0.09077951 0.095329605 0.1062096
0.043461125 -0.13427882 -0.01155354 -0.18656173 -0.26006383 -0.08381148 0.24757671 -0.029955609
0.12498844 -0.12163522 -0.31203592 0.0004638548 -0.07426726 -0.006892732 0.05672052 -0.3179649
-0.32223028 0.067048475 -0.25062567 -0.20246366 -0.079871446 -0.03189921 -0.19665635 -0.24130812
0.19695173 0.20493962 -0.09411234 -0.0086221 -0.13452533 -0.04939476 0.20867544 -0.23163605
0.03343322 0.24800675 0.2996785 0.23055226 0.048267588 -0.09177246 0.13402152 0.11708472
-0.18173607 -0.28288385 0.13899933 0.110980056 -0.2975048 0.052775934 0.08744665 0.044919882
0.069364764 -0.1048654 -0.26424655 -0.03091843 0.0097608045 -0.20097329 -0.18290433 -0.30266753

main.4.bias f4 [2048]
00000000: 54de 823e 97a7 903e d6d9 193c ffb0 01be
00000010: 39cd 5d3e ec92 893e 3c7e 2cbd 1945 d23d
00000020: 496b 173d 5d8e 29bd 2469 ad3a bf0e 893e
00000030: 86be 833e 9962 673e dcc1 a63e 6bad 963d
00000040: 88e1 e6bc 4299 703e c8fb 253d 61bb 8fbd
00000050: 9d4b 563e 82bd 52bd fb39 96bd a3cc 9d3e
00000060: 5320 90bc 5d95 88bd 8ac8 e5bd e615 483e
00000070: 4afe db3d c0ee 143e b748 8f3e e67b 7e3e
00000080: 2534 523d b0dd 5d3d 7bd0 1ebd 7f38 51bd
00000090: 5b49 8abd a4f5 123e 0ae5 f9bd 67ff 8d3e
000000a0: d944 c2bd a864 7cbc b1fa 923c 5886 513e
000000b0: a23b 493e 3872 98bd 4c6a 93bd 736a 613e
000000c0: f7cd f6bd c0b1 bd3d efb1 7d3e 9edd 5a3e
000000d0: c1c8 a9bd 3e67 e6bd 3b4a c63d dcd9 29bc
000000e0: c28d 90bd 1755 263e 138a cc3d 2ac1 6a3e
000000f0: 52d3 463e 955f 023e 3a83 11be 7513 5ebe
00000100: b245 3f3d 99fc c23d 010d 593d e101 8a3d
00000110: 0de6 283e 55f7 ea3d a1a8 24bc 974e d0bd
00000120: cd73 5bbc c368 cd3d e37c 09be 173c 0e3e
00000130: df86 613d a675 7d3e cebf 2b3c 938c 90bc
00000140: be09 693e 3fc5 923d 2703 513e c0c9 803d
00000150: 829e ea3d 8667 36be 999c 01be 3e6b 413e
00000160: 8c79 ccbc b154 06be b796 cebd 5540 293e
00000170: c1a4 333e 21e3 b13d c896 b2bb f528 2a3c
00000180: a75d 7a3e 4df8 adbd dbcb be3b c6a6 473d
00000190: 9cc1 45bd bbd1 f83b 5586 e13d 64bc d1bc
000001a0: 85e0 8cbb 8801 803e 1090 923d f462 133d
000001b0: 7f21 453e 2e59 b43d d9b1 83bd f9eb 00bd
000001c0: 5d3c 25bd 92ff 20bc 4932 163e 56d3 f83d
000001d0: 802b 3dbe 1ff2 0e3e f0be 503e 22bf e43c
000001e0: 8b60 403d 2e9c 5b3e bb2f 6cbc c5c9 4e3e
000001f0: 1371 16be 924d cbbd 30b4 3b3d 6e39 8e3a
00000200: 7598 be3d 497b 943d 5061 1a3e ffd8 e43d
00000210: fc71 e13d 0867 0fbd 9813 7a3e df2d ca3d
00000220: 51d0 2a3e 501e 7f3e e66b 403e 58e6 6d3d
00000230: e988 643d 5505 a0bd 3597 983d 2488 7d3e
00000240: 1f07 693e 8ba2 c4bd e34e 053e 769a d6bd
00000250: b449 343e 7549 5f3e a90e 3abc 1c4d f3bd
00000260: 941b 423d c069 f03d 4ac4 053d 867d 9c3e
00000270: 52c4 043e cd24 1d3e 3469 a13d dcfe edbd
00000280: 2024 703e 0919 aa3d dd1c 0b3e 6aad b8bd
00000290: 995a 4ebd bb8c ca3d d28e 023e 9458 643e
000002a0: 6077 e3bd 74f4 823d c52c aabc cdb6 563e
000002b0: 7524 d3bd 3e50 2e3e 9049 233e eaed 4abd
000002c0: c156 aa3d 6906 2f3e f447 5d3d 65e8 223e
000002d0: 569f 0ebe dce6 b13d 15b7 32be 0a0b ba3d
000002e0: 6f0b 893d a359 503e bb23 1f3e d48f 153d
000002f0: be82 543d 5c95 133d 038f ec3d dea8 ccbd
00000300: d2ba 92be a8f9 36bd fea0 3f3e cdf0 053e
00000310: 646c 1b3e 8ec5 d7bb 72df 1d3e 61a0 9bbd
00000320: 4dad 4ebe 9e3c 483e 612e 02bd b75e f43d
00000330: 78ca ae3d 6979 43be b346 2b3c 2e75 e63d
00000340: d512 29bd 4262 3abd f16d ba3d 52b2 393e
00000350: 77d9 d7bd 10d7 02be 7014 1cbd c9cf dcbc
00000360: 81fe 283e 53cf 853d f33a d2bd 9868 033d
00000370: e6dc 1cbe ac2a e93d 45c4 183e 8e11 573e
00000380: 1c43 f63d 5bff 13bb 1fcb 7b3d 7e89 cf3d
00000390: bbff c33d fedf 34bd 9493 79be 3d56 39bd
000003a0: 979f 1b3e 947e 3b3e 89da b3bd a261 483e
000003b0: 72d8 4a39 beb9 433b 378a cf3d 5452 59bd
000003c0: 80cc 65bd 71d8 143e a93b c93d 078e bb3d
000003d0: 9377 f73d 3934 eebd 0543 fbbd f9d7 703e
000003e0: 5f68 27be a15a 91bd 3334 b63d 3dfc 9f3d
000003f0: 4c49 41be 5192 7d3e 7781 563c 262e b83d
0.25560248 0.2825286 0.009390315 -0.12665175 0.21660317 0.26869905 -0.042112574 0.102670856
0.03696755 -0.041395534 0.0013230187 0.26769063 0.25731295 0.22596206 0.32569778 0.073572956
-0.028183714 0.23495963 0.04052332 -0.070181616 0.20927282 -0.05145026 -0.07335278 0.30820188
-0.017593538 -0.06669114 -0.112198904 0.19539604 0.10741861 0.14544201 0.27985165 0.24851951
0.05131926 0.054166496 -0.03877304 -0.05107927 -0.06752273 0.14351517 -0.12201889 0.2773392
-0.09485788 -0.015404858 0.017941805 0.20461404 0.19651654 -0.074436605 -0.07198009 0.22013263
-0.120510034 0.09262419 0.24774908 0.21373603 -0.08290244 -0.11250161 0.09682127 -0.010366883
-0.07058288 0.16243397 0.09987273 0.22925249 0.1941655 0.12731774 -0.14210215 -0.2168711
0.046697326 0.095208354 0.052990917 0.067386396 0.16494007 0.11472956 -0.01004997 -0.1017124
-0.013394308 0.10029747 -0.13426547 0.1389011 0.055060264 0.2475191 0.0104827415 -0.017645156
0.22757623 0.07166528 0.20411359 0.06288481 0.11456014 -0.17812929 -0.12657394 0.18888566
-0.024960302 -0.13118245 -0.1008734 0.16528447 0.17543317 0.086858995 -0.0054501034 0.0103857415
0.24449788 -0.08494625 0.0058226413 0.048743032 -0.048280343 0.007593361 0.1101195 -0.025602527
-0.0042992258 0.25001168 0.07156384 0.03598304 0.19251059 0.08806072 -0.06430406 -0.03147504
-0.04034077 -0.009826558 0.1466762 0.12149684 -0.18473625 0.1395955 0.20385337 0.02792317
0.04696707 0.21446297 -0.014415677 0.20194156 -0.14691572 -0.09926905 0.045826137 0.0010850856
0.093064226 0.07250077 0.15076184 0.11174201 0.11008069 -0.035010368 0.24421537 0.098720305
0.16681029 0.24913907 0.1879116 0.058081 0.05579463 -0.07813517 0.074507155 0.24758965
0.22756623 -0.09601315 0.13018374 -0.1047868 0.1760624 0.21805365 -0.011356034 -0.11879942
0.04738958 0.1173892 0.0326579 0.30564517 0.12965515 0.1534607 0.07881394 -0.11620876
0.2345128 0.08305556 0.13585229 -0.09017451 -0.05037937 0.098901235 0.12749794 0.22299415
-0.11106753 0.06394282 -0.0207733 0.2096817 -0.10309688 0.17022797 0.1594603 -0.0495433
0.08317328 0.17092289 0.054023698 0.15908964 -0.1392797 0.08686611 -0.17452653 0.09084137
0.06691634 0.20346694 0.15540974 0.03651412 0.051882498 0.036031112 0.11550715 -0.09993146
-0.28658158 -0.044671685 0.18713757 0.1308014 0.15178066 -0.0065848297 0.15417269 -0.07598949
-0.20183297 0.19554374 -0.03178251 0.11932128 0.085347116 -0.19089283 0.010453868 0.11252819
-0.041277725 -0.045503862 0.09103001 0.1813443 -0.10539525 -0.12777352 -0.03810543 -0.026954548
0.16503336 0.065336846 -0.1026515 0.03208217 -0.15318641 0.11385092 0.14918621 0.2100279
0.12024519 -0.0022582624 0.06147301 0.101336464 0.09570261 -0.044158928 -0.24372703 -0.04524826
0.15197597 0.18310004 -0.08781917 0.19568494 0.00019344853 0.002986535 0.10133784 -0.05305703
-0.05610323 0.14535691 0.098258324 0.09157949 0.12083354 -0.116310544 -0.12268642 0.23519887
-0.16348408 -0.07097364 0.08896675 0.078117825 -0.18875617 0.24762847 0.01309239 0.08993177

conv.0.weight f4 [20, 1, 5, 5]
00000000: 743e 133c a930 393e 91d6 563e 43f8 d4bd
00000010: 39b0 1a3e 9871 6d3d c12b f43d 0e94 c9bd
00000020: 6eae b53d d67b 40be a285 123e b769 043e
00000030: 1032 393d d038 fbbc 0c2e b33c 6cf6 2fbd
00000040: 1d1c 623d d221 7cbd e052 86bd c551 1a3e
00000050: 93f6 fabd a0ec 96bd 16da fa3d f9db 58be
00000060: 6c03 bbbd 0684 bd3d 8595 c63d 94f8 a0bc
00000070: 46b1 513d ea03 af3d dbc5 2f3e e8b0 f93c
00000080: ef3e dc3b d0ab 263d 9262 61bd f4ff 2d3d
00000090: 2163 323e 7646 bcbd f220 5d3d 2566 02be
000000a0: 2459 42bd 9558 20bd e486 9a3d d0aa 98be
000000b0: 763f 0ebe 44a8 993d f165 263c ce30 80be
000000c0: f91a aabd f4cf 36bd 8d6d b03d fc7d c1bd
000000d0: 8b9f b73d 2f46 a03e dab7 143d 8c8e 573e
000000e0: c267 1bbd c8d7 dc3c 396c 743e ddfb e03d
000000f0: 33b9 3abe 7a7e f63d ef06 013e a14f 91bd
00000100: 707d a7bd d802 043e e601 31bd 0d9e 26bd
00000110: 250e aebd ed7f afbd 76f1 453e bb98 c63d
00000120: fcae 05be 3e18 923c be1f 253e da90 05be
00000130: 2d93 f23c 0806 a5bd 5130 ef3c a1e4 013e
00000140: 4718 bdbd df4e c43d a18a b0bd 841a 36bd
00000150: 0a80 c73c a30f b53d 9fe3 02be d30e e9bc
00000160: a387 fc3d 8721 26be 3c58 073e 18c3 73bc
00000170: 9e27 93bd 2c93 0fbc dcf9 3a3e b58c 8c3e
00000180: 97a4 813e aafa f33d f808 4f3e 969d 083e
00000190: c9de 51bd b706 1abe 7792 42be a430 1bbe
000001a0: 2b37 bfbd bb1e 3dbd 88e2 6d3d 12d1 80bd
000001b0: 29b4 943d e665 e8bd 87c4 673d d6d0 323e
000001c0: 1e85 4c3e 0fcd b3bd 45ea c63c 24b2 f53d
000001d0: bd7f 213d eaef 593e f445 0cbc b220 5d3d
000001e0: b65d 96bc 29ca 5e3e d4e7 4c3e 65d8 dc3d
000001f0: 8413 7a3e c5c3 a4bc 44de e13d c143 c1bd
00000200: b21b 053e 9ca1 5d3d 3ac9 d4bd 33bc b5bd
00000210: 0e03 033c b8aa df3d a77e df3d 3411 2f3e
00000220: 4a74 323e 7ebd c13d 5c66 f0bc d87d 67bd
00000230: a41a 91be ba6f 183d eb04 34be c5b4 fcbd
00000240: 39fa 563d cac1 2ebd dd36 26be 675a 01be
00000250: 3848 56be 1fcd a53d 4383 37be f0b0 94be
00000260: 025a a5be 9f0c 87be 52aa a3bd 0083 3dbd
00000270: 35b6 c93c b843 8dbd 6347 bcbd 637a 2d3d
00000280: 77cf 74bd 6694 2cbc c938 b3ba 5a42 e4bd
00000290: 4f94 7e3d ac10 133d ad64 313d 13cc 54bd
000002a0: dc22 dc3c a332 773c 6d04 d83d 9e8d 56bd
000002b0: 5d86 70bd e2c3 04be 8a29 003c e27c c03d
000002c0: 3933 4e3d 3504 d13d 38db a13d 345e 543d
000002d0: a1d0 0a3e e1da 493e b3f8 f03d bbb2 953d
000002e0: 365b e73d 4ab0 4a3d a938 0bbd 5c27 4b3e
000002f0: bd8b 853e e6b0 093e 87c3 46bd 46a3 01be
00000300: b4ea a9bd c597 c43d f2dc c5bc 46a7 1abc
00000310: c5b7 b43c 9922 67be 9062 a3bd 0874 223e
00000320: b1a1 ecbd 8d97 d8bc 5d1c 6e3e 69a2 7d3d
00000330: 92f1 363e 31f2 193e 0e10 343e 4fa3 a13d
00000340: 2a93 d7bc 61ec b73d 3ebf 423d 2d81 ebbd
00000350: 98a8 cabd 87af 8bbd bfeb 5c3e 636e 14be
00000360: 992b 33be a638 17be 369f c2bd e2c7 24be
00000370: 7fb0 33be 32f2 743d 12d0 05be a8f5 873c
00000380: 3ffd dc3b 71b4 05be 5f02 9ebd 5872 35bd
00000390: 22a5 33bd 6499 8bbd d8a6 7c3b 13c2 38be
000003a0: 09ca 7abd 02ca ba3c 69b8 04bd 2c3f 593e
000003b0: 6139 33bd 3aff fdbd 61ed 0d3e c37a 8b3d
000003c0: 9a85 433e 1719 bc3d 99a3 f2bd da87 4abe
000003d0: 6579 d83a bb2a bf3d 6133 62bd 77db 0ebe
000003e0: 778c 26be 9bc3 55be 7fb2 04bd 2245 543e
000003f0: 8e96 c33d d9f3 523e 61e7 b13d 8aa1 38be
0.008987058 0.18084969 0.20980288 -0.10398915 0.15106286 0.05796966 0.11922408 -0.09842692
0.088711604 -0.1879724 0.1430879 0.12930952 0.04521376 -0.030666739 0.021872543 -0.042959616
0.055202592 -0.06155569 -0.06558776 0.15070255 -0.122540615 -0.073693514 0.12248628 -0.21177663
-0.09131512 0.09253697 0.09696487 -0.019649781 0.05119445 0.085456684 0.1716532 0.030479863
0.0067213695 0.040691197 -0.055025645 0.042480424 0.17420627 -0.09193127 0.053986497 -0.12734278
-0.047448292 -0.03914698 0.075452596 -0.2981782 -0.13891396 0.07502797 0.010156141 -0.25037235
-0.08305926 -0.044631913 0.08614645 -0.09447858 0.08965977 0.31303546 0.036308147 0.21050471
-0.037940748 0.026958361 0.23869409 0.10985539 -0.1823471 0.12035842 0.12600301 -0.07095266
-0.08178222 0.1289171 -0.0432147 -0.040678073 -0.084987916 -0.08569322 0.19330391 0.096971
-0.13055032 0.017833825 0.1612539 -0.13043538 0.029611195 -0.08057791 0.029197844 0.12684871
-0.09233146 0.09585356 -0.08620191 -0.04445888 0.024353046 0.08840873 -0.12782143 -0.028449452
0.12330558 -0.16223727 0.13217252 -0.014878057 -0.07185291 -0.008763116 0.18259376 0.274511
0.25320885 0.11913045 0.20218265 0.13341364 -0.051237855 -0.15041624 -0.19001184 -0.15155274
-0.09336694 -0.046171885 0.058077365 -0.06289877 0.07260925 -0.113475606 0.056583907 0.17462477
0.19972655 -0.08779346 0.02428163 0.11996868 0.03942846 0.21282926 -0.0085616 0.05398626
-0.018355232 0.21756805 0.2001031 0.107834615 0.24421507 -0.020112881 0.11028722 -0.09436751
0.12998846 0.0541092 -0.103899434 -0.08873787 0.007996334 0.10921234 0.10912829 0.17096406
0.17427173 0.09459971 -0.029345684 -0.0565165 -0.28340638 0.037215926 -0.17580001 -0.123391666
0.052484725 -0.04266528 -0.16231866 -0.12632142 -0.20925987 0.08095764 -0.17921166 -0.29041243
-0.32295233 -0.26376817 -0.079914704 -0.04626751 0.024623016 -0.06897682 -0.091933034 0.042353045
-0.059768166 -0.010533428 -0.001367354 -0.11145468 0.062153157 0.03590457 0.043308903 -0.051952433
0.026872091 0.015087756 0.10547719 -0.05238115 -0.05872189 -0.12965348 0.007822404 0.093988195
0.05034182 0.102058806 0.07903141 0.05184765 0.13556148 0.19712402 0.117661856 0.07309481
0.11296694 0.04948453 -0.033989582 0.19839233 0.26083174 0.13446388 -0.048526313 -0.1265994
-0.08296719 0.0959926 -0.024153206 -0.009439295 0.022060284 -0.22571792 -0.07977784 0.15864575
-0.11554278 -0.026439453 0.23253007 0.061922465 0.1786559 0.15033795 0.1758425 0.07892477
-0.02631529 0.089806326 0.047545664 -0.11499248 -0.09895438 -0.068205886 0.21574305 -0.14495234
-0.174971 -0.14767703 -0.09503023 -0.16091874 -0.17547797 0.059801288 -0.13067654 0.01659663
0.0067440565 -0.13057114 -0.07715296 -0.0442985 -0.043858655 -0.06816366 0.0038551595 -0.18042783
-0.061227832 0.022801403 -0.03240243 0.21215504 -0.043755893 -0.12402196 0.13860084 0.06810524
0.19093934 0.09184473 -0.1184761 -0.19778386 0.001651567 0.09334322 -0.05522478 -0.13950907
-0.1626452 -0.20875399 -0.03239679 0.20729497 0.095502004 0.20600833 0.0868671 -0.18030372

conv.0.bias f4 [20]
00000000: 310a 50be 556c b63b e1d5 6f3c 309a 3e3d
00000010: e219 893d 831f b43d d06b 323e 86e4 1bbe
00000020: e538 4abd d0e5 31bd 2563 e33d c8b8 01be
00000030: 196c 1dbe 75cd 3b3e 4ca3 e4bb 6a2c 623b
00000040: 8ff2 29be ccfa 353e 47e0 0c3e 2121 fdbd
-0.20316388 0.0055671134 0.014638395 0.046533763 0.0669439 0.08795073 0.1742394 -0.15223894
-0.049370665 -0.043432057 0.11102895 -0.12668145 -0.15373267 0.18340094 -0.0069774743 0.0034511336
-0.16596435 0.17771453 0.1375743 -0.123598345

conv.2.weight f4 [20]
00000000: 4d75 8f3f d59d 873f ed2d 853f 3d96 8a3f
00000010: 518a 8a3f fc7e 8d3f d911 983f 03bb 863f
00000020: 93ca 803f 11bc 873f d302 963f 4de3 8f3f
00000030: 5fc9 8a3f a42d 863f 4e73 993f da31 903f
00000040: 9c5b 8e3f f91a 8d3f d3bd 833f b304 903f
1.1207672 1.0595042 1.040464 1.0827099 1.0823461 1.1054378 1.1880447 1.0525821
1.0061821 1.0604268 1.1719612 1.1241242 1.0842704 1.0482678 1.1988313 1.1265213
1.1121707 1.1023856 1.0292305 1.1251434

conv.2.bias f4 [20]
00000000: 6a95 133e cd83 0ebe ff2b 0c3e afbe 22be
00000010: 594f 12be bec7 09be 7ebc 1e3e 62c8 233e
00000020: 1dc8 0cbe b06a efbd 60de 043e affa 093e
00000030: 933a 03be 84d1 123e 0afd 113e 8ed5 0a3e
00000040: c377 09be 6621 0bbe 4031 143e b636 0fbe
0.14412466 -0.13917466 0.13688658 -0.15893053 -0.14288081 -0.13455102 0.15501592 0.15994409
-0.13748212 -0.11690271 0.12975454 0.13474534 -0.12815313 0.14337736 0.14256683 0.13558027
-0.13424592 -0.13586959 0.14471912 -0.13985714

conv.2.running_mean f4 [20]
00000000: 0080 6e3b 27e1 383d bb1f 6e3e 2cb0 6b3e
00000010: 3297 6b3e 2e53 a33d 4296 ff3b 5677 053e
00000020: c666 e03c 1bbb e0bc 19d7 923d 10fd 883e
00000030: f555 bf3b 5671 683d b074 913e 9692 a73c
00000040: 4825 22bc c572 643e 3cf6 3dbc b504 443d
0.0036392212 0.045136597 0.23254292 0.23016423 0.23006895 0.0797485 0.0077998945 0.13033804
0.027392756 -0.027432969 0.07169933 0.2675557 0.0058391043 0.05674871 0.28409338 0.02045564
-0.009896584 0.22309406 -0.011594351 0.04785605

conv.2.running_var f4 [20]
00000000: e720 453c 4846 603c f33f 493d ab66 2d3d
00000010: f3de 2d3d 903e a13c 2aca f83b 7f42 033d
00000020: 2bf2 823c e0a6 c63b cc84 903c 7179 543d
00000030: f9ac 073c de43 873c baae 1f3d 1f76 2b3c
00000040: 1f68 f63b b923 f83c 8a4e 013c e598 ac3c
0.01203177 0.013688631 0.049133252 0.04233424 0.04244895 0.019683152 0.007592459 0.032045837
0.015984615 0.0060623735 0.017641447 0.051873628 0.008280986 0.016511854 0.03898499 0.010465174
0.0075197364 0.030290471 0.00789226 0.021069

conv.3.weight f4 [1, 20, 5, 5]
00000000: 8ef9 cabd 2269 17be 8203 01be 034c debd
00000010: da48 09be 34bc b1bd 8b21 11be e5eb 01be
00000020: ba73 09be 3ab8 2bbe 19cd 24be d104 02be
00000030: 8f50 d5bd 1776 f6bd d76a 38be 4775 1bbe
00000040: e95f 04be ea1e 1ebe 1281 03be 1d98 24be
00000050: ca5c 1abe 6a55 2bbe 8a81 1abe 7ada 2dbe
00000060: c71e bbbd 25bf 023e ebeb b93d 6172 1c3e
00000070: 3119 ab3d a916 033e b550 133e ce3d 033e
00000080: 13b5 063e 50ed b93d cc93 153e 69a4 e03d
00000090: 2e1f 043e 6ad7 243e e8f6 ce3d f325 c23d
000000a0: 5ae6 103e 2fcd 073e 5b54 133e d66c 1a3e
000000b0: 8b37 bb3d 41e6 8f3d f1f6 ee3d 961f 053e
000000c0: 9679 b73d be89 773d e617 17be 7c9a cdbd
000000d0: f015 0abe 96b0 2ebe 1730 33be 741c dabd
000000e0: fbe1 c0bd 08c2 0ebe b67b 17be 5639 11be
000000f0: 7add 2dbe c0f0 babd ebbd 83bd 3fa2 0fbe
00000100: 2091 30be d1a5 08be 9d60 c6bd 8b92 07be
00000110: 89c2 bdbd e386 15be 3692 14be 6b1b 2abe
00000120: d675 b6bd c139 2cbe a923 e9bd 95b9 a73d
00000130: 178e 9b3d 5986 e43d be44 0c3e 2158 053d
00000140: 2882 aa3d 69d5 0e3e 5819 d53d ab78 123e
00000150: 7ed7 b43d cfd2 bc3d 6c5e 2b3e 948f 273e
00000160: c53a 103e 25d8 2c3e d4b8 153e b019 b63d
00000170: 7991 223e acbb 103e 94ad f83d 362c 063e
00000180: 23a1 073e a00d 133e 776b 1c3e 609e e13d
00000190: b058 b23d a611 063e b970 063e 2251 093e
000001a0: 9e79 643d dd90 d23d 172a 043e 721e 233e
000001b0: d61b a53d d4a2 733d d85e b43d a2b8 e73d
000001c0: a1fd d13d 7a4e cb3d d23d fa3d ca59 933d
000001d0: 2eb3 c43d d846 cb3d 6978 0e3e 64b7 a83d
000001e0: 2aa7 1e3e 0303 e63d 017a 2b3e 5a02 323e
000001f0: 773b 2b3e 98ff e43d 33b8 363e 8905 283e
00000200: 2825 b43d 9aec e53d 6090 2d3e e529 1e3e
00000210: 7749 493e af29 2e3e 4231 ed3d e484 a23d
00000220: e8ea e83d ec66 d13d 3e6c 223e f57e 023e
00000230: 5e44 c23d a533 243e 3ae3 fb3d 5fb4 0b3e
00000240: 2a8d 1c3e 99c0 593d 8e4d ae3d feb5 a53d
00000250: f2e3 f13d a664 f83d 55d9 8bbd df66 a4bd
00000260: 133b fcbd fb72 b2bd 7052 b1bd fe7c f6bd
00000270: 3e7c 36be 489b 2dbe df5e e6bd 0cf1 1cbe
00000280: fb7a 4abe 7cec 09be a94b 52be 1aa4 39be
00000290: 1acf 3bbe d51d f5bd 5936 07be a1af 11be
000002a0: 8b5e f8bd c3fc 3abe 54f0 d4bc da1b 90bd
000002b0: 8684 11be 77cd 0dbe fd68 6ebd c677 25be
000002c0: 40d0 22be b464 9ebd 5c84 d5bd 6d49 1ebe
000002d0: acd2 c9bd e151 07be 2d97 85bd 7d8a 04be
000002e0: 3a80 1dbe 7364 07be 1eea 18be 9ac3 55bd
000002f0: 2fd0 30be 434a 04be 78b8 1dbe 89c4 47be
00000300: 5bea e1bd 2fc0 f7bd ce44 24be a654 2abe
00000310: e0f0 27be 4270 fcbd e8db e4bd b5a9 00be
00000320: 24d6 cd3d e6aa eb3d 35ba c13d de0a 143e
00000330: 4636 f53d a57d 433e f6da 4e3e a44e 293e
00000340: 7249 2d3e 45f8 b53d 318e 323e 6f0b f43d
00000350: e8ce 383e 5eff 073e 6eb3 333e 9651 8b3d
00000360: 2347 b03d de4b 003e 192a 163e 182c 103e
00000370: c8b8 d93d 690b 5f3d 124e 553d a3df cb3d
00000380: 8292 c03d 9a62 043e 7727 f53d 53c8 073e
00000390: 6f97 163e 7425 0d3e 8275 b93d 838c 103e
000003a0: 9bb7 da3d 69be 063e f183 053e 77f6 e83d
000003b0: a6a1 013e c61f 963d 1cbf 6e3d ecbe bd3d
000003c0: 4c87 fc3d bfd8 1f3e 098e 983d 4c43 dd3d
000003d0: f5a4 cc3d 2fef e73d 2173 1e3e 523b b03d
000003e0: 4caf eb3d 0008 123e 20b4 2cbe ba20 09be
000003f0: 45fc eabd cf6f dbbd 6e30 f8bd 8562 01be
-0.0991088 -0.14786199 -0.12598994 -0.10854342 -0.13406697 -0.08678475 -0.14172952 -0.12687643
-0.13423052 -0.16769496 -0.16093864 -0.1269715 -0.10415756 -0.120342426 -0.18009506 -0.15181457
-0.12927212 -0.1544148 -0.12842205 -0.16073652 -0.15074459 -0.16731802 -0.15088478 -0.16977873
-0.0913673 0.12768228 0.09078201 0.15278007 0.08354414 0.12801613 0.14386256 0.12816545
0.13155012 0.09078467 0.14607161 0.10968859 0.12902519 0.16097799 0.101056874 0.094798945
0.14150372 0.13261865 0.14387648 0.1508058 0.09141453 0.07026339 0.11668194 0.1300033
0.089587376 0.060434096 -0.1475521 -0.10039231 -0.13484931 -0.1705955 -0.17498814 -0.10649958
-0.09418102 -0.13941205 -0.14793286 -0.14182028 -0.16979018 -0.09127951 -0.06432708 -0.14026736
-0.17242861 -0.13344504 -0.09686396 -0.13239495 -0.0926562 -0.14602236 -0.145089 -0.16612022
-0.08909194 -0.16818906 -0.11383755 0.08189694 0.07595461 0.11158437 0.13698098 0.03255475
0.083256066 0.13948597 0.104052246 0.14303844 0.088301644 0.09219896 0.16735238 0.16363364
0.14084919 0.16879328 0.14621288 0.08891618 0.15875806 0.14134091 0.121424824 0.13102803
0.13245063 0.14360666 0.1527537 0.11016536 0.08708322 0.1309267 0.13128938 0.13409856
0.055780046 0.10281537 0.12906681 0.15929583 0.0806195 0.059481457 0.088071525 0.11314513
0.10253454 0.099270776 0.122188225 0.0719486 0.09604488 0.09925622 0.1391312 0.08238104
0.15493456 0.11231043 0.1674576 0.1738371 0.16721903 0.11181563 0.17843704 0.16408361
0.087961495 0.11226769 0.16949606 0.15445669 0.19656931 0.17008089 0.11581661 0.07935503
0.1137293 0.10224709 0.15861604 0.12743743 0.09485696 0.16035326 0.122991994 0.13643025
0.15288225 0.05316219 0.08510886 0.08091353 0.11811055 0.12128572 -0.06828562 -0.080274336
-0.12315955 -0.08713337 -0.08658302 -0.12035559 -0.17820832 -0.16953766 -0.11248564 -0.15326327
-0.19773476 -0.13469118 -0.20536675 -0.18129006 -0.18340722 -0.11968581 -0.13204326 -0.14227153
-0.12127408 -0.18260483 -0.025993504 -0.07036562 -0.1421071 -0.1384791 -0.058205593 -0.16158971
-0.15899754 -0.07734051 -0.10425636 -0.15457697 -0.098546356 -0.13214828 -0.06522975 -0.12943454
-0.15380946 -0.13221912 -0.14933059 -0.052188493 -0.17266916 -0.12918954 -0.154024 -0.19508566
-0.11031028 -0.12097203 -0.16041872 -0.16633853 -0.1640048 -0.12326099 -0.11174756 -0.12564738
0.1005061 0.11507206 0.09459344 0.1445727 0.119732425 0.19090898 0.20200714 0.16533905
0.16922548 0.08885244 0.17437054 0.11916243 0.18047678 0.13281009 0.17548916 0.06802671
0.08607318 0.12528941 0.14664496 0.1407932 0.10630947 0.05445424 0.052076407 0.09954765
0.09402944 0.12928239 0.11970418 0.13260011 0.14706205 0.13783818 0.09055616 0.14116101
0.10679551 0.13158573 0.13038613 0.113751344 0.1265932 0.07330279 0.058287725 0.09264931
0.12330493 0.15610026 0.07448966 0.108038515 0.099924006 0.113249175 0.15473606 0.086050645
0.115080446 0.14260864 -0.16865587 -0.1339139 -0.11473898 -0.10714685 -0.12118612 -0.12635238
