src/caches/cache_16_20_big/param2img8.pt (torch, 184864 bytes, 19 tensors)

main.0.weight f4 [16]
000000 e8 2a 5d 3f 4d a0 53 3f 88 d0 5a 3f 52 08 82 3f
       0.86393595 0.82666475 0.85474443 1.0158789
000010 b2 1f 62 3f 92 67 82 3f ab 7c 6d 3f a5 19 6f 3f
       0.88329613 1.0187857 0.92768353 0.93398505
000020 53 68 82 3f 02 e4 85 3f 82 dc 81 3f ec 86 85 3f
       1.0188087 1.0460207 1.0145419 1.04318
000030 36 6b 94 3f b9 10 4d 3f 3e cf 53 3f 8f 93 86 3f
       1.1595218 0.8010364 0.827381 1.0513781

main.0.bias f4 [16]
000000 d0 72 bf bd 3c 51 83 3d 7b 2c aa 3d f1 5d 26 be
       -0.093480706 0.064119786 0.08309265 -0.16246773
000010 95 c4 d1 bb 79 b2 e9 3d 4c 37 6a 3c 78 e5 36 be
       -0.006401608 0.11410994 0.01429541 -0.17860973
000020 87 4a 0d 3e db 87 e6 3d ad df e0 3d c6 a1 20 3e
       0.13797961 0.11256381 0.10980163 0.15686712
000030 c5 ad e7 3d ae 68 14 3e 25 28 9c bd d3 94 e8 bc
       0.11312441 0.14493057 -0.076248445 -0.028391277

main.0.running_mean f4 [16]
000000 7b 6b 02 b5 48 d3 5d b7 e2 c9 4c 3e 5a a7 f6 bb
       -4.858518e-07 -1.3221819e-05 0.19998887 -0.007527274
000010 6f db 2e 3c d8 13 d5 3a ed e3 fc 3e 27 eb f6 bb
       0.010672434 0.0016256524 0.49392644 -0.0075353566
000020 4a c1 ae 3c 97 2f d7 3a 64 e6 fc 3e 52 3c f7 bb
       0.021332402 0.0016417381 0.49394524 -0.0075450325
000030 02 2a 03 3d f9 d1 c7 b7 1b c5 4c 3e 76 6a f6 bb
       0.032022484 -2.3820425e-05 0.19997065 -0.0075200154

main.0.running_var f4 [16]
000000 17 e1 88 35 f4 ff 81 35 05 88 85 35 fa 4d 03 3b
       1.0198299e-06 9.685741e-07 9.948859e-07 0.0020035491
000010 c1 e8 86 37 fd 67 14 39 2f 91 98 3d 79 80 03 3b
       1.608243e-05 0.00014153119 0.074495666 0.002006559
000020 f6 05 7f 38 b7 e3 14 39 c3 83 98 3d 40 79 03 3b
       6.080229e-05 0.0001419921 0.074470066 0.0020061284
000030 c1 61 0f 39 dd 1d 8e 35 d8 27 85 35 d0 73 03 3b
       0.00013673959 1.0588516e-06 9.920868e-07 0.0020058043

main.1.weight f4 [20, 16]
000000 86 74 01 3b da a4 06 3d 45 a6 80 3a 1f 5f 88 3e
       0.0019753291 0.03287206 0.0009815177 0.26635072
000010 0e 69 50 be eb 76 ed 3d b1 95 d6 bd 7f ee 0f 3d
       -0.20352575 0.115949474 -0.1047777 0.035139557
000020 8a 22 88 3c e7 42 a4 3d 4a 6f cb bd c6 26 dd 3d
       0.016618032 0.08020573 -0.09933336 0.10798411
000030 a2 28 5b be 33 3d 3e bc 67 3d ae bd 23 bb 8d 3e
       -0.21402219 -0.011611271 -0.08507805 0.27681836
000040 ca b0 6c 39 dd 71 c5 3a f8 25 af bb 58 b8 64 3d
       0.00022572573 0.0015063841 -0.0053451024 0.055839866
000050 21 65 5d 3d 69 ef 58 be 52 a4 1e 3e 14 b1 ac 3d
       0.054051522 -0.21185078 0.1549237 0.084322125
000060 4c 6a d9 3d 7d 65 5d 3d 2e 24 90 be ff ea 02 be
       0.10615978 0.054051865 -0.28152603 -0.12784956
000070 38 e3 51 3e 6d 9d 6e 3a dd bc a7 bb bd f6 80 bd
       0.20496833 0.0009102438 -0.00511895 -0.062970616
000080 a0 00 d1 3b 8e d4 3b 3a cf ce ee bb c5 a0 83 3e
       0.0063782483 0.0007165157 -0.007287837 0.25708595
000090 d0 10 99 bd be e3 2d 3e 81 20 86 3d e2 95 df 3d
       -0.0747391 0.16981408 0.065491684 0.1091726
0000a0 b8 84 ec bd 09 1a 6d be 6d c6 22 3c 84 f0 a0 bd
       -0.115487516 -0.23154463 0.009935004 -0.07858375
0000b0 a7 19 c3 bd f4 f1 ed 3b 38 3b 89 3b a8 cd 3b be
       -0.09526377 0.007261509 0.0041879676 -0.1834017
0000c0 d1 b2 ea 3b 15 15 05 3d 8f aa 44 39 7d ed 1c bd
       0.00716243 0.03249081 0.00018755555 -0.038312424
0000d0 94 b2 b0 bd 31 bf 09 be c9 41 10 be 05 f4 79 bd
       -0.08627811 -0.1345184 -0.14087595 -0.06102373
0000e0 95 6e aa be c3 61 11 bd cb 6c 8d 3e 3a 98 73 bd
       -0.33287492 -0.035493623 0.27622065 -0.059471346
0000f0 db c4 a9 be 0d 46 65 3c cc a4 1a bb 9d 5b 99 3e
       -0.33158 0.013993752 -0.0023596762 0.29952708
000100 e1 8f 57 bc 12 9c 4c 3c ea c1 0c 3c 4e 6c 09 3e
       -0.013156862 0.012488382 0.008591155 0.13420221
000110 37 cc d1 bb 1c 29 a2 be 89 cf 97 bd c0 3f 6a 3e
       -0.006402518 -0.3167199 -0.07412631 0.22875881
000120 9b 79 6f be 86 96 e9 3c 61 82 ec bd 4e e2 ca bd
       -0.23386233 0.028514158 -0.11548305 -0.099064454
000130 85 9a 6c be 74 bc 65 bc 87 cc a1 bc 56 94 1e 3e
       -0.2310582 -0.0140219815 -0.019750847 0.15486273
000140 c1 fa a0 bc 7b f8 4b bd 4b 53 a7 bc c6 18 21 3e
       -0.019650819 -0.049797516 -0.02042546 0.15732107
000150 ce fb fc bc 68 cc a0 bd 4b c0 99 3c 61 b8 4b 3d
       -0.030881789 -0.078514874 0.01876845 0.049736384
000160 67 43 aa be a0 42 ff 3d 5d 5e 4d bd a8 c1 07 3e
       -0.3325455 0.124638796 -0.05013882 0.13257468
000170 d6 1a af be 24 8b 6d bc 3f 6d 21 3d d0 50 b2 bd
       -0.34200162 -0.014498506 0.039410826 -0.0870682
000180 0a de 6c bb 20 e9 a4 bc 91 3e 2e bb fc 80 b1 3d
       -0.0036143088 -0.020130694 -0.0026587585 0.0866718
000190 56 cd fa bd d9 6f f4 3d 2f 80 81 3e 0a 48 21 be
       -0.12246196 0.11935396 0.2529311 -0.15750137
0001a0 12 6f 21 be ba b1 69 be 86 16 0e bc 83 de c5 3d
       -0.15765026 -0.22821704 -0.008672362 0.09661581
0001b0 79 18 91 be 66 fd 0f bc bf a4 21 bc 09 b2 26 3e
       -0.28338984 -0.008788442 -0.009865939 0.16278853
0001c0 c7 6f 3a bb 72 0e 30 b9 94 29 fc bb 73 a9 3d 3e
       -0.0028447972 -0.00016790049 -0.007695386 0.18521671
0001d0 88 f6 22 bd 99 5f a1 3e 0b f1 44 3e 68 72 dd bd
       -0.03978589 0.31518248 0.19232576 -0.10812837
0001e0 91 f4 ba ba fc ad 41 3e 17 f5 2d bd f7 e4 63 bc
       -0.001426356 0.18914026 -0.042470064 -0.01390957
0001f0 89 0b c9 3d 1a 28 16 bc 40 75 89 3b 55 0b 59 bd
       0.09816653 -0.009164834 0.0041948855 -0.052989323
000200 dc 02 03 bc 39 04 68 3c bc 9b 31 3c ec 44 1b be
       -0.007996287 0.014161163 0.010840353 -0.1516301
000210 68 5b 1f 3d e5 c7 3c be 47 ba ba bd 33 87 ab bd
       0.03890553 -0.18435629 -0.09117561 -0.083753966
000220 0d 81 f3 3d 87 8c f4 bd 8a 04 33 be 98 f9 ba bc
       0.11889849 -0.11940866 -0.174822 -0.022824094
000230 28 72 15 3d 8f c5 9e 3b c8 16 e9 3b af 50 31 be
       0.03648582 0.004845328 0.0071133114 -0.17315935
000240 46 a6 2b 3c 3b d2 d8 3c 0f 54 d1 bc 72 85 44 3d
       0.010476654 0.026467433 -0.025552778 0.047978826
000250 66 4f 47 be e4 71 f3 bc d3 32 d6 3d 8a a5 00 3e
       -0.19463882 -0.029717393 0.10458913 0.12563148
000260 af 42 89 3d 8b 42 62 be a0 b6 68 3e 07 37 91 bc
       0.06702172 -0.22095697 0.22725916 -0.017726434
000270 fb a7 48 bd 41 9c 11 bc d4 bb ee bb 11 92 75 3e
       -0.048988324 -0.0088873515 -0.0072855745 0.23981501
000280 26 51 7b bb 5e 20 10 3c 7a ba e8 3b a1 8b 25 bd
       -0.0038347929 0.008796779 0.007102308 -0.040416364
000290 bb f0 a0 3d 42 96 67 bd ab f7 5b 3e 0a 04 eb 3d
       0.07858416 -0.05653978 0.21481197 0.1147538
0002a0 8f c9 3b be 24 b5 1f be 0e 66 22 3e d4 5d 0b bd
       -0.18338607 -0.15596443 0.15859243 -0.03402503
0002b0 0d 1c 48 be 64 c4 3a 3b 57 13 86 3c 34 16 e0 3d
       -0.1954195 0.0028498406 0.016366644 0.10941735
0002c0 85 e8 4f 3c f6 6b a9 3b 1b 76 01 3d 54 3e ea 3d
       0.012689714 0.0051703406 0.031606775 0.114376694
0002d0 5a d6 0f bc 1b 5e 61 3d 14 1a e3 bb b6 84 a7 3c
       -0.008779133 0.055021387 -0.006930599 0.020449024
0002e0 18 4a 67 be 61 fa 3d be d4 ac e4 3d 30 b3 8a 3e
       -0.22586858 -0.18552543 0.11165777 0.27089834
0002f0 59 47 69 be 65 77 33 3d 13 ac 52 bb a2 49 7c 3e
       -0.22781123 0.043815035 -0.0032146021 0.24637464
000300 4d 7e ec 3b 5c c1 bd bb 21 3f 20 bb 95 16 8a 3c
       0.0072172047 -0.0057908725 -0.002445169 0.016856471
000310 4e bb f5 bb aa b5 6a be 69 8f 4b be de b3 3e be
       -0.007499135 -0.22920862 -0.19878925 -0.18623301
000320 41 a9 15 3e a6 75 0d be c8 ec 28 be d9 53 03 be
       0.14615346 -0.1381441 -0.16496575 -0.12824954
000330 14 5b 04 38 33 ed 68 3a 43 63 eb bb a0 ea 97 3c
       3.1556076e-05 0.0008885443 -0.007183464 0.018544495
000340 dc 95 24 3c ce e5 84 bb 1d e4 84 bc b5 2c 1f 3c
       0.010045495 -0.004055715 -0.016222054 0.009715249
000350 8c cc 9d bd 8f 42 29 3e d0 87 b1 bd aa 7f 8f 3b
       -0.0770503 0.16529296 -0.08668482 0.0043792324
000360 d2 5a ee bd 2a eb a4 be f5 fc 7a 3b 91 6f 88 3e
       -0.11638416 -0.32210666 0.0038297747 0.26647618
000370 4b 2c a4 be 88 bc 20 bb af a2 ae 3c e9 03 79 bd
       -0.32065043 -0.0024526436 0.021317808 -0.060794745
000380 46 22 9c ba 5b 1e 3f bb e3 6d 93 3b b0 00 a3 bd
       -0.001191207 -0.002916238 0.0044991835 -0.079591155
000390 1e 5b a4 3c 0d cf 1b be 66 ad cc bd 84 27 68 bd
       0.02006298 -0.15215702 -0.099940106 -0.05667831
0003a0 7e 64 04 3d c5 94 b4 bd 39 51 5b 3d a8 65 b6 bd
       0.0323224 -0.08817438 0.053544257 -0.08906108
0003b0 a9 85 48 3e f6 09 0f bc ee a9 1b ba e0 13 21 3d
       0.19582237 -0.008730402 -0.0005938102 0.039325595
0003c0 43 8a 1d 3c ae 95 11 3c 85 61 46 bc 97 84 16 3e
       0.009615484 0.008885784 -0.012108211 0.14699017
0003d0 31 3b 82 3d 56 66 1b be 7b 67 36 bd 82 96 65 3e
       0.06358946 -0.15175757 -0.04453228 0.22420695
0003e0 6b d8 23 bd 01 35 7e be 48 cc a4 be 54 4c 1a 3e
       -0.040001314 -0.24824907 -0.32187104 0.1506818
0003f0 7f 77 79 3d 03 c8 6e 3a 18 3f 3e 3c 3b e1 04 3e
       0.060904976 0.00091087836 0.011611722 0.12976544

main.1.bias f4 [20]
000000 09 66 b2 be 90 0b 80 be d3 4a cd be d0 fb 0c bc
       -0.34843472 -0.2500882 -0.4009615 -0.008604959
000010 94 e7 74 be 76 04 23 3e 0a f4 5f be 71 9b 79 3e
       -0.23916465 0.1591967 -0.21870437 0.24375702
000020 54 e2 86 be d7 0b 22 be e1 c1 a0 be aa 23 2a 3e
       -0.2634455 -0.15824829 -0.31397918 0.16615167
000030 f7 3b 62 3d b4 2e 85 be e3 7a ab be 85 e2 1e be
       0.05523297 -0.26012194 -0.33492193 -0.15516098
000040 7e 93 2c 3e 55 e2 5b 3d ab 2c 07 be f3 ed 27 be
       0.16853139 0.053682644 -0.13200633 -0.16399364

main.3.weight f4 [20]
000000 de e6 52 3f 5d aa 75 3f a6 e6 80 3f e7 fb 7a 3f
       0.82383525 0.9596308 1.0070388 0.9804062
000010 13 a5 6f 3f 7f b5 61 3f ec d3 75 3f 3f 15 82 3f
       0.9361126 0.88167566 0.9602649 1.0162734
000020 58 6e 78 3f 65 d4 69 3f c6 a3 68 3f cb c8 82 3f
       0.9704337 0.91339713 0.908749 1.0217527
000030 c4 f1 85 3f f9 e2 6f 3f 17 37 7c 3f a5 91 74 3f
       1.0464406 0.9370571 0.9852156 0.95534736
000040 ca ee 7c 3f fd dc 73 3f aa d3 6f 3f a9 00 74 3f
       0.98801863 0.95259076 0.9368235 0.9531351

main.3.bias f4 [20]
000000 4a ef 0f bd 03 81 52 be d9 49 1d bd 03 8f 5d be
       -0.035140313 -0.20557027 -0.038400505 -0.21636586
000010 8d c5 d1 bd a6 36 30 be 12 1f f3 bd bb 62 b0 bd
       -0.10242758 -0.17208347 -0.118711606 -0.08612581
000020 92 32 da bd a5 41 de bd 35 b9 59 3d 07 b3 d3 bd
       -0.10654177 -0.108523645 0.053155143 -0.10336881
000030 38 04 14 be e8 d3 11 bd d4 1c 8c bd 7f 2f 6c be
       -0.14454734 -0.03560248 -0.06841436 -0.23064993
000040 cb 6b 87 bc dc 46 f0 bd 53 96 48 3d 9b 88 ef 3d
       -0.016530892 -0.11732265 0.048971485 0.11695977

main.3.running_mean f4 [20]
000000 39 56 88 3d e7 f8 6c bc 90 19 c1 bd fe 1e 70 3e
       0.06657071 -0.01446364 -0.09428704 0.23449323
000010 6e 1e 95 3c c5 be 94 3e ad 56 af 3d 48 97 c2 3e
       0.018202987 0.29051796 0.08561454 0.38006043
000020 10 d2 80 3d 28 8b b5 3d 6f 0e b0 b9 e2 70 b4 3e
       0.06290066 0.088644326 -0.0003358009 0.35242373
000030 a9 2b 4e 3e 0b a8 49 3d 15 5d de bc 58 19 00 3e
       0.20133843 0.049232524 -0.027143994 0.12509668
000040 cb 0b cb 3e 21 a7 d5 3e d0 8a dd 3d cc 12 c7 3d
       0.39657435 0.41729072 0.10817492 0.09720382

main.3.running_var f4 [20]
000000 f8 8c 45 3e a1 fc fc 3c f9 59 be 3b c5 cb 8e 3e
       0.19292057 0.030882182 0.0058090654 0.2788984
000010 ca 3a 0f 3e 65 61 91 3e 50 98 07 3e 08 84 35 3e
       0.1398727 0.2839462 0.13241696 0.17726147
000020 15 4d e6 3d 9b f1 ea 3d c2 b9 8d 3d 3f 84 c7 3e
       0.11245171 0.11471864 0.06920196 0.38968083
000030 d4 fd 20 3e 24 11 d2 3d d5 0e df 3c 62 3a 64 3e
       0.15721828 0.102571756 0.027228752 0.22287896
000040 b1 15 0a 3f 86 c1 bc 3e 30 fe d3 3d e2 6a dd 3d
       0.5393935 0.36866397 0.10351217 0.10811402

main.4.weight f4 [2048, 20]
000000 c5 c2 39 be 4c 16 d8 3c 4b 5c 37 3e c3 65 08 be
       -0.18140705 0.02637782 0.179063 -0.13320069
000010 19 31 f0 3d 78 4c 07 bd dd f0 1d 3d 1e f4 01 be
       0.11728115 -0.03303191 0.038559783 -0.1269078
000020 01 ca 3e 3e 55 bc 58 3d 56 87 62 be 40 32 a1 bd
       0.18631746 0.052913982 -0.22121939 -0.078709126
000030 0f be 1c 3d cd 6b 47 3e 61 25 01 be a5 55 4c 3c
       0.03826719 0.19474716 -0.12611915 0.012471591
000040 e3 f6 93 bd 10 cd a7 bd 6d 95 b8 3c 59 b9 3e bd
       -0.07224824 -0.081934094 0.02253219 -0.04656348
000050 bd 08 5c 3e 31 59 57 be 24 98 f7 bb ef 08 a9 3d
       0.21487708 -0.21030118 -0.0075559784 0.08253657
000060 67 41 4d 3d de 90 0c 3d d5 62 a4 3d c4 7f 07 3e
       0.0501112 0.034317844 0.08026663 0.13232332
000070 94 d7 70 3b 67 ef fc 3d c9 4d fd bc e1 55 00 3c
       0.0036749588 0.1235035 -0.03092088 0.007832975
000080 26 d6 40 3e da 40 df 3d 7f 1e 29 3d 33 ff da 3d
       0.18831691 0.10901041 0.04128885 0.10693207
000090 4e 68 66 3d 03 7f ca 3d 07 ec d4 bd 2a e9 47 3e
       0.056251816 0.09887507 -0.10396581 0.19522539
0000a0 2e 75 3c 3c 53 57 c8 bd 05 e1 47 bd 8e d1 33 3e
       0.011502547 -0.09782281 -0.04879858 0.17560408
0000b0 bf 6a 02 3e f4 9c 46 bd 15 e1 20 3e 7f 99 84 bc
       0.12736033 -0.048489526 0.15710862 -0.016186474
0000c0 c0 9a 36 3e 35 7a c5 bd cc 4d b4 3d d9 a9 a6 bc
       0.1783247 -0.0964245 0.08803901 -0.020344662
0000d0 aa 86 0f be 3a 82 a1 bc c5 66 43 be 41 b5 8a 3c
       -0.14016214 -0.019715417 -0.19082172 0.016932132
0000e0 3d 2d 46 3e 3b 4e 87 bd e7 32 ab bd 10 41 1d 3d
       0.19353195 -0.06606718 -0.08359318 0.038392127
0000f0 60 bd 9a bd fc 13 bf 3d d1 dc 2d be 68 88 07 3e
       -0.07555652 0.093299836 -0.16978766 0.13235629
000100 29 d3 a4 3d 66 2c d0 3d bc da 42 3e d5 34 05 3e
       0.08048088 0.10164718 0.19028753 0.13008435
000110 f8 a4 0c be e5 2c 92 bd 4f e5 8d bd 05 aa 2e be
       -0.13734806 -0.07137469 -0.06928503 -0.17057045
000120 a4 08 81 3e 2f 05 71 3d f5 d5 c9 3c aa ea 51 3e
       0.25201905 0.058842834 0.024638155 0.20499673
000130 ed 7e 4e ba 12 09 3d be fa 16 d5 3c e8 c6 13 3e
       -0.000787719 -0.18460491 0.026011933 0.14431345
000140 a0 7b 40 3e 20 17 eb 3d 98 c6 b1 3c 0b 81 2d 3d
       0.18797159 0.1147902 0.021701142 0.042359393
000150 86 9e 64 3e de 60 10 bd fd 0d 3a 3e 10 29 d5 3d
       0.22326097 -0.03524863 0.18169399 0.10408223
000160 9b 0e 42 bc 3b 6f c0 bc b6 7b 03 bd 2b 3e 59 3e
       -0.0118443025 -0.023490539 -0.0321004 0.21215121
000170 c3 78 ba bd 55 b7 e9 bd c1 b8 88 3c b1 87 03 be
       -0.09105065 -0.11411921 0.01668966 -0.12844731
000180 97 2d d1 bd 25 67 e5 3d d4 a0 6a bd 01 63 88 bd
       -0.10213774 0.11201314 -0.057282284 -0.066595085
000190 27 f7 05 be e4 2c 80 3a 77 9e d5 3d 70 94 88 be
       -0.13082562 0.0009779003 0.104306154 -0.2667575
0001a0 e1 4d 6a 3d 1d dc e8 bd 20 b5 61 bc 9c 7b 55 3e
       0.057203177 -0.11370108 -0.013776094 0.20847934
0001b0 ec 9f b5 bd 5b 92 60 be 95 ed 57 bd b3 76 f6 3d
       -0.08868393 -0.2193083 -0.05271681 0.12034359
0001c0 38 92 1d 3d c0 ff 7a be 3f 01 92 bd 23 f3 f1 bd
       0.038469523 -0.24511623 -0.07129144 -0.11813953
0001d0 00 25 94 3d 97 d4 05 be 65 83 21 be 8f 73 7d 3b
       0.0723362 -0.13069378 -0.1577278 0.0038673615
0001e0 b2 1a f2 bc 9b cf aa 3d 69 5d b4 3d 59 bc 21 3e
       -0.029553745 0.08340379 0.08806879 0.15794505
0001f0 65 78 dc bd 0f 47 77 3e 71 82 84 3d c3 24 54 bd
       -0.10765151 0.241482 0.06470192 -0.05179287
000200 ab 9b 11 3e 99 6c 68 3e a0 84 88 bd ef 8f 27 be
       0.14219539 0.22697677 -0.06665921 -0.163635
000210 46 b7 ed 3c 6d a7 84 bd 88 6e 21 3e c9 a0 5d bd
       0.029018056 -0.064772464 0.1576482 -0.054108415
000220 69 29 69 3e d6 5d 6b 3e e1 35 32 be 99 b8 b0 bd
       0.22769703 0.22985014 -0.17403366 -0.08628959
000230 1a 7a 27 3e 73 75 84 3d d7 c3 06 3e ad 92 4d be
       0.16355172 0.06467714 0.13160644 -0.20075484
000240 3e 75 cf bd a1 91 72 3d 18 e6 1b be 8c 6c b7 bd
       -0.10129784 0.059220914 -0.15224493 -0.089562505
000250 31 69 51 bd f6 0a 29 3e e4 5f 66 3d d7 ec bc bd
       -0.05112571 0.16508088 0.056243792 -0.09224861
000260 57 7e 53 3e cc c4 1d 3e fc 49 a1 bd 71 f1 b2 3d
       0.20653664 0.15407103 -0.078754395 0.087374575
000270 eb f1 00 3d cf f4 c0 3d 80 cb 3c bd 41 5e ef bd
       0.03148071 0.094216935 -0.04609251 -0.116878994
000280 2b 3b 2a be 7b e8 c1 bd 07 d9 3d be 64 af dc 3d
       -0.16624133 -0.0946817 -0.1853982 0.107756406
000290 2e 71 56 be 6d 62 d3 bd c3 b1 49 bd e8 99 94 be
       -0.20941612 -0.103215076 -0.049241792 -0.2902367
0002a0 ca 02 4a 3e f3 44 9d 3d 7e 4d cb 3d ba e0 24 be
       0.19727626 0.07679167 0.0992689 -0.16101351
0002b0 a6 b2 38 be 94 76 e1 bd 32 85 8a 3d 93 97 f0 3d
       -0.18036899 -0.11008945 0.06763686 0.117476605
0002c0 ea 3d 23 3e 47 2d 8e 3d 3d ba c1 3c c7 75 11 be
       0.15941587 0.0694223 0.023648376 -0.14205085
0002d0 38 01 21 be c2 6f 1e be f8 c5 7c bd 1b c0 ac 3d
       -0.15723121 -0.1547232 -0.061712235 0.08435079
0002e0 aa b8 4c 3e b2 de 31 3e b5 ce e8 3c f7 67 ef 3d
       0.19992319 0.17370108 0.028418878 0.116897516
0002f0 64 62 11 3e 4f 77 ce bd b4 5d 00 bd 68 7b 8a 3d
       0.1419769 -0.1008135 -0.031339362 0.06761819
000300 5a 8c e5 bd 67 31 17 3e 7a 15 86 bd 07 15 41 be
       -0.112084106 0.14764939 -0.06547065 -0.18855678
000310 09 24 57 3e 1b 5b a1 3d 3e ed 4b bd c6 f1 62 3d
       0.2100984 0.07878705 -0.0497868 0.055406354
000320 95 0d 32 3e b9 63 77 3d 00 4d 64 bd 29 c8 1d 3e
       0.17387994 0.060397837 -0.055737495 0.15408386
000330 0e 6f 26 be 33 ba 33 3d 9c 3b 3a be 95 26 71 bc
       -0.16253302 0.043878745 -0.18186802 -0.014718671
000340 f2 00 b2 3d d1 95 56 bd 00 c9 65 3d 10 00 70 be
       0.086915866 -0.05238897 0.05609989 -0.23437524
000350 15 a3 7a bd e2 06 fe bd a2 56 62 bd f3 50 80 3d
       -0.061190683 -0.124036565 -0.0552584 0.0626544
000360 bb e0 a4 bd 8b f7 2c 3e 6b 18 6a 3d eb cd 05 3e
       -0.080506764 0.16891305 0.057152193 0.13066833
000370 04 88 03 3e 19 5f f7 3d e9 5d 11 3e 9b a1 a5 3d
       0.12844855 0.12078685 0.1419598 0.080874644
000380 b6 23 0f be ac 11 d9 3c cc 5b de ba 8a 96 43 3e
       -0.13978466 0.026497684 -0.0016964613 0.19100395
000390 d8 10 38 be 75 43 d7 bc ca 24 7b bd 7a 8e 18 be
       -0.17975175 -0.026277283 -0.06131438 -0.148981
0003a0 7e 70 51 be 0d 40 15 3e 54 7e b3 3d b4 94 91 be
       -0.20453069 0.14575215 0.087643296 -0.28433764
0003b0 6f 96 12 3c e2 1a de 3d 37 d3 cd 3c b1 fe dd bc
       0.008946999 0.10844971 0.02512513 -0.027098985
0003c0 42 19 0b be df f1 8e 3d 9b 04 60 bd c1 73 a1 bc
       -0.13583854 0.06979727 -0.054691892 -0.019708516
0003d0 5b c4 df 3d b8 eb 98 be 6b 6a 99 be c9 c9 7f bd
       0.10926124 -0.2986734 -0.29964003 -0.062448297
0003e0 ce bc 5a be d0 e1 83 be 25 df 2d be 86 dc 00 be
       -0.21361086 -0.2575822 -0.16979654 -0.12584123
0003f0 68 52 f3 bc 5e 0d b2 bd ac 2a 4b be 70 e9 59 be
       -0.02970238 -0.08693956 -0.19840497 -0.21280456

main.4.bias f4 [2048]
000000 34 99 35 be 3d ed ba 3b ee 56 d5 bc 60 96 bf 3d
       -0.17734224 0.0057045505 -0.026042428 0.09354854
000010 07 3b 41 bd 04 ad 80 3d e2 ae 35 3d ed 88 b3 3c
       -0.047175433 0.06283 0.044356234 0.021915877
000020 95 e5 c8 3d 1d 01 75 3e 21 e7 88 bd 61 fd 8e bd
       0.09809414 0.23926206 -0.06684709 -0.06981922
000030 c1 20 3f 3e 62 9b de bd f1 ea 70 3e 01 3c 66 3e
       0.18664838 -0.10869481 0.23527123 0.22483827
000040 ea 0f 2c 3e 54 0d 31 3d 4d 4e 3d bb 0d 7c 3e 3d
       0.16802946 0.0432256 -0.0028885782 0.046505023
000050 6d 09 fd 3c 27 9b 1a 3e ac 12 08 3e 29 fe 06 3e
       0.030888284 0.15098248 0.13288373 0.13182892
000060 43 61 17 3e 4f 07 1a be dd 87 7e 3e e3 c8 f6 bd
       0.14783196 -0.1504185 0.24856515 -0.12050035
000070 69 db fa bc ff e5 f7 3d 41 56 83 3e 9e ae e3 bc
       -0.030622201 0.12104415 0.25651744 -0.027793225
000080 0d 5c 50 bc fa 4c 61 3e ea 19 b2 bc 3a 7c b3 bd
       -0.012717259 0.2200202 -0.021740872 -0.08763929
000090 eb 17 85 3e 9c 0d 74 bd c5 cf 73 3e 11 01 db 3d
       0.2599481 -0.05958329 0.23809727 0.10693563
0000a0 04 e4 2b 3e 84 93 26 3e b5 f6 fb bc 41 1f 3c 3e
       0.167862 0.1626721 -0.030757288 0.18371297
0000b0 97 68 79 3e da 5d 61 bc b3 9b 4f 3e db e6 2c 3e
       0.24356304 -0.013755286 0.20274238 0.1688494
0000c0 2a 1b 66 bd 97 d8 28 3e 39 ab fd bd f4 2b 9d 3d
       -0.05617825 0.16488872 -0.12386174 0.07674399
0000d0 06 f1 1c 3e f9 4f 8d bd 60 d4 77 3e b6 f8 5b 3e
       0.15326318 -0.06900019 0.24202108 0.21481594
0000e0 08 97 e3 bc f9 01 68 bd 86 52 c6 3b ae 93 85 bd
       -0.027781978 -0.056642506 0.006052318 -0.06522308
0000f0 53 ac 8d 3c f4 b3 05 bd 0c 91 bf be 83 d1 2a bd
       0.017294085 -0.03264232 -0.3741535 -0.041703712
000100 9f db a5 3d 84 5b 31 be d9 a7 30 be 8f d7 df 3d
       0.0809853 -0.17320067 -0.17251529 0.109297864
000110 6c bd 14 bc 1d 5b 40 be fa 59 08 3d c3 4d cf bd
       -0.009078365 -0.18784757 0.033288933 -0.10122254
000120 c3 a5 30 be 8c b7 47 bc 62 90 f8 3c d0 72 be 3d
       -0.17250733 -0.012189757 0.030342285 0.092992425
000130 ef a7 25 3c f5 5f 36 be 5c 9a e0 3d eb f6 5f be
       0.010110839 -0.17810042 0.10966942 -0.21871535
000140 5e 38 f5 3c e9 99 c4 3c 34 cb 0f 3e 71 40 55 3d
       0.029934105 0.023999171 0.1404236 0.05206341
000150 f3 32 85 be f0 cf 51 be 8b 89 34 3d e6 54 06 be
       -0.26015434 -0.20489478 0.044076484 -0.13118324
000160 f0 9f a0 bd d1 2e 31 bc 3c ee 97 bd 66 3e ae bd
       -0.07843006 -0.010814385 -0.074184865 -0.08507995
000170 4b 97 18 3e 58 c6 dd bd 24 f8 9f be 58 4e 9f 3d
       0.14901464 -0.10828847 -0.31244004 0.07778615
000180 57 d6 bd bd 1f b7 cb 3d 0f 4d 5e bc 6c 2e 87 be
       -0.09269398 0.09947037 -0.013568177 -0.26402605
000190 ca 3a 8b 3d 73 27 51 be 2c 37 a9 3d b2 6d 52 be
       0.067983225 -0.20425205 0.08262476 -0.20549658
0001a0 59 03 6e 3d bc fc 66 bd e2 77 4a be a8 2d 10 3e
       0.05810866 -0.05639337 -0.19772294 0.14079916
0001b0 9e 0b 53 bd 08 3f 80 bc dd c8 37 be 6b 67 f1 3d
       -0.05152475 -0.015655056 -0.17947717 0.117873035
0001c0 80 33 e9 3d ca 5d 0b 3d e6 b0 45 bd 0c 37 cd 3d
       0.11386776 0.03402499 -0.048264407 0.10020265
0001d0 4f 94 77 bd 47 7b 12 be b6 24 5c 3d d6 4f 3b be
       -0.060444172 -0.14304839 0.053745948 -0.18292174
0001e0 1d 3a c0 bd 38 d9 5f 3d 1c 97 cd bc a1 e6 d0 3d
       -0.09386084 0.054650515 -0.025096469 0.10200239
0001f0 c6 9e d7 3d ff 9a 97 bd 68 1a 08 be a2 45 de 3d
       0.105283305 -0.0740261 -0.13291323 0.10853125
000200 4c 88 05 3e fc b9 25 3e 7f 20 aa bc 2e 64 01 be
       0.13040274 0.16184229 -0.020767448 -0.12635872
000210 50 0b 0f be e0 4f e8 3d 78 74 66 bd 93 8b 10 bd
       -0.13969159 0.1134336 -0.056263417 -0.03528936
000220 b4 d4 22 be fd 72 32 be 88 f9 cb bc bf e4 70 3d
       -0.15901452 -0.17426677 -0.02489926 0.0588119
000230 17 a7 bf bd 7b 60 cb bc 13 5c 09 be 4c 2e 33 3e
       -0.09358042 -0.024826279 -0.1341403 0.1749813
000240 9a 0c 25 3e 1e 7c bc 3d 06 a7 28 3e 42 ec 5d be
       0.16118088 0.09203361 0.16469964 -0.21672156
000250 7e 3e 28 3e 49 d9 fd 3d 82 95 37 be 06 aa a0 3d
       0.16430089 0.123949595 -0.17928126 0.078449294
000260 96 9b 94 3d 16 ab 1b be f7 0e 4b be 43 9a 9c bb
       0.07256238 -0.15201983 -0.19829927 -0.0047791316
000270 94 b0 4d 3b c3 89 b6 bd 31 fe 1f be 52 7a 73 bd
       0.0031385766 -0.08912995 -0.1562431 -0.059442826
000280 fc 39 32 3d d0 c2 c4 bd 15 8c 45 be bc 4b 1c 3e
       0.04351233 -0.0960747 -0.19291718 0.15263265
000290 ab 03 f2 bd 0d 69 d1 3d b6 26 0e be f2 e2 68 3e
       -0.11817106 0.10225115 -0.13881955 0.22742823
0002a0 92 f7 1b 3e 56 6b a2 bc bc 63 f2 3d ca 5f 8d bd
       0.1523116 -0.019826572 0.11835429 -0.06903036
0002b0 15 29 2d 3e c0 4e c7 3d 2e c1 2f 3c c6 18 61 be
       0.16910203 0.09731817 0.01072721 -0.21982107
0002c0 f1 4c 4e be c9 8b 02 3e 24 41 93 3d 0c d6 09 3e
       -0.20146538 0.12748636 0.07190159 0.13460559
0002d0 3d 6c 39 bd 50 28 63 bd b9 f9 f8 3b ab 7a 8b 3d
       -0.04526924 -0.055458367 0.0075981286 0.068105064
0002e0 95 0a b0 3d ab 39 15 be 3b 43 84 bd 45 ae 0b 3e
       0.08595768 -0.1457278 -0.06458136 0.13640697
0002f0 e8 47 34 be f2 f7 da bd 7d 4b c1 bd c3 0e 24 be
       -0.17605555 -0.10691823 -0.09438226 -0.16021256
000300 0b ea ad bd 84 34 20 3e 06 d5 8d 3d 3b a2 01 3e
       -0.08491906 0.15645033 0.069253966 0.12659542
000310 c3 1c 41 3e 25 95 40 bd 6f 22 14 3e 79 42 2b 3e
       0.18858628 -0.047017235 0.1446626 0.16724576
000320 bf e8 f1 bd 7f 0a 5d 3e e3 90 53 3d 4e 4e ad bd
       -0.11811971 0.21586035 0.051651847 -0.08462201
000330 4a f3 49 bc d9 61 76 3e 69 5c 83 3e 1e 5d c8 3d
       -0.012326071 0.24060763 0.2565644 0.09783386
000340 a3 d5 86 3e 87 17 0b be 0d b3 38 3e db 1b ea 3c
       0.26334867 -0.13583194 0.18037052 0.028577736
000350 34 64 8b 3d a6 d3 98 3d 2a 22 f8 bd 07 38 3b be
       0.068062216 0.07462244 -0.12115891 -0.18283091
000360 e9 59 47 3e 7b 78 3a 3e 63 7c 01 3e a8 bf 6f bd
       0.19467892 0.18210022 0.12645106 -0.058532387
000370 46 bb cd 3d da a1 8a 3e 0b d1 e1 3d fc 53 f1 bc
       0.10045485 0.27076608 0.110262 -0.029458992
000380 f1 ab 07 3e 73 7c de bd 0a ef 44 3e 65 90 42 3d
       0.13249184 -0.108635806 0.19231811 0.047500987
000390 98 b8 cb 3d 37 ed 25 3e ac a2 85 3d 3e 61 e7 bd
       0.09947318 0.16203772 0.06525168 -0.11297844
0003a0 b6 27 b3 3d 80 1c 06 3e b9 18 42 3e 01 5b 78 bc
       0.08747809 0.1309681 0.18954743 -0.015158416
0003b0 bb 28 db 3d 51 de 1b 3e 28 56 8e 3d 27 75 1a 3e
       0.10701128 0.15221526 0.06950027 0.15083753
0003c0 08 7f 0b 3c c3 e0 1d 3e 3d ea c3 bd dc cc 75 3e
       0.008514173 0.15417771 -0.09566162 0.24003929
0003d0 d3 ed 02 3e e0 79 f6 3d 79 0e 1e 3e a1 b3 28 3c
       0.12786035 0.120349646 0.15435208 0.010296733
0003e0 8f 0d 6a 3c 42 d5 ef 3d 4a a3 64 3e 26 25 27 3e
       0.014285459 0.117105976 0.22327915 0.16322765
0003f0 0e 97 ec 3d 1f 35 d9 bd 10 58 ef bd 9f cd 2e bd
       0.11552249 -0.10605835 -0.116867185 -0.042676564

conv.0.weight f4 [20, 1, 5, 5]
000000 c0 ad 22 3e 53 a6 a0 3d b8 17 09 3e c3 8f 2e 3e
       0.15886593 0.07844224 0.13387954 0.17047028
000010 7b 1c c6 bc c3 2f cf bd 24 20 d4 bd f9 47 b3 bd
       -0.024183502 -0.10116532 -0.10357693 -0.08753962
000020 d1 54 88 3d b8 ea 2d 3e aa 0b 5a 3c ed b8 31 3d
       0.066568024 0.1698407 0.013308445 0.04338925
000030 4a d9 c3 bd 43 15 be bd 53 28 80 bd d5 5b 9c be
       -0.09562929 -0.09281399 -0.06257691 -0.30538812
000040 b9 75 48 3d 82 f7 54 be 5b 56 90 3c d6 1e 11 be
       0.048940394 -0.20797542 0.017619302 -0.14171919
000050 fe 6d bd bd 4c cb 45 bd 8f 85 92 be a3 b1 78 bd
       -0.09249495 -0.048289582 -0.28617522 -0.060716283
000060 6e 23 8b be f9 23 74 3e d0 c3 87 bd 28 ba 19 3d
       -0.27175468 0.23841847 -0.06629145 0.037531048
000070 55 a8 49 3e 17 29 17 3e ad 33 b9 bd 32 e2 b8 3d
       0.1969312 0.14761768 -0.090430595 0.09027518
000080 ad 5e 80 bc 04 5e c3 3c f2 67 41 3e d0 44 76 3d
       -0.015670145 0.023848541 0.18887308 0.06012422
000090 f9 d1 4f 3e 57 bd 31 3e e0 6b 96 bd d2 8f 36 3d
       0.20294942 0.17357384 -0.07344794 0.04457075
0000a0 0d 98 d9 bd 74 83 39 be cc fd dc bd e1 e0 a6 bd
       -0.106247045 -0.18116552 -0.107905954 -0.08148361
0000b0 29 7a ca 3d 83 3a 48 be 89 19 c3 bc 06 5c b8 bd
       0.098865815 -0.1955357 -0.023815887 -0.09001927
0000c0 db d6 2d be 97 fa 4e 3d 9d 03 89 3e 98 8f 0f bd
       -0.16976492 0.05053195 0.2676057 -0.03504905
0000d0 c9 ae 68 3e 2f dd 00 3e 70 d1 8e 3c 8f 2b 32 3e
       0.22722925 0.12584375 0.017433852 0.17399429
0000e0 e4 9f 5b bd 13 cc 2b 3e 08 2b b9 3d ce 40 57 3d
       -0.05361928 0.16777067 0.09041411 0.052552037
0000f0 db 08 bf 3d 01 c8 01 3e 16 db 8c 3b 9a 0a e6 bc
       0.09327861 0.12673952 0.004298578 -0.028081227
000100 7f 85 55 3d 5e 38 e9 bd b2 3a 10 3e 13 87 40 3e
       0.052129265 -0.11387704 0.1408489 0.18801527
000110 a7 63 77 bb 5b 5e cd 3d 03 b6 29 bd 78 36 6d bc
       -0.0037748606 0.100277625 -0.041433346 -0.014478318
000120 37 6c 3f 3e 15 c6 16 3e 8a 7c b4 3d f9 27 50 3d
       0.18693624 0.14724 0.088128164 0.05081937
000130 b4 d7 1d 3d c6 01 d2 3d 29 bd e3 bd e4 fe 86 3d
       0.03853579 0.102542445 -0.11120064 0.06591585
000140 e8 3a 23 bd 61 b9 3d be 5f 08 06 3e b1 bb 09 be
       -0.0398511 -0.18527748 0.13089131 -0.13450505
000150 1a 66 dd 3d ff 75 ec bc 19 d3 b8 bc ae 2b 2e bd
       0.1081049 -0.028864859 -0.022561597 -0.042522125
000160 69 8b 03 3d d7 95 4d bd 41 58 a1 bc c0 7b ac 3d
       0.032115374 -0.050191727 -0.019695403 0.08422041
000170 41 d0 ba 3c c7 04 f1 3d c5 af 6b 3c 88 79 a7 3d
       0.022804381 0.11768489 0.014385168 0.08177477
000180 2a b5 f2 3d 4c fa fe bb 4d d0 ae 3d 3a f4 38 3e
       0.118509606 -0.0077813026 0.08535824 0.18061915
000190 92 61 41 bd 55 8e 0d be a1 c5 b1 3d 9c 15 81 bd
       -0.04721219 -0.13823827 0.08680273 -0.0630295
0001a0 0f 97 b0 3d 5e a3 96 3e c5 fe d8 bd ec af 8f 3d
       0.08622562 0.29421514 -0.105954684 0.07015976
0001b0 94 8a 99 bd c3 2d 44 3e 6e f0 a4 bd f3 08 3d bd
       -0.07497135 0.19158082 -0.08053671 -0.046151113
0001c0 ce 26 0e be b2 2e 72 3d c4 16 2a 3e aa 8c 82 3d
       -0.1388199 0.059126563 0.16610247 0.06374486
0001d0 a6 99 62 3d d5 2e be bd 55 cf 01 be 52 1a 00 3e
       0.05532231 -0.09286276 -0.12676747 0.1251004
0001e0 75 f6 55 bd 26 bb 29 3c 51 a8 21 3e de f4 0e be
       -0.052236993 0.010359561 0.15786864 -0.13960597
0001f0 01 b5 ff bd 36 21 ab 3d f3 df b5 3d 79 7f 6c be
       -0.12485696 0.08355944 0.088806055 -0.23095502
000200 e9 59 da 39 ec 72 04 be 1e ab 2f bd 4e 24 d9 3c
       0.00041647188 -0.12934464 -0.0428878 0.02650657
000210 b9 98 be 3d 1f 54 a8 3c d0 d4 94 bd bb 5d 54 3e
       0.09306473 0.020547925 -0.07267153 0.2073888
000220 65 04 e7 bd 51 e9 15 3e f4 9d b3 3c 45 09 19 3e
       -0.11280135 0.14639784 0.021925904 0.14944942
000230 f0 0b d4 3d 32 83 ce 3d 28 97 39 3e c6 5f b6 3d
       0.103538394 0.10083617 0.18124068 0.08904986
000240 e2 6f 22 bd aa fc 97 3d 3a b6 8e 3a d3 0a 0e bd
       -0.03965748 0.07421239 0.0010888048 -0.03467829
000250 5a 89 dd 3d 83 36 1f 3e 88 de 84 be 48 88 9c be
       0.10817213 0.15548138 -0.25951028 -0.30572724
000260 e2 8b 4b 3d 8f 4d 51 be 4a 1f 8f be fb 1d f4 3c
       0.04969395 -0.20439743 -0.2795356 0.029799452
000270 48 a6 84 3d 61 73 a1 3d 20 b0 4a bd e0 4b 21 3e
       0.06477028 0.07883335 -0.049484372 0.157516
000280 61 c5 b4 bc 31 dc 06 be 94 0d e3 bd 39 5e 73 3b
       -0.022066774 -0.13169934 -0.11086574 0.0037135019
000290 36 51 9d bd 30 6f ed 3c 1d d1 98 3d 50 c6 35 3d
       -0.076815054 0.028983682 0.0746176 0.04437858
0002a0 a7 df 46 3d f6 1c 4b 3d e9 3c f2 3d d6 75 ad bd
       0.048553135 0.049588166 0.11828024 -0.08469741
0002b0 db 3b 99 3d 05 fd ea 3c 30 2c bd bd 9b 52 f7 bd
       0.0748212 0.028685102 -0.09236944 -0.120763026
0002c0 1c 79 bd bd 78 1d 91 bc 14 39 3c 3e 57 43 48 3b
       -0.092516154 -0.017714247 0.18381149 0.0030557716
0002d0 c3 55 f9 3d ca aa 65 3d 96 1a 19 be d6 29 06 3e
       0.12174561 0.05607108 -0.14951548 0.13101897
0002e0 4a 3d bb 3b 7d 7d 14 bd a7 bb b1 3d 10 ab a5 3c
       0.0057140933 -0.036252487 0.0867837 0.02022317
0002f0 d2 38 43 3e 1f b3 37 bd ae 86 32 3e b3 ee a2 3d
       0.19064644 -0.044848558 0.17434189 0.079556845
000300 83 f9 e2 3b 4f 09 51 3c b9 48 8d 3d 7d b7 9e 3d
       0.006926717 0.012758567 0.06898636 0.07749841
000310 02 24 1d 3e d5 ad 21 3e 3e 9f ed bd ba ad 3a 3e
       0.15345767 0.15788968 -0.11602639 0.18230334
000320 53 8e 3d 3d 0c 6e 2b 3d 77 6a 81 3d aa 40 dd 3b
       0.04627831 0.041852996 0.06319135 0.0067520933
000330 2f 38 11 3d e1 9c 26 3d c1 7b 05 3c 10 e4 91 3a
       0.03545397 0.040676955 0.008147181 0.001113059
000340 23 ca 51 3d d5 f2 b7 3d 00 97 2f bd 87 be 5c 3d
       0.051218163 0.089818634 -0.042868614 0.05389264
000350 72 67 bb 3d 3e 5d 3a bc 08 66 11 3c 90 11 cc bd
       0.0915059 -0.01137477 0.008874424 -0.09964287
000360 50 a7 c5 bd 62 9f 01 3c fe b0 14 be 2f 90 4d bd
       -0.09651053 0.007911535 -0.14520642 -0.050186332
000370 73 f1 21 be ec bf dd bd f2 b4 81 3c 42 67 65 be
       -0.15814762 -0.10827622 0.015833352 -0.22402671
000380 86 9a 16 be 11 a4 21 3e b2 e9 cf bc c7 9c 97 3d
       -0.14707384 0.15785243 -0.02537999 0.0740295
000390 e6 b0 30 bc bd 98 13 3e f6 d9 95 3d 7a 49 dc bc
       -0.010784363 0.14413734 0.073169634 -0.026890505
0003a0 6b 7a 44 3d db 67 e5 3d e6 4c 31 3e 83 24 3f bd
       0.04796831 0.112014495 0.1731449 -0.04666568
0003b0 62 53 81 3c f8 ed df 3c c8 b4 0e 3d fa 3c f1 3c
       0.01578683 0.027335152 0.034840375 0.029448021
0003c0 3a 53 2c be 7a 39 f6 bd c4 43 38 be 38 47 2a be
       -0.16828623 -0.120226815 -0.179946 -0.1662873
0003d0 12 e6 4f 3d ac 80 a8 3c 56 f3 92 be 8e 08 8c be
       0.05075652 0.020569168 -0.28701276 -0.27350277
0003e0 69 fb 10 bd a1 8a 48 be dc d1 f0 3d cd c0 41 3e
       -0.035396013 -0.19584133 0.117587775 0.18921204
0003f0 85 b8 4e bc 21 ab 20 3e e2 a1 e5 3d 19 53 0c be
       -0.012617235 0.1569028 0.11212517 -0.13703574

conv.0.bias f4 [20]
000000 da e3 dd bd 49 51 6d be 4f e0 1f bd 4f 5e 0c bc
       -0.10834475 -0.23175539 -0.039032277 -0.008567407
000010 03 2d 09 3e f5 07 0f 3e da 7c fa bd 86 dc 58 3c
       0.13396077 0.13967879 -0.12230845 0.013236171
000020 d2 80 2b be e4 c6 2e bd 3a 06 3d be e0 a5 7f be
       -0.1674836 -0.042670146 -0.18459406 -0.2496562
000030 65 6e 4b be 30 a5 03 be e6 22 4c be ce 67 b4 bd
       -0.19866331 -0.12855983 -0.19935188 -0.08808862
000040 ef 18 5e 3c 06 7a d5 bd ea a5 a5 bd 3e 75 10 be
       0.013555749 -0.10423665 -0.08088286 -0.14107224

conv.2.weight f4 [20]
000000 23 d3 8c 3f 02 75 8e 3f cc 0a 86 3f 6f 5b 86 3f
       1.1001934 1.1129458 1.0472045 1.0496653
000010 ef 17 82 3f 5d 4b 87 3f 31 88 8f 3f 44 4f 88 3f
       1.0163554 1.0569874 1.1213437 1.064919
000020 f2 47 8a 3f 7e 84 89 3f ab e4 8b 3f 38 99 80 3f
       1.0803206 1.0743558 1.0929159 1.0046759
000030 a6 d4 96 3f fa 10 8f 3f 7a ba 88 3f d0 ec 8e 3f
       1.1783645 1.1177056 1.0681908 1.116602
000040 1e 84 86 3f 96 18 95 3f 69 15 8b 3f 0b 13 93 3f
       1.0509069 1.1648128 1.0865909 1.1490186

conv.2.bias f4 [20]
000000 ee 34 1b be e9 81 78 3e ba ce 15 be 04 ff 1b be
       -0.1515691 0.24268307 -0.14629641 -0.15234
000010 f0 5a 13 be 47 2e 01 be 6a 5b 2e 3e 16 72 0c be
       -0.14390159 -0.1261531 0.17027059 -0.13715395
000020 e4 ce 07 be 26 e3 0c be 65 e3 17 be cc b9 15 be
       -0.13262516 -0.13758525 -0.14832838 -0.14621657
000030 2e be 26 3e d5 95 10 be c1 a0 15 be ad 43 17 be
       0.16283485 -0.14119656 -0.14612104 -0.1477191
000040 0d 81 29 be a1 01 18 3e 91 00 22 be 21 be 02 3e
       -0.16553135 0.14844371 -0.15820529 0.12767841

conv.2.running_mean f4 [20]
000000 1d 0f 4b bd d6 83 4e bc 3f c4 85 3e 9c 3a d3 3d
       -0.04957496 -0.012604674 0.26126286 0.10313913
000010 eb c2 31 3e e2 d3 9b 3e 5c 2d 15 bd 7d 44 4e 3e
       0.17359512 0.3043509 -0.03642021 0.20143314
000020 36 ae 41 bd 66 68 95 bb bf 39 81 bd 39 57 4f bd
       -0.04728528 -0.0045595644 -0.06309842 -0.05062029
000030 19 a2 bd bc 1d 1e 1c bd 43 d8 9b bd b2 71 94 bd
       -0.023148583 -0.038114656 -0.07609608 -0.07248248
000040 59 a1 13 3e 32 66 f3 3b 08 9a 02 3d b7 57 24 bc
       0.14417018 0.007427954 0.031885177 -0.0100306785

conv.2.running_var f4 [20]
000000 df d1 03 3c 7c db ad 3c d3 d4 cb 3d 6d 7e da 3c
       0.008045643 0.021222822 0.099527024 0.026671613
000010 83 17 1e 3d a7 3c 76 3d 6c c1 ab 3b 47 8b 74 3d
       0.03859664 0.060116436 0.0052415635 0.059703138
000020 5c 15 3e 3b ae 6b 54 3c 56 db d7 3b ef e7 63 3b
       0.002900443 0.012965126 0.006587426 0.0034775694
000030 d5 5d 07 3c b6 4a fa 3b 3b 36 73 3b e9 04 b4 3b
       0.008262117 0.007638301 0.0037111181 0.0054937494
000040 82 47 4a 3d 54 3e 59 3c 5c fd c5 3c f0 65 04 3c
       0.0493846 0.013259489 0.024168663 0.008080944

conv.3.weight f4 [1, 20, 5, 5]
000000 26 d9 da 3d 02 be ea 3d 60 c6 d8 3d 7f b3 12 3e
       0.10685949 0.11462022 0.10584712 0.14326285
000010 48 c2 1d 3e 4d 9a 1f 3e 83 79 ff 3d 24 f2 0b 3e
       0.15406144 0.15586205 0.124743484 0.13666588
000020 57 3d f5 3d 6e 61 06 3e 02 3d d9 3d 00 42 09 3e
       0.1197459 0.13123104 0.106073394 0.13404083
000030 82 76 fb 3d 51 1c 0e 3e ad 8a 0b 3e 55 34 2f 3e
       0.12278463 0.1387799 0.1362712 0.17109807
000040 33 9c 0d 3e 29 d0 ee 3d a6 c2 07 3e 5f ea ea 3d
       0.13829117 0.11660797 0.13257846 0.11470484
000050 05 af 17 3e 2b 82 3d 3e 8b 7e d9 3d 6d e2 04 3e
       0.14812858 0.18506686 0.10619839 0.12977
000060 37 d0 d9 3d 8f 6e 03 be 72 7e dc 3c 85 cf df 3c
       0.10635417 -0.12835144 0.026915763 0.027320633
000070 aa 4b ee bd ed 85 2d be 82 94 60 be 04 f8 07 be
       -0.116355255 -0.1694562 -0.21931651 -0.13278204
000080 48 ee 2e be 4a 33 5d be 79 97 33 be 57 6f 1b be
       -0.17083085 -0.21601596 -0.17538251 -0.15179192
000090 54 e4 3e be aa b0 58 be 0c e9 36 be 31 5f 22 be
       -0.18641788 -0.21161142 -0.17862338 -0.15856625
0000a0 6e eb 2f be 4a 34 20 be f9 67 2e be bc ce 06 be
       -0.17179653 -0.15644947 -0.1703185 -0.131648
0000b0 62 2d 38 be 86 5b 04 be 3a dc 10 be 93 bf 19 be
       -0.17986062 -0.12925538 -0.1414651 -0.15014486
0000c0 fe ee 43 be fb 8e 15 be 1f cf d9 3d f3 77 dd 3d
       -0.19134137 -0.14605324 0.10635208 0.10813894
0000d0 19 14 dd 3d 2d 13 9e 3d 03 9e e0 3d f6 ad a5 3d
       0.10794849 0.07718501 0.10967638 0.08089821
0000e0 3a 9e 05 3e 44 77 20 3e db 14 d4 3d 34 1f 7c 3d
       0.1304864 0.15670496 0.1035554 0.061553195
0000f0 14 19 ac 3d 0e 11 11 3e 0a 81 0c 3e c9 26 02 3e
       0.08403221 0.14166662 0.137211 0.12710108
000100 e7 27 06 3e 34 88 d9 3d ef 13 35 3e c6 eb 29 3e
       0.13101159 0.10621682 0.17683385 0.16593847
000110 89 95 ed 3d d4 3f d5 3d f4 df 39 3e 00 a0 16 3e
       0.11600787 0.10412565 0.18151838 0.14709473
000120 d4 09 10 3e be 54 10 3e e0 6b 5b 3e 8a e3 62 3d
       0.14066249 0.14094827 0.2142787 0.05539278
000130 ac 21 13 3e 0e eb 81 3d 4e 3c b4 3d 61 f0 ca 3d
       0.14368314 0.06343661 0.08800565 0.0990913
000140 c3 9c 10 3e 40 06 16 3e f6 cb e7 3d 02 3a 02 3e
       0.141223 0.14650822 0.11318199 0.1271744
000150 81 e6 0c 3e 2e ed 34 3e 70 15 08 3e ea b2 eb 3d
       0.13759805 0.17668602 0.13289428 0.115087345
000160 73 71 07 3e 97 eb 26 3e 29 c2 10 3e 62 4e 16 3e
       0.13226871 0.16300808 0.14136566 0.14678338
000170 b3 c0 00 3e f4 9b d2 3d 2c ae b5 3d 90 03 d3 3d
       0.12573509 0.10283652 0.08871111 0.10303414
000180 65 01 f9 3d 25 ac 21 3e 43 9f 06 3e 7b 38 0e 3e
       0.12158469 0.15788324 0.13146691 0.13888733
000190 a1 a3 ed 3d 03 dc ec 3d f9 88 07 3e 1f ba 1f 3e
       0.11603475 0.115654014 0.13235845 0.15598343
0001a0 c1 2b 2a 3e cd 67 a8 3d 69 f5 f3 3d 85 36 c2 3d
       0.16618253 0.082229234 0.11912043 0.09483055
0001b0 88 a7 da 3d 79 5d 14 3e bf 40 49 3e 11 33 2a 3e
       0.10676485 0.14488782 0.19653605 0.16621043
0001c0 10 a8 0b 3e fa 1e b7 3d c1 4a 0f 3e 37 29 8d 3d
       0.1363833 0.08941455 0.1399336 0.06892627
0001d0 0b eb 31 3e 0b 50 dd 3d 43 67 b5 3d fb 6f f7 3d
       0.17374818 0.108062826 0.08857586 0.120819055
0001e0 93 f8 22 3e 48 ee 0a 3e 8b 86 bd 3d 93 43 ca 3d
       0.15915136 0.1356746 0.09254178 0.0987617
0001f0 6d 00 fa 3d a5 40 dc 3d c8 85 10 3e b5 7b 02 3e
       0.122071125 0.107545175 0.14113533 0.12742503
000200 fc ca 9e 3d 1f 10 25 3d 5c a3 04 3e c3 59 04 3e
       0.0775356 0.040298577 0.12952942 0.12924866
000210 b4 da bf 3d 21 61 b9 3d be b8 7e 3d b8 5d d6 3d
       0.09367886 0.09051729 0.062187903 0.10467094
000220 b1 bb 2c 3e 19 1b f7 3d d5 65 d6 3d 6d a0 02 3e
       0.16868474 0.12065715 0.10468642 0.1275651
000230 40 22 9b 3d 93 34 16 3e 7b 25 32 3e a9 fc 0f 3e
       0.07574892 0.14668493 0.1739711 0.14061226
000240 f6 80 26 3e 3f 0d 09 3e f1 92 ec 3d 3d 2d 3a 3e
       0.16260132 0.13383959 0.11551464 0.1818132
000250 47 99 f3 3d 77 92 1c 3e dc 74 0c be 9c fa ba bd
       0.1189447 0.15290247 -0.13716453 -0.09129831
000260 13 01 11 be b6 b1 ef bd 98 52 e5 bd 43 87 15 be
       -0.14160566 -0.117038175 -0.11197394 -0.1460238
000270 77 ae 2c be a6 80 fb bd 3f 7b 14 be ca 58 c0 bd
       -0.16863428 -0.12280397 -0.1450014 -0.09391935
000280 c1 70 d4 bd 4e 3e 15 be b5 7c d6 bd d1 6b 03 be
       -0.103730686 -0.14574549 -0.10473005 -0.12834097
000290 fd 33 09 be eb 3c 45 be 40 b9 2c be 50 ce 41 be
       -0.13398738 -0.1926152 -0.16867542 -0.18926358
0002a0 fb 64 2a be db 23 21 be 11 77 c9 bd 13 56 06 be
       -0.16640083 -0.15736334 -0.09837163 -0.13118772
0002b0 fd 45 15 be 4d 9c cf bd c5 10 58 be 27 05 7b 3d
       -0.1457748 -0.10137234 -0.21100147 0.06128421
0002c0 99 87 f1 3d a9 4b 0f 3e b9 f4 c3 3d 77 ce ce 3d
       0.11793441 0.13993706 0.095681615 0.10097974
0002d0 75 c4 97 3d 34 bb c3 3d 76 ec 00 3e 92 cd ea 3d
       0.07410518 0.095571905 0.12590203 0.11464991
0002e0 10 b6 b5 3d d1 6a 07 3e 4a c7 00 3e b2 a4 56 3e
       0.08872616 0.13224341 0.12576023 0.20961264
0002f0 f4 99 1c 3e 1a 5b 17 3e 27 07 19 3e 75 45 fb 3d
       0.15293103 0.14780846 0.14944135 0.12269107
000300 db 68 20 3e c8 74 2c 3e 15 8f d4 3d 26 61 2a 3e
       0.15664999 0.16841424 0.10378853 0.16638622
000310 5a ee f4 3d b3 4b 1f 3e ac 04 23 3e 5e f6 f8 3d
       0.119595245 0.1555622 0.15919751 0.12156366
000320 10 bc 0c 3e f5 c0 ed 3d 71 c7 15 3e 8d 45 c2 3d
       0.13743615 0.11609069 0.14626862 0.09485922
000330 89 c5 f9 3d 30 c3 b7 3d 03 54 af 3d 17 76 d3 3d
       0.1219588 0.08972776 0.08560946 0.10325258
000340 d6 4e 1b 3e 90 63 0e 3e b9 d5 04 3e 1b 3a db 3d
       0.15166792 0.13905168 0.12972154 0.10704442
000350 7f 75 e7 3d b8 c2 4d 3d b5 dc 5f 3d 16 ec a1 3d
       0.113017075 0.050234526 0.054653842 0.07906358
000360 28 f6 d4 3d c1 83 17 3e b1 31 05 3e 38 ce 13 3e
       0.10398513 0.14796354 0.13007237 0.14434135
000370 06 82 c0 3d 27 9a eb 3d 98 85 11 3e 41 a8 b7 3d
       0.093998 0.115040116 0.14211118 0.08967639
000380 3b 99 fe 3d 6a 4d a5 3d 84 82 b5 3d 77 d3 05 3e
       0.1243157 0.08071406 0.088627845 0.13068949
000390 a9 a3 f3 3d 67 a7 05 3e 77 84 a4 3d fb cb ec 3d
       0.1189645 0.1305214 0.08033078 0.11562344
0003a0 1f 95 0c 3e af 03 d5 3d 85 ca 15 3e d2 5f a8 3d
       0.1372876 0.10401093 0.14628036 0.08221401
0003b0 c7 12 ec 3d 3b f7 99 3d fe 94 9c 3d c0 b4 9e 3d
       0.11527019 0.075178586 0.076456055 0.07749319
0003c0 eb 5f db 3d fb 84 12 3e e1 08 e5 3d 54 c3 b7 3d
       0.10711654 0.1430854 0.11183334 0.08972803
0003d0 9a 1f 0c 3e ea fe a8 3d b7 20 09 3e a3 11 24 3e
       0.1368393 0.08251746 0.13391386 0.16022353
0003e0 e6 33 09 3e 0e 39 ea 3d ea f9 d2 3d ce 2a c5 3d
       0.13398704 0.114366636 0.103015736 0.09627305
0003f0 2e d0 b2 3d 2b e6 aa 3d d0 a1 ef 3d 58 bc 10 3e
       0.087311134 0.08344682 0.11700785 0.14134347
