src/caches/cache_16_20_big/param2img2.pt (torch, 184864 bytes, 19 tensors)

main.0.weight f4 [16]
00000000: bbd5 513f 56f3 4e3f a8b4 523f ade6 843f
00000010: d8c2 4d3f 8936 713f 5d69 793f fa2b 7d3f
00000020: 188f 833f 8408 8d3f f0e9 6a3f 6cba 6d3f
00000030: 0058 7a3f 01cc 453f 69e5 4e3f 8fbf 863f
0.8196675 0.8084005 0.8230691 1.0382897 0.8037543 0.9422384 0.97426397 0.9889523
1.0278044 1.1018224 0.9176321 0.9286258 0.9779053 0.7726441 0.808188 1.0527209

main.0.bias f4 [16]
00000000: bcf8 173e b679 09be 51c1 e53c 98e4 3f3e
00000010: 4fc1 b1bd 0cd3 213e a5fe a83e 442f b8bd
00000020: db0c 153e 94e2 6a3d fd61 a4bc c90a 893e
00000030: d963 433e 68a4 423e 94e0 0b3e 57aa 0e3e
0.14840978 -0.13425335 0.028046282 0.18739545 -0.08679449 0.15803164 0.33006778 -0.0899339
0.14555685 0.057344988 -0.020066256 0.2676604 0.19081058 0.19008029 0.13659889 0.13932167

main.0.running_mean f4 [16]
00000000: f643 4737 6d77 5737 1acc 4c3e 7a97 f7bb
00000010: a0ed 2e3c f474 d83a 01e8 fc3e e7b7 f7bb
00000020: 1ced ae3c b695 d63a 14e6 fc3e ce8d f6bb
00000030: 8dea 023d 44c3 6d36 e5c7 4c3e 362e f7bb
1.1877148e-05 1.2842805e-05 0.19999734 -0.007555899 0.010676771 0.0016514347 0.49395755 -0.0075597647
0.021353297 0.0016371522 0.49394286 -0.0075242287 0.031961966 3.5429412e-06 0.19998129 -0.0075433506

main.0.running_var f4 [16]
00000000: 99a2 8535 62ce 8435 0e11 8235 c628 033b
00000010: a268 8637 83bc 1439 498a 983d 6595 033b
00000020: 0adc 7f38 9867 1439 f38d 983d 512d 033b
00000030: 90d1 0e39 3248 8635 d673 8a35 6484 033b
9.956594e-07 9.894832e-07 9.690718e-07 0.0020013317 1.6022768e-05 0.00014184606 0.07448251 0.002007806
6.1001665e-05 0.00014152972 0.0744895 0.0020016024 0.00013620243 1.000479e-06 1.0315514e-06 0.0020067925

main.1.weight f4 [20, 16]
00000000: f48d 6e3c c2e7 2b3c bbcb cbbc b4d6 f9bd
00000010: 269e 4dbd f865 a63d 274a 40be eaff 5fbb
00000020: c9d8 febc 38d5 6abe 35b7 46be 9e7d 85be
00000030: 446d 52be a4ec 14bd 4e17 d6bc 6d74 3fbc
00000040: 22d9 17bd 321b 1d3c 3445 70bd 243a adbe
00000050: a719 85be 04dd 913c ba9a 893d 6b98 46bd
00000060: 0f72 a4be 4bba f8bd 408d 103d 8fb3 91be
00000070: 2570 94bc dfb0 813d 4f05 6dbc 7077 abbe
00000080: 8f73 bf3c 589b 0b3c 2ee5 9fbc d0c1 4b3e
00000090: 0e51 8e3d 6f12 263d ac2d 55bd caea 29bd
000000a0: ab6b 673e ecce 4fbd ddba 1f3e 5017 9b3d
000000b0: ed64 e0bb 0f25 2bbb 1644 efbb 6aeb 4d3e
000000c0: fe30 1c3b 7d1e b5bb e0ee 0dbd d705 543b
000000d0: a63c f13d 1e26 51be 3814 c63d 0f35 17bd
000000e0: 77d9 0c3e cf53 053e 39d3 593d cf24 863d
000000f0: 13a6 a23e 2005 743c fcc5 f6bc ff14 59be
00000100: 4ead a83b 5a9d 773b 1324 a83b fbb9 c23d
00000110: bb2f b93d f1f1 70be d5cb ecbd 5839 42be
00000120: c031 633e 6881 c6be abe0 833d b822 0abe
00000130: 1449 a6bd 28f3 b4bc 48f7 1cbb 9a66 233e
00000140: 1931 06bc 9a43 dc3c 06ef 193c 106a 09be
00000150: 6287 4cbd da85 b9be a86e eebd 2b61 a63d
00000160: e8fb c03d 25d4 a7bd b0d0 0fbe 4fe9 b1bd
00000170: f871 17be 58bc 2ebd c381 053d 7475 c7bd
00000180: 2ef9 e4bb 26ab 4f3b 6ebf 3f3c 0959 593e
00000190: bd99 9cbd 6af3 17be 447a 9e3d 1d3f 2ebd
000001a0: 989a 8bbe 2386 603e 57b3 28bd 3e4b 243e
000001b0: 8a05 b7be 7330 7bbc 05fc eb3b 16dc 06be
000001c0: 7c76 57bb 20e5 773c 43b6 81bb 7448 be3d
000001d0: 7262 0b3e 8cac 4ebd b3f2 313e 8fc9 e7bd
000001e0: 2167 183e 1b37 7e3e 1c82 9f3e 0033 693d
000001f0: 20bf 993d fbc8 4ebc 80b6 143c c092 13be
00000200: 4ad8 f3bb 399a 23bc 31e2 663b 7339 0fbe
00000210: a692 25be ed3e 0dbe a7fb 37be 071f 453e
00000220: ada9 3abe 5c81 88be 4c7e 03be e145 e8bd
00000230: a270 183e c8c5 e43c 2279 f9bc e879 cebd
00000240: b7e5 df3b e1cb 3b3b 2abd 973b 86d3 ae3d
00000250: 4777 ebbc 8dd8 d1bb 10ac dfbd 08b6 ae3d
00000260: 0d3c 403b d8a5 193e de94 763d a5fd 25be
00000270: 9597 b93d f26b ee3b 0c14 103c 9ab8 473c
00000280: 7678 9dba 4464 bb3b 35d1 bf3c 988d 07be
00000290: cc78 debc 2784 29be fa1c 3cbe e146 4bbe
000002a0: 3854 623d 2455 683d d171 7b3d 73e2 66be
000002b0: 09f5 f9bd 8e05 efbc 82f6 bfbb 5e55 43bc
000002c0: 351a 213c eda1 6d3b a96c a93b 1775 fabb
000002d0: eafa 2d3e bfbd 163e b569 5a3d ac3f 643d
000002e0: f899 153d a1b0 5b3e 2f15 4d3e 921b 0ebe
000002f0: f925 903d efaf ea3b 5a88 3aba c079 37bd
00000300: 3445 fa39 14a2 a83b ffd9 efba c345 8fbe
00000310: 6204 0a3d 3f68 25bb cb52 1b3e 39b5 02bd
00000320: 25d2 eabd 4939 09be 62c1 96be 7562 7cbd
00000330: 571b 59bc ccc5 263d 73f9 d7bc 981b e339
00000340: 3a8f 8bbc c062 963a 260d 483c 1582 c6bd
00000350: 4325 7dbd 9311 3b3e 7671 aabe a2c0 2fbe
00000360: 8e21 993d c425 a93d a7b7 423d 6cc7 f3bd
00000370: d701 1e3e fe21 56bc 6b5f 3dba a29d 86be
00000380: c8c0 033c fac8 7bbc effa fe3b a527 0b3e
00000390: 771e 023e 1908 8d3e b9cc 1cbd 5734 633e
000003a0: e4a3 9fbd c9bd 503e 3116 e4bb e8e6 9b3e
000003b0: 0eb1 dcbd 871c 173d f5d2 0b3d e27a 133d
000003c0: 561b ae3b 5970 21bc c99f e6bb 828b b83c
000003d0: ac85 a2bd 818a 6f3d 7115 b1bd 30ed 0bbe
000003e0: 84e1 0abe 0148 9ebe 3ec1 5bbe 7380 d1bc
000003f0: 8fbb 9bbe 9e79 173c 6571 bb3b 9549 ddbd
0.014560211 0.010492267 -0.02487742 -0.121991545 -0.05019965 0.08124918 -0.18778287 -0.0034179636
-0.03110923 -0.22932899 -0.19405825 -0.260724 -0.20549494 -0.03635849 -0.02613416 -0.011685473
-0.03707231 0.009589003 -0.058659747 -0.3383342 -0.25996134 0.017805584 0.06718965 -0.0484852
-0.3211827 -0.121449076 0.035290956 -0.28457305 -0.01811988 0.063325636 -0.014466598 -0.3348956
0.023370532 0.008520924 -0.019518461 0.19898152 0.06949054 0.040544923 -0.05204551 -0.041483678
0.22599666 -0.050734445 0.15598626 0.07572806 -0.006847969 -0.0026114618 -0.0073018176 0.20109335
0.0023832913 -0.005527316 -0.034651637 0.0032352114 0.11779146 -0.20424697 0.09671825 -0.036915835
0.13754831 0.13020252 0.053179953 0.065499894 0.3176733 0.0148938 -0.030123703 -0.21199416
0.0051476127 0.0037782998 0.0051312535 0.09508129 0.09042307 -0.23529793 -0.115623154 -0.18967187
0.22186947 -0.38770604 0.064393364 -0.13489807 -0.08119407 -0.022088602 -0.0023951102 0.15957108
-0.008190417 0.026887704 0.009395367 -0.13419366 -0.0499338 -0.36234933 -0.116422 0.08124002
0.09423047 -0.0819476 -0.14044452 -0.08687078 -0.1478957 -0.042660087 0.032594454 -0.09739199
-0.0069877123 0.0031687706 0.011703355 0.2122537 -0.07646511 -0.14838949 0.07738164 -0.04254066
-0.27266383 0.21926169 -0.041186657 0.16044328 -0.35746413 -0.015331375 0.007201674 -0.13169894
-0.0032877019 0.015130311 -0.003958495 0.09291163 0.13611773 -0.050457522 0.17377739 -0.11317741
0.1488309 0.24825709 0.31153953 0.056933403 0.07507157 -0.01262116 0.0090767145 -0.1441145
-0.007441555 -0.0099855 0.0035230035 -0.13986759 -0.16169223 -0.13793536 -0.17967092 0.19250117
-0.18228789 -0.26661193 -0.12841147 -0.11341453 0.14886716 0.02792634 -0.030453268 -0.100818455
0.006832804 0.0028655457 0.0046307044 0.08536439 -0.0287434 -0.0064039887 -0.1092149 0.085308135
0.0029332668 0.1500467 0.060200565 -0.16210039 0.09062115 0.0072760517 0.008793842 0.012190009
-0.001201405 0.0057187397 0.023415187 -0.13237607 -0.02715721 -0.16554318 -0.18370429 -0.19851257
0.0552561 0.05672182 0.06138784 -0.22547321 -0.1220494 -0.029177453 -0.0058582434 -0.011922209
0.009832908 0.0036259845 0.005170424 -0.0076433527 0.16990247 0.1472082 0.053323466 0.055724785
0.03652379 0.21454097 0.20027612 -0.13877705 0.07038493 0.007162086 -0.0007115655 -0.044793844
0.00047735276 0.0051462743 -0.0018299221 -0.2798291 0.033695586 -0.0025239137 0.15168302 -0.03191111
-0.11465863 -0.13400759 -0.29444414 -0.061617333 -0.013251147 0.040715978 -0.026364064 0.00043317373
-0.01703607 0.0011473522 0.012210166 -0.0969278 -0.061803114 0.18268423 -0.3328969 -0.17163327
0.07477103 0.08259156 0.047538426 -0.11903271 0.1543039 -0.013069628 -0.0007223996 -0.2629214
0.008041568 -0.015367741 0.0077813785 0.13589342 0.12706934 0.2754524 -0.038281176 0.22187935
-0.077949315 0.20384897 -0.0069606532 0.30449605 -0.10775958 0.03689244 0.03413673 0.036005862
0.0053133173 -0.009853446 -0.007038091 0.02252746 -0.07935652 0.058481697 -0.08646668 -0.13664699
-0.1356259 -0.3091431 -0.21460435 -0.025573945 -0.30416533 0.009245304 0.005720305 -0.1080505

main.1.bias f4 [20]
00000000: cbb3 3abe 896f a3be 536c 87bd e300 a0bd
00000010: 3d57 023e 977d 7cbe d92a 063e c3c7 50bc
00000020: 2d7d 45be 537e bcbe 2c09 1abe 84ea 92be
00000030: 34be 8cbe 3fcb a7b9 af34 943e 51fd 8b3d
00000040: e572 42be c016 eebe 09b1 5f3e 1832 223e
-0.18232648 -0.31921032 -0.06612458 -0.07812669 0.12728591 -0.24657284 0.13102283 -0.012742939
-0.19286032 -0.36815128 -0.15042561 -0.28694546 -0.27488863 -0.00032004152 0.28946444 0.06835426
-0.18989141 -0.46501732 0.21844877 0.15839422

main.3.weight f4 [20]
00000000: 1bc7 5a3f f570 6b3f 9fc7 6e3f 6a93 6a3f
00000010: c9ff 6f3f 4da1 673f 2526 793f c416 773f
00000020: ccdc 673f 7fd5 6f3f 765f 6a3f 3820 653f
00000030: e25d 493f f3e6 703f 9b99 763f eb78 743f
00000040: 2960 793f 08ee 7d3f d617 6f3f 95a8 6e3f
0.8546006 0.91969234 0.9327335 0.91631186 0.9374967 0.904805 0.9732383 0.9651911
0.90571284 0.93685144 0.9155191 0.89502287 0.7865888 0.941024 0.96328133 0.95497006
0.97412354 0.9919133 0.93395746 0.93225986

main.3.bias f4 [20]
00000000: 533c 9cbe a423 3cbe 0e08 fdbd eb07 d1bd
00000010: b218 02be 2934 0abe 7983 79be f7b8 99bd
00000020: 03f0 64be f7ef c0bd 93a0 49be 9067 63be
00000030: 03fa 16be 58b9 54be 18bb 4cbe c3dc 86be
00000040: 66dc 6ebe 5313 b3bd 0bce 13be 8e11 08be
-0.30514774 -0.18372971 -0.12355052 -0.10206588 -0.12704733 -0.1349646 -0.24366559 -0.07505982
-0.22357182 -0.0942077 -0.1969016 -0.22207475 -0.1474381 -0.20773828 -0.19993246 -0.26340303
-0.23326263 -0.0874392 -0.14434068 -0.13287947

main.3.running_mean f4 [20]
00000000: 2ef2 c7bb 3dc5 d63d 69a0 3f3e d4ad 383e
00000010: c2f9 803e 74b1 fabc 0eb5 963e c79f 793e
00000020: c5a0 cbba 46cf a6bd 7083 9b3c 3482 813c
00000030: 2321 75bc 7e8b 453e 8f8a 0b3f 7843 443e
00000040: f5ed af39 51b1 e2bd 3b11 d03e 18aa da3e
-0.006101868 0.10486839 0.18713535 0.1803506 0.2519055 -0.030602194 0.2943501 0.24377356
-0.0015535584 -0.08145003 0.018983573 0.015809156 -0.014961514 0.19291493 0.545083 0.19166362
0.00033555893 -0.11068977 0.40638146 0.42707896

main.3.running_var f4 [20]
00000000: 27b1 8a3d 0613 a53e 1f7a f73d c511 df3d
00000010: 6036 473e 7cd9 4b3d 3601 793e 1342 243e
00000020: 0ab6 6a3d ef84 b53a d90b 873d 4edb 5a3d
00000030: 2512 033d c2cf 503e 6774 cc3e ff46 263e
00000040: 68ce c23c 93c0 3e3b 46f3 5d3e af62 843e
0.067720704 0.32241076 0.120838396 0.10892061 0.19454336 0.049767956 0.24316868 0.1604083
0.057302512 0.0013848821 0.06594057 0.0534318 0.031999726 0.20391753 0.39932558 0.1623802
0.023780063 0.0029106482 0.21674833 0.2585654

main.4.weight f4 [2048, 20]
00000000: c1dc d5bc ab74 843e a03c d6be 4edf dfbc
00000010: 2ed8 bd3e 03b4 f3bc 5d18 fcbd c963 86be
00000020: c51f 653e 7a1a 3bbe a6a5 903d cf0c fbbe
00000030: b61f 57bd 83fa fb3e db65 dcbe 3c81 db3d
00000040: b247 37bd 3462 f3be 7be9 d5be 4479 2bbe
00000050: afb6 c33d 4080 f13d a68c 1bbe 8dba 86be
00000060: 7e29 d93e 8e93 bc3e ac4a 653e af5b 9abe
00000070: 18d9 af3e c4a0 93be 122c 0a3e 4fef 6cbe
00000080: 5726 723e c53f a53e ebda b0be 5aa5 a83c
00000090: bd8e 973e 4341 a6be c827 9abe 3236 76be
000000a0: 02b4 8fbd 203e 053e d0ed 8dbe 9933 6ebe
000000b0: 46a4 923d fc85 893e a9c5 9c3e 2a46 50be
000000c0: 6336 a23d ca3c 8d3d afcd 753e 7c7f 0f3e
000000d0: ef47 543e c3a7 853d 6aa7 e53d 1e45 813e
000000e0: 4db6 a33e b853 46be 6b02 89be 27d9 23bd
000000f0: 031e dfbd b2b1 123e 1f03 75be 2fcc 163e
00000100: b141 4b3d 7cc5 793e 65bb af3d 2424 70be
00000110: 16d9 a63e 06d4 03be 8fcc 843d 464a b7bd
00000120: c525 b13d 4d07 533e 20ad 9dbe 1c8b 403e
00000130: e6c5 ea3d 8afb 87bd 2328 33be 375e 9e3d
00000140: 9266 3dbe 0a61 d73d fbe3 7a3d d417 c5bd
00000150: 8866 dd3c 2751 a0bd 6d85 0abc 77cd 7e3d
00000160: f335 3ebe 923a 113e a57e 3abe e54b 86be
00000170: 66ed 87bd fda3 72be e1a5 88bc eb86 543d
00000180: c2cd 2bbe 168d bf3d 9ae2 163e 6f99 b93d
00000190: 06aa 913c bfb0 6d3c e8ff 483e 1b1c 7a3d
000001a0: e056 adbd f01b 993d ddda 843e 95bb 5abe
000001b0: c7d8 8f3e 3ce6 03bd 36fa a53d 9926 86bc
000001c0: 6104 383e 722b 213e 830d 57be af3c 763e
000001d0: 7bac 7b3e a72e 2ebe 21a9 793d e202 17bd
000001e0: 90bb 8dbe 7aeb 90bd b6ca 3c3d b719 1abe
000001f0: d376 68be 33a5 39bd 1ecd 84be 97a7 163e
00000200: 06ca 76be 7156 a23d cd9c 0b3e de09 40be
00000210: e939 7a3d a83e 393d 0c28 99bd 54b0 51be
00000220: 5cd2 f13d 27d8 0c3e e4d0 94bd 9092 5b3d
00000230: 7545 3e3e 539e 7fbd b6f0 36be f8cf f8bd
00000240: ee0b 4a3d 93d5 2b3e 1bfd 8d3e 1eab 12be
00000250: ddb3 df3d bdb3 08be 9ea1 223e a639 643e
00000260: 254a 61bd 8a85 3c3e 8796 b6bd fc5f 833e
00000270: 5fcf 453e 4365 cc3c ad23 83bc 18bc d8bd
00000280: 12c3 2b3e 62cb 3bbd 294b 8bbe a296 98be
00000290: 1736 6d3e 08fa 0d3e e4e2 5ebd bfaf 46be
000002a0: 79df 7a3d 9e87 37be 2d02 073e c3cb 9dbd
000002b0: caa2 833e 412b 223e 8489 59be 9f36 8ebd
000002c0: 1fe3 0e3e 6d6d 83be feae 60bc 765b 2ebe
000002d0: 77ea 17be be9f 19be d3d7 093e c2d8 6fbd
000002e0: face 89be 1797 32be 79c4 5dbd 09e3 ca3d
000002f0: 9815 24be 462f 49be 53a3 63be d602 a53d
00000300: dc79 193e c85a 62bd f974 223e 21e9 643d
00000310: 0782 6bbe bb25 18be e562 403c 1f80 933c
00000320: 85e3 d4bd 8ba7 41be 2795 b7bd 3552 753e
00000330: 79ce 4dbe c7cf d3bc b643 0abe 4a6a 1a3e
00000340: 9ef8 843d 78fd 16be 47bd 4abe 930a 4ebe
00000350: 0b05 00be 8822 90bd c0ae d53d 2712 afbc
00000360: 74d9 1abe 882f fa3d ed5a fcbd d83f 683e
00000370: c163 a73c 2d49 693e 0b4c 99be 288d b83d
00000380: cf0c 25bd 3608 643e d291 8e3c 2bc3 74be
00000390: 25fe 17be 662d 91bd adcf 713e 855e 3ebe
000003a0: 2f0c c8b9 7cba aa3d 32f9 a73c 5ae8 953e
000003b0: d5a3 003e 7f86 39bc b9b6 f0bd 2f52 51be
000003c0: c567 b73d 5258 c6bd c7c9 473c 0f40 263e
000003d0: cd30 d7bd bd9d 35be fd4b 5fbe d9cd ae3d
000003e0: 9d6b 26be 9a61 30be 60f5 7bbe c787 393e
000003f0: 42b0 38bc e292 89be 3e17 003e 71aa babd
-0.02610624 0.2587026 -0.41843128 -0.02732816 0.37078995 -0.029748922 -0.123093344 -0.26248005
0.223754 -0.18271819 0.07062845 -0.4903321 -0.052520476 0.49214563 -0.4304646 0.10718009
-0.04474611 -0.4753586 -0.41779694 -0.16745478 0.095563285 0.1179204 -0.15190372 -0.26314202
0.4241447 0.36831325 0.22391766 -0.30148074 0.34345317 -0.28833592 0.13493374 -0.23138164
0.23647438 0.32275215 -0.3454202 0.020586658 0.29601088 -0.32471666 -0.30108476 -0.24044111
-0.07016756 0.1301198 -0.277205 -0.2326187 0.07160239 0.26860034 0.30619553 -0.20339265
0.0792053 0.0689636 0.24004243 0.14013475 0.20730565 0.06526139 0.11213572 0.25248045
0.31975022 -0.19367874 -0.26759657 -0.040002014 -0.10894396 0.14325598 -0.23926972 0.14726327
0.049623195 0.2439174 0.085806645 -0.23451287 0.32587498 -0.1287385 0.06484329 -0.089497134
0.08649782 0.20608254 -0.30796146 0.18803066 0.114635274 -0.06639774 -0.1749578 0.07732814
-0.18496159 0.105165556 0.061252575 -0.096236855 0.02702643 -0.078279786 -0.008454663 0.062207665
-0.18575267 0.14182499 -0.18212374 -0.26229778 -0.06637077 -0.23695369 -0.01668066 0.05188648
-0.16777709 0.09353082 0.14734879 0.09062468 0.017781269 0.014507472 0.1962887 0.06106196
-0.08463836 0.07476032 0.2594823 -0.2136062 0.28095075 -0.03220199 0.081043646 -0.016375827
0.1797042 0.1573923 -0.21001248 0.24046586 0.24577515 -0.17009984 0.06095231 -0.036867984
-0.2768216 -0.070761636 0.046091758 -0.15048872 -0.22701578 -0.045323562 -0.25937742 0.14712368
-0.24100503 0.07926644 0.13634034 -0.18753764 0.061090384 0.04522577 -0.074783415 -0.2047742
0.11807701 0.1375433 -0.07266405 0.05360657 0.18581183 -0.06240685 -0.17865261 -0.12149042
0.049327783 0.16780691 0.27732167 -0.14323089 0.10922978 -0.13349815 0.15881965 0.22287616
-0.05500235 0.18410316 -0.089154296 0.25659168 0.19317387 0.02495063 -0.016008222 -0.10582751
0.16773632 -0.045848258 -0.2720578 -0.29802424 0.23165165 0.1386491 -0.0544156 -0.1940298
0.061248276 -0.17922828 0.13184424 -0.0770488 0.25710136 0.15836813 -0.21243864 -0.06944012
0.13953827 -0.25669423 -0.013713596 -0.17027077 -0.14835535 -0.15002343 0.13461237 -0.058556326
-0.26915723 -0.17440449 -0.05414245 0.09906585 -0.16023862 -0.1964694 -0.22230272 0.080571815
0.14987892 -0.055262357 0.15864934 0.05588639 -0.2299882 -0.14858143 0.011742328 0.018005429
-0.103949584 -0.18911569 -0.089639954 0.2395714 -0.20098294 -0.025855912 -0.13502392 0.15079609
0.064927325 -0.14745128 -0.19798766 -0.20121221 -0.12501924 -0.07037836 0.104337215 -0.02137096
-0.15122014 0.12216097 -0.1232203 0.22680604 0.020433309 0.2278182 -0.2994083 0.090112984
-0.04029542 0.22268757 0.017403517 -0.23902576 -0.14843042 -0.07088737 0.23614378 -0.18590744
-0.0003815605 0.0833635 0.020504568 0.29278833 0.12562497 -0.01132357 -0.117536016 -0.20441507
0.08955339 -0.096848145 0.012194104 0.16235374 -0.10507355 -0.17735954 -0.21806331 0.08535356
-0.16251989 -0.17224732 -0.24605322 0.18118201 -0.011272492 -0.26869875 0.12508866 -0.0911454

main.4.bias f4 [2048]
00000000: e40a dd3e 178d 403e 2480 173e 9769 273e
00000010: c0d9 abbd 524c bdbd 8d74 963e 09a9 093e
00000020: 98e0 f73d ce06 363e 019f 3f3e 0d29 003e
00000030: 755c 313e bb35 023e 2f54 373e 1f6a 953e
00000040: a7f8 183e a0b1 c4bd 40ae 183e d454 a73c
00000050: 72a7 a83e 80b7 743d 3700 9a3d 19ba e33b
00000060: 9cca 483e b419 ae3e 18d2 d93d f8bf 5abc
00000070: fa28 423e 7f8b 183d a363 743e f65f c53d
00000080: e8d3 9c3b da5f 0e3c be2c a93d d1ff 8b3e
00000090: 9ebb d1bc 2e3d d93d d0b3 e4bc 0a27 863d
000000a0: ecaa 423e b022 3d3c 280a 9ebc d3fe 893e
000000b0: 1cb0 e6bd c147 193e ca23 323d b1a1 d1bb
000000c0: 4f5b 9c3e 8037 a43d b090 5a3e a121 7a3d
000000d0: 85e7 ba3d a1d0 8f3e 041b 5b3e 2ece 3b3e
000000e0: 8e04 973e 05ff 583d 78a9 b7bd c0a5 973e
000000f0: da6d 803d dded 833e 76a5 8c3d 4ffb 5f3e
00000100: 5113 1fbd e764 813e 1541 c9bc 62f6 d3bd
00000110: 770d f8bc dc77 5e3e 9cd6 5b3c a992 49bd
00000120: 81df af3c 82f0 3e3e c5eb 0b3d 50d1 0dbe
00000130: 611a f83c 4ade e13a b7f1 cb3d 0916 f9bd
00000140: 6d34 0cbe 9e9b e8bd 7af2 24be 9f7a ba3d
00000150: da3b 213e 3057 b0bd d5b2 ffbd c39b 4d3d
00000160: a812 e5bd 6993 363d 4cb6 aabd 7313 d93d
00000170: dbe9 3f3e 4d8d 1dbe 5067 ab3d 3261 54bd
00000180: 841a f1bd 699c b63d b04a 833d ee07 a93d
00000190: 0b2c c5bd e0c8 fabc e04a 04be a3a6 0b3e
000001a0: 3781 e2bd 2637 7fbd 1975 9a3d 3e5c 513e
000001b0: 53a6 e9bd 416e bc39 7515 1dbe 82d9 6d3e
000001c0: 183c c8bd a6a8 0abd f22b 1c3e f4ba 373e
000001d0: a941 613d 02e7 563e 5768 443d 8b07 0fbe
000001e0: 5d97 0a3e eaee 5f3e 8212 8e3d 1cb8 253c
000001f0: 88a9 883e 9e3a 613e f268 9b3e 3d88 873e
00000200: b6b3 383e 7d49 2b3e 1126 55bd 05de 67be
00000210: d9cc b8bc 78ee 56bd 0696 a2be 1fba 80be
00000220: ab6a 4ebd 2df9 1e3d 36ff e2bd 9f5c da3c
00000230: 228b 40bd d6f7 dcbd a28f b33d 85e0 f9bc
00000240: 8a6b 94bd 9faa 94be 6db6 41bd bbe3 51be
00000250: e7b3 f0bd 3b1f 87be 3405 8abe 15bc 7abe
00000260: 6355 82be 7c73 cbbd 538e ac3d c6b0 8cbc
00000270: 3ea3 64be a8e5 1dbe a739 06be 894b 9ebe
00000280: 0bdc 2fbe fd07 73bd 608b 0cbe 77f5 0fbe
00000290: 80a3 debc 9c59 18be 4b45 a7bd e934 433b
000002a0: 65c7 54be 9d50 6ebe cb91 3dbe 6da6 ecbd
000002b0: 4f5f 193d a5c8 9bbe 110e 97be 4d0e 24be
000002c0: 32bf e5bd 8bcf 16bd 719f a23d 6930 febc
000002d0: d60c 763c b0ee 9fbe b6fe 8b3d 1bf8 29be
000002e0: 9e10 ecbc 80b2 61bc 5259 eabd db27 943d
000002f0: 6d53 83be b8e7 e1bd e27c eabd 5479 3fbe
00000300: da55 9b3e 0df1 4c3e 0488 4cbe 2d35 9ebe
00000310: 5edb 3cbe b9e5 30bd 4903 953b d109 68bc
00000320: 134d 0cbe a7d8 f4bd 328f 1c3d 12e8 c13d
00000330: d6b9 8ebe aa95 053d f86c e03d 8b69 d7bd
00000340: 3e13 96bc 083b 1d3d 5474 85be d6b4 bf3c
00000350: 2da0 34bd 5c9a f1bd ebe2 e23d d950 75be
00000360: 271d 78be c4bc babc e64a df3d f711 8bbe
00000370: 7472 1abe a4bb f2bd 451a 2e3d 3e8c 78bd
00000380: 9759 f23d 2197 74be 22f1 8e3d 9413 8abe
00000390: 56ca 16be 99a2 023c 09ae 24bd 489f 44bd
000003a0: 257c 8bbb d77a 3fbe fdd2 8fbe 2f29 14bd
000003b0: a6d5 843d 26fe 89bd c09f 2bbe ee4c 5dbe
000003c0: 5269 80be c51a 16be 3e9c b3bc de5a 4fbb
000003d0: adb6 0c3e 0914 07bc 8cfa c33d ab31 d43c
000003e0: f006 cd3d 7452 77be f245 61be bee6 02be
000003f0: 6ad6 0cbe b0f8 03be a5eb 71be 860a 473d
0.4317237 0.18803822 0.14794976 0.16348873 -0.08391142 -0.092430726 0.29385796 0.13443388
0.12103385 0.17776033 0.18712999 0.1251566 0.17320426 0.12715809 0.17903207 0.29182526
0.14938603 -0.09604192 0.14910221 0.020426191 0.3294025 0.05974531 0.07519572 0.006949675
0.1960854 0.34003985 0.10635775 -0.013351433 0.18960944 0.03724241 0.23866133 0.09637444
0.0047860034 0.008689845 0.08260487 0.2734361 -0.025602158 0.10607372 -0.027917773 0.06550415
0.19010514 0.011543915 -0.019291952 0.26952228 -0.11264059 0.14968778 0.043491162 -0.006397449
0.30538413 0.08018398 0.21344256 0.061067227 0.0912619 0.2808886 0.21397024 0.1834037
0.29495662 0.05297758 -0.089678705 0.29618645 0.062709525 0.25767413 0.06867497 0.2187321
-0.03883678 0.25272295 -0.024567166 -0.10349728 -0.030279858 0.2172541 0.013417866 -0.04921213
0.02146888 0.18646434 0.034160394 -0.13849378 0.030286016 0.0017232385 0.09958213 -0.12162406
-0.13691874 -0.113578066 -0.16108122 0.09105419 0.15745488 -0.0861038 -0.124852814 0.050197374
-0.11185199 0.044574175 -0.083355516 0.10599413 0.18741553 -0.15385933 0.08369315 -0.051850505
-0.117726356 0.089165516 0.0641073 0.082534656 -0.09627541 -0.030613363 -0.12919188 0.13637786
-0.11059802 -0.062308453 0.07541866 0.20445344 -0.11408677 0.000359403 -0.15340216 0.23227504
-0.09777087 -0.033852242 0.15251139 0.1794241 0.05499426 0.2098656 0.04795107 -0.13967721
0.13534303 0.21868482 0.06937124 0.010114696 0.26691842 0.21995017 0.30353504 0.2647113
0.18037304 0.16727252 -0.052038256 -0.22643287 -0.022558616 -0.052473515 -0.31755084 -0.25142
-0.050394695 0.03881185 -0.11083834 0.026655493 -0.047007687 -0.107894585 0.0876763 -0.030502567
-0.07247074 -0.29036424 -0.047293115 -0.20497029 -0.11753064 -0.26391014 -0.26957095 -0.2448581
-0.2545577 -0.09934136 0.08425584 -0.017174136 -0.22327897 -0.15419638 -0.1310793 -0.30917004
-0.17173783 -0.05933379 -0.13725042 -0.14058481 -0.027177572 -0.14877933 -0.081675135 0.0029786176
-0.20779188 -0.23272939 -0.18512647 -0.11555181 0.03744441 -0.30426517 -0.2950292 -0.1602108
-0.11218108 -0.036819022 0.07940567 -0.031028943 0.015017709 -0.31236792 0.06835692 -0.16598551
-0.028816517 -0.013775468 -0.11442818 0.07234164 -0.25649586 -0.11030525 -0.11449601 -0.18698627
0.30338937 0.20013829 -0.19973761 -0.30899945 -0.18443057 -0.04318783 0.0045475108 -0.014162497
-0.13701276 -0.11955386 0.0382225 0.09468092 -0.27876157 0.032613434 0.10958284 -0.105181776
-0.018319722 0.038386375 -0.26065314 0.023401659 -0.044098068 -0.1179702 0.110784374 -0.23956622
-0.2422987 -0.022795089 0.109029576 -0.27162144 -0.15082723 -0.11852196 0.04250552 -0.06068062
0.11833494 -0.23885776 0.06979586 -0.26968062 -0.14725623 0.007973337 -0.040205035 -0.048003465
-0.0042567425 -0.18699203 -0.2809066 -0.03617209 0.06486063 -0.06737928 -0.16760159 -0.21611378
-0.25080353 -0.1465865 -0.021925088 -0.0031639854 0.1374156 -0.008244523 0.095692724 0.02590259
0.10011089 -0.24152547 -0.21999338 -0.12783334 -0.13753667 -0.12887836 -0.23625048 0.04859402

conv.0.weight f4 [20, 1, 5, 5]
00000000: 9795 743c a293 02be 5c16 98bd ab75 b3bd
00000010: 7230 05bd bf42 c1bc 1ada c1bd 3182 423d
00000020: 1170 01be 988b 073e f541 bd3c 608b 7fbd
00000030: 2474 e93d 1b61 5b3e 5069 23bd 89c9 f4bd
00000040: 9153 8fbc d693 8b3b 4a11 f2bc 0f2b adbd
00000050: d0d3 87bd 7592 8cba d33e b33d 1817 d93d
00000060: 9a0e 07be 2c9b c4bd 7645 e93d c1ae 103e
00000070: e4fe d63d e620 6d3e 117e ea3c f15e 70be
00000080: b1c1 20bd 663a 3b3e ad2c a23e d20e 9dbd
00000090: 42c9 05be c595 123d b3d9 033e 901b bdbd
000000a0: 9acf 8ebe 3386 d43d e70d 4abe 8483 1bbe
000000b0: cd10 463d 317c 81be 12a2 11be 7fb8 cdbd
000000c0: 7f89 8a3d c512 83bd 5931 653c 0ee4 003e
000000d0: 792f fe3d 451d e23d f506 2e3e d3d4 f4bb
000000e0: 8c9d 52bd 3533 763e 5ef6 123e 3657 273e
000000f0: 136f a13c 5e65 01be df10 ec3c febc 02be
00000100: 8000 5b3e 5d3e 403e 517d f1ba dfec 153e
00000110: 49c2 993d 95fc d3bd fbc3 ab3c 033c 983d
00000120: c3b8 f1bd cb4e 453e edf6 1b3e 42ac 743d
00000130: cde5 3b3d 3f70 81be 55cb a1be 0158 b03a
00000140: b886 243d 481b 07bd b749 8abe e573 5cbe
00000150: c880 203d 48ce 1cbd 7c21 c5bd 108e c5bd
00000160: bfc4 ab3d 8558 08be af45 033e 0313 293e
00000170: de26 843c 37ff ad3a 8430 0d3d 352b b33d
00000180: ec69 863d 80fd 433e b015 1c3d 19da b23d
00000190: d45d 0c3e 0cfc 4f3e f755 1e3e c5c4 163e
000001a0: 9506 a53d 1c5e e4bd 008c 3cbe 684d 9b3d
000001b0: e6d4 1d3e 7331 3d3e 9bbc 61be 3689 c1bd
000001c0: dff8 353c 40ca 07ba 3cf7 10bd 2145 62bd
000001d0: a46b 8c3d 0746 26be 0c12 afbd b90f 143d
000001e0: 958b 0abe 0be6 93bd 96e2 aa3c 448d 5c3d
000001f0: 5138 6b3e d908 05bd a945 dfbd 1677 1dbe
00000200: 68b8 953c 3ade 233d 98bd 0dbe 452b c1bd
00000210: 385f 12be 9534 cf3c e45b c73d 1e53 febd
00000220: fe7c 7fbd 92d6 dbbd 8bfc af3d 293d d93d
00000230: d015 a5bd 6e56 523d 97d2 843b 6aa3 fa3d
00000240: e19c 133e a20e 5fbd 6de9 a23a 4ae8 833d
00000250: 620a d1bc 5cf6 57bb 4e6a cc3c 0b75 f63d
00000260: f462 703d 924f 8bbd 9378 e3bc ae57 20bd
00000270: 09fb 29bc b608 913c f0c4 1c3e dd64 e23b
00000280: b2e8 663d 4b08 de3d 6f0e 1fbd 2f73 353e
00000290: dcbf 4f3e 907e 1c3e 8e5b b53d e016 053e
000002a0: f238 b63d 0d64 8c3e 5886 463d 9b52 0c3d
000002b0: 7d10 34be dfa1 a2bc 39b2 163d 648a f03a
000002c0: d5c1 a33d ef83 273e d4a5 04bd ddf6 edbd
000002d0: 7708 0b3e ccb0 9c3c 2b8a 5cbc 9502 aa3d
000002e0: 6e34 813d 49bf 143e 6264 af3d 916c 873d
000002f0: d3ca 29bd 6d46 debd 1c70 0c3e 42a4 1f3d
00000300: 2ba5 96bd 760f 20bd b63d 41bb 5f7f 843c
00000310: d68e 513d 5b1f 93bd a595 c5bd 3a5d 1ebe
00000320: 7094 ebbd 9bd8 98bd e9b4 bfbd 5cfc 7cba
00000330: b86e 3a3d 6829 26bd f64c ccbb e0e1 193d
00000340: 806c 823d d8a2 05be ac4c 6fbd 4422 803c
00000350: b1a8 e8bc eea5 70bd 115b 243d af85 813c
00000360: af84 dfbd d723 bebd 1e60 49bc 219c d33c
00000370: df9e 713c c1a9 8b3d 30e9 98bd 2966 0cbc
00000380: 1730 a4bd 2b03 fbbd 5e1e bdbd 39e2 fdbd
00000390: 4dc1 9bbd ab2c 94b9 21c9 35bd 40db 893d
000003a0: 0263 66bd 81de 05be 5d0c 4b3e 37b7 91bd
000003b0: a839 3ebe 842d 00be 51a1 1b3d cfd6 56bd
000003c0: f7eb 22bd 454f 0abe bb0a 073e ad6a 483e
000003d0: 5b5e 9c3c 8b83 c6bd 8c16 e0bd 1c5e f73d
000003e0: 1512 e93d 1dbf e33d 479c f3b9 8468 103e
000003f0: d5ee fcbd 379e 093c ac58 ae3d 63bc 85bd
0.014928243 -0.1275163 -0.0742614 -0.08762678 -0.032516904 -0.023591397 -0.09465428 0.04748744
-0.12640406 0.13236845 0.02310274 -0.062388778 0.11399105 0.21423762 -0.039895356 -0.11952502
-0.017495902 0.004259567 -0.02954926 -0.084554784 -0.06632197 -0.00107248 0.08752217 0.10600108
-0.13189164 -0.09599909 0.11390202 0.14129163 0.10497835 0.23157081 0.028624566 -0.23473717
-0.03924722 0.18283996 0.3167471 -0.076688424 -0.13065055 0.035787363 0.12876014 -0.09233773
-0.27892762 0.10377159 -0.19731866 -0.15186888 0.048355866 -0.25290063 -0.14221981 -0.100449555
0.067645065 -0.064000644 0.013988816 0.12586996 0.124113984 0.11040739 0.16994841 -0.0074716597
-0.05141978 0.24042971 0.14351794 0.16341862 0.019706285 -0.12636325 0.028816639 -0.12767407
0.2138691 0.1877379 -0.0018424188 0.1464114 0.0750776 -0.103509106 0.020967474 0.07433321
-0.118028186 0.19268338 0.15230913 0.05973459 0.045873452 -0.2528095 -0.31600443 0.0013453962
0.04016754 -0.032985 -0.27009365 -0.21528585 0.039185315 -0.038282663 -0.09625527 -0.09646237
0.08387136 -0.13315018 0.12819551 0.16511159 0.016131815 0.0013274912 0.034470096 0.087484755
0.06563172 0.19139671 0.03810662 0.08733005 0.13707668 0.20310992 0.1546248 0.14723499
0.08057896 -0.111507624 -0.18412781 0.075831234 0.15413246 0.18475895 -0.22044604 -0.09449999
0.011106699 -0.0005179979 -0.03539203 -0.055241708 0.06856468 -0.16237651 -0.08548364 0.036147807
-0.13529809 -0.072216116 0.020859998 0.05384566 0.22970702 -0.03247914 -0.109019585 -0.15377459
0.018276408 0.040006854 -0.13841856 -0.09432081 -0.14294136 0.025293628 0.097343236 -0.12418197
-0.06237506 -0.107342854 0.085930906 0.106073685 -0.08060801 0.051351957 0.0040534246 0.122382
0.14415313 -0.054457314 0.0012429185 0.0644079 -0.025517646 -0.0032953238 0.024953034 0.12034043
0.05868812 -0.06802286 -0.027767455 -0.039146118 -0.010374793 0.017704349 0.153095 0.0069089965
0.05637426 0.108414255 -0.038832124 0.1771972 0.20288032 0.15282655 0.08855353 0.12997007
0.0889758 0.27420083 0.048467964 0.034258466 -0.17584415 -0.019852577 0.03679106 0.001835179
0.07995955 0.16358922 -0.03238471 -0.11619351 0.13577448 0.019127272 -0.013460676 0.08301274
0.06308828 0.14526094 0.085640684 0.06612504 -0.041453194 -0.108532764 0.13714641 0.038975008
-0.07355722 -0.039077245 -0.0029486245 0.016174017 0.05116161 -0.07183715 -0.09647683 -0.1546525
-0.115029216 -0.07463189 -0.09360678 -0.00096506416 0.045515746 -0.04056683 -0.0062347604 0.037568927
0.06368351 -0.13050401 -0.05842273 0.01564134 -0.02840075 -0.058751993 0.04012591 0.015810816
-0.10913979 -0.0928418 -0.0122909825 0.025831284 0.0147473505 0.06819487 -0.07466352 -0.008569279
-0.08016985 -0.122564636 -0.09234308 -0.12396664 -0.076052286 -0.0002826204 -0.044381265 0.06731272
-0.056246765 -0.1307316 0.19828935 -0.071150236 -0.18576682 -0.12517363 0.03799564 -0.05245095
-0.039775815 -0.13506801 0.13187687 0.19571944 0.019087961 -0.096930586 -0.109418005 0.12078497
0.11380402 0.11120436 -0.00046465007 0.1410237 -0.12350241 0.008399538 0.085130066 -0.065300725

conv.0.bias f4 [20]
00000000: a6f6 76be d38b 34be ef6a 243e c833 f0bd
00000010: 89d0 823d dbfe 0dbe b460 5e3d 50d3 3e3e
00000020: d684 94be 8037 01be 1bb2 65bd 16a3 423d
00000030: 188a 89be d165 27be 6c2f 883e eddf 21be
00000040: 1746 8dbe 0f5b 3cbe 5c5d 0abd cf44 c5bd
-0.24117526 -0.17631464 0.16056417 -0.117286265 0.06387431 -0.13866751 0.054291442 0.18635297
-0.29007596 -0.12618828 -0.056078058 0.047518812 -0.2686317 -0.16347434 0.2659868 -0.15808077
-0.27592537 -0.18394111 -0.03378044 -0.09632265

conv.2.weight f4 [20]
00000000: 747d 833f 3aa1 a73f ee17 7a3f aa97 a73f
00000010: a3fe 953f c0d4 853f ab27 803f d339 8a3f
00000020: 552e 873f 4cea 633f 549d 803f 81e4 913f
00000030: 836a 853f 846c 903f 85b8 873f 3415 823f
00000040: 58dd 853f 9317 883f 223e a13f 8643 7f3f
1.027266 1.3096077 0.97692764 1.3093159 1.1718334 1.0455551 1.0012106 1.0798897
1.0561014 0.89029384 1.0048013 1.1397859 1.042313 1.1283116 1.0603186 1.0162721
1.0458174 1.0632194 1.2597086 0.9971241

conv.2.bias f4 [20]
00000000: b4df 07be 98b4 873e a369 08be a573 0d3e
00000010: 224c 1a3e af29 17be 4a57 fbbd 6e00 05be
00000020: 096a 07be aa23 25be e495 00be 2cff 713e
00000030: 22f8 25be b504 993e 3232 35be f01a 1dbe
00000040: 9c8e edbd 807e 2dbe 89e4 733e e729 08be
-0.1326893 0.2650497 -0.13321547 0.13813646 0.15068105 -0.14761995 -0.122725084 -0.12988445
-0.13224043 -0.16126886 -0.12557179 0.23632497 -0.16207936 0.29886404 -0.17694929 -0.15342307
-0.11599466 -0.16942787 0.23817648 -0.13297234

conv.2.running_mean f4 [20]
00000000: f548 63bd f61b a7bc 34fe ca3e 37cf 9fbc
00000010: f8a9 173e 8ad4 0cbd adb3 833e 6ff8 7c3e
00000020: 104d 9dbd d4b0 f4bc 0275 3e3e 55e0 823e
00000030: beab 6ebd e005 ffbc 6abd a83e bed2 0ebd
00000040: 8bcb 7bbd 8034 2bbd 4765 99bc d15c 583d
-0.0554895 -0.020399075 0.39647067 -0.019507987 0.14810932 -0.03438238 0.2572302 0.24704145
-0.07680714 -0.029869474 0.18599322 0.25561777 -0.058269255 -0.031130731 0.3295701 -0.03486895
-0.06147341 -0.041798115 -0.01872505 0.05282289

conv.2.running_var f4 [20]
00000000: 2e44 223b 3980 8d3c a807 b43d b9f5 193c
00000010: 984c 173d 7048 6c3b 453a 833d d06a db3c
00000020: 2134 4a3a 056b dd3b d1ec a73d 1807 933d
00000030: 2659 833b 20c7 003c 32a7 ba3c ec07 ba3b
00000040: 28dd fe3a 079d 803b f03f 0d3c 28fd d03c
0.0024759877 0.017273055 0.08790523 0.009396964 0.03693828 0.0036053918 0.064075984 0.02678433
0.0007713456 0.0067571425 0.08199466 0.071790874 0.00400843 0.007859975 0.022784803 0.005677214
0.0019444572 0.003924969 0.008621201 0.02551134

conv.3.weight f4 [1, 20, 5, 5]
00000000: c9c5 123e 7cd9 c93d a219 f63d 7ba4 d43d
00000010: cced 073e 8257 b73d d01f cd3d 8a6a 593d
00000020: cf91 1e3e 3f73 db3d 2760 9f3d 976e 543d
00000030: 5452 673d d0b0 f03d 100c c03d f8f8 c03d
00000040: 8fd4 7c3d 2a96 9d3d e90a da3d 5f0f bf3d
00000050: dde4 db3d 1324 a13d 547e e03d 7f31 fa3d
00000060: f328 fa3d d247 36be 1a49 21be da6e 18be
00000070: 3b2e 3abe ae3c c8bd c805 51be 3a76 83be
00000080: 4d88 04be 1a36 58be d684 29be cc06 72be
00000090: 36bf 2fbe 5950 83be dd47 43be 0db6 4abe
000000a0: f83b 48be 1daa 27be 95b3 41be 70b0 f4bd
000000b0: ea33 39be 9e12 ffbd 3be2 1abe a783 50be
000000c0: a472 50be 7c1f 6bbe b764 ff3d 3826 053e
000000d0: 0631 033e 0ea5 f53d 3ce0 ed3d 7752 b73d
000000e0: 9746 013e 693d fa3d 9a44 fd3d 673b 623d
000000f0: 5a1e a33d 6519 193e 5d72 163e 6a42 ae3d
00000100: b596 ac3d e352 223d 4298 bf3d 702c c83d
00000110: c0dc c23d 0f5d c43d fe73 303d b83e 053e
00000120: 1363 743d 136f 8f3d d62b 013e 8761 1ebe
00000130: ad8f 03be 8f85 41be 87bb e9bd d4e1 2fbe
00000140: 5b82 f7bd 3603 2fbe 22ca 2abe b1a1 54be
00000150: 440d 3dbe 9428 3abe b8a7 70be 2cc1 86be
00000160: a382 52be a1ba 31be 2772 3dbe bafb 4ebe
00000170: 701a 18be 308b 75be ae3b 69be 20e2 3ebe
00000180: 734f 3cbe 2433 4dbe aa7f 1bbe 2e41 debd
00000190: f98a c2bd 687a e6bd bac3 17be 4529 16be
000001a0: cde3 2abe 5d4d 1cbe fc6a f7bd 78e5 2bbe
000001b0: a2b6 2dbe ec27 d4bd 39e4 2abe 3d8b 5dbe
000001c0: a0ad 33be feed ebbd 4deb 40be bc43 18be
000001d0: 1502 26be bcb6 0abe a0ed 25be 4c7f c5bd
000001e0: ae80 cbbd d29c f7bd 0a54 d4bd 06d6 c6bd
000001f0: 3973 d9bd 7482 d53d ff00 ca3d 8673 c13d
00000200: ad16 fa3d 15fb f43d 2fae cf3d 3fa2 fc3d
00000210: 5d1f cc3d cdb8 ce3d ac91 b93d c94f a33d
00000220: 3d2d fb3d 6a0d ca3d 471d 193e dfc4 863d
00000230: 4c23 f93d c263 3f3d 85b6 023e 084d e63d
00000240: 38c2 0b3e b707 043d 5dc3 483d c85d b93d
00000250: bebf b43d 9deb 193e 250d 993d 8fb5 a53d
00000260: 957c 9d3d 535b 8c3d 3c8b 983d ee0c 043e
00000270: 96c8 0f3e 2283 953d d779 783d f6e9 c23d
00000280: 1bfc 3d3e 4aa8 473e 674b 313e 05bc 303d
00000290: 49e0 823d ea94 4c3d e809 a03d b69e f43d
000002a0: 7331 9a3d a6f3 bb3d 3b58 fb3c bf72 b63d
000002b0: b0dc ce3d b9c7 a93d ec1c a43d 6af6 333d
000002c0: 7693 e33d 2a31 d03d f841 ae3d 1be9 d63d
000002d0: 8a41 853d 4cde b33d 7837 dc3d 4b54 0a3e
000002e0: 3ece 0b3e 2c28 b63d 9699 133e f9f6 113e
000002f0: 1dc3 4a3e 8d3a 0c3e a201 8e3d 7a03 1a3e
00000300: bdbe 293e 10ee 183e 0fd7 1e3e f178 d43d
00000310: 12a4 d93d 7ac1 db3d cf53 053e 16f8 043e
00000320: 3c72 ec3d 9afb c33d 5839 b03d b7d6 683d
00000330: 69cd 013e 25ed bc3d b522 983d 81fe c53d
00000340: 165c d33d a43c fb3d db3d 293d 4610 d03d
00000350: 6930 b23d 11a6 e63d b8d1 7d3d fe34 f43c
00000360: 9dc8 693d c696 d73d 476a 913d da08 e53d
00000370: ea25 923c d51e 9e3d d5cd ab3d 35c9 bd3d
00000380: 8e2c bd3d 76f6 443e 7be9 fd3d fd1e 153e
00000390: 6cbc 343e 3dcf 243e 2dc1 223e b998 f93d
000003a0: ce46 023e 9d12 093e 9aab b93d 494b 3c3e
000003b0: cbde 073e 231d b93d b911 223e da4b fe3d
000003c0: 269b 123d 5aae 433d a0d4 c03d 6033 093e
000003d0: a2bf 103e 3a7e d93d 8aa9 e83d 2ddf 203e
000003e0: d521 173e 117f d33d d6e8 4b3d 364f 063e
000003f0: 7101 c43d fae8 c43d 7931 c33d b837 f73d
0.14333262 0.09855935 0.12016608 0.10382935 0.13274306 0.08952238 0.100158334 0.05308012
0.15485309 0.10715341 0.077820115 0.05186328 0.056475 0.11752474 0.09377301 0.09422487
0.06172615 0.07694657 0.10646612 0.09329104 0.107370116 0.07868209 0.10961595 0.12216472
0.12214842 -0.17800835 -0.15750542 -0.14886037 -0.18181698 -0.09777199 -0.20412362 -0.25676137
-0.1294262 -0.21114388 -0.16554579 -0.23635405 -0.17162785 -0.25647238 -0.19070382 -0.1979601
-0.19554126 -0.16373487 -0.18916161 -0.11947715 -0.1808621 -0.12454723 -0.15125363 -0.20362721
-0.20356232 -0.22961229 0.12470382 0.1300286 0.1281167 0.11994372 0.11615035 0.08951276
0.12624584 0.12218744 0.123666 0.05523243 0.079647735 0.14951093 0.14692064 0.08508761
0.084271826 0.03962983 0.09355213 0.09774101 0.09514761 0.09588062 0.04307937 0.13012207
0.059664797 0.070036076 0.12614378 -0.15466891 -0.12847777 -0.18898605 -0.11412721 -0.1717599
-0.1208541 -0.17091069 -0.1667867 -0.20764805 -0.18462092 -0.18179542 -0.2350148 -0.26319253
-0.20557646 -0.1735635 -0.18500577 -0.20213214 -0.14853835 -0.23978877 -0.22776672 -0.18640947
-0.18389682 -0.2003904 -0.15185419 -0.10852276 -0.09499163 -0.11253816 -0.14820758 -0.1466418
-0.16688462 -0.15263887 -0.120809525 -0.16786754 -0.169642 -0.10359177 -0.16688623 -0.21635146
-0.17546701 -0.11520003 -0.1883976 -0.14869589 -0.16211732 -0.1354627 -0.16203928 -0.096434206
-0.09936653 -0.12090458 -0.10367592 -0.097087905 -0.1061768 0.104252726 0.09863471 0.094458625
0.12211356 0.119619526 0.10140645 0.123356335 0.099669196 0.10093842 0.09060988 0.07974202
0.12264488 0.0986584 0.14952575 0.06580519 0.121649355 0.046725996 0.12764938 0.11245161
0.13648307 0.03223392 0.049014438 0.090510905 0.088256344 0.15031286 0.0747321 0.0809127
0.07689778 0.06853356 0.07448432 0.12895557 0.14041361 0.07300402 0.06066307 0.09517281
0.18553202 0.19497791 0.1731392 0.04314806 0.06390435 0.049946703 0.078143895 0.11944334
0.07528963 0.091773316 0.03068172 0.08908605 0.101006866 0.08290047 0.08013329 0.04393617
0.1111211 0.10165627 0.08508676 0.1049368 0.06506641 0.08782634 0.10752767 0.13508718
0.13652894 0.08894381 0.14414057 0.14254369 0.19800992 0.1369421 0.06933905 0.15040389
0.16576667 0.14934564 0.15511726 0.1037463 0.10626997 0.10730262 0.13020252 0.12985262
0.11545226 0.095694736 0.086046875 0.056845393 0.12676014 0.09224919 0.07428495 0.096676834
0.103202984 0.12267426 0.041318756 0.10159354 0.0870064 0.112621434 0.06196758 0.029810425
0.057076085 0.105268046 0.07100349 0.11183329 0.017840344 0.077207245 0.08388869 0.09266893
0.09237014 0.19234642 0.123980485 0.14562602 0.17650002 0.1609468 0.15894003 0.12187333
0.12722322 0.13386007 0.090659335 0.18388094 0.13268583 0.090387605 0.15827073 0.12416811
0.035792492 0.047773696 0.09415555 0.13398504 0.14135602 0.10619779 0.11360462 0.15710135
0.14759 0.1032697 0.049782597 0.13116154 0.095705874 0.09614749 0.095309205 0.120711744
