src/caches/cache_16_20_big/param2img1.pt (torch, 184864 bytes, 19 tensors)

main.0.weight f4 [16]
000000 2b 8c 5a 3f 02 34 59 3f dd e2 52 3f 03 9b 8d 3f
       0.8537013 0.8484498 0.82377416 1.1062931
000010 cf 9e 57 3f 06 8c 8c 3f 9a c1 7b 3f b5 87 79 3f
       0.842267 1.0980232 0.9834229 0.974727
000020 19 ee 84 3f 60 95 8a 3f 3c c8 95 3f 3f ab 7d 3f
       1.0385162 1.0826836 1.1701732 0.99089426
000030 25 51 9b 3f 85 3f 5a 3f ec 74 59 3f bf 4d 6d 3f
       1.2134138 0.85253173 0.84944034 0.92696756

main.0.bias f4 [16]
000000 11 e1 bf 3d 3b ab 0d 3d b4 b5 3e bc 2e 6d 02 3a
       0.093691 0.034587126 -0.011640001 0.00049753755
000010 4f 61 f0 bd 97 d0 37 be 45 f0 c5 bc 97 9b f4 3d
       -0.1173731 -0.17950664 -0.024162421 0.11943739
000020 6d c6 4e be 8c 5d ac bc f8 03 8c 3d 7b fc 27 bd
       -0.20192881 -0.0210407 0.068366945 -0.04101227
000030 ae 3e 70 bd 8a 9a 75 bd da 46 04 be 76 7e d8 bd
       -0.058653526 -0.059961833 -0.12917653 -0.105709955

main.0.running_mean f4 [16]
000000 3f bf 04 b7 af 6d 77 b6 1e cd 4c 3e 2e 62 c0 bb
       -7.912341e-06 -3.6869712e-06 0.20000121 -0.005871079
000010 37 a8 2b 3c 43 c0 d0 3a 9d 23 08 3f 62 ec c0 bb
       0.010477117 0.0015926439 0.5317934 -0.005887554
000020 02 09 ac 3c 31 1a ce 3a fa 22 08 3f d9 be c0 bb
       0.021000389 0.0015724358 0.5317837 -0.005882126
000030 19 04 01 3d 0f 69 9d b6 90 d2 4c 3e 35 65 c1 bb
       0.03149805 -4.691195e-06 0.20002198 -0.0059019574

main.0.running_var f4 [16]
000000 d1 5b 86 35 25 9f 83 35 f5 e5 79 35 22 68 03 3b
       1.00105e-06 9.806578e-07 9.309436e-07 0.0020051082
000010 f5 c0 82 37 d5 ad 26 39 71 cb 9e 3d d0 6d 03 3b
       1.558706e-05 0.00015895751 0.07753647 0.0020054467
000020 70 36 78 38 ca cf 26 39 39 c9 9e 3d 43 1d 03 3b
       5.9178506e-05 0.00015908401 0.07753224 0.0020006455
000030 30 08 0a 39 65 dc 84 35 4c 95 7e 35 3d 30 03 3b
       0.00013163756 9.89891e-07 9.483963e-07 0.0020017766

main.1.weight f4 [20, 16]
000000 24 33 a0 bb 6b 42 cd 3c 72 f6 e7 3b cc d9 99 3d
       -0.004888909 0.025056085 0.007078939 0.075122446
000010 dc 1e 4f be 00 a4 a0 3d 1d 3d 17 bd 78 12 1a be
       -0.20226616 0.078437805 -0.036923517 -0.15046108
000020 d7 48 15 bd 49 db 23 be 67 a3 5d 3e 92 84 78 3e
       -0.03644642 -0.1600162 0.21644364 0.24269322
000030 53 04 9c be dd b4 90 bc ed 11 40 3c 05 0b f2 3d
       -0.3047205 -0.017664367 0.011723024 0.11818508
000040 4c 53 16 3c 77 29 37 3b c9 a2 17 3c fb d7 72 be
       0.009175133 0.00279483 0.00925512 -0.23715203
000050 11 83 e0 3d 3c 3f 40 3d 42 33 93 3d 68 7f 21 be
       0.10962499 0.046935305 0.07187511 -0.15771258
000060 ef 3a 6c 3e 9c 46 66 bd dc 06 bd be e2 db dd bd
       0.23069356 -0.056219682 -0.36919296 -0.10832955
000070 25 46 4e 3d b8 42 b7 3b 13 01 94 3b a7 8f 55 bd
       0.050359864 0.0055926703 0.0045167296 -0.05213895
000080 c8 e7 81 39 68 a9 77 bc d6 77 55 3b cb fe b7 3c
       0.00024777488 -0.015116073 0.0032572648 0.022460362
000090 42 0a 4e 3c cd 7c 31 3e 04 69 b9 ba 6b 05 c1 bd
       0.012575688 0.17332764 -0.0014145677 -0.094248615
0000a0 02 81 9e bb 24 37 84 3e 33 00 26 be 1b 5e c6 3c
       -0.0048371563 0.2582332 -0.16211013 0.024214795
0000b0 cb 15 11 3e ec 88 70 3b ed 2f 8c ba e7 1e 89 3b
       0.1416847 0.0036702706 -0.0010695435 0.004184592
0000c0 a4 55 aa 3b 70 6a 0e 3c 9a ae 24 3b 19 bd 5d 3d
       0.0051981974 0.008692369 0.0025128485 0.054135416
0000d0 8b e3 ce 3d 3f 2a a0 3e 8c 34 29 3e fc 1d b7 bd
       0.10101994 0.3128223 0.16523951 -0.08941266
0000e0 8d dc 21 3e 5f a0 95 3e e8 40 c5 38 9e f0 5f bd
       0.1580679 0.29223916 9.405782e-05 -0.05467283
0000f0 28 50 59 3d 6f ed b6 3a 88 1a 5b bc 4c 3c b0 3c
       0.05305496 0.0013956259 -0.013373025 0.021513127
000100 89 9f 0e 3c 5d 86 c8 3b 24 4b c9 3a 0e a2 b8 3c
       0.008705028 0.006119533 0.0015357477 0.022538211
000110 63 2d d2 3c c2 27 99 bd 02 5a 8a be c6 97 71 3e
       0.025656408 -0.07478286 -0.27021796 0.23593053
000120 b9 06 55 be 98 06 d2 3c 21 cf d7 bd 2f ff d5 3c
       -0.20803346 0.02563791 -0.105375536 0.026122658
000130 62 83 38 be 07 2b b9 b9 0f d4 18 bb 31 db 80 3d
       -0.18018869 -0.00035318008 -0.0023319756 0.062918074
000140 9c 96 37 3a 60 b7 b4 3b 70 f6 3e bb 22 4e 3c bb
       0.00070033385 0.005515024 -0.0029138587 -0.0028733094
000150 61 8e 96 3d 90 7d 86 3d 4e e6 3a 3e 04 0f 20 3e
       0.07351375 0.06566918 0.18251917 0.15630728
000160 a1 d4 63 3e c7 2c 9a bd 05 a5 a8 bd 35 e4 09 be
       0.2224908 -0.07528072 -0.082346 -0.1346596
000170 67 7c 97 3e 45 fe 8d 3b 77 78 23 3b 61 0b 46 be
       0.295871 0.00433329 0.0024943629 -0.19340278
000180 62 92 8d bb 94 61 89 3a f7 48 11 bb 57 c5 0c 3e
       -0.0043204287 0.0010481351 -0.0022168735 0.13747154
000190 eb 03 24 3e 52 38 1a 3e ce 61 1c bd 1c b9 3d be
       0.1601712 0.15060547 -0.03817921 -0.18527645
0001a0 6b 15 8e 3e 8b 83 eb 3d 9f 99 e5 3d 44 43 86 be
       0.27750716 0.11499699 0.112109415 -0.26223195
0001b0 26 34 26 3e ac 29 10 bb 56 8e 00 3c e0 9e 9e bd
       0.1623083 -0.0021997495 0.0078464355 -0.07745147
0001c0 46 5e 96 3b 09 da 3b 3b ed 7d 31 3c bd 28 90 3e
       0.004588875 0.0028663895 0.010833246 0.2815608
0001d0 62 37 0d be 26 d8 d7 bc 05 8c e4 3d 21 b4 46 3e
       -0.13790658 -0.026348185 0.11159519 0.19404651
0001e0 e5 57 1b be 7d 03 76 be a4 69 48 3e 6c de 74 3e
       -0.15170248 -0.24024768 0.19571549 0.23912972
0001f0 72 12 34 3d 28 c6 6a bc 4c 41 e8 3a 1a e1 94 3d
       0.043962903 -0.014329471 0.0017719655 0.07269497
000200 10 1e 54 bb a2 cc 4a bc 70 f5 13 bc 5c 85 34 3e
       -0.0032366551 -0.01237789 -0.009030685 0.17628998
000210 bc 4a 32 3d bc 81 a4 3d 69 71 0a 3d 19 4f 90 bd
       0.043528304 0.08032557 0.033799563 -0.07046337
000220 6b b2 31 3e 72 4a 9c 3e f0 6f 12 be f2 a9 0d 3d
       0.17353217 0.30525547 -0.14300513 0.0345859
000230 bf 6d 18 3e b6 8f 96 b9 9b 08 1e 3b c7 10 11 be
       0.14885615 -0.00028717302 0.0024114016 -0.14166556
000240 a8 22 45 3b c2 cf 9e bc 9f e8 9e bb d9 86 18 be
       0.0030080471 -0.019386176 -0.004849508 -0.1489519
000250 d2 0f 14 be c3 03 6e 3c 70 1c bd 3d 3d ae dd 3c
       -0.1445916 0.014527264 0.0923394 0.027060622
000260 39 88 b5 be 33 0f 1d be 51 0a 28 3e 00 b6 7d bd
       -0.35455492 -0.1533783 0.16410185 -0.061941147
000270 7d 53 6c be 06 78 95 38 3e 1f c3 bb cd 64 5a 3e
       -0.23078723 7.12723e-05 -0.005954652 0.21327515
000280 4a d1 08 ba 92 c5 64 bb 17 8d 06 ba ea 15 6b be
       -0.0005219175 -0.00349078 -0.00051327184 -0.22957578
000290 8f b0 92 bd 29 f2 a6 bc 1a ed 38 3d 25 22 01 be
       -0.07162582 -0.020379143 0.045147993 -0.12610681
0002a0 ec 17 10 be 7a dd af bc 9f 82 06 3d 28 50 2b 3e
       -0.14071625 -0.021467913 0.032839414 0.16729796
0002b0 63 7f 75 be 73 ce 86 ba e2 9d 5e bb e2 4f ea 3d
       -0.23974375 -0.0010284915 -0.0033968617 0.11441018
0002c0 29 c0 a1 bb c3 83 28 bb 81 15 3a ba 3c 22 c8 3d
       -0.0049362374 -0.0025713302 -0.0007098541 0.09772155
0002d0 27 95 86 bd f7 ab 95 be 4c 75 5b bd 74 9d 09 3e
       -0.06571417 -0.2923276 -0.05357866 0.1343897
0002e0 12 54 15 be 02 e4 47 be 0e dc ab 3c a6 dd b3 3d
       -0.14582852 -0.19520572 0.020978954 0.087825105
0002f0 24 48 05 bd 50 7c 91 3b ab 6e ad b9 9f b4 3d be
       -0.0325395 0.004439868 -0.00033079585 -0.18525933
000300 ee 49 14 bc 96 3d 65 bc 5c b0 b7 bb d0 00 71 3d
       -0.009050829 -0.013991734 -0.0056057405 0.058838665
000310 aa c6 1f 3e 39 5f 9e be 4a cb 13 3e 98 82 47 be
       0.15603128 -0.30932024 0.14433017 -0.19483411
000320 cb 89 03 3d 6b 5c 5e be d2 7a 27 be d7 a9 f5 ba
       0.03211383 -0.21714942 -0.16355446 -0.0018742633
000330 96 f6 31 3e 9c bb 70 3b db 3e 47 3c 2b 7b 34 3c
       0.17379221 0.0036732918 0.012160982 0.011015694
000340 95 ed 4b ba 27 95 86 bb d6 56 1f 3c dd 4f 54 3d
       -0.0007779238 -0.004107136 0.009725293 0.051833976
000350 35 e2 c2 3d 8d 46 ae 3c 42 2f 86 bc cb 68 c4 3d
       0.09515802 0.021273876 -0.016379956 0.095903
000360 78 24 68 3e 9c be 1c bd 85 94 e1 bd 63 e9 30 be
       0.22670162 -0.038267717 -0.11014656 -0.1727653
000370 e4 27 be 3e 46 bb 63 3a f3 1a e5 3b 51 f9 67 3e
       0.3713981 0.0008687269 0.006991738 0.226537
000380 5d 2b 8b bb d3 07 a2 3a 4f 6f d5 3b 86 0c 64 3e
       -0.0042471127 0.0012361951 0.006513513 0.22270402
000390 5f 69 1e 3c a1 b2 4d be 89 ce 9f bd 11 00 87 bd
       0.009668677 -0.20087673 -0.07803065 -0.065918095
0003a0 1a 54 69 3e fb 47 c6 bd a6 7a 89 bc 9d b7 9a 3e
       0.22785988 -0.09681698 -0.016782116 0.3021821
0003b0 b1 6b 17 3e 61 e6 ba bb 8e ed f4 3a 17 14 25 3e
       0.14787175 -0.005703733 0.001868652 0.16120945
0003c0 8e 70 1b bc 20 f1 58 3c fd c4 d8 b9 ad fb 81 be
       -0.009487284 0.013241082 -0.00041345498 -0.25387326
0003d0 1e ab 88 bd 02 f7 8c be ec de 78 3e b3 c0 a0 3d
       -0.06673263 -0.27532202 0.24303788 0.078492545
0003e0 49 94 14 3e 27 86 ac bd 20 71 c4 3e 6e 88 13 3d
       0.14509691 -0.08424025 0.38367558 0.03601878
0003f0 0e f6 27 be 35 ae f1 bb e0 eb 18 3c 84 5a 37 bc
       -0.16402456 -0.0073755034 0.009333581 -0.011191014

main.1.bias f4 [20]
000000 c8 9d 0d bd c3 d3 20 3c de 81 bf bd 4b a7 96 be
       -0.0345743 0.009816113 -0.09350942 -0.2942451
000010 f7 47 0a 3e 82 eb 1c 3e 96 d1 17 be 81 96 79 be
       0.13504015 0.15324214 -0.14826044 -0.24373819
000020 52 25 b0 bd c1 44 0f be e8 fe 8e 3e 9c 25 34 bd
       -0.08600868 -0.13991071 0.27928853 -0.04398118
000030 a2 ff f2 3d 15 57 43 3e ae c2 2a 3d fc 4f 8e 3d
       0.11865164 0.19076188 0.041689567 0.069488496
000040 3d 15 df 3d f3 12 5f be 62 df cd 3e cf 1b 6f bc
       0.10892723 -0.21784572 0.4020949 -0.014594032

main.3.weight f4 [20]
000000 92 2b 57 3f 7b f0 66 3f 1a d8 74 3f 90 16 80 3f
       0.8405086 0.90210694 0.95642245 1.0006886
000010 67 2e 54 3f 27 12 76 3f eb 38 67 3f 64 d7 70 3f
       0.82883304 0.9612145 0.90321225 0.9407866
000020 f3 4a 57 3f 1f 39 71 3f 32 d7 71 3f 4a 20 6c 3f
       0.8409874 0.94227785 0.94468987 0.9223677
000030 c8 7a 5f 3f f2 20 77 3f 2f c0 6b 3f d8 f0 84 3f
       0.87296724 0.96534646 0.92090124 1.0386
000040 19 a1 77 3f b2 21 5a 3f 3c b2 66 3f 8b da 5d 3f
       0.9673019 0.85207665 0.90115714 0.86661595

main.3.bias f4 [20]
000000 ee 83 aa bd 2c 4d 2c be 91 6c f1 bd 71 fc 17 be
       -0.08325945 -0.16826314 -0.117882855 -0.14842393
000010 a7 ee e4 bd 3c 73 d5 3d 33 85 b9 bd 86 f8 d0 3d
       -0.11178332 0.1042237 -0.09058609 0.10203652
000020 b5 d1 14 be 21 ee e5 bd d5 54 fa bd 83 a4 1d be
       -0.14533122 -0.1122706 -0.12223212 -0.15394787
000030 76 bd c8 bd 3a 06 17 be ed cb 42 be 70 76 40 bd
       -0.09801762 -0.14748469 -0.19023104 -0.04698795
000040 7b dd 8e bd 31 19 22 be df 70 c7 bd 6c fd 2f be
       -0.06975838 -0.15829922 -0.09738325 -0.17186517

main.3.running_mean f4 [20]
000000 94 24 56 3e e0 17 4d 3e c1 78 c2 3d ed fa cf 3c
       0.20912391 0.20028639 0.09495688 0.025388205
000010 8a c7 b2 3e a6 1d 95 3e e2 fb d7 3d 20 72 66 3e
       0.3491786 0.29124182 0.1054609 0.22504473
000020 da 6d d8 3d 56 ca 79 3e 37 98 b3 3e 14 de 84 3e
       0.105678275 0.24393591 0.35077068 0.25950682
000030 c1 a9 8a 3e 7a a2 9e 3e 86 33 74 3e 59 1e b6 3e
       0.27082637 0.30983335 0.2384778 0.35570028
000040 ee 0b 8b 3e 50 2d 0d 3d f2 0b 08 3f fc ff 06 3e
       0.2715754 0.03446704 0.5314323 0.13183588

main.3.running_var f4 [20]
000000 65 d3 4c 3e 52 00 67 3e a1 81 b2 3d e5 0a d9 3d
       0.20002516 0.22558716 0.08716131 0.10597781
000010 c6 4d 90 3e 36 3f 30 3e 1d e5 18 3e af 3b bc 3e
       0.28184336 0.17211613 0.1493115 0.36764285
000020 8a 42 cd 3d 4c 3d 88 3e 98 eb 2e 3e 53 a9 31 3e
       0.10022457 0.26609266 0.1708206 0.17349748
000030 d5 8c 55 3e d1 02 50 3e a7 a4 7e 3e de 80 ae 3e
       0.20854504 0.20313574 0.24867497 0.34082693
000040 aa bc 38 3e f5 68 99 3d 8f d9 95 3e f4 d8 e8 3d
       0.1804072 0.07490722 0.29267547 0.113695055

main.4.weight f4 [2048, 20]
000000 bd d4 18 be 31 37 a5 3d 4e c6 2c bd 28 b1 e0 3c
       -0.14924903 0.080671676 -0.042181306 0.027428225
000010 79 22 41 3d 08 63 f2 bd 29 38 a4 3d 49 17 37 be
       0.047152016 -0.11835295 0.08018524 -0.17879976
000020 e6 f1 33 bd a4 d3 d8 3d 32 9a 6d be 76 65 19 3e
       -0.043931864 0.10587242 -0.23203352 0.1498011
000030 fc 97 77 3e 3e a3 44 be f2 ac f0 3d 93 83 1d 3e
       0.24179071 -0.19202897 0.11751737 0.15382223
000040 e5 98 46 3d 5b 4a 60 be 32 e5 39 be fe 41 8b 3d
       0.048485655 -0.21903364 -0.18153837 0.067996964
000050 da c7 42 be a9 ba 2d 3e fb 11 1f 3e 71 e9 12 bd
       -0.1902155 0.16965736 0.15534203 -0.03586716
000060 07 49 7a 3d 05 2a 3a be 20 13 42 3e 22 d2 ca 3c
       0.0611048 -0.18180092 0.18952608 0.024758402
000070 35 87 9b bd d8 82 85 3d a2 4c eb bd ce 91 77 bd
       -0.07594148 0.06519097 -0.11489226 -0.060441785
000080 79 6d 8c 3d 9c 6a b5 3d e7 bb 7f bd 29 fd 60 bc
       0.06856818 0.08858225 -0.062435057 -0.013732233
000090 60 93 b8 bd 2f 99 67 be 64 59 ab 3d bf 6a 02 3e
       -0.090124846 -0.22617029 0.08366659 0.12736033
0000a0 d8 33 ce bd c8 fa 37 be 27 78 19 3d 7b 14 84 3d
       -0.10068482 -0.17966759 0.0374681 0.06449219
0000b0 74 1d 0e be 3e ee e2 bd d4 d8 04 3e ad 16 14 bd
       -0.13878423 -0.11080597 0.12973338 -0.036154438
0000c0 8c 74 2f be 60 68 7d be 2c 6f 25 3d 4a ad 7e be
       -0.17134303 -0.24746847 0.040389225 -0.24870792
0000d0 2f 01 9d 3d 17 14 83 3e 78 8d 3d 3e 40 25 48 3e
       0.076662414 0.25601265 0.18510997 0.1954546
0000e0 b0 c9 88 be 1f 0a 6f 3d 60 70 ab bd 50 d7 b2 bd
       -0.26716375 0.05835926 -0.08371043 -0.08732474
0000f0 12 a7 9d 3a aa 83 02 bd 43 90 4b be 54 e3 89 bd
       0.001202794 -0.031863846 -0.1987925 -0.067328125
000100 b9 67 a9 3d 53 14 da 3c 7b 07 31 be d3 ac 2d bb
       0.08271737 0.02662102 -0.1728801 -0.0026500716
000110 66 c6 85 bd bb fb c8 bd a5 c9 2f 3e ca fb c3 ba
       -0.06531982 -0.09813639 0.17166765 -0.0014952358
000120 70 87 ce bd 62 d7 29 3e 9f dc 68 3c fb 37 fc 3d
       -0.100844264 0.16586068 0.014212756 0.12315365
000130 34 5d 4b be 6f d7 08 be f0 fd 22 be 5e d2 80 3e
       -0.19859773 -0.13363431 -0.15917182 0.25160497
000140 cf f5 b7 bd e0 11 3f 3e 9c e8 50 be d2 06 39 3c
       -0.08982431 0.18659163 -0.20401233 0.01129313
000150 d4 47 76 be f1 90 d6 bc 4f 6a de bd b2 08 9a bd
       -0.24050838 -0.02619216 -0.108601205 -0.0752119
000160 4c e0 e1 bc de 91 cb bd c0 8f b5 3c 30 2b e9 bb
       -0.027572773 -0.09939931 0.022163272 -0.007115744
000170 1a 35 88 3d 03 31 2c bd 5a fa fd bd f0 d0 a1 bd
       0.06650753 -0.04203893 -0.124012664 -0.0790118
000180 b5 e8 38 be 7d 54 38 be 8e e0 50 be aa c7 09 3d
       -0.1805752 -0.1800098 -0.20398161 0.03363768
000190 50 0a ff bd 90 c4 70 3d 85 e5 47 be 3a 38 ca 3d
       -0.12453139 0.058781207 -0.19521149 0.098740056
0001a0 35 a1 49 be a8 6e aa bc ea 69 2c 3d cb 16 19 3e
       -0.19690402 -0.020804718 0.042093195 0.14950101
0001b0 6c 2b 4b be e7 94 93 3d 01 08 0b be 18 8d 68 3e
       -0.19840783 0.07206135 -0.13577272 0.22710073
0001c0 56 df d3 3d 1e 03 b6 bd c6 b8 52 be 57 e9 bf bd
       0.10345332 -0.08887313 -0.20578298 -0.09370678
0001d0 c0 84 bf bd f5 05 24 be db 02 8b 3e bb 70 20 3e
       -0.09351492 -0.16017897 0.27150616 0.15668003
0001e0 73 8e 53 3d c3 b2 4e be 8b 3e 9d bd 86 e6 0e be
       0.051649522 -0.2018538 -0.07677945 -0.13955125
0001f0 25 ba f6 3d 85 03 0b 3e a1 dd 13 3e be 55 17 3e
       0.12047223 0.13575561 0.14440013 0.14778802
000200 71 53 0e be bd 36 94 bc d1 19 e8 3d f6 85 5c bd
       -0.13899018 -0.018092507 0.11333049 -0.053838693
000210 96 32 3c be 4d e7 13 3e fc 89 c4 3d ab 02 3f be
       -0.18378672 0.14443703 0.09596631 -0.18653361
000220 57 6b a1 bd 47 28 bb 3d d3 40 20 3e 09 82 c3 bd
       -0.078818016 0.09138542 0.15649728 -0.095462866
000230 38 9c 0e be 69 f4 32 be 5c 12 ea bd 64 c3 90 bb
       -0.1392678 -0.17476048 -0.11429283 -0.0044178236
000240 32 85 51 3e c2 17 49 be 8c f0 21 3e ae 16 10 3d
       0.20460966 -0.19637969 0.15814418 0.03517788
000250 7d 0f 6b ba 81 69 84 3d cd 08 02 3e ad 79 e0 bd
       -0.00089668465 0.06465436 0.1269867 -0.10960708
000260 1f c1 19 3e b6 c6 dc bd b4 4a c5 3c 9e 76 a8 bc
       0.15015076 -0.107800886 0.024083473 -0.020564374
000270 fb d5 3a be bd f7 37 be 9b 58 a2 bd 18 34 18 be
       -0.1824569 -0.17965598 -0.079270564 -0.14863622
000280 30 65 6b 3e 64 e5 05 be 74 1d 60 bd 36 10 1b be
       0.22987819 -0.13075787 -0.05471559 -0.15142903
000290 25 f2 25 be 62 dc 10 be c1 7d 69 3d a0 24 27 be
       -0.16205652 -0.1414657 0.057004694 -0.16322565
0002a0 47 16 08 be 9a 8d 1e 3e 55 a6 7c be ea 1a 49 be
       -0.13289748 0.15483704 -0.24672826 -0.19639173
0002b0 f6 76 ac bd c9 d3 63 be 20 e9 9f 3b d0 1e 1f 3d
       -0.084211275 -0.22248758 0.0048800856 0.038847744
0002c0 71 b3 09 be aa b7 2f 3e 79 8e 37 be 8d 03 33 3e
       -0.13447358 0.17159906 -0.17925443 0.17481823
0002d0 42 2e 29 3e aa ed ee bd a5 83 1f 3d 25 d3 79 bd
       0.16521552 -0.116664246 0.038943905 -0.06099238
0002e0 8d 6c 40 bd 8f fc b3 3d a1 ad 31 3e 8d 4f 48 bd
       -0.046978522 0.08788406 0.1735139 -0.04890399
0002f0 70 5c 6b 3e 6c b4 12 bd 6a 2c 2f 3a 62 8f aa 3c
       0.22984481 -0.035816595 0.00066823384 0.020820323
000300 21 13 36 be 6b f9 26 be 6d 22 b9 bc 01 9f f3 3c
       -0.17780735 -0.16306083 -0.022599423 0.029738905
000310 a0 da a7 3c 9d be bb 3d 19 fd 41 3e 39 85 15 be
       0.02048999 0.09167216 0.18944205 -0.14601602
000320 0d 7e 05 be 7a e4 ec bd 11 70 25 3d d9 29 22 3e
       -0.13036366 -0.11567016 0.040390078 0.15836276
000330 c4 36 a7 3d 20 70 6b bd 3e 07 98 bd c7 e0 a9 bd
       0.081647426 -0.057479978 -0.07423256 -0.08294826
000340 b2 db 0d be 0f bd bd bd 51 3a 3c 3d 99 bf 2a bd
       -0.13853338 -0.09264576 0.045954052 -0.041686628
000350 ed 20 99 bd 5a 1b 10 3e b9 91 fa bd 9c 8d 17 be
       -0.07476983 0.14072934 -0.12234826 -0.14800113
000360 33 2b c8 3c ac 5d 1e 3e c0 47 c1 bd fe 96 25 3e
       0.024434661 0.1546542 -0.09437513 0.1617088
000370 61 49 07 bc 11 48 fa bd 02 34 51 3d 72 0e 20 bc
       -0.008257241 -0.12220777 0.05107499 -0.009769069
000380 98 26 cf bd 48 86 f6 bd eb d0 75 be e5 27 fa bd
       -0.10114783 -0.12037331 -0.24005477 -0.122146405
000390 44 6c 7a be ea a3 a7 3d 9a e0 0b 3e 1e 23 c1 3d
       -0.24455363 0.08185561 0.13659897 0.09430526
0003a0 9d 61 54 be 53 6a 10 bd b4 63 e0 3d 89 a1 2f 3e
       -0.20740362 -0.03525765 0.10956517 0.17151465
0003b0 b2 aa a8 bd 31 c9 48 be d4 ea e1 3c b3 ac 57 3e
       -0.082356825 -0.19607998 0.027577795 0.21061973
0003c0 0c 70 24 be 31 19 25 be c0 80 d0 bd c5 55 0f bd
       -0.16058367 -0.16122891 -0.10180807 -0.034993906
0003d0 f5 8b 4b 3d af be 7b 3e ce dd ca bc ba d9 cc 3c
       0.04969402 0.24584459 -0.024763968 0.025006164
0003e0 b7 85 45 be e3 40 2f be ba 35 a7 bd da 43 c9 3c
       -0.1928929 -0.17114596 -0.081645444 0.024568487
0003f0 56 c6 59 bc d2 91 ff bc e7 ba 1c 3e e0 b7 55 3a
       -0.013291916 -0.031197462 0.15305673 0.00081527047

main.4.bias f4 [2048]
000000 d4 94 84 be 7c 82 e1 bd f1 ff 4d 3e f8 eb 84 3d
       -0.25894797 -0.11011216 0.20117165 0.0649032
000010 16 8c dc 3d 18 0e ac 3c f2 c5 b1 3d b2 fa 35 3e
       0.10768907 0.021002814 0.08680333 0.17771414
000020 7d d1 a5 3d 03 c6 d1 3d 6c fd 3c 3e ea ab 0f 3d
       0.08096597 0.10242846 0.18456048 0.03507606
000030 0b 81 67 3e 85 ee 63 3b e9 98 49 3d d9 86 cd 3d
       0.2260782 0.003477962 0.049218092 0.10035486
000040 d3 3f f2 bd d2 83 86 bd 45 da 85 3d 34 62 64 3d
       -0.1182858 -0.065681115 0.06535772 0.055757716
000050 08 e5 0c bd c1 cf fe bc 0d 76 0b 3e 81 0d a8 3d
       -0.03439811 -0.031104924 0.13619252 0.08205701
000060 eb 1f 97 3d bb b0 75 bd c8 fc 8b 3d 7c f3 0b 3e
       0.07379135 -0.059982996 0.068353236 0.136671
000070 d6 3c 30 3d f9 5a 6c 3e 72 40 d5 3d bf 12 ae 3d
       0.043026768 0.23081578 0.104126826 0.08499669
000080 83 76 c0 bd 82 67 25 3e 00 eb 0a 3d 82 ad 8a 3e
       -0.09397604 0.16152766 0.03391552 0.270855
000090 19 25 20 3e 37 b0 f9 3b 8f 89 0f 3d c1 de c4 bd
       0.15639152 0.0076198834 0.035043295 -0.096127994
0000a0 4f 36 8a 3d a6 71 a1 3d 72 12 87 3d f5 ab 2b bd
       0.0674864 0.07883005 0.06595315 -0.041912038
0000b0 ba 3c bc 3d 21 4b ae bd 09 e9 58 3c 9b 2e 3a 3e
       0.0919127 -0.085104235 0.013239154 0.18181841
0000c0 dc 0e 29 3e e8 5f 06 be 98 fc 4d 3e 53 4e d2 bd
       0.16509575 -0.13122523 0.20115888 -0.102688454
0000d0 9d af 1a 3b 47 fe a8 3d 8b 06 1c be 0b f5 a7 bd
       0.0023603209 0.082516246 -0.15236871 -0.08201035
0000e0 35 f6 f7 3c de 42 02 be 46 44 85 bd d2 c8 61 3e
       0.030268768 -0.1272082 -0.06507163 0.22049263
0000f0 99 0c 11 ba 8a e6 a1 3d 3c 20 4f 3e 5c 18 61 3e
       -0.0005533188 0.079053 0.2022714 0.21981949
000100 f9 91 1c 3e ac b8 f2 3d f5 4d 08 be e2 bd 4c 3e
       0.15290059 0.118516296 -0.13310988 0.1999431
000110 3f a8 a7 3d c0 14 2e bc e6 a6 49 3e 38 e2 60 3e
       0.08186387 -0.010625064 0.19692573 0.21961296
000120 ff 7b e6 bd 41 96 ff 3d 70 c7 2f 3e 4e 27 87 bd
       -0.11254119 0.124798305 0.17165923 -0.06599294
000130 f0 02 e4 bd fa 73 f2 bd 30 ea f7 bb 16 98 88 3d
       -0.11133373 -0.11838527 -0.007565759 0.06669633
000140 f1 20 b5 bd e4 d8 b1 bd 51 f7 2e 3e 72 e1 cb 3d
       -0.08844174 -0.08683947 0.17086531 0.0995511
000150 93 08 76 3e 59 4c 5e 3e 0e f8 cb 3d ee 0b ca 3d
       0.24026708 0.21708812 0.09959422 0.09865557
000160 b9 0c 0a be b9 d4 d7 3d 40 fd 82 3d 3f 38 d5 3c
       -0.13481416 0.105386205 0.0639596 0.026027797
000170 54 d7 a8 bd c6 99 7f bd ae d8 df bd 0c 48 cd bc
       -0.082441956 -0.06240251 -0.1093 -0.025058769
000180 c6 39 2d 3d 38 0b 76 3e 87 dc 74 3e 49 b1 58 3e
       0.042291425 0.24027717 0.2391225 0.21161379
000190 6e eb 3f 3d 52 84 4b 3e 40 27 7d bd 6e 65 99 3e
       0.046855383 0.19874695 -0.06180501 0.29960197
0001a0 68 dd b7 bd e9 97 03 bd 55 e3 9f 3e 02 0f 4a 3e
       -0.08977777 -0.032127295 0.31228128 0.19732288
0001b0 b8 5e c8 3d d9 79 6b 3e 19 66 97 3d a5 be 86 bd
       0.09783691 0.229957 0.073925205 -0.06579331
0001c0 31 f1 b1 bd 15 50 2e 3e c1 c0 e2 3d 4e dc 51 3e
       -0.08688582 0.17022736 0.11071921 0.20494196
0001d0 bd 81 94 3e 86 23 35 3e 9d 58 87 3e 03 de 31 3b
       0.29005232 0.17689332 0.26434794 0.0027140386
0001e0 51 00 85 3c 99 34 5b bd 99 8f 9d 3e 6e a2 8a 3e
       0.016235502 -0.053516958 0.3077362 0.2707705
0001f0 8e ea 42 bd 6d e7 8d 3e 6f a4 90 3c 4d 12 da bd
       -0.04758697 0.27715626 0.017656533 -0.10648022
000200 98 fa 6b 3e 6d 89 e2 3d f1 b0 93 bc 9b a0 b4 3d
       0.23044813 0.11061368 -0.018028708 0.088196956
000210 1e bf 42 3c cb d6 1a 3e 94 ac 02 bc 00 d9 5c 3e
       0.011886386 0.15121 -0.007975716 0.21567154
000220 ba b2 9f 3d 47 68 16 3d f0 73 70 3d 10 4e 80 3e
       0.07797761 0.03672054 0.058704317 0.25059557
000230 4a bc 92 bd cf 3d 8f 3e b5 bd af bd 5a e3 1e bd
       -0.071648195 0.27976844 -0.085811056 -0.038791038
000240 4e 67 a4 bd 5e ba 69 3e 02 4e 40 3e b6 b2 c7 3d
       -0.08027516 0.22825 0.18779758 0.09750883
000250 8f 6c 71 3d 26 53 1b 3d 43 82 3d 3d 68 51 a6 3d
       0.05894142 0.037921093 0.046266805 0.08120996
000260 bf 16 01 3e 34 78 25 3e 84 ba a6 3d b0 ba 79 3d
       0.12606333 0.16159135 0.08141044 0.060969055
000270 a6 0b ad 3d bc b3 3f 3d cb e1 32 3d 8a 55 1b bc
       0.084494874 0.046802267 0.043672364 -0.009480843
000280 be 99 ed bd 57 a6 83 3e 59 0e 8f bd b1 8c 01 3e
       -0.116015896 0.25712845 -0.069851585 0.12651326
000290 e6 48 f7 bc d6 3f f4 3d f5 db 9d bd 1b ee 0c 3e
       -0.030186128 0.11926238 -0.07707969 0.13762705
0002a0 a7 71 0f be c3 fc f4 bd e2 8f 82 3e 44 75 e9 3d
       -0.14008199 -0.11962273 0.255004 0.1139932
0002b0 ff ae 6d bd 29 e5 3a bd ee d1 f8 3d dd 0f f5 3b
       -0.058028217 -0.0456287 0.12149416 0.0074786977
0002c0 08 75 3b 3e 14 be e3 3d 0a 4e 33 bc 15 c7 83 bd
       0.18306363 0.11120239 -0.010943899 -0.06434456
0002d0 10 df 93 3d d8 f1 83 3e 1e 92 9e bd 10 11 90 3e
       0.0722028 0.2577045 -0.077427134 0.28138018
0002e0 30 c4 08 be 01 7d 87 3e f7 b6 55 3b 0b 05 6a 3e
       -0.1335609 0.26462558 0.0032610276 0.22853486
0002f0 bb a2 ee bd 16 2c 93 3e b3 33 8c 3d 07 7a 07 be
       -0.11652132 0.28744572 0.06845798 -0.13230143
000300 10 d7 21 bd d6 34 a3 3e 47 8e cb 3b c5 df 73 3e
       -0.03951174 0.31876248 0.006212029 0.2381583
000310 c2 31 28 bd d4 6b f0 3d 96 96 f7 3d eb 13 20 be
       -0.041063078 0.117393166 0.12089269 -0.15632598
000320 a5 2c 8d 3d b4 45 05 be 88 54 0e 3e da d0 9c bc
       0.06893281 -0.13014871 0.13899434 -0.019142557
000330 d0 75 e1 3d 40 fe 17 3e c1 84 22 3e f1 75 0c be
       0.11008799 0.14843082 0.15870954 -0.13716866
000340 7b 8f 75 3e 24 9d ca bd 70 98 d2 bd f2 80 f7 3d
       0.23980515 -0.098932534 -0.102829814 0.12085141
000350 6d 33 4f 3d 8e 0e 07 3e c0 58 26 be 29 d3 66 3e
       0.050586153 0.13189146 -0.16244793 0.22541489
000360 2f 85 1c 3e fe fd 35 3e c4 18 9a bb d8 46 98 bc
       0.1528518 0.17772672 -0.0047026593 -0.018588468
000370 30 69 cc 3d df ac 7f 3e 47 b0 82 3e 82 f5 d2 bd
       0.099810004 0.24968289 0.25525114 -0.10300733
000380 50 42 cc 3d 1c 71 3b 3e f9 62 e4 3d f9 6d 10 be
       0.099735856 0.18304867 0.1115169 -0.14104451
000390 e0 51 4b 3d 64 fe 57 3e a1 96 34 3e 3f 61 49 3e
       0.04963863 0.21093136 0.17635585 0.19666003
0003a0 c3 63 fd 3d 67 50 8e bd c6 a4 a1 bd af ed 91 3d
       0.12372544 -0.06948929 -0.07892756 0.07125413
0003b0 b8 bc 89 bd 02 5e c5 3d e4 a1 75 3e af 77 61 3e
       -0.06725448 0.09637071 0.23987538 0.22018312
0003c0 90 9d e8 bc 91 af d6 bd e1 0a 81 3e c2 f9 f1 bd
       -0.028395444 -0.104827054 0.25203612 -0.11815216
0003d0 d5 88 56 3d 2c 50 c2 3d 7b d4 32 bc a9 bb 0e 3d
       0.052376587 0.09487948 -0.010914917 0.034846935
0003e0 ef 40 e9 3d f4 ed 81 3d 30 c5 73 3e a2 6c cc bd
       0.11389338 0.06344214 0.2380569 -0.099816576
0003f0 15 c1 a5 bc 38 af e3 3d 40 02 22 be c1 02 3e be
       -0.02023367 0.11117405 -0.15821171 -0.18555738

conv.0.weight f4 [20, 1, 5, 5]
000000 4e ff 69 3c 42 e7 8c be 3a 99 2f 3d 37 0c b0 bd
       0.014282061 -0.27520186 0.042870738 -0.0859608
000010 7a 41 dd 3d 65 a6 01 be 99 3a 2b bd 3e f0 bc 3d
       0.10803504 -0.1266113 -0.04180393 0.0922551
000020 84 37 09 be ce 9e df bd ba cf 0c be b5 16 fb bd
       -0.13400084 -0.109189615 -0.13751116 -0.122601904
000030 98 3d 7f bd eb 85 da bd 8a 47 0f 3e f8 d5 bb 3d
       -0.0623146 -0.10670074 0.13992134 0.09171671
000040 de 74 51 be 97 d9 df bd 0e 04 d8 bd 42 6a fc bd
       -0.20454738 -0.10930174 -0.10547648 -0.123249546
000050 4b 52 56 3d c7 ee 30 be a7 93 2e be 6d 65 72 be
       0.052324574 -0.17278586 -0.17048512 -0.23671503
000060 d5 b0 86 be fe 1d 54 bd 62 3a c7 b8 ca 15 6e 3c
       -0.26306787 -0.051786415 -9.499934e-05 0.014531562
000070 4f ae 12 bd 22 06 ae 3c 91 4c 94 3e 34 fe 95 3e
       -0.035810765 0.021243159 0.28964666 0.29295504
000080 68 8b f6 3d 7d a2 4e 3e 55 d0 3e 3d 95 31 89 3e
       0.120383084 0.20179172 0.0465854 0.2679564
000090 b5 cc 8c 3e 75 e4 5d 3e 94 e9 5e bd 70 c2 63 3e
       0.2749993 0.2166918 -0.054421976 0.22242141
0000a0 fe 3b 31 3e 56 34 cd bc ff 5d 77 3c 9a 0e 02 3b
       0.17308041 -0.02504937 0.015098094 0.001984513
0000b0 ef 8e 90 3b 4d e4 e8 bd c8 a2 9d bd c8 44 31 3d
       0.0044115703 -0.1137167 -0.07697064 0.043278486
0000c0 ef 66 27 be f6 4f 91 3c 21 4d e7 3d f5 a3 4b bd
       -0.1634786 0.017738324 0.11294008 -0.04971691
0000d0 cb 22 14 be 4b b0 8a 3d 22 4b 05 be b7 1d e7 bd
       -0.14466397 0.067719065 -0.13016942 -0.112849645
0000e0 bd b2 15 be a4 72 1a 3d f5 35 46 be 3d e6 48 3d
       -0.14618964 0.037706986 -0.1935652 0.049047697
0000f0 e7 f0 25 be 40 2d 7a be a6 13 c1 bd 85 a6 e6 3d
       -0.16205178 -0.24431324 -0.09427576 0.1126223
000100 7b 28 1e be 39 d7 e5 bc 43 e1 a0 bd 54 65 87 3b
       -0.1544513 -0.028056728 -0.07855465 0.0041319523
000110 29 d0 ea bc 67 6b 70 3d 9d ac 0b 3e f8 dc 8c be
       -0.028663712 0.058696177 0.13640065 -0.27512336
000120 f6 e2 3d 3e f0 1a 86 3d 6b f6 5c be f7 ef b9 bd
       0.1854361 0.06548107 -0.21578376 -0.09078973
000130 1f df 82 be e9 65 7e bd 4d d2 f6 3d 18 e8 34 be
       -0.25560853 -0.062108908 0.120518304 -0.17666662
000140 ff 90 19 be ad 84 61 3b 9f aa ed bd 59 74 b8 bd
       -0.14996718 0.0034411356 -0.11604809 -0.090065666
000150 28 e0 0b be 81 09 12 be 29 f7 3f 3d b7 1a df 3c
       -0.13659728 -0.14261438 0.04686657 0.027234418
000160 8f 66 14 3c f0 0d 52 be 53 ee 00 be 82 15 57 be
       0.009057655 -0.20513129 -0.12590913 -0.21004298
000170 4f b4 c8 3d b3 56 1c be 07 5b 8c be 57 25 78 3d
       0.09800016 -0.15267448 -0.27413198 0.060582485
000180 82 1b c1 be 72 ab f5 bd e3 1d 92 be cb 3d 5e 3c
       -0.377163 -0.11995591 -0.28538427 0.013564537
000190 db bf 00 be c7 a9 20 bc d1 d1 80 be 37 6e 72 3d
       -0.12573187 -0.009806103 -0.25160077 0.05918714
0001a0 9e 48 83 3d 00 e2 8f 3d da a7 f4 bd 8a f9 75 be
       0.06410335 0.07025528 -0.11946078 -0.24020973
0001b0 b0 0a e2 bb 1e 2c ae bd 2a b4 8d bc 26 ab 25 be
       -0.0068982467 -0.085045084 -0.017297823 -0.16178569
0001c0 af 59 18 be bc 9a 05 be c2 eb ea bd ab ea ef 3c
       -0.14877962 -0.13047308 -0.114707485 0.029286703
0001d0 5f 64 6f be 08 67 53 be 20 85 9b bd 33 5c 9f be
       -0.23378132 -0.20644772 -0.07593751 -0.3112503
0001e0 54 f7 f0 bd 36 ff 00 bd fc 75 a0 3d 3a 10 04 be
       -0.11765924 -0.031493388 0.07835004 -0.12896815
0001f0 8b 45 27 3d 2a 06 1d 3e 81 b7 c4 3d 53 9e 44 bd
       0.040837806 0.15334383 0.09605313 -0.048002552
000200 55 c9 5d 3e 95 42 35 3e b2 64 3c 3e e0 3b 44 3e
       0.21658833 0.1770118 0.18397787 0.19163465
000210 4d 93 1f 3e f2 05 91 3d 12 83 1b 3e 44 93 96 3d
       0.15583535 0.07081212 0.15186718 0.073523074
000220 78 6e 75 3d 02 a7 83 bd bd 8f cf 3d 4b 74 3e 3d
       0.059919804 -0.064283386 0.10134838 0.046497624
000230 5f 04 da 3d c6 33 a8 3d 4a f8 bb 3d a5 a3 1b bd
       0.10645365 0.08213 0.09178217 -0.03799786
000240 40 e6 39 3e 8d 99 b4 bc 13 73 50 3e f4 3d 84 3d
       0.1815424 -0.022045875 0.20356397 0.06457129
000250 97 c0 5f bc 83 37 33 3e cd d7 7a bd 2d 06 d5 3d
       -0.013656757 0.17501645 -0.06124096 0.104015686
000260 74 8c 3b 3e 48 8c 34 3e 9f a7 2e be ac 57 10 be
       0.18315297 0.17631638 -0.1705613 -0.14095944
000270 3e b6 1b 3e 98 b9 43 3d 5b 7e b0 bd 48 d2 e0 3d
       0.15206239 0.047784418 -0.086178504 0.10977608
000280 f0 03 3f be ce c3 a7 3d 70 11 0a 3e 9f db 4e be
       -0.18653846 0.08191644 0.13483214 -0.20200966
000290 58 0b cd bd cb e9 9e bd 7c 62 de bc 64 93 de bd
       -0.10011929 -0.07759436 -0.02714657 -0.10867956
0002a0 87 27 20 bd 72 60 3d be 21 47 13 be ba c2 53 be
       -0.039100196 -0.18493822 -0.14382602 -0.20679751
0002b0 55 fc 3f be d0 36 a7 3d 29 c3 eb 3c d8 32 13 be
       -0.18748601 0.081647515 0.028779583 -0.14374864
0002c0 c9 ff 54 3b c3 02 18 be 55 8e b4 3d de 5d f5 bd
       0.0032501093 -0.14844804 0.0881621 -0.11980794
0002d0 d7 a1 a1 bd 23 53 e0 3c d8 78 8b bd 56 66 ec bd
       -0.078921966 0.027383393 -0.068101585 -0.115429565
0002e0 e6 74 04 be c2 bc bb bd 93 75 69 bd b7 ae 0a 3d
       -0.12935218 -0.09166862 -0.056996893 0.033858027
0002f0 88 c5 66 be db e9 b9 bd f3 f6 ba bd 08 e3 e0 3c
       -0.2253629 -0.090778075 -0.09129133 0.027452007
000300 37 f8 53 be 07 19 c6 bd 86 ad 07 3e 0e f0 87 be
       -0.20700155 -0.09672742 0.13249788 -0.26550335
000310 ca 57 10 be 9d 30 31 be b8 84 06 be d8 78 39 3d
       -0.14095989 -0.17303701 -0.13136566 0.04528126
000320 7e bd 1f be ac 7b db 3d a0 f6 6d be 2d 35 cf bd
       -0.1559963 0.10716948 -0.23238611 -0.10117564
000330 45 af 8b 3d fb 8a ed bd ec d9 f1 bd 0d 77 b4 bd
       0.068205394 -0.11598774 -0.118091434 -0.0881177
000340 04 5a 81 bd f5 63 92 be 5f 32 45 be 9a d6 84 be
       -0.06315997 -0.28591886 -0.19257496 -0.25944978
000350 7e 7f 8d be 9c 6d 35 3d 17 0b 17 be 79 05 c6 3c
       -0.2763633 0.044293985 -0.14750324 0.024172531
000360 76 39 6a be ca 8b 97 be 9d 6e 93 3d 8a 5e b3 bc
       -0.22873482 -0.29598838 0.07198832 -0.021895666
000370 c5 f7 1e be 26 a8 ac bc 13 f3 08 bd 9e d0 c2 3d
       -0.15524204 -0.021076273 -0.03343494 0.09512447
000380 48 5b 80 bc c5 10 52 be 3b 5c 40 3c 62 69 1d be
       -0.015668526 -0.2051421 0.011740739 -0.15372232
000390 a6 dd 56 3d fa b3 9e bd 62 ff d1 3d 32 70 d3 3d
       0.052457474 -0.077491716 0.102537885 0.10324134
0003a0 98 29 d3 3c 21 da 05 be 06 56 c6 3d bf d5 7d bd
       0.02577667 -0.13071491 0.096843764 -0.061971422
0003b0 db 59 7e bd 51 8c 57 bd 69 6c 19 bd c9 31 75 3c
       -0.06209741 -0.05262405 -0.037456904 0.014965483
0003c0 73 29 79 bd 57 9c 94 bd 05 ca ae bd 15 a6 61 3d
       -0.060830545 -0.07256382 -0.08534626 0.05509003
0003d0 d0 12 96 bd 0a 2e b2 bc c1 41 cb bd e2 b6 2a 39
       -0.07327807 -0.021750469 -0.09924651 0.00016280593
0003e0 59 53 22 bd ae b5 1d bd fb f0 9b 3c 24 c6 84 3d
       -0.039630268 -0.03850334 0.019035807 0.06483105
0003f0 fb 74 e7 bc 57 26 a2 3d ed 08 02 bd 76 e5 38 3d
       -0.028254023 0.07917469 -0.031746794 0.045140706

conv.0.bias f4 [20]
000000 ef 3f 80 3d aa 98 ab bd a5 0b a1 3e ef 99 f4 3d
       0.06262194 -0.08378728 0.31454197 0.11943423
000010 0f ef f7 3d 6f 85 0c be 29 7c 8f 3e d7 80 97 3c
       0.12106144 -0.13722776 0.28024414 0.018494053
000020 0c 88 bd 3d ae b7 40 be e2 10 09 3e 83 74 3e bd
       0.092544645 -0.18820068 0.13385347 -0.046497833
000030 8e 56 18 be dc 4d b8 bd df 2e 0a 3d 34 9c 4a bd
       -0.14876768 -0.089992255 0.033736106 -0.049465373
000040 6a 19 83 be 77 29 99 bc 56 47 bc 3d 43 29 21 3e
       -0.25605327 -0.01869653 0.09193294 0.15738396

conv.2.weight f4 [20]
000000 7c bc 85 3f cc bd 90 3f 93 2d 75 3f 1a c1 89 3f
       1.0448146 1.1307921 0.95772666 1.0762055
000010 cc 61 89 3f 64 f2 90 3f d8 18 73 3f 92 7d 89 3f
       1.073297 1.1323972 0.94959784 1.0741446
000020 0e 22 89 3f 3f e7 8d 3f 7c b5 91 3f 2a b4 68 3f
       1.0713518 1.1086196 1.138351 0.9089991
000030 b6 f3 90 3f c6 0b a8 3f 34 5f 8d 3f 9a a2 94 3f
       1.1324375 1.3128593 1.1044679 1.1612122
000040 55 c8 97 3f 7a 59 84 3f 9d f9 8e 3f 69 00 79 3f
       1.1858011 1.0339806 1.1169926 0.9726625

conv.2.bias f4 [20]
000000 27 2b 02 be 14 7f 5f 3e 7f c2 03 3e d0 a9 06 be
       -0.12711774 0.2182582 0.12867163 -0.13150716
000010 72 bf 1c be ac 11 2a be 6c ac 1d 3e 74 0d 17 be
       -0.15307406 -0.16608304 0.15397805 -0.14751226
000020 92 a0 22 be ac d1 1a 3e 74 b2 30 be c3 41 25 3e
       -0.15881565 0.15119046 -0.17255574 0.16138367
000030 66 7b 0e be 25 9e d5 3d 43 9c 23 be bc e8 19 be
       -0.1391426 0.10430554 -0.15977578 -0.15030187
000040 7b ab 11 be e1 ce ef bd 21 de 0f be 63 88 0b 3e
       -0.14225571 -0.11709381 -0.14049579 0.13626246

conv.2.running_mean f4 [20]
000000 25 0e 81 bd 57 56 8f 3e ed e8 ee 3d 6a 92 94 bd
       -0.06301526 0.2799556 0.11665521 -0.07254489
000010 70 2b 6c bd 7d 37 af 3e 18 54 1f 3e 0d a4 98 bd
       -0.057658613 0.34222022 0.15559423 -0.07453165
000020 71 6e 96 bd 00 30 8e bd e7 84 04 3f 3a 13 18 bd
       -0.07345284 -0.06942749 0.5176529 -0.03712771
000030 83 97 a9 3e 65 98 cc 3e 32 75 91 bd f9 7a ab 3e
       0.33123407 0.39960018 -0.07102431 0.33492258
000040 fd 57 ed 3d 16 d8 84 bd ef bf 80 bd 48 1e 43 3d
       0.11589048 -0.064865276 -0.062866084 0.0476363

conv.2.running_var f4 [20]
000000 98 88 90 3b f8 4b 5d 3d fc 13 da 3c 70 6a b7 3b
       0.0044108145 0.054027528 0.026620857 0.005597405
000010 78 ca 94 3b 24 38 34 3d 40 8e 06 3d ef 6b 23 3b
       0.0045407377 0.043998852 0.032850504 0.002493616
000020 c5 6d a9 3b ea 65 81 3a be 82 2f 3d 00 e4 d5 3b
       0.0051705563 0.0009872292 0.042849295 0.006527424
000030 b2 d4 55 3d da 87 04 3d a4 e2 1b 3b 56 2d 1b 3d
       0.052204795 0.03235612 0.0023786211 0.037885033
000040 82 d3 ec 3c df af 6c 3b cd f1 ba 3b 97 49 5e 3c
       0.028909449 0.003611557 0.0057050944 0.01356735

conv.3.weight f4 [1, 20, 5, 5]
000000 cb 49 07 3e 22 2b 11 3e f7 ba bf 3d 9b d7 16 3e
       0.13211744 0.1417661 0.093618326 0.14730684
000010 f3 cd b4 3d ae 08 2a 3e 61 8e fc 3d 49 fd 21 3e
       0.08828344 0.16604874 0.12331844 0.15819277
000020 7f 37 ec 3d 7e d7 1d 3e 92 4d e8 3d c7 75 12 3e
       0.115340225 0.15414235 0.1134292 0.14302741
000030 88 6e fd 3d ee f5 2f 3e a8 7d 2b 3e af fd f1 3d
       0.12374598 0.17183658 0.16747153 0.118159644
000040 d9 a4 b3 3d b9 c9 d0 3d ac c6 f6 3d 1c e6 3f 3e
       0.087716766 0.101947255 0.120496124 0.18740124
000050 d0 65 da 3d 8d 30 0c 3e 7c f1 02 3e 37 fb 24 3e
       0.106639504 0.13690396 0.12787431 0.16111456
000060 39 dc 03 3e 2e 06 79 be 07 e8 06 be b3 4c 41 be
       0.12876977 -0.24318764 -0.13174449 -0.18876915
000070 5b 20 5a be ac 84 11 be b0 b1 6b be d2 ab 02 be
       -0.21301405 -0.14210767 -0.23017001 -0.12760857
000080 a0 27 13 be 25 04 7e be e4 1d 41 be ab 9b 29 be
       -0.14370584 -0.24806269 -0.18859059 -0.16563289
000090 6c 8c c4 bd d1 a1 8f 3c 37 80 6d bd 40 7e a6 bd
       -0.09597096 0.017533215 -0.057983603 -0.08129549
0000a0 a1 8f 42 be 2c ad 4c be b9 52 93 bd 3b f8 94 bd
       -0.19000103 -0.19987935 -0.071935125 -0.07273909
0000b0 3c 2c d7 bd 3f da 0d be 31 0e 3c be a8 8f 38 be
       -0.10506484 -0.13852786 -0.18364789 -0.1802355
0000c0 f5 c0 25 be db f6 0d be 91 16 0f be 0b fe 15 be
       -0.16186889 -0.13863699 -0.13973452 -0.14647691
0000d0 67 2e 27 be 07 3e ef bd fd 1c 14 be ed 05 d3 bd
       -0.16326295 -0.11681753 -0.14464183 -0.10303865
0000e0 7a f0 df bd 3f 68 36 be ff 12 41 be 47 21 da bd
       -0.10934539 -0.17813204 -0.18854903 -0.106508784
0000f0 a9 73 01 be 1e 00 01 be df ef 06 be 70 f6 02 be
       -0.12641777 -0.12597701 -0.13177441 -0.12789321
000100 6f f9 2c be 53 06 06 be ee 64 a9 bd 5a ad 21 be
       -0.16892026 -0.1308835 -0.08271204 -0.15788785
000110 2c 3f 04 be 5a d6 ee bd 72 8d 1a be ad 92 1c be
       -0.12914723 -0.11661978 -0.1509302 -0.15290327
000120 58 f3 f1 bd 11 d1 2d be cc 72 15 be 53 42 9d 3d
       -0.11813992 -0.16974284 -0.14594573 0.07678666
000130 d1 b8 c0 3d fe 27 0b 3e 60 6c 0c 3e a1 a0 08 3e
       0.09410251 0.13589475 0.13713217 0.13342525
000140 e4 64 30 3e fd 83 0d 3e 63 bb c1 3d 36 dd 16 3e
       0.17225987 0.13819881 0.09459569 0.14732823
000150 24 03 f5 3d d6 39 37 3e cc 66 03 3e fb c2 f7 3d
       0.1196349 0.17893156 0.12832183 0.120977364
000160 1c aa ef 3d 5d 96 09 3e 34 30 13 3e 35 ef c3 3d
       0.11702368 0.13436265 0.14373857 0.095671095
000170 91 46 25 3e 2f 57 11 3e e4 43 18 3e 7d 72 f1 3d
       0.161402 0.14193414 0.14869648 0.11789415
000180 5f 94 c7 3d c0 8d a3 3d ee e4 b0 3d 24 3f e0 3d
       0.097450964 0.07986021 0.08637415 0.10949543
000190 47 a5 cf 3d d3 0e 09 3d ce 49 b5 3d 67 9a d4 3d
       0.10138946 0.033461403 0.08851968 0.103810124
0001a0 10 26 f4 3d 0e b0 0a 3e dc 92 29 3e f6 31 1f 3e
       0.11921322 0.13543722 0.16559929 0.15546402
0001b0 78 4b ea 3d 37 0d e8 3d 06 87 5a 3e e1 e0 55 3e
       0.11440176 0.113306455 0.2134057 0.20886566
0001c0 8a c1 32 3e 1f e2 fb 3d eb 17 30 3e 32 e2 dd 3d
       0.17456642 0.122989886 0.17196624 0.10834159
0001d0 23 dd 37 3e 68 0d a0 3d 84 03 b7 3d 5e fc 29 3e
       0.1795545 0.07815057 0.089362174 0.16600177
0001e0 03 83 b1 3d b7 41 fc 3d 60 32 09 3e d2 6b 00 3e
       0.086675666 0.123172216 0.13398123 0.1254113
0001f0 55 18 0c 3e 12 68 8f 3d 78 a3 17 3e bd 9b 07 3e
       0.13681157 0.07002272 0.14808452 0.13243003
000200 58 b8 f1 3d 27 37 d7 3d 98 5a b7 3d 93 82 f0 3d
       0.11802739 0.10508566 0.08952826 0.11743655
000210 c7 f9 35 3e 08 c4 e5 3d 67 22 f4 3d 9d 96 18 3e
       0.17771064 0.112190306 0.11920624 0.14901204
000220 3b f3 32 3e 6b 22 51 3e a7 0e 29 3e 8a ff 1d 3e
       0.17475598 0.20423286 0.16509496 0.15429512
000230 06 6e 7f 3d d9 2a b7 3d e1 75 3f 3e 9a 75 15 3e
       0.062360786 0.089437194 0.18697311 0.14595643
000240 f3 5c e6 3d f1 a3 ab 3d de a2 ee 3d ed 51 16 3e
       0.112481974 0.08380879 0.11652158 0.1467969
000250 85 f3 76 3d e7 f2 5d 3d 4e 34 10 be f2 e1 18 be
       0.060290832 0.054186728 -0.14082453 -0.14929941
000260 aa 41 4c be d7 a1 38 be 1d 70 d5 bd 51 cb 08 be
       -0.19946924 -0.18030487 -0.104217745 -0.13358809
000270 39 5a 1b be 30 d4 de bd 12 fa ed bd d1 07 e6 bd
       -0.15171136 -0.10880315 -0.11619963 -0.112319596
000280 c2 14 bc bd 2c 0e 09 be c3 09 37 be be 2c e6 bd
       -0.09183647 -0.13384312 -0.17874818 -0.11239003
000290 3d 14 ef bd 75 12 1e be 36 82 4a be 93 55 47 be
       -0.11673782 -0.15436728 -0.19776234 -0.19466238
0002a0 d0 49 20 be c0 f3 12 be e6 60 2f be e5 53 30 be
       -0.15653157 -0.14350796 -0.17126808 -0.17219503
0002b0 a5 40 35 be 2f a6 9e bd 8a e6 b4 bd 62 b5 c1 3d
       -0.17700441 -0.07746541 -0.08833034 0.09458424
0002c0 32 4e 0e 3e eb 4a eb 3d a1 e2 da 3d e0 fd 20 3e
       0.13897017 0.11488899 0.10687757 0.15721846
0002d0 e8 fc 54 3e b7 e0 07 3e 9b cf af 3d 72 37 dc 3d
       0.20799601 0.13269316 0.085845195 0.10752763
0002e0 6b 49 1d 3e f6 f1 0d 3e fd 73 20 3e 4c 2b 12 3e
       0.15360038 0.13861832 0.15669246 0.14274329
0002f0 a3 1d 16 3e d3 1c 1c 3e c0 9f 0e 3e 89 c1 3f 3e
       0.14659743 0.1524537 0.13928127 0.18726172
000300 4a b0 37 3e 92 03 2c 3e 1d be 0e 3e b0 89 85 3d
       0.17938343 0.16798237 0.1393971 0.065204024
000310 f4 95 fd 3d de cd 0b 3e a1 0c 07 3e 55 06 1f 3e
       0.12382117 0.13652751 0.13188411 0.15529759
000320 60 77 63 3d e0 39 8d 3d eb 2c 8a 3b 6b 5a a4 3d
       0.055533767 0.068958044 0.0042167804 0.08025058
000330 f2 ee f6 3d c1 a2 f4 3d 3e 28 1c 3e ff 36 a0 3d
       0.12057294 0.11945105 0.15249726 0.0782299
000340 29 b4 0a 3e a9 a2 24 3e 7a ed 2a 3e b7 8e 23 3e
       0.13545288 0.16077675 0.16692153 0.1597241
000350 6b 40 04 3e 15 85 04 3e 3e 4e 2a 3e 79 11 f3 3d
       0.12915199 0.12941392 0.1663141 0.11868567
000360 de 09 3e 3e bc 0e 40 3e d6 47 ff 3d 88 1c c7 3d
       0.18558452 0.1875562 0.124648735 0.09722239
000370 c7 62 09 3e 0b 47 de 3d c8 bd 10 3e e9 99 ae 3d
       0.13416587 0.10853394 0.14134896 0.0852545
000380 fa 9b fd 3d 75 07 e6 bd 5b e4 04 be d7 ac 14 be
       0.12383266 -0.11231891 -0.12977736 -0.14519058
000390 f4 ed 20 be 95 1d 07 be 8d d3 e6 bd 80 29 1f be
       -0.15715772 -0.13194878 -0.11270819 -0.15543175
0003a0 55 b3 24 be b9 66 fe bd 00 ee 39 be 4d 01 07 be
       -0.16084035 -0.124219365 -0.18157196 -0.1318409
0003b0 40 95 03 be ae 56 c7 bd a7 7a 0c be 81 27 1a be
       -0.12849903 -0.0973333 -0.13718663 -0.15054132
0003c0 25 de 05 be 12 89 12 be 1b ac b6 bd 98 66 18 be
       -0.13073023 -0.143101 -0.08919545 -0.14882886
0003d0 c8 92 d5 bd 33 60 9f bd fa db 22 be 7f a1 1d be
       -0.10428387 -0.077820204 -0.15904227 -0.15393637
0003e0 52 b6 27 be 6f c6 fd bd aa d4 79 3d a5 02 b0 3d
       -0.16378143 -0.12391364 0.060993828 0.085942544
0003f0 6e 5c 16 3e 76 5a f6 3d ae 00 b1 3d e3 68 bd 3d
       0.14683697 0.12028973 0.08642708 0.09248521
