src/caches/cache_16_20_big/param2img3.pt (torch, 184864 bytes, 19 tensors)

main.0.weight f4 [16]
0	0x3f53c9d3	0.82729834
1	0x3f575e14	0.84127927
2	0x3f512bd4	0.817075
3	0x3f69bd18	0.9130416
4	0x3f4e1119	0.8049484
5	0x3f82023f	1.0156935
6	0x3f9082fe	1.1289976
7	0x3f725597	0.9466185
8	0x3f7fac16	0.9987196
9	0x3f80b763	1.0055965
10	0x3f899638	1.0748968
11	0x3f84973a	1.0358651
12	0x3f5ee460	0.8706722
13	0x3f550784	0.8321459
14	0x3f51b9c4	0.8192408
15	0x3f7c5e1a	0.9858109

main.0.bias f4 [16]
0	0xbd15a5d7	-0.03653511
1	0xbdea83ee	-0.11450945
2	0xbdef03f4	-0.11670676
3	0x3ddb7c91	0.107171185
4	0x3ddb392f	0.10704266
5	0x3d08f3a6	0.033435486
6	0xbdc7a023	-0.097473405
7	0x3de2c75e	0.110731825
8	0xbd2e61bc	-0.042573676
9	0x3ddc5765	0.10758857
10	0x3c9f2b1c	0.019429736
11	0xbe4bdc0a	-0.19908157
12	0x3e2952cf	0.16535495
13	0xbe104679	-0.14089383
14	0x3e39e66a	0.18154302
15	0x3de8060b	0.113292776

main.0.running_mean f4 [16]
0	0xb5ecb5cc	-1.763628e-06
1	0xb797313e	-1.8023533e-05
2	0x3e4ccdfa	0.20000449
3	0xbbf73993	-0.007544705
4	0x3c2e43df	0.010636299
5	0x3ad7bb17	0.0016458955
6	0x3efce832	0.493959
7	0xbbf65ba8	-0.0075182505
8	0x3cae6952	0.021290455
9	0x3ad977cb	0.0016591487
10	0x3efce8f1	0.4939647
11	0xbbf783f1	-0.0075535704
12	0x3d03080c	0.031990096
13	0xb68510a0	-3.9656443e-06
14	0x3e4cd6f9	0.2000388
15	0xbbf71d49	-0.007541333

main.0.running_var f4 [16]
0	0x35805518	9.561509e-07
1	0x358c1c19	1.043899e-06
2	0x3586a6dc	1.003234e-06
3	0x3b036367	0.0020048262
4	0x37868ae3	1.6038719e-05
5	0x391519bf	0.00014219338
6	0x3d988906	0.0744801
7	0x3b033c8a	0.0020025098
8	0x3880f8a1	6.1498264e-05
9	0x3914d22a	0.00014192672
10	0x3d988d9f	0.07448887
11	0x3b03811b	0.0020065967
12	0x390f9175	0.0001369173
13	0x358218a5	9.692927e-07
14	0x35875d11	1.008537e-06
15	0x3b0371ac	0.0020056767

main.1.weight f4 [20, 16]
0	0x3c249323	0.010044846
1	0xbd005c16	-0.03133782
2	0xbd19642c	-0.037449047
3	0x3ca34d10	0.019934207
4	0x3df042a3	0.1173146
5	0x3d9cc077	0.07653897
6	0xbe6d2b38	-0.23161018
7	0x3d2dd4bb	0.042439204
8	0xbd97ceef	-0.07412516
9	0xbdf91c91	-0.12163652
10	0xbe9a45d8	-0.30131412
11	0x3d1ae644	0.037817255
12	0xbdb34bc4	-0.087546855
13	0xbc63a796	-0.013894936
14	0xbcc60efb	-0.024177065
15	0xbdce4325	-0.100714006
16	0xbd48fd0c	-0.04906945
17	0xbd851511	-0.06498159
18	0xbd3010ea	-0.04298488
19	0xbd02872a	-0.031867184
20	0xbe02b9b4	-0.12766153
21	0xbe3532fa	-0.17695227
22	0xbdfa4dab	-0.12221845
23	0x3dddb826	0.10826139
24	0x3db6a5ec	0.08918366
25	0xbeaf9b79	-0.34298304
26	0x3e908299	0.28224638
27	0xbc2f26da	-0.010690415
28	0xbe433b7b	-0.19065659
29	0xbbf6c587	-0.0075308713
30	0x3d6fb9f0	0.058526933
31	0x3d537e1c	0.05163394
32	0x3d62f1b2	0.05540628
33	0x3c510e3c	0.012759741
34	0x3d943370	0.072363734
35	0x3e180778	0.14846599
36	0x3d35c146	0.044373773
37	0xbddec730	-0.10877836
38	0x3eb4368d	0.3519787
39	0x3ca5a2e6	0.020219278
40	0xbd079ffd	-0.03311156
41	0x3e36e9d0	0.1786263
42	0x3e95edac	0.29282892
43	0xbd142450	-0.036167443
44	0x3e48fda7	0.1962801
45	0xbc7ef0de	-0.015560357
46	0xbd4353b5	-0.04768725
47	0x3da7574f	0.0817095
48	0x3d156ef8	0.03648278
49	0xbd04c4c2	-0.032414205
50	0x3dac8347	0.08423477
51	0xbdcb9577	-0.099406175
52	0xbdfe63a8	-0.12421352
53	0xbcad3db2	-0.021147583
54	0x3e475d73	0.19469242
55	0x3d536dd4	0.051618412
56	0x3d1f0252	0.038820572
57	0x3e11a358	0.14222467
58	0x3d505671	0.050863687
59	0x3e57016c	0.20996636
60	0xbe2452f0	-0.16047263
61	0x3a4f9619	0.00079187896
62	0x3c1bb622	0.009503873
63	0xbdf1c337	-0.118048124
64	0x3c096292	0.008385317
65	0x3c8aff46	0.016967427
66	0x3d142505	0.036168117
67	0xbe644b40	-0.2229433
68	0xbd33eba5	-0.0439259
69	0xbe856692	-0.26054817
70	0xbdabc7dc	-0.083877295
71	0x3cafa816	0.021442454
72	0xbd86b603	-0.06577685
73	0x3d42e480	0.047581196
74	0xbe5225bb	-0.20522206
75	0x3e39a57d	0.18129535
76	0x3dfd6c08	0.12374121
77	0xbbfd57ee	-0.0077314293
78	0xbc9fe5ad	-0.019518698
79	0x3d842343	0.06452038
80	0xb89d3c16	-7.497535e-05
81	0x3c8f81a4	0.017517872
82	0x3ca39c46	0.019971978
83	0x3e354302	0.17701343
84	0xbc3dd6dd	-0.011586872
85	0x3da04727	0.07826071
86	0xbc308960	-0.01077494
87	0xbe402667	-0.1876465
88	0x3d2ce040	0.04220605
89	0xbe0e48c5	-0.13894947
90	0xbe17f850	-0.14840817
91	0xbd9aaaff	-0.07552146
92	0x3e6ce060	0.23132467
93	0xbb9de793	-0.0048188656
94	0xbc3064f0	-0.010766253
95	0x3d85858c	0.06519613
96	0x3b958c2f	0.0045638303
97	0xbce0b4aa	-0.027429897
98	0xbc39b528	-0.011334695
99	0xbc37ee89	-0.011226305
100	0x3e05aa2d	0.13053198
101	0x3e6738cd	0.22580262
102	0x3e4223e5	0.18959005
103	0x3de5cfde	0.11221288
104	0x3e89b065	0.2689239
105	0x3e6a1806	0.22860727
106	0xbdf8b2d4	-0.12143484
107	0xbd15cbdf	-0.03657138
108	0x3d0e8705	0.034796733
109	0xbc0ba3a4	-0.008522902
110	0x3d5db242	0.054125078
111	0xbdb852d9	-0.09000177
112	0xbc6dedc1	-0.014522017
113	0xbbb2ab7f	-0.005452573
114	0x3c057fb3	0.008148122
115	0x3e466494	0.19374305
116	0x3d601409	0.054706607
117	0x3d8a9737	0.06767123
118	0x3e0a8b54	0.13529712
119	0xbe605875	-0.21908744
120	0x3ddd2d98	0.10799712
121	0xbd97f52c	-0.0741981
122	0xbe492f27	-0.19646893
123	0x3e0710b4	0.13189965
124	0x3d62a53b	0.055333357
125	0xbb07ab1f	-0.0020701361
126	0x3a140589	0.0005646577
127	0xbd8a4b0b	-0.067525946
128	0xbb81249d	-0.003941132
129	0x3d4c3d36	0.049863063
130	0xbb917e12	-0.0044400776
131	0x3e262dc7	0.162284
132	0xbd0ee1fc	-0.034883484
133	0x3db2135a	0.08695097
134	0x3e440b0c	0.19144839
135	0xbe1c5a35	-0.15268786
136	0x3d989525	0.07450322
137	0x3e876412	0.26443535
138	0x3dd1c704	0.10243037
139	0xbe45b385	-0.19306763
140	0xbc1af63b	-0.00945812
141	0x3d1ed213	0.03877456
142	0xbc1d642c	-0.009606402
143	0x3d82f4e2	0.06394364
144	0xbd4e1e58	-0.050321907
145	0x3cf7979b	0.030223658
146	0x3c6b2f24	0.014354501
147	0xbdb8d4dc	-0.09024975
148	0x3deff879	0.11717314
149	0x3d810403	0.06299593
150	0x3cc22a73	0.023701882
151	0xbe18783b	-0.14889614
152	0x3c448764	0.01199517
153	0x3c9173aa	0.017755348
154	0x3e536a9f	0.20646141
155	0x3e5e3956	0.2170156
156	0xbe40e6d7	-0.18838058
157	0x3b9a2a71	0.0047047664
158	0xbcf97ddf	-0.030455528
159	0x3df9a023	0.12188747
160	0x3bdb7c46	0.006698164
161	0x3c46b052	0.012126999
162	0x3ccd5abf	0.025067685
163	0x3e1bb78c	0.15206736
164	0x3c31b4e1	0.010846348
165	0x3e62c4bf	0.22145365
166	0xbde1da74	-0.11027995
167	0xbe5044e8	-0.20338786
168	0x3d767d3d	0.06017803
169	0x3e9cbc33	0.30612335
170	0x3e8664c2	0.26248747
171	0xbcece395	-0.028917113
172	0xbdec719b	-0.11545106
173	0x3c5572df	0.013027876
174	0xbd3858da	-0.04500661
175	0x3dd35013	0.10318007
176	0xbcec78f5	-0.02886627
177	0xbc2d7186	-0.010586148
178	0xbc221520	-0.009892732
179	0x3cdee7f0	0.027210206
180	0x3d362fe4	0.044479266
181	0xbe0c8f27	-0.13726483
182	0x3e53bf55	0.20678456
183	0xbe7506ee	-0.23928425
184	0x3cbbbd23	0.022917336
185	0x3de200b6	0.11035292
186	0x3ea7777d	0.3270835
187	0x3dee851b	0.116464816
188	0x3ddedb8a	0.108817175
189	0xbc46b8e9	-0.012129047
190	0x3c812566	0.015764903
191	0xbe718e1f	-0.23589371
192	0xbc8da4e1	-0.017290534
193	0x3c8d0f98	0.01721935
194	0xbcf5b04f	-0.029991297
195	0xbac9f4a5	-0.0015407993
196	0x3bff910d	0.007799274
197	0xbc5da2d8	-0.0135275945
198	0x3e04a622	0.12954
199	0x3e454173	0.19263248
200	0xbd761ce2	-0.06008614
201	0x3e806932	0.25080258
202	0x3e826543	0.25467882
203	0xbe024aec	-0.12723893
204	0x3ce79fce	0.028274443
205	0xbc9e69de	-0.01933759
206	0x3cd9a274	0.026566721
207	0xbdce3c42	-0.10070087
208	0xbb918712	-0.0044411505
209	0x3b918660	0.0044410676
210	0xbc708b5b	-0.014681662
211	0x3c8470b4	0.016167022
212	0x3cabe2f7	0.020982249
213	0x3e8b12e6	0.27162856
214	0xbd353d03	-0.04424764
215	0x3e4faf12	0.20281628
216	0x3cd530e8	0.026024297
217	0x3eadf54d	0.33976212
218	0x3e0f59bf	0.13999079
219	0xbe399292	-0.18122318
220	0x3e5ba0c6	0.21448049
221	0x3c9afa15	0.018918077
222	0xbd589670	-0.052877843
223	0x3c6de36d	0.014519555
224	0x3d444494	0.047916964
225	0x3bbacd46	0.00570074
226	0xbc3ab3b6	-0.0113953855
227	0xbe60b9a9	-0.21945824
228	0x3daefa7a	0.08543868
229	0x3dedb5a3	0.1160691
230	0x3e951b11	0.29122213
231	0x3ddadf83	0.10687163
232	0xbdf912cf	-0.121617906
233	0xbdecf167	-0.11569481
234	0x3e9ab9a1	0.3021975
235	0x3e1c8b4f	0.15287517
236	0xbe3d6c43	-0.1849833
237	0xbcdd8cf2	-0.027044747
238	0xbd904389	-0.07044131
239	0xbe0c3569	-0.1369225
240	0x3a81d3fc	0.0009905095
241	0xbb1932b0	-0.002337616
242	0x3c3655ed	0.011128885
243	0xbd3de725	-0.046363015
244	0x3c52fc44	0.012877528
245	0xbe8623cb	-0.26199183
246	0xbe2fc7ea	-0.17166105
247	0xbe0d53ea	-0.13801542
248	0x3da34e0e	0.07973872
249	0x3cf6b4c4	0.030115493
250	0xbe3e2f4a	-0.18572727
251	0x3e45fea4	0.19335419
252	0x3c9e277f	0.019305943
253	0x3b792d44	0.0038021365
254	0x3bdc4a41	0.006722719
255	0xbd530f04	-0.051527992

main.1.bias f4 [20]
0	0xbeafc036	-0.34326333
1	0x3e12f083	0.1434956
2	0xbc84e76b	-0.01622363
3	0xbdf31a90	-0.11870301
4	0x3e4814b2	0.19539145
5	0xbe9d39b8	-0.30708098
6	0xbe68087b	-0.22659485
7	0xbe9ee6ab	-0.3103536
8	0x3e02e75b	0.12783568
9	0xbe878684	-0.26469815
10	0x3e236aa5	0.1595865
11	0xbd4e248a	-0.050327815
12	0x3e5de6c7	0.21670066
13	0x3e2f10dd	0.17096277
14	0x3d2254b3	0.039631557
15	0xbe336ccd	-0.17521973
16	0x3e724742	0.23659995
17	0xbdb02812	-0.08601393
18	0xbe1254e8	-0.14290202
19	0xbed30449	-0.41214207

main.3.weight f4 [20]
0	0x3f6e7ff4	0.9316399
1	0x3f6176bb	0.88071793
2	0x3f71feb9	0.945293
3	0x3f74755d	0.9549158
4	0x3f8ab5ae	1.0836694
5	0x3f6fe951	0.9371539
6	0x3f6cb6d0	0.9246645
7	0x3f80bcbd	1.0057598
8	0x3f706054	0.93896985
9	0x3f8260ec	1.0185828
10	0x3f69dceb	0.9135272
11	0x3f6eb2cf	0.9324159
12	0x3f7ea3a8	0.9946847
13	0x3f793c2b	0.97357434
14	0x3f813dde	1.0097005
15	0x3f8ef0ed	1.1167275
16	0x3f741858	0.95349646
17	0x3f66d795	0.901727
18	0x3f6a3a6a	0.9149538
19	0x3f7090ca	0.9397093

main.3.bias f4 [20]
0	0xbe36272b	-0.17788379
1	0xbdb59301	-0.088659294
2	0x3e5fa3bc	0.21839803
3	0xbe112f7c	-0.1417827
4	0xbd14db7d	-0.036342133
5	0xbe0a5342	-0.13508323
6	0xbd9b1db2	-0.07574023
7	0x3c932fea	0.017967183
8	0xbd502095	-0.050812323
9	0xbdcb012e	-0.099123344
10	0xbe653069	-0.22381748
11	0x3e17e8d9	0.14834918
12	0xbe1396d8	-0.14413011
13	0x3e29cc74	0.16581899
14	0xbdc7f961	-0.09764362
15	0xbe4457d0	-0.19174123
16	0x3cdc361f	0.026881276
17	0xbe069d04	-0.13145834
18	0xbd824261	-0.06360317
19	0xbe26e152	-0.1629689

main.3.running_mean f4 [20]
0	0x3cc1e386	0.023668062
1	0x3e895596	0.2682311
2	0x3e8929ae	0.26789612
3	0xb884a7eb	-6.325528e-05
4	0x3e663c36	0.22483906
5	0xbd0df3b5	-0.034656245
6	0x3dbfbc65	0.09362105
7	0xbd92aa55	-0.071613945
8	0x3e89004b	0.26758036
9	0xbd64e3d4	-0.055881336
10	0x3e9b4017	0.30322334
11	0x3e25442e	0.1613929
12	0x3eb5bbbe	0.35494798
13	0x3edae300	0.42751312
14	0x3e43622e	0.19080421
15	0x3cde0447	0.027101649
16	0x3e9dcc9e	0.30820173
17	0x3e0cb9f1	0.13742806
18	0x3d3b35a9	0.04570547
19	0xbdb322d9	-0.08746881

main.3.running_var f4 [20]
0	0x3d94ddde	0.0726888
1	0x3e249533	0.1607254
2	0x3e6fe937	0.23428808
3	0x3cd591c2	0.02607048
4	0x3daf0270	0.08545387
5	0x3c325bc4	0.010886136
6	0x3dcff881	0.1015482
7	0x3acceb01	0.0015634001
8	0x3e06789e	0.1313195
9	0x3c0426a0	0.00806585
10	0x3e1f817c	0.15576738
11	0x3e1ce619	0.1532215
12	0x3e1a7bed	0.15086336
13	0x3e841a8d	0.25801507
14	0x3e434435	0.19068988
15	0x3d572f46	0.052535318
16	0x3df6ef0e	0.12057315
17	0x3db3adbe	0.08773373
18	0x3d60252a	0.054722942
19	0x3c1d69fa	0.009607786

main.4.weight f4 [2048, 20]
0	0xbc0aa5bc	-0.008462366
1	0xbda8301f	-0.08212303
2	0x3e6a0335	0.22852786
3	0x3da8b093	0.08236804
4	0xbe7a2f04	-0.24431998
5	0xbe2bd582	-0.16780666
6	0x3e811e76	0.25218552
7	0xbdfd8aa1	-0.12379957
8	0x3c9501fa	0.018189419
9	0x3dde7354	0.10861841
10	0xbdd61514	-0.10453239
11	0x3e042235	0.12903674
12	0xbe085fe4	-0.1331783
13	0x3e52d5f3	0.20589428
14	0x3e1adfc7	0.15124427
15	0xbe3eb3ee	-0.18623325
16	0xbd311d09	-0.04324058
17	0xbe802197	-0.25025627
18	0xbe3e730f	-0.18598579
19	0xbbb894dd	-0.0056329803
20	0x3bed3bbd	0.0072397874
21	0x3dc78b5f	0.0974338
22	0xbdc0f376	-0.094214365
23	0x3e395fb7	0.18102919
24	0x3db3c3c6	0.08777575
25	0xbe5a8c15	-0.213425
26	0xbea0bebb	-0.31395516
27	0xbd0392b2	-0.03212232
28	0x3e6b7557	0.2299398
29	0x3e74e523	0.23915534
30	0xbe136a8b	-0.14396112
31	0x3d55cc7d	0.05219697
32	0x3eac6aa7	0.3367512
33	0x3de43183	0.11142256
34	0xbdaec528	-0.08533698
35	0xbea42898	-0.3206222
36	0xbe790a58	-0.24320352
37	0xbeabdd4a	-0.33567268
38	0xbe97cfee	-0.29650825
39	0x3e62a827	0.22134458
40	0xbe145e3f	-0.14489077
41	0xbc820f33	-0.015876388
42	0xbda5e8a2	-0.08101012
43	0xbe9e0e69	-0.3087037
44	0x3e051a1e	0.12998244
45	0x3e6ac698	0.2292732
46	0xbe405639	-0.18782891
47	0x3e0fce49	0.14043535
48	0xbea3f06b	-0.32019362
49	0xbeb2562e	-0.34831375
50	0xbe93d31a	-0.28871995
51	0xbe8ecc6b	-0.27890334
52	0xbc028ad4	-0.0079676695
53	0xbea488d6	-0.32135648
54	0xbe45e282	-0.19324687
55	0x3d84a14a	0.06476076
56	0x3e3a6bd1	0.18205191
57	0x3ddfd760	0.109297514
58	0x3e9876eb	0.29778227
59	0xbedeb879	-0.43500116
60	0xbcdea5c3	-0.02717865
61	0xbb0a40c3	-0.002109573
62	0x3dcdc9d4	0.10048261
63	0xbcf2ced7	-0.029639645
64	0x3de1af2f	0.11019742
65	0x3e5cb233	0.21552353
66	0x3e1bee9c	0.15227741
67	0x3e754169	0.23950733
68	0xbd2704bf	-0.04077601
69	0xbecb2c58	-0.3968227
70	0xbe1ffaba	-0.15622988
71	0x3e632f90	0.22186112
72	0xbec1bd04	-0.3783952
73	0x3aab0cc4	0.0013050069
74	0xbe230352	-0.15919235
75	0x3e46b2a0	0.19404078
76	0xbbc80b85	-0.006104889
77	0x3e10bec5	0.14135273
78	0xbe11b181	-0.14227869
79	0xbecf0adf	-0.4043798
80	0xbe21cd03	-0.15800862
81	0xbdd31411	-0.10306562
82	0x3be9ce4d	0.0071351887
83	0x3e849a9b	0.25899205
84	0xbe8a15ca	-0.2696975
85	0x3e03d73d	0.12875076
86	0xbe88610a	-0.26636535
87	0xbe5a5cac	-0.21324414
88	0x3d8cb5a3	0.06870582
89	0x3e9a2051	0.3010278
90	0xbde7d8f4	-0.113206774
91	0x3dbf6bd3	0.09346738
92	0x3e472c91	0.19450594
93	0x3e2a96c5	0.16659077
94	0xbe065ed7	-0.13122116
95	0xbd1c6e39	-0.038191054
96	0xbdfa9bff	-0.12236785
97	0xbe845705	-0.2584764
98	0xbe4f67db	-0.20254461
99	0xbe089712	-0.13338879
100	0x3d4810b6	0.04884406
101	0x3d3e01e0	0.046388507
102	0xbdf5d739	-0.12003941
103	0xbddcdcbf	-0.107842915
104	0x3e2c0a85	0.16800888
105	0x3d768239	0.060182784
106	0xbe9f824f	-0.31154105
107	0xbc87abc7	-0.016561402
108	0xbe6aa2e2	-0.22913697
109	0x3d8faea4	0.07015732
110	0xbe8727f2	-0.26397663
111	0xbe879b0e	-0.26485485
112	0x3d99013b	0.07470938
113	0xbe9d176e	-0.30681938
114	0x3e25373b	0.1613435
115	0xbe5f9d20	-0.21837282
116	0x3cab0a96	0.020879071
117	0xbe2b806b	-0.16748206
118	0x3d680ba1	0.056651715
119	0x3d2c44ee	0.042057924
120	0xbcc6eb72	-0.024282191
121	0xbe818418	-0.25296092
122	0x3d8d50bf	0.06900167
123	0x3e4c22ca	0.19935146
124	0x3adf3c9e	0.0017031615
125	0xbc418264	-0.011810873
126	0x3e7288df	0.23685025
127	0x3c518a0c	0.012789261
128	0xbdb734c0	-0.08945608
129	0x3e0488c5	0.12942798
130	0x3e2c0d5f	0.16801976
131	0xbddcf6b4	-0.107892424
132	0xbe2b0934	-0.1670273
133	0x3eb0b671	0.34514192
134	0xbc50562d	-0.012715858
135	0xbe06d291	-0.13166262
136	0x3e755507	0.23958217
137	0xbdf62be3	-0.120200895
138	0x3da82fe1	0.08212257
139	0x3e0225b1	0.1270969
140	0xbdd31dc5	-0.103084125
141	0x3c8e3160	0.017357528
142	0x3d557ee5	0.05212297
143	0x3da269ea	0.07930358
144	0xbe4a590c	-0.19760531
145	0x3d08795f	0.033318873
146	0xbe3030ab	-0.17206065
147	0x3b234b92	0.002491687
148	0x3d977928	0.073961556
149	0x3e2dc340	0.16969013
150	0x3e1a73a8	0.15083182
151	0x3e41617f	0.18884848
152	0x3e8279e9	0.25483635
153	0xbc974367	-0.018464757
154	0x3e04f9b9	0.12985887
155	0xbcb1c550	-0.021700531
156	0xbdca8eb4	-0.098905
157	0x3b296093	0.0025844916
158	0x3b964807	0.004586223
159	0x3e5c0603	0.21486668
160	0xbc099a47	-0.008398599
161	0xbe2a6b03	-0.16642384
162	0xbe83fe76	-0.25780076
163	0xbe825197	-0.25452873
164	0x3ddfe2f3	0.10931959
165	0x3d9a4463	0.07532575
166	0xbdf3b5d4	-0.11899915
167	0x3e423064	0.18963772
168	0xbdaefdbf	-0.08544492
169	0xbe74a818	-0.23892248
170	0xbe4bff45	-0.19921596
171	0x3c1fd1a8	0.009754576
172	0xbdcc6ae8	-0.09981328
173	0xbdd4aad1	-0.10384143
174	0xbc84bcb2	-0.016203258
175	0x3eaa477c	0.33257663
176	0x3e93532f	0.28774402
177	0x3b09231f	0.0020925475
178	0x3eb0a06a	0.34497386
179	0xbe95b8d6	-0.2924258
180	0xbddf8f73	-0.10916033
181	0xbd39100a	-0.04518131
182	0x3e63a324	0.22230202
183	0xbd04d973	-0.03243394
184	0xbd9bc1eb	-0.07605346
185	0xbbc0e243	-0.0058863475
186	0x3e0a572a	0.13509813
187	0xbd251428	-0.040302426
188	0xbe2d5be7	-0.16929589
189	0x3dede399	0.116156764
190	0xbe923ba2	-0.2856112
191	0x3e795fe2	0.24352983
192	0x3e361be6	0.1778408
193	0x3dae1764	0.08500555
194	0x3e68c63f	0.22731875
195	0xbd87b99a	-0.066271976
196	0xbe12ad21	-0.14323856
197	0x3ccf9824	0.025341101
198	0x3dbed95b	0.09318801
199	0x3e4d201a	0.20031777
200	0xbe72c107	-0.23706447
201	0xbe891611	-0.26774648
202	0xbbc64944	-0.0060512144
203	0xbdf2ef43	-0.11862042
204	0xbe1f9524	-0.15584236
205	0xbd961ecc	-0.07330093
206	0x3e31a9f0	0.17349982
207	0x3c01b7d0	0.0079173595
208	0x3e83c677	0.25737354
209	0xbe40a728	-0.18813765
210	0xbe8661bc	-0.2624644
211	0x3e5141ad	0.2043521
212	0xbe10bc0c	-0.14134234
213	0xbd7c0538	-0.061528414
214	0xbde8c1f8	-0.113651216
215	0xbe5e1483	-0.21687512
216	0x3e899c85	0.26877227
217	0x3e4ce713	0.20010023
218	0xbe58990e	-0.21152136
219	0xbd4ed393	-0.05049474
220	0xbe09aedb	-0.13445608
221	0xbca4270e	-0.020038154
222	0x3e2b3642	0.16719916
223	0xbe9b8444	-0.30374348
224	0x3d73d2e9	0.05952731
225	0x3ea1c620	0.3159647
226	0xbd4d6eb8	-0.050154418
227	0x3dcf58d7	0.10124367
228	0xbe771299	-0.24128188
229	0xbea5f970	-0.32416868
230	0xbe1d90d9	-0.15387286
231	0x3e1277ba	0.14303485
232	0xbdf87033	-0.12130775
233	0x3d559b88	0.05215028
234	0xbe9c3f31	-0.3051696
235	0x3e4e6ae7	0.20157968
236	0x3ecb5351	0.39712003
237	0x3dadbcf6	0.08483307
238	0xbde307c8	-0.110854685
239	0xbe8807e1	-0.2656851
240	0xbe05e653	-0.13076143
241	0xbe02616a	-0.12732473
242	0x3de105ce	0.10987435
243	0xbdbf949a	-0.093545154
244	0xbc737c91	-0.014861242
245	0xbe92bd78	-0.28660178
246	0xbdadb213	-0.084812306
247	0xbdcf9e7a	-0.10137649
248	0x3e781329	0.24226059
249	0x3e93d1dc	0.28871047
250	0x3ceac888	0.028660074
251	0x3e81e432	0.25369412
252	0x3e50a246	0.20374402
253	0x3e5dee99	0.21673049
254	0x3d0ccdab	0.034375828
255	0x3cfdb3ed	0.030969584

main.4.bias f4 [2048]
0	0x3d85b952	0.06529488
1	0x3ea4c051	0.32177976
2	0xbc57f27e	-0.013180373
3	0x3e388afb	0.18021767
4	0xbda97d93	-0.082759045
5	0x3e33b0f6	0.17547974
6	0x3ea7bfbd	0.32763472
7	0x3c1b4c96	0.009478709
8	0x3d331b4b	0.0437272
9	0xbdc6b5eb	-0.09702667
10	0xbdd02e0c	-0.10165033
11	0xba31d8a7	-0.0006784298
12	0x3e44ebe4	0.1923061
13	0xbd827aa4	-0.06371048
14	0xbcd0ebc7	-0.025503052
15	0x3bb07c49	0.0053859097
16	0x3e0d2e8f	0.13787292
17	0x3e9fc93a	0.3120821
18	0xbdd0ebf9	-0.10201258
19	0x3e6ea581	0.23305322
20	0x3e2f1163	0.17096476
21	0x3d773afb	0.060358983
22	0x3d007493	0.031361174
23	0x3e8bbfc9	0.27294758
24	0x3ceb8341	0.02874911
25	0x3e26179d	0.16219945
26	0xbd84dc1e	-0.064872965
27	0x3e86f2cc	0.26357114
28	0x3e100d8d	0.14067669
29	0xbc836c69	-0.016042905
30	0xbdd3817b	-0.10327431
31	0xbc424989	-0.011858352
32	0x3e882f76	0.2659871
33	0x3ea21879	0.31659296
34	0x3e40965a	0.18807355
35	0x3e3b51f9	0.18292989
36	0x3d8aebcc	0.06783256
37	0xbdb490fb	-0.08816715
38	0x3d0a7719	0.033804987
39	0x3e470f37	0.19439398
40	0xba12dec6	-0.0005602654
41	0x3dfb5f3a	0.122740224
42	0x3de9153a	0.11381002
43	0x3d06dc77	0.032925095
44	0x3e1c1fbc	0.1524648
45	0xbde8149a	-0.113320544
46	0xbb33bf1f	-0.002742715
47	0x3c2af7d4	0.010435063
48	0x3ce428a4	0.02785141
49	0x3e45be52	0.19310883
50	0xbc8c6c6b	-0.017141541
51	0x3ea18ac8	0.31551194
52	0x3e3119da	0.17295018
53	0x3ea043f0	0.31301832
54	0xbd323945	-0.043511648
55	0x3d7c3147	0.061570432
56	0x3d432e86	0.04765179
57	0x3e9d75e8	0.30754018
58	0xbd300862	-0.042976744
59	0x3e39bdd8	0.18138826
60	0x3d4d7fa0	0.05017054
61	0x3e117d23	0.14207892
62	0x3e551f9e	0.20812842
63	0xbd868a27	-0.06569319
64	0x3e9592e4	0.2921363
65	0xbd3affb1	-0.045654003
66	0xbd8555f5	-0.06510536
67	0x3e9f81a2	0.3115359
68	0xbdb5727f	-0.08859729
69	0x3d054d5b	0.032544475
70	0x3e6e08e1	0.23245575
71	0x3dd1e9ff	0.10249709
72	0x3e2fa994	0.17154533
73	0x3e9a810c	0.3017658
74	0xbdadb0b1	-0.08480967
75	0x3e71c326	0.236096
76	0x3e9c07a2	0.30474573
77	0x3e8c2a33	0.27375945
78	0x3dd39db8	0.10332817
79	0xbcdeba52	-0.027188454
80	0x3ba26fe0	0.004957184
81	0x3d8c7967	0.06859093
82	0xbda67d1a	-0.0812933
83	0x3e67a96c	0.22623223
84	0x3c64c8af	0.013963862
85	0x3c8cfe0b	0.01721098
86	0x3e34278c	0.17593211
87	0x3e9ddcfa	0.30832654
88	0xbdd7cd56	-0.105372116
89	0x3c38d934	0.011282254
90	0x3e72b867	0.23703156
91	0x3e919f3c	0.284418
92	0x3da503a1	0.08057333
93	0xbdedda70	-0.11613929
94	0x3e91a284	0.28444302
95	0x3e663148	0.22479737
96	0x3e9b5488	0.3033793
97	0xbdd39bf3	-0.10332479
98	0x3e4cfb2a	0.20017686
99	0xbd4a4ba4	-0.049388543
100	0xbde53285	-0.111912765
101	0x3e7d33c9	0.24726786
102	0xbcdc3cfd	-0.02688455
103	0x3e3449c2	0.17606261
104	0x3e801752	0.25017792
105	0x3dea7d7c	0.114497155
106	0x3e2bdcc8	0.1678344
107	0x3e9c9cc1	0.30588344
108	0xbca0ba1a	-0.01961999
109	0x3e8b5251	0.2721124
110	0x3d0d1d5d	0.03445183
111	0x3ea1cf45	0.31603447
112	0x3e7ca6a2	0.2467294
113	0xbb3cd10a	-0.002881112
114	0x3d7e3e3e	0.062071078
115	0x3e414bd8	0.18876588
116	0xbded3236	-0.115818426
117	0xbd567d5a	-0.05236564
118	0x3dd6ab51	0.10481895
119	0x3e795d4e	0.24351999
120	0x3e073a30	0.1320579
121	0x3e8ab673	0.27092323
122	0x3d089313	0.033343386
123	0x3d958ca1	0.073022135
124	0x3c8322dc	0.016007833
125	0xbca96622	-0.020678584
126	0x3dff378d	0.12461767
127	0x3e8e8106	0.27832812
128	0x3d2b54eb	0.04182903
129	0x3e54b7ca	0.20773235
130	0xbc877526	-0.016535353
131	0x3e8fae15	0.28062502
132	0x3e0e23cb	0.13880841
133	0xbe1f57dc	-0.1556086
134	0xbd4c9cfa	-0.049954392
135	0xbe1bd214	-0.15216857
136	0xbd07465b	-0.03302608
137	0xbd79764d	-0.060903836
138	0xbd3fa9d8	-0.046792835
139	0x3c12a077	0.008949391
140	0x3d6841c7	0.056703355
141	0xbbbdad4e	-0.005788482
142	0x3ab13cd3	0.0013522155
143	0xbd0d5555	-0.034505207
144	0x3e0756f8	0.1321677
145	0x3e21331b	0.15742151
146	0xbda8f64b	-0.08250102
147	0x3d9c2db6	0.07625906
148	0x3be7faa1	0.007079438
149	0x3e2487b8	0.16067398
150	0xbdd84d8a	-0.105616644
151	0xbd3c3e31	-0.045957748
152	0x3ddbc46d	0.107308246
153	0xbe1d485b	-0.15359633
154	0xbe32b783	-0.17452817
155	0xbd8723f2	-0.06598653
156	0x3ddf0ce7	0.10891133
157	0x3e3d358b	0.18477456
158	0x3d66997c	0.056298718
159	0xbdda4d89	-0.1065932
160	0xbd517320	-0.051135182
161	0xbd9710ff	-0.073762886
162	0xbdb59cdf	-0.088678114
163	0x3e33a85d	0.17544694
164	0xbe154467	-0.14576875
165	0xbe2aea5d	-0.16690965
166	0x3d278a7b	0.04090355
167	0xbddee469	-0.108834095
168	0xbd9eba66	-0.077503964
169	0x3e1330ec	0.14374131
170	0x3dffe7f0	0.124954104
171	0x3de4bb13	0.11168494
172	0xbc40a51f	-0.011758118
173	0xbc26f461	-0.0101901
174	0xbdbb0c00	-0.09133148
175	0xbd8bc404	-0.068244964
176	0x3c94d861	0.018169584
177	0xbccf93ef	-0.025339095
178	0x3e2fcf8f	0.17169021
179	0xbd317bc8	-0.043330938
180	0x3e5e10f4	0.21686155
181	0xbe2ea605	-0.17055519
182	0x3dba7ad0	0.09105456
183	0x3dad4ec3	0.08462288
184	0x3bab6402	0.0052304277
185	0x3e81c115	0.25342622
186	0x3d812d07	0.063074164
187	0xbe02740d	-0.12739582
188	0x3d4888f2	0.048958726
189	0x3e170e2a	0.14751497
190	0x3db604fd	0.0888767
191	0x3d98713b	0.07443472
192	0xbcd7774a	-0.026301999
193	0xbd5b4d7b	-0.053540688
194	0xbe8c5c60	-0.27414227
195	0xbe70575f	-0.2347083
196	0x3c1df46b	0.009640793
197	0xbeb86611	-0.3601537
198	0xbb9d4a18	-0.0048000924
199	0xbde66f9a	-0.11251755
200	0xbc63d952	-0.013906794
201	0xbe6d9eb4	-0.23205072
202	0xbe27724b	-0.16352193
203	0x3d234df7	0.039869275
204	0xbe18dc16	-0.14927706
205	0xbde4bd0d	-0.11168871
206	0xbe833dbc	-0.25633037
207	0xbea1222a	-0.31471378
208	0xbe3ecc7e	-0.18632695
209	0xbe5b5faa	-0.21423212
210	0xbe2b173b	-0.1670808
211	0x3cd061f8	0.02543734
212	0x3d9ff0a8	0.078095734
213	0x3d15fe5f	0.03661954
214	0xbe89221c	-0.26783836
215	0x3dc75ee9	0.097348996
216	0xbcc5d5c5	-0.024149785
217	0xbdd21011	-0.10256971
218	0xbe78411a	-0.24243584
219	0x3d905236	0.070469305
220	0xbe84293a	-0.25812703
221	0xbccc7eec	-0.024962865
222	0xbd8b544d	-0.068031885
223	0xbcc322c6	-0.023820292
224	0xbb740ef2	-0.0037240353
225	0x3da8da7a	0.08244796
226	0xbb5981e9	-0.0033189005
227	0xbdf07586	-0.11741166
228	0xbdfdbd4e	-0.12389623
229	0x3d902ff5	0.07040397
230	0xbe2db2d7	-0.16962753
231	0x3c9e9bd1	0.019361408
232	0xbe6e90bd	-0.23297401
233	0xbe83f367	-0.2577164
234	0xbe496588	-0.19667637
235	0xbe841896	-0.25800008
236	0xbe620981	-0.22073938
237	0xbd819295	-0.063267864
238	0xbe26b54e	-0.162801
239	0xbc370f66	-0.011173105
240	0xbea89401	-0.32925418
241	0xbd323b69	-0.04351369
242	0xbe41c53d	-0.18922897
243	0x3cfe5cc2	0.03105009
244	0xbeaf3127	-0.34217188
245	0xbdcaf917	-0.09910791
246	0xbe9f212f	-0.31080005
247	0xbccfe89e	-0.025379475
248	0xbe3066e8	-0.17226756
249	0x3bdec6c1	0.0067985957
250	0x3d863231	0.06552542
251	0xbd22c956	-0.03974279
252	0xbb5b636b	-0.0033476006
253	0xbe1358b5	-0.14389308
254	0xbda37863	-0.07981946
255	0xbd5a2f7e	-0.05326795

conv.0.weight f4 [20, 1, 5, 5]
0	0x3c81a20a	0.015824337
1	0x3df61b40	0.12016916
2	0xbdd0b1be	-0.10190152
3	0xbdc2f101	-0.09518624
4	0xbd41c506	-0.047307037
5	0xbdcced26	-0.1000617
6	0x3dd707e9	0.104995556
7	0x3dca8b89	0.098898955
8	0x3d7ee8fc	0.06223391
9	0x3e480d7a	0.19536391
10	0xbd960eb5	-0.07327024
11	0x3d7251ea	0.05916015
12	0xbd6f37aa	-0.058402695
13	0xbdf34c46	-0.118797824
14	0xbdcae537	-0.099070005
15	0xbdec07e7	-0.11524945
16	0xbe452aec	-0.19254655
17	0xbd7ef972	-0.06224961
18	0xbd6377a8	-0.055534035
19	0x3c47efd3	0.012203175
20	0xbccb35b9	-0.02480589
21	0x3ccafd91	0.024779113
22	0x3e0a7001	0.13519289
23	0x3e37115f	0.1787772
24	0x3e12b97e	0.14328572
25	0x3e8bee00	0.27330017
26	0x3e54bf05	0.20775993
27	0xbbaef270	-0.0053389594
28	0xbc5fcf2d	-0.013660234
29	0x3e4b1d66	0.19835433
30	0x3e502001	0.20324709
31	0x3e2726b2	0.16323355
32	0x3ddb1265	0.10696868
33	0x3dffad6a	0.12484248
34	0x3df3a7a4	0.11897209
35	0x3d52a7f5	0.051429708
36	0x3d84d91c	0.06486723
37	0xbdef637a	-0.116888955
38	0xbd860471	-0.06543816
39	0xbdd1f8a7	-0.10252505
40	0xbe15444f	-0.14576839
41	0x3d9f063e	0.077648625
42	0xbe4d93f3	-0.2007597
43	0xbddba59c	-0.10724947
44	0xbe79b5e3	-0.2438579
45	0xbd9fe276	-0.07806866
46	0xbd250de7	-0.04029646
47	0x3d7df225	0.061998505
48	0xbe5b5055	-0.21417363
49	0x3c9a5011	0.018837007
50	0xbd9947b4	-0.074843794
51	0xbd265056	-0.040603958
52	0x3dae973c	0.085249394
53	0xbe6303a3	-0.22169356
54	0xbe08fe27	-0.13378201
55	0x3ce96743	0.028491622
56	0xbe730edf	-0.23736142
57	0xbd98aa36	-0.0745434
58	0xbe52fa23	-0.20603232
59	0x3c8165ee	0.015795674
60	0x3d44368e	0.04790359
61	0xbe14db22	-0.14536718
62	0x3e2ccb2d	0.1687438
63	0xbdb82810	-0.08992016
64	0x3e25c718	0.1618923
65	0x3e74ca14	0.23905212
66	0xbd4dfba9	-0.05028883
67	0x3e01d7a1	0.12679912
68	0x3e4d468e	0.20046446
69	0x3e61bf18	0.22045553
70	0xbde7be84	-0.11315635
71	0x3dc9979d	0.09843371
72	0x3cc43507	0.023951067
73	0xbe88171b	-0.26580128
74	0x3da1432e	0.07874142
75	0xbe108d4d	-0.14116402
76	0x3dc4a40a	0.096016005
77	0x3db37837	0.087631635
78	0xbe252342	-0.16126731
79	0x3e184fa5	0.14874132
80	0x3d8e4cb1	0.069482215
81	0xbe26ef48	-0.16302216
82	0xbd499241	-0.049211744
83	0xbdec2bce	-0.115317926
84	0xbd57bcc8	-0.05267027
85	0x3e53cd75	0.20683844
86	0xbdb5f2d9	-0.0888421
87	0x3cf9dbfb	0.030500403
88	0x3e2e4279	0.17017545
89	0x3d74b412	0.05974204
90	0xbda6e436	-0.081489965
91	0x3e8c7f5e	0.27440923
92	0x3e5d0cc9	0.21586908
93	0x3e014331	0.12623288
94	0x3e72f259	0.23725261
95	0x3cba02b9	0.022706376
96	0x3e7670c2	0.24066451
97	0xbca4905a	-0.020088363
98	0xbcdd1938	-0.026989564
99	0x3d36fdf3	0.04467578
100	0xbe3d12e1	-0.18464233
101	0xbbbf8a34	-0.0058453325
102	0xbe69b8b3	-0.22824363
103	0xbe18f2df	-0.14936398
104	0x3b9213d4	0.00445793
105	0xbe42fc99	-0.19041671
106	0xbe9cf88f	-0.30658385
107	0x3d563e58	0.05230555
108	0xbe0651bc	-0.13117117
109	0xbcbc08ea	-0.02295347
110	0x3e3b77a0	0.18307352
111	0xbdaf1c20	-0.08550286
112	0x3e2b8e69	0.16753544
113	0xbdbfb96d	-0.09361539
114	0x3d8419eb	0.06450256
115	0xbde33232	-0.11093558
116	0x3d5727fe	0.052528374
117	0x3ae676bf	0.0017582997
118	0x3d9dbf6f	0.07702529
119	0x3d86f161	0.06589008
120	0x3e0a2ec7	0.13494407
121	0x3d95a4a6	0.07306795
122	0x3e23b74a	0.15987888
123	0x3df80e8f	0.12112152
124	0x3e07aeaa	0.13250223
125	0xbce35e2e	-0.02775487
126	0x3dacdc99	0.08440513
127	0xbe594988	-0.21219456
128	0xbdd8b758	-0.10581845
129	0xbe178635	-0.1479729
130	0xbd1fbc3f	-0.038997885
131	0x3d0c4772	0.034247823
132	0xbe7f8ceb	-0.249561
133	0x3d0734eb	0.03300945
134	0xbe369ada	-0.17832509
135	0x3dc42c56	0.09578769
136	0xbc6b04d3	-0.014344412
137	0xbd120b69	-0.035655413
138	0xbcab8769	-0.020938592
139	0x3d9d8fed	0.07693467
140	0x3d9d5a11	0.076831944
141	0xbe09dacf	-0.13462375
142	0x3e5632c6	0.20917806
143	0xbde14c72	-0.11000909
144	0x3e00d87e	0.12582585
145	0xbdaa509a	-0.08316155
146	0x3ddb1a49	0.10698373
147	0x3de4eb63	0.11177709
148	0x3d881f05	0.066465415
149	0x3bf8477a	0.00757688
150	0x3d76ef5e	0.060286872
151	0x3ab9c5a6	0.0014173284
152	0xbe5d7086	-0.21624956
153	0xbe54a28f	-0.20765136
154	0x3da0ad19	0.07845516
155	0xbd44f23a	-0.048082568
156	0xbd265247	-0.04060581
157	0x3d16497f	0.036691185
158	0x3d6093de	0.054828517
159	0xbe140748	-0.14455903
160	0x3e0afa08	0.13571942
161	0x3deea02a	0.116516426
162	0x3e2d2738	0.16909492
163	0x3cbceac5	0.023061166
164	0x3cc27611	0.02373794
165	0x3ba9ab2e	0.005177877
166	0xbd428f80	-0.047500134
167	0x3e1ddb6f	0.15415739
168	0xbddfa2be	-0.109197125
169	0x3e6562f3	0.22401027
170	0x3e7435c9	0.23848642
171	0xbdc40def	-0.0957297
172	0x3e75013f	0.23926257
173	0x3ea7c98f	0.32770965
174	0x3e6f9174	0.2339533
175	0x3de4f9f7	0.111804895
176	0x3d768200	0.06018257
177	0xbdb22989	-0.086993285
178	0x3dc8e8a0	0.09809995
179	0xbe02cee2	-0.12774232
180	0x3e639087	0.22223102
181	0xbbabda2f	-0.0052445154
182	0x3d568cac	0.05238025
183	0x3e45ea82	0.19327739
184	0x3de99c37	0.11406749
185	0x3e302aa8	0.17203772
186	0xbde72936	-0.11287157
187	0xbd887940	-0.066637516
188	0xbdb9c610	-0.090709805
189	0x3e3caf37	0.18426214
190	0xbd0d2d20	-0.034466863
191	0x3e133f10	0.14379525
192	0xbd50d6e2	-0.05098618
193	0xbc8613eb	-0.01636692
194	0x3cf67c88	0.030088678
195	0xbe00bb15	-0.12571366
196	0x3d1877f8	0.037223786
197	0xbd93a309	-0.07208831
198	0xbdb33507	-0.087503485
199	0xbccd208e	-0.025039937
200	0xbe03e50a	-0.1288034
201	0xbba40d00	-0.0050064325
202	0xbe91a0be	-0.2844295
203	0xbea174be	-0.3153438
204	0xbe4ef253	-0.20209627
205	0xbdebcdf9	-0.115138955
206	0xbe616ab8	-0.22013366
207	0xbd5be342	-0.053683527
208	0x3d35aced	0.044354368
209	0xbe12b9d7	-0.14328705
210	0x3da820d7	0.08209389
211	0xbdffeefb	-0.12496754
212	0xbd018ea8	-0.03163019
213	0xbcb957bc	-0.022624843
214	0xbbd121bc	-0.0063821953
215	0x3e1e7602	0.15474704
216	0x3be2a6ff	0.00691688
217	0x3e2fcec7	0.17168723
218	0xbc81dafb	-0.015851488
219	0x3c13ce6a	0.009021381
220	0x3e3f273d	0.18667312
221	0xbdc4481c	-0.09584066
222	0x3e3b0104	0.18262106
223	0x3e4d953a	0.20076457
224	0x3e33af85	0.17547424
225	0x3d67edeb	0.05662338
226	0x3d632766	0.055457495
227	0x3e26cccf	0.16289066
228	0x3dfa62f3	0.12225904
229	0x3e0bf43f	0.13667391
230	0x3e23ccef	0.15996145
231	0x3dd7f446	0.10544638
232	0x3e2689c5	0.16263492
233	0x3e2db682	0.16964152
234	0x3d71755d	0.058949817
235	0x3d114a7a	0.035471417
236	0x3e0b0330	0.13575435
237	0xbbd82710	-0.0065964535
238	0x3d0bc81e	0.034126393
239	0x3deab82f	0.114609115
240	0xbd844497	-0.06458395
241	0xbc98f901	-0.018673422
242	0x3dbcbce5	0.09215716
243	0xbcaa306f	-0.020775048
244	0xbda97df8	-0.0827598
245	0xbdcd4a57	-0.10023945
246	0xbdea0036	-0.114258215
247	0xbe1897fd	-0.14901729
248	0xbda5b173	-0.080904864
249	0xbe1ff772	-0.15621737
250	0xbe93c342	-0.28859907
251	0xbe78633e	-0.24256608
252	0x3c91e97a	0.017811526
253	0xbe8445c2	-0.2583447
254	0x3cfbdd96	0.030745309
255	0xbe211cdd	-0.15733667

conv.0.bias f4 [20]
0	0xbe3433d9	-0.17597903
1	0x3e7b5828	0.24545348
2	0xbdd6fa8d	-0.104970075
3	0x3e59ef23	0.2128263
4	0xbd46bed4	-0.04852183
5	0xbe571569	-0.21004261
6	0x3c783136	0.015148452
7	0xbe2befff	-0.1679077
8	0xbdbc593d	-0.09196708
9	0xbd995f74	-0.07488909
10	0xbda5230f	-0.080633275
11	0xbda00e6a	-0.07815249
12	0xbe26cb8d	-0.16288586
13	0xbe539322	-0.20661595
14	0xbe1e9dc1	-0.15489866
15	0x3c56146d	0.013066393
16	0xbe77f260	-0.24213552
17	0xbdf6b251	-0.1204573
18	0x3e86254b	0.26200327
19	0xbe24c627	-0.16091214

conv.2.weight f4 [20]
0	0x3f90fbda	1.1326859
1	0x3f949c1a	1.1610138
2	0x3f919ae6	1.1375396
3	0x3f824727	1.0177964
4	0x3f882e7b	1.0639185
5	0x3f89a0ab	1.0752157
6	0x3f849f4a	1.0361111
7	0x3f7e7c6e	0.99408615
8	0x3f8a098b	1.0784162
9	0x3f90a408	1.1300058
10	0x3f8f39e1	1.1189538
11	0x3f8ad6f3	1.0846847
12	0x3f9090f7	1.129424
13	0x3f8a1a0f	1.0789202
14	0x3f898f82	1.074692
15	0x3f9372ea	1.1519444
16	0x3f8fe03c	1.1240306
17	0x3f81099b	1.0081056
18	0x3f8ae3af	1.0850734
19	0x3f879f2f	1.0595454

conv.2.bias f4 [20]
0	0x3dfa779e	0.122298464
1	0xbe27643c	-0.1634683
2	0x3e321a28	0.1739279
3	0xbe02f041	-0.12786962
4	0xbe015764	-0.12630993
5	0xbdec5fbd	-0.11541698
6	0xbe0a7dd8	-0.13524568
7	0xbe0301fd	-0.12793727
8	0xbe0b7827	-0.13620053
9	0xbe153c3d	-0.1457376
10	0x3c269247	0.010166711
11	0xbdfed77c	-0.12443444
12	0x3e7fc92b	0.24979083
13	0xbe09e1d8	-0.13465059
14	0x3e03f0ad	0.1288478
15	0x3e2b54a4	0.16731507
16	0x3dfa54c5	0.122232
17	0xbe1150e8	-0.1419102
18	0x3e016ca7	0.12639104
19	0xbe04a24a	-0.12952533

conv.2.running_mean f4 [20]
0	0xbccb0764	-0.024783798
1	0x3ea6f79b	0.32610783
2	0x3c48cd2c	0.012255948
3	0x3ec004c6	0.37503642
4	0x3ca87bd2	0.020566855
5	0xbd2c9bd5	-0.0421408
6	0x3e4c4065	0.1994644
7	0x3cccc22f	0.024994938
8	0xbc6a2f0c	-0.014293443
9	0x3dda65be	0.10663937
10	0xbcd5ae92	-0.026084218
11	0xbcbd5911	-0.02311376
12	0xbc4957dc	-0.012289014
13	0xbd43b27f	-0.04777765
14	0xbb39bae2	-0.002834015
15	0x3d71804f	0.058960255
16	0xbcacc9f1	-0.021092387
17	0x3cba5889	0.022747295
18	0x3ee2d334	0.4430176
19	0xbd1f3cfa	-0.03887651

conv.2.running_var f4 [20]
0	0x3bdda532	0.0067640776
1	0x3dab9e01	0.08379746
2	0x3cf20a6c	0.029545985
3	0x3dc6706d	0.09689412
4	0x3cd9512d	0.026527965
5	0x3c42f358	0.011898838
6	0x3db94625	0.09046582
7	0x3d0cb13b	0.034348708
8	0x3ca57afa	0.020200241
9	0x3d803e39	0.06261868
10	0x3c84e7a4	0.016223736
11	0x3c50fda9	0.01275579
12	0x3c9f44e5	0.019442031
13	0x3b88583b	0.0041609085
14	0x3c3a0934	0.011354733
15	0x3c9627bd	0.018329496
16	0x3c8120b4	0.015762664
17	0x3cb89809	0.022533434
18	0x3d8aa9e5	0.06770686
19	0x3c70cad5	0.014696796

conv.3.weight f4 [1, 20, 5, 5]
0	0xbe0b51e6	-0.1360546
1	0xbdd011c4	-0.101596385
2	0xbdce67f6	-0.10078423
3	0xbe18a293	-0.14905767
4	0xbdee8d15	-0.11648003
5	0xbe2dc927	-0.16971265
6	0xbe05c009	-0.13061537
7	0xbe2846d8	-0.16433275
8	0xbde1cf79	-0.110259004
9	0xbdcc8a83	-0.099873565
10	0xbe07cb13	-0.1326106
11	0xbe182444	-0.14857584
12	0xbe073f73	-0.13207798
13	0xbdf579cf	-0.11986124
14	0xbdec722b	-0.11545213
15	0xbd80847a	-0.06275268
16	0xbdff6c70	-0.12471855
17	0xbe20cdad	-0.15703459
18	0xbe1442a7	-0.14478551
19	0xbdd05c86	-0.101738974
20	0xbe182862	-0.14859155
21	0xbe02e330	-0.12781978
22	0xbdfaa023	-0.12237575
23	0xbe1a0252	-0.15039948
24	0xbe00151e	-0.12508056
25	0x3dee1ac1	0.11626197
26	0x3dc91849	0.09819085
27	0x3e30b287	0.17255603
28	0x3dcbffc7	0.09960895
29	0x3e1943ea	0.14967313
30	0x3e1c6591	0.1527312
31	0x3df39116	0.11892907
32	0x3dfb76c8	0.12278515
33	0x3e2bec11	0.16789271
34	0x3e1e96d1	0.1548722
35	0x3e08c8ba	0.13357821
36	0x3e18877a	0.1489543
37	0x3e2336da	0.15938893
38	0x3deb57d1	0.11491359
39	0x3dd71e21	0.105037935
40	0x3de7df56	0.11321895
41	0x3e51521a	0.20441476
42	0x3de8b9a9	0.11363537
43	0x3e22a4d6	0.15883192
44	0x3de21608	0.110393584
45	0x3de90356	0.113775894
46	0x3deb8028	0.11499053
47	0x3d5883a3	0.052859914
48	0xbd289802	-0.04116059
49	0x3ca7f7bc	0.020503871
50	0xbdf78370	-0.120856166
51	0xbdf42628	-0.1192134
52	0xbe38c0f2	-0.18042353
53	0xbe304fe3	-0.17217974
54	0xbda9526d	-0.082676746
55	0xbde70802	-0.11280824
56	0xbe247ecd	-0.16063996
57	0xbe1043c5	-0.14088352
58	0xbdfa989c	-0.12236139
59	0xbe0962f5	-0.13416655
60	0xbe2e1410	-0.1699984
61	0xbe59abdc	-0.21256965
62	0xbe56867b	-0.20949738
63	0xbe4fee0e	-0.20305654
64	0xbe1537f7	-0.1457213
65	0xbd97216b	-0.07379421
66	0xbd601e64	-0.054716483
67	0xbe514547	-0.20436583
68	0xbe31db1f	-0.17368744
69	0xbe05796c	-0.130346
70	0xbdd28d79	-0.1028089
71	0xbd47b312	-0.04875476
72	0x3a2ba622	0.0006547888
73	0xbd98b1fd	-0.074558236
74	0xbdf9bc66	-0.12194137
75	0x3e0209e7	0.1269909
76	0x3dc8283c	0.09773299
77	0x3df58962	0.11989094
78	0x3de2cf8c	0.11074743
79	0x3d2a035d	0.041507114
80	0x3ddd1b1c	0.10796186
81	0x3dc48565	0.095957555
82	0x3e1c91af	0.15289949
83	0x3e188ec9	0.14898218
84	0x3db68b8c	0.08913335
85	0x3e0088c0	0.12552166
86	0x3e0ebb9a	0.13938752
87	0x3e10be52	0.14135101
88	0x3dac046e	0.083992824
89	0x3db4840d	0.08814249
90	0x3de91663	0.11381223
91	0x3d9246c6	0.07142405
92	0x3d9d2a3d	0.07674072
93	0x3dcc07f8	0.099624574
94	0x3de5c7ac	0.11219725
95	0x3dfbf489	0.12302501
96	0x3dc5b6fd	0.09654043
97	0x3dff0da2	0.12453772
98	0x3e141432	0.14460829
99	0x3e026a9d	0.12735982
100	0x3de9730d	0.11398897
101	0x3dba3153	0.09091439
102	0x3e0afbab	0.13572566
103	0x3dfa7525	0.12229375
104	0x3dcb58c2	0.099290386
105	0x3e14afc6	0.14520177
106	0x3dcc7362	0.09982945
107	0x3e20c5c6	0.15700445
108	0x3df6f5f5	0.12058631
109	0x3d9303db	0.0717847
110	0x3dbeb338	0.09311527
111	0x3df64e55	0.120266594
112	0x3dba2fcf	0.0909115
113	0x3de15bef	0.11003863
114	0x3d884025	0.066528596
115	0x3e114c6b	0.14189307
116	0x3dea3eac	0.11437735
117	0x3e1636e9	0.14669384
118	0x3def03af	0.116706245
119	0x3da31057	0.07962101
120	0x3de367fa	0.11103816
121	0x3e1e4e05	0.1545945
122	0x3dcff219	0.10153598
123	0x3dcdf5b1	0.100566275
124	0x3dbf41ad	0.093386985
125	0x3dce68eb	0.10078605
126	0x3d6f24db	0.058384757
127	0x3dc95514	0.098306805
128	0x3dc4d518	0.09610957
129	0x3e024c08	0.12724316
130	0x3df3b80f	0.11900341
131	0x3e0885e3	0.13332324
132	0x3dc780e4	0.09741381
133	0x3e084356	0.13306937
134	0x3ddeaee4	0.108732015
135	0x3db92c96	0.09041707
136	0x3de3d2ee	0.11124216
137	0x3df8b7c0	0.121444225
138	0x3d924c5e	0.07143472
139	0x3d640701	0.055670742
140	0x3e1044a2	0.14088681
141	0x3dc5ba20	0.09654641
142	0x3e128af2	0.14310816
143	0x3e049193	0.12946157
144	0x3ddf9664	0.109173566
145	0x3dbf8635	0.0935177
146	0x3e0d5baf	0.13804506
147	0x3df3ce42	0.11904575
148	0x3e05903c	0.13043302
149	0x3dc9b4ce	0.09848939
150	0x3de4b366	0.1116703
151	0x3e0bd88e	0.13656828
152	0x3e0d0c52	0.13774231
153	0x3e0f194e	0.13974497
154	0x3d6a5ad3	0.057215523
155	0x3df59f5d	0.11993287
156	0x3dd6a0c4	0.10479882
157	0x3db289a1	0.08717657
158	0x3dec709c	0.11544916
159	0x3dd9ec5b	0.10640784
160	0x3da57bd0	0.08080256
161	0x3e055926	0.13022289
162	0x3dd6e522	0.10492922
163	0x3e152b94	0.14567405
164	0x3d956879	0.07295317
165	0x3df6d23f	0.1205182
166	0x3e06d264	0.13166195
167	0x3dbca295	0.092106976
168	0x3d988ba4	0.07448509
169	0x3dd25089	0.10269267
170	0x3df3af52	0.11898674
171	0x3df8fb73	0.12157335
172	0x3de79528	0.11307746
173	0x3e0e2575	0.13881476
174	0x3d8737db	0.066024505
175	0x3da2a02d	0.07940707
176	0x3e0fbab2	0.14036062
177	0x3de4c79d	0.11170886
178	0x3e1111bb	0.1416692
179	0x3e114fa0	0.14190531
180	0x3e012dfe	0.12615201
181	0x3dadccbf	0.08486318
182	0x3de1a211	0.1101724
183	0x3e0128bc	0.12613195
184	0x3da32007	0.07965093
185	0x3da7c3b6	0.08191626
186	0x3e42a171	0.19006898
187	0x3e06bd32	0.1315811
188	0x3e030575	0.1279505
189	0x3e347e74	0.17626363
190	0x3dd5d4ba	0.10440965
191	0x3df2cd8d	0.11855612
192	0x3deecf7f	0.116606705
193	0x3db63908	0.088975966
194	0x3cf558ec	0.029949628
195	0x3d3dad88	0.04630807
196	0x3dfd7798	0.12376326
197	0x3db158cf	0.08659517
198	0x3d8b565b	0.068035804
199	0x3df7859e	0.12086032
200	0x3d1da22f	0.03848475
201	0x3ddef36b	0.10886272
202	0x3d955419	0.07291431
203	0x3dd0b9c4	0.10191682
204	0x3d08d939	0.033410285
205	0x3dd53b62	0.10411717
206	0x3e0f490b	0.13992707
207	0x3e069958	0.13144433
208	0x3dd5cb15	0.104391254
209	0x3da7eef9	0.08199877
210	0x3e00dfd6	0.12585387
211	0x3dad6703	0.084669136
212	0x3d92afcf	0.07162439
213	0x3e0ada5c	0.1355986
214	0x3dce1268	0.100621045
215	0x3e0ef15f	0.13959263
216	0x3dec08ae	0.11525093
217	0x3df0887f	0.117447846
218	0x3e190b66	0.14945754
219	0x3dde7484	0.10862067
220	0x3e16f40f	0.14741538
221	0x3dc96730	0.098341346
222	0x3da6ec1c	0.08150503
223	0x3ddf166a	0.10892947
224	0x3dbfb942	0.09361507
225	0x3dd50f35	0.10403291
226	0x3e16f4c3	0.14741807
227	0x3df80f5d	0.12112305
228	0x3e11fbee	0.1425626
229	0x3de25648	0.11051613
230	0x3e06c5dd	0.13161416
231	0x3e0d1692	0.13778141
232	0x3e350bd0	0.17680287
233	0x3dc29669	0.09501345
234	0x3dc2664d	0.094921686
235	0x3e26e4af	0.16298173
236	0x3e1b8bc6	0.15190038
237	0x3e5bb7eb	0.21456878
238	0x3e314cb1	0.17314412
239	0x3dd02dbc	0.10164973
240	0x3d5351e9	0.051591787
241	0x3d5948da	0.053047992
242	0x3df0a5cb	0.117503725
243	0x3dc05a2b	0.09392198
244	0x3d03b184	0.032151714
245	0x3cff96fa	0.03119992
246	0x3bb9f191	0.005674549
247	0x3b45d915	0.0030189205
248	0x3d607f15	0.054808695
249	0x3d7f353f	0.06230664
250	0xbdd25913	-0.10270896
251	0xbdf9a932	-0.121904746
252	0xbdc1b4de	-0.09458326
253	0xbdde7e14	-0.10863891
254	0xbda23e88	-0.07922083
255	0xbd0ff546	-0.03514602
