src/caches/cache_16_20_big/param2img4.pt (torch, 184864 bytes, 19 tensors)

main.0.weight f4 [16]
0.83833396 0.81734794 0.81565404 0.95261 0.7894796 1.0668159 1.0230368 0.99451596
0.9624787 1.0095284 1.126542 1.0378666 1.1826359 0.8079734 0.83557975 1.0750535
00000000: 0e9d 563f b73d 513f b4ce 503f 40de 733f
00000010: 561b 4a3f 6c8d 883f dff2 823f 9998 7e3f
00000020: 0165 763f 3a38 813f 8732 903f d0d8 843f
00000030: 9d60 973f 58d7 4e3f 8ee8 553f 5a9b 893f

main.0.bias f4 [16]
0.05413107 -0.07853573 -0.0751954 -0.09349798 -0.079288006 0.025943149 0.045406915 0.1071716
0.010603473 -0.08717664 0.014039544 0.006361484 0.042570375 0.03323896 -0.084053844 0.011486391
00000000: 8ab8 5d3d 57d7 a0bd 0c00 9abd de7b bfbd
00000010: c061 a2bd ba86 d43c 9afc 393d c97c db3d
00000020: 30ba 2d3c ab89 b2bd 1e06 663c ff73 d03b
00000030: 465e 2e3d 9325 083d 6c24 acbd 6a31 3c3c

main.0.running_mean f4 [16]
4.184841e-05 -5.393095e-06 0.20003906 -0.007558625 0.010633975 0.0016825974 0.49395165 -0.0075219898
0.021311974 0.0016228806 0.49393657 -0.0075597917 0.03197662 -2.3094504e-05 0.20001648 -0.007546257
00000000: 6386 2f38 55f6 b4b6 0ad7 4c3e 58ae f7bb
00000010: 203a 2e3c 9a8a dc3a 3be7 fc3e 067b f6bb
00000020: 7396 ae3c d6b6 d43a 41e5 fc3e 21b8 f7bb
00000030: ebf9 023d 12bb c1b7 1fd1 4c3e 9846 f7bb

main.0.running_var f4 [16]
9.957208e-07 9.835852e-07 9.893781e-07 0.0020034637 1.6337463e-05 0.00014173414 0.07449749 0.0020070893
6.1769024e-05 0.0001421126 0.074481525 0.0020051207 0.00013623353 1.0232224e-06 9.767048e-07 0.0020045182
00000000: b5a4 8535 bb03 8435 c6ca 8435 8b4c 033b
00000010: 6f0c 8937 789e 1439 2492 983d 5f89 033b
00000020: fe89 8138 1004 1539 c589 983d 5868 033b
00000030: e9d9 0e39 a755 8935 5217 8335 3c5e 033b

main.1.weight f4 [20, 16]
-0.0047599166 0.0066882493 0.00024358538 -0.02567597 0.01404031 -0.06742335 0.259003 -0.13807379
0.054976583 -0.09912478 0.085703276 0.25492936 0.18967326 -0.0030810004 0.0028294977 -0.039356895
-0.0035717136 0.019786358 0.013360427 0.018181946 -0.13086824 -0.21853034 0.11808254 0.12604994
-0.21222633 -0.10053317 0.10645049 -0.23419134 -0.3200813 -0.006935016 0.009288496 -0.13110304
-0.0028288998 0.001849383 -0.011636666 -0.0867162 -0.028476954 0.13044539 0.18280864 0.13706881
-0.1908269 -0.07173815 -0.017283758 0.026161714 -0.30687895 -0.0069314227 -0.0013953139 -0.12871757
0.0015482669 0.0013109482 -0.002877144 0.2445017 0.0010121907 -0.10774642 0.39389122 -0.20416698
0.11928412 0.12692882 0.20977937 0.17338865 0.10316364 0.003984372 -0.0012686015 0.18944836
0.0048229042 -0.009689711 -0.0052346387 -0.19297251 0.07387039 -0.25209886 -0.21258572 -0.013604135
0.15234187 -0.17736644 -0.03462341 -0.030356336 0.18216838 0.0018172868 -0.0005471847 0.21337672
-0.004925666 -0.008321092 0.0010511265 -0.14564398 -0.05134082 0.10040962 -0.28687927 0.13578841
-0.071144775 0.2641158 -0.19915749 -0.07851955 -0.12420754 -0.0034659754 -0.0031745015 0.17849353
0.00018491776 0.0020011377 0.0012484582 -0.14917597 0.11210173 -0.0037652624 -0.047606114 0.007621547
0.07204385 -0.24691063 0.34011143 -0.051785883 0.17629784 0.012602739 -0.006219977 0.057633348
-0.004137554 0.010786175 0.002690386 -0.17020127 -0.16434102 -0.12571661 0.13987145 0.16553241
-0.01703154 -0.17514387 -0.3104761 -0.016389223 -0.21945709 0.00017273345 0.0048724636 0.07329576
0.009648985 -0.0036692678 -0.0019123788 0.16647619 0.16618082 -0.09054798 0.17625263 0.1727974
0.25605577 -0.030859442 -0.090754844 -0.15658344 0.4567575 0.0016533827 0.0048319357 -0.19889466
0.0002979192 0.009280373 0.0037799953 -0.14053452 -0.11211074 -0.081976496 -0.020238904 -0.1478678
-0.106541485 -0.23109068 -0.14940882 0.16694786 -0.26569107 -0.0064660823 0.0021909142 0.011430404
0.0038304087 -0.003613813 0.0105085345 -0.19611187 0.024645593 0.09814752 0.17087047 -0.18373543
0.3181508 -0.19363888 0.016582133 0.24254669 0.39786315 -0.001715309 0.004413295 0.07883953
-0.003373468 -0.006299712 0.009220332 -0.24078695 0.04333369 -0.14497645 0.06571186 -0.12858722
-0.027384115 -0.19721545 0.19018434 -0.056866765 0.1756408 0.0029209293 -0.013104714 -0.08487342
0.003991171 0.0010699392 0.0015210612 -0.20461015 -0.032576505 0.23111205 0.04348497 -0.10220922
0.17193261 0.16693442 -0.3464949 -0.08736083 0.1594492 -0.0044100718 -1.431753e-05 0.12700826
0.0038275986 0.00532185 0.0011301785 -0.20587467 0.010373972 -0.23553586 0.2738713 -0.048137628
0.03846797 0.06405174 0.0066189836 -0.030438028 0.1073831 -0.0067155524 -0.0029987223 -0.27939534
0.0031200007 -0.00061230996 -0.0031621242 0.035180695 0.14098217 0.21015103 -0.2339329 -0.06886756
0.04144496 -0.19315067 -0.19476856 0.042233612 0.31948096 0.0034728253 -0.0026979954 0.1717643
-0.00814395 -0.000277732 -0.0071102534 0.0867861 -0.05273067 -0.16878258 0.18054752 -0.25177103
0.05380463 -0.00951911 0.22874251 -0.27267945 -0.21930833 -0.00038366974 0.00044321202 -0.31062138
00000000: 13f9 9bbb 1a29 db3b f46a 7f39 6956 d2bc
00000010: 5409 663c 4115 8abd 0b9c 843e 3763 0dbe
00000020: 202f 613d ef01 cbbd 3385 af3d 1a86 823e
00000030: b539 423e 9cea 49bb 186f 393b b234 21bd
00000040: 6913 6abb 0017 a23c b1e5 5a3c 4ef2 943c
00000050: 5302 06be 6bc6 5fbe 42d5 f13d 3c13 013e
00000060: dc51 59be 56e4 cdbd b702 da3d dbcf 6fbe
00000070: b2e1 a3be 213f e3bb c72e 183c e03f 06be
00000080: 1065 39bb ff66 f23a b7a7 3ebc 4398 b1bd
00000090: 8048 e9bc 7a93 053e 3032 3b3e c45b 0c3e
000000a0: 2068 43be 74eb 92bd ab96 8dbc 1751 d63c
000000b0: 3d1f 9dbe fd20 e3bb f7e2 b6ba 8ace 03be
000000c0: 37ef ca3a 1fd4 ab3a 778e 3cbb a75e 7a3e
000000d0: 7cab 843a 28aa dcbd 1cac c93e 2611 51be
000000e0: 3c4b f43d a1f9 013e 67d0 563e cb8c 313e
000000f0: 7547 d33d 568f 823b 3447 a6ba c0fe 413e
00000100: 7409 9e3b 98c1 1ebc 5587 abbb 969a 45be
00000110: 5c49 973d 1a13 81be 12b0 59be e1e3 5ebc
00000120: 82ff 1b3e 8c9f 35be 47d1 0dbd daad f8bc
00000130: 598a 3a3e 0732 ee3a f270 0fba 6d7f 5a3e
00000140: 7b67 a1bb 3155 08bc f4c5 893a b223 15be
00000150: c04a 52bd 8fa3 cd3d d7e1 92be 1e0c 0b3e
00000160: 5ab4 91bd 303a 873e f1ef 4bbe dcce a0bd
00000170: 8660 febd 6b25 63bb 4c0b 50bb 02c7 363e
00000180: 7ce6 4139 8525 033b 4ea3 a33a 96c1 18be
00000190: 9895 e53d 9fc2 76bb a1fe 42bd 2cbe f93b
000001a0: ba8b 933d 24d6 7cbe 1623 ae3e 6f1d 54bd
000001b0: 6c87 343e b87b 4e3c f3d0 cbbb f210 6c3d
000001c0: 5294 87bb 7fb8 303c 3051 303b 3e49 2ebe
000001d0: 0349 28be dbbb 00be 763a 0f3e 5481 293e
000001e0: ba85 8bbc ea58 33be b9f6 9ebe b142 86bc
000001f0: 5cb9 60be c81f 3539 30a9 9f3b 161c 963d
00000200: c716 1e3c 1978 70bb c9a8 faba bc78 2a3e
00000210: 4e2b 2a3e 3871 b9bd 927b 343e cdf1 303e
00000220: be19 833e f1cc fcbc addd b9bd 6957 20be
00000230: 1edc e93e 51b6 d83a 3755 9e3b 0bab 4bbe
00000240: 0a32 9c39 b50c 183c ccb9 773b 48e8 0fbe
00000250: 519a e5bd 4be3 a7bd 0fcc a5bc a86a 17be
00000260: 6c32 dabd 09a3 6cbe a0fe 18be 61f4 2a3e
00000270: a908 88be 6ee1 d3bb 7195 0f3b 9746 3b3c
00000280: 9807 7b3b b9d5 6cbb fd2b 2c3c 8dd1 48be
00000290: 8ee5 c93c 9101 c93d abf8 2e3e 2425 3cbe
000002a0: a9e4 a23e 4549 46be 41d7 873c 295e 783e
000002b0: b8b4 cb3e 38d4 e0ba 679d 903b 9f76 a13d
000002c0: 6715 5dbb d16d cebb e010 173c db90 76be
000002d0: ab7e 313d b574 14be f193 863d 5eac 03be
000002e0: a754 e0bc d9f2 49be afbf 423e 20ed 68bd
000002f0: 2fdb 333e 106d 3f3b 28b5 56bc 1ed2 adbd
00000300: 5ec8 823b 343d 8c3a 585e c73a 5385 51be
00000310: f16e 05bd a3a8 6c3e 4c1d 323d 1153 d1bd
00000320: 1a0f 303e dbf0 2a3e c867 b1be 3cea b2bd
00000330: a746 233e 5d82 90bb 5335 70b7 740e 023e
00000340: 73d8 7a3b ea62 ae3b 7f22 943a cfd0 52be
00000350: 98f7 293c 5030 71be dc38 8c3e f62b 45bd
00000360: 9790 1d3d 8f2d 833d 0fe4 d83b 2c59 f9bc
00000370: aceb db3d 230e dcbb 3686 44bb e80c 8fbe
00000380: ed78 4c3b 6d83 20ba a43b 4fbb a219 103d
00000390: a15d 103e d531 573e 1b8c 6fbe 6f0a 8dbd
000003a0: 31c2 293d 4ac9 45be 6971 47be 27fd 2c3d
000003b0: 0293 a33e 5798 633b dad0 30bb fbe2 2f3e
000003c0: 346e 05bc 8f9c 91b9 21fd e8bb e9bc b13d
000003d0: 1dfc 57bd 57d5 2cbe 73e1 383e 22e8 80be
000003e0: 3e62 5c3d 0bf6 1bbc 7a3b 6a3e a49c 8bbe
000003f0: 5d92 60be 4827 c9b9 e95e e839 c409 9fbe

main.1.bias f4 [20]
-0.13321699 -0.010331583 0.10170932 -0.25699794 0.16767223 0.14282162 -0.0526719 0.17173679
0.24072205 0.09487341 0.012468445 0.26535067 0.19717073 0.24685061 0.27689502 -0.0045392206
0.0008641444 -0.15643498 0.20888074 -0.1662289
00000000: 096a 08be cd45 29bc fa4c d03d 3c95 83be
00000010: 45b2 2b3e d53f 123e 7dbe 57bd c5db 2f3e
00000020: d77f 763e fe4c c23d 7348 4c3c 0bdc 873e
00000030: 20e7 493e 68c6 7c3e 2fc5 8d3e bebd 94bb
00000040: c087 623a 7e30 20be d5e4 553e e937 2abe

main.3.weight f4 [20]
0.88940454 0.85071135 0.90379405 0.9300222 0.9186301 0.9304032 0.8029777 0.8094257
0.9024142 0.82971096 0.8354909 0.98493 0.887292 0.89804685 0.87765396 0.9236367
0.89962023 0.9097493 0.9488992 0.8867273
00000000: 04b0 633f 38c8 593f 0c5f 673f ef15 6e3f
00000010: 582b 6b3f e72e 6e3f f28f 4d3f 8636 4f3f
00000020: 9e04 673f f067 543f bbe2 553f 5f24 7c3f
00000030: 9225 633f 66e6 653f eead 603f 7473 6c3f
00000040: 834d 663f 55e5 683f 0feb 723f 8f00 633f

main.3.bias f4 [20]
-0.08067963 -0.09764251 -0.1379036 -0.0066767884 0.058085203 -0.17678054 -0.17387372 0.09391546
0.12126147 -0.1483293 -0.050780226 0.11464922 -0.050631765 -0.11612135 -0.11086837 -0.074795224
-0.21491009 0.10163215 -0.1316926 -0.11604925
00000000: 5d3b a5bd ccf8 c7bd 9a36 0dbe f6c8 dabb
00000010: c0ea 6d3d f505 35be f40b 32be c056 c03d
00000020: ef57 f83d a3e3 17be edfe 4fbd 36cd ea3d
00000030: 4163 4fbd 08d1 edbd f50e e3bd 3d2e 99bd
00000040: 6411 5cbe 8424 d03d 6dda 06be 3bab edbd

main.3.running_mean f4 [20]
0.08716115 0.26634133 0.2656667 0.09309026 0.31786475 0.30319956 0.16480778 0.31614017
0.4664147 0.26359108 0.30413795 0.42720774 0.36012214 0.39451513 0.42562795 0.29779744
0.28051302 0.108232096 0.38429707 0.11568444
00000000: 8c81 b23d e45d 883e 7705 883e 1ba6 be3d
00000010: 2bbf a23e f93c 9b3e 5fc3 283e 20dd a13e
00000020: e8cd ee3e 69f5 863e f8b7 9b3e f9ba da3e
00000030: ee61 b83e e3fd c93e e8eb d93e e878 983e
00000040: 679f 8f3e caa8 dd3d 96c2 c43e f7eb ec3d

main.3.running_var f4 [20]
0.07575782 0.31858817 0.19325124 0.1888319 0.21501207 0.23122932 0.109554105 0.16433519
0.34612796 0.1772078 0.23176907 0.28819168 0.25459737 0.26418582 0.24401656 0.38991916
0.28857338 0.124045394 0.3173666 0.11415052
00000000: ea26 9b3d fd1d a33e a7e3 453e 265d 413e
00000010: 202c 5c3e 61c7 6c3e e75d e03d 7c47 283e
00000020: af37 b13e f675 353e df54 6d3e dc8d 933e
00000030: 965a 823e 5d43 873e 7adf 793e 7ca3 c73e
00000040: e4bf 933e 830b fe3d e07d a23e bfc7 e93d

main.4.weight f4 [2048, 20]
-0.07600364 0.04234354 0.0976629 0.014909519 0.011111332 -0.018120592 -0.16374154 -0.06755458
0.11743673 0.14287086 -0.1245306 -0.13654448 0.1311513 0.14695404 0.005144114 0.10411734
-0.11576959 0.13758734 -0.0067672296 -0.11334118 -0.09944235 -0.20579919 0.107439905 0.12481338
0.12041213 0.024337362 0.074764244 -0.17698716 -0.017191874 0.08370793 0.03827638 -0.16185266
0.17097376 0.12916064 -0.045968443 0.094586365 0.17205817 -0.118640475 0.035634164 0.06346426
-0.21407117 0.040510394 0.22890018 -0.13453098 -0.034124825 0.18488875 0.046989966 0.16436033
-0.15831749 -0.1097972 -0.13713744 0.18139346 0.033096783 -0.18934187 -0.049004585 -0.033162475
-0.18683973 -0.070056334 -0.026959678 0.10870826 0.19917625 -0.06643842 0.11962699 0.059379555
-0.024331741 0.0052621462 0.21625769 0.097801924 0.25011134 -0.022855422 -0.02609882 0.11801373
0.20562856 -0.018505266 -0.042517003 -0.17521705 -0.15099673 -0.05139058 0.008903651 -0.059139516
-0.1948795 0.09869345 -0.08549072 -0.017675983 -0.013675975 -0.16672319 -0.23622274 -0.08924798
0.04695049 -0.18520169 0.1571379 -0.12673756 0.04376922 0.0036410703 0.2134746 0.13997304
-0.11977166 -0.049910903 -0.2106491 0.014562299 0.03443425 0.09216598 0.023891237 -0.019519795
-0.2711477 -0.092995934 0.13860816 -0.23748015 -0.07601404 -0.12467271 -0.05271156 0.06260587
0.14666225 -0.111815594 -0.031473603 0.10064147 -0.11898952 -0.05880501 -0.10004747 0.047102034
-0.06366451 -0.20201689 0.04202068 -0.14676474 -0.019242663 0.10112583 -0.074214086 0.039935242
-0.039942924 0.22689879 -0.17170607 0.11158935 -0.25613517 -0.11090048 0.16988902 0.13031359
0.04653019 0.076367825 0.18021148 -0.014798385 -0.042278837 -0.12201688 -0.18186732 -0.09674891
0.0818036 -0.20005627 0.013563928 -0.026594205 0.05198515 -0.16687706 0.21951418 0.10955466
0.045611933 -0.19249041 -0.09469952 0.009391572 -0.0067836354 -0.028079202 0.083050214 0.008587498
-0.23817293 0.13661867 -0.19527477 -0.1484092 0.08341402 0.1661299 -0.17008822 -0.16361335
-0.21267317 0.05002296 0.046029277 -0.24814785 -0.09576876 0.17624828 0.12605871 0.081935145
0.08614361 -0.009955125 -0.11160205 -0.11584459 0.1401163 -0.19164057 -0.13123094 0.057506952
-0.17739245 0.07505978 -0.030584598 0.08438377 -0.12235119 -0.07145486 -0.0049609924 -0.07135523
-0.052775003 -0.017825289 -0.21607864 -0.12903517 -0.10234133 0.1480219 0.10551727 0.18299495
-0.11653293 -0.1431784 -0.09933361 -0.26540977 -0.08896591 -0.2533453 -0.108265646 -0.20629191
0.18756416 -0.11179144 0.20914325 -0.010452111 -0.13460313 0.049920324 0.058781616 0.24602902
-0.30646554 -0.29111964 0.14957334 -0.21190086 0.16906565 0.13973837 0.046721976 -0.08477124
-0.15607001 0.018109307 0.085330926 0.2173034 -0.103806734 0.018969048 0.044321205 -0.20378539
-0.08844233 0.16039765 0.09961377 -0.2617864 0.09440533 0.21600942 0.16965859 0.19750729
0.024476469 -0.08816264 -0.05831141 -0.017597891 -0.11254709 -0.15796773 0.19058092 0.16864856
0.0010578698 0.06918828 0.07651814 0.12584771 0.18473838 0.18070503 -0.020548042 -0.2892164
00000000: cca7 9bbd 6b70 2d3d 7d03 c83d 0e47 743c
00000010: 4e0c 363c a371 94bc ddab 27be 0e5a 8abd
00000020: ab82 f03d bd4c 123e e609 ffbd 51d2 0bbe
00000030: 874c 063e 1f7b 163e f58f a83b 793b d53d
00000040: 9b18 edbd b2e3 0c3e a3bf ddbb 6c1f e8bd
00000050: 6ea8 cbbd 06bd 52be 7409 dc3d 289e ff3d
00000060: a39a f63d 265f c73c ff1d 993d 1f3c 35be
00000070: f9d5 8cbc 106f ab3d b2c7 1c3d b4bc 25be
00000080: bf13 2f3e b042 043e 6849 3cbd 7fb6 c13d
00000090: 0430 303e c7f9 f2bd 21f5 113d 8df9 813d
000000a0: 7935 5bbe 3aee 253d cf64 6a3e 7dc2 09be
000000b0: 79c6 0bbd 7a53 3d3e 8d78 403d 134e 283e
000000c0: fb1d 22be 5bdd e0bd c26d 0cbe 35bf 393e
000000d0: 7e90 073d d6e2 41be 08b9 48bd 60d5 07bd
000000e0: ea52 3fbe b279 8fbd 8bda dcbc 70a2 de3d
000000f0: dcf4 4b3e de10 88bd fffe f43d fa37 733d
00000100: 5c53 c7bc 156e ac3b a872 5d3e 604c c83d
00000110: 980e 803e 4b3b bbbc 31cd d5bc 2fb1 f13d
00000120: 4b90 523e 5b98 97bc 4f26 2ebd 196c 33be
00000130: e39e 1abe ee7e 52bd 9ee0 113c 473c 72bd
00000140: 7e8e 47be cb1f ca3d c215 afbd 39cd 90bc
00000150: 3211 60bc 7cb9 2abe 60e4 71be a5c7 b6bd
00000160: 284f 403d 83a5 3dbe c2e8 203e 7ec7 01be
00000170: 5b47 333d 069f 6e3b 1699 5a3e 1855 0f3e
00000180: d84a f5bd 606f 4cbd 66b4 57be b596 6e3c
00000190: ee0a 0d3d 84c1 bc3d 8eb7 c33c fae7 9fbc
000001a0: dfd3 8abe a774 bebd 4cef 0d3e ff2d 73be
000001b0: 40ad 9bbd 6854 ffbd 14e8 57bd 8237 803d
000001c0: a12e 163e 93ff e4bd 77ea 00bd 1d1d ce3d
000001d0: c7b0 f3bd 86dd 70bd b0e5 ccbd 10ee 403d
000001e0: 8a62 82bd 84dd 4ebe e01d 2c3d 7f49 16be
000001f0: caa2 9dbc 0f1b cf3d 8efd 97bd 2393 233d
00000200: 319b 23bd 2858 683e b7d3 2fbe f588 e43d
00000210: 2624 83be ca1f e3bd 63f7 2d3e ed70 053e
00000220: 7196 3e3d bc66 9c3d 5c89 383e ed74 72bc
00000230: 932c 2dbd fce3 f9bd 6d3b 3abe 4b24 c6bd
00000240: a588 a73d 8ddb 4cbe 3d3b 5e3c 17dc d9bc
00000250: 61ee 543d d2e1 2abe 53c8 603e 325e e03d
00000260: 94d3 3a3d 351c 45be d2f1 c1bd 1cdf 193c
00000270: 4249 debb 5b06 e6bc 3b16 aa3d 94b2 0c3c
00000280: 9be3 73be c4e5 0b3e 1cf6 47be 95f8 17be
00000290: f8d4 aa3d f51d 2a3e 9b2b 2ebe 428a 27be
000002a0: ffc6 59be e0e4 4c3d 3289 3c3d 781a 7ebe
000002b0: 6922 c4bd 6e7a 343e 8915 013e 9dcd a73d
000002c0: 106c b03d d21a 23bc 9e8f e4bd ee3f edbd
000002d0: a67a 0f3e 6d3d 44be 6761 06be 698c 6b3d
000002e0: 5ea6 35be f1b8 993d 8d8c fabc 66d1 ac3d
000002f0: 4393 fabd ed56 92bd d28f a2bb b122 92bd
00000300: 9a2a 58bd 5706 92bc b843 5dbe cc21 04be
00000310: 5598 d1bd 0e93 173e 7019 d83d 0763 3b3e
00000320: d1a8 eebd 5c9d 12be 6b6f cbbd cae3 87be
00000330: c233 b6bd 7ab6 81be 61ba ddbd 303e 53be
00000340: d210 403e e9f2 e4bd a629 563e 553f 2bbc
00000350: 67d5 09be 4179 4c3d fec4 703d 08ef 7b3e
00000360: 0de9 9cbe a20d 95be c129 193e 8afc 58be
00000370: 8c1f 2d3e 9317 0f3e 8b5f 3f3d 8b9c adbd
00000380: d1d0 1fbe f859 943c fbc1 ae3d c884 5e3e
00000390: a098 d4bd fa64 9b3c 278a 353d 1ead 50be
000003a0: 4121 b5bd 483f 243e 4e02 cc3d de08 86be
000003b0: 9557 c13d 9331 5d3e fbba 2d3e 5a3f 4a3e
000003c0: e082 c83c 9d8e b4bd f2d7 6ebd 7429 90bc
000003d0: 177f e6bd 4bc2 21be a527 433e 35b2 2c3e
000003e0: 38a8 8a3a 96b2 8d3d 8bb5 9c3d 39de 003e
000003f0: 0f2c 3d3e bd0a 393e 5e54 a8bc 2c14 94be

main.4.bias f4 [2048]
0.011515096 -0.016374798 0.2456137 0.06945613 -0.11790883 -0.0020673883 0.057509724 0.091618635
-0.029239519 -0.06381206 -0.0905516 -0.10745587 0.22101222 0.08893449 0.057435226 -0.13522533
0.2662608 -0.007253853 -0.14429669 -0.08089304 -0.15511549 0.0327223 0.014087353 0.24374878
-0.07590474 0.08650042 -0.031414337 0.1803799 0.18539819 0.22429244 -0.079178 -0.047115855
-0.13861473 -0.019545566 0.15368551 0.18320271 0.22886363 0.16781889 -0.092312165 0.20274132
0.19929878 0.19798578 0.19940026 0.24817142 -0.02539098 0.09630401 0.14121845 -0.0221956
0.18165937 -0.122232966 0.10785559 -0.12823828 0.16651025 0.24845695 -0.11345255 -0.16128838
0.027762854 -0.14031948 0.06530328 0.2446951 0.0634084 0.27096507 -0.17234132 -0.010454369
-0.31461075 -0.23836526 0.10420325 0.057835076 0.08933358 -0.039757933 0.0930945 0.0741063
0.019844232 0.1072165 0.1354983 -0.0021058994 -0.12492169 -0.0533366 0.15085968 -0.12780608
-0.20936473 -0.14172967 0.20080698 -0.092414044 0.06228462 0.13674547 0.051130056 0.13620093
-0.086946994 0.02482658 -0.13980651 0.0049664546 0.123348005 0.017599747 -0.043270342 0.13246147
0.13179682 -0.05176218 -0.1860602 -0.20118222 0.14325233 -0.081383936 0.17480598 0.036605284
-0.017852899 -0.0070835436 0.13945337 -0.12901157 0.1415026 -0.2053416 -0.091867924 0.03662021
0.07365195 -0.20737387 -0.0061273286 0.16945885 -0.15637687 -0.07068633 -0.12896502 0.03641815
0.16537833 0.14204639 -0.096797004 -0.1629918 0.02847917 -0.08193853 0.12157519 -0.021005353
0.17210448 0.05776085 -0.040441427 0.18377466 0.09272509 0.08016669 0.07443128 0.1582838
-0.040698864 -0.05274776 0.17024493 -0.050913665 0.30289638 -0.0084272325 -0.06484439 0.10545365
-0.044815954 0.1829382 -0.12466333 0.025293458 0.09616639 -0.12970293 0.27946022 -0.15519327
0.26657596 0.037167586 0.04017119 -0.063884884 0.03860704 -0.04116111 -0.05295937 -0.104029424
0.14938922 0.20352964 -0.071438484 0.12541562 -0.13505924 0.09488198 -0.01146495 0.21566033
0.2544097 0.105167545 -0.027697342 0.064536355 0.12953901 0.18386327 -0.03049305 0.104317054
0.20750813 -0.16613066 -0.0792145 0.16732423 0.20336284 0.10253884 -0.17535728 0.17427129
-0.120949216 -0.0028088605 0.07778117 0.0707391 -0.037085716 0.10671349 -0.106547154 -0.00040868955
-0.024988472 0.36184645 0.11234058 0.2962413 -0.05972992 -0.118009344 0.259933 0.050362304
0.22865756 -0.07074926 0.17878424 0.043994687 -0.042924125 -0.067395344 -0.09769014 0.250758
-0.04975522 -0.002327197 0.2720735 0.24985617 0.03722439 -0.10470148 0.048128344 -0.048079763
-0.1152883 0.25165957 0.1951037 0.28321713 0.058169186 -0.12956719 0.0624901 0.081635125
0.04734253 0.0022979886 0.08989838 0.046507392 0.16144565 -0.04059441 -0.01345204 0.2788303
-0.07275324 0.20674793 -0.0717197 0.22798432 -0.10760872 0.26779273 -0.13214153 -0.107702255
-0.039307144 0.05087099 0.05103997 0.051933266 -0.019870145 0.25103483 0.16620566 0.038104925
-0.11670382 0.1830696 -0.07042222 0.20561375 0.038642228 0.16975993 -0.045686442 -0.12518871
00000000: d0a9 3c3c 7124 86bc 2882 7b3e 043f 8e3d
00000010: 2f7a f1bd 057d 07bb 518f 6b3d 8da2 bb3d
00000020: b787 efbc e6af 82bd 1e73 b9bd d311 dcbd
00000030: 0751 623e 4923 b63d 3341 6b3d 8278 0abe
00000040: 5653 883e bbb1 edbb 83c2 13be 40ab a5bd
00000050: 98d6 1ebe d207 063d a4ce 663c 4899 793e
00000060: f273 9bbd 2227 b13d 52ac 00bd 82b5 383e
00000070: 06d9 3d3e ebac 653e 1328 a2bd 8efc 40bd
00000080: 05f1 0dbe 061e a0bc bc5f 1d3e 7e99 3b3e
00000090: 3a5b 6a3e b7d8 2b3e 290e bdbd 6c9b 4f3e
000000a0: fb14 4c3e c9bc 4a3e 952f 4c3e a620 7e3e
000000b0: bf00 d0bc 093b c53d 929b 103e 8cd3 b5bc
000000c0: ea04 3a3e 4755 fabd 64e3 dc3d e550 03be
000000d0: aa81 2a3e 806b 7e3e cf59 e8bd c828 25be
000000e0: ed6e e33c e9af 0fbe babd 853d 5a91 7a3e
000000f0: 43dc 813d efbb 8a3e 3e7a 30be cd48 2bbc
00000100: a914 a1be 0616 74be 8368 d53d 79e4 6c3d
00000110: 86f4 b63d 37d9 22bd 54a8 be3d 0bc5 973d
00000120: 5f90 a23c 5394 db3d 11c0 0a3e 2103 0abb
00000130: f1d6 ffbd 7b77 5abd f67a 1a3e 99df 02be
00000140: b563 56be 9521 11be 58a0 4d3e 9343 bdbd
00000150: 281e 7f3d 0107 0c3e c06d 513d 4278 0b3e
00000160: 4411 b2bd 1d61 cb3c 7029 0fbe a4bd a23b
00000170: e19d fc3d 582d 903c 3e3c 31bd fba3 073e
00000180: bff5 063e 9404 54bd 9186 3ebe b602 4ebe
00000190: bdb0 123e 9fac a6bd 5700 333e 6cef 153d
000001a0: 3e40 92bc 121d e8bb ddcc 0e3e 9c1b 04be
000001b0: 0fe6 103e 1245 52be 4025 bcbd 13ff 153d
000001c0: d5d6 963d d159 54be c2c7 c8bb 9f86 2d3e
000001d0: 4221 20be ffc3 90bd 680f 04be 332b 153d
000001e0: f058 293e 9c74 113e 823d c6bd 53e7 26be
000001f0: 264d e93c 63cf a7bd 6afc f83d 6b13 acbc
00000200: 283c 303e a496 6c3d e9a5 25bd 6d2f 3c3e
00000210: a7e6 bd3d 6f2e a43d 6d6f 983d 2615 223e
00000220: dab3 26bd 090e 58bd b054 2e3e d98a 50bd
00000230: 3c15 9b3e 6012 0abc 23cd 84bd 15f8 d73d
00000240: ef90 37bd 2754 3b3e 7d4f ffbd 3a34 cf3c
00000250: e2f2 c43d d8d0 04be 6915 8f3e fcea 1ebe
00000260: a57c 883e 0a3d 183d 8c8a 243d 14d6 82bd
00000270: 6a22 1e3d 8d98 28bd edeb 58bd 610d d5bd
00000280: 7df9 183e 136a 503e 574e 92bd f46c 003e
00000290: f84c 0abe 7c51 c23d 7cd7 3bbc 10d6 5c3e
000002a0: fd41 823e 1562 d73d 89e5 e2bc a32b 843d
000002b0: e0a5 043e a746 3c3e 90cc f9bc 2ea4 d53d
000002c0: 037d 543e 281e 2abe 363b a2bd 0b57 2b3e
000002d0: 593e 503e e2ff d13d dc90 33be 2c74 323e
000002e0: 39b4 f7bd dc14 38bb bc4b 9f3d a9df 903d
000002f0: 31e7 17bd 9a8c da3d 6535 dabd 6245 d6b9
00000300: a0b4 ccbc f043 b93e d112 e63d f1ac 973e
00000310: 5ca7 74bd e2ae f1bd f015 853e b448 4e3d
00000320: 3525 6a3e fde4 90bd 3713 373e c633 343d
00000330: 35d1 2fbd 9206 8abd c511 c8bd 5a63 803e
00000340: 21cc 4bbd e383 18bb 384d 8b3e 4cda 7f3e
00000350: 9a78 183d bb6d d6bd 3a22 453d 49ef 44bd
00000360: 461c ecbd 86d9 803e 44c9 473e d601 913e
00000370: d042 6e3d 43ad 04be 9ef5 7f3d 5130 a73d
00000380: 3eea 413d da99 163b a41c b83d 897e 3e3d
00000390: 0252 253e 5346 26bd f265 5cbc d8c2 8e3e
000003a0: a7ff 94bd bbb5 533e c7e1 92bd b974 693e
000003b0: f661 dcbd 211c 893e 1c50 07be 0093 dcbd
000003c0: 8700 21bd 195e 503d 4a0f 513d fab7 543d
000003d0: b7c6 a2bc a387 803e d131 2a3e e913 1c3d
000003e0: 6a02 efbd 9976 3b3e 8639 90bd 698c 523e
000003f0: 5047 1e3d 8cd5 2d3e b521 3bbd 7831 00be

conv.0.weight f4 [20, 1, 5, 5]
0.14171264 0.16380793 0.1870289 0.1778634 -0.0075230673 0.026726045 0.02013694 0.20594962
0.06979186 -0.06927449 -0.046171747 0.06092175 0.04144637 0.0004006744 0.032253634 0.099898085
0.18910243 0.13889316 0.118715465 0.062454183 -8.424148e-05 0.09318454 0.09486935 0.034792703
-0.039228193 -0.035104692 -0.2603612 -0.12285437 -0.17056426 -0.06927623 0.072811075 -0.13027987
0.03927444 -0.100600064 -0.16472496 -0.1695921 -0.11722027 -0.03193782 -0.15490194 -0.056453273
0.008491743 0.017625064 -0.24663296 -0.032092117 -0.14018624 -0.011220353 -0.23447043 -0.027523844
-0.28186354 -0.18957591 0.029011905 -0.10650199 -0.24337149 -0.21215792 -0.20284176 -0.13506046
-0.089387454 -0.2000278 0.020822544 -0.007941692 0.020504147 -0.08238764 -0.0054900595 -0.011938736
0.034963075 -0.017147563 -0.12180681 -0.013303639 7.3461226e-05 -0.18253641 -0.110386126 -0.076386645
-0.019906547 -0.09697341 -0.08620301 0.047006674 0.03519698 0.09439605 0.15045269 -0.09572276
0.05707579 -0.09827914 0.03169082 0.06493343 -0.007428244 -0.018146258 -0.06162963 -0.12475866
0.07447634 -0.098941065 0.1698298 0.1402744 0.08164134 0.036334034 0.15522578 0.118413284
0.047209714 0.26345396 0.14835142 -0.06927692 -0.10278669 -0.21438071 -0.17246516 -0.09920799
-0.10817521 -0.09105408 -0.25758672 -0.27701676 -0.24664032 -0.07214 0.059629574 -0.108660005
-0.046716865 -0.10036027 -0.03410755 0.024924472 0.06718412 -0.054154042 0.052113406 0.13105722
0.0639523 0.0374966 -0.024690775 0.1472223 0.072019026 -0.09458534 0.1485744 -0.10566596
-0.09003306 -0.08629435 0.24096547 0.16871826 0.07091663 -0.0015540546 0.13833888 0.13910948
0.04043246 0.00011380186 0.20387663 0.07953481 -0.0810285 0.01586104 0.15761259 0.1471069
0.1365315 0.03875493 0.04897497 0.09029809 0.04090864 0.124171756 -0.045045953 -0.0284868
-0.019000707 0.059618 -0.059502713 -0.052889153 0.0058981557 -0.13206391 -0.24537486 -0.230923
-0.23321281 -0.03578032 -0.13430902 -0.2621652 -0.20253988 0.019219007 -0.09794026 -0.039416973
-0.06061503 -0.04104014 -0.10605807 0.070534706 -0.12896055 -0.088499576 -0.07514321 -0.08196681
-0.17782469 -0.1692007 -0.1733256 -0.24484324 -0.095477596 -0.12884447 -0.048471253 -0.03789363
-0.16339396 -0.12424103 -0.13710502 -0.0044844113 -0.16913198 0.013707037 -0.04587465 0.108130656
0.012803155 -0.033077512 0.043158688 0.13205157 0.19504124 0.11299199 -0.04266787 0.030767797
-0.08153934 -0.08676238 -0.06062282 -0.06700111 -0.11176265 0.013870849 0.0064294073 0.0013558536
0.08462579 -0.16876376 -0.02717826 -0.106141314 0.124952085 -0.11213996 -0.16131751 -0.048189968
-0.21096013 0.032768477 -0.20043598 -0.117253274 -0.21604568 -0.09779815 -0.033437952 -0.14609452
-0.059739515 -0.036396846 -0.047207747 0.08709454 -0.097003184 0.2570268 -0.058872778 -0.12261064
0.02638539 0.09961715 0.031600118 0.0018413346 -0.11611572 -0.056405555 0.122515514 0.109932825
0.00017348974 0.026671343 0.06766576 0.0903244 0.10568619 -0.29788685 -0.25015864 -0.26328638
0.038339823 -0.06005859 -0.06342121 0.10856499 0.15719801 -0.05699475 0.0224571 -0.05937087
00000000: 1e1d 113e 44bd 273e 8184 3f3e d321 363e
00000010: 1084 f6bb 94f0 da3c 39f6 a43c 75e4 523e
00000020: 09ef 8e3d c9df 8dbd 961e 3dbd 1689 793d
00000030: abc3 293d 9c11 d239 631c 043d 5e97 cc3d
00000040: 11a4 413e 023a 0e3e 1821 f33d f5cf 7f3d
00000050: cdaa b0b8 89d7 be3d dd4a c23d cb82 0e3d
00000060: bead 20bd f0c9 0fbd 104e 85be 129b fbbd
00000070: 66a8 2ebe b2e0 8dbd f91d 953d 1668 05be
00000080: 3cde 203d 6807 cebd a9ad 28be 8da9 2dbe
00000090: 2e11 f0bd 3bd1 02bd 9d9e 1ebe 8c3b 67bd
000000a0: f420 0b3c 7062 903c 5a8d 7cbe 0673 03bd
000000b0: fb8c 0fbe 92d5 37bc 0419 70be af79 e1bc
000000c0: 6b50 90be 3020 42be 60aa ed3c b71d dabd
000000d0: 6036 79be ed3f 59be c0b5 4fbe 4a4d 0abe
000000e0: c510 b7bd 16d4 4cbe 0a94 aa3c df1d 02bc
000000f0: 50f8 a73c daba a8bd f5e5 b3bb b09a 43bc
00000100: 7135 0f3d 0c79 8cbc d975 f9bd 82f7 59bc
00000110: 320f 9a38 d3ea 3abe 1f12 e2bd 9a70 9cbd
00000120: 0e13 a3bc ff99 c6bd 348b b0bd 128a 403d
00000130: b52a 103d b752 c13d 4510 1a3e 4b0a c4bd
00000140: 4ec8 693d 9346 c9bd 3cce 013d d1fb 843d
00000150: a168 f3bb 76a7 94bc 5a6f 7cbd 7881 ffbd
00000160: 0d87 983d 9da1 cabd dde7 2d3e 18a4 0f3e
00000170: 9333 a73d ffd2 143d 82f3 1e3e aa82 f23d
00000180: f95e 413d 70e3 863e 6fe9 173e 0fe1 8dbd
00000190: d481 d2bd 9e86 5bbe b59a 30be 8f2d cbbd
000001a0: f78a ddbd 907a babd 68e2 83be 24d5 8dbe
000001b0: 488f 7cbe 23be 93bd 243e 743d 2389 debd
000001c0: 2f5a 3fbd af89 cdbd 5cb4 0bbd 682e cc3c
000001d0: d497 893d a1d0 5dbd de74 553d dd33 063e
000001e0: 6cf9 823d 0996 193d 4f44 cabc 71c1 163e
000001f0: b67e 933d f5b5 c1bd e323 183e 6567 d8bd
00000200: 4163 b8bd 18bb b0bd a7bf 763e 7bc4 2c3e
00000210: bd3c 913d 6bb1 cbba b5a8 0d3e b772 0e3e
00000220: 829c 253d e9a8 ee38 09c5 503e 25e3 a23d
00000230: 45f2 a5bd 03ef 813c 3265 213e 31a3 163e
00000240: eace 0b3e 7dbd 1e3d fa99 483d 34ee b83d
00000250: d18f 273d c34d fe3d 1b82 38bd 265d e9bc
00000260: 5fa7 9bbc 0132 743d 1eb9 73bd 4ca2 58bd
00000270: 5145 c13b c33b 07be 8c43 7bbe 1477 6cbe
00000280: 57cf 6ebe 638e 12bd 4e88 09be 843a 86be
00000290: 9d66 4fbe 2e71 9d3c e794 c8bd b173 21bd
000002a0: 7747 78bd b519 28bd f934 d9bd 8074 903d
000002b0: 3c0e 04be 443f b5bd afe4 99bd 37de a7bd
000002c0: ad17 36be f342 2dbe 447c 31be 30b8 7abe
000002d0: c289 c3bd ceef 03be cb89 46bd 5a36 1bbd
000002e0: bf50 27be 1572 febd 4265 0cbe f8f1 92bb
000002f0: ef30 2dbe 7b93 603c 0fe7 3bbd 9b73 dd3d
00000300: 53c4 513c 497c 07bd 2ac7 303d 8738 073e
00000310: e4b8 473e 5868 e73d 81c4 2ebd bf0c fc3c
00000320: 19fe a6bd 7ab0 b1bd a24f 78bd e137 89bd
00000330: d1e3 e4bd 8f42 633c c7ad d23b e6b6 b13a
00000340: 4950 ad3d 68d0 2cbe f1a4 debc 9e60 d9bd
00000350: e1e6 ff3d a3a9 e5bd 6b30 25be d862 45bd
00000360: ef05 58be 3d38 063d 173f 4dbe 7c22 f0bd
00000370: 143b 5dbe 654a c8bd 3cf6 08bd cd99 15be
00000380: 6cb1 74bd dc14 15bd e95c 41bd 9f5e b23d
00000390: 9ba9 c6bd 0499 833e 9524 71bd 4a1b fbbd
000003a0: 2c26 d83c 1404 cc3d 206f 013d f058 f13a
000003b0: 14ce edbd 8309 67bd 6ae9 fa3d 7624 e13d
000003c0: ccea 3539 dc7d da3c 5994 8a3d 00fc b83d
000003d0: 0072 d83d a084 98be cb14 80be 79cd 86be
000003e0: 380a 1d3d ffff 75bd fbe2 81bd 5257 de3d
000003f0: 84f8 203e 5473 69bd f4f7 b73c df2e 73bd

conv.0.bias f4 [20]
0.21082474 0.22660069 0.14819655 0.2658458 0.12293407 -0.23543067 -0.23101643 0.17046247
-0.09694864 0.27843356 0.12283843 0.02963321 0.09991287 0.07700971 -0.2512852 0.24620654
0.19851549 0.11012345 -0.039529834 0.074367255
00000000: 71e2 573e 030a 683e d6c0 173e f11c 883e
00000010: dcc4 fb3d bd14 71be 928f 6cbe b78d 2e3e
00000020: 028d c6bd d88e 8e3e b792 fb3d 58c1 f23c
00000030: 1e9f cc3d 44b7 9d3d 74a8 80be 911d 7c3e
00000040: a547 4b3e 6788 e13d 09ea 21bd dc4d 983d

conv.2.weight f4 [20]
1.0877571 1.1128927 1.1495628 0.96728677 1.193294 1.1204263 1.0965936 1.1279722
1.0615945 1.0275671 0.8892468 0.94937915 1.0862879 1.0560377 1.1462336 1.0040793
0.9466224 1.0868816 1.1085392 0.9222559
00000000: a03b 8b3f 4573 8e3f e024 933f 1ba0 773f
00000010: dcbd 983f 216a 8f3f 2e5d 8c3f 6561 903f
00000020: 54e2 873f 5287 833f aea5 633f 830a 733f
00000030: 7b0b 8b3f 3e2c 873f c8b7 923f ac85 803f
00000040: d855 723f f01e 8b3f 9de4 8d3f f618 6c3f

conv.2.bias f4 [20]
0.13186479 -0.13881731 -0.12939599 0.1310598 0.13995592 -0.13017376 0.14417857 0.15955748
0.14995454 0.14318046 0.15017337 0.14426024 -0.11740625 -0.14495523 -0.13445471 0.14135395
0.13810737 0.15027256 -0.13964213 0.12538573
00000000: 9007 073e 2026 0ebe 6280 04be 8a34 063e
00000010: 9b50 0f3e 454c 05be 8ca3 133e 0963 233e
00000020: af8d 193e e69d 123e 0cc7 193e f5b8 133e
00000030: b072 f0bd 256f 14be 7fae 09be 17bf 103e
00000040: 056c 0d3e 0de1 193e 59fe 0ebe 1e65 003e

conv.2.running_mean f4 [20]
0.5523035 -0.043756783 -0.033991367 0.48272613 -0.0032217496 0.102887735 -0.13022977 0.02631949
-0.08972358 0.22729379 0.24085782 0.014089752 -0.035515152 0.05205571 0.120438345 0.5509747
0.25056112 0.43251163 0.18490376 0.18657109
00000000: c363 0d3f 503a 33bd 883a 0bbd e127 f73e
00000010: fd23 53bb ceb6 d23d f45a 05be f99b d73c
00000020: ffc0 b7bd b4bf 683e 6fa3 763e b4d8 663c
00000030: 5678 11bd 5e38 553d 61a8 f63d ae0c 0d3f
00000040: 8c49 803e 2a72 dd3e 6957 3d3e 7e0c 3f3e

conv.2.running_var f4 [20]
0.025749033 0.005723985 0.003132171 0.031668384 0.0073836604 0.019069633 0.001608866 0.01028186
0.0014653812 0.032262266 0.03388871 0.009926495 0.0062997476 0.017859107 0.013619197 0.043967452
0.021898558 0.029262621 0.031691104 0.031988367
00000000: a3ef d23c 4490 bb3b 1c45 4d3b b5b6 013d
00000010: a2f2 f13b eb37 9c3c 96e0 d23a 3f75 283c
00000020: 0912 c03a 7025 043d e3ce 0a3d bda2 223c
00000030: 1d6e ce3b 434d 923c 0d23 5f3c 3717 343d
00000040: 9b64 b33c 2ab8 ef3c 88ce 013d 3c06 033d

conv.3.weight f4 [1, 20, 5, 5]
-0.19013526 -0.10667883 -0.09833379 -0.11303871 -0.1529362 -0.11122106 -0.13149804 -0.041698642
-0.17777324 -0.13790643 -0.13119125 -0.05136063 0.04207445 -0.05118853 -0.10595105 -0.16046523
-0.17577386 -0.11168737 -0.15697588 -0.15010943 -0.16742817 -0.11267467 -0.120136455 -0.07887406
-0.12912549 0.17338774 0.15067358 0.10585288 0.17021555 0.16719493 0.1050706 0.16187894
0.094381206 0.11287575 0.16298938 0.10699285 0.12883422 0.08799385 0.104288265 0.11655352
0.110278495 0.12546074 0.13063557 0.11897306 0.14945586 0.17115189 0.1258706 0.10765978
0.16364272 0.10329012 0.1553442 0.1352285 0.10778058 0.18374933 0.15682779 0.15624529
0.08160567 0.08426997 0.13503374 0.14928429 0.11983646 0.07134431 0.072795734 0.048284054
0.06330495 0.10678636 0.1665637 0.121792816 0.11963421 0.16539517 0.18153837 0.16318044
0.11557973 0.15953138 0.12952892 -0.15510742 -0.115333326 -0.14192197 -0.1439736 -0.089832805
-0.17466627 -0.1730944 -0.1633954 -0.085042655 -0.119555764 -0.07377956 -0.09971854 -0.09932853
-0.06377208 -0.1234562 -0.08853502 -0.08518404 -0.1473352 -0.17116547 -0.15615189 -0.15518959
-0.1428241 -0.071118064 -0.15438688 -0.115414225 -0.10425255 -0.09360195 -0.14201814 -0.08127786
-0.11817135 -0.15694195 -0.16765957 -0.14991318 -0.18328078 -0.12917525 -0.16415022 -0.17993487
-0.16019613 -0.17123292 -0.14876536 -0.102692716 -0.13925202 -0.09437787 -0.11667591 -0.011937196
0.100822724 -0.045043316 -0.09063806 0.064487554 0.10831593 0.10007552 0.18231973 0.15884943
0.104670934 0.10610498 0.14147931 0.13889383 0.1799128 0.18208455 0.11623065 0.12680542
0.09672623 0.15628688 0.14056589 0.14555892 0.08937218 0.15409544 0.17349108 0.08047476
0.14639118 0.13771057 0.10982205 0.09789216 0.117557265 0.10409994 -0.10631179 -0.13570939
-0.13216871 -0.121374026 -0.12479397 -0.08123995 -0.06811716 -0.17107491 -0.13964419 -0.1028686
-0.10681726 -0.08643755 -0.12049108 -0.16593452 -0.15761602 -0.10713463 -0.123503014 -0.15981443
-0.117734715 -0.084798396 -0.012713844 -0.07425197 -0.10741129 -0.09012628 -0.09692362 -0.1017379
-0.14902902 -0.13872878 -0.09431358 -0.16995262 -0.13005507 -0.15775093 -0.14774206 -0.10604385
-0.1196125 -0.15608926 -0.09919476 -0.18428923 -0.10442928 -0.13361646 -0.11624378 -0.106415965
-0.19420508 -0.15077728 -0.12990004 -0.0056745633 -0.056655984 -0.10217255 -0.008167647 -0.00021465254
-0.0629265 -0.024975095 -0.12011702 -0.087582715 -0.08800338 -0.066835955 -0.1497263 -0.13563894
-0.13948578 -0.08385446 -0.16320555 -0.105864845 -0.16446148 -0.18504287 -0.17164668 -0.12056838
-0.05557526 -0.15900147 -0.08354256 -0.09932368 -0.10041899 -0.13055542 -0.16472514 -0.13343951
-0.09775355 -0.145869 -0.14776078 -0.077552244 -0.09725321 -0.06712671 -0.10964292 -0.102592714
-0.13746342 -0.08297015 -0.1099694 -0.15186153 -0.1081113 -0.14951214 -0.1289958 -0.1496353
-0.14466164 -0.14522369 -0.13375923 -0.1330363 -0.06835786 -0.14839013 -0.08481998 -0.16138889
-0.12934458 -0.10303004 -0.17179793 -0.12884887 -0.0791806 -0.11877203 -0.13807449 -0.13384585
00000000: d1b2 42be 6e7a dabd 3a63 c9bd d780 e7bd
00000010: 4f9b 1cbe dec7 e3bd 6ca7 06be 32cc 2abd
00000020: 300a 36be 5837 0dbe 0057 06be 865f 52bd
00000030: 4256 2c3d 10ab 51bd ddfc d8bd ff50 24be
00000040: 10fe 33be 59bc e4bd 49be 20be 49b6 19be
00000050: 4a72 2bbe fac1 e6bd 1a0a f6bd b988 a1bd
00000060: 7939 04be 8e8c 313e 2d4a 1a3e 65c9 d83d
00000070: fc4c 2e3e 2635 2b3e 412f d73d 98c3 253e
00000080: ef4a c13d 672b e73d b0e6 263e 111f db3d
00000090: 1eed 033e 1f36 b43d 1695 d53d 9db3 ee3d
000000a0: b1d9 e13d c878 003e 55c5 053e 26a8 f33d
000000b0: f50a 193e 7142 2f3e 39e4 003e bb7c dc3d
000000c0: f591 273e c589 d33d 8d12 1f3e 5779 0a3e
000000d0: 11bc dc3d c928 3c3e 7797 203e c4fe 1f3e
000000e0: e020 a73d bc95 ac3d 4946 0a3e fbdd 183e
000000f0: d16c f53d f71c 923d ee15 953d 80c5 453d
00000100: 07a6 813d cfb2 da3d ad8f 2a3e 836e f93d
00000110: c802 f53d 5a5d 293e 32e5 393e c618 273e
00000120: 11b5 ec3d 325c 233e 3ba3 043e 7bd4 1ebe
00000130: e133 ecbd fe53 11be d16d 13be 43fa b7bd
00000140: b7db 32be a93f 31be 2051 27be d82a aebd
00000150: a7d9 f4bd bd19 97bd 3c39 ccbd c26c cbbd
00000160: f09a 82bd 9bd6 fcbd d951 b5bd f874 aebd
00000170: 0adf 16be 0046 2fbe 48e6 1fbe 05ea 1ebe
00000180: 7b40 12be 59a6 91bd 9817 1ebe 4b5e ecbd
00000190: 5c82 d5bd 61b2 bfbd 346d 11be 0275 a6bd
000001a0: d203 f2bd 64b5 20be f3ae 2bbe d782 19be
000001b0: f5ad 3bbe 8446 04be ff16 28be d940 38be
000001c0: 740a 24be af57 2fbe f255 18be 8f50 d2bd
000001d0: 1598 0ebe 2f49 c1bd c8f3 eebd 3b94 43bc
000001e0: 257c ce3d 577f 38bd 72a0 b9bd 0d12 843d
000001f0: bed4 dd3d 65f4 cc3d 06b2 3a3e 6da9 223e
00000200: b75d d63d 914d d93d f4df 103e 2f3a 0e3e
00000210: 103b 383e 5f74 3a3e 560a ee3d 48d9 013e
00000220: 6718 c63d ab09 203e 81f0 0f3e 660d 153e
00000230: c308 b73d 32cb 1d3e a5a7 313e f3cf a43d
00000240: 92e7 153e 0004 0d3e 62ea e03d af7b c83d
00000250: ddc1 f03d 5932 d53d ffb9 d9bd 67f7 0abe
00000260: 3c57 07be f292 f8bd fb93 ffbd 2261 a6bd
00000270: 0281 8bbd 432e 2fbe e3fe 0ebe c6ac d2bd
00000280: 02c3 dabd 2c06 b1bd 07c4 f6bd bdea 29be
00000290: 1866 21be 6769 dbbd 26ef fcbd 65a6 23be
000002a0: e61e f1bd c8aa adbd ba4d 50bc 6b11 98bd
000002b0: 73fa dbbd 2194 b8bd e47f c6bd f65b d0bd
000002c0: 109b 18be eb0e 0ebe 7a27 c1bd 0f08 2ebe
000002d0: 282d 05be 7689 21be b249 17be 852d d9bd
000002e0: 66f7 f4bd ddd5 1fbe 9f26 cbbd 51b6 3cbe
000002f0: 05df d5bd c1d2 08be 3811 eebd 9df0 d9bd
00000300: b2dd 46be 5c65 1abe 8404 05be b0f1 b9bb
00000310: 1b10 68bd d83f d1bd 98d1 05bc 5a14 61b9
00000320: 9cdf 80bd 9298 ccbc eaff f5bd 915e b3bd
00000330: 1e3b b4bd 4ae1 88bd da51 19be efe4 0abe
00000340: 5cd5 0ebe e3bb abbd 5b1f 27be abcf d8bd
00000350: 9768 28be e17b 3dbe 26c4 2fbe 8eec f6bd
00000360: e2a2 63bd 48d1 22be 5d18 abbd 376a cbbd
00000370: 79a8 cdbd 52b0 05be b5ad 28be 5ea4 08be
00000380: 0333 c8bd af5e 15be 9a4e 17be b6d3 9ebd
00000390: b12c c7bd bb79 89bd 788c e0bd 211c d2bd
000003a0: 36c3 0cbe 41ec a9bd a337 e1bd 9781 1bbe
000003b0: 7569 ddbd b619 19be 7a17 04be ff39 19be
000003c0: 2e22 14be 85b5 14be 2ef8 08be ab3a 08be
000003d0: 35ff 8bbd 95f3 17be 19b6 adbd 2143 25be
000003e0: e872 04be 6a01 d3bd cceb 2fbe f5f0 03be
000003f0: 7029 a2bd c03e f3bd 6663 0dbe e30e 09be
