src/caches/cache_16_20_big/param2img6.pt (torch, 184864 bytes, 19 tensors)

main.0.weight f4 [16]
00000000: c649 4a3f 445c 3d3f 5b55 423f bcf0 813f
00000010: 6b18 4b3f f462 893f f70c 643f 03e4 7c3f
00000020: 8991 823f 3eff 763f a195 783f 7f3e 783f
00000030: 3dc4 873f d0ec 3d3f c5b9 3f3f 75b2 743f
0.7901882 0.7396891 0.7591149 1.0151591 0.79334134 1.0733323 0.8908228 0.9878542
1.0200664 0.9648322 0.97103316 0.9697036 1.0606762 0.7418947 0.74892837 0.95584804

main.0.bias f4 [16]
00000000: 8bb3 b3bb 12e7 3bbe 6ecc 603e 75e3 0cbe
00000010: 7ed4 00be 5f1f 9e3d 716a d9bd 289f 5a3d
00000020: 6b45 5c3d 723f 1bbe 6dce 5fbe 5d19 9fbd
00000030: 587c d7bd 991a 0dbe a5b3 42be b095 adbd
-0.0054840497 -0.18349865 0.21952984 -0.13758643 -0.1258106 0.07720827 -0.10616005 0.05337444
0.05377714 -0.15160921 -0.21856089 -0.077685095 -0.105217636 -0.13779677 -0.19013841 -0.08475816

main.0.running_mean f4 [16]
00000000: 4eba 23b7 befe c337 44cb 4c3e 229c f6bb
00000010: dea5 2e3c 57c5 d63a 70e7 fc3e 92e1 f6bb
00000020: d677 ae3c db1e d53a e9e4 fc3e a090 f6bb
00000030: 83f1 023d d81a 40b8 9dd0 4c3e 508d f8bb
-9.7589345e-06 2.3364435e-05 0.19999415 -0.0075259367 0.010659663 0.0016385716 0.49395323 -0.0075342143
0.021297377 0.0016259806 0.49393395 -0.007524565 0.031968605 -4.5801367e-05 0.20001455 -0.007585205

main.0.running_var f4 [16]
00000000: 498a 8735 dd4d 8c35 532b 8735 ea4c 033b
00000010: 6158 8837 cbe7 1439 5f87 983d 6560 033b
00000020: c54d 8038 23ca 1439 708d 983d dd69 033b
00000030: eac5 0f39 3fa2 7f35 fe40 8635 754f 033b
1.009853e-06 1.0453474e-06 1.0070893e-06 0.0020034858 1.6253618e-05 0.0001420073 0.07447695 0.002004647
6.118001e-05 0.00014189682 0.07448852 0.0020052113 0.00013711271 9.5231e-07 1.0002693e-06 0.0020036374

main.1.weight f4 [20, 16]
00000000: b9e0 7f3c e4eb 093d eb53 f0bc 9145 a7bd
00000010: 8f9e f13d 06fe 98bd 48b7 883e 7d4f 893d
00000020: cf21 d9bc 0359 6cbe 9dad 383e 06f9 1f3e
00000030: a69c 03be c0bf 96bc 176a 9e3b b026 453e
00000040: e890 d3bb 6b9b 7abc 43c6 40ba 24e8 e0bd
00000050: 6d29 33bd e68a 4f3e 0d93 fd3d 57a7 3ebd
00000060: ac2b 85be cee8 35bd 1b51 773e 85e6 673e
00000070: b168 91be ab0d de3b 55e2 b7bb f0e3 083d
00000080: 3548 4cbb d760 49bb 3e3a 553b 89b4 9abc
00000090: 2e95 04bd 99fa da3d d2a8 4abc 48f0 63ba
000000a0: d62e 4c3d 1783 a53d 1598 203d 5027 fc3d
000000b0: 018b 10be 98a2 78ba 85e4 00bc f835 c5bd
000000c0: 2a51 033b 065d 3f3c 2041 8bbb b8de 56be
000000d0: 1e96 213e 3389 9b3d 5058 af3d 7f30 bebc
000000e0: f6f1 6dbc 07ed c93d e181 143e e47a 7ebe
000000f0: a51c f1bd b13f ffbb e60a cd39 e83e 96be
00000100: 7863 dfba ac3f 743d 1e10 1bbd 3767 0dbe
00000110: 49a0 f83d f170 1c3e 7c4f 123d fd9c 25be
00000120: f74c 24be fc2e 2b3e 4022 573a 7d62 db3d
00000130: dfec 53be 3b4e 94bc eb5c 0d3d 3b1e b4bd
00000140: b9d0 edba 5ce2 27bc 46fd 3c3c 0157 71be
00000150: 1091 11bd 6806 10be f515 16be d91e 0e3e
00000160: 178c a5bb 1d4f 17be b5ee 43be dff7 21be
00000170: ba5b e1bd 8be1 3fbc 52dc 97bc 30a3 783d
00000180: d8d2 223b e3da 8c3c e4a6 12bc a52d 923c
00000190: bf24 bf3d 486b 453e 0b18 3ebd 88f1 0f3e
000001a0: 06cc 46bd f956 753e 01a2 2dbd 2189 1e3d
000001b0: d921 843e 6628 093a 3ede 1e3c 33ce 89be
000001c0: 6ee2 353b d2c4 f8bc 429e 7b3d c2db 903e
000001d0: dc9d 33bd 5f55 1ebe 013a 9e3c fb4c e3bd
000001e0: 8b4a f83d 4a77 533e 50a1 e23c accb 873e
000001f0: 58e3 a13e 5f7a f739 2379 463d 896c 693e
00000200: c9e9 1c3c 78b3 be3a 2895 a0bb f19f 443e
00000210: 74b5 b83c c0f1 823c 0040 153e 4973 f0bd
00000220: 066e a93d 1539 b2bd 3e90 04be b76e e1bd
00000230: 1bc1 e83d 9304 38bc d4d8 66bb 9cd1 d83d
00000240: b727 25bc e5e9 34bc e844 253c b723 21bc
00000250: 9ae6 24bd aefb 43bc cac0 1b3d 560b c3bc
00000260: 9df3 173e 6168 273e 5820 28bd b3a4 c53c
00000270: e5ae 1c3e ee3a 9b3a d0b4 e4bb e5ea 1e3d
00000280: 82ea 853c 815f 373d b0e3 10bd 78da 233e
00000290: 6c0f 763e db09 18be 07ba b5bd fe06 013e
000002a0: b56e 223e f606 cabc 9467 27be a4d7 c0bd
000002b0: 10d8 4e3d c97d f73c b726 bb3a 777a 6e3e
000002c0: 6cdf a7bc 22c2 553d e679 ddbc 76ed 06be
000002d0: beaa 0ebe 334d b33d 41d0 a4bd e7f3 1e3e
000002e0: 9b92 9dbe b2cd 6e3d af2b 723e c23c 95bc
000002f0: 03dc aa3d 2450 95bc 7256 673b 02e8 953d
00000300: 9c54 11bc ee82 eabc d6c0 a4bc 9249 0b3e
00000310: 4027 00bd 4d18 f4bd 71bd 0cbe 5c0c 4e3e
00000320: 1b82 863e b43d 24be 30c4 bebd cb88 5ebd
00000330: a6f9 803e baa3 883c 26f5 03bc 6c6e 9f3e
00000340: fa6f d5bc 9c23 f7ba 6a6f 19bd 3a66 84be
00000350: b10a c4bb 9755 7ebe 1463 e13d 48e8 493d
00000360: 68a8 5a3d 35f2 93bd a65a 813e 3de4 2a3e
00000370: 534c bb3d a994 0a3d 3bdb 1e3c 704c 033e
00000380: 4b06 ce3b 62e2 4c3d f5e9 0f3d aa52 97bc
00000390: 2fe5 1dbd 8606 b03d fedf c53d b1eb 493e
000003a0: c3dc dc3d 3586 ccbd 1bcb be3e 2a33 8a3d
000003b0: 5f89 653e 4c5b 5ebd 74d7 97ba 73b6 59be
000003c0: a0fb b33c 243d 843c 2ccc 8fbd 6b34 873e
000003d0: c264 873e 10fd 9cbd 5f46 973b 02dd 86bc
000003e0: 4734 ae3d fe65 243e aded f03d 005c 133e
000003f0: c89c bb3e 4795 1e3d 43ca cb3c 0495 0abd
0.015617543 0.03367223 -0.02933689 -0.081675656 0.11797821 -0.07470326 0.26702332 0.06704614
-0.026505379 -0.2308083 0.18034978 0.15622339 -0.12852725 -0.01840198 0.0048344242 0.1925304
-0.006456483 -0.015295844 -0.0007353762 -0.10981777 -0.04374068 0.2026783 0.12381563 -0.046546306
-0.26009881 -0.044411473 0.24152033 0.2264653 -0.28400186 0.0067765317 -0.0056116977 0.033420503
-0.0031170968 -0.0030727887 0.0032535936 -0.018884914 -0.03236883 0.10692329 -0.012369351 -0.00086951675
0.049849354 0.08081644 0.039207537 0.12312186 -0.14115526 -0.00094846776 -0.007866983 -0.09629434
0.0020037391 0.011679893 -0.004249707 -0.20983398 0.15779921 0.07594528 0.08561766 -0.023216484
-0.01452302 0.098596625 0.1450267 -0.24851567 -0.11773042 -0.007789575 0.00039108767 -0.2934487
-0.0017043194 0.059631035 -0.037857167 -0.13808905 0.12139947 0.15277459 0.035720333 -0.16173168
-0.16044985 0.16717142 0.0008206703 0.107121445 -0.20695828 -0.01810371 0.03451244 -0.087948285
-0.0018143869 -0.010246839 0.0115349945 -0.23568346 -0.035538733 -0.14064944 -0.14656813 0.13878955
-0.0050521004 -0.14776273 -0.19134028 -0.15817212 -0.110038236 -0.0117114885 -0.018537674 0.060702503
0.002484491 0.017194217 -0.008950923 0.01784403 0.09333181 0.19279206 -0.046409648 0.1405698
-0.048534416 0.23958959 -0.042390827 0.038704995 0.25807074 0.0005232155 0.009696541 -0.2691513
0.002775337 -0.030367289 0.061430223 0.28292662 -0.04385172 -0.15462254 0.019314768 -0.11098667
0.12123593 0.20650974 0.02766481 0.26522577 0.31618762 0.00047202685 0.04845537 0.22795309
0.009577223 0.0014549335 -0.0049005933 0.19201638 0.022547461 0.015984416 0.14575195 -0.11740739
0.082729384 -0.08702294 -0.12945649 -0.11007445 0.11364957 -0.011231559 -0.0035224454 0.10586855
-0.01008027 -0.011042093 0.010087229 -0.009835175 -0.04025898 -0.011961861 0.038025655 -0.023809116
0.14839025 0.16348411 -0.04104647 0.024126386 0.15301092 0.0011843124 -0.0069795623 0.03879823
0.016347174 0.044768814 -0.03537339 0.16001308 0.2402932 -0.1484751 -0.088733725 0.12600324
0.15862544 -0.024661522 -0.16348106 -0.0941613 0.050499022 0.030211346 0.0014278506 0.23288904
-0.020492278 0.052187093 -0.027035665 -0.13176522 -0.1393232 0.08754959 -0.08047534 0.15522729
-0.30775914 0.058301635 0.23649476 -0.018217448 0.08342745 -0.01822669 0.0035299328 0.073196426
-0.00887027 -0.028626885 -0.020111483 0.13602284 -0.03128743 -0.119186975 -0.13744141 0.20121902
0.26271138 -0.16039163 -0.093147635 -0.054329675 0.25190467 0.016679633 -0.008054053 0.31138933
-0.026054371 -0.0018855217 -0.03745977 -0.25859243 -0.00598272 -0.24837337 0.11005226 0.049293786
0.05338326 -0.07223932 0.25264472 0.16688628 0.09145417 0.03383318 0.009695823 0.12822127
0.0062873713 0.050020583 0.03513523 -0.018472034 -0.038548645 0.08594994 0.09661864 0.19718815
0.107842945 -0.099865355 0.37264332 0.0674804 0.22415684 -0.054286286 -0.0011584596 -0.21261005
0.02197057 0.016142435 -0.070213646 0.2640718 0.2644406 -0.07665455 0.004616543 -0.016462807
0.08506065 0.16054532 0.11764083 0.14390564 0.36643052 0.03871658 0.02487672 -0.03383352

main.1.bias f4 [20]
00000000: d33b 063d 3798 56bd 89af e4be 70a2 b93e
00000010: 36f2 d2be 8b1a cd3e 1057 8dbe 859f 263d
00000020: 8de9 71be d90a d7be 80de b2be 96ed 94be
00000030: f3ba 51bd 4881 f7bd 5c3a 03be 26db a5be
00000040: 4742 56be 39a8 94be e06a bbbe 2abf a7be
0.032771897 -0.052391257 -0.44665173 0.36256742 -0.41200417 0.40059313 -0.27605486 0.040679473
-0.23624249 -0.42000464 -0.3493538 -0.29087514 -0.05120368 -0.12085205 -0.12815231 -0.3239376
-0.2092372 -0.29034594 -0.36604977 -0.32763034

main.3.weight f4 [20]
00000000: cffe 5d3f acb9 743f ab7d 7b3f f542 813f
00000010: bffb 5f3f d161 763f d044 733f ccc2 733f
00000020: 45e7 673f 6799 633f 00d2 6d3f 112c 5a3f
00000030: be4b 673f fcca 623f a2b5 553f 0a7e 603f
00000040: 5fe4 6d3f 0c78 713f 5c33 833f f5f2 6d3f
0.8671693 0.9559581 0.9823863 1.0098559 0.8749351 0.96243006 0.95026875 0.9521911
0.90587264 0.8890595 0.9289856 0.8522349 0.9034995 0.8859098 0.83480275 0.8769232
0.9292659 0.943238 1.0250049 0.9294885

main.3.bias f4 [20]
00000000: 9a0f 3abd e0f3 45be 9b0e 16be 878c 29bd
00000010: 4202 9dbe 9130 89be 464d a6bd 369d a7bd
00000020: b812 dabd daff 14be 868f c2bd edc8 81be
00000030: 57e5 bcbd 277f fabc 29e9 f5bc 3cb0 fcbd
00000040: 7735 37be 260d 56be 4607 dcbd a889 46be
-0.045425035 -0.19331312 -0.14654009 -0.041393783 -0.30665785 -0.26794866 -0.081202075 -0.081842825
-0.106481016 -0.14550725 -0.09500031 -0.25348607 -0.092234306 -0.03057821 -0.030018406 -0.123383015
-0.17891489 -0.20903453 -0.10743575 -0.19388449

main.3.running_mean f4 [20]
00000000: 5945 3c3e a46a 363e b862 b0bd f52f 053f
00000010: 9d4c 51bd 96f0 103f 60a7 ac3c 29ca 443e
00000020: 27b3 27bd 92dd afbd bb83 95bb dd07 16bd
00000030: f7e9 7f3e eb21 5e3d f0f2 953d 2b6f 0cbd
00000040: 9445 563b bb96 26bc ead8 7fbd 18c0 143d
0.18385829 0.17814118 -0.08612579 0.520263 -0.051098455 0.56617105 0.021075904 0.19217743
-0.040942337 -0.08587183 -0.0045628226 -0.036628593 0.24991594 0.054231565 0.07321727 -0.034285706
0.003269528 -0.010167773 -0.062462725 0.036316007

main.3.running_var f4 [20]
00000000: 1b01 1c3e 7873 473e 163d 023b f486 bc3e
00000010: c806 123d 00a1 453e fa5d 743d a536 533e
00000020: 0278 923b 8700 9d3b 3afe 7e3d bd40 ae3c
00000030: 1eb0 7e3e 114a 8f3d 14d3 a73d 1420 9f3d
00000040: d6b4 3c3d 4b8a e93c ce4e 363c d5f0 c93d
0.15234797 0.19477642 0.0019872836 0.3682171 0.035651 0.19299698 0.059659936 0.20626314
0.0044698725 0.0047913226 0.062254168 0.021271104 0.24871871 0.06996549 0.08194557 0.0776979
0.046070896 0.028508326 0.011127187 0.09860388

main.4.weight f4 [2048, 20]
00000000: 1902 293e 538c 563d 3ca6 4e3e 6522 c03e
00000010: 6f5f 5c3e 6846 efbd e9aa 7fbe 0f7f 94be
00000020: e59c c0bd 29d1 e3be 31e3 63be 9ed9 933e
00000030: a0d6 dfbd a629 1cbe 6140 ddbd 14a0 c8be
00000040: 0286 acbe 3465 e83d 1f3e f53d f252 e53d
00000050: f7ce e5bc 76da db3d e95a ae3e 89e3 3e3d
00000060: 2005 963d becf bcbe 32f3 343e dde3 c3bd
00000070: ffe0 e23c e7d1 953d c6a1 77be 8045 c53e
00000080: 55b2 29bd 00cb 21be 4955 883c fad1 063e
00000090: b452 c8be 159c 883e f9e0 2d3e 1164 923b
000000a0: dd24 873e 4f06 8d3e 36b1 1d3e 2132 4d3e
000000b0: 0b97 9f3e db83 b13d 9d32 9c3d 74c6 a8bd
000000c0: 3a7d 71be 1beb 0c3c 74e5 1bbe e432 2abd
000000d0: 0af1 17be 0ce1 543e 5a26 433c 13c2 16be
000000e0: 1f65 b43d 6c8f 803e 8196 983e ecf2 b13e
000000f0: 7fb6 2f3e 5389 aa3e 70c3 9a3d c726 3a3e
00000100: 446e 193e bda2 0a3e 84b7 85bd 4722 2bbd
00000110: 0783 c63d 291f 5abe b835 d0bd 23b8 3f3d
00000120: c212 cf3d 09aa 1d3e 5790 12be aad2 93be
00000130: d61a 2dbd ea10 433e 3abc 433e bb14 093e
00000140: 7f62 1b3c 98be ac3e 16bd 9a3e fb0b 293d
00000150: 0a66 a83e 66b8 183d 7da3 3cbe f343 41be
00000160: 156d 61bd 6148 403e 327a c23c 24ea 433e
00000170: 75ac 96bd d7f6 643d 02f7 cf3c e7d5 c93d
00000180: 93b6 90bd 5114 003e ac11 6e3e 4f08 9ebd
00000190: abb2 84bb 8ad7 2abe 3ce3 4cbe 990a 9ebd
000001a0: b582 4d3d 18f9 7e3c b52e 003e 7e87 e43d
000001b0: 9c12 283e c329 44be 0387 283e 46f9 e83c
000001c0: 72d3 be3c bedc 58bd 9aec b83b 2277 e1bd
000001d0: c110 b8ba a1d1 9d3d d819 2dbe c489 1cbe
000001e0: 7bf8 69bd f80e 2a3e 97ca b4bd 8941 cdbc
000001f0: a5fb bd3e d812 9abd 1171 85be f9e8 8ebe
00000200: 73be e6bd 98c5 8ebd a8d7 7fbe 11e2 9c3e
00000210: 8503 26be 53e6 93bb 547f 61bd d89b 0cbe
00000220: 2e24 04be 9a06 4b3e 0e0d c33d 6bf2 063e
00000230: 4796 cf3d 7f3c 57be 1790 da3d 88e1 6f3d
00000240: 3226 973d c491 563d 48f6 5a3d bbb4 3b3e
00000250: 5450 0e3e 825b e53d 330e 39be f4c4 e0bd
00000260: 9fe6 643e 5cc9 76be fbe4 4cbe 8db9 623e
00000270: 79c9 e7bd 04f9 523d 553d 8abd 47b4 b4bd
00000280: 5837 76be 1692 d5bd cb60 42bd 0fef 53bd
00000290: 4f70 a83d c496 eabd 5fa2 4c3d a516 673e
000002a0: af75 0e3e cc9a eb3d e6fd c03d 19cc 65bd
000002b0: 7f0d 09bd 312f 293e f4bb 80bd 2812 14be
000002c0: 8040 93bd 3b9d aebc 9302 62bd 4111 9bbe
000002d0: f877 323e f0d8 4c3e 7183 433d 5671 373e
000002e0: 31c1 9a3e 67c4 9d3c f166 52bd 4edb 52be
000002f0: 22c7 5abe b38e 82bc e1d4 0fbe 46ba 2ebc
00000300: 61e7 6cbd 2883 e1bd 9712 6dbb 0334 32bc
00000310: 6292 44bd b71a ae3e a5e2 793e b4bb 3e3e
00000320: c62e 203e 1cb3 da3d d43e 143e 1fc7 873e
00000330: cc16 56bd e8ca 2ebe 1a19 dcbb 3e2d 5ebc
00000340: 3995 263e 4cb6 06bd 7870 57bd 4409 133e
00000350: 834e 8abd bb7d 473e e9e7 8cbc 6036 ecbd
00000360: 169b 64be 7117 55bb 2b28 873e 5a65 393d
00000370: 806a ac3d 09a7 17be 0ec4 23bd 3f1a 6dbd
00000380: 98e1 1dbe e80a a43d 2b53 22bd a04a 363e
00000390: 7b6c 8c3e a45a a23c 40e0 6b3e 359a 043e
000003a0: e951 0fb9 3fe5 90be 92f9 04be 165b a53d
000003b0: 348e 613e 5f07 423d 63d4 41be 34d9 11be
000003c0: 6d67 2d3d 0c45 703e 4ba5 553e ecdc 4ebd
000003d0: e65c 9d3e ee4f 123e f1ce 87bd 65ab 11bd
000003e0: 197a cebd c218 3d3e ec46 273c 1a93 e3bc
000003f0: b84c 4fbe 2928 073d 35e0 c73d e02c 6bbe
0.16504706 0.052379917 0.20180601 0.3752624 0.2152078 -0.11683351 -0.24967541 -0.29003188
-0.09404925 -0.44495514 -0.22254635 0.28876966 -0.10929608 -0.15250263 -0.10803295 -0.3918463
-0.3369599 0.11347428 0.11974739 0.11197461 -0.02805279 0.107350275 0.34053734 0.046603713
0.07325196 -0.36877245 0.17670897 -0.09564946 0.027695177 0.07315426 -0.24182805 0.38529587
-0.041429836 -0.15800095 0.01664223 0.13166037 -0.39125597 0.2668158 0.16980352 0.0044674953
0.26395312 0.27543876 0.15399632 0.20038654 0.31169924 0.086677276 0.07626841 -0.08240977
-0.23582926 0.008600975 -0.15224248 -0.04155244 -0.14838043 0.20788974 0.011910999 -0.14722471
0.0880835 0.25109422 0.29802325 0.34755647 0.1715946 0.33307895 0.07556808 0.18178855
0.14983469 0.13538642 -0.065291435 -0.041780736 0.0969296 -0.21300949 -0.10166496 0.046806466
0.10111 0.15396895 -0.14312874 -0.2887166 -0.04226192 0.19049421 0.19114771 0.13386814
0.0094839325 0.33739161 0.30222386 0.04127119 0.3289035 0.03728523 -0.18421741 -0.18873577
-0.05503567 0.1877761 0.023739908 0.19132286 -0.07357112 0.055899467 0.025386337 0.09855252
-0.07066073 0.1250775 0.23248929 -0.077164285 -0.004049619 -0.16683784 -0.20008558 -0.07716865
0.05017348 0.015562318 0.12517817 0.111586556 0.16413349 -0.19156556 0.16457753 0.028439175
0.023294184 -0.05294489 0.0056434395 -0.11009051 -0.0014043079 0.07705999 -0.1690439 -0.15286928
-0.057121735 0.16607273 -0.088277034 -0.025055664 0.37106052 -0.075231254 -0.26062825 -0.2791212
-0.11266794 -0.06971282 -0.2498461 0.30641225 -0.1621228 -0.004513541 -0.05505307 -0.13731325
-0.12904426 0.19826737 0.09523974 0.13178413 0.10136085 -0.21019171 0.10672014 0.058564693
0.07380332 0.052385107 0.05345753 0.18330662 0.1389783 0.11199094 -0.18071823 -0.10975066
0.223536 -0.2410025 -0.20009224 0.22141095 -0.11317725 0.05150701 -0.067499794 -0.08823448
-0.2404455 -0.10428254 -0.04745559 -0.051741656 0.08224546 -0.114545375 0.049959537 0.22567232
0.1391208 0.115041345 0.09423427 -0.056102846 -0.033460137 0.16521908 -0.06285849 -0.14460051
-0.07190037 -0.021315208 -0.055178236 -0.302866 0.17428577 0.2000463 0.047732774 0.17914328
0.30225518 0.019258691 -0.051367704 -0.2059147 -0.21365026 -0.015937185 -0.1404605 -0.010664528
-0.057837848 -0.11011344 -0.003617441 -0.010876658 -0.047991164 0.34004757 0.24402864 0.1862629
0.15642843 0.10678694 0.14477092 0.26519105 -0.052267835 -0.1706959 -0.0067168595 -0.013560591
0.16267861 -0.032888696 -0.052597493 0.14359003 -0.06753256 0.19481556 -0.017200427 -0.11533809
-0.22324786 -0.0032515193 0.26397833 0.045262672 0.08418751 -0.14809813 -0.039981894 -0.05788636
-0.15418088 0.08009893 -0.039630096 0.17801905 0.27426514 0.019818611 0.23034763 0.1294945
-0.00013668057 -0.282999 -0.12985829 0.08074014 0.22026902 0.04737031 -0.18928675 -0.14243013
0.042334963 0.2346384 0.20863836 -0.050503656 0.30734938 0.14288303 -0.06631268 -0.035563845
-0.10081882 0.18466476 0.01020978 -0.027780104 -0.2024411 0.032997284 0.09759561 -0.22966337

main.4.bias f4 [2048]
00000000: 7c22 863e 389b fb3c b15f de3d 4f88 1dbe
00000010: 4d7b 66bc b1b5 033e 59bf a5bd b486 333d
00000020: ce6a 5fbd ad5e 593c 94fa 6abd 9919 5d3e
00000030: f56d f4bd 32b8 ad3d df37 283c c5d9 5a3e
00000040: dd3c 933d a31c 5c3e 9e07 4d3b 78b1 3e3e
00000050: b9b5 a5bd c217 f13c 7941 603e 0045 16be
00000060: 9ba6 e43d 9883 553e 33e7 223e 3aa2 a53d
00000070: e090 19bb 4b45 9d3e 0bb7 763e 2071 16be
00000080: aa47 493e 02dd 833e 585c f03d 3f5a 3cbe
00000090: 11f4 99bd 25de 583e c59c 653e e718 c53c
000000a0: 2a1d 743e 02eb 1a3e 838e 0b3e fc27 7f3d
000000b0: 71a4 acbd c725 fc3d 32a5 993e 762e 883e
000000c0: eb7f 05be 53e7 e43d 44b3 64bd 83c4 0dbe
000000d0: fa7a 523d 77b9 113e bea7 08bd 1cdb 96bc
000000e0: 152b 42bc 40f5 233e 8c33 a4bd 750a b53c
000000f0: 878e 303e f1cd 043e 0fa5 8b3c 1527 383e
00000100: 5f21 243e a1f2 6b3e c0dc 8b3e 5f6b 473c
00000110: 6be4 843c 0e1c 3c3d 9eb3 253d f9e0 aa3d
00000120: e1a7 0c3e 9eb5 c7bd 4de2 1abe 463f f73c
00000130: 0405 5abd f7a8 1a3e 735c 043e ede3 1abe
00000140: 5a1c 413c 8ab4 c0bd ca6d 7bbd 93d7 e23d
00000150: 504b 27be 93bc 7e3d 794d 8b3d e70a 493e
00000160: 1090 313e cad6 e9bd 58e0 c5bd 1e21 363e
00000170: a4a1 733d 2867 eebd 92ab 1dbe f0ba 6b3c
00000180: 7d6b 12be 7bce abbd aca7 1a3e 6b36 013d
00000190: 3504 413e a751 1dbe 6283 6dbe dd00 063e
000001a0: bde8 17bd 5399 613e 4763 3f3d 707b 1fbd
000001b0: 7f7d 05bd 294c 993c 3018 eabd 6e5e fabd
000001c0: a926 6bbd 5645 963d 080c 4d3d f3f7 793e
000001d0: c935 5c3d 24dd adbd b0f1 47be e53c 9d3d
000001e0: 143d 273c 93f7 5ebe ded0 563e 3162 32be
000001f0: acc6 683e 4378 ecbd 73c2 413c ad0b da3d
00000200: a064 fa3d 39bf 093e 60a9 bcbd bf3e 3fbe
00000210: 51e4 2bbe 6955 72be 9a6c 59bd 7890 d1bc
00000220: e7f3 92be 03e4 64bc d277 40be 5f60 c3bb
00000230: f96e fabd de7d 983a 4c1d d73c 27b1 7dbe
00000240: 9aca 43be d1eb 8abd a4ec 3abe 2d9a f03d
00000250: a3dc 153d 2b2b a3bd 97db 05be a8e7 c8bd
00000260: 9766 21be f34a b9bc 4bb1 4d3d 8dff a3be
00000270: 0277 86bd 5908 09be 398e 6dbe 67aa 1d3d
00000280: 74ec 2f3c b4be b9bd 660a 60bc 86a7 85be
00000290: 3327 d43c 8753 f9bc bbaa e23d 58de 703d
000002a0: 0a0b 29be 3322 613d 8a40 833d 9d41 cc3c
000002b0: 2ece 0c3c fbe2 3fbe 7040 d8bc 7c7c 65be
000002c0: bb03 4dbe 1ec6 76b8 691f 82bd a14e a53d
000002d0: 742c b43d c42b 26bc 9dd8 81bd d69b d2bd
000002e0: ec72 89be df2a ad3d d4a6 31bd 6565 42bd
000002f0: 2863 45be 23f4 32be 94b8 b03d ffa6 d7bd
00000300: 493d 163d 3cfa 6f3e 51ff 683d e48d 17be
00000310: 0e80 893d 9dee 55be 4e40 40be 463e 88be
00000320: 1cd3 73be 13d6 acbd ce3c c7bc d572 95bd
00000330: 094b 91be b0b1 e0bd ad32 16be 5fc3 01be
00000340: be05 3d3c a535 20be f711 adbc bf30 c6bb
00000350: 384a 41bd 8a98 e3bc 3dfb b9bd 26af e3bd
00000360: e044 ccbc d1a6 58be 384c d9bd 60f7 adbe
00000370: a66d 8ebd de95 c23c 1eff 38be 3c83 d5bd
00000380: cad5 47be 0dfd 6ebd 18a2 adbd 59a8 4abe
00000390: fcb5 9bbd c754 963d 9528 13be a136 0fbc
000003a0: 7ec9 07be be6d 9a3d 3634 0dbe c9b1 bb3d
000003b0: fd45 a03d 3e5d 4ebe 4ba3 e8bd 870d f9bc
000003c0: 0b6f 7ebc 1023 50be 8c27 7dbe 185a 723d
000003d0: ed9a 99bd b6ad 8bbe a5c0 17be 74d1 e73c
000003e0: 5a3e 3dbe 6606 98be ff58 9abe 5b85 0a3e
000003f0: f61a ee3d d3a9 8ebe 2ae1 93be 42a6 3fbe
0.26198184 0.030713663 0.108580954 -0.15384029 -0.014067483 0.12862279 -0.08093137 0.043829635
-0.054545216 0.013267201 -0.057367876 0.21591796 -0.11935035 0.08482398 0.010267227 0.21372135
0.07189343 0.21495299 0.0031285058 0.18622386 -0.080913015 0.029430274 0.21899976 -0.14674759
0.1116459 0.2085098 0.15908508 0.08087583 -0.00234323 0.3071693 0.24093263 -0.14691591
0.19656244 0.25754553 0.11736363 -0.18393801 -0.07517255 0.21178491 0.22423084 0.024059726
0.2383925 0.15128711 0.13628583 0.06229399 -0.08429802 0.12311893 0.30008847 0.26597947
-0.13037078 0.11176934 -0.055835024 -0.13844495 0.05138681 0.14230905 -0.033363096 -0.018415026
-0.011851092 0.16011524 -0.08017644 0.022099713 0.1724187 0.12969185 0.01704648 0.17983659
0.16028355 0.23041774 0.27316856 0.012171595 0.0162222 0.045925193 0.0404545 0.083436914
0.13735916 -0.097514376 -0.1512539 0.030181538 -0.05322744 0.15103517 0.12925892 -0.1512601
0.011786545 -0.09409435 -0.061384 0.11076274 -0.16337323 0.062191557 0.06801886 0.19633065
0.17340112 -0.11417921 -0.09661931 0.1778607 0.059480324 -0.11640769 -0.1539748 0.014387831
-0.14298816 -0.083889924 0.15103024 0.031546038 0.18849261 -0.15363179 -0.2319465 0.13086267
-0.03708719 0.22031145 0.046725538 -0.03893608 -0.032590386 0.018713074 -0.11430395 -0.12225042
-0.057409916 0.073374435 0.050060302 0.24410991 0.05376223 -0.08489445 -0.1952579 0.0767763
0.010207433 -0.2177413 0.20978114 -0.1742027 0.22732037 -0.115463756 0.011826145 0.10646758
0.12226224 0.13451852 -0.09211993 -0.1867628 -0.16786315 -0.23665394 -0.053082086 -0.025581583
-0.28701708 -0.013970378 -0.18795708 -0.005962416 -0.122281976 0.0011634191 0.026259087 -0.2477461
-0.19120255 -0.0678326 -0.18254334 0.11748157 0.03658737 -0.07967218 -0.13072048 -0.0980981
-0.15761791 -0.022618746 0.050217908 -0.32030907 -0.06565668 -0.1338209 -0.23198785 0.038492586
0.010737527 -0.09069577 -0.013674354 -0.26104373 0.025897598 -0.030435337 0.110677205 0.058805794
-0.16508117 0.054964256 0.06408794 0.02493363 0.008594079 -0.1873893 -0.026397914 -0.22410768
-0.20020954 -5.883548e-05 -0.06353647 0.08071638 0.08797541 -0.0101422705 -0.06340144 -0.102836296
-0.2684549 0.08455443 -0.04337199 -0.04745998 -0.19276106 -0.17475943 0.086289555 -0.10529899
0.03667954 0.234353 0.056884114 -0.1480022 0.067138776 -0.20891805 -0.1877453 -0.2661001
-0.23811 -0.08439269 -0.024320986 -0.07297293 -0.2837756 -0.10971391 -0.14667769 -0.12672184
0.011537014 -0.15645464 -0.02112673 -0.0060482915 -0.04718992 -0.027782697 -0.09081123 -0.11117391
-0.024935186 -0.21157385 -0.10610241 -0.33977795 -0.069545075 0.023753103 -0.1806607 -0.104254216
-0.19515148 -0.058346797 -0.084781826 -0.19790782 -0.0760307 0.07340389 -0.1437095 -0.008741052
-0.13260457 0.07540463 -0.13789448 0.09164769 0.07825849 -0.20152757 -0.11359271 -0.030401958
-0.015529404 -0.20325875 -0.24722117 0.05916795 -0.07500253 -0.27280968 -0.14819582 0.028298117
-0.18480816 -0.29692382 -0.30146024 0.13527434 0.11626236 -0.2786394 -0.28882724 -0.18715766

conv.0.weight f4 [20, 1, 5, 5]
00000000: c5f3 443e 016d 103e 541e 5e3d 4f73 583e
00000010: 0d24 85bd 9b24 4b3d d205 08bd 7f31 af3c
00000020: 5922 ba3c f826 2f3e ebdc 1fbe aa10 4abe
00000030: 1d5e 0dbe cf4f 34be a922 1cbe 58fc a43d
00000040: 931b b9bd 1506 9a3d 83e9 20be 2b15 4f3d
00000050: 20a0 4f3d c262 f7bc e11f 863d 7822 f03d
00000060: b3e7 3d3e d41b 13be 1b52 3ebe de90 253c
00000070: db95 923c 5457 9fbb 7113 ab3c f600 0d3c
00000080: cbc0 d9bd 49fa 883d 6270 cfbd 1f09 03be
00000090: 6d44 61bb 82f8 f43d 8d6c 6e3c de2d 943c
000000a0: a60a 503e 0380 02be ca30 cebd d066 533e
000000b0: ed32 213e 640c 163e c299 0c3e 5eea 23be
000000c0: 0405 193d f4fe 593e e7c9 773b 6296 c13d
000000d0: 72dd d6bd 3299 013e 129c bf3d 0ea2 a1bd
000000e0: d0c6 3d3e cc52 113e 57fa 713e ecec 43bd
000000f0: a6bb ef3d 1c21 213d 81f7 19be 3eb9 dabd
00000100: 5161 d7bd cb2d a9bd b257 adbd 143f a83b
00000110: eec8 b1bd 21fc e2bd e32c f83d 4a82 243e
00000120: e6ea 65bd 0d6d 743d b46f 8bbd b1ae 80be
00000130: 40bf 14be 6f5d 83be 8a5a 41bd 2b57 73be
00000140: 5b0f 3dbe 1e06 ddbd 0afb 08be 6e78 953d
00000150: 24e6 913d 22f5 95bd 7b93 053e 31b9 7d3d
00000160: 2308 2b3e 4218 043d 7b9b d8bb 9914 003c
00000170: eb93 9d3d 0a54 f03d d5a6 c8bc e9cf 14bd
00000180: 6bbf acbd d92f 89bd acfc 35bd b89a 01be
00000190: 728b 3dbd 44cb 3dba c11e 4b3d fe55 2ebd
000001a0: aa6b 2cbe eeaf 77bc b1bd f4bc c23d 033d
000001b0: ea83 92bd 4cf5 febd 158f f3bc c352 ed3b
000001c0: 3904 b53d 3dec bcbd 1697 1fbd e4e9 34bc
000001d0: 7b2e 2b3e fdac 71bd 33db 22be 975a 82be
000001e0: 3cbc 733c d97c 6b3d fc30 f9bd 9969 a8bc
000001f0: dee4 933d a05c f43c 24e7 f73a dac6 a8bd
00000200: 4bab e4bd 47a8 c03d 0b23 debd d337 6dbe
00000210: c0dc 70be d174 d7bd e905 34be 02aa 1fbe
00000220: ce19 c8bd 4fb9 edbd 5e9c fcbc f67c 323c
00000230: bfe5 3b3e 5bf9 0a3e f974 1e3e c87e cb3d
00000240: b6b8 abba 0a59 913d ab5a 5a3d 8f6c f0bc
00000250: bfcc 0c3e 7cc9 633c 7a6b 8c3c d4d1 863d
00000260: ee43 29be fc0c 623c f29a aeba 773b 20bd
00000270: 2641 82bd d867 ff3d 472b 013d b798 49bc
00000280: 49ca 55bd 03bc f2bd dfd3 363e 8fc2 473d
00000290: a4df 02be 40db 053d 5408 e43d b936 013e
000002a0: e68b f03d e94e 613e 569e d8bd fe40 8a3d
000002b0: 474c 13bd 4d20 c83d 5978 863e edce 0e3e
000002c0: db45 3dbe 59ce d13d c823 0b3e dd1d adbd
000002d0: 2c46 e0bd 9460 a3bd 3b05 a83d fcf9 993d
000002e0: c3aa 973d 48a3 29bb 7dff 8ebd a232 92bb
000002f0: 0380 cd3c f60f ac3d a444 863d 68ad 503c
00000300: 73f2 c73c e536 2d3d f575 f0bb cc40 c3bd
00000310: a429 703d 72fc 4a3e 51ad ea3d f6f7 c53c
00000320: a9f9 0cbe 17c3 febd 6a6a 023d 6f00 b43c
00000330: 9cd8 303a bf06 aabd 01df d73c 6dbd d9bd
00000340: 388d 693d ef33 f039 1839 9cbc 6761 adbd
00000350: d434 a3bd c921 5d3d 7875 943d c0f8 833d
00000360: 716d e4bd ab8f ba3d e2c7 af3c 24f9 76bd
00000370: e323 a03d ddcf c23d bd36 11be fb25 9a3d
00000380: 9b75 5b3e 986a 833d 2721 6ebc 0b8c 143e
00000390: 43a7 f53d a982 323e 8970 b53d 3d4e e43d
000003a0: e4df c03d 86b1 29bd a071 613d ff46 c7bd
000003b0: 2d23 babd 8c25 6abd 39b2 c7bc bf7c 9bbb
000003c0: f612 97bb 8f90 debd 851c b8bc 2c4c 653e
000003d0: 86f6 a83d 1bd1 9d3d cbea 9cbd 2018 a2bd
000003e0: c006 843d c70e b9bd fd29 01be 3c64 0e3d
000003f0: 03ea b93d ed32 1b3e b868 053e a9e8 09be
0.19233616 0.14104082 0.054228142 0.21137737 -0.06501017 0.049595457 -0.033208676 0.021385906
0.022721456 0.17104709 -0.15611617 -0.1973292 -0.13805433 -0.1760857 -0.15247597 0.08055943
-0.090384625 0.07520691 -0.15714078 0.050557297 0.050689816 -0.030198459 0.06549049 0.117253244
0.18545417 -0.14366084 -0.18586008 0.01010534 0.017893722 -0.0048627052 0.020883294 0.008606186
-0.106324755 0.06688363 -0.10128857 -0.12796448 -0.003437306 0.119614616 0.014552248 0.018088277
0.20316562 -0.12744145 -0.100678995 0.20644689 0.15742083 0.14653164 0.13730529 -0.16007373
0.0373583 0.21288663 0.0037809552 0.09452511 -0.10491456 0.12656096 0.0935594 -0.078922376
0.18532872 0.14191741 0.23630653 -0.04783337 0.11705713 0.039338216 -0.15035821 -0.106798634
-0.105166085 -0.082606874 -0.08463992 0.0051344726 -0.086809024 -0.11083246 0.121179365 0.16065326
-0.05613222 0.05967431 -0.06808415 -0.2513328 -0.14526081 -0.25657222 -0.047205485 -0.2376372
-0.18462889 -0.107921824 -0.13377014 0.07298361 0.07123974 -0.07322146 0.1304454 0.06194419
0.16702323 0.032249697 -0.0066103316 0.007817411 0.07694229 0.11734779 -0.024493614 -0.03633109
-0.084349476 -0.06698579 -0.04443042 -0.12656677 -0.046275564 -0.0007240067 0.049589876 -0.042562477
-0.16837946 -0.0151176285 -0.029875608 0.03204132 -0.07154067 -0.124491304 -0.029731313 0.007242532
0.08838696 -0.092247464 -0.038962446 -0.011042092 0.1671695 -0.059002865 -0.1590393 -0.2545974
0.014876422 0.05749211 -0.12167546 -0.020558165 0.07221387 0.029829323 0.001891349 -0.08241053
-0.11165484 0.09407096 -0.10846528 -0.23165826 -0.2352171 -0.10520328 -0.1758038 -0.15592197
-0.09770547 -0.116076104 -0.03083628 0.010894051 0.1834936 0.13571684 0.15474309 0.09936291
-0.0013101313 0.07097061 0.053309124 -0.02934864 0.1374998 0.013903018 0.017141093 0.0658299
-0.1652982 0.013797041 -0.0013321324 -0.03911921 -0.06360082 0.124709785 0.031535413 -0.012304476
-0.052194867 -0.11852267 0.1785426 0.04876953 -0.12780625 0.032679796 0.11134401 0.12618531
0.117454335 0.22002758 -0.10577075 0.067506775 -0.035961416 0.09771786 0.26263693 0.13946123
-0.18483679 0.10244436 0.13587868 -0.084529616 -0.10950884 -0.07977405 0.08204123 0.07518384
0.07405617 -0.0025884677 -0.06982324 -0.0044616023 0.025085455 0.08401482 0.06556061 0.012736656
0.024407601 0.04228868 -0.0073382803 -0.095338434 0.05863346 0.19822863 0.11458839 0.024166089
-0.13767113 -0.12439554 0.031839766 0.021972863 0.00067461445 -0.08302068 0.026351454 -0.10631833
0.057019442 0.0004581506 -0.019070193 -0.08465844 -0.079690605 0.0539873 0.07248968 0.0644393
-0.11153687 0.09109434 0.021457616 -0.060296193 0.07819345 0.09512303 -0.14181037 0.075267754
0.21431582 0.064168155 -0.014534271 0.14506547 0.11994793 0.17432655 0.08859355 0.11147735
0.09417704 -0.041429065 0.055040002 -0.09730338 -0.090887405 -0.057164714 -0.024376975 -0.0047450955
-0.0046104146 -0.10867416 -0.022474537 0.22392339 0.082501456 0.07705899 -0.07661971 -0.07914758
0.064466 -0.09036022 -0.12613674 0.03476356 0.09077837 0.15156145 0.13028228 -0.13467659

conv.0.bias f4 [20]
00000000: 8845 24be 4688 0bbe 436a a6bd 38cf 843e
00000010: 3988 19be d1be 08be be0e 3bbe 63d8 85be
00000020: 2fc3 4fbe 333e de3d 1ee5 df3c 92be 8fbe
00000030: 502e 71be 37ec 1cbe c48c 59be 9a9f a0bd
00000040: 1ed8 6abe 0e15 02be 72ae 85be d2c6 5bbe
-0.16042149 -0.13626203 -0.081257366 0.25939345 -0.14993371 -0.1335404 -0.18267342 -0.26141652
-0.202893 0.10851707 0.027330931 -0.2807508 -0.23552823 -0.15324484 -0.21245104 -0.078429416
-0.22934005 -0.12703344 -0.26109654 -0.21462563

conv.2.weight f4 [20]
00000000: a3cb 973f 3568 8c3f 9759 8e3f 1743 963f
00000010: ca98 853f 171d 933f ae86 893f 025b 8f3f
00000020: 5983 8e3f ede0 843f 0478 863f aa1f 8c3f
00000030: 0ccd 8b3f 7852 8d3f 606d 8a3f 6e57 883f
00000040: e251 8c3f f8e5 873f 2ea2 8c3f 3c4e 953f
1.185902 1.0969301 1.1121091 1.1739224 1.0437253 1.1493253 1.0744226 1.1199648
1.1133834 1.0381142 1.0505376 1.0947163 1.092195 1.1040792 1.0814629 1.0651681
1.0962489 1.0617056 1.0986993 1.16645

conv.2.bias f4 [20]
00000000: c92a 213e d644 39be 87cc 0b3e 48c2 763e
00000010: 93d6 3c3e 44c6 1a3e fcb3 26be 5abe 7a3e
00000020: f3c8 28be 22e3 183e 9eac 2abe 7132 22be
00000030: a6f8 0ebe 8d48 2abe eaea 0dbe 853d 763e
00000040: 78b0 363e dbe4 7dbe d28f 31be 15aa 733e
0.15738977 -0.18092665 0.1365224 0.2409755 0.18441229 0.15114695 -0.16279596 0.24486676
-0.16482906 0.14930394 -0.1666741 -0.15839554 -0.1396204 -0.16629238 -0.13859144 0.24046905
0.17840755 -0.24794333 -0.1734002 0.2379535

conv.2.running_mean f4 [20]
00000000: 3f21 a3bb ce8c 683b f606 e03c 99b6 2e3e
00000010: cf0e 40bd 288e 05bd 144e 473c 2a26 d0bc
00000020: dff6 1ebd d636 393e c683 793e a08b 87bd
00000030: 9665 65bd 13c6 3dbc 8b3a f7bb 017b 243d
00000040: a84b 74bd f0a8 7b3d 0eb2 3fbd 9768 7cbb
-0.0049783285 0.0035484317 0.02734707 0.17061843 -0.046889123 -0.032606274 0.012164611 -0.025408823
-0.038809653 0.18087325 0.24366674 -0.06618428 -0.056005083 -0.011582869 -0.0075448207 0.04015637
-0.059642464 0.06144041 -0.046800666 -0.003851449

conv.2.running_var f4 [20]
00000000: 680a 403c 9d8d 663c 8948 783c 2f73 c63c
00000010: 3ce0 d73a 4754 9e3b 0a3e bb3c 9e3f 313c
00000020: 40ee 243b 90a7 dd3c c46d d63d b43b cd39
00000030: 99b3 a339 cf78 0f3c ed5e 813c 13f3 ae3c
00000040: be76 783b 7e1f 353d 6440 363b b65d 8e3c
0.011721231 0.014071849 0.0151540125 0.024224846 0.0016470025 0.004831824 0.022856731 0.01081839
0.0025166422 0.02705744 0.10470155 0.0003914513 0.00031223593 0.00875683 0.015792334 0.021356141
0.0037912573 0.044219486 0.0027809376 0.01737867

conv.3.weight f4 [1, 20, 5, 5]
00000000: 629b 02be c51c 3bbe 5970 10be 3597 b5bd
00000010: 6e71 09be 5e11 32be 00e8 24be 2836 b3bd
00000020: 18a2 10be 435a aebd 3a31 10be 8cb3 f2bd
00000030: e6f1 21be 6b3c 21be 1ad0 2cbe 14fc 33be
00000040: 31d6 0cbe 7d54 bcbd 6405 26be e860 07be
00000050: 7448 14be 629b f2bd 917c f4bd 06ec 2abe
00000060: 8df7 0bbe 642a 073e 2932 ab3d 79b4 1b3e
00000070: ac9d 893d 127f 823d 3a1f 1b3e ac4b 433e
00000080: d5c3 303e 2393 143e 2d35 9a3d b30c e53d
00000090: 3f93 f73d 071c 173e 9cde 953d 07b8 b03d
000000a0: 5dae a13d 9796 e23d a670 f03d 00f2 9d3d
000000b0: 73a8 ec3d c242 c53d 4f2c ba3d cf02 ca3d
000000c0: 7a2f 123e 7f89 ce3d 99f5 fabd 37e2 0cbe
000000d0: dfff cabd be4e e4bd 02cd 07be 7910 83bd
000000e0: 1e6c d9bd 562e eabd f1b4 f4bd fefb d1bd
000000f0: db0f 9dbd 6308 a2bd a571 cebd f7d2 23be
00000100: 5c3f f8bd a111 f9bd 978a b3bd 8d2c 07be
00000110: 1786 f9bd 294a 2bbe b238 07be 333d 27be
00000120: 4375 cabd 0d72 d7bd 6f61 3cbe 4d0c 7abe
00000130: 103f 73be 6ffb 80be e586 7dbe 1e71 eabd
00000140: d99d 01be 4a21 30be 70e7 47be 6113 33be
00000150: dc20 2fbe e80a 5abe dad2 3cbe af27 73be
00000160: c686 3cbe 408f 4ebe 3764 25be 95f6 5cbe
00000170: 9165 74be 955c 56be a32d 0bbe 6dc7 6cbc
00000180: d240 66bd a4f5 4bbd b777 99bd 75d9 2dbc
00000190: e060 42be 7f08 d5bd bebc b2bd 8645 dabd
000001a0: 2d53 b7bd b618 14be b285 9ebd 1dc8 04be
000001b0: a109 11be 765b f2bd b51a 04be 77dc 1abe
000001c0: ad9f 0abe 2dd9 eebd 46ff 1bbe d267 35bd
000001d0: d440 95bd cb95 9dbd fb67 7dbd b5f3 dbbd
000001e0: a986 bfbd 29aa 9abd b065 e9bd eb20 93bd
000001f0: 667e c2bd 564b 17be b69f 28be c222 dabd
00000200: 7b8c d3bd d652 b0bd 979c bdbd 7f7a a9bd
00000210: 5aaf fcbd fcda 01be 8eb4 e1bd f845 11be
00000220: a97d 18be 148e 27be 5591 02be b1f0 04be
00000230: c355 f0bd 5c9b fcbd bff2 24be 7c29 dabd
00000240: 5bf4 0bbe c3e1 16be dd5b febd 70e1 e9bd
00000250: 7562 dabd 47b3 02be cc2d 1a3e 4db1 da3d
00000260: eb24 df3d 96a8 8c3d 3e02 d73d 876f fd3d
00000270: 3821 e03d 6f29 e03d 36a3 c53d cd3f ba3d
00000280: dacf f23d 9c1b c83d bf23 9c3d b171 d23d
00000290: 7813 0c3e 9848 f63d b46a db3d 4d14 7a3d
000002a0: dac2 043e 0c34 863d 987f b73d a099 cf3d
000002b0: 3529 613d 57e0 953d a981 c83d f279 15be
000002c0: 97ce e2bd 6f2b 55be e7b0 0cbe b7f1 15be
000002d0: 7a60 0fbe 3e6b 25be f4f1 5fbe 9427 f5bd
000002e0: f04e 12be 95f7 1abe 820b 23be 8668 2fbd
000002f0: a4af 53bd e513 bdbd a066 8cbe 5145 63be
00000300: b469 1dbe c585 92bd 1a29 84bd a60b 8bbe
00000310: 68a7 69be f98e a9bd 47ec e2bd a331 ccbd
00000320: bf69 ff3d ee06 0b3e 2ba9 e93d 7a4b 113e
00000330: 68f8 883d 9ef8 263e 7d73 d63d 6f6f 003e
00000340: ab84 f83d 8e93 133e 17a3 ab3d f79a ac3d
00000350: 5f8e 1a3e ee4d d93d e06b 093e 07a0 a13d
00000360: 086c d53d c475 173e 939c c63d b2db e73d
00000370: ea45 993d 76da ce3d 0e6e a23d dfb5 b93d
00000380: d68c 5b3d afc6 85bd 1ef1 c7bd 3b7d 05be
00000390: f31c aabd f959 02be 2a64 e3bd 0173 18be
000003a0: f110 cdbd f8f1 f4bd f2c8 f2bd 4da9 77bd
000003b0: 5edc c3bd dd76 fabd bab1 94bd 2f3a a8bd
000003c0: 73d2 17be d1dd 20be 960f c2bd 67e3 b4bd
000003d0: bba2 11be 7053 16be bc85 f4bd 581d 90bd
000003e0: 9766 67bd 1c1a 90bd 5252 823c 10e6 243d
000003f0: 51db ed3d 9e96 523d f18d ac3d 1704 063e
-0.12754586 -0.18272693 -0.14105357 -0.08866731 -0.13422176 -0.17389438 -0.16104126 -0.08750564
-0.14124334 -0.0851331 -0.14081278 -0.11850652 -0.15814933 -0.15745704 -0.1687626 -0.17576629
-0.13753583 -0.09195802 -0.16212994 -0.1322056 -0.14480764 -0.11846043 -0.11937822 -0.16691598
-0.13668652 0.13199764 0.08359177 0.15205564 0.06719527 0.06371893 0.1514863 0.19071835
0.17262204 0.14509253 0.07529674 0.11184063 0.12088632 0.14756785 0.0731785 0.086288504
0.07894585 0.11063879 0.11740236 0.077121735 0.11555567 0.09631874 0.090904824 0.09863817
0.14275923 0.10084819 -0.12253875 -0.13758169 -0.09912085 -0.111478314 -0.13261798 -0.06399626
-0.10616325 -0.11434619 -0.11948574 -0.10253142 -0.0766904 -0.07911756 -0.1008027 -0.15998445
-0.1212146 -0.121615656 -0.08766668 -0.13200589 -0.12183779 -0.16727509 -0.13205221 -0.1633194
-0.09885647 -0.105198 -0.18396543 -0.24418755 -0.23754525 -0.2519183 -0.2475849 -0.11447357
-0.1265787 -0.17200199 -0.1952188 -0.17487861 -0.17102379 -0.21293223 -0.18439808 -0.23745607
-0.18410787 -0.20171833 -0.1615151 -0.21578439 -0.2386687 -0.20933755 -0.13591628 -0.014451844
-0.05621416 -0.049794808 -0.07493537 -0.010610928 -0.18982267 -0.10402011 -0.08727406 -0.10657792
-0.089514114 -0.14462551 -0.07740344 -0.12966962 -0.1416383 -0.11833851 -0.12900813 -0.15123163
-0.13537474 -0.11662517 -0.15234098 -0.044288464 -0.072877556 -0.07694586 -0.06186674 -0.10739843
-0.09351856 -0.07551987 -0.113963485 -0.07184013 -0.09496765 -0.14774832 -0.16467175 -0.10651161
-0.10329529 -0.0860955 -0.09258383 -0.082753174 -0.12338133 -0.12681192 -0.11020766 -0.14186847
-0.14891686 -0.16362792 -0.12750752 -0.12982441 -0.11735108 -0.1233432 -0.16108225 -0.10652444
-0.13667433 -0.14734559 -0.12419865 -0.11419952 -0.106633104 -0.12763701 0.15056533 0.10678349
0.108957134 0.06868093 0.104984745 0.12374788 0.10943836 0.10945403 0.09650271 0.090942
0.11856051 0.09770891 0.076240055 0.10275591 0.13679302 0.12025565 0.107137114 0.061054517
0.12964955 0.06552896 0.089598835 0.101367235 0.05497094 0.0731818 0.09790356 -0.145973
-0.1107456 -0.2081735 -0.13739358 -0.14642988 -0.14001647 -0.16154191 -0.21869642 -0.119704396
-0.14287925 -0.15133508 -0.15922359 -0.04282429 -0.051681176 -0.0923231 -0.27422047 -0.22194411
-0.15372354 -0.07154421 -0.06453152 -0.27157325 -0.22817767 -0.08279223 -0.110802226 -0.09970405
0.12471341 0.13576862 0.11409219 0.14188948 0.06688005 0.16305777 0.104712464 0.12542509
0.121346794 0.14411756 0.08380716 0.08427995 0.15093373 0.10610567 0.13420057 0.07891851
0.10420996 0.14791018 0.09697833 0.113212004 0.07484038 0.10100262 0.079311475 0.09067892
0.05360111 -0.065320365 -0.09762786 -0.13036053 -0.08306303 -0.12729634 -0.11103089 -0.1488762
-0.10012997 -0.119602144 -0.118547335 -0.060464192 -0.09563516 -0.122297026 -0.07260461 -0.08214223
-0.14826374 -0.15709616 -0.09475629 -0.08832436 -0.14222233 -0.14680266 -0.1193957 -0.07036847
-0.05649432 -0.0703623 0.015908394 0.040258467 0.11614097 0.05141317 0.08425511 0.13087498
