src/caches/cache_16_20_big/param2img0.pt (torch, 184864 bytes, 19 tensors)

main.0.weight f4 [16]
00000000: ebf2 553f a9b3 573f df42 563f db3a 853f
00000010: b04d 613f d685 8e3f b013 933f 95ea 7f3f
00000020: 242d 8a3f daf9 893f 4aae 893f 859d 803f
00000030: 0f97 933f c84b 593f a61a 523f 938e 803f
0.8357379 0.84258515 0.8369579 1.0408586 0.88009167 1.1134593 1.1490383 0.9996732
1.0795026 1.0779374 1.0756314 1.0048071 1.1530474 0.8488126 0.8207191 1.004351

main.0.bias f4 [16]
00000000: 4e8b 063c 51a6 88bd 6461 2b3d 17fb cfbd
00000010: cbba 9e3c df7e 673d 48d8 6cbd b384 c23d
00000020: c927 d73d 8cff e9bd 72fa 05be 4812 3fbe
00000030: eaca bfbd 685d efbb d1d4 b4bd 8632 833d
0.008211924 -0.06672347 0.041840926 -0.101553135 0.01937618 0.056517478 -0.05782345 0.094979666
0.10505635 -0.11425695 -0.13083819 -0.18659317 -0.09364875 -0.007304836 -0.08829654 0.06406121

main.0.running_mean f4 [16]
00000000: 2b91 c137 be2e 29b7 f4ce 4c3e f1f1 bfbb
00000010: 3bd4 2b3c 00ff d23a 5425 083f 5447 c0bb
00000020: a6c1 ab3c 93bc d13a 8225 083f 70af c1bb
00000030: 504a 013d 171e 04b7 36c9 4c3e 673a c2bb
2.3074992e-05 -1.0084068e-05 0.20000821 -0.005857699 0.010487611 0.0016097724 0.5318196 -0.005867878
0.020966362 0.0016001634 0.5318223 -0.0059108064 0.03156501 -7.874819e-06 0.19998631 -0.0059273723

main.0.running_var f4 [16]
00000000: d6a9 8435 db8c 8835 2037 8635 a570 033b
00000010: 9bba 8437 39e4 2639 7ec7 9e3d 307c 033b
00000020: 1634 7838 f196 2639 fcd4 9e3d 1e10 033b
00000030: f029 0b39 11f9 8435 68ba 8635 5c58 033b
9.884195e-07 1.0173784e-06 9.999821e-07 0.0020056155 1.5822521e-05 0.00015916013 0.07752894 0.0020063035
5.9176316e-05 0.00015887224 0.07755467 0.001999862 0.00013271696 9.907254e-07 1.0038029e-06 0.002004168

main.1.weight f4 [20, 16]
00000000: 73a6 943c acea 063c 13a3 e23b 4120 ffbd
00000010: 787c 5a3c 8af2 f9bd 04eb afbe 9921 af3d
00000020: 5770 563e c925 333e 0982 66be 160f 33be
00000030: 323f 623d 0445 4e3b 9f82 02bc 49ac 7bbd
00000040: 1278 54bb 504d 64bb f689 b23c 662c 5fbe
00000050: a261 ba3d 859b 59bd 3af0 403e e100 5c3e
00000060: 107c 573e e8ec 95bd 0b81 27be 6898 05be
00000070: 1942 bb3e a6ca 7dbc da1f 843a 445a 58bd
00000080: 3157 313c c36c 8cbc 7479 afbc 2f16 c43d
00000090: c853 953d 3810 71be 394e aabd 4924 29be
000000a0: 213f 29bd d4d9 45be 8fb2 7d3e cb23 5ebe
000000b0: be17 15bc 2441 63bc fc39 31bb bebc ee3d
000000c0: 1651 a83c 8843 8b3d 1f81 283d 6871 fd3d
000000d0: 3027 4bbe 0649 d2bc b76d 26be f54c 8f3d
000000e0: 3e22 9fbe c1d9 40be 6968 1ebc 2c8c 6cbe
000000f0: 9395 0fbe 4383 80bb b884 c3bb aec5 503e
00000100: 8c23 06bd c12d 143c c93c 4dbd eea9 a6bd
00000110: d419 0fbe 2ce2 dbbc f590 b3be 3cda 9ebd
00000120: 6308 d93d 6fc2 8ebe fc5a 82be 6cbf 673d
00000130: fe50 f3bd 93f5 503b 1778 743b 567c af3d
00000140: a9c6 dd3c 30d7 4fbc bbf2 623c c544 213e
00000150: 6792 01be a96d 19be 7583 113e 7855 98bd
00000160: 60e4 12be af01 2d3e 728b a93d dc7e e33d
00000170: e6ad b5be 6cf5 43bc 37f1 7abd d8fd 8f3d
00000180: 468a e33b a2fd 14bc 53f9 c83c 5d4b 263d
00000190: eb12 9cbc 298a 30be 2796 8ebd ada5 efbc
000001a0: cd31 81be 6772 69be 629a b63b 84bb 7f3d
000001b0: 89e1 41be ea63 1c3d 885b d2bb 2f3c 33bd
000001c0: 2519 163d 568a d63c 5d69 01bd 8bf4 2ebe
000001d0: aa2b cebd 9757 a03d 445a 66be 3d0a 553c
000001e0: 36f1 72be 4104 a33e 7749 013e 7025 c53d
000001f0: 4f70 97be c9cc a4bc b427 893d 4c17 0bbd
00000200: 6cab 533c aa33 833c 527d e53b 93a0 e63c
00000210: 4700 5c3d c773 5e3e 4558 e63d 320a 0c3e
00000220: 5139 8a3c d79f cf3d 0936 d4bd 58cd 553e
00000230: 7333 793e 7152 eabb 813c d93c 9f62 053e
00000240: b32e 863a 51b1 88bc 779a 8abb 08cc 2f3e
00000250: f0d7 3c3d 696e 673e bebc 1fbe 06ad af3d
00000260: d328 da3d 8432 9e3e 41fe ba3d 1b97 1bbd
00000270: 5a12 523d 3184 84bc 3d67 4cbc 36cc f03d
00000280: 73fd 20bc b7d9 71bc eed2 ce3b b1d4 e9bd
00000290: 8ada babd ef89 5ebe 5436 413c 215c f73d
000002a0: 3098 21bd 4549 843c e3b5 38be 8671 29be
000002b0: 9415 9ebe 0837 20bc fceb 9dbc 9565 32bd
000002c0: b55c b9ba 613d 53bd f556 1ebd 4450 833e
000002d0: 883f 073e 0958 e53d eb85 b33c 9b60 673e
000002e0: 66e5 453d c50b 31be 92c6 37be 71ac 0f3e
000002f0: 9ed6 133e b5db 8e3c cd69 29bc abe9 903e
00000300: 446b 2dbc d513 4b3c fe44 12bc 6146 ebbd
00000310: 4324 153e d1d0 fbbd b20b 2cbe 9e91 4f3e
00000320: a730 923d 378c 98be 156d 563d 7cdc 2dbd
00000330: 1c12 9b3e 36be 7b3b f21a 02bc c7ca 5c3d
00000340: f5fc 0ebc d4aa 0bbd 384b 30bd 6ab9 2fbd
00000350: c391 8c3d b259 bd3d f87d ae3e b490 36be
00000360: f797 053e da77 46be 34fe a33e 4a26 65be
00000370: b982 603e 0ee3 6ebc e725 07bd f96f 86be
00000380: 1d1a a2bc b3db 613c ff10 b5bc 2b14 1a3e
00000390: c892 0cbe 07d9 003e 8522 2ebe df5a 5a3e
000003a0: e0af 2abe cd78 083d 20d8 24be 60a4 b33c
000003b0: 4e62 82be 3547 3abb e784 fe3b ffbf 9e3d
000003c0: 1cf8 da3b 0b65 a73c 16a5 913c c4df 4abe
000003d0: a93e 5f3d 155a 173e 4d08 3ebe b337 b73d
000003e0: 9d86 563e 9677 c1bd e46d ffbd d3de 453e
000003f0: 9234 423e 1cec 9f3b 8f9e 2b3d 8ac9 733d
0.018145775 0.008234661 0.0069164126 -0.12457324 0.01333534 -0.12204464 -0.3435899 0.0855133
0.20941292 0.17494883 -0.22510542 -0.17486224 0.05523605 0.0031474242 -0.007965713 -0.0614436
-0.00324202 -0.003483612 0.0217943 -0.2179428 0.09100653 -0.05312683 0.18841639 0.2148471
0.2104342 -0.07320577 -0.1635782 -0.1304642 0.36573866 -0.01549021 0.0010080293 -0.05282046
0.010824011 -0.017141705 -0.021420218 0.09574544 0.07291371 -0.23541343 -0.08315701 -0.16517748
-0.04131997 -0.19321376 0.24775146 -0.21693341 -0.009099899 -0.013870511 -0.0027042618 0.116570935
0.020546477 0.0679999 0.041138764 0.12375146 -0.19839168 -0.025669586 -0.1625279 0.069971
-0.31080812 -0.18833067 -0.009668448 -0.23100346 -0.14021902 -0.0039218976 -0.005966749 0.20387909
-0.032748744 0.009044112 -0.050106797 -0.0813788 -0.13974696 -0.026841246 -0.3507153 -0.07756469
0.10597303 -0.27882716 -0.2546004 0.05657904 -0.118806824 0.0031884655 0.0037303024 0.08568637
0.027072268 -0.012685582 0.013851817 0.1574889 -0.12653504 -0.14983238 0.14210303 -0.07438177
-0.1434493 0.16895173 0.0827855 0.11108181 -0.35484236 -0.011960369 -0.061265197 0.07030839
0.0069439737 -0.009093674 0.02453295 0.040599216 -0.01905199 -0.17240204 -0.06962233 -0.029253805
-0.25233307 -0.22797547 0.005572603 0.06243469 -0.18933691 0.038181223 -0.006419603 -0.043758567
0.036645073 0.02618901 -0.031594623 -0.17085473 -0.10066922 0.078292064 -0.22495371 0.013002929
-0.23724827 0.31839183 0.12625681 0.09626281 -0.29577872 -0.02011718 0.06697026 -0.033957765
0.012919288 0.016015846 0.0070034647 0.02815274 0.053711202 0.21723853 0.11247305 0.13675764
0.016873034 0.10137909 -0.10361869 0.20879114 0.24336033 -0.007150941 0.026518108 0.13025902
0.0010237306 -0.016686114 -0.0042298394 0.17167675 0.04610437 0.22600712 -0.15599343 0.085779235
0.10652318 0.30897915 0.09130526 -0.037985902 0.051287033 -0.016176315 -0.012475786 0.117577
-0.009826052 -0.01476138 0.006311766 -0.11417521 -0.09123714 -0.21732305 0.011792738 0.12078119
-0.039451778 0.016148219 -0.18038134 -0.16547212 -0.30875838 -0.0097787455 -0.019277565 -0.043553907
-0.0014142009 -0.051572207 -0.038657147 0.25647175 0.13207829 0.11198432 0.021914443 0.22595446
0.048314475 -0.17289646 -0.17946842 0.14030625 0.14437339 0.017438749 -0.010340166 0.28303275
-0.010584656 0.012394865 -0.008927582 -0.11488033 0.14564614 -0.12295688 -0.16801336 0.20270392
0.07138186 -0.29794475 0.052350122 -0.0424466 0.30287254 0.0038412935 -0.007940995 0.05390432
-0.008727302 -0.03409846 -0.043040484 -0.042901434 0.06863739 0.09245624 0.34080482 -0.17828637
0.13046251 -0.19381657 0.3202988 -0.22377887 0.21924867 -0.014580501 -0.03299513 -0.26257303
-0.019787842 0.0137852905 -0.022102831 0.15046756 -0.13727868 0.1258279 -0.17005356 0.21323727
-0.16668653 0.03331833 -0.1609807 0.021928966 -0.25465626 -0.002842379 0.007767308 0.07751464
0.006682409 0.020433923 0.017778914 -0.19811922 0.054503117 0.14780457 -0.18557854 0.08946171
0.20949788 -0.09446637 -0.12472132 0.19323282 0.18965366 0.0048804414 0.04189926 0.059518375

main.1.bias f4 [20]
00000000: e75c f7bd 7d17 8c3d cc5f 993e e9c6 4abd
00000010: 5ea6 ffbc 3752 0ebe d257 91bb 1e41 3dbe
00000020: 2e72 f23d 2df4 043e fdfe f53d bf6e 8e3c
00000030: 6ea4 163e 661a 0cbe fee4 4c3e b950 b23e
00000040: 4db2 a8bd 3483 e6bd 105b c03e f3c4 43be
-0.120782666 0.068404175 0.299559 -0.0495061 -0.03120726 -0.1389855 -0.004435518 -0.18481871
0.11838184 0.1298377 0.12011526 0.017386792 0.14711162 -0.13681945 0.20009229 0.34827211
-0.08237133 -0.11255494 0.37569475 -0.19118099

main.3.weight f4 [20]
00000000: 53ac 673f 8c49 713f 3373 743f 615f 603f
00000010: cd94 5f3f 248a 613f f88f 6d3f 230b 623f
00000020: bce5 603f f7ac 6c3f ed13 5e3f 67d9 5f3f
00000030: f1d4 5f3f 429b 6a3f 6304 5b3f d7ec 573f
00000040: dc18 693f 677a 713f 13d4 733f 19b0 633f
0.9049732 0.9425285 0.9548828 0.87645537 0.87336427 0.8810141 0.92797804 0.88298243
0.87850547 0.92451423 0.86749154 0.87441105 0.874343 0.91643155 0.8555357 0.84345764
0.9105356 0.94327396 0.95245475 0.8894058

main.3.bias f4 [20]
00000000: 4527 02be 46bf b4bd e36b e2bd 987c babd
00000010: 3529 f2bd d5f3 fabd 60bf b4bd c232 d0bd
00000020: 949e eebd 9c0b cebd ecee a2bd 5f21 dfbd
00000030: 6cb7 07be 411b 0cbe 855b e3bd 3c94 d13d
00000040: ef50 0fbe da8a efbd f723 babd 7627 b2bd
-0.12710293 -0.08825545 -0.11055734 -0.091057956 -0.11824266 -0.122535385 -0.088255644 -0.10165931
-0.1165134 -0.10060808 -0.07955727 -0.10895037 -0.13253564 -0.13682272 -0.1110144 0.102333516
-0.13995717 -0.11696406 -0.09088891 -0.08698933

main.3.running_mean f4 [20]
00000000: 0e7a 763e 9c65 ac3e b4d5 bf3e 1dbb 7c3e
00000010: c9e7 913e 33e3 0b3e 5b29 623e 4cfd e53d
00000020: 79ed 8a3e bc43 9d3e 3f31 a53e 1688 b23e
00000030: 43a2 a93e 4c6f 853e d717 d63e 0fe9 f13e
00000040: 7245 9a3e d4fd 193e 2541 d63e 9c99 4f3e
0.24069998 0.33671272 0.3746773 0.24680753 0.2849715 0.13660888 0.22086088 0.11229953
0.27134302 0.3071574 0.32264134 0.3486945 0.33131608 0.26061475 0.41815063 0.47248122
0.30131108 0.15038234 0.41846576 0.20273441

main.3.running_var f4 [20]
00000000: 6fa7 6e3e 8e47 663e a2ca 3c3e 6310 7c3e
00000010: 7f4d 913e 6824 483e 2403 413e 968e 2d3e
00000020: e0f4 4b3e 554f 5f3e e62a 3f3e a5d8 c03e
00000030: 4cdf 683e 3283 d23e 09e0 dc3e 1a95 453e
00000040: 06d1 ba3e cad4 e23d f70a 6b3e 7104 c63e
0.23306058 0.22488233 0.18436673 0.24615626 0.28379437 0.19545138 0.18848854 0.16948923
0.19917631 0.21807607 0.18668708 0.37665287 0.22741431 0.4111572 0.43139675 0.19295159
0.36487597 0.110757425 0.22953402 0.38675264

main.4.weight f4 [2048, 20]
00000000: 04c3 a3bc aedf 2b3d 5c57 4c3a 8903 83bd
00000010: 1793 f2bc fbae 02bc 879c 263e 7f5d ab3d
00000020: 339a de3d 85b0 34bd e654 b7bd 9976 3abe
00000030: 4934 bd3c 2064 aabd e737 8b3d fea1 aa3d
00000040: bec7 e03b 5e31 94ba 7931 09bd 71ea 423c
00000050: a4f3 86bd 9965 80bc abb8 6c3d aafb 3f3e
00000060: a91e 173e 8897 9d3b a9a7 e4bb 1682 383e
00000070: 999b 533e 244a a53d 8ea7 fbbd fbbe b93c
00000080: f9f3 a43d cc4e 8d3e 9f56 243e 0579 ac3c
00000090: 463e 07be 4fa6 62bd cbca b1bd 1dd5 c2bd
000000a0: 01a8 82bd 2649 b6bc 98f3 da3d 6a8b 943e
000000b0: e317 9e3d e5d9 bcbd 4fa1 903c b201 063e
000000c0: c5a2 563e 9c2d 94bd ec80 45bd a28b 46bd
000000d0: 045f 393e b26a 193e ff53 863d 64f9 3f3e
000000e0: 0985 42bd e407 433d 92c9 5a3e d7c9 bdbd
000000f0: b34c 8d3d a1d0 103e 2652 b13c c457 bcbc
00000100: 02a3 c2bd 8bd0 c5bd 2782 ec3d 9bad 323e
00000110: 7a74 0d3e db44 133e 0b5b b83d 06e6 adbc
00000120: b426 a03c 1af0 b63d 9289 1f3c 88cc 92bd
00000130: a151 a1bc a780 1e3c 5da8 eabd 9275 c23d
00000140: 9332 a1bd 28bc 99bd a6d7 573e f6ec 03be
00000150: 75a8 f13d 7f07 e33d e605 4bbe d886 073e
00000160: 7565 393e f98f 1cbe 393f 95bc 516f 4bbe
00000170: 1048 d1bd ca57 6dbc 1613 dc3d 2535 253e
00000180: 9047 8b3d a929 8d3d a0c8 313d c5db db3d
00000190: f38b 9d3d b99b 3f3c 2f76 c3bd 36f3 4ebd
000001a0: 3ccb 9e3d 53c4 5d3e 7751 a93d 9649 913d
000001b0: 224c e8bc 0d4f 02be 4d4d ecbd 744b d73d
000001c0: ef20 91bd d85c 0b3e 721d 52be bb24 1d3e
000001d0: 3bf5 f63c 7939 e1bd 943a 0cbc 15d4 bebc
000001e0: f166 6a3d 6723 05be bcc0 b03d a9ee d9bd
000001f0: a4f5 4a3e 4dd5 503e 9af2 14bd 4bee bb3c
00000200: a33f 533e 14bc ce3d dad5 40bd 6a08 15be
00000210: 9664 ef3d e03c 3d3e 068a c7bd 9d1b 37be
00000220: 4945 993d e5ca 903d 0227 cbbd 95c3 c03d
00000230: 415f 8fbc e760 7fbd 9b54 6b3d d517 2abe
00000240: f24e de3d 5064 043e ac30 223d bc3d 12bd
00000250: 5a1e 283d 0ed9 073d 3edc 073e f5ba 833c
00000260: 1319 153e 95ee 4e3c 17a8 233c 0350 9abd
00000270: d509 18bc 9300 0d3e a48d b03d 1d14 633c
00000280: 5cf8 883c 25dd f73d 4a3e c83c d1e0 303d
00000290: 4bf4 5d3d 48b5 51be e68d fcbd 5fdc bc3d
000002a0: 521c eb3d 511e 2e3d 4139 023e 3ae1 b1bd
000002b0: 784c 0f3d f167 2b3c 5531 203e d799 e8bd
000002c0: 1e3d 14bd b01e d2bd 7efa 463d 221a b93d
000002d0: bbef 3d3e 3db0 683d e113 b03d 3e19 b4bd
000002e0: d1c5 e03d 589c cc3d 6924 e2bc f1ea 273c
000002f0: 2d58 693e ad86 f63d e784 913d f251 ea3a
00000300: 47ab dabd 7c03 f8bc 3a35 0cbe 31d1 45be
00000310: bc8d d0bd fd12 c6bd 3b10 ed3c 7bf8 61bd
00000320: f68c 183e 010c 6b3e da63 6fbd bf5f 1a3e
00000330: 9e39 bf3c 0d71 98bb 6900 0e3e 5946 393e
00000340: b151 5b3e 1b30 113e aa09 03bb 14a3 a6bd
00000350: 1c3a a7bd 8997 c03d 80cb b33a ab5f dabd
00000360: 7666 36be a175 ddbd 32f9 f7bd fbb2 313e
00000370: 5495 203e ffce fe3d 44c4 8bbd 372b 9ebd
00000380: 213a c0bd 6582 0b3e fa11 2c3e e666 0b3e
00000390: 2d74 153e 1af2 003e fcc6 e73d d720 153d
000003a0: d479 5c3c ed98 af3d 3247 39bd 797b 44bc
000003b0: 4659 8bbd 81c9 efbd 02f9 f2bd b8db b2bc
000003c0: a264 47bd 61ab 47bc c5d2 063e ab8a 383c
000003d0: 2370 c23d dbd6 a83d 506f be3d f551 56bd
000003e0: b942 5a3d 5264 013d c4b0 313e 114f 153e
000003f0: 2b73 b73d f4e9 203e 88be 22be 6a23 f93d
-0.019990452 0.041961364 0.0007795 -0.06397159 -0.029611154 -0.007976289 0.16270648 0.08367442
0.10869255 -0.044113655 -0.0895174 -0.18209304 0.02309622 -0.083198786 0.06797772 0.08331679
0.0068597486 -0.0011306216 -0.033494446 0.0118967155 -0.065894395 -0.015673446 0.0577933 0.18748346
0.1475779 0.0048093237 -0.0069779945 0.18018374 0.20664825 0.08070782 -0.12287818 0.022674074
0.080543466 0.2759918 0.16048668 0.0210538 -0.13207349 -0.055334385 -0.08681258 -0.095133044
-0.063797005 -0.022251677 0.10690993 0.29012614 0.077194 -0.092212476 0.017655043 0.13086584
0.20960529 -0.07235262 -0.048218653 -0.048473008 0.18102652 0.14982107 0.0655899 0.18747479
-0.047490153 0.047614947 0.21365955 -0.092670135 0.06899395 0.14142086 0.021645617 -0.022991069
-0.095037475 -0.09658917 0.11548262 0.17449038 0.13813964 0.14381735 0.0900174 -0.021227848
0.019549705 0.089325145 0.009737389 -0.071679175 -0.019692244 0.009674228 -0.11457894 0.09495081
-0.078709744 -0.07506591 0.21078357 -0.12883362 0.11799709 0.11085414 -0.19826469 0.13235033
0.18105109 -0.15289296 -0.018218623 -0.19866683 -0.10218823 -0.014486263 0.10745828 0.16133554
0.06800759 0.06892712 0.04340422 0.10735277 0.07692709 0.011694842 -0.09544026 -0.050524913
0.07753608 0.21656923 0.08267491 0.070941135 -0.028356615 -0.12725468 -0.115381815 0.105124384
-0.0708636 0.13609636 -0.20519045 0.15346043 0.030146232 -0.1099729 -0.008558888 -0.023294488
0.05722708 -0.13001786 0.08630511 -0.10641224 0.19820267 0.20393868 -0.036364175 0.022940775
0.20629744 0.10094467 -0.047078945 -0.14553991 0.11689107 0.18480253 -0.09743123 -0.17881627
0.07483918 0.07069949 -0.099195495 0.09412304 -0.017501475 -0.062348273 0.057453733 -0.16610654
0.108549014 0.12928891 0.0395972 -0.035703406 0.04104457 0.033165984 0.1326761 0.016080359
0.14560346 0.012630125 0.009988806 -0.07534792 -0.009279688 0.1376975 0.08620766 0.013859776
0.01671999 0.12102727 0.024443764 0.04318315 0.054188054 -0.2047931 -0.123317525 0.0922172
0.11480011 0.04250938 0.12717153 -0.08685537 0.034985036 0.010461793 0.15643819 -0.113574676
-0.0361911 -0.102597594 0.04857873 0.090381876 0.18548481 0.0568087 0.085975416 -0.08793877
0.109752305 0.09990758 -0.027605252 0.0102488855 0.22787543 0.12037406 0.07105427 0.0017877205
-0.106772 -0.030275099 -0.1369218 -0.19318081 -0.10183284 -0.096715905 0.028938403 -0.05516861
0.14897522 0.22953798 -0.058444835 0.15075587 0.023342904 -0.0046521486 0.13867344 0.18093242
0.21417882 0.14178507 -0.0019994774 -0.081365734 -0.0816538 0.09403903 0.0013717264 -0.106627785
-0.17812523 -0.108134516 -0.12108077 0.17353432 0.15681964 0.12441825 -0.06824544 -0.07723086
-0.09386087 0.1362396 0.16803733 0.13613471 0.14595099 0.12592354 0.1131725 0.03640827
0.01345678 0.0857409 -0.045233913 -0.011992329 -0.06804137 -0.11708356 -0.11863901 -0.021833286
-0.048679955 -0.012186856 0.1316634 0.01126353 0.09494045 0.082441054 0.09298575 -0.052324254
0.053286288 0.031589814 0.17352587 0.14580943 0.089575134 0.15714246 -0.15892994 0.12164958

main.4.bias f4 [2048]
00000000: 7dc0 1dbe d0c9 ba3d 05cf 8fbd 23af 53bc
00000010: 3bc3 713d 7dfa 8dbe eade d13d 3ef0 6a3d
00000020: ba0a 11bd 7cee 5dbe a936 c03d 4644 703d
00000030: af55 a1bd b68c cabb 754e cdbd 1c09 a0be
00000040: 313f 4cbe b9eb cdbd 9393 83be 261b 05be
00000050: fe85 8fbd dd14 8abe d6da 9fbe 033d 013d
00000060: b13e 7ebe f2a7 3bbd 83f6 88be 0f92 bd3d
00000070: fa2a 553d 5675 d33d df7a 96be 091e d03c
00000080: f38a 99bc b289 363d 6620 82be 7da1 92bd
00000090: aecf 87be b481 02be d358 27be 7c14 4fbe
000000a0: baf1 cf3d 76c1 1dbe 3dc9 9cbe c17d eebd
000000b0: bf32 d4bb c81f e93b e54c 96be 2e6b 4fbe
000000c0: f6b6 da3d c410 843d 2bc4 9cbe 9336 df3b
000000d0: ed0f 093d a055 6f3d d79d b4bd 46e4 99be
000000e0: e78a bf3c 9e07 3ebe 4552 9bbe 6bc5 f8bd
000000f0: 2cc0 81bd e327 8abd abdc 8dbe c8c9 86be
00000100: 51f3 e9bb 6687 0ebe 55c0 cabd 2a34 ffbd
00000110: 91ff 3b3d b850 07bb df6c c33d 08a1 9b3d
00000120: 0046 6abe 9a62 f9bd 23d9 a73d 06ac fcbd
00000130: adbd 5cbd 2a4c 47be 61de 92be dcee acbd
00000140: 2278 3bbe fb33 90be 2690 f23a 6f37 8bbe
00000150: 4b56 533d fd0f ebbc eda7 9abd bfec 353d
00000160: 3fdd 40be eb78 cebd 7bbc 8cbe 2546 18be
00000170: 9f44 e4bd 7186 30bc 2737 96be 3eee 24be
00000180: 6da0 253d 5e01 04be d784 d1bc 0ee5 ecbd
00000190: 3a8d 853d 5f98 983d 4d98 803d 4284 ce3d
000001a0: 595f 84be d74b 58be cc28 8abe 36ce 0cbe
000001b0: 9669 83bc ecf2 5fbe 723c 53bd 8a32 febc
000001c0: 26f9 4d3c 6396 0ebe 7f19 60be 74de babd
000001d0: f857 07be 4d6f 6fbe 32f4 a139 e454 fcbd
000001e0: dd33 f7bd bbbd bd3d 2e48 91be 47e8 82be
000001f0: 4213 09be 9fa4 5fbc 9da8 c4bd a015 51be
00000200: ea5e 7f3e 05ea 873d c1fb 103e 7fd7 db3d
00000210: 64ac 183e 07f5 4b3d fee5 64bc b3a8 fabd
00000220: f9b2 c2bd 46e6 483e 4472 a53e 7116 99bd
00000230: 4ff8 4b3e 6847 0ebc e1ac e63d 3e81 9d3e
00000240: fd9c 9e3e 38ae 94bd 261d 9a3e c37e 5f3e
00000250: a15b e03d e6e6 613e d0e6 933c 16cb a43e
00000260: e9d6 0f3d b76e 483e f8f6 ba3d 180b 853c
00000270: 1c73 803e be75 ff3d 97a0 7b3d a2a5 bd3d
00000280: 5814 8b3e 7a66 933c a8be 5f3e 1b0b 5b3c
00000290: c7b6 8a3d a55f b43c 9b5f 89bc cea9 88bd
000002a0: f2b1 903e ffb4 983e e28d 60bd e8bc 55bd
000002b0: 7420 31bd 7b73 c63d 1e33 603e 400e e43b
000002c0: fce3 ab3e 6933 283e 2a4d 44bd bfb8 943e
000002d0: f4a4 b13d 7879 073e 2218 e639 b7f3 bc3d
000002e0: 1e15 893e 7d40 393e 5c74 823e c6de 053d
000002f0: c553 8d3e e655 b33e 0c8d 723e 25a9 fbbc
00000300: 3ce1 69bc d5b9 f2bd 7718 443e cf7b 383d
00000310: b88a ec3d 6b3f 283e a7ed 6e3e b632 033d
00000320: 521e 4b3e 09de 533e d2eb 963d c41d 303e
00000330: 5c10 a53e 794b ef3c 5ca2 51bd 0de1 b83d
00000340: 2d7a fc3d a00c 883e 72c4 053d d255 c63d
00000350: 30c2 e2bd 141a f0bd f74a 5fbd 1c5a 7d3e
00000360: ed29 8f3e bc60 e53d 8f71 c93d 6492 093e
00000370: af6a 173d 9025 dbbd 60f0 8c3d 0152 9f3d
00000380: 8661 babd 288b 5a3d a758 c03d 0eb3 243e
00000390: 41bb e0bc ca8c 05be 128d 7f3e 372e d03d
000003a0: 0e0d 863e b1af 813e c37b 2d3e d4b7 77bd
000003b0: b14f 953e a762 123e 327c 583e 6e7c a13d
000003c0: 98d1 7c3e d085 653e ccba 633e 44fb d93d
000003d0: 303c 7d3e 5b89 833e e570 363e 5e5e 663e
000003e0: d5a4 c73d d063 243e 1135 d13d a38d 633e
000003f0: 4f32 48bd 9ad0 d0bc 41a0 563d 813a 2cbd
-0.1540546 0.09120524 -0.07021908 -0.012920174 0.059024077 -0.2773017 0.102475956 0.05735802
-0.03541062 -0.21673006 0.093854256 0.05865886 -0.07877671 -0.006181325 -0.1002473 -0.3125695
-0.1994598 -0.10054726 -0.25698528 -0.12998638 -0.07007979 -0.26969042 -0.31221646 0.031552326
-0.24828602 -0.045814462 -0.26750574 0.09256374 0.05204294 0.103251144 -0.29390618 0.025404947
-0.018743014 0.04456491 -0.25415343 -0.07159708 -0.26525635 -0.1274479 -0.16342478 -0.20222658
0.101535276 -0.1540583 -0.30622283 -0.116450794 -0.006475776 0.0071143843 -0.2935554 -0.2025573
0.10679428 0.0644851 -0.30618414 0.0068119257 0.033462454 0.058431268 -0.08819168 -0.3005697
0.023381663 -0.18557593 -0.30336204 -0.121470295 -0.06335482 -0.06745889 -0.2770742 -0.26325822
-0.0071396013 -0.13918838 -0.09899966 -0.124611214 0.045898024 -0.0020647477 0.0954225 0.07599074
-0.22878265 -0.1217701 0.081957124 -0.12337498 -0.053891826 -0.19462648 -0.28685287 -0.08443996
-0.18307546 -0.28164658 0.0018506094 -0.2719073 0.051595967 -0.028694147 -0.075515606 0.04441523
-0.18834399 -0.10081657 -0.2748755 -0.14870508 -0.11145901 -0.010774241 -0.29338953 -0.16106507
0.040436197 -0.12891147 -0.025576038 -0.11567126 0.065210775 0.074509375 0.06279049 0.1008382
-0.25853994 -0.2112268 -0.2698425 -0.13750538 -0.016041558 -0.21870011 -0.051571317 -0.031029958
0.012571609 -0.13924555 -0.21884726 -0.09124461 -0.13217151 -0.23382302 0.00030890253 -0.12320879
-0.12070439 0.09264704 -0.2837538 -0.2556784 -0.13386253 -0.013650089 -0.09602473 -0.20418406
0.2493855 0.066364326 0.14158536 0.10734462 0.14909512 0.049794223 -0.01397085 -0.12239208
-0.095067926 0.19619092 0.3231374 -0.074749835 0.19918941 -0.008684017 0.11263443 0.30762666
0.30979148 -0.07259792 0.30100363 0.218257 0.10954977 0.22060737 0.018054396 0.32186192
0.035117064 0.19573484 0.09129137 0.016240641 0.2508782 0.124736294 0.061432447 0.092601076
0.2716396 0.0179932 0.21850073 0.013369347 0.06773143 0.022018263 -0.016769221 -0.06673013
0.28260761 0.2982559 -0.05482281 -0.05218211 -0.04324384 0.09689995 0.218945 0.0069597065
0.33572376 0.16425861 -0.047925152 0.290472 0.086740404 0.1322993 0.00043887 0.092261724
0.26773924 0.18091007 0.254794 0.032683156 0.27602974 0.35026473 0.23686618 -0.030720303
-0.0142748915 -0.11851851 0.19149958 0.045039948 0.11549896 0.16430442 0.23332845 0.032030784
0.19835785 0.20690168 0.07369198 0.17198855 0.32239044 0.029210793 -0.05118023 0.090273
0.12327991 0.26572132 0.032658048 0.09684338 -0.110721946 -0.11723724 -0.05451485 0.24741405
0.27961674 0.11200091 0.09836113 0.1343475 0.036966976 -0.10700524 0.068817854 0.07779313
-0.09100632 0.053355366 0.09391909 0.16083929 -0.02743304 -0.13041988 0.24956158 0.10165065
0.26181835 0.25329354 0.16941743 -0.060478047 0.29162362 0.14295445 0.21141127 0.07885061
0.24689329 0.22414327 0.22239226 0.10643628 0.24729991 0.2569073 0.17816503 0.22496936
0.09748236 0.160537 0.102152 0.22221999 -0.048876103 -0.025490094 0.052398924 -0.04204798

conv.0.weight f4 [20, 1, 5, 5]
00000000: 2250 45be 7151 e33d be1a f4bd e98c c0bd
00000010: 2b95 aebd fce1 b1bd a2b7 21bd d8cd 15bd
00000020: 4309 0cbe 141b 96bd 77ca 0abe 7211 85bd
00000030: ac90 383e e302 e33d 8043 023e ea08 a93c
00000040: f8ce c83d de7b 413d f966 61bd 1a37 5dbe
00000050: 6956 993d ba87 9e3d 4042 89bd 37f6 21be
00000060: a34f d03d e006 073e 1555 0fbe d657 09be
00000070: 625d e1bd e443 53be 5894 7bbe 4171 a63d
00000080: c3af 60bd 8763 173e c6c9 5cbe d94f 73be
00000090: 82a0 1cbe 7a54 5ebd 329c ff3d de45 8fbe
000000a0: 6438 c7bd c9d5 bc3d 10ef 333e fb4d 093b
000000b0: 78cb c73d 6132 5a3c 8ec3 86be 09e2 dc3d
000000c0: 09b8 703d 61c0 76bd 734a 68be 617a a6bd
000000d0: cb75 0ebe 0dc2 bd3d 7529 48bd 3ef6 8bbe
000000e0: e348 9cbe 96f4 e7bd f3e4 17be d003 853d
000000f0: c786 3abd faee 55be f515 ea3d 5b36 42be
00000100: f44d 2a3d 3851 2cbe bec5 6d3c 7408 89bd
00000110: c158 8ebd 0626 bd3d 6dcd e8bd 1e3a 103e
00000120: 5f5c 07bd 8b62 a8bd 1a97 f43d 95d4 543e
00000130: c2cb 3b3d 92b7 cbbd f731 acbd c5aa 53bd
00000140: 2d99 7e3e 2f60 b63d bb5a a3bd ddb6 373e
00000150: 9dca d43c c784 053e 3ce7 103e af6b 9abc
00000160: 07df 1f3e df1a 583e 7a7e 103d 0c02 523e
00000170: 310b e6bb e20c 143e 5113 253d 934f 853c
00000180: a55c 4fbc 0d8b e8bc 59da 823e c2d6 413e
00000190: 3472 77bd bd66 bb3d 28a7 143d a717 ea3b
000001a0: 92ad f2bc 480f 2e3a c159 08be 4e31 37be
000001b0: d1d4 01be b5bd 17be 454c debd 846f 2fbe
000001c0: e5c4 7ebe e137 38be f3df eebd 7848 d8bd
000001d0: fa8c 27be c488 38be 5041 02be 8a97 0cbe
000001e0: 3e53 c53c ab5c 82bd 3263 b9bb d5ec a3bd
000001f0: 1f4e 76bd 3e6d 3a39 232e f8bd 89db 993c
00000200: 9071 a73d d75a 0e3e 4537 c83d 938f 143e
00000210: e61f 53bd 6c91 7b3d afa5 0b3e d869 863d
00000220: eff7 45bd 32d2 303e 9bf3 113d b52d 84bd
00000230: 0251 853e b41b 533e 1e64 803e 6764 87bd
00000240: 9a9d 073e eb3b d3bd d725 9abd e7f9 0e3e
00000250: 37b1 6bbd 1f12 273e 5d68 32be df73 25be
00000260: be25 913d d025 b23a fd89 09bd ba63 c3bd
00000270: 5fa9 b3bd 7e9b 78bd 70ba 82be f06e 18be
00000280: 5a53 95bd ce45 f0bd cff8 6cbe 9c0c 68be
00000290: ec40 53be 4826 e4bd 218e c03c 86da 97bd
000002a0: 4700 5dbe 9fc5 0dbe 756d ff3b e052 5a3d
000002b0: afbd 3cbc da36 183d 503a 4cbc a024 0ebe
000002c0: 09b0 e5bc e7c7 50be fb14 5bbe 86a7 30be
000002d0: dd9c 57be d381 f4bc c231 b6bd 064d 62be
000002e0: a770 3c3c d2a1 5bbe e7b5 6c3d fa18 7dbe
000002f0: 4c89 17be 62b7 38be fc17 1abe ef89 12be
00000300: 5f2f 47be a0d9 59be a20d 193d 0f01 7a3d
00000310: 6755 4b3d 9116 b43d 2537 1abd a199 c53a
00000320: f5ee 55be a82d 64be 4718 93be befe 7cbe
00000330: de82 67be 4c05 163d cdf5 0c3d 547c 88be
00000340: 84e5 63be 9487 8f3c 4a35 d2bc 7243 85be
00000350: f76b 8f3b eb16 40be d595 e63d 4df5 caba
00000360: e2be fbbd 4406 cbbd 3b0d 4cbe 1304 9a3d
00000370: 51b5 c0bc cbb0 afbd e6cd d63d 088a 583c
00000380: c01e 5bbe d204 4e3d 9f09 c73d 4d47 0d3e
00000390: e47f 4f3e a246 053e ee01 4a3d d7b5 0a3e
000003a0: 86a9 de3d 6ca6 253e c62a 2dbd 9afd cabd
000003b0: e945 88bc 8e7c 7b3d 6837 323c 6081 353d
000003c0: de0f 52be 50ed d3bd 60bf 56be bcee 2bbe
000003d0: 003b 6abe 6cb0 483b ee32 17bd ad4c 53be
000003e0: 71ed 45be 8050 c8bd 6aa7 01be 420f 103e
000003f0: aaad 313e d7a7 dbbd 3b22 863d c8ed 193e
-0.1926885 0.11099518 -0.11919163 -0.094018765 -0.08524545 -0.08685681 -0.039481767 -0.03657326
-0.13675408 -0.073293835 -0.13553797 -0.06497468 0.18023938 0.11084535 0.12721062 0.020634133
0.09805101 0.04723727 -0.055029843 -0.21603051 0.074871846 0.077407315 -0.06702089 -0.1581658
0.101714395 0.13186216 -0.139973 -0.13412413 -0.110041395 -0.20631367 -0.24568307 0.0812707
-0.05485512 0.1478406 -0.21561345 -0.23760928 -0.15295604 -0.054279782 0.12480964 -0.27982992
-0.097275525 0.09220464 0.17571664 0.002095102 0.097556055 0.013317675 -0.2632107 0.107853
0.05876926 -0.06024206 -0.2268465 -0.08128811 -0.13912122 0.09265528 -0.04886766 -0.27336305
-0.30524358 -0.11325948 -0.14833431 0.06494868 -0.04553869 -0.20891944 0.11429969 -0.18966047
0.04157825 -0.16827857 0.014512477 -0.066910654 -0.06950522 0.09235768 -0.11367307 0.1408467
-0.033047076 -0.082219206 0.11942883 0.20784219 0.045848615 -0.09947123 -0.084079675 -0.05167653
0.2486312 0.08905064 -0.0797629 0.1794085 0.02597552 0.13038932 0.14150709 -0.018850176
0.15612422 0.21104 0.035276867 0.20508593 -0.007020377 0.1445804 0.040301625 0.016273296
-0.0126563655 -0.028386617 0.2555721 0.1892958 -0.060411647 0.09150455 0.036292225 0.007143933
-0.02962378 0.00066398503 -0.13315488 -0.17889902 -0.1267884 -0.14818461 -0.10854391 -0.17132384
-0.24879797 -0.17990066 -0.11663809 -0.10560697 -0.16362372 -0.18020922 -0.12720227 -0.13729683
0.024087545 -0.06365331 -0.005657577 -0.080041565 -0.060133096 0.00017779038 -0.12118175 0.01878144
0.08175957 0.1390184 0.09776167 0.14507894 -0.051544093 0.061417982 0.13637422 0.06563157
-0.04833215 0.17267683 0.03563271 -0.064540304 0.26038367 0.20616037 0.25076383 -0.06610947
0.13243714 -0.10314163 -0.075267486 0.13962518 -0.057542052 0.16315506 -0.17422624 -0.16157483
0.07087277 0.0013591591 -0.03357886 -0.09540506 -0.08772539 -0.060695164 -0.25532866 -0.1488607
-0.07291289 -0.11732064 -0.23141788 -0.2266106 -0.20630234 -0.11140114 0.023505272 -0.07414727
-0.21582137 -0.13844918 0.0077950307 0.053301692 -0.0115198335 0.037161686 -0.012465075 -0.13881159
-0.028038042 -0.20388757 -0.21394722 -0.17251405 -0.21055932 -0.029847061 -0.08896209 -0.22099695
0.011501468 -0.21448448 0.057790663 -0.24716559 -0.14798468 -0.18038705 -0.15048212 -0.1431043
-0.19451664 -0.21274424 0.037366517 0.061036166 0.049641993 0.08793367 -0.037650246 0.0015075692
-0.20891936 -0.22283041 -0.2872946 -0.24706551 -0.22608516 0.036626145 0.0344141 -0.26657355
-0.22255522 0.017520703 -0.025660176 -0.2602802 0.004376884 -0.18758743 0.11259047 -0.0015484482
-0.122922674 -0.099133044 -0.19926922 0.07520308 -0.023523958 -0.085786425 0.10488491 0.013216503
-0.21398449 0.050297566 0.09718632 0.1379673 0.2026363 0.13015226 0.049318247 0.13545929
0.10872178 0.16176766 -0.04227712 -0.09911652 -0.016634898 0.06139808 0.010877468 0.044312835
-0.20513865 -0.10347998 -0.20971441 -0.16790289 -0.22874069 0.0030622734 -0.036913805 -0.20634718
-0.19328858 -0.09780979 -0.1266152 0.1406832 0.17351404 -0.10725372 0.06549498 0.15032113

conv.0.bias f4 [20]
00000000: b105 823e ce10 01be 3511 753e a869 4cbc
00000010: dc08 00ba 7523 233e 1f75 873e 5ea3 853e
00000020: 75eb 64be bb5a 013d c9bf 143e 4ed4 a1be
00000030: 1952 60bd 8925 6d3e 9413 76be 7323 b03d
00000040: ac21 943c 834d a5bd 6821 0abe 769e 563d
0.25394967 -0.12604067 0.23932345 -0.012476362 -0.00048841326 0.15931495 0.26456544 0.26101202
-0.22355445 0.031580668 0.14526285 -0.31607288 -0.054765794 0.2315885 -0.24030906 0.086005114
0.018082462 -0.08071425 -0.13489306 0.052397214

conv.2.weight f4 [20]
00000000: e9bd 6d3f ffcd 733f 0b3d 803f 2497 7e3f
00000010: d761 933f 9b74 7c3f 1ded 953f 7047 993f
00000020: 9b2d 7c3f 8bb0 8c3f 5796 6c3f f6f2 8f3f
00000030: c51b 903f d6d0 8f3f a153 933f 46b7 953f
00000040: 73f8 793f 6350 963f c2c1 7b3f b6c5 993f
0.92867905 0.952362 1.0018629 0.9944937 1.1514233 0.98615426 1.1712986 1.1974926
0.9850709 1.0991377 0.924169 1.1246021 1.1258475 1.1235607 1.1509897 1.1696556
0.9764473 1.1743282 0.98342526 1.2013462

conv.2.bias f4 [20]
00000000: cf35 113e bff8 083e 910b 013e ad99 fa3d
00000010: a637 0dbe 665f f73d eb67 05be 2640 403e
00000020: c27f 073e e5d4 0a3e 6149 003e 5df9 04be
00000030: 429f 07be a902 093e 3a1d 08be 6af0 1a3e
00000040: cb8e f83d 31c1 f8bd c3bb 0c3e dd2c ffbd
0.14180683 0.13376139 0.12602068 0.122363426 -0.1379076 0.12078743 -0.13027923 0.1877447
0.1323233 0.13557775 0.12527992 -0.1298575 -0.13244346 0.13379921 -0.13292399 0.15130773
0.121366106 -0.12146223 0.137435 -0.12459729

conv.2.running_mean f4 [20]
00000000: 2a43 1e3e 946b 8ebd 5b3a d33c 89af cb3e
00000010: ee5a c5bd 1aeb f53e 36fb b1bc 6173 0dbd
00000020: e14a 18be 065f f73c 7b71 df3e f8ec 3d3d
00000030: fcc9 8d3e c973 1f3e c394 cb3d 9a9f 053f
00000040: 59cf e23e 7792 04bb 435a ccbd 4af8 07bd
0.15455309 -0.06954113 0.025784662 0.3978236 -0.09636484 0.4803093 -0.021726232 -0.034533862
-0.14872314 0.030196678 0.43641266 0.04636857 0.27693164 0.15571512 0.099404834 0.5219666
0.4429882 -0.0020228901 -0.099781536 -0.03319577

conv.2.running_var f4 [20]
00000000: 69a7 ca3c e786 ab3b 378d 833c a369 4f3d
00000010: 4706 ec3a 8adc 4e3d 1dc7 113c 27bd 2a3c
00000020: 7081 603b 94c2 7d3c db96 863d 7107 863c
00000030: 8704 223d f82f 943c 4991 4c3c 19b1 183d
00000040: 1150 633d 3793 053c 3716 3d3b 8c65 b53b
0.02473803 0.0052345875 0.016058547 0.050637852 0.0018007242 0.05050329 0.00889757 0.010421074
0.0034256838 0.015488286 0.06571742 0.01636097 0.0395551 0.01808928 0.012485811 0.03727827
0.05549628 0.008152775 0.0028852352 0.005535787

conv.3.weight f4 [1, 20, 5, 5]
00000000: c5a3 08be 81cc b0bd faf3 d9bd 8ffa 02be
00000010: 1426 02be 91ab c7bd 9c39 04be 9d22 20be
00000020: 183b f6bd 9397 98bd 4f8c e7bd 754a 28be
00000030: 10e0 cfbd e55f 2ebe 1fcf f6bd d208 eabd
00000040: 8d04 e9bd e789 64bd f526 d4bd 7fe4 4dbd
00000050: 0742 62bd fc79 aebd f95f b6bd 4531 a4bd
00000060: ba8e a1bd 09ef dabd 3018 05be 8563 05be
00000070: 6e56 22be 978d 04be f9ad b1bd 2151 bdbd
00000080: 857c 2bbe 197f debd f83b 0fbe 5d1c 0dbe
00000090: c44e d9bd 087f 07be cecc 24be 96f5 dabd
000000a0: 98f0 dfbd c601 dbbd dbd7 e1bd 78f7 0dbe
000000b0: 9d02 f5bd ae54 d2bd e646 6cbd e27b bebd
000000c0: 7fde a1bd ee2a f3bd b312 11be 4c3f 00be
000000d0: 79f3 20be e783 fabd fc1a f9bd 4bf9 f8bd
000000e0: a7e2 0abe c554 20be 3aea 1fbe 4f1b 86bd
000000f0: f90f 25be 4826 dabd 49a3 e5bd 419b 07be
00000100: c913 6ebd 4c45 cdbd 7eaa a8bd f6c8 07be
00000110: e4c5 b6bd d8d0 58bd e8a6 843d 761f 62bc
00000120: 26b0 a0bc 0405 89bc d96a 473d a017 40be
00000130: df3d eebd 3b8c e5bd de4e fcbd 2718 19be
00000140: cc52 d1bd 3e63 bbbd a8f9 10be 186b 0abe
00000150: debc 0abe 60a2 a2bd fbb3 70bd 423d 6dbd
00000160: b852 4cbd 7c7e a2bd d038 2ebe 475c 2abe
00000170: 94b6 fbbd b7b2 00be e2c1 15be c992 0fbe
00000180: b994 17be ba35 e4bd c715 28be 4570 abbd
00000190: 006c df3d 2f72 113e 0732 8a3d 8886 b23d
000001a0: ccb8 e23d a5c6 3b3e ee3a 9d3d 698f ccbc
000001b0: 89a0 213d 2f51 4e3e 11d1 f33b efea 9cbd
000001c0: c207 05be 1526 d6bd b8ac 02bd 569b 043e
000001d0: 4876 553e 5ead d33d 08f1 3b3e effb 1d3e
000001e0: bd41 b73d 3a7f 183e 5a42 bd3d f903 b53d
000001f0: 7ee0 2b3e 8d2b 02be e4ce b9bd 44c4 1ebe
00000200: c626 e1bd e013 f5bd 86f6 1dbe 6679 16be
00000210: b40e 06be 7a36 15be b48a 0dbe 737d fabd
00000220: 098c ddbd 9ba2 78bd c42e 63bd d346 c3bd
00000230: e7ef 00be 085a 31be 82d7 73bd c27d 21be
00000240: 192c fabd 62b0 08be 108b d7bd ccc7 1bbe
00000250: 0bd2 b0bd b0ed 18be 3590 963d c26a 043e
00000260: 2742 ce3d 4f10 813d 429f 0f3e 1468 173e
00000270: 6049 173e 395f 033e 5819 f03d 10d8 2f3e
00000280: f620 f23d 50a3 8d3d 716f 223d 56fb 833d
00000290: 3aae 933d 483d b53d 3bbf df3d 91bd f33d
000002a0: 3f14 d83d d109 103e a6c2 213e b0fe 093e
000002b0: 8d51 213e 4cac 273e 8c32 d53d af36 8ebc
000002c0: a985 d6bd 0722 43be d90d 0dbe 3617 e7bc
000002d0: 89fa 29bd ff8a eebd be04 dfbd 8409 02be
000002e0: 8c40 edbd c2e6 49be 2ef1 2cbe b475 4dbe
000002f0: 2bbb 05be ebf2 43be f273 a83d 32a4 1ebd
00000300: 65fe c1bd a298 cd3a 6e89 1dbc ff8e 1b3e
00000310: 3e8c 0e3e 6d83 1a3d 9e20 c23d 5502 da3d
00000320: 7ea4 d4bd 74e7 20be 331a c1bd 8dc4 00be
00000330: 034f f5bd ac3c c3bd 13ee 09be 7011 e7bd
00000340: e3ba 02be 657a a1bd 5542 0bbe a806 18be
00000350: c5ab 05be bc33 2cbe 898c 0cbe 5789 04be
00000360: ed73 bfbd cb0e 10be 0353 ecbd 6043 babd
00000370: 8e08 3fbd aaa4 adbd 4377 c9bd f594 abbd
00000380: 3233 d6bc 1813 9a3d 6896 e73a 0d6f b43d
00000390: 698a 613d 0cee a43c 496e a7bd 76fa c6bd
000003a0: 6954 23bd 50a7 68bd 3b9c 81bd 1636 16be
000003b0: 8bd4 ebbd beb7 03be 6982 06be c6b2 00be
000003c0: 544b 0bbe b00a eabd 0e62 1dbe 4d64 31be
000003d0: f9d0 29be cf2b 16be f162 05be 8699 23be
000003e0: f123 d5bd 778f 81bd 2121 b8bd 07ab 05be
000003f0: a053 24be 5391 12be 69d9 debd 68cb 0ebe
-0.13343723 -0.08632756 -0.10642238 -0.12790893 -0.12709838 -0.097495206 -0.12912601 -0.15638204
-0.1202299 -0.074507855 -0.113060586 -0.16434653 -0.101501584 -0.17028768 -0.12051224 -0.114274636
-0.11377821 -0.055795576 -0.10358993 -0.05026674 -0.05523875 -0.085193604 -0.08905024 -0.0801721
-0.07888551 -0.106901236 -0.12997508 -0.13026245 -0.15853283 -0.12944637 -0.08675761 -0.0924399
-0.16746719 -0.10864086 -0.1398772 -0.13780351 -0.106107265 -0.13232052 -0.16093752 -0.10691373
-0.109345615 -0.10693698 -0.11027499 -0.13863933 -0.11963389 -0.102700576 -0.0576848 -0.093009725
-0.07903766 -0.118734226 -0.1416729 -0.12524146 -0.15717877 -0.122321896 -0.1216335 -0.12156924
-0.13563024 -0.15657337 -0.15616694 -0.065481775 -0.16119374 -0.10651833 -0.11212785 -0.13242818
-0.058124337 -0.10022983 -0.08235644 -0.13260254 -0.089244634 -0.052933544 0.06477147 -0.013801446
-0.019615244 -0.016726024 0.048685882 -0.18759012 -0.11632895 -0.112083875 -0.1231973 -0.1495062
-0.102208704 -0.09149788 -0.14157736 -0.13517416 -0.1354861 -0.07941127 -0.058765393 -0.057919748
-0.049883574 -0.07934281 -0.1701386 -0.16636764 -0.122906834 -0.12568174 -0.14624742 -0.14020838
-0.14802827 -0.1114306 -0.16414557 -0.08371023 0.10909271 0.14203714 0.06747823 0.08717066
0.110704035 0.18337496 0.076772556 -0.024970727 0.03945974 0.20148157 0.007440694 -0.076619975
-0.1299124 -0.10456482 -0.031903 0.12949881 0.20845902 0.103358015 0.18353665 0.15428136
0.089480855 0.14892283 0.09241171 0.08838648 0.16784856 -0.12711926 -0.090726644 -0.15504557
-0.109937236 -0.119666815 -0.15426072 -0.14694747 -0.13091546 -0.14571562 -0.13822442 -0.12230959
-0.10817725 -0.060701948 -0.05546452 -0.09534993 -0.12591515 -0.173195 -0.059531696 -0.15770629
-0.12215442 -0.13348535 -0.10524571 -0.15212935 -0.086338125 -0.1493442 0.07351724 0.1293135
0.10071211 0.06301939 0.14025596 0.14785796 0.14774084 0.12829293 0.11723584 0.17172265
0.11822693 0.06915915 0.03965706 0.06444423 0.072109655 0.08849579 0.10925146 0.11901391
0.10550737 0.14066245 0.15796909 0.13476062 0.15753765 0.1637432 0.10410032 -0.01736006
-0.104747124 -0.19055949 -0.13774814 -0.02820931 -0.041498695 -0.11647605 -0.108895764 -0.12698942
-0.11584577 -0.19716933 -0.16888878 -0.20064431 -0.1305968 -0.19135635 0.0822524 -0.038730808
-0.0947235 0.0015685747 -0.009615285 0.15191267 0.13920686 0.037722994 0.094788775 0.10644976
-0.10382937 -0.15713292 -0.09428825 -0.12574978 -0.11977961 -0.095330566 -0.13469724 -0.11282623
-0.12766604 -0.07884673 -0.13599522 -0.14846289 -0.13053806 -0.1681661 -0.13725485 -0.12943016
-0.09348283 -0.14068143 -0.11539271 -0.09094882 -0.046639018 -0.08478673 -0.098372005 -0.08378021
-0.026147459 0.07523173 0.0017668726 0.08810244 0.05506364 0.02013304 -0.08175332 -0.097157404
-0.03987542 -0.056800187 -0.06328627 -0.1466907 -0.11515149 -0.12863061 -0.13135685 -0.12568197
-0.13602954 -0.1142782 -0.15369436 -0.17323418 -0.16583623 -0.14665149 -0.13026024 -0.15976533
-0.10407246 -0.06326192 -0.08990694 -0.13053523 -0.16047525 -0.1431325 -0.108813114 -0.13944781
