src/caches/cache_16_20_big/param2img5.pt (torch, 184864 bytes, 19 tensors)

main.0.weight f4 [16]
0.82394606 0.7742619 0.8154135 1.0503339 0.9984566 1.131779 1.1455543 1.0388623
1.1003811 1.119631 1.0552529 0.9961622 1.0541726 0.8325625 0.81270564 1.0136098
00000000: 21ee 523f 0736 463f f0be 503f 5771 863f
00000010: da9a 7f3f 22de 903f 86a1 923f 71f9 843f
00000020: 4ad9 8c3f 1250 8f3f 8712 873f 7c04 7f3f
00000030: 21ef 863f d122 553f 7a0d 503f f7bd 813f

main.0.bias f4 [16]
0.06550362 0.15984982 -0.042612486 0.04972158 -0.020040773 0.08242791 0.09458742 0.0153811565
0.018646419 -0.11098368 -0.036763903 0.06477551 -0.018705053 0.04572498 0.11551896 -0.062594995
00000000: c326 863d acaf 233e 6e8a 2ebd dba8 4b3d
00000010: 8c2c a4bc f7cf a83d 0db7 c13d 3f01 7c3c
00000020: 60c0 983c 694b e3bd bf95 16bd 06a9 843d
00000030: 573b 99bc 1e4a 3b3d 3495 ec3d ce31 80bd

main.0.running_mean f4 [16]
3.794991e-06 1.1157191e-05 0.19999778 -0.0075203716 0.010668739 0.0016643984 0.49393636 -0.0075722877
0.021283584 0.0016432801 0.49394396 -0.0075486605 0.031977884 2.3248102e-05 0.19999063 -0.0075463667
00000000: 73ad 7e36 c52f 3b37 38cc 4c3e 736d f6bb
00000010: efcb 2e3c f127 da3a 3ae5 fc3e f420 f8bb
00000020: e95a ae3c 5563 d73a 39e6 fc3e c15a f7bb
00000030: 3efb 023d eb04 c337 58ca 4c3e 8347 f7bb

main.0.running_var f4 [16]
1.0252647e-06 1.0101496e-06 1.0113033e-06 0.0020083261 1.6202457e-05 0.00014161601 0.07450723 0.0020042367
6.150133e-05 0.0001415129 0.07446132 0.0020035733 0.00013604331 1.0182898e-06 1.0064011e-06 0.0020034611
00000000: d49b 8935 7a94 8735 1ebc 8735 1f9e 033b
00000010: 83ea 8737 c27e 1439 3f97 983d 8359 033b
00000020: 46fa 8038 1463 1439 2d7f 983d 624e 033b
00000030: d9a6 0e39 2cac 8835 ae13 8735 804c 033b

main.1.weight f4 [20, 16]
0.068698406 -0.09907963 0.051909134 -0.019844761 -0.11697743 0.036621597 -0.17155932 -0.31722155
-0.17552508 0.22724281 -0.18123761 -0.07935722 0.051602878 -0.0071970806 0.022204265 -0.28901306
0.08532654 0.0094226925 0.030301614 -0.19833548 -0.003122295 -0.07367626 0.20521341 -0.2614592
-0.17911889 0.0053374902 0.007485866 0.032387424 0.042345047 -0.016626038 0.05350327 -0.21750663
-0.016060444 0.023339577 0.0029584025 -0.07707635 -0.1630559 -0.3235747 0.081547 -0.19065453
-0.10386122 -0.28383648 -0.17747825 -0.16769364 0.18617345 -0.084704086 -0.02301841 -0.06473161
-0.041628297 -0.12677561 0.06237969 0.26257876 0.14921054 0.12889239 -0.21514615 0.29008082
0.26807335 -0.011134093 -0.02407562 0.2849504 0.017841613 0.09019379 -0.12400818 0.09176266
0.038547587 -0.0686658 0.05761351 0.06784861 -0.12577586 -0.22715172 0.014695611 0.17203154
-0.24139538 -0.0071602557 0.10175283 0.15024537 -0.28390342 -0.028387608 -0.018511666 -0.2591357
0.021900447 -0.02309018 0.066052616 -0.12660825 0.049915057 0.3580861 -0.25743598 0.035552733
0.088281125 0.27510938 0.077064924 0.24800827 -0.0917842 -0.069476835 0.006164591 -0.13519168
-0.006824365 -0.011035051 0.02831005 0.22104467 -0.028730249 0.144863 -0.2882643 0.110489614
0.07559805 -0.09225171 -0.24836183 0.13806196 -0.030472182 0.0020903146 0.02867123 0.1788253
0.049254 -0.09810948 0.03533693 0.1332132 0.016462669 0.0782336 -0.27702573 -0.042862453
0.16321948 0.09585047 -0.24076624 0.011391209 0.2854097 0.08039479 -0.016412128 0.048288494
0.036327913 -0.031225465 0.013698817 -0.19965906 0.06244474 0.24883159 -0.097379744 -0.22402535
0.1659442 0.1798405 0.06377243 0.04435529 0.2275937 -0.051272903 0.016705282 -0.05976667
0.041928 0.048685446 -0.03524097 0.18254215 0.20857769 0.16910923 0.056612432 -0.02107012
0.28409445 0.04628879 0.12492909 -0.057155773 0.27083924 0.067901604 -0.008070336 0.048450213
0.0066504516 -0.0051448117 -0.0053505804 0.19469792 -0.10341943 -0.109152615 0.23505343 0.0069722943
0.013172258 0.05372519 0.40708497 -0.10585244 0.085729405 0.0044975276 -0.01985586 -0.068677194
-0.13052763 0.09821913 -0.0067907325 0.17482214 0.1390162 0.27547765 0.1431124 0.1707946
0.0015675771 0.14131355 -0.18933928 0.25009394 -0.10197988 0.051720474 0.056479055 0.18004592
-0.011204506 0.07218245 -0.050834775 0.13792145 -0.23659535 0.1783579 0.051471837 -0.11991145
-0.21327713 -0.14655033 0.22299297 -0.055045836 -0.076067 0.009971219 0.0332801 -0.09771873
0.0076585454 -0.048853535 -0.047504477 -0.23460509 0.19145957 0.34727663 0.089051254 -0.14725722
0.0063016596 0.3790749 -0.14569274 -0.05309112 -0.07232701 0.09387291 -0.042438954 -0.027423944
0.08952141 -0.123307325 0.0010839957 -0.26455772 -0.056246415 -0.27454913 0.0811583 -0.28943777
0.014594613 -0.15136883 -0.17404431 -0.20030145 0.03380439 0.11027327 0.0043445197 -0.051948763
-0.06385834 0.065018296 -0.02457292 0.10697077 0.08595667 0.18875933 0.16718876 0.20175026
0.070687205 0.10894495 -0.25632966 0.1534548 0.06713144 -0.057010956 0.011889507 -0.074265316
00000000: c0b1 8c3d 43ea cabd ac9e 543d 7b91 a2bc
00000010: dd91 efbd 8700 163d 3fad 2fbe dd6a a2be
00000020: d9bc 33be 57b2 683e 5a96 39be 0a86 a2bd
00000030: 8a5d 533d 7dd5 ebbb b8e5 b53c 85f9 93be
00000040: aebf ae3d a361 1a3c 173b f83c 7518 4bbe
00000050: 6b9f 4cbb 94e3 96bd 7723 523e fbdd 85be
00000060: f16a 37be 1de6 ae3b ff4b f53b ada8 043d
00000070: 0072 2d3d 5433 88bc 3f26 5b3d 0fba 5ebe
00000080: 3191 83bc a432 bf3c c2e1 413b 35da 9dbd
00000090: 20f8 26be 95ab a5be 1d02 a73d f13a 43be
000000a0: 31b5 d4bd 0453 91be dcbc 35be e2b7 2bbe
000000b0: 41a4 3e3e 5679 adbd 1b91 bcbc 0292 84bd
000000c0: 6f82 2abd 77d1 01be d981 7f3d b970 863e
000000d0: a6ca 183e 5efc 033e 464f 5cbe 7985 943e
000000e0: e940 893e c56b 36bc 3c3a c5bc 05e5 913e
000000f0: 9328 923c 86b7 b83d 00f8 fdbd 10ee bb3d
00000100: 13e4 1d3d a8a0 8cbd 25fc 6b3d 36f4 8a3d
00000110: 63cb 00be 769a 68be dcc5 703c 0929 303e
00000120: 5a30 77be 94a0 eabb ca63 d03d ecd9 193e
00000130: ca5b 91be 218d e8bc c7a5 97bc 6fad 84be
00000140: 9168 b33c 9e27 bdbc 9846 873d 98a5 01be
00000150: bb73 4c3d 1057 b73e a6ce 83be be9f 113d
00000160: bccc b43d 23db 8c3e 37d4 9d3d e1f5 7d3e
00000170: 5bf9 bbbd df49 8ebd 5600 ca3b b06f 0abe
00000180: ec9e dfbb 5ccc 34bc 7aea e73c 8959 623e
00000190: b35b ebbc f756 143e 6197 93be 6148 e23d
000001a0: 27d3 9a3d 77ee bcbd 9052 7ebe 1d60 0d3e
000001b0: cca0 f9bc a9fd 083b eddf ea3c fb1d 373e
000001c0: 90be 493d a0ed c8bd 75bd 103d 0b69 083e
000001d0: b8dc 863c f038 a03d 51d6 8dbe 8a90 2fbd
000001e0: 0223 273e 404d c43d 6d8b 76be 32a2 3a3c
000001f0: 3821 923e 06a6 a43d ba72 86bc 28ca 453d
00000200: 94cc 143d 8ccc ffbc 0171 603c 6d73 4cbe
00000210: 0ec6 7f3d b5cd 7e3e 086f c7bd e766 65be
00000220: 47ed 293e 1c28 383e 1f9b 823d e4ad 353d
00000230: 530e 693e 8903 52bd 84d9 883c e5cd 74bd
00000240: b2bc 2b3d 646a 473d d658 10bd 54ec 3a3e
00000250: 6495 553e f82a 2d3e 70e2 673d 3f9b acbc
00000260: d474 913e 5099 3d3d d3da ff3d 2c1c 6abd
00000270: 71ab 8a3e ff0f 8b3d 7139 04bc bb73 463d
00000280: 08ec d93b cf95 a8bb ec53 afbb e45e 473e
00000290: 91cd d3bd 688b dfbd d9b1 703e d877 e43b
000002a0: 74d0 573c f20e 5c3d 716d d03e 2ac9 d8bd
000002b0: e692 af3d ff5f 933b c2a8 a2bc a1a6 8cbd
000002c0: 09a9 05be 1c27 c93d cb84 debb 9304 333e
000002d0: 435a 0e3e 680b 8d3e 0f8c 123e c8e4 2e3e
000002e0: 2977 cd3a 80b4 103e 28e2 41be 500c 803e
000002f0: d4da d0bd d9d8 533d 9556 673d f55d 383e
00000300: 1b93 37bc 64d4 933d 2038 50bd 483b 0d3e
00000310: 0d46 72be 74a3 363e 22d4 523d 2294 f5bd
00000320: 5265 5abe 4a11 16be 4558 643e be77 61bd
00000330: 04c9 9bbd 535e 233c b750 083d c220 c8bd
00000340: 89f4 fa3b a51a 48bd 0e94 42bd 513c 70be
00000350: fa0d 443e 3ece b13e 8160 b63d 99ca 16be
00000360: 277e ce3b 1b16 c23e 7a30 15be 1376 59bd
00000370: 2f20 94bd 7140 c03d 78d4 2dbd 2ea8 e0bc
00000380: 0057 b73d 8d88 fcbd dc14 8e3a 1c74 87be
00000390: a462 66bd b491 8cbe 5336 a63d 3031 94be
000003a0: 3e1e 6f3c 6e00 1bbe ac38 32be d31b 4dbe
000003b0: 7976 0a3d f4d6 e13d 795c 8e3b 3ac8 54bd
000003c0: 29c8 82bd 5028 853d 264d c9bc 7e13 db3d
000003d0: 0d0a b03d 204a 413e 8833 2b3e 9f97 4e3e
000003e0: 74c4 903d 881e df3d a43d 83be 4123 1d3e
000003f0: 357c 893d 5284 69bd 35cc 423c 6a18 98bd

main.1.bias f4 [20]
0.2189661 0.06398109 -0.18384366 0.13458765 0.0024669643 0.121145464 -0.06630187 0.17290342
0.083801776 0.21520528 -0.026789004 0.23813157 -0.10781832 -0.23100545 0.05746392 0.1613126
0.076746516 0.16890013 -0.09953633 0.11954189
00000000: a638 603e 8508 833d 8341 3cbe 58d1 093e
00000010: cbac 213b 1d1b f83d 46c9 87bd 980d 313e
00000020: 44a0 ab3d c65e 5c3e 9d74 dbbc c3d8 733e
00000030: dacf dcbd b18c 6cbe 4a5f 6b3d 212f 253e
00000040: 472d 9d3d 28f4 2c3e b4d9 cbbd 61d2 f43d

main.3.weight f4 [20]
0.911836 0.88305825 0.9414529 0.8849846 0.93539435 0.94617856 0.94804305 0.9516361
0.9596679 0.8623985 0.9233645 0.8103705 0.88595843 0.8974329 0.946099 0.8450018
0.91029567 0.8710833 0.93880033 0.81093746
00000000: 166e 693f 1b10 623f 0f03 713f 5a8e 623f
00000010: 0176 6f3f c238 723f f3b2 723f 6c9e 733f
00000020: ccac 753f 26c6 5c3f 9e61 6c3f 7174 4f3f
00000030: 2cce 623f 2abe 653f 8b33 723f 0a52 583f
00000040: 2309 693f 51ff 5e3f 3855 703f 9999 4f3f

main.3.bias f4 [20]
-0.13558948 -0.09825755 -0.112734884 -0.12613097 -0.11447742 -0.08558631 -0.107483126 -0.110554874
-0.031383764 0.08854716 -0.044390105 -0.13377629 -0.065483265 -0.12960462 -0.07928693 -0.13069391
-0.12732294 -0.10722304 -0.14650977 -0.14376526
00000000: f8d7 0abe 413b c9bd 8ce1 e6bd 7a28 01be
00000010: 2373 eabd e047 afbd 1d20 dcbd 986a e2bd
00000020: 438c 00bd 3758 b53d 66d2 35bd a7fc 08be
00000030: 171c 86bd 13b7 04be 3061 a2bd a0d4 05be
00000040: f260 02be c197 dbbd a806 16be 3337 13be

main.3.running_mean f4 [20]
0.40104473 0.29830477 0.17170735 0.44443527 0.24773799 0.31085604 0.25630128 0.35111243
0.30177167 0.429728 0.22283007 0.4992341 0.16102603 0.17360777 0.3375187 0.33017856
0.31703663 0.34946957 0.17211379 0.28296405
00000000: bc55 cd3e 67bb 983e 0dd4 2f3e 058d e33e
00000010: 07af 7d3e 8628 9f3e ec39 833e 02c5 b33e
00000020: d181 9a3e 4f05 dc3e 912d 643e 9d9b ff3e
00000030: 02e4 243e 3cc6 313e 40cf ac3e 2a0d a93e
00000040: a052 a23e aded b23e 993e 303e aae0 903e

main.3.running_var f4 [20]
0.34908405 0.25020942 0.25105852 0.48913893 0.24484788 0.25412172 0.3053015 0.26905584
0.281758 0.31346044 0.18894245 0.43074226 0.15791489 0.25614282 0.39440113 0.16863123
0.25807622 0.23531844 0.15248367 0.17607357
00000000: 25bb b23e 731b 803e be8a 803e 6b70 fa3e
00000010: 67b9 7a3e 3e1c 823e 7a50 9c3e b0c1 893e
00000020: 9642 903e e37d a03e 217a 413e 408a dc3e
00000030: 71b4 213e 2725 833e f2ee c93e aaad 2c3e
00000040: 9122 843e 51f7 703e ae24 1c3e a14c 343e

main.4.weight f4 [2048, 20]
0.122791864 0.007373323 -0.04688463 -0.1437832 0.21205139 0.11320041 0.051275723 0.07338498
-0.033536315 0.057617154 0.12037115 -0.09207605 -0.07540331 -0.065008044 -0.10616291 -0.016230265
0.008416259 -0.10909352 0.067941226 0.05597914 -0.094996065 0.15497266 -0.00813506 -0.082079664
0.13841222 -0.10393423 0.055704013 -0.13234799 0.0758844 -0.13697171 0.07154698 0.11750735
-0.07171396 0.10336919 0.03599982 0.09721621 -0.22038443 -0.07656713 -0.041727364 0.07483762
0.13116768 0.04916183 -0.107893385 0.12147981 0.14350376 0.0363427 -0.1908944 -0.014660492
-0.15689355 0.123809025 -0.11087286 0.038347505 -0.044456318 0.015420471 -0.037909854 -0.02774824
-0.034107715 -0.015983138 0.12098242 -0.06684838 -0.10758536 -0.06464966 -0.002568149 -0.038183287
0.10797545 -0.091815196 -0.029748356 -0.022651026 0.11698 0.026161449 -0.14629945 0.086508654
0.18304247 0.12515269 -0.13405679 -0.13850777 0.01057803 -0.09525085 0.04983014 0.088265255
-0.002774156 0.026752455 -0.03345337 0.122243084 -0.052474335 0.06820831 0.058664963 -0.036108583
0.14025915 -0.13231578 0.06442024 0.11816066 -0.19702059 -0.039344586 0.17158051 0.018317223
0.20451984 0.113343194 -0.014827506 0.01141377 0.11366454 0.17692427 -0.14501871 0.07029888
0.03821314 0.034754954 0.01406565 -0.04480321 -0.073620856 0.17829485 -0.07425576 -0.123555124
0.0060583674 -0.1315881 -0.014830489 0.1569773 0.09253 0.0030629118 0.012267376 0.026289145
0.16578616 0.020417366 -0.09349887 -0.11615526 0.041408032 -0.0432087 0.013063125 -0.08233799
-0.11472021 0.009332563 0.098746516 -0.12564637 -0.18383381 -0.03412911 0.053531125 0.2610569
-0.023327792 0.036891207 -0.06048436 0.08350717 0.064563185 0.21311001 -0.1415079 -0.113687724
-0.08940149 -0.26160815 0.19913094 0.12333593 -0.13024534 0.07101899 0.10046632 0.19529003
-0.11118678 0.15611808 0.15333466 0.06490756 -0.11644564 -0.07047655 0.026907032 0.12411538
0.0012906238 0.056074496 0.08986589 -0.100241214 -0.010905526 -0.16500144 -0.033077095 0.055158034
0.05661432 -0.056552593 -0.113054164 0.022160273 -0.035981867 0.082763985 -0.19006231 0.24641563
0.21797784 0.0065731015 0.085375085 0.07137704 -0.12219021 0.029976614 -0.01334627 0.16815466
-0.07453604 -0.21662082 -0.077783175 0.075275846 0.054190345 -0.23044603 -0.07916623 0.18027835
-0.05078171 0.13704956 0.071976945 -0.081869245 -0.04653217 0.15662912 -0.122213885 0.08930035
-0.025874484 0.104211114 0.006349163 -0.12892392 0.118997544 0.120190255 0.1508837 -0.013232609
0.029003251 0.052597657 0.052373387 -0.069465876 0.080418155 0.0015815095 0.009307809 0.14268813
-0.052765857 -0.07736691 0.16552718 -0.19911563 0.15313265 0.01740995 0.09150787 0.13764292
-0.10758434 -0.07216979 -0.05690906 -0.18123078 0.09719791 -0.038152188 -0.13986868 0.08196882
-0.06596251 0.013123166 -0.0902915 0.11007116 0.1850548 0.10199419 0.0810059 0.06742215
-0.016683407 0.11342666 -0.039744336 -0.14782389 -0.1837975 -0.25839585 0.13096626 0.050747126
0.10023115 0.1024008 -0.017849127 0.08047649 -0.009687778 0.01718021 -0.012201394 0.15708087
00000000: 4d7a fb3d eb9b f13b 190a 40bd e73b 13be
00000010: 0024 593e 9ed5 e73d 7e06 523d dd4a 963d
00000020: 605d 09bd f7ff 6b3d 2685 f63d 5e92 bcbd
00000030: 0d6d 9abd f022 85bd f16b d9bd 55f5 84bc
00000040: 59e4 093c 6c6c dfbd c524 8b3d 624a 653d
00000050: 4c8d c2bd 27b1 1e3e ea48 05bc 6219 a8bd
00000060: efbb 0d3e 78db d4bd e429 643d 3b86 07be
00000070: 4869 9b3d 5042 0cbe 3987 923d b2a7 f03d
00000080: c5de 92bd 3ab3 d33d 8c74 133d 4b19 c73d
00000090: 75ac 61be 3acf 9cbd 50ea 2abd 7744 993d
000000a0: d250 063e ea5d 493d 35f7 dcbd 68ca f83d
000000b0: a6f2 123e 15dc 143d d279 43be 8f32 70bc
000000c0: b4a8 20be 968f fd3d 4f11 e3bd 4612 1d3d
000000d0: d417 36bd 25a6 7c3c 5d47 1bbd 4750 e3bc
000000e0: 88b4 0bbd 12ef 82bc a2c5 f73d cee7 88bd
000000f0: b755 dcbd 0a67 84bd 644e 28bb 1466 1cbd
00000100: 3c22 dd3d 9b09 bcbd d3b2 f3bc a58e b9bc
00000110: 3693 ef3d 8950 d63c 86cf 15be 732b b13d
00000120: 7c6f 3b3e 0728 003e 2f46 09be fbd4 0dbe
00000130: 794f 2d3c e112 c3bd b01a 4c3d 6ac4 b43d
00000140: 9dce 35bb f727 db3c 6706 09bd 955a fa3d
00000150: 54ef 56bd ccb0 8b3d ac4a 703d 98e6 13bd
00000160: 18a0 0f3e ca7d 07be c2ee 833d 37fe f13d
00000170: c4bf 49be ca27 21bd cdb2 2f3e 000e 963c
00000180: a66d 513e 7a20 e83d 11ef 72bc d200 3b3c
00000190: f4c8 e83d a32b 353e c97f 14be dcf8 8f3d
000001a0: 6285 1c3d 365b 0e3d 9d73 663c 9283 37bd
000001b0: 88c6 96bd ed92 363e 6713 98bd 780a fdbd
000001c0: 4585 c63b 08bf 06be 94fb 72bc a8be 203e
000001d0: 5e80 bd3d 22bb 483b 1bfd 483c 555c d73c
000001e0: d9c3 293e 5242 a73c 567c bfbd cfe2 edbd
000001f0: 789b 293d 9bfb 30bd b806 563c d2a0 a8bd
00000200: 6ef2 eabd 9be7 183c 9d3b ca3d 71a9 00be
00000210: ee3e 3cbe f7ca 0bbd 7443 5b3d 40a9 853e
00000220: ed19 bfbc 3c1b 173d 73be 77bd cf05 ab3d
00000230: b439 843d 8339 5a3e 72e7 10be 1cd5 e8bd
00000240: 2118 b7bd 81f1 85be fbe8 4b3e 8c97 fc3d
00000250: 095f 05be 6772 913d 49c1 cd3d 1cfa 473e
00000260: e5b5 e3bd 6bdd 1f3e c303 1d3e 41ee 843d
00000270: 0d7b eebd 0256 90bd 236c dc3c 3430 fe3d
00000280: 262a a93a 5fae 653d 9c0b b83d 444b cdbd
00000290: 17ad 32bc 23f6 28be d97b 07bd 64ed 613d
000002a0: 6be4 673d b1a3 67bd f188 e7bd 7689 b53c
000002b0: b961 13bd 2a80 a93d b29f 42be 6154 7c3e
000002c0: 9535 5f3e 2c63 d73b 22d9 ae3d 202e 923d
000002d0: dc3e fabd 8491 f53c 50aa 5abc bc30 2c3e
000002e0: 5aa6 98bd d9d1 5dbe c94c 9fbd 392a 9a3d
000002f0: b2f6 5d3d 0bfa 6bbe e821 a2bd e39a 383e
00000300: 7b00 50bd b856 0c3e a668 933d 10ab a7bd
00000310: 8498 3ebd 6263 203e 464b fabd 1ae3 b63d
00000320: baf6 d3bc a36c d53d a40c d03b a204 04be
00000330: fcb4 f33d 4f26 f63d 4281 1a3e 96cd 58bc
00000340: 3a98 ed3c a470 573d 7a85 563d 2044 8ebd
00000350: 46b2 a43d a74a cf3a c87f 183c d61c 123e
00000360: 0321 58bd 8b72 9ebd f57f 293e f8e4 4bbe
00000370: cece 1c3e 509f 8e3c 7a68 bb3d 44f2 0c3e
00000380: 2e55 dcbd c1cd 93bd 7919 69bd 9094 39be
00000390: b30f c73d 7845 1cbd bc39 0fbe 45df a73d
000003a0: 5a17 87bd 8c02 573c c0ea b8bd fd6c e13d
000003b0: 017f 3d3e 54e2 d03d 6ce6 a53d a014 8a3d
000003c0: a4ab 88bc 3d4c e83d f5ca 22bd 255f 17be
000003d0: 6935 3cbe 764c 84be 051c 063e 38dc 4f3d
000003e0: fd45 cd3d 83b7 d13d 5538 92bc dcd0 a43d
000003f0: 7cb9 1ebc 83bd 8c3c 5be8 47bc cfd9 203e

main.4.bias f4 [2048]
-0.0073956186 0.03320833 -0.19406916 -0.23620492 -0.029342065 -0.25631243 -0.08497982 -0.3178502
-0.00039929812 -0.3013125 -0.255265 -0.19214533 -0.103459924 -0.2510413 -0.29106772 -0.24362864
-0.07237052 -0.31792188 -0.29895255 -0.22708268 -0.06364282 -0.16238934 -0.14169456 -0.015036864
-0.117620915 -0.19469006 -0.172705 -0.008189149 -0.0071536074 -0.17689411 -0.03959385 0.072474584
-0.27219707 -0.04230813 -0.083171815 -0.065405615 -0.32419032 -0.012414009 -0.05370442 -0.011914368
-0.18517686 -0.15443215 0.07673683 -0.25607538 -0.26764366 -0.033643495 -0.29921585 -0.2106305
0.09542108 -0.21081689 -0.05313874 -0.23002702 -0.14119008 -0.21813893 -0.016056491 -0.12795673
-0.3112979 -0.21776499 0.007872831 0.10993779 0.030830162 -0.21804957 -0.29591087 -0.22478917
-0.20705189 -0.015663877 0.1033404 0.18442425 -0.051329568 0.08261105 0.048730813 -0.16397515
-0.16720675 0.04737519 -0.1045178 -0.0747095 0.022085426 -0.11623974 -0.18411948 0.17257623
-0.22399774 0.041770436 -0.06462939 -0.03831977 -0.2621767 -0.08314114 -0.08288966 -0.017020041
-0.099093065 0.032575734 -0.13183255 -0.093048796 0.20731124 -0.22619948 -0.21939929 0.12325797
-0.029461754 0.03950746 -0.20051758 0.118333675 -0.028845988 -0.2872945 0.11336141 -0.19181585
0.08500678 0.030076642 0.09413215 -0.09424677 -0.14718631 -0.119986884 0.17040421 0.15020706
0.03738322 -0.19891463 -0.21416117 -0.031820778 -0.17773433 -0.17356153 0.16910551 -0.2362843
0.099864505 0.016225323 -0.22433797 0.029494015 0.19982326 -0.03311525 -0.027991112 -0.13645454
0.06781545 0.28875476 -0.013249199 0.15765505 0.24065147 -0.022564283 -0.0140222395 0.27675062
0.07208998 0.2045696 0.14459886 -0.08497847 0.24399263 -0.097181655 -0.09869145 0.13545893
0.19552104 0.17094363 -0.0044692163 0.17056957 0.24791642 0.206311 -0.023342108 0.041413262
0.0064967023 0.11170302 0.32899004 -0.10973652 -0.04272806 0.12915891 0.04511702 0.0005355502
0.13201179 0.2302769 0.3263553 0.2575532 -0.022647321 0.23399882 0.16738075 -0.080825225
-0.09279391 -0.10280118 -0.037184406 0.23883337 -0.06456973 -0.0812912 -0.046794765 0.027126964
0.17497003 0.24929781 0.11818184 0.2224487 0.032176424 0.0662807 0.17115697 -0.037378125
0.24173853 -0.034558576 0.030235624 0.32917678 0.0345349 -0.01967153 0.09926484 0.08693859
0.22784224 0.19722545 0.1374598 -0.016978096 -0.08554645 0.046529748 0.18989205 -0.06221676
-0.12390655 -0.02930696 0.13362265 0.16305467 -0.13285561 0.20864873 0.2711727 0.050785713
-0.13724965 0.24055697 0.11281853 0.1565326 0.2634609 0.19744225 -0.123819575 0.29095957
-0.06947152 0.100215636 0.10833023 -0.09826306 0.049755294 -0.13698354 -0.06388382 -0.039384298
0.09953873 0.13067928 0.15259628 0.20158467 -0.007995138 0.099767104 -0.070144296 -0.016650358
0.1257396 -0.08666828 0.21076266 0.09157631 -0.08397371 0.15155211 0.12146549 0.296455
0.2366523 -0.11348618 -0.0372121 -0.031656217 -0.11510068 0.2694979 0.19814308 0.06297306
0.015363109 -0.038720265 0.05054322 -0.08568237 0.15812457 -0.010471738 -0.16651414 -0.0037288717
00000000: f256 f2bb 7505 083d 11ba 46be b4df 71be
00000010: c55e f0bc 623b 83be e609 aebd 43bd a2be
00000020: e358 d1b9 a245 9abe 18b2 82be bfc1 44be
00000030: cce2 d3bd 7c88 80be d406 95be c979 79be
00000040: ff36 94bd a8c6 a2be 4f10 99be 5d88 68be
00000050: 2b57 82bd 6449 26be 6118 11be 2e5d 76bc
00000060: 3ce3 f0bd d55c 47be 94d9 30be c82b 06bc
00000070: cf68 eabb bb23 35be 292d 22bd 8e6d 943d
00000080: 6a5d 8bbe 4a4b 2dbd fc55 aabd 61f3 85bd
00000090: 46fc a5be 2164 4bbc 2af9 5bbd 7b34 43bc
000000a0: 019f 3dbe 7623 1ebe 3328 9d3d 501c 83be
000000b0: 9708 89be c3cd 09bd d232 99be 86af 57be
000000c0: 216c c33d 62e0 57be 02a8 59bd 348c 6bbe
000000d0: 2294 10be d05f 5fbe e788 83bc 1707 03be
000000e0: 7062 9fbe c9fd 5ebe 0cfd 003c 1027 e13d
000000f0: 898f fc3c 6348 5fbe a181 97be 222f 66be
00000100: 6905 54be 8851 80bc 22a4 d33d b6d9 3c3e
00000110: f43e 52bd fb2f a93d f699 473d 1ae9 27be
00000120: 3f38 2bbe 7d0c 423d 6e0d d6bd 4b01 99bd
00000130: 7fec b43c 1a0f eebd d189 3cbe d3b7 303e
00000140: aa5f 65be 7a17 2b3d 6a5c 84bd 31f5 1cbd
00000150: 063c 86be e745 aabd 0ec2 a9bd 9d6d 8bbc
00000160: 4ef1 cabd 226e 053d 1dff 06be 5e90 bebd
00000170: 6649 543e d6a0 67be 35aa 60be ad6e fc3d
00000180: c759 f1bc 93d2 213d 7b54 4dbe ed58 f23d
00000190: 6c4e ecbc 4418 93be 072a e83d 606b 44be
000001a0: 0918 ae3d 4a63 f63c 5bc8 c03d 7304 c1bd
000001b0: 02b8 16be afbb f5bd 717e 2e3e e1cf 193e
000001c0: 261f 193d 47b0 4bbe 114d 5bbe 8156 02bd
000001d0: fdff 35be 1dba 31be ff29 2d3e 83f4 71be
000001e0: c385 cc3d f8ea 843c dab8 65be 6f9d f13c
000001f0: 789e 4c3e dba3 07bd 9e4d e5bc bdba 0bbe
00000200: d4e2 8a3d aad7 933e 2b13 59bc 5370 213e
00000210: 576d 763e bbd8 b8bc 89bd 65bc 42b2 8d3e
00000220: e9a3 933d b17a 513e b911 143e 3109 aebd
00000230: 34d9 793e 2d07 c7bd be1e cabd bfb5 0a3e
00000240: ab36 483e d90b 2f3e 8172 92bb caa9 2e3e
00000250: cddd 7d3e 3143 533e f337 bfbc f4a0 293d
00000260: 4ae2 d43b 8ec4 e43d 6271 a83e 8abd e0bd
00000270: 9e03 2fbd 3c42 043e a0cc 383d 2a64 0c3a
00000280: 192e 073e b5cd 6b3e 0b18 a73e 03de 833e
00000290: e086 b9bc 639d 6f3e dc65 2b3e b287 a5bd
000002a0: bc0a bebd 6d89 d2bd ad4e 18bd bc90 743e
000002b0: 223d 84bd 007c a6bd deab 3fbd 5e39 de3c
000002c0: 582b 333e ed47 7f3e 5209 f23d 98c9 633e
000002d0: 6dcb 033d 2dbe 873d c643 2f3e ce19 19bd
000002e0: 4e8a 773e 4b8d 0dbd b3b0 f73c dc89 a83e
000002f0: 7874 0d3d 3026 a1bc 5d4b cb3d dc0c b23d
00000300: 7a4f 693e 78f5 493e 43c2 0c3e a615 8bbc
00000310: fa32 afbd fa95 3e3d 1073 423e 00d7 7ebd
00000320: b8c2 fdbd 2615 f0bc 60d4 083e cef7 263e
00000330: 4d0b 08be 03a8 553e 26d7 8a3e ae04 503d
00000340: 2c8b 0cbe 9154 763e 670d e73d 154a 203e
00000350: 59e4 863e 4d2e 4a3e 1e95 fdbd a7f8 943e
00000360: 1647 8ebd db3d cd3d 3ddc dd3d 253e c9bd
00000370: 35cc 4b3d 6a45 0cbe 85d5 82bd 6e51 21bd
00000380: f6da cb3d cad0 053e 3342 1c3e 366c 4e3e
00000390: 0afe 02bc b252 cc3d d0a7 8fbd 5566 88bc
000003a0: e2c1 003e 247f b1bd 2bd2 573e 5c8c bb3d
000003b0: 69fa abbd 7a30 1b3e e6c2 f83d f3c8 973e
000003c0: fb54 723e 716b e8bd b76b 18bd f3a9 01bd
000003d0: e8b9 ebbd a1fb 893e 05e6 4a3e 05f8 803d
000003e0: 8db5 7b3c 2499 1ebd 6806 4f3d 3d7a afbd
000003f0: 68eb 213e a791 2bbc af82 2abe 1660 74bb

conv.0.weight f4 [20, 1, 5, 5]
0.18169622 -0.22690254 0.09763856 -0.067678094 -0.005086262 0.019866625 -0.08458121 -0.2116214
-0.05316539 0.07299002 -0.15746094 -0.09507571 -0.20715973 -0.10488222 -0.17220083 -0.22064793
-0.087877855 -0.025479617 -0.20448692 -0.028899336 0.22565591 0.062360328 0.068463385 -0.03586655
-0.015736002 -0.1037464 -0.038716104 0.08967466 -0.074519075 0.10958043 0.090715334 -0.01767007
0.16019723 0.07811765 0.16651267 0.14870498 -0.023682276 -0.031025173 0.2401329 0.18443687
-0.01457809 0.18806723 0.12268237 -0.006676884 0.063846 0.10054346 0.03835368 0.12689798
0.06277608 0.096101426 0.10983794 0.13485421 0.16025472 -0.008242271 0.097072154 -0.006670389
0.17176963 0.25795192 0.030371938 0.034721967 0.2110732 0.100364685 0.2305381 0.21362922
-0.01588645 0.04307106 0.259605 0.08583579 0.14342989 -0.035704866 0.029601278 -0.056745
0.17876054 0.122541845 0.04604535 0.102046534 0.048155554 -0.17047416 -0.0605807 -0.056251716
-0.015780604 -0.002877214 -0.06463854 -0.042294413 -0.087697774 -0.087312974 -0.14805801 -0.123954676
0.03609654 -0.14115985 -0.08367045 -0.15748532 -0.09681555 -0.10921446 0.084878206 -0.024119629
-0.1659502 -0.2333832 -0.15736708 -0.008132721 0.07612671 0.02535487 -0.0074418467 0.08791157
0.08985251 0.05223846 -0.015590735 0.14130332 0.086559206 0.193383 0.03246689 0.07850722
0.19597082 0.19436531 0.21524625 -0.017285716 0.15819936 0.03531402 0.26199993 0.096899115
0.12273504 0.19521888 0.17407516 0.15475522 -0.03514557 -0.1574858 -0.098392114 -0.07118454
-0.110774755 -0.04070165 0.052020393 -0.10640912 -0.055305436 0.11474322 0.20380335 0.1312092
-0.16289487 0.20571633 0.117039084 0.18166521 -0.19191703 0.18649541 0.0280138 -0.04727287
0.1245098 -0.010097113 -0.02947738 -0.019448543 -0.1787786 0.035838094 -0.18594052 -0.1887923
-0.134941 -0.073485255 0.019849291 -0.16541691 0.09476872 -0.03671456 -0.008213715 -0.17590316
-0.09191772 0.023345057 -0.020742837 -0.12750115 0.033652652 -0.19227286 -0.044821486 -0.14134274
0.00614272 0.0042507434 0.17929466 -0.2297848 0.09604784 0.10419452 0.017312156 -0.11913238
0.03237648 -0.072623365 -0.043330774 -0.11466512 -0.08745714 0.0979453 0.022620901 0.074627616
-0.07074169 -0.14050941 -0.04955513 -0.0036750603 -0.12600708 -0.066285476 -0.058545675 0.047997307
-0.068517216 -0.1620691 0.05050187 0.11300608 0.08765332 0.05666134 0.1108322 0.023021264
0.12192821 0.083516546 0.18386061 -0.05154373 0.17829663 0.013443121 -0.09741052 0.048621252
-0.101934604 0.20742391 0.10958144 -0.043912288 0.028281702 -0.035532802 -0.11259994 0.09696478
0.2507152 0.07039283 0.14211862 0.15036078 0.0648448 -0.00978682 0.009878592 0.22548738
0.18104056 0.16780573 -0.11108651 0.22154754 -0.025314448 0.13877286 0.11145915 -0.046995997
0.02442882 -0.013314238 0.15014356 0.09425217 -0.18844543 -0.021377841 -0.23123361 -0.16386391
-0.0075026685 -0.016475428 -0.007200357 -0.22086905 -0.053939193 -0.0009844651 -0.089153536 -0.10548328
-0.25127327 -0.13816929 0.11793407 -0.04260429 0.13424315 0.21567245 0.15652476 -0.092566095
00000000: 930e 3a3e 2459 68be baf6 c73d d09a 8abd
00000010: a8aa a6bb 55bf a23c ea38 adbd 48b3 58be
00000020: f4c3 59bd cb7b 953d 713d 21be 0eb7 c2bd
00000030: ae21 54be 7dcc d6bd 6a55 30be 88f1 61be
00000040: 4ef9 b3bd a1ba d0bc 0565 51be 4dbe ecbc
00000050: 5812 673e 8b6d 7f3d 8836 8c3d cee8 12bd
00000060: cae8 80bc fe78 d4bd c794 1ebd 59a7 b73d
00000070: 759d 98bd b46b e03d f6c8 b93d d3c0 90bc
00000080: be0a 243e 25fc 9f3d 4c82 2a3e 1e46 183e
00000090: 5501 c2bc 8128 febc 66e5 753e 05dd 3c3e
000000a0: f1d8 6ebc b294 403e e540 fb3d c3c9 dabb
000000b0: b1c1 823d bbe9 cd3d c018 1d3d 8bf1 013e
000000c0: bf90 803d d3d0 c43d b7f2 e03d 3917 0a3e
000000d0: d019 243e 970a 07bc c4cd c63d 4793 dabb
000000e0: 61e4 2f3e 4612 843e 92ce f83c 9f38 0e3d
000000f0: 9323 583e 008c cd3d 2e12 6c3e 9ec1 5a3e
00000100: 4d24 82bc 486b 303d f2ea 843e adca af3d
00000110: 49df 123e 443f 12bd 617e f23c 726d 68bd
00000120: 010d 373e 38f7 fa3d 0d9a 3c3d c6fd d03d
00000130: c23e 453d c790 2ebe 7823 78bd 3368 66bd
00000140: 5346 81bc a48f 3cbb 3661 84bd e83c 2dbd
00000150: e49a b3bd 25d1 b2bd 859c 17be f3db fdbd
00000160: f7d9 133d 358c 10be 6a5b abbd d543 21be
00000170: 3b47 c6bd d5ab dfbd a0d4 ad3d 8796 c5bc
00000180: d9ee 29be 01fc 6ebe d624 21be 1b3f 05bc
00000190: 52e8 9b3d 04b5 cf3c bcda f3bb fb0a b43d
000001a0: 9804 b83d fff7 553d 4870 7fbc d1b1 103e
000001b0: f445 b13d 3106 463e 00fc 043d 65c8 a03d
000001c0: 93ac 483e b307 473e 8369 5c3e c69a 8dbc
000001d0: 03ff 213e 6fa5 103d db24 863e 0b73 c63d
000001e0: 825c fb3d 75e7 473e c240 323e 2778 1e3e
000001f0: cdf4 0fbd f543 21be ce81 c9bd 33c9 91bd
00000200: e0dd e2bd c6b6 26bd 5613 553d 06ed d9bd
00000210: f487 62bd 7efe ea3d d3b1 503e b45b 063e
00000220: eacd 26be 4da7 523e 30b2 ef3d 7206 3a3e
00000230: e685 44be a7f8 3e3e 327d e53c 32a1 41bd
00000240: fefe fe3d 5d6e 25bc 8c7a f1bc 8d52 9fbc
00000250: bd11 37be f7ca 123d 3167 3ebe c552 41be
00000260: f92d 0abe 707f 96bd fb9a a23c 0d63 29be
00000270: 1a16 c23d 0262 16bd d192 06bc f51f 34be
00000280: 5c3f bcbd 223e bf3c e2ec a9bc a98f 02be
00000290: 5dd7 093d 2de3 44be bc96 37bd 27bc 10be
000002a0: df48 c93b d249 8b3b 0599 373e b54c 6bbe
000002b0: bbb4 c43d f063 d53d 39d2 8d3c adfb f3bd
000002c0: 339d 043d 8fbb 94bd 9c7b 31bd 8cd5 eabd
000002d0: bb1c b3bd 8c97 c83d 784f b93c 5dd6 983d
000002e0: 05e1 90bd b3e1 0fbe 52fa 4abd 48d9 70bb
000002f0: 0008 01be aec0 87bd 97cd 6fbd d398 443d
00000300: c152 8cbd 71f5 25be 0ddb 4e3d bb6f e73d
00000310: 9583 b33d b915 683d fefb e23d 1797 bc3c
00000320: 7fb5 f93d b90a ab3d f545 3c3e 851f 53bd
00000330: 6493 363e 8940 5c3c 2b7f c7bd 1427 473d
00000340: 17c3 d0bd ef66 543e 3c6c e03d 5fdd 33bd
00000350: 07af e73c d88a 11bd cc9a e6bd 7895 c63d
00000360: be5d 803e 1e2a 903d 8b87 113e 2df8 193e
00000370: 5acd 843d e658 20bc d1d9 213c 2ae6 663e
00000380: b262 393e 44d5 2b3e 5381 e3bd 5cdd 623e
00000390: 3f60 cfbc 791a 0e3e b244 e43d e07e 40bd
000003a0: f31e c83c f623 5abc 3cbf 193e 4807 c13d
000003b0: d7f7 40be 9520 afbc 81c8 6cbe f1cb 27be
000003c0: f2d8 f5bb 7af7 86bc f9f0 ebbb 7f2b 62be
000003d0: 58ef 5cbd 2b09 81ba 2196 b6bd 9e07 d8bd
000003e0: e4a6 80be 407c 0dbe 6b87 f13d d681 2ebd
000003f0: 0977 093e 3dd9 5c3e 0748 203e 4b93 bdbd

conv.0.bias f4 [20]
0.06618916 -0.3301791 -0.026799152 0.088599555 -0.013126646 0.1387852 0.041835167 0.30903146
-0.2688727 -0.038535513 0.023322146 0.04082171 -0.06350677 0.120673634 -0.22881593 -0.021857353
-0.11877668 0.1889768 0.14123617 0.097457066
00000000: 2f8e 873d 3c0d a9be e589 dbbc af73 b53d
00000010: 2511 57bc b51d 0e3e 5a5b 2b3d 5f39 9e3e
00000020: afa9 89be 6ad7 1dbd 160e bf3c aa34 273d
00000030: d60f 82bd bd23 f73d b94e 6abe 310e b3bc
00000040: 3041 f3bd 2283 413e 37a0 103e 9297 c73d

conv.2.weight f4 [20]
1.1437192 1.141699 1.1322492 1.1236327 1.1917804 0.90246195 0.8884375 0.91885495
1.1079191 0.956728 1.1292989 0.8838243 0.91184604 1.1416036 1.1413372 0.8903347
1.1397724 1.1934564 1.129459 0.8813459
00000000: 6465 923f 3123 923f 8bed 903f 32d3 8f3f
00000010: 438c 983f bf07 673f a470 633f 143a 6b3f
00000020: 4bd0 8d3f 20ec 743f de8c 903f 4f42 623f
00000030: be6e 693f 1120 923f 5617 923f faec 633f
00000040: 10e4 913f 2ec3 983f 1d92 903f e39f 613f

conv.2.bias f4 [20]
-0.12036219 -0.11939129 0.14263545 -0.12537226 0.13775726 0.13375992 0.12842005 0.12031837
-0.1282354 0.13376214 -0.1264158 0.12304326 0.13940255 0.12229869 -0.1237934 0.14035855
-0.1433865 0.15521285 0.1265833 0.13771693
00000000: 7480 f6bd 6c83 f4bd 070f 123e 9661 00be
00000010: 3d10 0d3e 5cf8 083e 8c80 033e 7a69 f63d
00000020: 2450 03be f1f8 083e 2573 01be 1bfe fb3d
00000030: 8bbf 0e3e bc77 fa3d 6587 fdbd 27ba 0f3e
00000040: e9d3 12be 1ef0 1e3e 0d9f 013e ab05 0d3e

conv.2.running_mean f4 [20]
-0.023872416 0.09355202 0.5218753 -0.05374048 0.54425997 0.18161611 -0.03143441 0.21520843
0.13339314 -0.021751363 -0.01591615 0.1957884 0.19685079 0.6116002 0.123652935 0.016902445
0.39583793 -0.034964558 0.5379347 0.09202157
00000000: 1690 c3bc 3498 bf3d 9f99 053f fa1e 5cbd
00000010: 9f54 0b3f 93f9 393e 5ec1 00bd 995f 5c3e
00000020: 3698 083e ea2f b2bc 9662 82bc c17c 483e
00000030: 4193 493e d591 1c3f c03d fd3d ff76 8a3c
00000040: 45ab ca3e ff36 0fbd 17b6 093f ce75 bc3d

conv.2.running_var f4 [20]
0.008000757 0.019862643 0.057365853 0.0027912569 0.055992126 0.032823097 0.005764956 0.020227492
0.029092109 0.009637524 0.010698629 0.041540124 0.0474796 0.041814864 0.025697663 0.013698711
0.04832098 0.009017541 0.037014563 0.026122766
00000000: 9b15 033c fbb6 a23c 75f8 6a3d 85ed 363b
00000010: 0058 653d 8371 063d f5e7 bc3b 20b4 a53c
00000020: 9352 ee3c b5e6 1d3c 4d49 2f3c fa25 2a3d
00000030: f879 423d 1046 2b3d e883 d23c 8f70 603c
00000040: 38ec 453d 4fbe 133c 959c 173d 69ff d53c

conv.3.weight f4 [1, 20, 5, 5]
0.14961155 0.13643782 0.07716344 0.11610635 0.08563895 0.12897809 0.08554636 0.15756541
0.15853235 0.14193253 0.15285434 0.15336387 0.14513168 0.11916503 0.1075833 0.1398563
0.12565157 0.098690055 0.13769415 0.09938114 0.12055942 0.14713751 0.14583524 0.09414249
0.12787561 0.10100636 0.11420493 0.08672866 0.14406751 0.078971945 0.075909466 0.1067863
0.11723769 0.15373038 0.1261558 0.086696684 0.16335101 0.10624167 0.13412037 0.15995969
0.15079576 0.16651683 0.15806319 0.12813906 0.07807391 0.1285885 0.09077607 0.12163019
0.09224656 0.11743282 -0.121876836 -0.1304206 -0.07694707 -0.15853265 -0.10056656 -0.13421619
-0.14818995 -0.042878892 -0.09496357 -0.15862021 -0.10334362 0.07640076 0.06613701 0.08388627
-0.03144414 -0.1319297 -0.15989162 -0.117744766 -0.15999377 -0.17414385 -0.11683669 -0.09444608
-0.14108054 -0.14610262 -0.1312524 0.13620824 0.087470554 0.1391276 0.14047207 0.13683875
0.15648113 0.14873978 0.106077015 0.09673936 0.1398632 0.12433789 0.07197132 0.026371831
0.05673357 0.13671193 0.107034035 0.12558086 0.155333 0.10509629 0.109208055 0.076444544
0.11412701 0.098844506 0.13749506 0.09677034 -0.15925062 -0.09380453 -0.11468928 -0.15826307
-0.16806847 -0.108850665 -0.122024335 -0.09937878 -0.15383257 -0.14772117 0.0336455 0.10660271
0.14016517 0.11684542 0.033610094 -0.12735493 -0.12977572 -0.07081687 -0.09041993 -0.15506415
-0.10913873 -0.13047554 -0.13536519 -0.12102038 -0.12591544 -0.15964322 -0.10179969 -0.07618533
-0.14483094 -0.12323277 -0.1295926 -0.12010082 -0.10561144 -0.12503268 -0.09020107 -0.07801597
-0.12675689 -0.1547778 -0.16886708 -0.10959173 -0.13411027 -0.14826134 -0.1409317 -0.13423589
-0.111963235 -0.09560672 -0.13657534 -0.09374286 -0.091284715 -0.10785213 -0.095727906 -0.08562984
-0.16075473 -0.1210093 -0.1269677 -0.15874536 -0.16521956 -0.12303599 -0.083818235 -0.11556515
-0.18292747 -0.17484085 -0.14730687 -0.14206025 -0.1640189 -0.07156994 -0.103823684 -0.124184355
-0.12541687 -0.08695887 -0.08367486 -0.094860174 -0.1041837 -0.080997266 -0.072098784 -0.07525076
-0.121182315 -0.1446686 -0.14481416 -0.15098676 -0.13789138 -0.11343318 -0.12794192 -0.075232856
-0.10724389 -0.10050672 -0.14256229 -0.16357297 -0.16073257 -0.12960725 -0.12855166 -0.16239583
-0.12204171 -0.13414998 -0.15539551 -0.10404893 -0.115338154 -0.12205605 -0.0807109 -0.06871466
0.11872785 0.07294575 0.13014813 0.102818646 0.08471054 0.098717675 0.07998278 0.16852638
0.09498758 0.11298734 0.11001102 0.1210866 0.18247479 0.11649432 0.13477144 0.10995965
0.13416554 0.106497176 0.14192627 0.09648705 0.104185246 0.107187584 0.120354526 0.14187796
0.07789494 -0.07214463 -0.060935374 -0.10285292 -0.06024608 -0.108159766 -0.091605656 -0.13565768
-0.1008784 -0.09571515 -0.10716907 -0.15586425 -0.15492636 -0.12868743 -0.15342969 -0.13127878
-0.18850645 -0.11695849 -0.088290714 -0.14389056 -0.15099308 -0.11997115 -0.10130594 -0.105458066
-0.15471098 -0.1321744 0.15209723 0.106753826 0.13801135 0.09588774 0.1632802 0.112346694
00000000: c533 193e 5bb6 0b3e de07 9e3d 2bc9 ed3d
00000010: 7963 af3d d512 043e ee32 af3d d458 213e
00000020: 4e56 223e c356 113e d985 1c3e 6b0b 1d3e
00000030: 669d 143e cc0c f43d a254 dc3d 7d36 0f3e
00000040: ceaa 003e 031e ca3d b2ff 0c3e 5788 cb3d
00000050: dbe7 f63d 37ab 163e d555 153e c7cd c03d
00000060: d3f1 023e 6cdc ce3d 46e4 e93d cc9e b13d
00000070: 6f86 133e 0bbc a13d 6c76 9b3d c7b2 da3d
00000080: 501a f03d 7f6b 1d3e fc2e 013e 088e b13d
00000090: 7d45 273e 3c95 d93d da56 093e 79cc 233e
000000a0: 346a 1a3e 6383 2a3e 51db 213e e336 033e
000000b0: 37e5 9f3d b4ac 033e cee8 b93d 4019 f93d
000000c0: c4eb bc3d 9e80 f03d 909a f9bd fa8c 05be
000000d0: 6d96 9dbd 6256 22be d7f5 cdbd f86f 09be
000000e0: 1bbf 17be c7a1 2fbd 437c c2bd 566d 22be
000000f0: d2a5 d3bd 0078 9c3d d772 873d 91cc ab3d
00000100: 92cb 00bd 9418 07be a1ba 23be 2b24 f1bd
00000110: 68d5 23be c452 32be 1348 efbd f26c c1bd
00000120: 6b77 10be ed9b 15be 0767 06be 2c7a 0b3e
00000130: c323 b33d 7777 0e3e e9d7 0f3e 751f 0c3e
00000140: 973c 203e 3e4f 183e e83e d93d 491f c63d
00000150: 4c38 0f3e dda4 fe3d b365 933d bd09 d83c
00000160: 7661 683d 36fe 0b3e a934 db3d 4598 003e
00000170: 9d0f 1f3e b93c d73d 79a8 df3d f58e 9c3d
00000180: 6cbb e93d fd6e ca3d 81cb 0c3e 872f c63d
00000190: 9812 23be 971c c0bd 37e2 eabd b70f 22be
000001a0: 241a 2cbe 19ed debd e5e7 f9bd 1a87 cbbd
000001b0: 4986 1dbe 3844 17be ddcf 093d 8652 da3d
000001c0: 7587 0f3e a74c ef3d bdaa 093d 5569 02be
000001d0: ede3 04be 6f08 91bd 162e b9bd 23c9 1ebe
000001e0: 2084 dfbd 619b 05be 2c9d 0abe 88d9 f7bd
000001f0: faef 00be 8379 23be 5b7c d0bd 0e07 9cbd
00000200: 904e 14be 7661 fcbd ecb3 04be 6bf7 f5bd
00000210: d04a d8bd 9108 00be 57bb b8bd d6c6 9fbd
00000220: 8fcc 01be 127e 1ebe 7eeb 2cbe a171 e0bd
00000230: 3454 09be d2d1 17be 6650 10be 2275 09be
00000240: fb4c e5bd 75cd c3bd 68da 0bbe 42fc bfbd
00000250: 7bf3 babd 94e1 dcbd fe0c c4bd b35e afbd
00000260: e39c 24be b9d3 f7bd d203 02be 258e 22be
00000270: 512f 29be 4bfa fbbd e5a8 abbd 6cad ecbd
00000280: 5751 3bbe 7b09 33be 9dd7 16be 3e78 11be
00000290: 92f4 27be 4393 92bd 83a1 d4bd 5e54 febd
000002a0: 486d 00be 7e17 b2bd ba5d abbd 0d46 c2bd
000002b0: 445e d5bd e5e1 a5bd 87a8 93bd 121d 9abd
000002c0: 6f2e f8bd 0124 14be 2a4a 14be 469c 1abe
000002d0: 6633 0dbe a84f e8bd 3503 03be af13 9abd
000002e0: afa2 dbbd 78d6 cdbd d9fb 11be ac7f 27be
000002f0: 1497 24be c3b7 04be 0ca3 03be 184b 26be
00000300: 01f1 f9bd 9d5e 09be 0020 1fbe 9b17 d5bd
00000310: 6936 ecbd 86f8 f9bd c24b a5bd 46ba 8cbd
00000320: 9627 f33d 9564 953d 8d45 053e 9592 d23d
00000330: b87c ad3d 7e2c ca3d 03ce a33d 2e92 2c3e
00000340: d988 c23d e865 e73d 754d e13d 40fc f73d
00000350: acda 3a3e 9394 ee3d 8601 0a3e 8632 e13d
00000360: b162 093e 311b da3d 1f55 113e 019b c53d
00000370: 135f d53d 2a85 db3d 6f7c f63d 7548 113e
00000380: 6287 9f3d 90c0 93bd 5f97 79bd 8da4 d2bd
00000390: 98c4 76bd de82 ddbd bf9b bbbd d9e9 0abe
000003a0: 5699 cebd 4e06 c4bd 757b dbbd e19a 1fbe
000003b0: 04a5 1ebe a3c6 03be ac1c 1dbe f26d 06be
000003c0: d607 41be ef87 efbd c3d1 b4bd 0c58 13be
000003d0: ee9d 1abe 6fb3 f5bd 7d79 cfbd 66fa d7bd
000003e0: 8e6c 1ebe ba58 07be 60bf 1b3e c0a1 da3d
000003f0: d952 0d3e cb60 c43d ed32 273e 0616 e63d
