src/caches/cache_16_20_big/param2img7.pt (torch, 184864 bytes, 19 tensors)

main.0.weight f4 [16]
0.7438647 0.78826386 0.7811798 0.9801038 0.8340155 1.1175479 1.0778477 1.0573484
0.97985786 1.1424937 1.1111931 0.9986828 1.0955445 0.77703804 0.77363515 1.0062026
00000000: eb6d 3e3f a9cb 493f 66fb 473f 15e8 7a3f
00000010: 0a82 553f cf0b 8f3f eaf6 893f 3157 873f
00000020: f7d7 7a3f 3c3d 923f 933b 8e3f ada9 7f3f
00000030: cd3a 8c3f f7eb 463f f40c 463f 3fcb 803f

main.0.bias f4 [16]
0.034636136 -0.04684536 -0.0021479551 0.15226835 0.09175202 0.080260985 -0.1508785 -0.037727747
-0.017746143 -0.054719377 -0.051426537 0.071061365 -0.10457479 -0.09547752 -0.03860848 -0.030058993
00000000: 9fde 0d3d ece0 3fbd b5c4 0cbb 3cec 1b3e
00000010: 7ce8 bb3d df5f a43d e57f 1abe 6988 1abd
00000020: 5c60 91bc 6d21 60bd a2a4 52bd 9f88 913d
00000030: 4f2b d6bd b889 c3bd ed23 1ebd 473e f6bc

main.0.running_mean f4 [16]
1.0951108e-05 4.754987e-05 0.1999893 -0.0075514917 0.01064984 0.0016122278 0.49391 -0.0075500254
0.02133406 0.0016322968 0.4939512 -0.0075377002 0.03198456 -1.2633812e-05 0.19999278 -0.007575682
00000000: a7ba 3737 4970 4738 ffc9 4c3e 8172 f7bb
00000010: ab7c 2e3c 6351 d33a c6e1 fc3e 3466 f7bb
00000020: c4c4 ae3c cbf2 d53a 2ce7 fc3e d0fe f6bb
00000030: 3e02 033d cff5 53b7 e8ca 4c3e 6d3d f8bb

main.0.running_var f4 [16]
1.0091359e-06 9.630987e-07 1.0016839e-06 0.0020051105 1.6189884e-05 0.00014222684 0.07450125 0.0020024031
6.07681e-05 0.00014135896 0.07448787 0.0020053196 0.00013653685 9.883969e-07 9.948205e-07 0.0020054204
00000000: a571 8735 d243 8135 9971 8635 2c68 033b
00000010: 83cf 8737 ba22 1539 1d94 983d c03a 033b
00000020: 40e1 7e38 c239 1439 198d 983d ae6b 033b
00000030: 552b 0f39 0fa9 8435 c685 8535 5f6d 033b

main.1.weight f4 [20, 16]
0.045634024 -0.02172514 0.01054371 -0.22940499 -0.07582271 0.018091694 0.26424244 0.13847269
0.19285284 0.008712693 0.32059675 -0.105093226 -0.04504435 0.015015555 -0.01518653 0.16529316
0.0066507794 0.030911561 0.010939174 0.11146961 0.07765458 -0.097595856 -0.059581228 -0.19017783
0.07563132 -0.084375 0.21790422 -0.06347509 0.18176687 -0.032070383 -0.038183782 0.030051826
0.013222552 0.008324874 0.028242718 0.080208 -0.05316972 0.25740948 -0.07414462 -0.25201494
-0.11076174 -0.04960725 0.1536159 0.047570728 0.1357519 -0.05097927 -0.067094915 -0.23078284
0.076901235 -0.044166334 -0.041148953 0.03288421 -0.04079119 0.27890417 0.07330721 -0.124006465
0.17911798 -0.047057744 0.3054155 0.025985647 -0.22702321 -0.012666975 0.0045140022 0.19875975
-0.070771076 0.042424075 -0.03495113 0.040527835 0.043198813 0.26658842 0.19913155 0.14694668
0.16035312 0.32195476 0.09024255 0.22425957 0.06997162 0.034428824 0.043625265 0.15176709
0.0045087095 -0.0035777856 -0.017197471 -0.08277207 0.09856222 0.084954806 -0.061935756 0.21339218
0.063559875 0.36068594 -0.31948423 0.18804939 -0.09367016 -0.02139516 -0.035709165 -0.1542735
-0.06626631 -0.025106227 -0.04797969 -0.01128654 -0.18228674 -0.23905739 0.1955672 0.10432385
-0.10256275 -0.2985101 -0.032857183 0.19696948 0.111855924 0.05516014 0.07497245 -0.024812393
0.02344556 -0.024041548 -0.024005136 0.19093342 0.1417029 0.005689073 0.04721017 0.11083457
0.08979869 0.154328 -0.14475617 -0.013377451 0.32192153 0.05752356 0.054340813 -0.11613199
0.030255467 -0.05311144 0.008325395 -0.18341406 0.05277987 0.3021841 0.13222252 0.18853477
0.21401414 0.2791765 0.047831394 -0.11095014 0.15492362 0.04203431 0.0792418 0.15642835
-0.026955774 0.014114015 -0.0065372023 -0.12565361 0.0155178895 -0.03555882 -0.15453425 0.22133863
-0.11680894 0.00084278156 -0.29671386 -0.10339567 -0.060360897 0.028069444 -0.015274659 0.061064932
-0.05999245 0.030891748 -0.04406978 0.114646494 -0.0026174546 -0.14826228 -0.17802286 -0.18807235
0.22052768 1.5129725e-05 -0.11827552 0.19577175 0.13799055 -0.044406142 -0.08527824 0.007015166
0.05708825 -0.056727037 -0.06227177 0.14210513 -0.13847929 0.15036193 -0.12821534 0.22296374
-0.12238964 0.011060773 0.27311262 0.122979864 -0.13633 0.06621829 0.10769719 -0.21117422
0.0402345 -0.021453531 0.031972144 0.10966066 0.08627816 0.020300604 -0.23363914 -0.23283783
0.2797496 0.02636689 0.03389117 0.17173663 0.07252777 0.014237193 0.027972808 -0.10130293
0.004724508 -0.07431508 0.024275173 0.15965085 -0.2064274 0.17787193 -0.14792298 0.2623288
-0.014172953 0.04930171 -0.1425451 0.058399517 -0.3584349 0.0007379402 0.0818048 -0.009115023
0.00031431508 0.017804576 0.056061365 -0.034313347 -0.18243769 0.19596861 -0.09979682 -0.054275975
-0.2464297 -0.05831842 0.27190804 -0.02349273 -0.337006 -0.057642937 -0.08269206 0.10210178
-0.07363659 0.07670865 -0.08082846 -0.15851472 0.1492582 0.2569843 -0.08509943 -0.19327319
-0.0327737 0.29286468 0.15797701 -0.13936453 0.20335583 -0.029416692 -0.05410629 -0.20383468
00000000: beea 3a3d ecf8 b1bc 86bf 2c3c 24e9 6abe
00000010: f048 9bbd 0835 943c c94a 873e c9cb 0d3e
00000020: 377b 453e afbf 0e3c 4225 a43e 1e3b d7bd
00000030: 6d80 38bd cd03 763c ecd0 78bc 9c42 293e
00000040: c8ee d93b 3e3a fd3c 393a 333c 2e4a e43d
00000050: 5d09 9f3d 56e0 c7bd 720b 74bd fabd 42be
00000060: 98e4 9a3d cdcc acbd 4922 5f3e 3aff 81bd
00000070: 1821 3a3e 3c5c 03bd 9966 1cbd 3f2f f63c
00000080: 67a3 583c 0d65 083c 465d e73c 1844 a43d
00000090: 7ec8 59bd 2dcb 833e 22d9 97bd 1a08 81be
000000a0: 0dd7 e2bd f930 4bbd 7d4d 1d3e 86d9 423d
000000b0: 8c02 0b3e a4cf 50bd 0f69 89bd 5652 6cbe
000000c0: 657e 9d3d c2e7 34bd ce8b 28bd 98b1 063d
000000d0: aa14 27bd 87cc 8e3e 1722 963d 1af7 fdbd
000000e0: b46a 373e 9fbf 40bd 6c5f 9c3e dadf d43c
000000f0: c678 68be 2589 4fbc 32ea 933b ad87 4b3e
00000100: 6df0 90bd dec4 2d3d eb28 0fbd 8400 263d
00000110: 3df1 303d 477e 883e 24e9 4b3e 3179 163e
00000120: 9c33 243e 41d7 a43e 16d1 b83d 4da4 653e
00000130: 484d 8f3d 3d05 0d3d 68b0 323d d568 1b3e
00000140: ccbd 933b 4879 6abb b6e1 8cbc 6784 a9bd
00000150: fdda c93d c9fc ad3d 59b0 7dbd 7b83 5a3e
00000160: ae2b 823d d4ab b83e 7093 a3be 0590 403e
00000170: 24d6 bfbd e744 afbc c643 12bd dff9 1dbe
00000180: a2b6 87bd 93ab cdbc 5a86 44bd 2eeb 38bc
00000190: 60a9 3abe 76cb 74be c542 483e bea7 d53d
000001a0: 6b0c d2bd 51d6 98be 4195 06bd 5eb2 493e
000001b0: b814 e53d 99ef 613d 288b 993d 5c43 cbbc
000001c0: e710 c03c c8f2 c4bc 6ba6 c4bc 0d84 433e
000001d0: 911a 113e 676b ba3b 745f 413d 3cfd e23d
000001e0: 60e8 b73d 2908 1e3e f63a 14be 192d 5bbc
000001f0: e6d2 a43e d39d 6b3d 7994 5e3d 9cd6 edbd
00000200: 50da f73c 628b 59bd 3d67 083c e5d0 3bbe
00000210: b42f 583d e0b7 9a3e 5765 073e 420f 413e
00000220: 8626 5b3e 39f0 8e3e daea 433d d439 e3bd
00000230: 4ca4 1e3e 2b2c 2c3d 8649 a23d c12e 203e
00000240: 5bd2 dcbc 783e 673c 0736 d6bb 57ab 00be
00000250: bf3e 7e3c 20a6 11bd 3a3e 1ebe 98a6 623e
00000260: 8739 efbd 1dee 5c3a e1ea 97be 1cc1 d3bd
00000270: fd3c 77bd e4f1 e53c 9042 7abc 391f 7a3d
00000280: a5ba 75bd b110 fd3c 8382 34bd c8cb ea3d
00000290: 9a89 2bbb 11d2 17be a04b 36be 0a96 40be
000002a0: 02d2 613e add5 7d37 703a f2bd 6478 483e
000002b0: 654d 0d3e 37e3 35bd 5ca6 aebd 7adf e53b
000002c0: 5ed5 693d 9c5a 68bd af10 7fbd 0284 113e
000002d0: 84cd 0dbe 7af8 193e e24a 03be 9b50 643e
000002e0: 6ba7 fabd 3f38 353c 6bd5 8b3e dedc fb3d
000002f0: 179a 0bbe 749d 873d 5890 dc3d 0e3e 58be
00000300: eecc 243d 51bf afbc 39f5 023d c595 e03d
00000310: 9bb2 b03d 744d a63c 193f 6fbe 0a6d 6ebe
00000320: 573b 8f3e 60ff d73c 78d1 0a3d badb 2f3e
00000330: 7189 943d 1e43 693c 3b27 e53c e977 cfbd
00000340: 0cd0 9a3b 8132 98bd badc c63c 837b 233e
00000350: b461 53be 0f24 363e 1f79 17be f64f 863e
00000360: ac35 68bc 97f0 493d 58f7 11be 5534 6f3d
00000370: c784 b7be 5472 413a 4689 a73d 2d57 15bc
00000380: a8ca a439 e7da 913c 9aa0 653d 278c 0cbd
00000390: f2d0 3abe ffab 483e 4662 ccbd 7c50 5ebd
000003a0: 1158 7cbe 4cdf 6ebd 8837 8b3e d373 c0bc
000003b0: 0d8c acbe 001b 6cbd 745a a9bd bd1a d13d
000003c0: c8ce 96bd 6d19 9d3d 6489 a5bd af51 22be
000003d0: 24d7 183e 7293 833e 9c48 aebd 68e9 45be
000003e0: b73d 06bd 5cf2 953e bac4 213e 93b5 0ebe
000003f0: 833c 503e 46fb f0bc 8f9e 5dbd 0aba 50be

main.1.bias f4 [20]
0.21899322 0.3250978 0.27659744 0.15992905 -0.07653329 -0.1886318 -0.120175526 0.004080247
0.23923157 0.012033339 0.17827411 -0.03564218 0.23705629 -0.009612306 -0.14952502 -0.10164616
0.18026921 -0.08264058 -0.087783866 -0.0014536821
00000000: c23f 603e 3873 a63e 2e9e 8d3e 71c4 233e
00000010: 7cbd 9cbd b228 41be 961e f6bd 98b3 853b
00000020: 1ff9 743e 7b27 453c 7d8d 363e 89fd 11bd
00000030: e2be 723e ef7c 1dbc 161d 19be dd2b d0bd
00000040: 7e98 383e 773f a9bd 07c8 b3bd 7a89 beba

main.3.weight f4 [20]
0.96059316 0.9799275 0.85001284 0.86451894 0.9148903 0.9483113 0.89512694 0.8723253
0.9419856 0.904763 0.92192537 0.8583245 0.87818974 0.8767009 0.9344005 0.87779486
0.9249321 0.8984478 0.93847793 0.8558899
00000000: 6fe9 753f 87dc 7a3f 719a 593f 1d51 5d3f
00000010: 4036 6a3f 88c4 723f 0a27 653f b650 5f3f
00000020: f825 713f 8c9e 673f 4d03 6c3f 28bb 5b3f
00000030: 0bd1 603f 786f 603f df34 6f3f 2ab7 603f
00000040: 5ac8 6c3f ad00 663f 1740 703f 9a1b 5b3f

main.3.bias f4 [20]
-0.13533361 -0.03784935 0.010931913 -0.07376203 -0.09056005 -0.11973388 -0.088058315 -0.12018535
-0.10350516 -0.121442884 -0.10140552 -0.12259652 -0.09542277 -0.073122665 -0.108399175 -0.1395657
-0.105451815 -0.13391176 -0.11865269 -0.1318814
00000000: e594 0abe ec07 1bbd c41b 333c 8c10 97bd
00000010: 8c77 b9bd 0937 f5bd eb57 b4bd bd23 f6bd
00000020: 83fa d3bd 0cb7 f8bd b3ad cfbd e213 fbbd
00000030: 036d c3bd 56c1 95bd 6300 debd 50ea 0ebe
00000040: 1ff7 d7bd 2a20 09be 2e00 f3bd eb0b 07be

main.3.running_mean f4 [20]
0.28626555 0.3733978 0.38102132 0.2850634 0.23788881 0.13661659 0.13125011 0.19780563
0.36164722 0.18534409 0.31989953 0.1702649 0.37291965 0.3013408 0.18958569 0.2445071
0.28278083 0.2544383 0.15775408 0.31751522
00000000: 6691 923e ff2d bf3e 3a15 c33e d4f3 913e
00000010: 2099 733e 38e5 0b3e 6e66 063e 8f8d 4a3e
00000020: d329 b93e d7ca 3d3e dfc9 a33e ec59 2e3e
00000030: 53ef be3e 5749 9a3e c022 423e 1260 7a3e
00000040: a6c8 903e bd45 823e 498a 213e 5b91 a23e

main.3.running_var f4 [20]
0.19002084 0.12454082 0.12859027 0.14443368 0.314215 0.14729692 0.15211368 0.11286669
0.30076358 0.11856055 0.13920227 0.10684523 0.13288306 0.31860906 0.22410446 0.3187177
0.111954845 0.21751165 0.15458053 0.31215274
00000000: d394 423e 420f ff3d 2bad 033e 6ce6 133e
00000010: cae0 a03e 01d5 163e b0c3 1b3e a726 e73d
00000020: affd 993e e0cf f23d 0a8b 0e3e acd1 da3d
00000030: 7f12 083e ba20 a33e a47b 653e f72e a33e
00000040: 9548 e53d 60bb 5e3e 5c4a 1e3e 7cd2 9f3e

main.4.weight f4 [2048, 20]
0.06336828 0.08966204 0.048844066 -0.29311138 0.00682322 -0.019371927 -0.05224645 0.025486512
0.12116845 0.049554266 -0.14548005 -0.10909484 -0.11968416 -0.16756713 0.054866422 0.100444056
0.16570449 -0.015472699 -0.06297735 0.08897645 0.021388588 0.020232758 -0.034921467 -6.981362e-05
0.17908104 0.30344474 0.058797564 0.12920639 -0.004194974 0.14772213 0.15944426 -0.05063566
-0.13308509 -0.01701018 0.15308025 -0.2376316 -0.2655925 -0.25588116 -0.23398526 0.052591734
-0.00029629515 -0.04373079 -0.17374128 -0.0409665 0.06680809 -0.0986769 -0.07134173 -0.11424088
-0.2690874 0.10873521 -0.16635197 0.2195869 0.10858276 0.16629489 0.14064296 -0.25009632
0.06764572 -0.14439473 -0.1849833 -0.074096546 -0.12940966 0.2218843 0.11276457 0.17642996
0.24562761 -0.031299055 -0.09312745 0.042430587 -0.12195657 0.066105984 0.14022867 -0.25675562
0.26191297 -0.021706136 -0.17100273 -0.113123976 -0.050901942 0.20890161 0.19898811 -0.037120234
-0.17797752 -0.040867504 -0.016565213 0.17239447 0.10449761 0.10359837 -0.06704606 0.047232904
0.0068942774 -0.12357919 0.01569101 0.021739602 -0.079465136 0.07328352 -0.12714174 0.04013788
-0.23000953 0.14275391 -0.17259003 0.028214367 0.08802632 0.11368452 0.024657581 -0.14721191
-0.237105 -0.12058992 -0.23451258 -0.25543413 0.045847002 -0.14207537 -0.05026301 -0.22412483
-0.09252232 -0.17279033 0.10880985 0.18552065 -0.084408954 0.07239582 0.064239495 -0.24426046
-0.123716354 0.045922767 -0.007673691 0.10432454 -0.0060786256 -0.26048842 0.24011435 -0.24190317
-0.2249498 -0.06088352 0.018604891 -0.17469017 0.15687346 -0.17562293 -0.135699 0.18072161
-0.13461734 -0.06389528 -0.11299908 0.24807847 0.21945225 0.16462344 -0.14579545 0.115199514
0.014484467 -0.15166897 -0.13218701 -0.056249447 -0.055028643 -0.2119487 0.026500173 0.0654771
0.03633865 0.07995823 -0.21068624 0.12443958 0.17077169 0.021904118 -0.17332602 0.07366559
-0.006481969 -0.16792907 -0.26661584 -0.24423996 -0.27173433 0.19761933 0.18224661 0.1693114
0.111938365 0.036532238 -0.044073578 -0.115734495 0.060977314 -0.06682369 -0.10431323 -0.1819534
-0.064898856 0.0036394203 0.102238044 -0.027746387 0.024354469 -0.2141332 0.0061131543 -0.07452525
0.0917188 0.13028423 -0.15353863 -0.10347772 -0.023686618 0.10456207 -0.14827742 0.20206414
-0.14065446 0.16991471 -0.10364357 0.046751074 0.027445322 0.18748952 0.06329766 -0.08789231
0.041705225 -0.06866238 0.087049276 -0.014350325 -0.14139022 0.019107467 -0.11014238 -0.03175872
0.14408983 -0.19566296 0.08839707 0.11482308 -0.20128874 -0.27691483 0.10738107 0.05465596
0.21751268 -0.18193975 -0.0795483 0.029703774 0.19599877 0.1019077 -0.052665323 0.10997673
-0.14760315 0.040642247 0.082489364 0.08012523 0.17595024 0.13584982 -0.0123493625 -0.122977234
0.21558234 -0.06669701 -0.14498797 0.22922026 -0.107207626 -0.14549613 0.022994261 -0.18254396
-0.27076507 -0.14568032 -0.2058735 -0.25957274 -0.1796935 0.20756835 -0.2183302 -0.14884245
0.05645623 -0.017751943 -0.14914179 -0.1427253 0.057528313 -0.10379182 0.1282477 -0.16401955
00000000: 3bc7 813d bba0 b73d b710 483d b212 96be
00000010: 5195 df3b e0b1 9ebc 6000 56bd 17c9 d03c
00000020: 2a27 f83d 6af9 4a3d b9f8 14be 1e6d dfbd
00000030: f81c f5bd b896 2bbe 9dbb 603d 9db5 cd3d
00000040: 70ae 293e 3481 7dbc 45fa 80bd 4939 b63d
00000050: 1f37 af3c 2bbf a53c d009 0fbd e768 92b8
00000060: 0561 373e 1c5d 9b3e b7d5 703d ae4e 043e
00000070: fe75 89bb 7844 173e 5b45 233e 5667 4fbd
00000080: 7547 08be ef58 8bbc 12c1 1c3e b355 73be
00000090: bdfb 87be db02 83be d599 6fbe 6e6a 573d
000000a0: 1058 9bb9 0f1f 33bd 3ce9 31be 7dcc 27bd
000000b0: aed2 883d 1d17 cabd 9d1b 92bd 1ff7 e9bd
000000c0: d3c5 89be 91b0 de3d 2c58 2abe 63db 603e
000000d0: a360 de3d 3549 2a3e b504 103e a00c 80be
000000e0: d789 8a3d 36dc 13be 436c 3dbe eebf 97bd
000000f0: f783 04be a335 633e 1cf1 e63d 0eaa 343e
00000100: ce85 7b3e 7033 00bd 9bb9 bebd b2cb 2d3d
00000110: 5ec4 f9bd 9362 873d 1b98 0f3e 7975 83be
00000120: 7519 863e 11d1 b1bc 571b 2fbe 8bad e7bd
00000130: 8e7e 50bd 4eea 553e 8ac3 4b3e 630b 18bd
00000140: bd3f 36be af64 27bd c5b3 87bc 2d88 303e
00000150: d802 d63d 622b d43d 724f 89bd 4a77 413d
00000160: 64e9 e13b 1617 fdbd 6f8a 803c 4017 b23c
00000170: 9ebe a2bd ac15 963d 7231 02be 9e67 243d
00000180: 9e87 6bbe 152e 123e 71bb 30be d121 e73c
00000190: 2547 b43d 6ed3 e83d b2fe c93c b8be 16be
000001a0: a7cb 72be d9f7 f6bd 1124 70be 43c8 82be
000001b0: 11ca 3b3d 357c 11be 96e0 4dbd fb80 65be
000001c0: 587c bdbd f3ef 30be b3d7 de3d 20f9 3d3e
000001d0: 9ade acbd 4244 943d ff8f 833d 6a1f 7abe
000001e0: 005f fdbd 8319 3c3d 9673 fbbb 1ba8 d53d
000001f0: 352f c7bb bd5e 85be 89e0 753e 77b5 77be
00000200: 3e59 66be ff60 79bd 4969 983c fbe1 32be
00000210: 70a3 203e 7fd6 33be aef4 0abe 160f 393e
00000220: 21d9 09be 87db 82bd 106c e7bd 4808 7e3e
00000230: 17b8 603e 0c93 283e 674b 15be b9ed eb3d
00000240: 4250 6d3c 1c4f 1bbe 085c 07be d265 66bd
00000250: b765 61bd 1409 59be e416 d93c dc18 863d
00000260: d6d7 143d 24c1 a33d 22be 57be 2eda fe3d
00000270: c6de 2e3e 4470 b33c 607c 31be fcdd 963d
00000280: b266 d4bb 99f5 2bbe df81 88be 0a1a 7abe
00000290: c320 8bbe b95c 4a3e db9e 3a3e f85f 2d3e
000002a0: f13f e53d d4a2 153d 7f86 34bd 3506 edbd
000002b0: 59c3 793d dcda 88bd 2da2 d5bd fe51 3abe
000002c0: b1e9 84bd 5783 6e3b 2e62 d13d 644c e3bc
000002d0: 0683 c73c bc45 5bbe db50 c83b b2a0 98bd
000002e0: 11d7 bb3d 3b69 053e 3b39 1dbe 20ec d3bd
000002f0: 700a c2bc a324 d63d 09d6 17be e7e9 4e3e
00000300: b907 10be 1ffe 2d3e 1443 d4bd 0e7e 3f3d
00000310: 03d5 e03c 41fd 3f3e 34a2 813d e200 b4bd
00000320: 19d3 2a3d dd9e 8cbd e446 b23d a01d 6bbc
00000330: 99c8 10be 4387 9c3c 5492 e1bd 6e15 02bd
00000340: 498c 133e df5b 48be 8609 b53d 5d28 eb3d
00000350: a31e 4ebe c8c7 8dbe 9bea db3d eede 5f3d
00000360: a5bb 5e3e 6a4e 3abe 38ea a2bd 5455 f33c
00000370: e7b3 483e fcb4 d03d 98b7 57bd 7b3b e13d
00000380: 4825 17be 7c78 263d 2ff0 a83d b218 a43d
00000390: 4d2c 343e 371c 0b3e fb54 4abc 7ddb fbbd
000003a0: 9ec1 5c3e 7198 88bd ba77 14be b7b8 6a3e
000003b0: ac8f dbbd f0fc 14be 765e bc3c ceec 3abe
000003c0: b8a1 8abe 392d 15be 81d0 52be b8e6 84be
000003d0: 9301 38be cc8c 543e f491 5fbe 286a 18be
000003e0: a63e 673d 866c 91bc a0b8 18be 9526 12be
000003f0: cfa2 6b3d ce90 d4bd 5d53 033e bef4 27be

main.4.bias f4 [2048]
-0.025393015 0.21974987 0.13067198 -0.1270436 0.21185996 -0.045581166 0.2398085 0.12323773
-0.07203644 0.22846726 0.11845498 -0.069964774 0.13887307 -0.10883395 0.22478634 -0.079928204
0.2093028 0.14840879 -0.06978346 -0.06286577 0.2667462 -0.029372966 0.115959935 -0.06674206
-0.11808112 0.2787014 0.16705793 0.037966646 -0.060353283 0.09720429 0.022346726 0.09832174
0.18710116 0.023131628 0.22681434 0.2080994 0.15752554 0.20513844 0.2786392 -0.07526858
0.17954117 0.047011733 -0.14101897 -0.115351506 0.20632143 -0.05816863 0.15107344 0.054216247
0.08801457 0.16390345 0.22371271 0.10227026 0.2392317 0.17835063 -0.0016208711 0.14615954
0.24773373 0.021940567 0.11809334 -0.16362172 -0.05155856 0.2722335 0.19057913 0.15341704
0.069054686 0.2536165 -0.048952077 -0.13556197 -0.18622388 -0.027905008 -0.23036008 -0.015235477
0.17686087 -0.27680278 0.052760776 -0.1745399 -0.056945268 -0.015375638 -0.064864 0.10085843
-0.10539398 -0.21922141 0.01779553 -0.02677032 0.063122764 0.14477384 -0.30065402 0.04973545
0.1261383 -0.2295203 0.10610176 -0.15832134 -0.21333593 -0.25395724 0.0048195277 -0.13843733
-0.054579016 -0.23197682 -0.19777977 0.032037154 -0.107252516 0.05746926 -0.21976684 -0.19302374
-0.24555305 0.0774391 0.050307322 -0.23359871 -0.07045208 -0.26323357 0.04760868 -0.12754898
-0.15733062 -0.037618328 -0.0063141263 0.064932525 0.085432276 0.08670757 -0.11272255 -0.19192465
0.087387644 0.0677202 -0.2255476 0.16226201 0.046986558 -0.17358902 -0.27949715 0.07016305
-0.008389116 0.26041237 0.02102135 0.17807783 0.15479802 -0.2275771 -0.04688709 0.08988536
0.17626701 0.047754608 0.12232979 -0.07426076 -0.17491876 0.1650888 -0.007166978 0.23489417
-0.0017413726 -0.2527174 0.14365958 0.09181129 0.12480608 -0.02152278 -0.16453877 -0.010491777
-0.05640588 0.109222226 0.090617076 -0.09358536 -0.13754296 0.12583485 0.20142312 0.035302408
0.25572705 -0.067679025 -0.17243595 0.048673693 0.06854185 0.024749847 -0.041926607 -0.16347404
-0.15341642 0.055108994 0.27519324 -0.016302645 -0.0112365065 -0.13338712 0.18123078 -0.05548194
-0.049005084 -0.06967988 -0.13234814 0.083335824 0.18246354 0.16549787 0.24906139 -0.09058431
0.031423472 -0.021918084 -0.06440801 -0.13024426 0.37023264 -0.06703809 -0.1421431 0.0038623721
0.18925141 -0.0245078 -0.15258047 0.30041438 0.1945767 0.067679174 0.08169606 -0.10285398
0.07389402 0.03505782 0.28902036 0.013797411 -0.07170228 0.23666681 0.22241925 0.007539467
0.20815788 -0.0275677 0.13847373 0.26733837 -0.086739 0.26714095 0.25457022 -0.036025833
0.13129847 0.24962737 0.1724783 -0.04528243 0.13387513 0.041917834 0.025799029 0.05519543
0.18325415 0.21586598 0.28644302 -0.08777472 0.32983065 -0.033487972 0.21498525 0.12637608
0.061637547 0.17978649 0.15523154 0.078980125 -0.028858427 0.2139801 0.021491878 0.16887754
0.21860309 -0.0361486 0.13856547 0.13823272 0.12428814 -0.025581686 0.036057536 0.2287553
0.16322912 0.2464396 -0.12349332 0.00054379 0.29946747 0.35824603 -0.020501789 -0.12833522
00000000: 0305 d0bc 1c06 613e e0ce 053e b817 02be
00000010: d1f1 583e 51b3 3abd 5c90 753e 1064 fc3d
00000020: d787 93bd 52f3 693e 8698 f23d b149 8fbd
00000030: be34 0e3e 55e4 debd 642e 663e 66b1 a3bd
00000040: 7953 563e 79f8 173e a1ea 8ebd c5bf 80bd
00000050: f592 883e 939f f0bc 677c ed3d 10b0 88bd
00000060: 84d4 f1bd f3b1 8e3e 3c11 2b3e ea82 1b3d
00000070: 0135 77bd 0b13 c73d 7b10 b73c e95c c93d
00000080: 7297 3f3e 8a7e bd3c 0542 683e 0218 553e
00000090: 604e 213e d00f 523e cca9 8e3e 6a26 9abd
000000a0: a4d9 373e 608f 403d 4767 10be 693d ecbd
000000b0: ed45 533e 3b42 6ebd ffb2 1a3e db11 5e3d
000000c0: fc40 b43d 4ed6 273e f214 653e 1273 d13d
000000d0: 28f9 743e 8ca1 363e 6973 d4ba d9aa 153e
000000e0: e9ad 7d3e b4bc b33c ecda f13d 748c 27be
000000f0: 122f 53bd 3062 8b3e 2d27 433e 5b19 1d3e
00000100: 8b6c 8d3d 06da 813e f981 48bd c2d0 0abe
00000110: 79b1 3ebe 0b99 e4bc 83e3 6bbe 399e 79bc
00000120: 041b 353e 18b9 8dbe af1b 583d 96ba 32be
00000130: 713f 69bd 1aea 7bbc 6bd7 84bd dd8e ce3d
00000140: cdd8 d7bd 947b 60be eec7 913c 6e4d dbbc
00000150: 8246 813d 983f 143e 53ef 99be 66b7 4b3d
00000160: 662a 013e 5f07 6bbe e14b d93d fd1e 22be
00000170: bc74 5abe af06 82be 21ed 9d3b 84c2 0dbe
00000180: 3f8e 5fbd 558b 6dbe c886 4abe 6439 033d
00000190: 35a7 dbbd e364 6b3d 8f0a 61be 04a8 45be
000001a0: 4272 7bbe 6498 9e3d 0d0f 4e3d 8034 6fbe
000001b0: 2e49 90bd 8dc6 86be 5201 433d 339c 02be
000001c0: 471b 21be ad15 1abd bbe6 cebb 58fb 843d
000001d0: 1ef7 ae3d bd93 b13d 15db e6bd e587 44be
000001e0: 4bf8 b23d e3b0 8a3d f3f5 66be 0328 263e
000001f0: fa74 403d 52c1 31be 401a 8fbe a5b1 8f3d
00000200: 8172 09bc c554 853e f734 ac3c 095a 363e
00000210: 5f83 1e3e f909 69be ad0c 40bd d115 b83d
00000220: 577f 343e 569a 433d 0a88 fa3d 0616 98bd
00000230: e71d 33be 0a0d 293e f8d8 eabb 1988 703e
00000240: c53e e4ba 2d64 81be 7f1b 133e 8f07 bc3d
00000250: 549a ff3d 8b50 b0bc da7c 28be b4e5 2bbc
00000260: da09 67bd e7af df3d 7295 b93d aea9 bfbd
00000270: 10d8 0cbe dada 003e dd41 4e3e 4299 103d
00000280: a8ee 823e 4d9b 8abd 0d93 30be 115e 473d
00000290: ab5f 8c3d 31c0 ca3c 3cbb 2bbd bd65 27be
000002a0: 3219 1dbe f8b9 613d 21e6 8c3e 208d 85bc
000002b0: 5319 38bc a296 08be 9094 393e 0841 63bd
000002c0: 8eb9 48bd 53b4 8ebd 4586 07be f9ab aa3d
000002d0: b9d7 3a3e 4678 293e f309 7f3e 4484 b9bd
000002e0: e6b5 003d 8e8d b3bc 59e8 83bd c05e 05be
000002f0: 228f bd3e 444b 89bd f68d 11be da1f 7d3b
00000300: 1fcb 413e 95c4 c8bc 0e3e 1cbe eacf 993e
00000310: 1d3f 473e 619b 8a3d 4450 a73d 1ca5 d2bd
00000320: bf55 973d ca98 0f3d 7afa 933e 890e 623c
00000330: a5d8 92bd c958 723e dfc1 633e a20d f73b
00000340: 5727 553e a8d5 e1bc 0fcc 0d3e 93e0 883e
00000350: 38a4 b1bd b3c6 883e 0757 823e d38f 13bd
00000360: 1b73 063e 519e 7f3e 279e 303e 127a 39bd
00000370: 9016 093e 09b2 2b3d 7c58 d33c 9a14 623d
00000380: faa6 3b3e f90b 5d3e a9a8 923e 3bc3 b3bd
00000390: 90df a83e af2a 09bd 1825 5c3e bb68 013e
000003a0: a777 7c3d f319 383e 04f5 1e3e 55c0 a13d
000003b0: 8268 ecbc 991d 5b3e bc0f b03c 3cee 2c3e
000003c0: 7dd9 5f3e 8e10 14bd 1be4 0d3e e18c 0d3e
000003d0: c88a fe3d af90 d1bc 11b1 133d d43e 6a3e
000003e0: 8925 273e aa5a 7c3e 11ea fcbd 218d 0e3a
000003f0: cd53 993e 066c b73e 5ef3 a7bc 4f6a 03be

conv.0.weight f4 [20, 1, 5, 5]
0.09907267 0.047784645 -0.17860003 -0.05958438 -0.22072354 0.1579512 0.24735872 0.22481692
0.13324282 0.16651869 0.06009938 -0.14924556 -0.15279256 0.08429859 0.0768495 0.080581404
0.117522515 -0.1909924 -0.25966284 -0.23243278 0.17349139 0.008294898 0.04535666 -0.08117799
0.03601091 -0.12899993 -0.17232339 -0.08587643 -0.11188158 -0.09842376 0.07573088 0.062349595
-0.026472269 -0.058126416 0.00092217146 0.10161113 0.103648074 0.09892569 0.22892477 0.2138935
-0.018619288 -0.13587418 -0.057530552 0.031240793 0.01685846 0.005578363 0.033084724 0.028975485
-0.061501443 0.026473386 -0.2432429 -0.010398352 0.224673 0.07168844 0.13101287 0.042599723
-0.13817987 0.04117223 0.08106579 0.036056668 -0.054948248 0.13941064 0.16664648 0.09274202
0.028528145 -0.116152234 -0.1504543 -0.06939296 0.07747312 -0.064171486 -0.13043712 -0.13297012
-0.09253763 0.008450034 0.09871039 -0.01489653 0.045883074 -0.050363913 0.06255985 -0.12622015
0.0014503517 -0.03757396 0.12280868 0.12550272 -0.16128224 -0.13055044 -0.0026705218 -0.1629473
-0.1553385 -0.27212504 -0.097896524 -0.06624537 -0.22659913 -0.014168678 -0.15527898 -0.1354508
-0.052864928 -0.08538314 0.10092954 -0.2084258 -0.08338493 0.002639176 0.09547754 0.052785072
-0.02169782 -0.10075881 -0.08560097 0.06145052 0.05759561 0.10188296 -0.03457411 -0.10506588
0.092750646 0.009383363 -0.14826305 0.03052335 -0.046696182 0.07136141 -0.10500299 0.027076207
0.12579745 -0.11416309 -0.10371784 0.032991704 -0.13574009 0.048049603 -0.24512848 -0.17540833
-0.20932965 -0.08377768 -0.12899487 0.019203184 0.035390817 0.14719722 -0.0070917713 -0.0651802
-0.1787209 -0.11340261 -0.049454097 0.02761986 0.028142959 0.0072739595 -0.11364982 0.1440729
0.15736261 -0.052698202 0.06514524 0.051207382 0.19560201 0.07092947 -0.05763258 -0.13866167
-0.1319399 -0.08310374 0.02925958 -0.19367017 -0.014207403 -0.09475361 -0.08349655 0.09858371
-0.18370101 -0.005186438 -0.18818592 -0.17972153 -0.087286904 -0.06801292 0.017618904 -0.07250541
-0.20543873 -0.23615249 -0.020940885 -0.07170188 -0.09459496 -0.20462388 -0.26057637 0.078239836
0.054318663 0.046758324 -0.033132717 -0.04697225 0.11063602 0.039432976 0.19120426 0.16810781
-0.105390996 0.13380992 0.091388255 0.07969857 0.012520298 0.018872846 0.032859355 0.061127268
0.123004675 0.22432914 0.024485089 0.07547629 0.0077655874 0.16805658 -0.0077626216 -0.06587166
-0.07069369 -0.011780849 -0.04939924 -0.04082097 -0.13415264 0.060154717 -0.07413955 -0.12576641
0.075076826 0.069969356 0.26462105 0.09126766 0.0993918 0.13254027 -0.007389205 -0.09270686
0.10119573 0.0401145 -0.02490954 -0.082910515 0.2258267 -0.14001767 0.05309099 -0.0297999
-0.07276736 0.0066474737 -0.0053610336 0.009882083 0.053704865 0.061998 -0.01925719 0.08676819
0.096765384 0.051741756 -0.020978384 0.14272194 -0.02695349 0.079131246 0.17023341 0.18075536
0.08701781 0.06839469 0.1209991 0.12416753 -0.05371208 0.062258806 0.037943795 0.15276285
0.15560025 0.009076709 0.010273225 0.21168245 0.13289207 0.0908135 0.22508472 0.13493386
00000000: 9de6 ca3d d5b9 433d ede2 36be c00e 74bd
00000010: 5a05 62be f6bd 213e 9b4b 7d3e 6836 663e
00000020: ce70 083e e083 2a3e c42a 763d d4d3 18be
00000030: a775 1cbe bda4 ac3d 4563 9d3d dd07 a53d
00000040: a5af f03d 8393 43be 87f2 84be dc02 6ebe
00000050: baa7 313e 53e7 073c e8c7 393d a540 a6bd
00000060: 2d80 133d 8f18 04be 8b75 30be fbdf afbd
00000070: 2b22 e5bd 6592 c9bd cb18 9b3d 4a62 7f3d
00000080: 5fdc d8bc f715 6ebd e1bd 713a 7f19 d03d
00000090: 7145 d43d 8d99 ca3d 416b 6a3e e606 5b3e
000000a0: 7a87 98bc 9a22 0bbe 28a5 6bbd b1ec ff3c
000000b0: c11a 8a3c b3ca b63b d983 073d ff5d ed3c
000000c0: f0e8 7bbd b7de d83c ab14 79be d95d 2abc
000000d0: ae10 663e 64d1 923d 3d28 063e 0c7d 2e3d
000000e0: 067f 0dbe 36a4 283d d205 a63d 28b0 133d
000000f0: 6a11 61bd aac1 0e3e 60a5 2a3e 87ef bd3d
00000100: dbb3 e93c 39e1 edbd b110 1abe e51d 8ebd
00000110: 3aaa 9e3d 576c 83bd 4f91 05be 5229 08be
00000120: 5e84 bdbd 0372 0a3c ac28 ca3d 9310 74bc
00000130: e4ef 3b3d 644a 4ebd 611f 803d db3f 01be
00000140: ba19 be3a 27e7 19bd 1e83 fb3d c983 003e
00000150: 2c27 25be 04af 05be ec03 2fbb a8db 26be
00000160: 0e11 1fbe f953 8bbe f97d c8bd a7ab 87bd
00000170: 9a09 68be be23 68bc 7401 1fbe 9db3 0abe
00000180: e588 58bd 5bdd aebd 26b4 ce3d 936d 55be
00000190: b8c5 aabd 07f6 2c3b ba89 c33d 2935 583d
000001a0: a0bf b1bc a35a cebd 904f afbd 8ab3 7b3d
000001b0: 60e9 6b3d 03a8 d03d 959d 0dbd c82c d7bd
000001c0: 0df4 bd3d adbc 193c 45d2 17be 1b0c fa3c
000001d0: 7f44 3fbd ee25 923d cf0b d7bd ecce dd3c
000001e0: 0cd1 003e 57ce e9bd 056a d4bd 4f22 073d
000001f0: 73ff 0abe a9cf 443d f602 7bbe 3e9e 33be
00000200: 835a 56be a293 abbd 3b17 04be ff4f 9d3c
00000210: f6f5 103d deba 163e 1762 e8bb 327d 85bd
00000220: 9d02 37be a13f e8bd 6190 4abd 0b43 e23c
00000230: 108c e63c 655a ee3b 3dc1 e8bd d987 133e
00000240: aa23 213e 12da 57bd de6a 853d d5be 513d
00000250: e54b 483e 7843 913d 2410 6cbd 53fd 0dbe
00000260: 411b 07be 4b32 aabd c9b1 ef3c 7951 46be
00000270: 2bc6 68bc 2e0e c2bd 3d00 abbd 42e6 c93d
00000280: 1e1c 3cbe fff2 a9bb cfb3 40be ec08 38be
00000290: 7ac3 b2bd 5c4a 8bbd 8555 903c b77d 94bd
000002a0: 885e 52be f5d1 71be 388c abbc 6fd8 92bd
000002b0: 01bb c1bd ec88 51be 446a 85be 353c a03d
000002c0: 3f7d 5e3d a885 3f3d 2cb6 07bd f965 40bd
000002d0: 2395 e23d 7984 213d 0dcb 433e 7424 2c3e
000002e0: 3cd7 d7bd 7805 093e c429 bb3d 0139 a33d
000002f0: f021 4d3c 3a9b 9a3c 8897 063d 9660 7a3d
00000300: e0e9 fb3d 8ab6 653e f494 c83c 5093 9a3d
00000310: 7876 fe3b 0617 2c3e 975d febb b9e7 86bd
00000320: dac7 90bd 7604 41bc dc56 4abd e433 27bd
00000330: 4f5f 09be cb64 763d 7ad6 97bd e9c8 00be
00000340: e1c1 993d 184c 8f3d 697c 873e 8aea ba3d
00000350: ee8d cb3d a3b8 073e 2521 f2bb 18dd bdbd
00000360: b53f cf3d 1a4f 243d 170f ccbc fdcc a9bd
00000370: 1d3f 673e cb60 0fbe f075 593d eb1e f4bc
00000380: 0e07 95bd 0dd3 d93b 9cab afbb 76e8 213c
00000390: a2f9 5b3d 9df1 7d3d 41c1 9dbc 85b3 b13d
000003a0: ee2c c63d 2aef 533d dcda abbc b325 123e
000003b0: 91cd dcbc 900f a23d ab51 2e3e ef17 393e
000003c0: 6536 b23d 8412 8c3d 60ce f73d 8c4b fe3d
000003d0: 3301 5cbd 1703 7f3d f46a 1b3d dd6d 1c3e
000003e0: ac55 1f3e 7ab6 143c 0751 283c 49c3 583e
000003f0: dc14 083e 6efc b93d 9c7c 663e 1a2c 0a3e

conv.0.bias f4 [20]
-0.059330463 0.16444698 0.10237889 0.15822478 0.29174438 0.040255293 -0.2152053 0.14202835
0.018212674 -0.29941815 0.24102636 -0.008764218 0.18401787 0.14723885 -0.024394136 -0.15640189
0.10481512 0.105834246 0.057958957 0.126063
00000000: 8004 73bd ca64 283e 06ac d13d ad05 223e
00000010: 855f 953e bce2 243d c75e 5cbe e16f 113e
00000020: bf32 953c 564d 99be 9dcf 763e cb97 0fbc
00000030: 2e6f 3c3e c8c5 163e 36d6 c7bc d127 20be
00000040: 4fa9 d63d a0bf d83d 5f66 6d3d a916 013e

conv.2.weight f4 [20]
0.896565 1.0998973 0.9106526 1.167648 0.8963237 0.9466817 1.1136663 0.98138726
1.0825349 1.1696702 0.9384601 1.0769646 0.89125806 1.1441756 0.8931634 1.1309566
1.0837805 0.9588044 0.8829076 0.97590965
00000000: 4985 653f 6fc9 8c3f 8720 693f 7d75 953f
00000010: 7875 653f bb59 723f 9e8c 8e3f 323c 7b3f
00000020: 8190 8a3f c1b7 953f ec3e 703f fad9 893f
00000030: 7d29 643f 5974 923f 5ba6 643f 30c3 903f
00000040: 52b9 8a3f 3574 753f 3c06 623f 37d5 793f

conv.2.bias f4 [20]
0.14929509 0.1693438 0.14402075 -0.12474092 0.13199002 0.12853117 0.13326208 0.13153818
-0.119961455 -0.12358583 0.12685326 0.15152657 0.13858779 -0.12471965 0.13615815 0.12657419
0.14683783 0.11952706 0.12585975 0.131846
00000000: d0e0 183e 7668 2d3e 2d7a 133e 2b78 ffbd
00000010: 6428 073e ad9d 033e db75 083e f2b1 063e
00000020: 5aae f5bd 911a fdbd d2e5 013e c829 1b3e
00000030: f5e9 0d3e 046d ffbd 0b6d 0b3e aa9c 013e
00000040: a85c 163e 9aca f43d 61e1 003e a302 073e

conv.2.running_mean f4 [20]
0.07237975 0.19245514 0.1415809 -0.027190413 0.2247436 0.03019778 -0.15496 0.47371736
0.1101111 0.094827436 0.2388103 0.46990734 0.12736985 -0.011928672 0.11889 -0.13471995
0.61460274 0.51057816 0.18086655 0.082368396
00000000: d63b 943d f612 453e 95fa 103e 6ebe debc
00000010: 3023 663e 5661 f73c d6ad 1ebe 158b f23e
00000020: ee81 e13d e334 c23d b08a 743e b297 f03e
00000030: 3e6d 023e 7a70 43bc 9a7c f33d 07f4 09be
00000040: 9b56 1d3f 40b5 023f 1535 393e c3b0 a83d

conv.2.running_var f4 [20]
0.023080735 0.020587701 0.024354797 0.0062764063 0.018351534 0.011957454 0.0022793275 0.029450586
0.020634325 0.01481068 0.027594877 0.05132411 0.017218055 0.0089085195 0.033228055 0.001858048
0.05607046 0.054252975 0.033283092 0.01967993
00000000: cf13 bd3c 8aa7 a83c b683 c73c 50aa cd3b
00000010: f555 963c 32e9 433c c560 153b 5b42 f13c
00000020: 5109 a93c 7fa8 723c a70e e23c 3b39 523d
00000030: e10c 8d3c 0af5 113c 241a 083d bf89 f33a
00000040: 23aa 653d 5e38 5e3d da53 083d ce37 a13c

conv.3.weight f4 [1, 20, 5, 5]
-0.12604746 -0.11781956 -0.15969905 -0.09005523 -0.15294653 -0.1321549 -0.12959825 -0.16730419
-0.14294411 -0.15273666 -0.119403474 -0.10965308 -0.13129748 -0.09821401 -0.16757612 -0.105125934
-0.11831393 -0.088594735 -0.15150873 -0.07022273 -0.08927004 -0.12366131 -0.12409109 -0.12590337
-0.12137152 -0.12420528 -0.09276386 -0.14276026 -0.08143763 -0.15669326 -0.1292409 -0.15576464
-0.15488368 -0.16596183 -0.17894198 -0.10877509 -0.024707183 -0.12963945 -0.11562462 -0.06979662
-0.044945292 -0.07289861 -0.11005774 -0.119090565 -0.040612075 -0.10333661 -0.07165142 -0.060838748
-0.09224272 -0.09364956 -0.12161953 -0.12436642 -0.1548211 -0.12923318 -0.069883175 -0.12713309
-0.10056872 -0.07732401 -0.15330212 -0.11935841 -0.15266593 -0.115190074 -0.11864434 -0.11762713
-0.14210182 -0.11029104 -0.10994077 -0.1329362 -0.12877548 -0.103135444 -0.07788166 -0.15124877
-0.1744607 -0.09835993 -0.11099146 0.16254832 0.13491333 0.13412438 0.13969839 0.11098233
0.10833854 0.15535673 0.13511615 0.1661928 0.1661866 0.11987974 0.15475327 0.10940972
0.17181484 0.08940062 0.13710095 0.09300942 0.07656962 0.112664096 0.090131745 0.14919843
0.07997588 0.1290276 0.186705 0.12631942 -0.123393916 -0.13787526 -0.10321961 -0.07678629
-0.120735504 -0.15411267 -0.14693609 -0.13967492 -0.14485326 -0.10004509 -0.11863497 -0.15000737
-0.17745684 -0.10605687 -0.15954638 -0.09944214 -0.1316967 -0.13733242 -0.10260526 -0.10721306
-0.1057663 -0.12394419 -0.092480876 -0.118082985 -0.1465124 -0.12656158 -0.13452399 -0.10985502
-0.10121312 -0.12926829 -0.098019265 -0.08952484 -0.13963571 -0.11858818 -0.1463482 -0.14931254
-0.112595744 -0.074241936 -0.15215477 -0.092354625 -0.13947752 -0.15690999 -0.117072135 -0.16365252
-0.14521158 -0.120981134 -0.1069962 -0.14447461 -0.074907966 -0.13573402 -0.09894565 -0.10466588
-0.1294818 -0.112196594 -0.022183709 -0.14034566 -0.083918 -0.13559568 -0.10297044 -0.09558745
-0.12318074 -0.10701284 -0.119308 -0.16584119 -0.1267144 -0.09002605 -0.12841754 -0.14803918
-0.12708597 -0.1347359 -0.073992066 -0.08029899 -0.14522839 -0.06329878 -0.0566372 -0.17283921
-0.13747002 -0.15138358 -0.14853784 -0.117872104 -0.13799977 -0.08902112 -0.0918665 -0.12122586
-0.1356106 -0.105230734 -0.01109356 0.0566112 -0.07446631 -0.09779108 -0.12896177 -0.18757467
-0.031751767 -0.090953976 -0.13259606 -0.15716203 -0.16924073 -0.12771355 -0.16219564 -0.14391904
0.05284551 0.04322973 0.06316449 0.099942036 0.10612498 0.12517461 0.1260793 0.108463675
0.11252317 0.115867175 0.14439526 0.14464842 0.14244626 0.10777219 0.18912433 0.12135742
0.10045388 0.09650122 0.108600825 0.088596575 0.13165106 0.16205916 0.16780165 0.11935272
0.1501495 0.04548194 0.1403706 0.095384456 0.08922705 0.12076553 0.08782814 0.121819556
0.1672356 0.13789901 0.18076955 0.16322577 0.11859213 0.17149246 0.17583255 0.17721023
0.14329064 0.15339765 0.09522909 0.1236054 0.13684574 0.11051496 0.14654905 0.1354023
0.07663782 0.057225768 -0.1329906 -0.08883208 -0.10355225 -0.083007105 -0.12914555 -0.11203875
00000000: 9612 01be 624b f1bd 2688 23be e06e b8bd
00000010: 049e 1cbe 9d53 07be 67b5 04be ca51 2bbe
00000020: f15f 12be 0067 1cbe cf89 f4bd cb91 e0bd
00000030: d972 06be 6d24 c9bd 1399 2bbe 444c d7bd
00000040: 934e f2bd 2871 b5bd 1b25 1bbe efd0 8fbd
00000050: 36d3 b6bd 2442 fdbd 7823 febd d0ec 00be
00000060: a291 f8bd 565f febd fbfa bdbd bf2f 12be
00000070: c6c8 a6bd 3374 20be ba57 04be c480 1fbe
00000080: d499 1ebe e6f1 29be 913c 37be 79c5 debd
00000090: b866 cabc 34c0 04be 9acc ecbd 88f1 8ebd
000000a0: 8e18 38bd de4b 95bd f465 e1bd c1e5 f3bd
000000b0: d958 26bd 25a2 d3bd fbbd 92bd 0d32 79bd
000000c0: c0e9 bcbd 57cb bfbd a913 f9bd d2b3 febd
000000d0: 6c89 1ebe b455 04be e91e 8fbd 2d2f 02be
000000e0: f9f6 cdbd 0d5c 9ebd 3bfb 1cbe 2f72 f4bd
000000f0: 7554 1cbe c6e8 ebbd cefb f2bd 7ee6 f0bd
00000100: 2483 11be 45e0 e1bd a028 e1bd 6d20 08be
00000110: b8dd 03be ad38 d3bd 6b80 9fbd f5e0 1abe
00000120: d3a5 32be ee70 c9bd 7e4f e3bd 1173 263e
00000130: b826 0a3e e757 093e 180d 0f3e b44a e33d
00000140: 99e0 dd3d d615 1f3e e35b 0a3e 722e 2a3e
00000150: d22c 2a3e 8283 f53d a477 1e3e 3412 e03d
00000160: 3bf0 2f3e ac17 b73d 3164 0c3e b97b be3d
00000170: 88d0 9c3d 6fbc e63d fe96 b83d 79c7 183e
00000180: 65ca a33d d01f 043e 982f 3f3e e159 013e
00000190: f3b5 fcbd 2c2f 0dbe ce64 d3bd 2142 9dbd
000001a0: 2d44 f7bd b6cf 1dbe 6a76 16be f106 0fbe
000001b0: 6a54 14be 71e4 ccbd e4f6 f2bd 889b 19be
000001c0: 3fb7 35be 5834 d9bd 2060 23be 52a8 cbbd
000001d0: 80db 06be dfa0 0cbe b522 d2bd 8592 dbbd
000001e0: 009c d8bd 74d6 fdbd 9d66 bdbd 7ed5 f1bd
000001f0: 5907 16be 5c99 01be a8c0 09be abfb e0bd
00000200: d348 cfbd e85e 04be 53be c8bd cd58 b7bd
00000210: aafc 0ebe 5cde f2bd 4ddc 15be 63e5 18be
00000220: 9998 e6bd 280c 98bd 76ce 1bbe 6c24 bdbd
00000230: 32d3 0ebe 03ad 20be 84c3 efbd 8794 27be
00000240: 58b2 14be f5c4 f7bd d320 dbbd 27f1 13be
00000250: 5969 99bd dcfd 0abe 04a4 cabd 115b d6bd
00000260: e196 04be 54c7 e5bd 9cba b5bc c6b6 0fbe
00000270: 33dd abbd 98d9 0abe 2be2 d2bd 5ac3 c3bd
00000280: 2f46 fcbd 8c29 dbbd c157 f4bd 46d2 29be
00000290: 6bc1 01be 945f b8bd e37f 03be 9597 17be
000002a0: d322 02be 35f8 09be 2789 97bd cc73 a4bd
000002b0: c0b6 14be caa2 81bd 69fc 67bd c3fc 30be
000002c0: f1c4 0cbe 4c04 1bbe 4e1a 18be ee66 f1bd
000002d0: d04f 0dbe b450 b6bd 8124 bcbd 4445 f8bd
000002e0: 81dd 0abe 3683 d7bd c3c1 35bc 25e1 673d
000002f0: cb81 98bd b146 c8bd 8e0e 04be 9313 40be
00000300: 240e 02bd 1446 babd 43c7 07be 15ef 20be
00000310: 714d 2dbe 57c7 02be 9d16 26be 835f 13be
00000320: 8974 583d a811 313d 625c 813d 69ae cc3d
00000330: 0e58 d93d c62d 003e ef1a 013e 3422 de3d
00000340: 8c72 e63d c54b ed3d 5adc 133e b71e 143e
00000350: 6fdd 113e aab7 dc3d cfa9 413e 3d8a f83d
00000360: c4ba cd3d 6ea2 c53d 1c6a de3d 1f72 b53d
00000370: 89cf 063e d6f2 253e 32d4 2b3e 336f f43d
00000380: cac0 193e 454b 3a3d 50bd 0f3e ed58 c33d
00000390: acbc b63d eb53 f73d 3ddf b33d 887c f93d
000003a0: cf3f 2b3e 6635 0d3e a71b 393e a824 273e
000003b0: 6ee0 f23d b89b 2f3e 730d 343e 9976 353e
000003c0: c8ba 123e 4614 1d3e 7807 c33d d424 fd3d
000003d0: 4a21 0c3e ab55 e23d f410 163e e7a6 0a3e
000003e0: 4af4 9c3d 9165 6a3d b02e 08be 98ed b5bd
000003f0: 3413 d4bd a1ff a9bd bb3e 04be 9274 e5bd
