src/caches/cache_16_20_big/param2img9.pt (torch, 184864 bytes, 19 tensors)

main.0.weight f4 [16]
0.7910868 0.78622615 0.8202133 0.96217406 0.7860944 1.1053575 1.118574 1.0487719
0.9725729 1.1205026 1.1652353 1.0712421 1.1420982 0.81820893 0.8245178 1.0199734
00000000: aa84 4a3f 1e46 493f 80f9 513f 0a51 763f
00000010: 7c3d 493f 5b7c 8d3f 6f2d 8f3f 283e 863f
00000020: 8afa 783f a16c 8f3f 6e26 953f 761e 893f
00000030: 4630 923f 2476 513f 9913 533f 7d8e 823f

main.0.bias f4 [16]
-0.0581699 0.0027214848 -0.05387848 0.100346506 -0.17114353 0.13002336 -0.17876142 0.09933632
0.15519333 0.01855503 0.08358098 -0.117698655 0.03890562 -0.0878572 -0.11888392 0.054962102
00000000: 9043 6ebd f05a 323b aeaf 5cbd 7882 cd3d
00000010: 4040 2fbe d824 053e 3c0d 37be d770 cb3d
00000020: 00eb 1e3e b800 983c 812c ab3d fe0b f1bd
00000030: 805b 1f3d 7aee b3bd 6a79 f3bd f11f 613d

main.0.running_mean f4 [16]
1.85399e-06 -1.6501308e-05 0.2000219 -0.007554192 0.010647853 0.0016586684 0.49397132 -0.0075122737
0.02129495 0.0016459731 0.49394026 -0.007539475 0.031977806 3.732175e-05 0.19998877 -0.007540467
00000000: 9dd6 f835 4a6c 8ab7 8ad2 4c3e 2889 f7bb
00000010: 5574 2e3c ad67 d93a cfe9 fc3e 8529 f6bb
00000020: bf72 ae3c b1bd d73a bde5 fc3e b30d f7bb
00000030: 29fb 023d ed89 1c38 dbc9 4c3e 0616 f7bb

main.0.running_var f4 [16]
1.0147503e-06 9.797756e-07 1.0173472e-06 0.0020051163 1.6194466e-05 0.00014199015 0.07449657 0.002007972
6.16573e-05 0.00014218305 0.07449258 0.0020065554 0.00013602265 9.881352e-07 9.640218e-07 0.0020022907
00000000: 8e32 8835 d580 8335 c98b 8835 4568 033b
00000010: 5ad9 8737 31e3 1439 a891 983d 2e98 033b
00000020: 034e 8138 f916 1539 918f 983d 6a80 033b
00000030: 4da1 0e39 11a0 8435 8963 8135 dd38 033b

main.1.weight f4 [20, 16]
-0.023457251 -0.0091037825 -0.009951911 0.0044177314 -0.059003826 0.08146458 -0.29598966 0.32696417
-0.13646695 -0.0029194471 0.20409356 0.30622545 -0.025144108 0.022088641 -0.012555411 0.22016975
0.00063502375 -0.010958641 -0.010218008 -0.014247969 -0.03240727 0.12066533 -0.20914859 -0.032465886
0.2574473 -0.068312764 0.17930101 -0.12826887 0.19253738 -0.013668212 -0.0058030235 0.10816442
0.010440634 -0.018881777 -0.010131565 0.21216634 -0.11647594 -0.24328949 -0.17455414 -0.19986267
-0.045351334 -0.26603746 -0.028727194 -0.21810584 -0.1999561 -0.01638286 -0.0028595987 0.25899613
0.008614741 0.0021384526 -0.0017716263 -0.14395547 0.16480547 0.035523996 0.010781819 -0.055198748
0.22505751 -0.08211596 -0.20584327 0.060827676 0.40117687 -0.004404346 0.001542589 0.02006594
0.0015726823 0.01486463 -0.004531805 0.15937296 -0.010248441 -0.103777446 -0.085745305 0.17113785
-0.072388746 0.10875541 -0.3095 0.22640781 0.112276405 -0.0047790157 -0.0060955384 0.037271004
-0.0029766513 0.01608181 0.011057461 0.042267114 0.074114874 -0.28169283 -0.084094256 0.06033632
-0.12169262 -0.35010412 -0.029420465 -0.19912647 -0.036823783 -0.00086535 0.014723918 0.07031784
0.011435587 0.010166018 0.013651341 -0.23956089 0.09928089 -0.02359966 0.09705603 -0.11652804
-0.02707062 0.25298607 -0.093780495 -0.24913922 0.081479564 0.001128328 0.008037454 -0.11053848
-0.019675612 -0.030075312 -0.003727808 -0.002469667 -0.2127006 -0.05746328 0.02651448 -0.15162487
-0.054711204 0.1541573 0.2019199 -0.21093912 0.0017715346 -0.022681765 -0.01405945 -0.1021148
-0.0137715535 -0.0063993116 -0.0056987647 -0.17359202 -0.035150267 -0.03535531 -0.09215196 -0.27332196
0.08001427 -0.058566723 0.08284476 -0.30727753 -0.13668524 0.0036621348 0.00013976444 -0.16336818
0.0017965141 0.007055395 -0.0026425219 0.12238969 -0.0065210923 -0.082205795 0.20411475 0.033284493
-0.12597851 -0.12792279 0.14628142 0.20669559 -0.03844235 0.0048713647 -0.0022050354 0.065329656
5.2121475e-05 0.013383475 0.0024918495 0.24059737 -0.16203828 0.16101606 -0.24189474 0.10950114
-0.15938592 -0.17730072 0.042911094 0.24868815 -0.35897768 0.0061381445 0.015049607 -0.071054734
-0.0016561035 0.0029978708 -0.00047537487 -0.14528766 -0.01968695 0.14756005 -0.14881216 -0.14893053
-0.006039098 0.058180057 -0.18434095 0.12362724 -0.08950953 0.0005292319 -0.0002452634 0.20025942
0.015155144 -0.026464138 -0.012809703 0.24003607 -0.056922413 -0.30921882 0.37719467 -0.16180444
0.1082676 0.029718358 0.34693658 0.1656018 0.051000718 -0.02286597 -0.008829534 -0.19324473
0.00205209 0.01254673 0.0070811072 0.22267154 -0.12498916 0.0729798 0.2735988 -0.08418805
0.117721595 0.013324402 0.40217927 -0.11281441 -0.11317895 -0.009582157 -0.002538781 -0.15985331
-0.025618684 -0.01973857 -0.010393731 0.15907119 -0.026136339 0.088001445 -0.24760246 0.26041546
0.16306773 -0.24883874 -0.25646046 -0.13715728 0.27095652 0.00058003416 -0.0070883743 -0.16923948
-0.0095302705 0.0041847117 0.003393853 0.14192238 -0.03718797 0.27831244 -0.23598911 0.23258297
0.00958124 0.18975966 0.17771478 -0.21200694 -0.15417853 0.00072768494 -0.015980978 0.23395617
00000000: 6c29 c0bc 0828 15bc 570d 23bc 9ec2 903b
00000010: ffad 71bd e7d6 a63d f58b 97be d967 a73e
00000020: febd 0bbe 3254 3fbb e7fd 503e 95c9 9c3e
00000030: 04fb cdbc 3df3 b43c 36b5 4dbc 2e74 613e
00000040: b977 263a df8b 33bc 6f69 27bc 5070 69bc
00000050: 7cbd 04bd 621f f73d 0c2b 56be f3fa 04bd
00000060: 22d0 833e 90e7 8bbd af9a 373e ea58 03be
00000070: 8528 453e a3f0 5fbc 4a27 bebb 4f85 dd3d
00000080: 310f 2b3c f5ad 9abc ddfe 25bc 2242 593e
00000090: f08a eebd e120 79be 52be 32be cda8 4cbe
000000a0: 52c2 39bd 1036 88be 4b55 ebbc 2357 5fbe
000000b0: 4bc1 4cbe 5935 86bc 1b68 3bbb 249b 843e
000000c0: d824 0d3c 4825 0c3b ea35 e8ba 1069 13be
000000d0: c4c2 283e 9c81 113d 3aa6 303c 1518 62bd
000000e0: 7a75 663e 6a2c a8bd 94c8 52be 7126 793d
000000f0: 0e67 cd3e 5552 90bb b330 ca3a 5461 a43c
00000100: 7622 ce3a c78a 733c 897f 94bb aa32 233e
00000110: 14e9 27bc 4589 d4bd 3c9b afbd c33e 2f3e
00000120: 8d40 94bd 28bb de3d c976 9ebe 73d7 673e
00000130: 2cf1 e53d 4a99 9cbb 15bd c7bb 7ba9 183d
00000140: ec13 43bb 00be 833c 5a2a 353c 4820 2d3d
00000150: 8ac9 973d 0b3a 90be 9c39 acbd 3823 773d
00000160: fb39 f9bd d940 b3be 3003 f1bc cfe7 4bbe
00000170: 89d4 16bd a8d8 62ba 973c 713c cd02 903d
00000180: 545c 3b3c 5f8f 263c e0a9 5f3c 734f 75be
00000190: c753 cb3d 1354 c1bc 50c5 c63d 41a6 eebd
000001a0: 34c3 ddbc 6487 813e fd0f c0bd 5a1e 7fbe
000001b0: c2de a63d 68e4 933a 87af 033c 0062 e2bd
000001c0: c02e a1bc 8060 f6bc 3d4e 74bb 23da 21bb
000001d0: 30ce 59be 9e5e 6bbd e534 d93c 8d43 1bbe
000001e0: db18 60bd 69db 1d3e 17c4 4e3e 6d00 58be
000001f0: d632 e83a 1ccf b9bc 9b59 66bc 9021 d1bd
00000200: 15a2 61bc 51b1 d1bb b4bc babb 1bc2 31be
00000210: baf9 0fbd bbd0 10bd 2bba bcbd dbf0 8bbe
00000220: 86de a33d a9e3 6fbd 83aa a93d 7b53 9dbe
00000230: 37f7 0bbe 6d00 703b bb8d 1239 fd49 27be
00000240: 0379 eb3a f130 e73b 292e 2dbb 72a7 fa3d
00000250: e3ae d5bb 835b a8bd 7503 513e 5255 083d
00000260: 8300 01be 31fe 02be ccca 153e 02a8 533e
00000270: ba75 1dbd f89f 9f3b 5b82 10bb 8ecb 853d
00000280: 029d 5a38 5d46 5b3c 4c4e 233b 285f 763e
00000290: 5ded 25be 65e1 243e 41b3 77be 2242 e03d
000002a0: 1036 23be 528e 35be 8bc3 2f3d 1ba8 7e3e
000002b0: eccb b7be 7d22 c93b a092 763c 2585 91bd
000002c0: 9d11 d9ba ed77 443b bc3b f9b9 4ac6 14be
000002d0: 8746 a1bc fb19 173e 3762 18be 3f81 18be
000002e0: a0e3 c5bb 364e 6e3d e0c3 3cbe 4730 fd3d
000002f0: c650 b7bd 27bc 0a3a b296 80b9 ce10 4d3e
00000300: 484d 783c 52cb d8bc cadf 51bc 04cc 753e
00000310: 7a27 69bd ee51 9ebe a91f c13e 10b0 25be
00000320: 67bb dd3d ea73 f33c aca1 b13e 8593 293e
00000330: 21e6 503d 6a51 bbbc c0a9 10bc f2e1 45be
00000340: 5b7c 063b cd90 4d3c a208 e83b 0204 643e
00000350: 51fa ffbd 6f76 953d 2415 8c3e c96a acbd
00000360: 0518 f13d 984e 5a3c 71ea cd3e 3e0b e7bd
00000370: 5eca e7bd 7bfe 1cbc ad61 26bb 96b0 23be
00000380: 46de d1bc c8b2 a1bc 784a 2abc 8fe3 223e
00000390: e01b d6bc 1a3a b43d 808b 7dbe 2d55 853e
000003a0: 3afb 263e 95cf 7ebe c94e 83be f572 0cbe
000003b0: d0ba 8a3e 6f0d 183a 9845 e8bb 1d4d 2dbe
000003c0: da24 1cbc e81f 893b 686b 5e3b 1a54 113e
000003d0: 6a52 18bd f87e 8e3e 21a7 71be 3b2a 6e3e
000003e0: a2fa 1c3c 5b50 423e ddfa 353e 5918 59be
000003f0: fae0 1dbe 1cc2 3e3a 8aea 82bc 3592 6f3e

main.1.bias f4 [20]
0.043989476 0.37458798 0.32914308 -0.099881545 -0.096960545 -0.033561222 0.13957372 0.37325278
0.09040773 0.06883141 -0.08518964 -0.009699782 0.106178455 0.13840055 0.17830278 -0.012341372
-0.11409127 0.02035889 -0.08383415 0.10067715
00000000: 4f2e 343d ffc9 bf3e 7185 a83e b28e ccbd
00000010: 4093 c6bd 7e77 09bd 6aec 0e3e fd1a bf3e
00000020: b027 b93d 7bf7 8c3d e877 aebd d6eb 1ebc
00000030: 1774 d93d e0b8 0d3e 0195 363e 7733 4abc
00000040: afa8 e9bd b0c7 a63c 3db1 abbd d22f ce3d

main.3.weight f4 [20]
0.9050518 0.8764745 0.87789744 0.9025024 0.91405153 0.901821 0.90265006 0.89189684
0.960024 0.93890727 0.90519744 0.942869 0.9122404 0.9327188 0.9281017 0.8603874
0.8874953 0.9422086 1.0071827 0.943779
00000000: 7ab1 673f a260 603f e3bd 603f 660a 673f
00000010: 48ff 693f bedd 663f 1314 673f 5a53 643f
00000020: 22c4 753f 3a5c 703f 05bb 673f dd5f 713f
00000030: 9688 693f a9c6 6e3f 1398 6d3f 5942 5c3f
00000040: e432 633f 9534 713f 5deb 803f 809b 713f

main.3.bias f4 [20]
-0.1057126 -0.03850114 -0.15761739 -0.12177488 -0.098451205 -0.12568167 -0.120090924 0.07846834
-0.09081266 -0.06677062 -0.13689135 -0.120080814 -0.011572925 -0.12723792 0.051550314 -0.05975769
-0.11653627 -0.10986331 -0.056381654 -0.09874845
00000000: d97f d8bd 5fb3 1dbd 7466 21be 1c65 f9bd
00000010: c9a0 c9bd b2b2 00be 3bf2 f5bd 02b4 a03d
00000020: fdfb b9bd 09bf 88bd 3f2d 0cbe eeec f5bd
00000030: 5e9c 3dbc a84a 02be 6c26 533d 7bc4 74bd
00000040: 91aa eebd 0400 e1bd 73f0 66bd a13c cabd

main.3.running_mean f4 [20]
0.37752178 0.53764725 0.47335652 0.19507676 0.17815018 0.2024726 0.3145163 0.4819811
0.3865596 0.22253585 0.25406885 0.14460707 0.32381004 0.38953704 0.4439834 0.32691863
0.16326374 0.25964776 0.22104456 0.25463876
00000000: 894a c13e 40a3 093f c95b f23e 34c2 473e
00000010: 006d 363e fa54 4f3e 4808 a13e 3ac6 f63e
00000020: 24eb c53e 70e0 633e 5015 823e e013 143e
00000030: 6eca a53e 6671 c73e cb51 e33e e161 a73e
00000040: 9c2e 273e 8df0 843e 8159 623e 0360 823e

main.3.running_var f4 [20]
0.42906988 0.15969025 0.2976981 0.18506517 0.20260163 0.181146 0.24476683 0.25776464
0.39979205 0.1947292 0.3479764 0.08458063 0.33218497 0.32853237 0.3003989 0.20626119
0.11356586 0.20063582 0.25024837 0.2233857
00000000: 0caf db3e d785 233e e36b 983e b981 3d3e
00000010: cd76 4f3e 567e 393e 28a4 7a3e baf9 833e
00000020: 8bb1 cc3e 1767 473e f629 b23e 9c38 ad3d
00000030: 2614 aa3e 6535 a83e e2cd 993e 2236 533e
00000040: 3895 e83d 7a73 4d3e 8e20 803e 39bf 643e

main.4.weight f4 [2048, 20]
0.15169394 0.10169343 0.14467269 -0.22274277 0.30745608 0.051033817 -0.3762483 0.02436906
-0.24124375 -0.03974385 -0.08258345 -0.11939101 0.2511537 0.043222547 0.014343322 0.27164686
0.28249213 -0.116000935 0.08969209 -0.19114012 -0.052902672 0.072067775 -0.13599145 0.14039
-0.097976066 -0.078948356 0.19616674 0.16727346 -0.055226505 -0.26137495 -0.120415606 0.2148902
-0.06999403 -0.25709683 0.2099981 -0.1953845 -0.015742583 -0.12081381 -0.15168597 -0.049741812
-0.19931437 -0.014118081 -0.0098642185 -0.08766995 -0.085604265 0.25496086 -0.13740657 0.101808436
-0.003320638 -0.14965864 -0.09722147 -0.014922292 0.19260816 0.11024989 -0.19963728 -0.15292004
-0.11674286 -0.32247975 -0.20988564 -0.076535515 0.17139561 0.02746604 -0.033564106 -0.23613995
-0.100108355 -0.32239082 0.10234117 -0.08118784 0.13505368 -0.19502102 -0.23121245 0.11820816
-0.01569281 -0.23135772 -0.08402654 0.25244623 0.13404444 0.016862899 0.06155208 -0.31216294
-0.05377032 -0.110868685 0.18127449 -0.009328504 0.07037861 0.016748058 -0.30440727 0.13948296
0.081015475 0.18795392 0.2569555 0.15026583 -0.2261764 -0.30009073 -0.022566816 -0.17508888
-0.1859715 0.014719424 -0.19470933 0.076596305 -0.2767133 0.2482164 -0.01733039 0.10351143
0.079126574 -0.0985753 0.13506398 0.19090022 -0.099324785 0.122078314 -0.13735524 -0.04864309
-0.1443284 0.13865283 0.152173 -0.21259388 -0.02876556 0.1323802 -0.0887247 -0.2902523
0.04914436 -0.17580059 0.2545522 -0.2462988 0.15914375 0.21179849 -0.007643692 -0.07868439
-0.010878982 0.3490525 -0.31249458 -0.045209035 -0.06499268 0.16406655 0.23757145 0.036457967
-0.2230628 -0.0792817 0.12742609 0.2682767 -0.04327737 0.13679199 -0.014763718 -0.07504497
-0.16112313 -0.108530864 -0.16788453 -0.055100698 -0.22010398 0.016409244 0.13223471 0.2006364
-0.098835126 0.15934995 -0.009111442 0.0640092 0.15230308 0.07914299 0.2854092 -0.14398958
-0.13556491 0.05582213 0.08016637 -0.3272741 -0.23813647 -0.060258046 0.044275936 0.22619368
0.20571655 -0.23416983 -0.017783174 -0.06419641 -0.20335752 -0.23433061 -0.09729105 0.10396498
-0.18608375 -0.08791334 0.038118925 -0.29961208 0.016957369 0.20236027 0.14708607 0.08442429
0.2707686 0.17285204 -0.28407392 0.083953544 -0.19898416 -0.03426972 0.09374512 0.0046762065
0.16342355 0.0591277 0.2934388 0.20169346 0.13288853 -0.08006321 -0.17205729 0.17492838
-0.16368198 -0.042352267 0.0029175305 0.08594757 0.021340383 0.022063503 0.10467122 -0.109353915
0.020279786 -0.27938944 -0.08954684 -0.19138318 0.045086455 0.22736846 0.030146958 -0.107953355
0.07798967 -0.2148353 0.07830559 0.07838934 -0.16384487 -0.05351287 -0.11622556 0.057591356
0.1306295 -0.2422117 -0.30792516 -0.08460916 0.051853016 0.32366687 -0.26680857 -0.27892756
0.0059001446 -0.32450625 -0.1700937 0.22325051 -0.18435067 0.0052487464 0.2683007 0.17800994
0.15766548 0.063809365 -0.020359177 -0.15578757 -0.23234853 0.19966242 -0.0010819671 0.25080755
-0.022712696 -0.22485663 0.10499382 -0.2209839 -0.044523936 -0.20605269 -0.077562265 0.06810474
00000000: a855 1b3e a544 d03d 1425 143e ae16 64be
00000010: e26a 9d3e d608 513d 9ea3 c0be 9fa1 c73c
00000020: 9a08 77be 72ca 22bd 8321 a9bd 4683 f4bd
00000030: 3897 803e 200a 313d 4100 6b3c 4c15 8b3e
00000040: cfa2 903e e691 edbd 7db0 b73d 3cba 43be
00000050: 79b0 58bd 4598 933d 5841 0bbe 65c2 0f3e
00000060: ada7 c8bd adaf a1bd efdf 483e bc49 2b3e
00000070: 3035 62bd f0d2 85be 759c f6bd 2d0c 5c3e
00000080: 0859 8fbd 32a2 83be be09 573e e012 48be
00000090: 97f6 80bc 3b6d f7bd 9153 1bbe 12be 4bbd
000000a0: 1119 4cbe 864f 67bc 889d 21bc 4e8c b3bd
000000b0: 4a51 afbd 3b8a 823e 4fb4 0cbe f180 d03d
000000c0: 109f 59bb 1d40 19be 0d1c c7bd a17c 74bc
000000d0: 133b 453e b2ca e13d b76d 4cbe 1297 1cbe
000000e0: e116 efbd 111c a5be 43ec 56be a7be 9cbd
000000f0: 5582 2f3e 7600 e13c 847a 09bd acce 71be
00000100: 9c05 cdbd 6910 a5be 3f98 d13d cf45 a6bd
00000110: 834b 0a3e 97b3 47be f5c2 6cbe 1f17 f23d
00000120: 358e 80bc 0ae9 6cbe 1b16 acbd a240 813e
00000130: f242 093e 1024 8a3c 091e 7c3d d2d3 9fbe
00000140: 443e 5cbd 1f0f e3bd 05a0 393e 95d6 18bc
00000150: a922 903d 3933 893c 45db 9bbe 9fd4 0e3e
00000160: 71eb a53d fe76 403e ac8f 833e 49df 193e
00000170: c99a 67be 7ea5 99be 0bde b8bc 804a 33be
00000180: 506f 3ebe bd29 713c e261 47be 86de 9c3d
00000190: 5ead 8dbe 712c 7e3e 76f8 8dbc cdfd d33d
000001a0: 1d0d a23d d9e1 c9bd 364e 0a3e 597b 433e
000001b0: cb6a cbbd 3204 fa3d daa6 0cbe fa3d 47bd
000001c0: d3ca 13be 02fb 0d3e 3dd3 1b3e 36b2 59be
000001d0: c0a5 ebbc ad8e 073e 4cb5 b5bd f39b 94be
000001e0: 994b 493d 1205 34be aa54 823e c135 7cbe
000001f0: 94f6 223e b4e1 583e f077 fabb 4825 a1bd
00000200: c23d 32bc 02b7 b23e 4aff 9fbe 1c2d 39bd
00000210: e21a 85bd 1001 283e ee45 733e f354 153d
00000220: 936a 64be 725e a2bd fc7b 023e 905b 893e
00000230: 9d43 31bd 3313 0c3e 85e3 71bc 2db1 99bd
00000240: 76fd 24be 6e45 debd ece9 2bbe 45b1 61bd
00000250: f062 61be ae6c 863c 8968 073e a173 4d3e
00000260: 126a cabd a22c 233e 2848 15bc 4117 833d
00000270: 57f5 1b3e b815 a23d 2821 923e 0172 13be
00000280: 87d1 0abe bfa5 643d 442e a43d 7990 a7be
00000290: 0cda 73be 24d1 76bd af5a 353d 519f 673e
000002a0: 5ca7 523e 37ca 6fbe 05ae 91bc 6879 83bd
000002b0: f43c 50be 5df4 6fbe 8840 c7bd 97eb d43d
000002c0: bd8c 3ebe e90b b4bd 9722 1c3d c166 99be
000002d0: 2eea 8a3c 8837 4f3e bb9d 163e a4e6 ac3d
000002e0: 2fa2 8a3e 2000 313e 2372 91be d6ef ab3d
000002f0: 81c2 4bbe 685e 0cbd 71fd bf3d dd3a 993b
00000300: 8158 273e e32f 723d 9c3d 963e bb88 4e3e
00000310: ee13 083e 2ef8 a3bd c92f 30be 6d20 333e
00000320: 409c 27be 9279 2dbd 0a34 3f3b 4805 b03d
00000330: 07d2 ae3c 85be b43c dd5d d63d f2f4 dfbd
00000340: cb21 a63c 220c 8fbe 5564 b7bd f4f9 43be
00000350: 93ac 383d 47d3 683e c1f6 f63c a616 ddbd
00000360: 0cb9 9f3d c9fd 5bbe ae5e a03d 978a a03d
00000370: f3c6 27be 5030 5bbd ab07 eebd eae4 6b3d
00000380: bdc3 053e 5806 78be 5ea8 9dbe 9147 adbd
00000390: d463 543d aab7 a53e 229b 88be 98cf 8ebe
000003a0: 0056 c13b af25 a6be 0b2d 2ebe c89b 643e
000003b0: 6cc6 3cbe adfd ab3b b65e 893e 3d48 363e
000003c0: 0f73 213e 7cae 823d 4ac8 a6bc c786 1fbe
000003d0: c6ec 6dbe 4e74 4c3e cbd0 8dba d969 803e
000003e0: fa0f babc d140 66be 0007 d73d 9a49 62be
000003f0: bb5e 36bd 7aff 52be f7d8 9ebd 7f7a 8b3d

main.4.bias f4 [2048]
-0.041177478 0.24818546 0.14893863 -0.0540427 0.19862488 -0.004858265 0.11955167 0.05243704
0.16248353 0.12705427 0.1921297 0.0001719203 -0.06602852 0.13628684 0.2003872 -0.016149048
0.060948372 0.028413046 0.08137522 0.3066601 0.26807263 0.15771313 0.09455261 0.0672807
0.26271558 -0.036503255 0.05651822 0.2672062 0.28153238 -0.067245334 0.0880182 -0.025695696
0.03258919 -0.011507361 0.046276066 0.13803133 0.12545326 0.23875019 0.30505043 0.09563838
0.04346206 -0.1151088 -0.060459822 -0.057240933 0.27305526 0.27240032 -0.03192257 0.12678275
0.07442526 0.13571145 0.23652002 0.06870888 0.2772038 -0.028497942 -0.01211305 0.30391443
0.043016322 0.18023264 0.074356794 -0.0706734 0.31654778 0.12027365 0.2115215 -0.11092735
-0.30518436 -0.31450304 0.028096188 -0.00021216446 -0.09176918 -0.23772973 -0.2908713 0.025564779
-0.16846205 -0.2748435 0.064635396 -0.10053218 -0.06517373 -0.1090729 -0.1071012 -0.019435976
0.095749415 -0.075680204 -0.30670652 -0.17669319 -0.27599952 0.01401133 -0.12185456 -0.273115
-0.30697525 -0.03621771 0.0019720844 -0.062278695 -0.124855414 0.07221641 -0.14401937 -0.2657962
0.07372007 -0.070266046 0.0044879285 0.016052753 0.08005235 -0.15953787 0.04069439 0.010962008
-0.015189436 0.09367379 -0.06421744 -0.29818046 -0.040431105 -0.18963937 -0.0012232969 -0.24689116
-0.27561426 0.022066128 -0.28631678 -0.014495351 -0.24229568 -0.08304224 -0.15506367 0.03654439
-0.22906642 -0.31844202 -0.18669729 -0.29213357 -0.16146325 0.12271178 0.061473157 0.03572719
0.046810113 0.26687756 0.09410964 0.22951916 0.12101505 0.042824756 0.21585864 0.18533453
-0.013071869 0.074253865 0.3588166 0.040551305 0.12212804 0.22883359 -0.040994752 0.33740425
0.13206445 0.19766116 0.03848187 0.061005227 -0.04968091 -0.011434815 -0.019534094 0.27571988
-0.015696416 0.32703602 0.19009005 -0.091288865 -0.055762645 0.097571746 0.13816036 0.14981471
0.17147091 0.07938436 0.06544642 -0.075097464 0.10529579 0.19936989 0.21972543 0.16145112
0.06389594 0.032961138 0.049942516 0.09668717 0.11282283 0.28031653 0.17646858 -0.032001927
-0.085441105 0.28452548 0.33522794 0.008314122 0.010494483 0.11995441 0.13077308 0.25517115
-0.083132565 0.09217321 0.24257323 0.13185869 0.02484973 0.33676463 0.28972673 -0.027794149
-0.29353824 -0.030529922 -0.058430076 -0.06501435 -0.035477486 0.10019628 -0.090336666 0.16343077
0.22004971 0.025845854 -0.0741206 -0.0035756628 -0.008062034 -0.010281952 0.16734582 0.10602862
0.07099373 0.18692021 -0.07445908 0.19624521 0.19006117 0.055405214 -0.08009124 -0.04782141
-0.081357464 -0.089387126 0.2902175 0.0077847657 0.26711875 -0.045551326 -0.050375033 0.24085641
0.07952025 0.22119848 -0.09110959 0.24478658 -0.087702185 -0.08728478 0.22925225 0.07346286
0.1955041 0.16908891 -0.013731681 0.081367716 -0.00893063 0.13036229 0.037760224 -0.029881876
0.1699054 -0.12483233 -0.02277001 0.0027816484 0.16734909 0.12513623 0.09291422 0.16582793
-0.09371994 -0.13421023 0.14253344 -0.09381205 -0.08880582 0.25468695 -0.1103697 -0.17711043
00000000: b7a9 28bd 5424 7e3e 5e83 183e e15b 5dbd
00000010: 5264 4b3e 1532 9fbb 82d7 f43d 39c8 563d
00000020: 1562 263e 841a 023e a6bd 443e 8145 3439
00000030: f639 87bd c78e 0b3e 4d32 4d3e 024b 84bc
00000040: 00a5 793d 7ac2 e83c 0da8 a63d 8d02 9d3e
00000050: d140 893e 8d7f 213e cca4 c13d 77ca 893d
00000060: a882 863e 7084 15bd a67f 673d 40cf 883e
00000070: 0325 903e ecb7 89bd e342 b43d c87f d2bc
00000080: 3e7c 053d 5f89 3cbc f98b 3d3d 1658 0d3e
00000090: d276 003e ee7a 743e 922f 9c3e 0ede c33d
000000a0: 4605 323d 2abe ebbd b8a4 77bd 7875 6abd
000000b0: e6cd 8b3e 0e78 8b3e 3ec1 02bd 56d3 013e
000000c0: 456c 983d f1f7 0a3e 4e32 723e 3eb7 8c3d
000000d0: a8ed 8d3e 8474 e9bc d075 46bc ac9a 9b3e
000000e0: e231 303d e88e 383e 6048 983d 37bd 90bd
000000f0: 8d12 a23e 0852 f63d 1899 583e e12d e3bd
00000100: 2041 9cbe 8b06 a1be fa29 e63c 7778 5eb9
00000110: 7bf1 bbbd 6c6f 73be 15ed 94be 3a6d d13c
00000120: 5181 2cbe 4ab8 8cbe 905f 843d d1e3 cdbd
00000130: ce79 85bd 9d61 dfbd e057 dbbd 3238 9fbc
00000140: 4518 c43d 39fe 9abd a308 9dbe 0fef 34be
00000150: cf4f 8dbe c78f 653c e28e f9bd bbd5 8bbe
00000160: dc2b 9dbe 0559 14bd 163e 013b f217 7fbd
00000170: 32b4 ffbd 32e6 933d d079 13be 7116 88be
00000180: 8cfa 963d a5e7 8fbd 790f 933b 1081 833c
00000190: 7df2 a33d e55d 23be 29af 263d fe99 333c
000001a0: 1ddd 78bc 0bd8 bf3d 6f84 83bd 1cab 98be
000001b0: 169b 25bd d330 42be 0857 a0ba 09d1 7cbe
000001c0: 501d 8dbe 06c4 b43c 1d98 92be e97d 6dbc
000001d0: 5c1c 78be 0d12 aabd 03c9 1ebe 92af 153d
000001e0: 6390 6abe d50a a3be 932d 3fbe 8892 95be
000001f0: 9f56 25be 5050 fb3d 47cb 7b3d ad56 123d
00000200: f6bb 3f3d 2da4 883e 8ebc c03d 1207 6b3e
00000210: bdd6 f73d 0369 2f3d 0c0a 5d3e 56c8 3d3e
00000220: 642b 56bc 6912 983d cfb6 b73e 2019 263d
00000230: 441e fa3d 5a53 6a3e 1dea 27bd 40c0 ac3e
00000240: e73b 073e b067 4a3e 2a9f 1d3d 9ee0 793d
00000250: 367e 4bbd 1759 3bbc f705 a0bc 282b 8d3e
00000260: c595 80bc 4471 a73e f7a6 423e a8f5 babd
00000270: 5f67 64bd b2d3 c73d e979 0d3e 0769 193e
00000280: 1296 2f3e 4494 a23d c608 863d b3cc 99bd
00000290: 52a5 d73d 9f27 4c3e b4ff 603e 7153 253e
000002a0: e0db 823d 4202 073d 8690 4c3d ec03 c63d
000002b0: a80f e73d a685 8f3e 2eb4 343e 7414 03bd
000002c0: bffb aebd 53ad 913e ffa2 ab3e f537 083c
000002d0: 0df1 2b3c a8aa f53d 61e9 053e cba5 823e
000002e0: 6841 aabd 4fc5 bc3d 1e65 783e f705 073e
000002f0: a991 cb3c 6a6c ac3e 1057 943e 8eb0 e3bc
00000300: a54a 96be e319 fabc 6054 6fbd 3e26 85bd
00000310: d750 11bd b533 cd3d 6e02 b9bd 655a 273e
00000320: b654 613e afba d33c 8bcc 97bd ab55 6abb
00000330: 9f16 04bc a275 28bc b45c 2b3e 8825 d93d
00000340: 2965 913d 0368 3f3e 017e 98bd 81f4 483e
00000350: 659f 423e 94f0 623d e006 a4bd 62e0 43bd
00000360: be9e a6bd 9910 b7bd 6397 943e 5917 ff3b
00000370: cac3 883e 0794 3abd 0d56 4ebd 10a3 763e
00000380: 83db a23d db81 623e aa97 babd 55a9 7a3e
00000390: 349d b3bd 5dc2 b2bd 1ac1 6a3e b273 963d
000003a0: 3a32 483e a525 2d3e d8fa 60bc 1ea4 a63d
000003b0: c751 12bc b17d 053e 77aa 1a3d d6ca f4bc
000003c0: aefb 2d3e 18a8 ffbd 2c88 babc 514c 363b
000003d0: 8f5d 2b3e b623 003e d049 be3d ccce 293e
000003e0: 3df0 bfbd 686e 09be 49f4 113e 8820 c0bd
000003f0: d3df b5bd 5466 823e 8209 e2bd 705c 35be

conv.0.weight f4 [20, 1, 5, 5]
0.046594776 -0.03320095 -0.23678814 -0.14258349 -0.04689339 0.11928358 -0.036134902 0.12091964
-0.055228516 0.08095872 -0.10420631 -0.19861832 0.031123247 -0.08563181 -0.0476806 0.1434213
0.114743896 0.24430679 -0.0994672 0.11319427 -0.12539507 -0.02423956 -0.1116152 0.03932593
0.19049434 -0.18188392 0.060589943 -0.1237026 0.0570194 -0.15788126 -0.2217628 0.03262508
-0.1459532 -0.19634597 -0.032686144 -0.16783823 -0.1666168 0.037356544 -0.1135243 0.028112449
0.015840694 -0.080106415 -0.13283579 -0.06115952 0.0035218473 -0.24841386 -0.025861004 -0.12852886
-0.19346735 0.05603452 -0.026640069 -0.02546412 0.06294015 0.16309176 0.085194655 -0.124480024
-0.08416319 -0.018778006 0.16167124 0.00975729 0.0063292673 -0.0016624015 -0.037322097 -0.0067181606
0.0658721 0.10565795 0.06315472 0.1770484 0.15108395 0.19235097 -0.10649513 -0.043421064
-0.055744417 -0.0594803 -0.14302409 -0.018474262 -0.11850047 -0.14017391 0.05197057 -0.14958245
-0.111277334 0.042218376 0.09790487 -0.0047816844 -0.11328913 0.033151675 -0.0007820317 0.1764285
0.032863755 0.13128798 -0.28434932 -0.11987803 -0.2429918 -0.05015232 0.036474094 -0.19421908
-0.1776091 -0.16521636 -0.25807497 -0.12673879 0.15131767 0.09875936 0.25377038 -0.13362648
-0.08996085 -0.06674246 -0.033079743 0.010118352 0.13962947 0.10222786 -0.084787935 0.03348466
0.20985171 0.030453922 0.085701525 0.025337236 0.22541597 0.08443001 0.24968328 0.11995378
-0.12229222 -0.07893634 -0.094344564 0.13578646 0.097617246 -0.24924763 -0.24127398 -0.30572468
-0.16965567 -0.16354556 -0.081305586 -0.18521577 -0.02025568 -0.19440663 -0.14724351 0.0619151
0.053674847 0.028503934 0.018798707 -0.04253731 -0.027186496 0.04658686 -0.094424434 -0.11488677
-0.1192994 0.04240085 0.19112028 0.15772402 0.10172969 0.01923361 -0.038768023 0.016067332
0.16656512 0.12416326 0.15079749 0.08363328 0.28600538 0.16890973 0.002066618 0.12599446
-0.11489697 -0.05889221 0.13749814 0.063926905 -0.09940715 -0.20699903 -0.20674454 -0.03188593
0.030689249 0.028612996 0.1793963 0.23121402 0.12910019 0.007585326 0.11230884 0.07452293
0.12599751 0.098553106 0.11350363 0.13617225 0.09211703 0.18759227 0.22857565 0.18002392
0.042844538 0.092581645 0.050803635 -0.017372064 0.093470156 0.11500063 0.0012455073 -0.02722758
0.016875073 0.0006463271 0.0069331108 0.07357735 0.13163127 0.18123615 0.18939573 0.12901177
0.030674664 0.09422248 0.03606263 0.06270684 0.07362118 0.029622609 0.16531374 0.07662923
0.034770224 -0.0020488552 0.05491738 0.24131243 0.11629642 0.25076693 0.21139993 0.055134982
0.074600995 0.097909436 0.044397585 0.056976948 0.12047562 0.10858102 0.10592567 0.04900113
0.0033126876 -0.056429632 0.090646006 -0.16789852 0.08557515 -0.12651834 0.24874957 0.125974
-0.14173518 -0.09284361 0.16483264 0.0282299 -0.022522064 -0.14124092 0.14018369 -0.043281432
0.10638353 0.23783861 0.065069124 -0.123230614 -0.018430663 -0.054133113 -0.11883824 0.09599649
-0.06668435 0.030819744 0.088302664 -0.07300201 0.33032945 -0.17019147 0.16634892 -0.027516361
00000000: 2ada 3e3d b8fd 07bd 9778 72be 6801 12be
00000010: 4913 40bd f34a f43d 3102 14bd b7a4 f73d
00000020: 4c37 62bd afcd a53d 1e6a d5bd 9a62 4bbe
00000030: 2ef6 fe3c bb5f afbd bc4c 43bd 09dd 123e
00000040: d9fe ea3d 8f2b 7a3e 76b5 cbbd 66d2 e73d
00000050: 9167 00be 0b92 c6bc 8396 e4bd 3a14 213d
00000060: f310 433e c73f 3abe 292d 783d ca57 fdbd
00000070: 2d8d 693d a0ab 21be ca15 63be e0a1 053d
00000080: c174 15be eb0e 49be e8e1 05bd c9dd 2bbe
00000090: 989d 2abe 2d03 193d 6e7f e8bd 144c e63c
000000a0: 58c4 813c d50e a4bd 1b06 08be 6882 7abd
000000b0: cbce 663b 3460 7ebe 75da d3bc 129d 03be
000000c0: 4e1c 46be 7484 653d 463c dabc 219a d0bc
000000d0: c4e6 803d 8701 273e 897a ae3d 62ef febd
000000e0: c05d acbd 55d4 99bc 258d 253e 0add 1f3c
000000f0: be65 cf3b f0e4 d9ba 0edf 18bd 0424 dcbb
00000100: f4e7 863d 3263 d83d 4357 813d 2d4c 353e
00000110: c0b5 1a3e a7f7 443e 1e1a dabd 49da 31bd
00000120: 4254 64bd 9da1 73bd e874 12be 5657 97bc
00000130: 60b0 f2bd c089 0fbe 18df 543d 242c 19be
00000140: 5fe5 e3bd 2ded 2c3d 5982 c83d adaf 9cbb
00000150: 2204 e8bd 0dca 073d 4201 4dba aca9 343e
00000160: 259c 063d 5b70 063e 3c96 91be 9d82 f5bd
00000170: d8d2 78be 856c 4dbd dc65 153d 5ee1 46be
00000180: 29df 35be 7a2e 29be 6722 84be d0c7 01be
00000190: 05f3 1a3e 5942 ca3d 31ee 813e 61d5 08be
000001a0: 653d b8bd 45b0 88bd a07e 07bd 72c7 253c
000001b0: 07fb 0e3e d75c d13d 4ca5 adbd 3627 093d
000001c0: 5ee3 563e 817a f93c 4884 af3d 0990 cf3c
000001d0: 72d3 663e a4e9 ac3d f9ac 7f3e 54aa f53d
000001e0: 5874 fabd 60a9 a1bd b937 c1bd 9b0b 0b3e
000001f0: 8deb c73d c53a 7fbe 8710 77be f287 9cbe
00000200: 37ba 2dbe 7d78 27be 8b83 a6bd 34a9 3dbe
00000210: 3def a5bc 8812 47be 01c7 16be b09a 7d3d
00000220: 28da 5b3d 1581 e93c bfff 993c 9a3b 2ebd
00000230: 37b6 debc ddd1 3e3d 9961 c1bd c149 ebbd
00000240: 3e53 f4bd 84ac 2d3d 09b5 433e 6882 213e
00000250: a857 d03d ce8f 9d3c 38cb 1ebd a39f 833c
00000260: 0c90 2a3e 4f49 fe3d a86a 1a3e ed47 ab3d
00000270: 4c6f 923e acf6 2c3e 1970 073b b104 013e
00000280: 1a4f ebbd f538 71bd 50cc 0c3e 1cec 823d
00000290: fa95 cbbd 8ef7 53be d7b4 53be d29a 02bd
000002a0: 0568 fb3c cd65 ea3c aab3 373e 5ec3 6c3e
000002b0: d732 043e 548e f83b 2d02 e63d 7a9f 983d
000002c0: 7e05 013e 36d6 c93d 9774 e83d bd70 0b3e
000002d0: daa7 bc3d 3018 403e bc0f 6a3e 3158 383e
000002e0: c17d 2f3d 729b bd3d 7917 503d dc4f 8ebc
000002f0: 486d bf3d 7385 eb3d 4a40 a33a 600c dfbc
00000300: 983d 8a3c 476e 293a 262f e33b b9af 963d
00000310: 59ca 063e f895 393e f4f0 413e a91b 043e
00000320: 6f49 fb3c b7f7 c03d 69b6 133d 726c 803d
00000330: b4c6 963d 1dab f23c 0148 293e c9ef 9c3d
00000340: 396b 0e3d 1646 06bb 0cf1 603d 9b1a 773e
00000350: d12c ee3d 8664 803e 3979 583e 38d5 613d
00000360: 68c8 983d be84 c83d 3eda 353d a960 693d
00000370: ecbb f63d ba5f de3d 8fef d83d 69b5 483d
00000380: ad19 593b c222 67bd 9da4 b93d 97ed 2bbe
00000390: 0642 af3d 068e 01be 35b8 7e3e 54ff 003e
000003a0: 0723 11be ca24 bebd e3c9 283e 6442 e73c
000003b0: 3180 b8bc 76a1 10be 508c 0f3e df47 31bd
000003c0: 9cdf d93d f78b 733e f642 853d 5560 fcbd
000003d0: e7fb 96bc afba 5dbd 7761 f3bd cf99 c43d
000003e0: ce91 88bd b079 fc3c 07d8 b43d 1482 95bd
000003f0: f120 a93e ac46 2ebe 5f57 2a3e fe69 e1bc

conv.0.bias f4 [20]
0.017413443 -0.07408947 0.10115156 0.12577248 0.14471968 0.11141273 -0.07080972 0.0335895
0.08839368 -0.05920734 0.22583315 0.10841866 -0.23710723 0.13567942 -0.28826725 0.12771866
-0.046964563 -0.11219838 -0.021188235 -0.21369886
00000000: a3a6 8e3c 38bc 97bd 8d28 cf3d 80ca 003e
00000010: 6531 143e 5b2c e43d b004 91bd 2595 093d
00000020: bf07 b53d 6583 72bd ce40 673e 9a0a de3d
00000030: 3dcc 72be 8cef 0a3e c497 93be aec8 023e
00000040: ea5d 40bd 44c8 e5bd f392 adbc e0d3 5abe

conv.2.weight f4 [20]
0.9008138 0.930173 1.0723157 1.1102242 1.0165908 1.2395717 0.93367803 1.1914917
1.1455903 0.9209891 1.0036154 1.1093267 1.1001889 1.1261728 1.1413126 1.1480794
1.0290103 1.0650133 1.1130816 1.1473314
00000000: bc9b 663f d11f 6e3f a441 893f d41b 8e3f
00000010: a61f 823f 49aa 9e3f 8605 6f3f cd82 983f
00000020: b4a2 923f f1c5 6b3f 7876 803f 6bfe 8d3f
00000030: fdd2 8c3f 6e26 903f 8816 923f 44f4 923f
00000040: 9cb6 833f 5b52 883f 7579 8e3f c1db 923f

conv.2.bias f4 [20]
0.12381084 0.13452838 0.13306601 -0.12378312 0.13212469 0.2367246 0.13301167 0.26586792
0.12568131 0.12714292 0.12415574 0.12361174 -0.12387926 -0.1337701 -0.1373955 0.1466149
0.13366799 0.14527044 -0.13465963 -0.1341594
00000000: 8a90 fd3d cfc1 093e 7542 083e 0182 fdbd
00000010: b24b 073e ef67 723e 3634 083e d71f 883e
00000020: 9ab2 003e c131 023e 5d45 fe3d 2728 fd3d
00000030: 69b4 fdbd 07fb 08be 68b1 0cbe 3722 163e
00000040: 43e0 083e c6c1 143e 37e4 09be 1561 09be

conv.2.running_mean f4 [20]
0.059737243 -0.103540525 0.2119344 -0.030935865 0.43274462 -0.021872541 0.21599397 0.5285224
0.56094736 0.06418651 0.49160343 0.017834613 0.034359228 -0.021651726 0.055017963 0.4877793
-0.09595127 -0.10719025 0.11345127 0.11306581
00000000: 0aaf 743d 0e0d d4bd 5505 593e 366d fdbc
00000010: b490 dd3e 0b2e b3bc 862d 5d3e 3e4d 073f
00000020: 3f9a 0f3f 3874 833d 72b3 fb3e e519 923c
00000030: 43bc 0c3d f65e b1bc 845a 613d 35be f93e
00000040: 1982 c4bd 9086 dbbd 2459 e83d 0c8f e73d

conv.2.running_var f4 [20]
0.01876795 0.0020125974 0.018501164 0.005322212 0.03906103 0.0080164485 0.031088244 0.028711414
0.029632462 0.019801332 0.05654782 0.009678724 0.01473658 0.005298352 0.0056746793 0.022051815
0.00349526 0.0034320098 0.023033088 0.0113625275
00000000: 3ebf 993c c8e5 033b c18f 973c f365 ae3b
00000010: 75fe 1f3d 6c57 033c c6ac fe3c 3334 eb3c
00000020: c7bf f23c 6736 a23c b09e 673d 8393 1e3c
00000030: b271 713c cc9d ad3b a9f2 b93b 02a6 b43c
00000040: bb10 653b 92eb 603b e3af bc3c e529 3a3c

conv.3.weight f4 [1, 20, 5, 5]
-0.12920684 -0.14921898 -0.15496603 -0.10601551 -0.13155967 -0.1411189 -0.1472853 -0.16464306
-0.11702679 -0.12039537 -0.16809498 -0.11533632 -0.0834556 -0.14515452 -0.09693854 -0.122190505
-0.16260046 -0.123810865 -0.12596357 -0.18597081 -0.12500428 -0.10087962 -0.06477303 -0.09560615
-0.104632646 -0.14181766 -0.10762651 -0.15807612 -0.07537565 -0.10259805 -0.07962569 -0.14341052
-0.12888308 -0.15098274 -0.12222885 -0.109057724 -0.14354964 -0.15253586 -0.12997077 -0.13779515
-0.15213141 -0.11493333 -0.11057165 -0.15884215 -0.09998527 -0.111405805 -0.0772893 -0.16077192
-0.08551416 -0.08141913 -0.1536752 -0.115988016 -0.09793806 -0.08825645 -0.09175372 -0.1713307
-0.12507614 -0.12058587 -0.062522985 -0.08927119 -0.12318019 -0.08256924 -0.13963735 -0.14056632
-0.107935205 -0.16536629 -0.11400964 -0.15918322 -0.14999913 -0.15499617 -0.12630731 -0.1491942
-0.07189657 -0.12998535 -0.14428222 0.17568715 0.17247295 0.10255976 0.16669579 0.12261935
0.081587546 0.093260415 0.098407224 0.07289198 0.1283482 0.137963 0.078015946 0.10947425
0.07732503 0.07378518 0.14345495 0.08393244 0.11061253 0.12836818 0.12778924 0.17010939
0.1355885 0.18402088 0.102160014 0.14737408 -0.15414242 -0.139624 -0.15295847 -0.07844084
-0.15162715 -0.14265819 -0.10570104 -0.13292116 -0.18091306 -0.13410375 -0.14694937 -0.07091504
-0.070964165 -0.12108396 -0.109993644 -0.14197735 -0.08942448 -0.10502249 -0.099002466 -0.10281113
-0.16139069 -0.1205587 -0.15640233 -0.093722306 -0.103596985 -0.20921485 -0.27043533 -0.23474713
-0.11199319 -0.19387025 -0.209624 -0.1933794 -0.22414489 -0.17364709 -0.21491563 -0.17252709
-0.12980914 -0.19898789 -0.13039997 -0.15072116 0.114258714 0.07465968 0.056831095 0.107088886
0.07399718 0.151964 0.14467631 0.121813394 0.10365528 0.09797442 -0.13477662 -0.13378242
-0.10109614 -0.10444592 -0.1059118 -0.13908656 -0.16229862 -0.12027238 -0.16226931 -0.13392764
-0.14206994 -0.0669914 -0.10578318 -0.08766114 -0.10374477 -0.07506805 -0.12131577 -0.019798882
-0.15616243 -0.11815513 -0.10438528 -0.110395946 -0.1512057 -0.14699441 -0.17111687 -0.19636972
-0.17235672 -0.025762456 -0.20219581 -0.16860755 -0.18129739 -0.17584701 -0.022589806 -0.22783625
-0.1355222 -0.07716177 0.09107443 0.11981229 0.002394146 -0.032450464 -0.10455134 -0.009062555
0.0882906 -0.04580006 -0.08225842 -0.14750645 -0.19251528 -0.1165963 -0.15623237 -0.19437921
-0.11955202 -0.14209805 -0.15640348 -0.15795639 -0.117422715 -0.15170921 -0.092857845 -0.1491981
-0.17032084 -0.1549855 -0.09291482 0.054757915 0.10349029 0.00568441 -0.106073335 -0.0860663
-0.1348 -0.010603361 -0.08883603 -0.10413817 -0.1538753 -0.1381209 -0.14738506 -0.16213858
-0.14431666 -0.14486106 -0.1345739 -0.11831254 -0.14153758 -0.13197401 -0.0916542 -0.12868296
-0.079343215 -0.1493748 -0.09127108 -0.09441135 -0.13607426 -0.12998196 -0.1271198 -0.12653075
-0.18051367 -0.10648602 -0.10435385 -0.18697777 -0.18465047 -0.13801178 -0.16714741 -0.08326305
-0.111454435 -0.12881096 -0.15344681 -0.1072255 -0.111467846 -0.15948476 -0.12609573 -0.10558975
00000000: cc4e 04be dccc 18be 6aaf 1ebe a91e d9bd
00000010: 94b7 06be 7981 10be f5d1 16be 3198 28be
00000020: beab efbd d991 f6bd 1721 2cbe 7335 ecbd
00000030: c5ea aabd 63a3 14be b787 c6bd 043f fabd
00000040: bc80 26be 8d90 fdbd 98fc 00be 226f 3ebe
00000050: 1f01 00be f999 cebd b9a7 84bd 28cd c3bd
00000060: a449 d6bd a638 11be 4a6b dcbd b5de 21be
00000070: 8c5e 9abd ed1e d2bd cb12 a3bd 35da 12be
00000080: edf9 03be 389b 1abe 1f53 fabd a859 dfbd
00000090: adfe 12be 5c32 1cbe 0f17 05be 2c1a 0dbe
000000a0: 56c8 1bbe 2a62 ebbd 6473 e2bd 84a7 22be
000000b0: 14c5 ccbd ba28 e4bd da49 9ebd 65a1 24be
000000c0: 0c22 afbd 13bf a6bd 085d 1dbe 208b edbd
000000d0: c093 c8bd ccbf b4bd 60e9 bbbd 5171 2fbe
000000e0: f613 00be baf5 f6bd 0d0c 80bd d0d3 b6bd
000000f0: e545 fcbd 101a a9bd 18fd 0ebe 9ef0 0fbe
00000100: 220d ddbd c855 29be e37d e9bd ed00 23be
00000110: 5f99 19be 51b7 1ebe b456 01be 5dc6 18be
00000120: 823e 93bd e11a 05be b8be 13be 55e7 333e
00000130: c09c 303e da0a d23d 4db2 2a3e db1f fb3d
00000140: 5f17 a73d 51ff be3d ba89 c93d 6448 953d
00000150: b66d 033e 2c46 0d3e d3c6 9f3d 0934 e03d
00000160: 965c 9e3d af1c 973d dbe5 123e c5e4 ab3d
00000170: d288 e23d f372 033e 2fdb 023e 2831 2e3e
00000180: b6d7 0a3e f86f 3c3e 4539 d13d 3be9 163e
00000190: 83d7 1dbe 98f9 0ebe 25a1 1cbe 97a5 a0bd
000001a0: 2644 1bbe fd14 12be c979 d8bd 7c1c 08be
000001b0: 4641 39be 7e52 09be e579 16be e83b 91bd
000001c0: a955 91bd defa f7bd 5944 e1bd 8362 11be
000001d0: 2f24 b7bd 0816 d7bd cec1 cabd a48e d2bd
000001e0: 9a43 25be 7be7 f6bd ef27 20be 7bf1 bfbd
000001f0: a82a d4bd 6b3c 56be 8076 8abe 8d61 70be
00000200: b05c e5bd ec85 46be ada7 56be 4005 46be
00000210: 3d86 65be 8bd0 31be d812 5cbe f1aa 30be
00000220: b0ec 04be 7bc3 4bbe 9287 05be a656 1abe
00000230: 7900 ea3d 2de7 983d b9c7 683d 6b51 db3d
00000240: d58b 973d 739c 1b3e 0726 143e 4d79 f93d
00000250: 3849 d43d d0a6 c83d e202 0abe 42fe 08be
00000260: 7e0b cfbd bee7 d5bd 49e8 d8bd b56c 0ebe
00000270: 9c31 26be 5e51 f6bd ed29 26be 5424 09be
00000280: c87a 11be ca32 89bd daa4 d8bd af87 b3bd
00000290: 2378 d4bd 47bd 99bd 6774 f8bd 4431 a2bc
000002a0: 0be9 1fbe 51fb f1bd f3c7 d5bd 4517 e2bd
000002b0: abd5 1abe b485 16be 4339 2fbe 2515 49be
000002c0: 487e 30be c90b d3bc 6b0c 4fbe 75a7 2cbe
000002d0: 06a6 39be 3d11 34be 420e b9bc e84d 69be
000002e0: 55c6 0abe fd06 9ebd 3b85 ba3d 2560 f53d
000002f0: 1be7 1c3b c7ea 04bd 031f d6bd 1c7b 14bc
00000300: b4d1 b43d d898 3bbd 1a77 a8bd ee0b 17be
00000310: ba22 45be 0aca eebd 61fb 1fbe 580b 47be
00000320: b1d7 f4bd 2782 11be 3c28 20be 52bf 21be
00000330: 527b f0bd a959 1bbe 412c bebd 63c7 18be
00000340: 9668 2ebe 85b4 1ebe 204a bebd d649 603d
00000350: b8f2 d33d 4a44 ba3b fa3c d9bd 8743 b0bd
00000360: 0309 0abe b8b9 2dbc aaef b5bd 6546 d5bd
00000370: 7d91 1dbe 916f 0dbe 1cec 16be a807 26be
00000380: bfc7 13be 7556 14be becd 09be d84d f2bd
00000390: 3aef 10be 3224 07be 32b5 bbbd 77c5 03be
000003a0: b27e a2bd b5f5 18be 55ec babd bd5a c1bd
000003b0: 0d57 0bbe fe19 05be b12b 02be 4791 01be
000003c0: 93d8 38be 5815 dabd 79b7 d5bd 1a77 3fbe
000003d0: 0315 3dbe f652 0dbe b128 2bbe d185 aabd
000003e0: 3942 e4bd 05e7 03be 2921 1dbe 0b99 dbbd
000003f0: 4149 e4bd f94f 23be 3d1f 01be 703f d8bd
